logs/rsl_rl/franka_reach/2025-06-26_19-51-50/model_850.pt (torch, 172795 bytes, 36 tensors)

std f4 [7]
0.06739415 0.040231396 0.05285805 0.03075806 0.03990667 0.045240156 0.04708153
00000000: f205 8a3d adc9 243d af81 583d 54f8 fb3c
00000010: 2d75 233d be4d 393d 90d8 403d

actor.0.weight f4 [64, 32]
-0.1928752 0.15921465 -0.20260729 0.11241985 0.27529433 0.07907482 0.48637038 0.32167438
0.6043116 -0.012289753 -0.107450776 0.08502135 0.08343528 0.063776754 0.043913882 0.07828123
-0.015650744 -0.30240452 -0.2467883 -1.9832855 0.3361662 -0.023076704 -1.4727172 0.53136563
-0.1486351 -0.09463982 -0.18720545 -0.17518589 -0.0043780655 -0.13611628 0.054126058 0.17768519
0.36495057 0.26101804 0.34845114 0.97229034 0.51351404 0.48716465 -0.103620395 -0.19794448
0.020010058 0.09808426 -0.025044221 0.105656445 0.09493 -0.030256394 -0.0694432 0.096923664
-0.22064283 0.15736827 -0.7994308 -1.2919987 -0.092873685 0.14546181 0.36632818 0.03132973
0.05691455 -0.009877412 0.2178926 -0.09775558 -0.0760855 -0.06993506 0.09338706 -0.107906885
0.97653455 0.12504679 0.908707 -0.50809366 -0.074380115 -0.12859574 0.2825928 0.38392362
0.6158591 -0.16976282 0.054147735 -0.21704614 -0.012652558 -0.026947146 0.07752457 0.08038274
0.15170418 -0.102974 0.33479518 -0.74910057 0.6140634 -0.03993158 -0.082981974 -0.23960556
-0.088513024 0.04070865 0.24388239 0.005151853 0.1807801 0.111799136 -0.26816985 -0.13776782
-0.16790454 -0.16069712 0.19195408 -0.082484335 0.059257228 0.32619497 0.32601085 -0.19508211
0.042317163 -0.052126545 -0.03681656 -0.082186975 -0.09180659 -0.1592848 0.061680637 -0.018977081
0.54005146 -0.27386442 -1.0000545 0.08576763 0.7792125 -0.15743376 -0.47798172 -0.016086187
-0.0008416568 0.30841756 0.17011118 -0.16170155 0.0044435663 -0.21608141 -0.18116963 -0.12885064
-0.08472467 -0.0023168644 0.027716499 0.29679552 -0.38046268 0.735713 -0.14674303 -0.13381194
-0.11882957 -0.04699363 -0.019120099 -0.0356515 -0.058617853 0.06881379 0.022786714 -0.1634432
0.18463667 0.80015314 -0.2975801 0.51471806 1.0395715 -0.13801259 -0.03880218 -0.6772887
-0.016960202 -0.48208138 0.3571083 0.07654773 -0.06646849 0.09747067 -0.11894467 0.049284216
0.12599218 -0.2921337 -0.3277653 -0.12426418 0.14496562 0.12745278 0.04597541 0.26830503
0.17275223 -0.13094942 -0.25828856 -0.07573143 0.186724 -0.047196504 -0.031782474 0.09345446
0.61453795 0.8303016 -0.062208276 -2.2665346 -0.823491 0.088388264 0.11573985 0.57473457
0.09153835 -0.08984423 0.21085784 -0.051840346 -0.27996096 0.17219448 0.25755766 -0.023230512
0.39231828 -0.06897127 0.70776445 -0.27020252 -0.1697817 0.22559857 0.0017416257 0.2531956
0.067608416 0.17386606 -0.0024618686 0.079690635 0.014844676 0.0014056615 0.024049936 -0.13004671
0.081700474 0.11641187 0.19959311 0.65745133 -0.17676143 -0.10762601 -0.4005662 0.528569
0.02368312 0.06862365 0.089994445 0.15295233 -0.0029654212 0.14616515 0.13695203 0.026551856
1.1314873 0.082054205 1.0356765 -0.124166876 -0.479304 -0.32718545 -0.5405658 0.29795387
0.18966231 0.021318616 -0.0042907726 0.12031982 0.15131268 0.08185683 -0.020863753 -0.027207568
-0.13345057 -0.6745232 -0.24806376 -0.6653899 -0.56425923 -0.124200605 -1.030117 0.3790168
-0.06428543 -0.075599864 -0.054725047 -0.26722845 -0.017956033 -0.14115821 0.10606946 -0.065768115
00000000: 1481 45be 2a09 233e 4978 4fbe 613c e63d
00000010: 61f3 8c3e fbf1 a13d 8a05 f93e 81b2 a43e
00000020: 2ab4 1a3f f65a 49bc 270f dcbd ac1f ae3d
00000030: 1ee0 aa3d 639d 823d 0bdf 333d e951 a03d
00000040: fd35 80bc c4d4 9abe 12b6 7cbe 4ddc fdbf
00000050: fa1d ac3e 5b0b bdbc ff81 bcbf 9407 083f
00000060: cd33 18be 86d2 c1bd c9b2 3fbe ee63 33be
00000070: e075 8fbb 1162 0bbe 49b3 5d3d 1bf3 353e
00000080: cdda ba3e 28a4 853e 3068 b23e 05e8 783f
00000090: a875 033f a56d f93e ee36 d4bd f5b1 4abe
000000a0: 22ec a33c 67e0 c83d 8a29 cdbc 6862 d83d
000000b0: a96a c23d 42dc f7bc 3d38 8ebd ea7f c63d
000000c0: 32f0 61be 2625 213e 7fa7 4cbf 3760 a5bf
000000d0: 8f34 bebd f1f3 143e 5e8f bb3e 9a53 003d
000000e0: 3b1f 693d ded4 21bc 3d1f 5f3e 1434 c8bd
000000f0: b7d2 9bbd 1d3a 8fbd b741 bf3d 49fe dcbd
00000100: 2bfe 793f 440c 003e 06a1 683f 6d12 02bf
00000110: 9a54 98bd 9aae 03be 01b0 903e a391 c43e
00000120: f1a8 1d3f 4ed6 2dbe 04ca 5d3d 5841 5ebe
00000130: ad4c 4fbc 43c0 dcbc 34c5 9e3d b59f a43d
00000140: 5758 1b3e 08e4 d2bd 466a ab3e 0ec5 3fbf
00000150: 4233 1d3f 4c8f 23bd 74f2 a9bd 295b 75be
00000160: 5146 b5bd 1dbe 263d 4ebc 793e e0d0 a83b
00000170: 6b1e 393e f2f6 e43d 8f4d 89be 0213 0dbe
00000180: 2bef 2bbe c98d 24be 9c8f 443e 8ced a8bd
00000190: b5b7 723d 0703 a73e e5ea a63e 9bc3 47be
000001a0: c354 2d3d a582 55bd f6cc 16bd a551 a8bd
000001b0: 1805 bcbd 8e1b 23be d6a4 7c3d d375 9bbc
000001c0: d040 0a3f f537 8cbe c901 80bf f0a6 af3d
000001d0: 787a 473f 5136 21be 05ba f4be 2ec7 83bc
000001e0: a2a2 5cba e8e8 9d3e a031 2e3e 1795 25be
000001f0: 569b 913b 7244 5dbe 8884 39be 6cf1 03be
00000200: 2184 adbd 89d6 17bb b60d e33c 95f5 973e
00000210: 01cc c2be b057 3c3f ce43 16be ff05 09be
00000220: eb5c f3bd 647c 40bd c1a1 9cbc 4f07 12bd
00000230: 4619 70bd 3fee 8c3d 34ab ba3c a75d 27be
00000240: 6511 3d3e d6d6 4c3f 6b5c 98be 90c4 033f
00000250: ae10 853f 2c53 0dbe 09ef 1ebd cb62 2dbf
00000260: 1ff0 8abc 5fd3 f6be e6d6 b63e 0ec5 9c3d
00000270: a220 88bd b49e c73d 4399 f3bd 3fde 493d
00000280: 1804 013e 8c92 95be dad0 a7be 387e febd
00000290: de71 143e fb82 023e b650 3c3d 475f 893e
000002a0: f6e5 303e 9b17 06be 663e 84be 1419 9bbd
000002b0: 9434 3f3e 1f51 41bd 572e 02bd 0d65 bf3d
000002c0: 5c52 1d3f a58e 543f 1bce 7ebd e70e 11c0
000002d0: 4ed0 52bf e804 b53d 0409 ed3d ce21 133f
000002e0: 7578 bb3d 4000 b8bd 1eeb 573e 8b56 54bd
000002f0: 0b57 8fbe c053 303e 99de 833e ea4d bebc
00000300: f1dd c83e cf40 8dbd 0d30 353f fc57 8abe
00000310: 41db 2dbe 5003 673e 4347 e43a dba2 813e
00000320: 4876 8a3d f209 323e 4d57 21bb d834 a33d
00000330: 1537 733c 2c3e b83a 5f04 c53c f72a 05be
00000340: 9452 a73d 5969 ee3d 2362 4c3e bb4e 283f
00000350: f300 35be 076b dcbd 0317 cdbe 4c50 073f
00000360: 1a03 c23c 8e8a 8c3d 024f b83d 899f 1c3e
00000370: 8357 42bb 51ac 153e 273d 0c3e 4783 d93c
00000380: 93d4 903f 090c a83d 0c91 843f 344b febd
00000390: 5567 f5be da84 a7be 8562 0abf 698d 983e
000003a0: d636 423e 61a4 ae3c 9c99 8cbb 3d6a f63d
000003b0: b6f1 1a3e 8ea4 a73d 76ea aabc 68e2 debc
000003c0: 44a7 08be 8dad 2cbf 6d04 7ebe fe56 2abf
000003d0: 4b73 10bf e35c febd e0da 83bf 7d0e c23e
000003e0: 14a8 83bd 1ad4 9abd 5f27 60bd 2bd2 88be
000003f0: 8818 93bc c78b 10be f23a d93d 6fb1 86bd

actor.0.bias f4 [64]
-0.18267436 0.08525452 -0.39725533 0.051034916 0.0705488 -0.34080985 -0.3473553 -0.09384163
0.3288768 0.20237325 -0.080717154 0.14711158 0.097320825 -0.32193872 -0.3002892 -0.2502669
0.62150735 0.13409682 0.22265325 -0.0024406887 0.26306713 0.12332862 -0.13551702 0.09945239
-0.5853387 0.7171648 0.022667455 -0.2569448 -0.10625864 0.0852273 -0.09319831 0.35649732
-0.46810076 0.01545837 0.071686976 -0.028863207 0.23608026 0.2958088 -0.21710512 -0.012834545
0.16090468 -0.18227406 0.45511442 -0.032336343 0.44915122 0.28900486 -0.22088608 0.037399903
0.286151 -0.092824884 -0.1871153 -0.2182637 0.16396889 0.13780019 -0.401761 -0.37140477
-0.4062963 -0.036846418 0.18175727 0.4517272 -0.050927684 0.13468136 0.3123758 -0.03139822
00000000: fd0e 3bbe ec99 ae3d 0d65 cbbe fd09 513d
00000010: e47b 903d a17e aebe 8ed8 b1be 0a30 c0bd
00000020: 8a62 a83e ef3a 4f3e 094f a5bd 6ba4 163e
00000030: 2450 c73d 27d5 a4be 82bf 99be fc22 80be
00000040: 1b1b 1f3f ad50 093e 37ff 633e f6f3 1fbb
00000050: bcb0 863e b793 fc3d f9c4 0abe b2ad cb3d
00000060: c2d8 15bf 1d98 373f 19b1 b93c 458e 83be
00000070: 219e d9bd a78b ae3d c1de bebd d186 b63e
00000080: e7aa efbe 1a45 7d3c 9fd0 923d 8872 ecbc
00000090: 06bf 713e 4074 973e ce50 5ebe fc47 52bc
000000a0: 32c4 243e 0da6 3abe c204 e93e 1d73 04bd
000000b0: 26f7 e53e 72f8 933e f62f 62be a430 193d
000000c0: 6282 923e f91a bebd 279b 3fbe 8580 5fbe
000000d0: 76e7 273e 7e1b 0d3e 9eb3 cdbe c428 bebe
000000e0: 1206 d0be 45ec 16bd 941e 3a3e ca48 e73e
000000f0: 8c99 50bd e9e9 093e b9ef 9f3e 6c9b 00bd

actor.2.weight f4 [64, 64]
-0.013788676 -0.2573994 0.30197906 -0.019739993 0.13254558 -0.048191365 0.16245696 0.038402967
-0.0418671 -0.31152937 0.19694799 0.21241172 -0.06323849 -0.010119664 -0.17364693 -0.37755653
0.09930965 0.03444453 -0.027245006 -0.018863894 -0.04615309 0.26034796 0.06679456 0.10217156
0.3154638 -0.29916236 -0.12999272 0.19862044 0.32586572 -0.21293284 0.11156133 0.20512277
0.08738632 0.27613056 -0.086221315 -0.22869638 -0.19436914 -0.1065539 -0.013871215 -0.068433076
-0.15345827 -0.0762734 -0.000827153 0.0684223 -0.097193904 0.03536543 0.08468244 -0.080427885
0.05052725 -0.10546693 0.18956523 0.03385439 0.18894409 -0.018133013 -0.17118481 -0.030574678
-0.004810603 -0.10697185 0.11984004 -0.102863826 -0.24199499 -0.0051989583 0.14120245 -0.0601175
0.10937835 -0.20955776 -0.42761418 0.1750156 -0.07409872 -0.0005266439 -0.042649128 -0.017871374
0.09420738 0.1911871 -0.06336021 0.15480833 -0.09290705 -0.13321339 -0.14823698 -0.029089589
0.15795276 -0.038951546 0.20446807 0.0075833397 0.12725867 -0.06206869 0.06524831 0.19234274
-0.12800138 -0.0024856783 0.024061596 -0.08055737 -0.18392543 0.21347445 0.13100787 0.2817396
-0.0704796 -0.0885783 -0.03555875 -0.1617247 0.048906624 0.2049877 -0.038144026 0.10340434
-0.05044962 -0.081062056 -0.0626816 0.08124589 0.26388532 0.10675798 -0.120519914 0.17335041
0.009591981 0.14700894 0.06272575 0.053256523 -0.06265488 0.067840874 -0.15491842 -0.15760314
-0.13275054 -0.19810568 0.057730295 0.16558023 0.1223079 0.21975332 -0.09973982 -0.12519291
0.011385913 -0.4085154 0.04444028 -0.109457195 0.07020993 -0.17491123 -0.010962849 -0.116756104
0.03011843 -0.37989956 0.015510708 0.047236226 -0.25511223 -0.082595505 -0.42438155 -0.17434476
0.06553112 0.04106821 -0.012396799 0.017990325 -0.022669971 0.23302154 0.27993008 -0.037472762
0.1507353 -0.031806514 -0.20979173 0.21047865 0.37453288 0.1611847 0.07865494 0.29276225
0.09225071 0.26400378 0.08073214 -0.42431575 -0.42509413 -0.20786408 -0.10007576 -0.16968396
-0.1635735 -0.18962884 -0.121754386 0.032224074 -0.13725956 0.14258596 0.25888824 -0.01196656
0.11701352 -0.073572725 0.1417888 -0.07927479 -0.1005378 0.08606892 -0.20232886 0.023409307
-0.10500665 0.011536865 0.12968792 -0.018119833 -0.25663507 0.107489355 0.14787202 -0.036961794
-0.031041022 -0.11378928 -0.13514954 -0.07881783 -0.112490684 0.12585765 -0.085437536 0.2648254
0.052349083 0.086978994 -0.09852082 -0.108454175 0.19719847 -0.06720936 -0.11364321 0.019799588
0.10304381 0.04407693 0.17373987 0.10251793 0.09434204 0.18104485 -0.0101223085 0.07388913
-0.4354339 0.0987399 0.25281897 -0.28664094 -0.21083997 0.03703371 0.030902024 0.09181947
0.007117467 0.07015295 0.0610835 0.022624193 0.29588214 0.099178925 0.07965782 -0.14908107
0.019461935 -0.109605566 -0.024773834 0.05071204 0.16506565 0.06146862 -0.09340581 0.28063887
-0.011169157 0.07959444 -0.14428453 0.0699537 -0.13741532 0.25759917 -0.22913112 0.026955854
-0.12560876 -0.10176016 0.24967 0.1655669 0.0015104472 0.11895087 0.09076159 0.38616604
00000000: e6e9 61bc dbc9 83be 009d 9a3e c4b5 a1bc
00000010: 07ba 073e 4f64 45bd 1e5b 263e 6e4c 1d3d
00000020: d67c 2bbd c780 9fbe bcac 493e 7582 593e
00000030: 2e83 81bd f2cc 25bc 80d0 31be 174f c1be
00000040: dc62 cb3d b515 0d3d eb30 dfbc 7488 9abc
00000050: 060b 3dbd 544c 853e 96cb 883d 533f d13d
00000060: 7984 a13e cf2b 99be d01c 05be 2863 4b3e
00000070: dfd7 a63e 110b 5abe 447a e43d b40b 523e
00000080: 99f7 b23d fc60 8d3e cd94 b0bd 622f 6abe
00000090: b408 47be ee38 dabd 1844 63bc a426 8cbd
000000a0: 2a24 1dbe 3a35 9cbd 4cd5 58ba fe20 8c3d
000000b0: 990d c7bd 57db 103d fd6d ad3d 60b7 a4bd
000000c0: a9f5 4e3d 0cff d7bd 631d 423e e7aa 0a3d
000000d0: 8f7a 413e af8b 94bc 124b 2fbe bf77 fabc
000000e0: 43a2 9dbb 0f14 dbbd b26e f53d 45aa d2bd
000000f0: 89cd 77be 065c aabb 6097 103e c53d 76bd
00000100: c201 e03d 4f96 56be 3ff0 dabe 4a37 333e
00000110: 12c1 97bd 790e 0aba dab0 2ebd fd66 92bc
00000120: cdef c03d 8dc6 433e ffc2 81bd 1386 1e3e
00000130: 0d46 bebd 1769 08be 6fcb 17be 4a4d eebc
00000140: 5ebe 213e a88b 1fbd 1460 513e aa7d f83b
00000150: 1950 023e bd3b 7ebd e8a0 853d 7ff5 443e
00000160: cb12 03be c3e6 22bb d31c c53c 43fb a4bd
00000170: f356 3cbe 0c99 5a3e ed26 063e 2c40 903e
00000180: 9c57 90bd 8a68 b5bd 0da6 11bd 299b 25be
00000190: 5052 483d 4ce8 513e e93c 1cbd a8c5 d33d
000001a0: 43a4 4ebd dd03 a6bd 365f 80bd 3f64 a63d
000001b0: fa1b 873e eea3 da3d 25d3 f6bd c582 313e
000001c0: af27 1d3c 8389 163e 5c76 803d 8323 5a3d
000001d0: 3451 80bd 28f0 8a3d efa2 1ebe b862 21be
000001e0: c2ef 07be 37dc 4abe 9a76 6c3d dd8d 293e
000001f0: 907c fa3d 0407 613e 6444 ccbd 9232 00be
00000200: fb8b 3a3c ee28 d1be 0307 363d 182b e0bd
00000210: 39ca 8f3d ee1b 33be 859d 33bc d31d efbd
00000220: edba f63c 3282 c2be a020 7e3c c67a 413d
00000230: 129e 82be d527 a9bd 8a48 d9be 6f87 32be
00000240: 2e35 863d 2437 283d f21b 4bbc 7260 933c
00000250: 60b6 b9bc 339d 6e3e ff52 8f3e 0a7d 19bd
00000260: 5b5a 1a3e 8c47 02bd a5d3 56be b787 573e
00000270: c6c2 bf3e 9a0d 253e d715 a13d efe4 953e
00000280: f1ed bc3d 812b 873e e456 a53d ea3f d9be
00000290: f0a5 d9be 52da 54be 85f4 ccbd a2c1 2dbe
000002a0: d07f 27be 102e 42be 5d5a f9bd 64fd 033d
000002b0: c58d 0cbe 0e02 123e 008d 843e 640f 44bc
000002c0: c9a4 ef3d 4cad 96bd 1531 113e d25a a2bd
000002d0: c3e6 cdbd e744 b03d 4c2f 4fbe e0c4 bf3c
000002e0: ba0d d7bd 1e05 3d3c e9cc 043e 0b70 94bc
000002f0: ac65 83be 6123 dc3d c36b 173e 4065 17bd
00000300: be49 febc 5b0a e9bd a464 0abe 3e6b a1bd
00000310: 8461 e6bd d4e0 003e e0f9 aebd 3297 873e
00000320: fe6b 563d 0b22 b23d 49c5 c9bd 391d debd
00000330: 65ee 493e 10a5 89bd c5bd e8bd bf32 a23c
00000340: a208 d33d 038a 343d dde8 313e ecf4 d13d
00000350: 6636 c13d d263 393e 0ad8 25bc 2f53 973d
00000360: 31f1 debe 2538 ca3d 7d71 813e 9ac2 92be
00000370: 6fe6 57be a9b0 173d 3e26 fd3c d90b bc3d
00000380: a439 e93b 5aac 8f3d b132 7a3d 5f56 b93c
00000390: dd7d 973e 521e cb3d a423 a33d b5a8 18be
000003a0: a36e 9f3c e278 e0bd 7ff2 cabc 6eb7 4f3d
000003b0: f806 293e 85c6 7b3d 8c4b bfbd e6af 8f3e
000003c0: d7fe 36bc 6902 a33d 53bf 13be e343 8f3d
000003d0: 9ab6 0cbe 0ae4 833e 59a1 6abe 86d2 dc3c
000003e0: 959f 00be a167 d0bd 7ea9 7f3e 5f8a 293e
000003f0: 33fa c53a 849c f33d 36e1 b93d 8eb7 c53e

actor.2.bias f4 [64]
-0.24279258 0.004775638 -0.13064778 0.11175307 -0.08654154 -0.119031936 -0.196173 -0.29982945
-0.11178785 -0.012985696 -0.24368489 -0.41053244 -0.28983155 -0.04120247 0.20059995 -0.18088797
-0.0363152 -0.33574635 -0.20953369 -0.21541072 -0.28826055 -0.2546815 -0.19402076 -0.23459987
-0.29129526 -0.266653 -0.2688777 -0.18501844 -0.09886519 -0.29662007 0.24666333 -0.39044222
-0.06353309 0.10119242 -0.25686687 -0.1639795 -0.35227308 -0.23586816 -0.1912813 -0.05138631
-0.31358603 -0.2283939 -0.043406464 -0.08011581 -0.21293479 -0.38381076 -0.0054880744 -0.13430549
0.10115051 -0.20203073 0.018797353 -0.0002530294 -0.20121098 -0.15194622 -0.022641327 -0.2695261
-0.11641517 -0.05921457 -0.039386254 -0.20336905 -0.3257592 -0.22537352 0.01915201 0.030555362
00000000: 9e9e 78be f57c 9c3b 88c8 05be cbde e43d
00000010: b13c b1bd 04c7 f3bd 93e1 48be 3f83 99be
00000020: 07f1 e4bd f5c1 54bc 8888 79be 4f31 d2be
00000030: cd64 94be ecc3 28bd 136a 4d3e b23a 39be
00000040: 3fbf 14bd f2e6 abbe 0090 56be a194 5cbe
00000050: e396 93be 9d65 82be 61ad 46be f33a 70be
00000060: a724 95be be86 88be 57aa 89be 7975 3dbe
00000070: d579 cabd 96de 97be 5095 7c3e 0be8 c7be
00000080: a31d 82bd f93d cf3d 0e84 83be 3eea 27be
00000090: 235d b4be 6c87 71be 3fdf 43be 747a 52bd
000000a0: 598e a0be 17e0 69be faca 31bd c213 a4bd
000000b0: 940b 5abe d882 c4be 4ed5 b3bb 6187 09be
000000c0: 0028 cf3d 25e1 4ebe e8fc 993c 08a9 84b9
000000d0: 400a 4ebe ca97 1bbe 4e7a b9bc 53ff 89be
000000e0: 146b eebd fa8a 72bd 7b53 21bd fa3f 50be
000000f0: e9c9 a6be 51c8 66be ade4 9c3c 3d4f fa3c

actor.4.weight f4 [7, 64]
-0.0131066805 0.20613182 0.06648999 -0.088889994 -0.015656864 0.10616312 0.07010382 0.04420091
-0.20090555 0.06428799 0.15689318 0.10430737 0.03781787 0.18358453 0.23931396 -0.22807232
0.084126815 -0.0018970299 -0.018919123 0.018314509 -0.30726066 0.08222439 0.05432991 -0.11758473
-0.008387755 0.14939803 -0.08307748 -0.004429844 0.10320874 -0.072311945 -0.03197133 -0.008476562
0.13810883 0.21187541 0.20881164 0.066040285 -0.08298905 0.108132936 0.037168726 0.11290043
0.21057442 0.07110691 -0.26812813 -0.030395808 0.029133346 -0.016190313 0.31075543 -0.023034135
0.13247138 -0.017569102 0.14840046 -0.029670045 -0.0317335 0.011497029 0.024917983 -0.0758504
0.14400287 -0.23468961 0.009960803 0.028158927 0.10714902 0.2287952 0.0884331 -0.033297777
0.09478841 0.08901274 0.18730827 0.05357124 -0.0865561 -0.06081527 -0.14642891 -0.033539433
-0.038130403 0.056766495 -0.2378307 0.027127003 -0.020809356 -0.018695563 0.06020131 0.1049716
-0.17150661 -0.1512945 0.22318606 -0.12059557 -0.029768564 0.13575286 0.019415712 -0.024304083
-0.15756631 0.06931274 -0.17474602 -0.04162508 0.018262034 0.07515894 0.24799272 0.034812387
0.18664338 -0.10512399 -0.15519223 -0.27407137 -0.18018514 -0.05226623 0.2815379 0.04512167
-0.11113829 -0.019453684 -0.077338345 0.03009426 0.26083106 -0.14867854 0.19235808 0.0005355429
0.14597578 0.0002211512 0.1260776 -0.022506474 0.006945148 -0.1671241 -0.11165142 0.047798883
0.016875915 0.06781127 -0.06304499 -0.29508093 0.07461822 0.04288358 0.057395767 0.07300462
0.078981064 -0.0060728635 0.14960511 -0.10083537 -0.1111314 -0.17447276 0.19060251 0.082293205
-0.3153137 0.17900436 0.13511238 0.0047581284 0.008340881 -0.12435355 0.27428865 0.10227896
-0.19914569 -0.08724306 0.037725326 0.124575235 -0.2440053 0.045077026 0.12475114 -0.16905744
-0.040155653 0.07063715 -0.026579581 -0.12491591 0.10427008 -0.11545034 -0.25974372 0.1902438
0.02324922 0.20000666 0.06502848 0.10649338 0.10220188 0.028511822 0.09020425 0.04230879
0.19473241 -0.078176044 -0.0818779 -0.058641348 -0.17129853 -0.14148073 0.37925023 0.12589046
-0.028030597 -0.028901726 0.07928191 -0.052045833 0.05320051 -0.043810766 -0.019773822 -0.059649907
0.1316217 -0.1838687 -0.09436355 -0.052950293 0.09719737 0.18575314 0.14770122 -0.09572138
0.25457296 -0.11148364 0.26832876 -0.16757686 -0.10908062 -0.009911694 0.08892448 0.20690075
0.08556449 -0.058530744 0.25280553 -0.08189909 0.21178278 -0.20085177 -0.39506218 -0.107605
0.021968614 0.08750538 0.26464534 -0.21034521 0.09137608 0.108371414 0.020224392 -0.21860883
0.014853203 0.060058773 0.19787967 0.02476177 -0.23144534 0.18797447 -0.00878363 -0.06966382
0.15373194 0.069899425 0.029117715 0.061934188 0.044472095 0.08600188 0.09174145 -0.10477396
-0.21261737 0.16671497 -0.35756403 0.14116338 0.18560961 0.18819153 0.08215798 0.019339181
-0.21843584 -0.3328733 0.0061814534 -0.11945335 0.12382432 -0.00641341 -0.14961743 -0.011701537
-0.12805937 -0.11593958 -0.010550527 -0.27118206 0.024701755 0.039440528 -0.08560247 -0.17597131
00000000: 67bd 56bc 3814 533e e72b 883d f50b b6bd
00000010: d342 80bc 0d6c d93d 9792 8f3d 030c 353d
00000020: 2fba 4dbe 6ca9 833d 9ba8 203e 1a9f d53d
00000030: e9e6 1a3d 95fd 3b3e b80e 753e ca8b 69be
00000040: ae4a ac3d c3a5 f8ba 47fc 9abc 4f08 963c
00000050: 4551 9dbe 4365 a83d 0a89 5e3d 43d0 f0bd
00000060: cb6c 09bc ccfb 183e 8724 aabd 3a28 91bb
00000070: 1b5f d33d 4918 94bd 5ff4 02bd 47e1 0abc
00000080: 676c 0d3e def5 583e b8d2 553e 2140 873d
00000090: 2af6 a9bd cd74 dd3d 3c3e 183d 5738 e73d
000000a0: d2a0 573e 80a0 913d 1748 89be a100 f9bc
000000b0: 0ea9 ee3c 8ca1 84bc 561b 9f3e 15b2 bcbc
000000c0: 94a6 073e 14ed 8fbc 4af6 173e 980e f3bc
000000d0: fdfa 01bd 095e 3c3c cc20 cc3c 7457 9bbd
000000e0: 7d75 133e 7952 70be a332 233c 8dad e63c
000000f0: f270 db3d 4a49 6a3e 6a1c b53d 4063 08bd
00000100: 6d20 c23d 504c b63d bdcd 3f3e 846d 5b3d
00000110: 5344 b1bd 6f19 79bd 76f1 15be a560 09bd
00000120: a02e 1cbd fc83 683d e489 73be 7339 de3c
00000130: 6278 aabc 7027 99bc a695 763d 5afb d63d
00000140: 6e9f 2fbe f2ec 1abe e38a 643e cffa f6bd
00000150: 34dd f3bc cc02 0b3e b30d 9f3c 5b19 c7bc
00000160: 1059 21be d6f3 8d3d 9ff0 32be 0f7f 2abd
00000170: 439a 953c eeec 993d cef1 7d3e 6f97 0e3d
00000180: 711f 3f3e 3f4b d7bd b6ea 1ebe 1553 8cbe
00000190: 7482 38be 1d15 56bd bc25 903e 80d1 383d
000001a0: 799c e3bd 555d 9fbc 9163 9ebd 3d88 f63c
000001b0: a68b 853e 303f 18be 84f9 443e ad63 0c3a
000001c0: ad7a 153e d3e4 6739 7d1a 013e 7f5f b8bc
000001d0: 2094 e33b 9422 2bbe 80a9 e4bd c3c8 433d
000001e0: 5c3f 8a3c a3e0 8a3d bb1d 81bd d914 97be
000001f0: 70d1 983d b1a6 2f3d d317 6b3d 7283 953d
00000200: d3c0 a13d dffe c6bb 1532 193e c682 cebd
00000210: dc98 e3bd fda8 32be 4e2d 433e 5789 a83d
00000220: cc70 a1be eb4c 373e e65a 0a3e 13ea 9b3b
00000230: 31a8 083c 13ad febd 906f 8c3e a277 d13d
00000240: d9ec 4bbe 7dac b2bd df85 1a3d 4d21 ff3d
00000250: 86dc 79be b0a2 383d 877d ff3d 651d 2dbe
00000260: 417a 24bd 36aa 903d 6cbd d9bc ead3 ffbd
00000270: 8d8b d53d 3a71 ecbd 21fd 84be 45cf 423e
00000280: 2675 be3c 8cce 4c3e a72d 853d 3419 da3d
00000290: 384f d13d a091 e93c 01bd b83d fb4b 2d3d
000002a0: ef67 473e c31a a0bd 9aaf a7bd e931 70bd
000002b0: e268 2fbe 53e0 10be 162d c23e 6ee9 003e
000002c0: 6ca0 e5bc 50c3 ecbc 8e5e a23d 032e 55bd
000002d0: c7e8 593d eb72 33bd b6fc a1bc 7653 74bd
000002e0: d7c7 063e 1448 3cbe ad41 c1bd 68e2 58bd
000002f0: 6a0f c73d 1236 3e3e fd3e 173e 9209 c4bd
00000300: 6357 823e 8951 e4bd 6362 893e 4599 2bbe
00000310: a965 dfbd a864 22bc 0a1e b63d cadd 533e
00000320: 6f3c af3d efbd 6fbd ba6f 813e b6ba a7bd
00000330: 96dd 583e 16ac 4dbe 9745 cabe 0360 dcbd
00000340: 86f7 b33c 0536 b33d 987f 873e bc64 57be
00000350: 6223 bb3d d5f1 dd3d a0ad a53c feda 5fbe
00000360: d95a 733c 3000 763d f8a0 4a3e 32d9 ca3c
00000370: 0200 6dbe 617c 403e 37e9 0fbc e8ab 8ebd
00000380: e86b 1d3e 6e27 8f3d 4688 ee3c b4ae 7d3d
00000390: 5f28 363d c121 b03d f1e2 bb3d bb93 d6bd
000003a0: 5eb8 59be 54b7 2a3e a212 b7be 228d 103e
000003b0: 7210 3e3e 48b5 403e 7142 a83d 346d 9e3c
000003c0: a5ad 5fbe 5f6e aabe ca8d ca3b f5a3 f4bd
000003d0: 9b97 fd3d 9527 d2bb 5035 19be ceb7 3fbc
000003e0: ff21 03be bb71 edbd 1edc 2cbc 60d8 8abe
000003f0: 565b ca3c 648c 213d 5950 afbd d331 34be

actor.4.bias f4 [7]
-0.017785404 0.16685928 -0.045873962 0.11040554 0.05219969 -0.19112885 0.083022036
00000000: b2b2 91bc 29dd 2a3e 56e6 3bbd 4d1c e23d
00000010: 58cf 553d 48b7 43be 7507 aa3d

critic.0.weight f4 [64, 32]
-0.012497194 -0.0821747 0.09728486 0.18139459 -0.14669955 0.06474291 -0.2938196 0.11786847
-0.014196574 0.03126512 -0.1155717 0.012364 -0.07152235 0.012235396 -0.004639678 0.012165504
-0.18238585 -0.1202698 -0.3391276 0.06538848 0.25910985 0.04424074 -0.2083031 -0.31482664
-0.12373463 0.09897756 -0.086090736 -0.021953946 0.0061387336 -0.090152934 -0.047819827 -0.010772956
-0.1926915 0.10747692 -0.032141197 0.16983956 0.08118512 0.22027096 0.087528095 0.016890561
0.069880515 0.065218605 -0.0019983358 0.0063923523 -0.029088508 -0.04623683 -0.052349433 -0.10309725
-0.120549306 0.07299923 0.20228583 -0.41600534 -0.008218971 0.069168635 0.34962013 0.15037744
-0.009602224 -0.09508642 0.0802465 0.045971833 0.013438266 0.047408864 0.086535305 -0.19897623
-0.03596397 0.11627485 -0.27515686 0.049946744 0.13181204 0.019709721 -0.07926194 0.033734445
0.17521963 -0.062532835 -0.26264402 -0.10994133 -0.104250535 0.0824893 -0.068651356 0.012390326
0.14322212 -0.017164519 -0.12941882 -0.5099612 -0.1164728 0.054718807 0.007845183 -0.10295426
-0.08784767 0.06272796 -0.009490088 -0.075761385 0.13488588 -0.016444797 -0.0020120111 -0.00493388
-0.1583506 0.02365318 0.043779504 -0.1729187 0.059063118 0.0069437046 0.23971093 0.26268438
0.12135508 -0.07546297 -0.023730468 -0.06671653 0.0966056 -0.0026509746 0.017867377 -0.015210402
0.080206476 0.28231823 -0.12987617 -0.7710145 -0.29552236 -0.12394499 -1.1281183 0.24510884
0.16145703 -0.021458805 -0.11206546 0.08635186 -0.037782375 -0.0982362 0.027906833 0.045742106
-0.16848548 -0.106904976 0.07363939 -0.0066195875 0.2518553 0.09293114 0.24026518 0.028240113
0.00015540868 0.017416958 -0.017161757 -0.013408659 0.015147446 -0.0090252785 0.009857693 -0.0073147016
-0.03791916 0.026174823 0.22870144 -0.09603461 0.13185754 0.03997508 -0.65227336 0.36920553
-0.14179675 -0.010483886 -0.07545635 -0.035235714 -0.0074565643 0.0069568455 -0.053171214 0.06578987
-0.08690316 0.008358604 -0.023533128 -0.061118923 0.15735677 0.11726115 0.019469468 -0.12054511
0.025234176 0.018785816 0.049297873 -0.019840432 0.14413202 -0.014305999 0.011908276 0.0011825679
0.03360067 -0.16790402 -0.30154637 0.14090712 -0.24849114 -0.15115969 0.6152439 0.45530343
0.0710578 -0.09614936 0.17483053 0.01074971 0.043674998 0.034137443 0.024829542 -0.018523606
0.15414765 0.20849094 -0.09155067 0.15775728 0.14025438 0.11611277 0.06743158 -0.10201327
0.13589746 0.009026312 0.032044485 0.016554622 0.03661281 0.042502426 -0.021767404 -0.015188157
-0.19665043 -0.33703825 0.24935329 -1.8072371 -0.040180802 0.14173876 -0.8953957 0.04851621
-0.03870612 -0.020854864 0.047598157 0.00958677 0.036335677 0.031560544 0.05688026 0.03638035
0.089756444 0.15463087 -0.075297855 -0.06412236 -0.08912763 -0.27974218 -0.13910326 0.21027806
0.15390784 -0.013882898 0.04530934 0.0391067 -0.011082423 0.020944474 0.045102745 0.02992366
-0.1025854 0.021681853 0.21033032 0.50133884 -0.23475616 0.12725204 -0.5970233 -0.057424076
0.13281843 -0.050843757 -0.03213945 -0.06256873 -0.006807231 -0.018689374 -0.02213272 0.009405337
00000000: 08c1 4cbc 364b a8bd 493d c73d 81bf 393e
00000010: 6838 16be ee97 843d 866f 96be 0665 f13d
00000020: bf98 68bc db0f 003d dbb0 ecbd 6092 4a3c
00000030: 4f7a 92bd f876 483c 7108 98bb d251 473c
00000040: 5bc3 3abe 0350 f6bd 22a2 adbe 65ea 853d
00000050: 0caa 843e c735 353d 684d 55be f530 a1be
00000060: 9568 fdbd bfb4 ca3d 5750 b0bd c3d8 b3bc
00000070: 6e27 c93b 1aa2 b8bd b9de 43bd 0d81 30bc
00000080: ec50 45be dc1c dc3d 7da6 03bd 6cea 2d3e
00000090: 6244 a63d b68e 613e ee41 b33d 135e 8a3c
000000a0: 841d 8f3d 5591 853d 83f6 02bb f076 d13b
000000b0: 064b eebc d562 3dbd 5c6c 56bd a724 d3bd
000000c0: 8ee2 f6bd 9f80 953d 0424 4f3e a7fe d4be
000000d0: dda8 06bc 49a8 8d3d 6901 b33e 8bfc 193e
000000e0: a652 1dbc abbc c2bd 4758 a43d f64c 3c3d
000000f0: 2c2c 5c3c cc2f 423d 6c39 b13d 6dc0 4bbe
00000100: f54e 13bd 8221 ee3d 5ce1 8cbe f594 4c3d
00000110: bcf9 063e 4876 a13c 1654 a2bd 212d 0a3d
00000120: c66c 333e 3711 80bd 4779 86be ec28 e1bd
00000130: 4e81 d5bd 26f0 a83d 1599 8cbd cb00 4b3c
00000140: d2a8 123e 9b9c 8cbc 5e86 04be d18c 02bf
00000150: 4b89 eebd d420 603d 1589 003c afd9 d2bd
00000160: 7be9 b3bd 8477 803d 507c 1bbc c928 9bbd
00000170: 861f 0a3e 3db7 86bc f2db 03bb 63ac a1bb
00000180: a926 22be 50c4 c13c 2352 333d 9a11 31be
00000190: 2bec 713d 0488 e33b c876 753e 917e 863e
000001a0: 0389 f83d 548c 9abd 6666 c2bc ada2 88bd
000001b0: 28d9 c53d f9bb 2dbb 9b5e 923c 0d35 79bc
000001c0: 4b43 a43d 048c 903e 42fe 04be 3561 45bf
000001d0: b54e 97be dfd6 fdbd 2e66 90bf d0fd 7a3e
000001e0: fe54 253e 60ca afbc 9382 e5bd 3ed9 b03d
000001f0: b1c1 1abd 1030 c9bd df9c e43c 135c 3b3d
00000200: 7587 2cbe fff0 dabd 40d0 963d 20e9 d8bb
00000210: 2ef3 803e ae52 be3d 1308 763e cf57 e73c
00000220: 33f5 2239 02ae 8e3c d096 8cbc feaf 5bbc
00000230: fe2c 783c c3de 13bc 2982 213c 2ab0 efbb
00000240: 1f51 1bbd 956c d63c b630 6a3e cbad c4bd
00000250: aa05 073e e9bc 233d 63fb 26bf 8208 bd3e
00000260: 2b33 11be 9bc4 2bbc dc88 9abd 5353 10bd
00000270: 3256 f4bb 40f6 e33b 0fca 59bd d7bc 863d
00000280: 49fa b1bd 87f2 083c 8cc8 c0bc d657 7abd
00000290: 2222 213e 9d26 f03d 6f7e 9f3c 5be0 f6bd
000002a0: e7b7 ce3c b6e4 993c 91ec 493d 6788 a2bc
000002b0: 5897 133e b563 6abc ee1a 433c 6500 9b3a
000002c0: dba0 093d 08ef 2bbe 4964 9abe f549 103e
000002d0: 7674 7ebe 9bc9 1abe a080 1d3f 881d e93e
000002e0: c086 913d f5e9 c4bd c606 333e 8d1f 303c
000002f0: 8ee4 323d b4d3 0b3d 5367 cb3c d1be 97bc
00000300: e2d8 1d3e a67e 553e eb7e bbbd 208b 213e
00000310: d89e 0f3e 88cc ed3d 9119 8a3d 55ec d0bd
00000320: b428 0b3e 19e3 133c 1441 033d 8f9d 873c
00000330: 50f7 153d 0617 2e3d 8e51 b2bc bfd7 78bc
00000340: bb5e 49be 4790 acbe 7856 7f3e 8c53 e7bf
00000350: a094 24bd f723 113e a738 65bf efb8 463d
00000360: 4f8a 1ebd d2d7 aabc 49f6 423d d411 1d3c
00000370: b8d4 143d a145 013d 47fb 683d 9003 153d
00000380: 3ad2 b73d 8e57 1e3e c335 9abd 9552 83bd
00000390: 8c88 b6bd 5e3a 8fbe 1671 0ebe 2253 573e
000003a0: 049a 1d3e 1875 63bc 4996 393d 592e 203d
000003b0: 0d93 35bc bf93 ab3c a8bd 383d 7722 f53c
000003c0: 4b18 d2bd 249e b13c d560 573e be57 003f
000003d0: eb63 70be 5c4e 023e 85d6 18bf 8235 6bbd
000003e0: 8e01 083e 8b41 50bd a8a4 03bd 0924 80bd
000003f0: 310f dfbb 751a 99bc ae4f b5bc d818 1a3c

critic.0.bias f4 [64]
0.13225318 -0.18274789 -0.115188055 -0.12757811 -0.015861014 -0.08193902 -0.07047199 0.046659112
-0.049070578 -0.13033772 -0.0094882 0.108560964 -0.01779589 -0.10651096 0.06588355 -0.10243314
-0.109532684 0.14030372 -0.021647548 0.10565579 0.13570169 -0.08863205 0.08155396 -0.042641673
0.07165931 -0.039174132 0.026812043 0.03071845 -0.08122243 0.20547067 -0.04975748 -0.008325474
-0.067321755 -0.031804387 0.03885881 -0.0958327 -0.063869916 0.19163582 -0.14383166 -0.016306415
0.047689505 0.081939824 0.075673066 -0.23294951 -0.17368612 -0.00576311 -0.2784745 -0.18604691
-0.067856334 -0.063183166 -0.20259702 -0.15707481 0.045435287 -0.12833731 -0.101663105 -0.09228288
0.10944971 -0.04402981 -0.12158598 -0.07658398 -0.021334538 0.20835079 0.1579552 -0.09412967
00000000: 616d 073e 4322 3bbe b7e7 ebbd d6a3 02be
00000010: f5ee 81bc a5cf a7bd 9e53 90bd a01d 3f3d
00000020: 3bfe 48bd 4077 05be 6574 1bbc 3655 de3d
00000030: b0c8 91bc 6b22 dabd f4ed 863d 77c8 d1bd
00000040: ac52 e0bd c7ab 0f3e 3356 b1bc 1062 d83d
00000050: 62f5 0a3e b884 b5bd c305 a73d 09a9 2ebd
00000060: 1ec2 923d 0e75 20bd eea4 db3c 42a5 fb3c
00000070: f257 a6bd e766 523e 80ce 4bbd 9267 08bc
00000080: fddf 89bd 5145 02bd 6a2a 1f3d ef43 c4bd
00000090: 3bce 82bd 2e3c 443e 9b48 13be 0895 85bc
000000a0: 1256 433d 11d0 a73d 7bfa 9a3d 518a 6ebe
000000b0: c6da 31be 78d8 bcbb 3694 8ebe 1583 3ebe
000000c0: 43f8 8abd 2d66 81bd 9875 4fbe 38d8 20be
000000d0: 5a1a 3a3d db6a 03be bf34 d0bd cefe bcbd
000000e0: 2b27 e03d 9a58 34bd 1202 f9bd 10d8 9cbd
000000f0: c5c5 aebc e959 553e 02bf 213e 0ec7 c0bd

critic.2.weight f4 [64, 64]
-0.1139359 -0.017796883 0.21171334 0.11528235 0.0076157963 -0.020122377 0.09627104 0.086348616
0.2700117 0.18399121 0.0009429347 -0.06939499 -0.2749279 0.13012093 0.028329235 0.064778365
-0.043156825 -0.17904145 -0.12351563 -0.16842826 0.043436933 -0.16318993 -0.039101217 -0.0017384958
-0.03641359 -0.018682424 0.074041545 -0.05841269 0.10246874 -0.22634326 0.08474614 -0.09827331
0.040918488 0.0399453 0.14586678 0.06788959 -0.04340911 -0.23875526 -0.22948684 0.09399994
0.096797734 -0.07432286 -0.06863969 -0.1829113 -0.038883206 0.18758088 0.13414541 -0.15199691
-0.057111543 -0.019069092 0.058210667 -0.10699542 0.065308206 -0.09695727 -0.0746658 -0.022181317
0.16440278 0.13360995 0.036266375 0.09591188 -0.05893649 0.020212445 0.016118214 -0.07658279
-0.064015 -0.09979853 -0.039957706 0.11018377 -0.006055538 0.056153364 -0.047941484 -0.022672793
-0.12092136 0.19866763 0.18144664 0.16178137 -0.2066063 -0.028630149 0.2847077 -0.026596956
0.04429492 -0.108063295 0.005959441 -0.11199062 0.22787103 -0.07435219 -0.0447448 0.18659912
0.1264442 0.15578982 0.07564088 0.042863242 0.054556854 -0.116125524 0.0564155 -0.004060428
0.09429649 -0.08053455 -0.14019506 -0.09460691 -0.12219725 -0.04855155 -0.12572536 0.28143966
0.027973808 -0.11899337 0.27173093 -0.16659363 -0.11145411 0.06172955 -0.036445096 0.01555896
-0.05555046 -0.23309578 -0.11521441 -0.0427855 0.02979747 -0.2148939 -0.012072597 -0.08646959
0.17595655 0.030413045 0.024071384 0.20172198 0.014088773 0.18779211 0.17512244 0.08727452
0.09138885 -0.045492724 0.048754297 -0.113042496 0.055457868 0.0046164542 -0.08166595 0.14772967
-0.19266607 0.01426924 0.030418076 0.01404007 -0.16260332 0.14481236 -0.070619985 0.13083534
-0.08571131 0.17111719 -0.029235637 0.1659362 0.08592887 -0.23257214 -0.040175214 -0.03828835
-0.1297781 0.14605083 0.017204855 -0.085630886 -0.03239198 0.16683896 0.04821199 0.09924882
-0.004479092 -0.058706056 0.038102545 -0.015760684 -0.04303323 0.057518195 -0.009768994 -0.013924105
0.044273548 -0.10471272 0.076545395 -0.14454786 -0.055816934 0.025958013 -0.10023607 -0.12604158
-0.070878536 0.06419602 -0.12165129 -0.065590456 0.0765867 0.13765946 0.09950777 0.030746438
-0.05140917 -0.0011277194 0.16793099 -0.14502296 0.08496714 0.11644804 0.08938661 -0.023958195
-0.115549475 0.010261842 0.21883932 -0.042461902 -0.11136923 -0.039174452 0.0019766237 -0.01927843
-0.046627734 0.67385197 0.014803827 0.46557784 -0.34531495 -0.111491315 -0.014464181 0.19725075
0.03198316 -0.011749443 -0.037687894 0.27965125 0.67115587 -0.16846438 -0.029311296 -0.0022460672
-0.19102414 0.08952805 0.24285649 -0.09331526 0.088018164 -0.25379345 0.012731857 0.09158604
-0.1236931 -0.07289741 -0.09225308 -0.017484257 0.17135258 -0.059423078 -0.45018888 0.02596826
0.07930442 -0.3411942 0.17696933 -0.27678576 -0.22105609 0.13681088 0.101332225 -0.012228096
-0.03654558 -0.050926264 0.30991665 0.12117637 -0.048185118 -0.042793695 -0.052237276 -0.025508046
0.3878826 0.015336224 -0.12382022 0.28653136 -0.07804753 -0.07168057 -0.027614184 -0.13983504
00000000: 3a57 e9bd c5ca 91bc 62cb 583e 2719 ec3d
00000010: ee8d f93b afd7 a4bc c029 c53d 8bd7 b03d
00000020: f93e 8a3e 3168 3c3e 472f 773a f61e 8ebd
00000030: 5ac3 8cbe 6c3e 053e b612 e83c 85aa 843d
00000040: 36c5 30bd a456 37be c3f5 fcbd 7578 2cbe
00000050: edea 313d 431b 27be 9928 20bd 3dde e3ba
00000060: 6b26 15bd e20b 99bc 18a3 973d 2542 6fbd
00000070: 21db d13d 87c6 67be 628f ad3d 8443 c9bd
00000080: 259a 273d af9d 233d 1a5e 153e b309 8b3d
00000090: c0cd 31bd 427c 74be 99fe 6abe 0a83 c03d
000000a0: e43d c63d 9536 98bd f792 8cbd 1a4d 3bbe
000000b0: ff43 1fbd 3415 403e 6a5d 093e 14a5 1bbe
000000c0: cbed 69bd c936 9cbc 4f6e 6e3d 6a20 dbbd
000000d0: 4fc0 853d 8891 c6bd 62ea 98bd 98b5 b5bc
000000e0: 3459 283e 0cd1 083e 0d8c 143d 736d c43d
000000f0: 6467 71bd 9294 a53c 580a 843c 70d7 9cbd
00000100: 4c1a 83bd 2c63 ccbd b1aa 23bd 07a8 e13d
00000110: 896d c6bb 1201 663d 4a5e 44bd 4bbc b9bc
00000120: 9ea5 f7bd 876f 4b3e 26cd 393e 04aa 253e
00000130: 9a90 53be c689 eabc 35c5 913e dce1 d9bc
00000140: 976e 353d 4a50 ddbd 6a47 c33b 575b e5bd
00000150: 0657 693e f645 98bd 5346 37bd d713 3f3e
00000160: 977a 013e 5e87 1f3e 9be9 9a3d 5e91 2f3d
00000170: 0277 5f3d 38d3 edbd f013 673d 570d 85bb
00000180: 851e c13d 4cef a4bd 4b8f 0fbe 45c1 c1bd
00000190: 8d42 fabd fddd 46bd 26be 00be dc18 903e
000001a0: 5429 e53c ccb2 f3bd 5120 8b3e 8597 2abe
000001b0: 0d42 e4bd 20d8 7c3d 7447 15bd 02eb 7e3c
000001c0: e188 63bd a9b0 6ebe 88f5 ebbd d93f 2fbd
000001d0: d319 f43c 260d 5cbe 24cc 45bc f816 b1bd
000001e0: f42d 343e c724 f93c 5a31 c53c 3590 4e3e
000001f0: 99d4 663c 934c 403e 4c53 333e fcbc b23d
00000200: 142a bb3d 9456 3abd 96b2 473d d382 e7bd
00000210: ca27 633d a045 973b 7a40 a7bd 7246 173e
00000220: 414a 45be 88c9 693c 542f f93c 5208 663c
00000230: 7c81 26be b149 143e 36a1 90bd b3f9 053e
00000240: 6989 afbd 5839 2f3e 937f efbc 2eeb 293e
00000250: 7afb af3d 6427 6ebe c48e 24bd 3fd4 1cbd
00000260: 8de4 04be 598e 153e 32f1 8c3c 3f5f afbd
00000270: 74ad 04bd d5d7 2a3e f079 453d f742 cb3d
00000280: 59c5 92bb c375 70bd 6a11 1c3d 8d1c 81bc
00000290: 9d43 30bd 3398 6b3d 210e 20bc ee21 64bc
000002a0: 2e58 353d 9f73 d6bd d5c3 9c3d 5b04 14be
000002b0: 4ca0 64bd e6a5 d43c 9248 cdbd 0b11 01be
000002c0: c428 91bd 3479 833d 5024 f9bd 4a54 86bd
000002d0: 7dd9 9c3d 9af6 0c3e bbca cb3d f4df fb3c
000002e0: 6c92 52bd fccf 93ba 1af6 2b3e e680 14be
000002f0: 4003 ae3d 4f7c ee3d 5410 b73d fa43 c4bc
00000300: 34a5 ecbd 4921 283c 6a17 603e 88ec 2dbd
00000310: 8d15 e4bd 6475 20bd 3e8a 013b cced 9dbc
00000320: b9fc 3ebd 9081 2c3f c08b 723c 3860 ee3e
00000330: 1fcd b0be 8f55 e4bd 2cfb 6cbc 1afc 493e
00000340: c600 033d bc80 40bc 9f5e 1abd 732e 8f3e
00000350: dfd0 2b3f ed81 2cbe 3e1e f0bc c132 13bb
00000360: d59b 43be 7b5a b73d 5faf 783e 121c bfbd
00000370: de42 b43d 37f1 81be 4799 503c 7691 bb3d
00000380: cf52 fdbd 3d4b 95bd 2fef bcbd 253b 8fbc
00000390: 0d77 2f3e 9d65 73bd 287f e6be 63bb d43c
000003a0: 5b6a a23d 02b1 aebe 7337 353e ddb6 8dbe
000003b0: 875c 62be 2718 0c3e 4587 cf3d 5a58 48bc
000003c0: d1b0 15bd 0f98 50bd 65ad 9e3e 512b f83d
000003d0: c25d 45bd 7148 2fbd c1f6 55bd 40f6 d0bc
000003e0: 8c98 c63e c944 7b3c 7595 fdbd 3db4 923e
000003f0: 62d7 9fbd 43cd 92bd 2437 e2bc eb30 0fbe

critic.2.bias f4 [64]
-0.030064514 -0.1397566 -0.00753025 -0.304559 0.06805222 -0.08161082 -0.049614713 0.082639694
0.15668397 0.079117574 -0.10143294 -0.17068964 -0.114932135 0.047780864 0.0077759554 0.056878664
0.11491309 -0.10232757 -0.12797426 0.060042337 -0.08978249 -0.16699916 0.044355184 0.055760663
-0.08853372 0.009889207 -0.15122995 -0.010607225 -0.10501062 0.01644979 0.09291632 -0.0012722366
-0.01623587 0.07986445 0.13018578 0.1297717 -0.04890571 0.02209439 -0.21229568 -0.12801795
-0.20394821 -0.06548127 0.100063756 0.17927256 0.05912954 -0.043671302 0.05751593 -0.011052426
0.119673476 -0.06819697 0.1636339 -0.0026091 -0.06695145 -0.078672916 0.027453275 -0.018043166
-0.09944501 -0.090270944 -0.046759494 -0.06627893 -0.11926171 -0.008002362 -0.07261852 0.0026451293
00000000: db49 f6bc 5b1c 0fbe 51c0 f6bb 28ef 9bbe
00000010: f65e 8b3d 9323 a7bd cc38 4bbd 003f a93d
00000020: c371 203e 6508 a23d 13bc cfbd 44c9 2ebe
00000030: 8a61 ebbd deb5 433d 71cd fe3b 9af9 683d
00000040: 8e57 eb3d 1e91 d1bd af0b 03be f4ee 753d
00000050: e2df b7bd d401 2bbe c8ad 353d 4b65 643d
00000060: 2b51 b5bd 5706 223c 06dc 1abe edc9 2dbc
00000070: cf0f d7bd b6c1 863c e94a be3d 2dc1 a6ba
00000080: 1601 85bc f98f a33d 6c4f 053e dfe2 043e
00000090: 5b51 48bd 4bff b43c 0a64 59be 2317 03be
000000a0: cdd7 50be 0b1b 86bd 3aee cc3d 3a93 373e
000000b0: d131 723d aee0 32bd d395 6b3d 3c15 35bc
000000c0: 5e17 f53d daaa 8bbd a58f 273e 6ffd 2abb
000000d0: d81d 89bd 441f a1bd b1e5 e03c 43cf 93bc
000000e0: d3a9 cbbd f9df b8bd e286 3fbd 3fbd 87bd
000000f0: 7c3f f4bd 571c 03bc 05b9 94bd e859 2d3b

critic.4.weight f4 [1, 64]
-0.08157641 -0.06422112 -0.034939304 -0.124159664 -0.038148962 0.036553938 -0.052888557 -0.04282895
-0.07101823 -0.04067239 -0.122876264 0.10628124 -0.015418824 0.09660671 -0.04652327 -0.04752104
-0.028655436 0.13926208 -0.039953273 0.034907546 -0.024398992 -0.060074788 0.042093165 0.0090442
0.042745095 -0.018928155 0.009468627 0.039958566 0.02915112 -0.0044868113 -0.0038517795 -0.0392251
0.03601725 -0.050901227 0.010180035 0.037496444 -0.041247915 0.019882195 -0.05599439 -0.009404763
-0.000661697 -0.043771878 -0.021529257 -0.14916886 0.021484938 0.14519118 0.047560688 -0.0068638227
-0.068007365 -0.028054202 0.008079269 0.071607284 -0.07781368 -0.0116563495 0.024388777 0.0431214
-0.038300026 -0.07752979 -0.026696932 -0.028634407 -0.09218805 0.11370258 -0.11611663 -0.017725863
00000000: 8811 a7bd 5d86 83bd 841c 0fbd 6c47 febd
00000010: 1642 1cbd 95b9 153d aca1 58bd 696d 2fbd
00000020: 0172 91bd 1898 26bd 8da6 fbbd fba9 d93d
00000030: 3c9f 7cbc bdd9 c53d 2f8f 3ebd 6ca5 42bd
00000040: cebe eabc b89a 0e3e 0ba6 23bd 37fb 0e3d
00000050: 65e0 c7bc fb10 76bd e269 2c3d 202e 143c
00000060: 7b15 2f3d 380f 9bbc 4d22 1b3c 98ab 233d
00000070: 54ce ee3c 1a06 93bb 236e 7cbb 80aa 20bd
00000080: d386 133d ce7d 50bd 29ca 263c df95 193d
00000090: 93f3 28bd fcdf a23c 605a 65bd 6f16 1abc
000000a0: bc75 2dba 244a 33bd 205e b0bc b9bf 18be
000000b0: 2e01 b03c ffac 143e ffce 423d ebe9 e0bb
000000c0: 7247 8bbd edd1 e5bc e95e 043c d7a6 923d
000000d0: c75c 9fbd 46fa 3ebc f9ca c73c 11a0 303d
000000e0: 7de0 1cbd f0c7 9ebd 86b3 dabc b492 eabc
000000f0: 17cd bcbd e6dc e83d 8ece edbd d435 91bc

exp_avg f4 [7]
0.00022934144 -0.0051154336 0.0031361028 -0.0025235878 0.0020234522 -0.0061951797 0.006033262
00000000: 607b 7039 5e9f a7bb 1387 4d3b c762 25bb
00000010: e59b 043b ef00 cbbb abb2 c53b

exp_avg_sq f4 [7]
0.00015127087 0.00042137704 0.00024679714 0.0007407179 0.0003917686 0.00032826807 0.00028076363
00000000: 779e 1e39 45ec dc39 8d64 8139 bd2c 423a
00000010: 4b66 cd39 651b ac39 7533 9339

exp_avg f4 [64, 32]
-3.7491223e-05 0.0005855324 0.00017702958 0.0002654008 -4.9653434e-05 -0.0007473909 0.0019125812 -1.5469812e-05
-2.269736e-05 0.00012207153 -0.0004680915 -0.00014482054 -7.0084193e-06 -5.979999e-05 -0.0004542221 -5.8521987e-06
4.1762905e-05 2.3170012e-05 0.00016422338 0.00011448314 7.833559e-05 -4.5631693e-12 -0.00030660356 0.0001048185
-1.3411747e-11 0.0001859769 4.375988e-06 0.0005441808 0.0005938642 0.00021533415 -0.000847132 0.0040460723
0.00046744035 0.00035345397 0.000132873 0.00024152324 0.0019254771 0.00014713356 0.0056784125 -3.577729e-05
-1.6384058e-05 -0.00071429 0.00060131797 0.0006028061 0.0005198161 0.00032108443 -0.00020559145 -0.0010055583
2.7115399e-05 2.9847863e-05 0.00021475155 0.00029192405 9.0687245e-05 -2.3414978e-11 0.00061352574 0.00053582445
2.6816625e-11 0.0012181895 0.00058864354 0.0004984181 0.00034722936 0.0043246886 0.0001313139 0.012354863
-0.0020612057 0.0031896338 0.00025579502 0.0021337077 -0.00047352974 -0.0031346993 -0.00019280026 -1.9399458e-05
-0.00016599585 -0.0009519559 -0.0021615066 0.000105278035 -0.0011896606 0.0027543076 -0.0025157107 0.0032808306
-6.1453793e-06 5.789758e-05 0.0015156015 -0.0010143159 0.0005572933 -1.15998725e-10 -0.0040286593 0.0026535285
-1.7617217e-10 -0.0049719443 0.001198078 -7.3603354e-05 0.0054972772 -0.00032425352 -0.004697019 0.001829708
5.7029552e-05 0.00041943823 0.00032997498 1.1069272e-05 0.000369437 -0.0002788784 0.0032323117 -2.9721004e-05
-2.7573238e-05 -0.00014153731 -2.89582e-05 0.0011464092 -0.0005245244 -0.00036163547 0.0015666581 4.1380063e-05
3.7346694e-05 -9.4460233e-07 0.00032630767 0.00019048133 0.0002034259 -2.7292646e-11 0.0003295569 0.00062473404
1.4419958e-11 0.0007581638 0.00026780282 0.0012073724 0.00042915333 0.0009743974 -0.0009671932 0.00659936
0.00034783885 0.0005186693 0.0003610879 0.0007925564 0.0007244796 -0.0007697605 0.0032148387 -4.185021e-06
-2.9108627e-05 -0.00046117924 -0.00047278835 0.00045475495 0.00022546043 0.0009759333 -0.0008162938 0.0009442731
2.8856706e-05 5.8093297e-05 4.195377e-05 0.00017624527 0.0001449472 3.0098925e-12 -0.0011402013 -6.8588495e-05
-4.9874535e-11 0.00035198557 -9.407597e-05 0.0006526547 0.0018451076 0.001857641 -0.0009605143 0.008094679
2.3856535e-05 -0.000321976 4.707645e-05 -0.000118379525 -0.00072721404 0.00036170456 -0.0013344288 2.7890668e-05
3.5601468e-05 -0.00015792281 -0.0003268152 0.00026357037 -0.00032110358 -0.00042569372 0.0004969278 -0.00034928488
-1.4580121e-05 -2.0721104e-06 -0.000122085 3.6059988e-05 -0.00031681976 3.0521315e-11 -0.0005145554 -0.00069913955
-2.24911e-11 0.000307563 -0.0004321761 0.00036843357 -0.00035796384 -0.0015495645 0.00045130993 -0.003406985
-0.00035000674 -0.0003812839 -0.00058793265 -0.00034441048 -0.0005876579 0.0002232648 -0.0022021907 4.9944407e-05
3.423338e-05 -0.0004454182 6.878813e-05 -0.00033485043 -0.00027525454 -4.2044325e-05 -0.0010792171 -0.00015520719
-1.4841398e-05 -1.354149e-05 -0.00042018524 -0.00047139087 -0.0004373295 1.0109076e-11 0.00023595055 -0.00023155655
1.03004315e-11 -0.0012426217 -0.00049315445 -0.0015801926 -0.0012965333 -0.001290475 -5.7299218e-05 -0.0048492327
-0.00017695109 -0.0011723102 -0.0003515181 -0.0014086545 -0.00022232078 0.0018766179 -0.0027633249 4.213281e-05
3.2745193e-05 -9.529764e-05 0.0005978069 0.00028149734 -0.0005553335 -0.0009876416 0.0022299516 -0.0012014935
-3.1317675e-05 -4.968657e-05 -0.00063091423 -0.000108037755 -0.0003926371 -2.5141829e-12 0.0020041736 5.678314e-05
8.763722e-11 -0.0002604581 -0.0011138538 -0.00084399286 -0.0031001298 -0.00074977666 0.003165738 -0.0064481064
00000000: e53f 1db8 6a7e 193a 04a1 3939 7e25 8b39
00000010: f842 50b8 8eec 43ba 93af fa3a 2bc5 81b7
00000020: 3666 beb7 5400 0039 2d6a f5b9 f8da 17b9
00000030: dd29 ebb6 c0d1 7ab8 a924 eeb9 015e c4b6
00000040: 942a 2f38 395d c237 6133 2c39 ab16 f038
00000050: 1a48 a438 608d a0ac a2bf a0b9 01d2 db38
00000060: 24f1 6bad cb02 4339 73d5 9236 5ba7 0e3a
00000070: 8dad 1b3a 52cb 6139 1112 5eba ea94 843b
00000080: c812 f539 ca4f b939 d353 0b39 6741 7d39
00000090: 4a60 fc3a dd47 1a39 fa11 ba3b 930f 16b8
000000a0: 7f70 89b7 313f 3bba c4a1 1d3a a205 1e3a
000000b0: 4544 083a 3957 a839 0994 57b9 f0cc 83ba
000000c0: e075 e337 cc61 fa37 ee2e 6139 620d 9939
000000d0: 582f be38 d8f5 cdad 04d5 203a 9276 0c3a
000000e0: ace1 eb2d a8ab 9f3a 334f 1a3a 46a8 023a
000000f0: 560c b639 1eb6 8d3b 4eb1 0939 0d6c 4a3c
00000100: 4b15 07bb 2d09 513b 3a1c 8639 add5 0b3b
00000110: 1644 f8b9 876f 4dbb 6d2a 4ab9 05bc a2b7
00000120: 2c0f 2eb9 ae8c 79ba 10a8 0dbb b7c8 dc38
00000130: 63ee 9bba 9d81 343b 9fde 24bb 3403 573b
00000140: 6834 ceb6 0ed7 7238 26a7 c63a cbf2 84ba
00000150: 5217 123a 7a15 ffae d802 84bb d2e6 2d3b
00000160: 0fb4 41af b1eb a2bb d408 9d3a 805b 9ab8
00000170: 8122 b43b 9200 aab9 73e9 99bb d0d2 ef3a
00000180: 0433 6f38 0ce8 db39 7e00 ad39 29b6 3937
00000190: ffb0 c139 6d36 92b9 31d5 533b 5f51 f9b7
000001a0: 144d e7b7 a269 14b9 43eb f2b7 1c43 963a
000001b0: 3d80 09ba e499 bdb9 5358 cd3a 818f 2d38
000001c0: b5a4 1c38 9490 7db5 4614 ab39 f1bb 4739
000001d0: b94e 5539 9311 f0ad 61c8 ac39 31c5 233a
000001e0: b8ad 7d2d 83bf 463a e367 8c39 b240 9e3a
000001f0: fcff e039 b46e 7f3a 3d8b 7dba 723f d83b
00000200: 245e b639 4ff7 073a 6650 bd39 8fc3 4f3a
00000210: 01eb 3d3a c1c9 49ba 0bb0 523b 0f6d 8cb6
00000220: 4d2e f4b7 6eca f1b9 94e0 f7b9 2d6c ee39
00000230: 9369 6c39 c6d5 7f3a 8dfc 55ba 1889 773a
00000240: 4e11 f237 34a9 7338 84f7 2f38 7bce 3839
00000250: f8fc 1739 67cd 532c cf72 95ba 2bd7 8fb8
00000260: bc59 5bae b48a b839 a74a c5b8 ea16 2b3a
00000270: 8ad7 f13a 177c f33a 06cb 7bba 8b9f 043c
00000280: 851f c837 e3ce a8b9 f473 4538 8642 f8b8
00000290: 82a2 3eba 2aa3 bd39 00e8 aeba c1f6 e937
000002a0: c952 1538 1598 25b9 6558 abb9 d12f 8a39
000002b0: cb59 a8b9 a52f dfb9 4344 023a 3920 b7b9
000002c0: 259d 74b7 960e 0bb6 f103 00b9 1e3f 1738
000002d0: d41a a6b9 f23b 062e 3ae3 06ba 7646 37ba
000002e0: 74d5 c5ad 6840 a139 b295 e2b9 512a c139
000002f0: 18ad bbb9 c21a cbba cb9d ec39 b947 5fbb
00000300: 1c81 b7b9 0fe7 c7b9 7e1f 1aba fe91 b4b9
00000310: 0e0d 1aba 301c 6a39 a152 10bb 667b 5138
00000320: d095 0f38 0587 e9b9 5942 9038 dd8e afb9
00000330: 0a50 90b9 c058 30b8 8474 8dba 1dbf 22b9
00000340: 52ff 78b7 4230 63b7 4f4c dcb9 0325 f7b9
00000350: 5f49 e5b9 3bd7 312d 7e69 7739 fdcd 72b9
00000360: 0535 352d 77df a2ba 0947 01ba 771e cfba
00000370: 70f0 a9ba 2825 a9ba 9154 70b8 50e6 9ebb
00000380: f28b 39b9 34a8 99ba f64b b8b9 9aa2 b8ba
00000390: c81e 69b9 d9f8 f53a e618 35bb c3b7 3038
000003a0: e257 0938 88da c7b8 24b6 1c3a ef95 9339
000003b0: cd93 11ba c173 81ba 6124 123b 6f7b 9dba
000003c0: 195b 03b8 8c66 50b8 f063 25ba 5492 e2b8
000003d0: dcda cdb9 7eeb 30ac 7458 033b 6f2a 6e38
000003e0: 5eb7 c02e 188e 88b9 bbfe 91ba 673f 5dba
000003f0: 8c2b 4bbb a98c 44ba 4578 4f3b a34a d3bb
