logs/rsl_rl/franka_reach/2025-06-26_19-51-50/model_500.pt (torch, 172795 bytes, 36 tensors)

std f4 [7]
0	0x3dc7258f	0.097239606
1	0x3d8f0db8	0.069850385
2	0x3dade429	0.08490784
3	0x3d6d4f12	0.057936735
4	0x3d904f64	0.070463926
5	0x3d9a9a0c	0.07548913
6	0x3da71812	0.08158888

actor.0.weight f4 [64, 32]
0	0xbe479a2e	-0.19492409
1	0x3e28111a	0.16412774
2	0xbe50b423	-0.20381217
3	0x3ddd2559	0.10798139
4	0x3e8a55fa	0.2701872
5	0x3da63902	0.08116342
6	0x3ef9ddab	0.48801932
7	0x3ea34f9c	0.31896675
8	0x3f1a62ed	0.603072
9	0xbc994368	-0.0187089
10	0xbdd046b8	-0.101697385
11	0x3da50035	0.0805668
12	0x3d9aa50b	0.07551011
13	0x3d97878d	0.07398901
14	0x3cff6ea4	0.031180687
15	0x3d5d496d	0.054025102
16	0x3c105bf8	0.00881099
17	0xbe9b21cb	-0.3029922
18	0xbe7d2060	-0.24719381
19	0xbfff01c4	-1.9922414
20	0x3ea964f2	0.33084828
21	0xbcbcf961	-0.023068132
22	0xbfbcd34b	-1.4751981
23	0x3f07ebb8	0.53094053
24	0xbe183eaf	-0.14867662
25	0xbdcec641	-0.10096408
26	0xbe3bb775	-0.18331702
27	0xbe3aa863	-0.18228297
28	0xbbef1c8d	-0.0072971047
29	0xbe0c17d3	-0.13680963
30	0x3d71a01a	0.058990575
31	0x3e34b9fb	0.17649071
32	0x3ebed9f9	0.37275675
33	0x3e7efd8e	0.24901411
34	0x3eb61f4a	0.35570747
35	0x3f79e6d5	0.97617847
36	0x3f05f308	0.5232396
37	0x3ef3d40d	0.4762272
38	0xbdd381e8	-0.10327512
39	0xbe4eb07e	-0.20184514
40	0x3c8ae108	0.016953006
41	0x3ddd2f0e	0.107999906
42	0xbd20c42b	-0.03924958
43	0x3dd93af5	0.10606948
44	0x3dd2f40c	0.103004545
45	0xbd13b14c	-0.036057755
46	0xbd96270f	-0.073316686
47	0x3dd21e5f	0.10259699
48	0xbe46a13a	-0.1939744
49	0x3df75218	0.12076205
50	0xbf4dd319	-0.80400234
51	0xbfa27b3d	-1.2693859
52	0xbd8b2ad9	-0.06795282
53	0x3e14dbc7	0.14536963
54	0x3eb8d6ac	0.36101282
55	0x3d07433b	0.0330231
56	0x3d68089a	0.056648828
57	0xbba4a163	-0.0050241216
58	0x3e4e3e76	0.20141014
59	0xbdc6b22a	-0.09701951
60	0xbd90c001	-0.07067872
61	0xbd6f7fce	-0.058471493
62	0x3daefc34	0.08544198
63	0xbddc4278	-0.107548654
64	0x3f79f6de	0.97642314
65	0x3e0085e1	0.12551071
66	0x3f686055	0.9077199
67	0xbf02af67	-0.5104889
68	0xbd9fc39f	-0.07800984
69	0xbe025df4	-0.12731153
70	0x3e91382e	0.28363174
71	0x3ec6276c	0.38701952
72	0x3f1f8f07	0.6232762
73	0xbe32060f	-0.17385124
74	0x3d8a7ae9	0.067617245
75	0xbe5fd720	-0.21859407
76	0xbc505b69	-0.012717106
77	0xbcf9e145	-0.030502925
78	0x3d9efc8d	0.07763014
79	0x3da82701	0.082105644
80	0x3e2a8ea3	0.16655974
81	0xbdef682a	-0.116897896
82	0x3eab5054	0.33459723
83	0xbf3f92fc	-0.74833655
84	0x3f1bba58	0.60831213
85	0xbd228f47	-0.03968742
86	0xbda857c8	-0.08219868
87	0xbe775ea2	-0.24157193
88	0xbdb51944	-0.0884271
89	0x3d25d73b	0.040488463
90	0x3e79579e	0.2434983
91	0x3ba6c22e	0.005089066
92	0x3e38998c	0.18027323
93	0x3ddeb924	0.108751565
94	0xbe88f55c	-0.26749694
95	0xbe0ca7f3	-0.13735943
96	0xbe2b4b0b	-0.16727845
97	0xbe20df4b	-0.1571018
98	0x3e462c57	0.19352852
99	0xbda4c6f2	-0.08045758
100	0x3d7fb04d	0.062423993
101	0x3ea5d6df	0.32390496
102	0x3ea58820	0.32330418
103	0xbe4de6da	-0.20107594
104	0x3d170110	0.036866248
105	0xbd450f37	-0.048110213
106	0xbd43fa32	-0.047846027
107	0xbdb8d436	-0.09024851
108	0xbdbd4a86	-0.0924273
109	0xbe237b86	-0.15965089
110	0x3d8ac1c9	0.06775243
111	0xbc08ea39	-0.008356624
112	0x3f03612c	0.5132015
113	0xbea5c058	-0.3237331
114	0xbf7f91ae	-0.99831665
115	0x3da067ea	0.0783232
116	0x3f492916	0.7857832
117	0xbe217431	-0.1576698
118	0xbef59cf8	-0.4797132
119	0xbc1e5d14	-0.009665746
120	0xba6cf880	-0.0009039715
121	0x3e9c5bae	0.30538696
122	0x3e31eded	0.17375918
123	0xbe285e82	-0.16442302
124	0x3bd939eb	0.006629219
125	0xbe540d40	-0.2070818
126	0xbe39cdbf	-0.18144892
127	0xbe04bef0	-0.12963462
128	0xbd9e125a	-0.07718344
129	0xbbe4e793	-0.0069856136
130	0x3d06de20	0.03292668
131	0x3e985763	0.2975417
132	0xbebf90a8	-0.3741505
133	0x3f3afbad	0.73040277
134	0xbe115128	-0.14191115
135	0xbe0e993d	-0.13925643
136	0xbdf73b96	-0.12071912
137	0xbd19f1f8	-0.037584275
138	0xbd08442f	-0.03326815
139	0xbd223a91	-0.039606635
140	0xbd746ac9	-0.05967215
141	0x3d6e318f	0.05815273
142	0x3c9f60ec	0.019455396
143	0xbe1e9ad2	-0.15488747
144	0x3e571f57	0.21008049
145	0x3f453ca1	0.7704564
146	0xbe99c88e	-0.30035824
147	0x3f0911d4	0.5354283
148	0x3f867717	1.0505093
149	0xbe0d526f	-0.13800977
150	0xbd289ab3	-0.041163158
151	0xbf2d64d1	-0.6773196
152	0xbc8bda8d	-0.017071987
153	0xbef2bf02	-0.47411352
154	0x3eb3f9d1	0.35151532
155	0x3da5c4b5	0.080941595
156	0xbd83f6ba	-0.06443544
157	0x3dda4264	0.10657194
158	0xbdfa03a1	-0.122077234
159	0x3d5959b5	0.053064067
160	0x3df34f54	0.11880365
161	0xbe8c8cd6	-0.274512
162	0xbea285b4	-0.31742632
163	0xbdd3a45b	-0.10334083
164	0x3e12813d	0.14307113
165	0x3e08f1ec	0.13373536
166	0x3d14bbcd	0.036311913
167	0x3e8d28d5	0.27570215
168	0x3e347c7b	0.1762561
169	0xbdfb4452	-0.122688904
170	0xbe8b7cb9	-0.27243593
171	0xbdbde23f	-0.09271669
172	0x3e3c6c54	0.18400699
173	0xbd8217de	-0.063522086
174	0xbce77757	-0.028255148
175	0x3de3c092	0.11120714
176	0x3f1d003e	0.61328495
177	0x3f56b015	0.8386243
178	0xbd3c7428	-0.046009213
179	0xc01223e0	-2.2834396
180	0xbf560fde	-0.8361796
181	0x3db4d9e1	0.088306196
182	0x3e045b80	0.1292553
183	0x3f14174f	0.57848066
184	0x3dbbdfc0	0.09173536
185	0xbdd097b6	-0.101851866
186	0x3e68162a	0.22664705
187	0xbd469917	-0.04848584
188	0xbe880641	-0.2656727
189	0x3e2b348a	0.16719261
190	0x3e86822b	0.26271185
191	0xbcfa905b	-0.030586412
192	0x3ec42a6c	0.38313615
193	0xbd80a3dc	-0.06281254
194	0x3f343cdb	0.7040536
195	0xbe8a473f	-0.2700748
196	0xbe309c29	-0.1724707
197	0x3e69e0ac	0.22839612
198	0xba8e5a42	-0.0010860639
199	0x3e83f5b9	0.2577341
200	0x3d97a283	0.074040435
201	0x3e375bd1	0.17906119
202	0xbc45a7bc	-0.012063917
203	0x3d970bd8	0.07375306
204	0x3c51d885	0.01280797
205	0xbb0e57c7	-0.00217198
206	0x3cebdbb0	0.028791279
207	0xbdf739ef	-0.12071597
208	0x3dac4781	0.08412076
209	0x3e10af84	0.14129454
210	0x3e4ee523	0.20204596
211	0x3f24bec8	0.6435361
212	0xbe424544	-0.18971735
213	0xbddc58af	-0.107591026
214	0xbecba2fd	-0.39772788
215	0x3f0714b1	0.5276595
216	0x3cc2b36a	0.023767192
217	0x3d84898c	0.064715475
218	0x3dc673ad	0.09690032
219	0x3e1d8080	0.1538105
220	0xbb43bfb9	-0.0029868914
221	0x3e11f8df	0.14255093
222	0x3e0e95a3	0.1392427
223	0x3ccaa4a4	0.02473671
224	0x3f917830	1.1364803
225	0x3d9dc0be	0.07702778
226	0x3f83d55b	1.0299486
227	0xbe066b38	-0.13126838
228	0xbeee5403	-0.4654847
229	0xbea54a37	-0.32283184
230	0xbf0a82aa	-0.5410563
231	0x3e9bba42	0.3041554
232	0x3e48944c	0.19587821
233	0x3d14476a	0.03620092
234	0xbca85f87	-0.020553363
235	0x3dd004c0	0.10157156
236	0x3e1393a9	0.14411797
237	0x3dc09679	0.094037004
238	0xbcbb5c7c	-0.022871248
239	0xbcfaf4e8	-0.030634359
240	0xbe4131b6	-0.1886662
241	0xbf312018	-0.69189596
242	0xbe809b21	-0.25118354
243	0xbf2cfeb8	-0.6757617
244	0xbf11df11	-0.56981
245	0xbdfe561d	-0.124187686
246	0xbf837d4b	-1.0272611
247	0x3ec1dabe	0.378622
248	0xbd836fc9	-0.06417806
249	0xbd8fe72b	-0.07026514
250	0xbd822bf8	-0.063560426
251	0xbe8df5fe	-0.2772674
252	0xbcd40977	-0.02588342
253	0xbe015b06	-0.12632379
254	0x3ddd8a5e	0.10817407
255	0xbd82ea45	-0.063923396

actor.0.bias f4 [64]
0	0xbe3984b0	-0.18117023
1	0x3db3bb86	0.08776002
2	0xbecc2a22	-0.39875895
3	0x3d632d66	0.055463217
4	0x3d931dc3	0.07183411
5	0xbeadc014	-0.33935606
6	0xbeb2a1ce	-0.34889072
7	0xbdc69b06	-0.09697537
8	0x3ea862e3	0.32887945
9	0x3e4d12d5	0.20026715
10	0xbdaba6d5	-0.0838143
11	0x3e16364b	0.14669149
12	0x3dc3aaf5	0.09554092
13	0xbea39fb7	-0.3195779
14	0xbe9937fc	-0.29925525
15	0xbe80c220	-0.25148106
16	0x3f1de689	0.61679894
17	0x3e0965f3	0.13417797
18	0x3e63f0fc	0.22259897
19	0xbb8ee80c	-0.0043611582
20	0x3e85f9ed	0.2616724
21	0x3dfdfb95	0.12401501
22	0xbe058e9c	-0.13042682
23	0x3dc78f56	0.09744136
24	0xbf15cec7	-0.5851864
25	0x3f37b901	0.7176667
26	0x3ca9b3e2	0.020715658
27	0xbe83528d	-0.2564892
28	0xbdd67659	-0.10471792
29	0x3da5997a	0.08085914
30	0xbdbf00e0	-0.09326339
31	0x3eb56ae0	0.35433102
32	0xbeee8e06	-0.4659273
33	0x3c65b850	0.014020994
34	0x3d93bae2	0.072133794
35	0xbce12ae9	-0.027486281
36	0x3e707920	0.23483706
37	0x3e979d03	0.29611978
38	0xbe5ddb74	-0.21665746
39	0xbc8d4fa2	-0.017249886
40	0x3e23e63a	0.16005793
41	0xbe36ff1b	-0.17870753
42	0x3ee8c9f0	0.45466566
43	0xbcfce81c	-0.030872397
44	0x3ee629d8	0.449538
45	0x3e943570	0.2894702
46	0xbe5dc460	-0.21656942
47	0x3d1d5adf	0.03841674
48	0x3e91d19d	0.28480235
49	0xbdb85b46	-0.09001784
50	0xbe3f4d8b	-0.18681924
51	0xbe64c7b6	-0.22341809
52	0x3e26ff04	0.16308218
53	0x3e0e6d85	0.13908966
54	0xbece2081	-0.40259174
55	0xbebcb27e	-0.3685493
56	0xbecfaa1e	-0.40559477
57	0xbd16ecc0	-0.036846876
58	0x3e3acdae	0.18242523
59	0x3ee62672	0.44951206
60	0xbd5dc882	-0.054146297
61	0x3e0b3407	0.13594066
62	0x3e9fc536	0.31205148
63	0xbd04876b	-0.032355707

actor.2.weight f4 [64, 64]
0	0xbc566c5b	-0.013087357
1	0xbe848e9c	-0.25890052
2	0x3e9b0b87	0.30282232
3	0xbccb898d	-0.024845863
4	0x3e068728	0.13137496
5	0xbd39da21	-0.04537404
6	0x3e276b78	0.1634959
7	0x3d0ed36f	0.034869608
8	0xbd1cd42e	-0.038288288
9	0xbe9eca35	-0.31013647
10	0x3e48cb38	0.19608772
11	0x3e5ba059	0.21447887
12	0xbd82c57e	-0.06385325
13	0xbbc26fd2	-0.00593374
14	0xbe30536e	-0.17219326
15	0xbec35161	-0.38148025
16	0x3dcc3df6	0.099727556
17	0x3d139de9	0.036039267
18	0xbcd8e327	-0.026475502
19	0xbc9d586e	-0.019207206
20	0xbd3692bf	-0.04457354
21	0x3e855268	0.26039433
22	0x3d8dd6ee	0.0692576
23	0x3dd36cec	0.103235096
24	0x3ea1a2bc	0.3156947
25	0xbe99846e	-0.29983848
26	0xbe02c222	-0.12769368
27	0x3e4acaac	0.19803876
28	0x3ea81870	0.32831144
29	0xbe5a6e2a	-0.21331087
30	0x3de265a7	0.11054545
31	0x3e5872ee	0.21137592
32	0x3dae4305	0.08508877
33	0x3e8dd532	0.27701718
34	0xbdab5b4f	-0.08367025
35	0xbe6b1e62	-0.22960809
36	0xbe4a2fec	-0.19744843
37	0xbdd11669	-0.102093525
38	0xbc82cd3c	-0.015967004
39	0xbd92ea38	-0.0717358
40	0xbe1b3a63	-0.15158992
41	0xbda1e768	-0.07905465
42	0x398f9cbb	0.0002739186
43	0x3d8e8332	0.06958617
44	0xbdc126a9	-0.09431202
45	0x3d0e6185	0.03476097
46	0x3dab1c40	0.08354998
47	0xbd983672	-0.074322596
48	0x3d4ccd92	0.050000735
49	0xbdd7d5d5	-0.10538832
50	0x3e4807ef	0.19534276
51	0x3d0992e4	0.03358735
52	0x3e422de5	0.1896282
53	0xbc8e1ec1	-0.017348649
54	0xbe3086a9	-0.17238869
55	0xbcf32a28	-0.029683188
56	0xbba50bab	-0.0050367913
57	0xbddce18c	-0.10785207
58	0x3df75249	0.120762415
59	0xbdccc523	-0.09998538
60	0xbe76ea69	-0.24112858
61	0xbb53aafd	-0.0032297962
62	0x3e12dc5a	0.1434187
63	0xbd7294ae	-0.059223823
64	0x3dd4abac	0.10384306
65	0xbe49c068	-0.19702303
66	0xbedbe11f	-0.4294519
67	0x3e29f9f6	0.16599259
68	0xbd62f0fa	-0.055405594
69	0xbb14d8ad	-0.0022712157
70	0xbd380c31	-0.0449335
71	0xbcba4e51	-0.022742422
72	0x3ddec0fd	0.10876653
73	0x3e4f17e4	0.20223957
74	0xbd8f8e3a	-0.070095494
75	0x3e24e00f	0.16101097
76	0xbdc1e89c	-0.09468195
77	0xbe0cb166	-0.13739547
78	0xbe1946ee	-0.14968464
79	0xbcc4b760	-0.024013221
80	0x3e292713	0.16518812
81	0xbd2e7705	-0.042593975
82	0x3e5c2c7b	0.21501343
83	0xba4dd7ae	-0.0007852268
84	0x3df805b0	0.1211046
85	0xbd813b2d	-0.06310115
86	0x3d80d760	0.062910795
87	0x3e40392c	0.1877181
88	0xbdfa0af1	-0.12209118
89	0xbc32a92a	-0.01090459
90	0x3cc534a8	0.02407296
91	0xbd9cf238	-0.07663387
92	0xbe3d1af9	-0.1846732
93	0x3e522a71	0.20524003
94	0x3e0a2fde	0.13494822
95	0x3e94ab83	0.29037103
96	0xbd8de891	-0.06929124
97	0xbdc1edc7	-0.094691806
98	0xbd25dff7	-0.040496793
99	0xbe2740d0	-0.16333318
100	0x3d6152b9	0.05501053
101	0x3e588f8d	0.2114851
102	0xbd26d13d	-0.04072689
103	0x3dd3707e	0.103241906
104	0xbd694cc3	-0.05695797
105	0xbdae0487	-0.08496957
106	0xbd8ae92d	-0.06782756
107	0x3d96fe7d	0.073727585
108	0x3e86ce67	0.26329347
109	0x3dd0e1e2	0.10199334
110	0xbdf78684	-0.12086204
111	0x3e2a1f4e	0.16613504
112	0x3b840651	0.0040290733
113	0x3e175753	0.14779405
114	0x3d8b5302	0.06802942
115	0x3d8222f9	0.06354327
116	0xbd895b8f	-0.067069165
117	0x3d89d4cd	0.06730042
118	0xbe1a4fba	-0.15069476
119	0xbe21de89	-0.15807547
120	0xbe0abcf9	-0.1354865
121	0xbe506eb3	-0.20354728
122	0x3d78f2c0	0.06077838
123	0x3e20e1b5	0.157111
124	0x3df4538f	0.1193
125	0x3e5e0adf	0.21683834
126	0xbdcd4eb7	-0.10024779
127	0xbe002677	-0.12514673
128	0x3c5223e2	0.012825938
129	0xbed18e6b	-0.4092897
130	0x3d362881	0.04447222
131	0xbdec98e9	-0.11552603
132	0x3d8f73bf	0.07004499
133	0xbe2fdeaa	-0.17174783
134	0xbc147b6c	-0.009062629
135	0xbdf93746	-0.12168746
136	0x3d110755	0.035407383
137	0xbec16169	-0.3776963
138	0x3c6961ed	0.014244539
139	0x3d48400e	0.048889212
140	0xbe830a37	-0.2559373
141	0xbd9c81bf	-0.076419346
142	0xbed7dac0	-0.4215908
143	0xbe382de8	-0.17986262
144	0x3d87d67d	0.06632707
145	0x3d34a511	0.044102732
146	0xbc35a7fc	-0.011087414
147	0x3c8b367d	0.016993755
148	0xbca1d78d	-0.019756103
149	0x3e6e015a	0.23242703
150	0x3e904c59	0.2818325
151	0xbd10d43d	-0.035358656
152	0x3e1b519e	0.15167853
153	0xbd0d8ff4	-0.034561113
154	0xbe543a37	-0.20725332
155	0x3e56af2e	0.20965263
156	0x3ec137bd	0.37737837
157	0x3e242e4d	0.16033287
158	0x3da08336	0.078375265
159	0x3e9a868f	0.30180785
160	0x3db796f3	0.08964338
161	0x3e87aec8	0.26500535
162	0x3dad8d23	0.08474185
163	0xbed96484	-0.424595
164	0xbedbaa24	-0.42903244
165	0xbe4daa22	-0.20084432
166	0xbdd3e7c5	-0.10346941
167	0xbe332751	-0.17495467
168	0xbe242d5d	-0.1603293
169	0xbe464878	-0.19363582
170	0xbdf659c7	-0.120288424
171	0x3d0d0e91	0.03443772
172	0xbe0a5b27	-0.13511334
173	0x3e11b8b8	0.14230621
174	0x3e834992	0.25642067
175	0xbba19817	-0.0049314606
176	0x3defafd6	0.1170346
177	0xbd976f6e	-0.073943004
178	0x3e19a2bf	0.15003489
179	0xbd9fda7e	-0.07805346
180	0xbdc9c7f5	-0.09852592
181	0x3db3497b	0.0875425
182	0xbe4fda5c	-0.20298141
183	0x3cc5bd0f	0.024138002
184	0xbdd4eab5	-0.10396329
185	0x3c36cb4c	0.011156868
186	0x3e060ed8	0.130916
187	0xbc7b9cd2	-0.015357213
188	0xbe82f7b6	-0.25579613
189	0x3de1ec62	0.110314146
190	0x3e18643b	0.14881985
191	0xbd114d5c	-0.035474166
192	0xbd0318f2	-0.03200621
193	0xbddc86f9	-0.107679315
194	0xbe0c8058	-0.13720834
195	0xbda6d0cc	-0.081452936
196	0xbde52180	-0.1118803
197	0x3e00319b	0.12518923
198	0xbdb7260f	-0.08942806
199	0x3e87882c	0.26471078
200	0x3d598419	0.053104494
201	0x3db7fb00	0.08983421
202	0xbdd28e21	-0.10281015
203	0xbddc1ba9	-0.10747463
204	0x3e4b8b27	0.19877301
205	0xbd84603e	-0.06463669
206	0xbde78d6e	-0.113062724
207	0x3cbe903d	0.023262138
208	0x3dd666da	0.10468836
209	0x3d3b626a	0.04574815
210	0x3e32dca4	0.1746698
211	0x3dd5144b	0.10404261
212	0x3dc0e83d	0.09419296
213	0x3e3869b3	0.18009071
214	0xbc2dee58	-0.010615908
215	0x3d967842	0.07347156
216	0xbedf031d	-0.43557063
217	0x3dcfccb6	0.101464674
218	0x3e8125f5	0.2522427
219	0xbe935fa2	-0.287839
220	0xbe59b0bf	-0.2125883
221	0x3d1ee95f	0.03879678
222	0x3cfba9f2	0.030720685
223	0x3dbf3856	0.09336917
224	0x3c117d22	0.008879932
225	0x3d8bdfbd	0.06829784
226	0x3d77ebcf	0.06052762
227	0x3cb9a16a	0.022659976
228	0x3e99476f	0.29937312
229	0x3dbae2a6	0.09125261
230	0x3d9f4682	0.0777712
231	0xbe17eddd	-0.14836831
232	0x3ca5872e	0.02020606
233	0xbde2cd37	-0.11074298
234	0xbcd32c50	-0.025777966
235	0x3d55f9c4	0.05224015
236	0x3e2040b2	0.1564968
237	0x3d76a90f	0.06021982
238	0xbdc8eb6f	-0.098105304
239	0x3e90e00c	0.28295934
240	0xbc614532	-0.013749408
241	0x3d8fd85e	0.07023691
242	0xbe13207b	-0.14367859
243	0x3d8ee500	0.06977272
244	0xbe08ee9e	-0.13372275
245	0x3e858284	0.26076138
246	0xbe673df4	-0.22582227
247	0x3cbcafad	0.023032987
248	0xbe02074b	-0.12698095
249	0xbdcdc7ff	-0.10047912
250	0x3e7fb15e	0.24970004
251	0x3e2ad25f	0.16681813
252	0x3b2c6621	0.002630599
253	0x3decf1dd	0.11569569
254	0x3db82bc1	0.089927204
255	0x3ec7588f	0.38934752

actor.2.bias f4 [64]
0	0xbe799789	-0.24374212
1	0x3bfd10f8	0.00772297
2	0xbe060225	-0.13086756
3	0x3de35b66	0.11101417
4	0xbdac4e36	-0.08413355
5	0xbde03b46	-0.109488055
6	0xbe4a210b	-0.19739167
7	0xbe997af1	-0.2997661
8	0xbdd92a44	-0.10603765
9	0xbc1b822b	-0.009491484
10	0xbe7934c2	-0.24336532
11	0xbed2deef	-0.4118571
12	0xbe9386d8	-0.28813815
13	0xbd21c704	-0.039496437
14	0x3e4edd93	0.20201711
15	0xbe36ed10	-0.1786387
16	0xbd091096	-0.033463083
17	0xbea97441	-0.33096507
18	0xbe571dba	-0.21007434
19	0xbe5a0598	-0.21291196
20	0xbe95c01b	-0.29248127
21	0xbe80c5d9	-0.25150946
22	0xbe458e41	-0.19292547
23	0xbe70bcb0	-0.23509479
24	0xbe928ab7	-0.28621456
25	0xbe884465	-0.2661468
26	0xbe8a1dee	-0.2697596
27	0xbe3ccb75	-0.18436988
28	0xbdc85d74	-0.0978345
29	0xbe977508	-0.29581475
30	0x3e7a83f8	0.24464405
31	0xbec6acde	-0.38803762
32	0xbd7e2f24	-0.062056676
33	0x3dd74b35	0.105123915
34	0xbe81b907	-0.25336477
35	0xbe251657	-0.16121803
36	0xbeb03086	-0.3441202
37	0xbe70f7b3	-0.2353199
38	0xbe42db42	-0.19028953
39	0xbd5a698f	-0.053323325
40	0xbe9d9c19	-0.30783156
41	0xbe68ea0c	-0.22745532
42	0xbd3b4f22	-0.045729764
43	0xbda2bfcc	-0.079467386
44	0xbe5722bc	-0.21009344
45	0xbec41189	-0.38294628
46	0xbc28dce4	-0.010306571
47	0xbe07fa40	-0.13279057
48	0x3dcf17ef	0.10111987
49	0xbe4e65f7	-0.20156084
50	0x3cb5cb19	0.022191571
51	0x36c57f52	5.8858795e-06
52	0xbe51214f	-0.20422862
53	0xbe1a76d7	-0.15084396
54	0xbcab4eb3	-0.02091155
55	0xbe89aa48	-0.26887727
56	0xbdf4c470	-0.1195153
57	0xbd75e7a5	-0.060035367
58	0xbd18d714	-0.03731449
59	0xbe4f2fcb	-0.20233075
60	0xbea6b9e4	-0.32563698
61	0xbe637da1	-0.22215892
62	0x3c9bb871	0.019008847
63	0x3cf5ef99	0.030021476

actor.4.weight f4 [7, 64]
0	0xbc07ddc9	-0.008292624
1	0x3e54e9a7	0.20792256
2	0x3d8bf5dc	0.06834003
3	0xbdb996ad	-0.09061942
4	0xbc70e6e4	-0.014703486
5	0x3de685f3	0.112560175
6	0x3d945118	0.0724203
7	0x3d2dbc8d	0.042416144
8	0xbe4c78cb	-0.19967954
9	0x3d96c38d	0.07361517
10	0x3e22aaa1	0.15885402
11	0x3df463c8	0.11933094
12	0x3d411102	0.04713536
13	0x3e315a28	0.17319548
14	0x3e7a474b	0.24441259
15	0xbe568ccb	-0.20952146
16	0x3dba30b0	0.09091318
17	0x3b110eda	0.0022134096
18	0xbce21f5c	-0.027602844
19	0x3cc67fae	0.024230804
20	0xbe98a03c	-0.2980975
21	0x3d8b621b	0.068058215
22	0x3d820cf0	0.06350124
23	0xbde1c1f1	-0.110233195
24	0xbba8ac95	-0.0051475265
25	0x3e19fcc4	0.15037829
26	0xbd8e3e89	-0.069455214
27	0xbc2af7fe	-0.0104351025
28	0x3dea2a84	0.114338905
29	0xbd96c06c	-0.0736092
30	0xbd09d9cb	-0.03365497
31	0x3b064482	0.0020487611
32	0x3e11b8d6	0.14230666
33	0x3e69ebfc	0.22843927
34	0x3e5837d4	0.21115047
35	0x3d88bf29	0.06677086
36	0xbdc2d761	-0.095137365
37	0x3deb57c2	0.11491348
38	0x3d0d720f	0.034532603
39	0x3df63eb2	0.12023677
40	0x3e558738	0.20852363
41	0x3d829af2	0.0637721
42	0xbe854057	-0.2602565
43	0xbcc84a81	-0.024449589
44	0x3ce0ef8a	0.027457971
45	0xbbb7ac2f	-0.0056052427
46	0x3ea3571c	0.31902397
47	0xbc860770	-0.016360968
48	0x3e10d6ba	0.14144412
49	0xbc5bf847	-0.013425893
50	0x3e1b1fc5	0.15148838
51	0xbce158fe	-0.027508255
52	0xbcde28e1	-0.027119102
53	0x3b04342e	0.0020172703
54	0x3ca99b6b	0.020703992
55	0xbd9baa67	-0.07600861
56	0x3e1e6213	0.154671
57	0xbe7033c5	-0.23457249
58	0x3c0533e9	0.008130052
59	0x3d3583f7	0.044315305
60	0x3ddc710b	0.10763749
61	0x3e69dfb9	0.2283925
62	0x3db86349	0.09003312
63	0xbd11cf6e	-0.03559821
64	0x3dc89d7d	0.097956635
65	0x3dbd67ef	0.092483394
66	0x3e42f455	0.19038518
67	0x3d7da1bc	0.06192182
68	0xbdc72d54	-0.097254425
69	0xbd86d6cd	-0.06583939
70	0xbe1bd941	-0.15219595
71	0xbce0ade2	-0.027426664
72	0xbce772f3	-0.028253054
73	0x3d79b129	0.06095997
74	0xbe7899da	-0.2427744
75	0x3c038f74	0.008029807
76	0xbcf93151	-0.030419024
77	0xbcbd64d6	-0.023119371
78	0x3d81ca03	0.06337359
79	0x3df0361c	0.117290705
80	0xbe2e5730	-0.17025447
81	0xbe23c2c4	-0.15992266
82	0x3e6df7ee	0.23239109
83	0xbdf39c6d	-0.1189507
84	0xbd0d3127	-0.034470703
85	0x3e208b7a	0.15678206
86	0x3d04edfd	0.032453526
87	0xbd027984	-0.031854168
88	0xbe43ee83	-0.19133954
89	0x3d85b290	0.06528199
90	0xbe2d4adf	-0.16923092
91	0xbd259f2b	-0.040434998
92	0x3cea39b8	0.028591976
93	0x3db0011a	0.0859396
94	0x3e8231eb	0.2542871
95	0x3d013cff	0.03155231
96	0x3e3f44df	0.18678616
97	0xbdc89665	-0.097943105
98	0xbe235673	-0.15950947
99	0xbe8f650e	-0.28006786
100	0xbe40307e	-0.18768498
101	0xbd88171e	-0.06645034
102	0x3e91aedf	0.2845373
103	0x3d638c6b	0.055553835
104	0xbded02be	-0.11572789
105	0xbd10021f	-0.035158273
106	0xbd850cb5	-0.06496564
107	0x3d69bc98	0.057064623
108	0x3e85efe3	0.26159582
109	0xbe094a0d	-0.13407154
110	0x3e42e0cd	0.19031067
111	0xba5112f4	-0.00079755415
112	0x3e2dcfc3	0.16973786
113	0xb98eb6c6	-0.00027220527
114	0x3e1c282f	0.15249704
115	0xbd07aa72	-0.033121534
116	0x3caea85f	0.02132052
117	0xbe3af3b2	-0.18257025
118	0xbde937dc	-0.113876075
119	0x3d4aac45	0.049480695
120	0x3c90a55a	0.01765697
121	0x3d96d784	0.07365325
122	0xbd8e971d	-0.06962416
123	0xbe9f525a	-0.31117517
124	0x3d92ba68	0.071644604
125	0x3d2c576c	0.04207556
126	0x3d9d0536	0.076670095
127	0x3d8fea49	0.07027108
128	0x3d9761d9	0.0739171
129	0xbbe75479	-0.0070596305
130	0x3e14a609	0.14516462
131	0xbdd760ae	-0.10516487
132	0xbde92391	-0.11383737
133	0xbe31c286	-0.17359361
134	0x3e40d772	0.18832186
135	0x3da6974b	0.081343256
136	0xbea3a738	-0.31963515
137	0x3e3443bf	0.17603968
138	0x3e0b5835	0.13607867
139	0x3c5d7a75	0.013517966
140	0x3c1e8168	0.009674408
141	0xbdf5acd6	-0.119958565
142	0x3e8b0422	0.2715159
143	0x3dbe6843	0.0929723
144	0xbe4f9479	-0.20271482
145	0xbdafce58	-0.08584279
146	0x3d1c70e6	0.038193606
147	0x3df37158	0.11886853
148	0xbe7f109a	-0.24908677
149	0x3d375dce	0.044767193
150	0x3df3b4fd	0.11899755
151	0xbe3102a9	-0.17286171
152	0xbd1f3a7e	-0.038874142
153	0x3d8ebf7c	0.069701165
154	0xbcfb2bd2	-0.030660544
155	0xbdfa61d9	-0.12225694
156	0x3dc3f5aa	0.09568341
157	0xbdf70cd8	-0.120629966
158	0xbe8581dc	-0.26075637
159	0x3e423019	0.1896366
160	0x3cc5b355	0.024133364
161	0x3e45762c	0.1928336
162	0x3d8fe0e5	0.07025317
163	0x3dd2587d	0.10270784
164	0x3ddd6042	0.10809375
165	0x3cece9fb	0.028920164
166	0x3db54873	0.08851709
167	0x3d0abfff	0.033874508
168	0x3e4a6177	0.19763742
169	0xbd976e3f	-0.07394075
170	0xbdbef47b	-0.09323975
171	0xbd92b9df	-0.07164358
172	0xbe30c5f7	-0.17263018
173	0xbe1c41c7	-0.15259467
174	0x3ec173e6	0.37783736
175	0x3df16404	0.117866546
176	0xbd148da4	-0.03626789
177	0xbd17b7dc	-0.037040576
178	0x3d943717	0.0723707
179	0xbd3f4828	-0.046699673
180	0x3d3afe02	0.045652397
181	0xbd22aa31	-0.03971309
182	0xbcac5599	-0.02103691
183	0xbd6a331b	-0.057177644
184	0x3e08364c	0.13301963
185	0xbe3fe5c0	-0.18739986
186	0xbdc02636	-0.09382288
187	0xbd77dee6	-0.060515307
188	0x3dc6bb0d	0.09703646
189	0x3e44797e	0.1918697
190	0x3e121085	0.14264114
191	0xbdc2a784	-0.09504607
192	0x3e832f5a	0.25622064
193	0xbde4919e	-0.11160587
194	0x3e8ab50a	0.27091247
195	0xbe2cddf7	-0.16881548
196	0xbde766e9	-0.112989254
197	0xbc536df1	-0.01290463
198	0x3db6c358	0.089239776
199	0x3e580f10	0.21099496
200	0x3db95a3e	0.090504155
201	0xbd6913ae	-0.056903534
202	0x3e81c0a7	0.25342295
203	0xbdaa2bf5	-0.083091654
204	0x3e5c0826	0.21487483
205	0xbe50c354	-0.20387012
206	0xbeca8623	-0.39555463
207	0xbde1200f	-0.10992443
208	0x3cc0ddcd	0.023543263
209	0x3db0d9f0	0.08635318
210	0x3e89bfd7	0.26904175
211	0xbe58537d	-0.21125598
212	0x3db41279	0.08792586
213	0x3de88755	0.113539375
214	0x3cbc950e	0.023020294
215	0xbe62f862	-0.22165063
216	0x3c62b6a3	0.013837489
217	0x3d6f93cb	0.058490556
218	0x3e4e2d10	0.20134377
219	0x3cf3498c	0.029698156
220	0xbe6c726e	-0.23090526
221	0x3e41d469	0.18928684
222	0xbc00fd2a	-0.007872859
223	0xbd8eddad	-0.06975875
224	0x3e1ecbab	0.1550738
225	0x3d88ff90	0.0668937
226	0x3cf51c75	0.029920796
227	0x3d6a53ab	0.0572087
228	0x3d38513b	0.044999342
229	0x3daac9b9	0.08339257
230	0x3dc1450b	0.09436997
231	0xbdd72182	-0.10504438
232	0xbe58f379	-0.21186627
233	0x3e2a665e	0.16640612
234	0xbeb8518c	-0.35999715
235	0x3e1c0ba9	0.15238823
236	0x3e3450c8	0.1760894
237	0x3e45549c	0.19270557
238	0x3da91f66	0.08257942
239	0x3c8c8d18	0.017157122
240	0xbe5dc6cd	-0.21657868
241	0xbeaa9dfb	-0.33323655
242	0x3c2babb9	0.010477954
243	0xbdf64f50	-0.120268464
244	0x3dffcf34	0.12490693
245	0xbc172a35	-0.0092263715
246	0xbe1ced6e	-0.15324947
247	0xbc3e6aa4	-0.011622105
248	0xbe0028ad	-0.12515517
249	0xbdec62cf	-0.11542284
250	0xbc450ea4	-0.012027416
251	0xbe90ed3a	-0.2830599
252	0x3cbf455b	0.023348501
253	0x3d26876d	0.040656496
254	0xbda69793	-0.08134379
255	0xbe3581e5	-0.17725332

actor.4.bias f4 [7]
0	0xbc6031db	-0.0136837615
1	0x3e29e03c	0.16589445
2	0xbd3de0af	-0.046356853
3	0x3de127fa	0.10993953
4	0x3d4e6683	0.05039073
5	0xbe4491ec	-0.1919629
6	0x3dae2ce4	0.08504656

critic.0.weight f4 [64, 32]
0	0xbcb0d732	-0.021586988
1	0xbda210cb	-0.07913359
2	0x3d98af88	0.07455355
3	0x3e2b4142	0.16724113
4	0xbe13ebbc	-0.14445394
5	0x3d85ca90	0.06532776
6	0xbe948c3c	-0.2901324
7	0x3df89277	0.12137311
8	0xbca4fc81	-0.020139934
9	0x3d00546d	0.031330515
10	0xbe0a3e07	-0.13500224
11	0x3d5f759f	0.05455553
12	0xbda0cd8c	-0.07851705
13	0x3cc8d7a4	0.024516888
14	0xbc7da45a	-0.015481079
15	0x3c1bbdb8	0.009505682
16	0xbddc6158	-0.10760754
17	0xbd585c49	-0.052822385
18	0xbea66970	-0.32502317
19	0x3bd27d0c	0.006423598
20	0x3e6c8965	0.23099287
21	0x3d3535c4	0.044240728
22	0xbe502dfb	-0.2033004
23	0xbea64790	-0.32476473
24	0xbdfd6894	-0.12373462
25	0x3db75991	0.0895263
26	0xbd6647cc	-0.056220815
27	0xbcd2b78d	-0.02572229
28	0xbb13a631	-0.0022529478
29	0xbd9c1353	-0.07620873
30	0xbd2b199a	-0.041772462
31	0xbbda0180	-0.006653011
32	0xbe00afb4	-0.12567025
33	0x3dff6164	0.12469748
34	0xbcebac33	-0.028768634
35	0x3e224015	0.15844758
36	0x3d8056c1	0.06266547
37	0x3e67e711	0.22646739
38	0x3df70e1b	0.12063237
39	0xbc3e2cc4	-0.011607353
40	0x3d1a35df	0.03764903
41	0xbc4cd86f	-0.012502774
42	0xbb247360	-0.0025093183
43	0xbd2123da	-0.03934083
44	0xbdd6bcb2	-0.104852095
45	0xbd8d70b8	-0.06906265
46	0xbd90586c	-0.07048115
47	0xbcad488d	-0.021152759
48	0xbddd6246	-0.1080976
49	0x3d944406	0.07239537
50	0x3e1410b9	0.14459504
51	0xbec2b3c3	-0.38027772
52	0x3d5f1e9f	0.054472562
53	0x3d8da849	0.069168635
54	0x3e9f16f9	0.31072214
55	0x3e1cc44f	0.15309261
56	0xbc1d52ae	-0.009602232
57	0xbd01c25e	-0.031679504
58	0x3dc0f9d6	0.094226524
59	0x3cc44304	0.023957737
60	0x3c112a3b	0.008860166
61	0xbad47908	-0.0016210387
62	0x3db921ce	0.09039651
63	0xbe3e4b6c	-0.18583459
64	0xbcb8bfd7	-0.022552414
65	0x3dea993a	0.11455007
66	0xbe8a0f4b	-0.26964793
67	0x3c7d0f12	0.015445488
68	0x3dd874d6	0.1056916
69	0x3b069688	0.00205365
70	0xbdab1181	-0.08352948
71	0xba41a261	-0.0007386562
72	0x3e07d918	0.13266408
73	0xbdfdabff	-0.12386321
74	0xbbe9336b	-0.007116725
75	0xbddea2b5	-0.10870878
76	0xbd852bb8	-0.06502479
77	0x3d4db04c	0.050216958
78	0xbd817935	-0.063219465
79	0x3c0b338f	0.008496179
80	0x3dd7508a	0.105134085
81	0xbd3ec318	-0.046572775
82	0xbe4f370b	-0.20235841
83	0xbf094652	-0.53622925
84	0xbd4cfecf	-0.050047692
85	0x3d6020d4	0.054718807
86	0xbbab1597	-0.0052210796
87	0xbdc0fda7	-0.0942338
88	0xbdb3e97b	-0.08784767
89	0x3d4e0a74	0.050302938
90	0x3a4d0b1a	0.00078217837
91	0xbdeb033f	-0.114752285
92	0x3de4f04d	0.11178646
93	0xbcc04231	-0.023469063
94	0xbca3559a	-0.019938279
95	0xbc23dd4a	-0.01000149
96	0xbe1a745d	-0.15083452
97	0x3da6c766	0.08143501
98	0x3d4ac63d	0.04950546
99	0xbe2ba4de	-0.1676211
100	0x3d40a649	0.047033582
101	0x3cc5783e	0.024105188
102	0x3e7b8981	0.24564172
103	0x3e80a4b3	0.25125656
104	0x3ddebc63	0.10875776
105	0xbdb38a64	-0.0876663
106	0xbd74a1f4	-0.059724763
107	0xbda824e5	-0.08210162
108	0x3d89a7df	0.06721472
109	0x3d0ed3d2	0.034869976
110	0x3a8c1b9f	0.0010689384
111	0x3c13b2d5	0.009014805
112	0x3d9f91e9	0.07791502
113	0x3e8a31b8	0.26991057
114	0xbe12f9ba	-0.14353076
115	0xbf4b172b	-0.79332227
116	0xbe9f6c33	-0.31137237
117	0xbdfdd6df	-0.12394499
118	0xbf8cf067	-1.1010865
119	0x3e8015c1	0.25016597
120	0x3e2554fe	0.16145703
121	0xbca12f87	-0.019675983
122	0xbd9448fe	-0.07240485
123	0x3dc17c48	0.09447533
124	0xbd1e3cb5	-0.038632113
125	0xbdc6bbc6	-0.09703784
126	0x3d26f616	0.04076203
127	0x3d509a4c	0.0509284
128	0xbe2b5648	-0.16732132
129	0xbdd76513	-0.10517325
130	0x3d5f821f	0.054567453
131	0xbc557569	-0.013028481
132	0x3e88f6cb	0.26750788
133	0x3dc3b32a	0.09555657
134	0x3e7a88f6	0.24466309
135	0x3d1f1050	0.038833916
136	0x3aa4a41c	0.0012561115
137	0xb9cbd7f0	-0.00038880063
138	0xbcb1aed7	-0.021689815
139	0xbc28cbc7	-0.010302491
140	0x3b3d2556	0.0028861365
141	0xbbcef052	-0.0063152695
142	0x3bce66ec	0.0062988903
143	0x3a81c065	0.0009899257
144	0xbcb08175	-0.021546105
145	0x3caed806	0.021343242
146	0x3e806c81	0.25082782
147	0xbdbe2510	-0.09284413
148	0x3db126d6	0.086499855
149	0x3d23bce9	0.03997508
150	0xbf248fa1	-0.6428166
151	0x3eb56c36	0.3543412
152	0xbe11332b	-0.14179675
153	0xbc9078d2	-0.017635737
154	0xbd9798e7	-0.07402211
155	0xbd2b014e	-0.04174929
156	0xbc5fb416	-0.013653776
157	0xbb832655	-0.0040023723
158	0xbd2971c4	-0.04136826
159	0x3d89b1fe	0.067234024
160	0xbda63d34	-0.08117142
161	0xbd337221	-0.043810014
162	0xbcd5b118	-0.026085421
163	0xbc86087c	-0.016361468
164	0x3e3407c7	0.17581092
165	0x3dc2e354	0.09516016
166	0x3c4a5d84	0.012351397
167	0xbdd02b93	-0.10164561
168	0x3d552111	0.052033488
169	0x3d02ad51	0.03190357
170	0xbc18e3ce	-0.009331657
171	0xbccb6b1e	-0.02483135
172	0x3da15cd5	0.078790344
173	0xbcbf2760	-0.023334205
174	0x3bc92bc1	0.006139249
175	0x39f753b0	0.00047173863
176	0xbb813225	-0.0039427453
177	0xbe4d387b	-0.20041077
178	0xbe83976c	-0.25701463
179	0x3dfb750d	0.12278185
180	0xbe7661d9	-0.24060763
181	0xbe1ac99b	-0.15115969
182	0x3f171cf5	0.5902856
183	0x3eea15a0	0.45719624
184	0x3d9186c0	0.0710578
185	0xbd91ad88	-0.071131766
186	0x3e1e1b7d	0.15440173
187	0x3cbbe0e7	0.02293439
188	0x3d7fdf8f	0.06246906
189	0x3d19c7cc	0.037544057
190	0x3c16f53c	0.009213742
191	0xbca8ec75	-0.020620564
192	0x3e1e00d2	0.1543
193	0x3e6df204	0.23236853
194	0xbdd211b1	-0.102572806
195	0x3e235c21	0.15953113
196	0x3e124110	0.14282632
197	0x3ddc13dc	0.107459754
198	0x3da0eb10	0.078573346
199	0xbdef2166	-0.11676292
200	0x3de68738	0.1125626
201	0x3d0bb92f	0.03411215
202	0x3c6f5619	0.01460793
203	0x3cd9d200	0.026589394
204	0xbb843900	-0.0040351152
205	0xbc265cc8	-0.010153957
206	0xbc0befe4	-0.008541081
207	0xbd21bc0b	-0.039485972
208	0xbe098c64	-0.13432461
209	0xbe866165	-0.2624618
210	0x3e5c0ee5	0.21490057
211	0xbfecc6e7	-1.84982
212	0xbd27eed3	-0.040999245
213	0x3e1123f7	0.14173876
214	0xbf5fdedf	-0.8744945
215	0x3d24f1ca	0.04026965
216	0xbd1e8a50	-0.038706124
217	0xbce5bce7	-0.028044177
218	0x3d850eba	0.064969495
219	0x3b3ea499	0.0029089807
220	0x3d0b5af7	0.034022298
221	0x3cc0070b	0.023440858
222	0x3d5ff046	0.054672502
223	0x3d2a9934	0.041650012
224	0x3d53498d	0.051583815
225	0x3e418dcd	0.18901749
226	0xbd45a2e9	-0.048251066
227	0xbdadfd42	-0.08495571
228	0xbde7d364	-0.113196164
229	0xbe8c46cd	-0.27397767
230	0xbe12254f	-0.14272045
231	0x3e3461d1	0.17615439
232	0x3df6b9f3	0.12047186
233	0x3b2952b0	0.002583664
234	0x3d8aead3	0.067830704
235	0x3c51dda1	0.012809188
236	0xbc36fd25	-0.011168753
237	0x3d0a38df	0.033745643
238	0x3d06916f	0.03285354
239	0x3d4b5188	0.0496383
240	0xbdf0f8bc	-0.11766192
241	0xbc4d302b	-0.012523691
242	0x3e13de01	0.14440157
243	0x3efb4f4d	0.4908394
244	0xbe3d6572	-0.1849573
245	0x3e024e5c	0.12725204
246	0xbf10d5bd	-0.5657614
247	0xbd5aebf3	-0.053447675
248	0x3e08018e	0.13281843
249	0xbdaae9ae	-0.08345352
250	0xbd2e0c47	-0.042492177
251	0xbd2bb9c9	-0.041925225
252	0x3a5d737b	0.0008447689
253	0xbb762241	-0.0037557038
254	0xbc848e34	-0.016181089
255	0x3c66c314	0.014084596

critic.0.bias f4 [64]
0	0x3e0ac6e6	0.13552436
1	0xbe2d5e5f	-0.16930531
2	0xbdd12302	-0.10211755
3	0xbe03da11	-0.12876154
4	0xbc8e37da	-0.017360616
5	0xbdabcf94	-0.08389202
6	0xbd865199	-0.06558532
7	0x3d4c050c	0.0498095
8	0xbd337da3	-0.04382099
9	0xbddcaf06	-0.107755706
10	0x3a34fabd	0.0006903818
11	0x3dde1925	0.1084464
12	0xbcc79811	-0.024364503
13	0xbdc97bd0	-0.098380685
14	0x3d93ca0d	0.072162725
15	0xbdc819de	-0.09770559
16	0xbdd2ddef	-0.10296237
17	0x3e14895c	0.14505523
18	0xbc88bcb9	-0.016691552
19	0x3de8b65d	0.11362908
20	0x3e034b60	0.12821722
21	0xbdc0fc78	-0.094231546
22	0x3da22207	0.079166465
23	0xbd443466	-0.047901534
24	0x3d82adae	0.06380783
25	0xbd2c23ff	-0.042026516
26	0x3d506709	0.050879512
27	0x3ce04109	0.027374761
28	0xbd7b8de2	-0.061414607
29	0x3e477d5f	0.19481419
30	0xbd4d3d53	-0.05010731
31	0x3c841d3f	0.016127227
32	0xbd9c9784	-0.07646087
33	0xbd3f4d32	-0.04670448
34	0x3d0dc11a	0.034607984
35	0xbdad1a70	-0.08452308
36	0xbd5e8d96	-0.054334246
37	0x3e47f7d1	0.19528128
38	0xbe1418e9	-0.14462627
39	0xbc6fbc79	-0.014632338
40	0x3d5aaee2	0.053389437
41	0x3d8d9fd6	0.06915252
42	0x3d7520dd	0.059845794
43	0xbe64a2e9	-0.2232777
44	0xbe31fba5	-0.17381151
45	0x3d734ef1	0.059401456
46	0xbe1f552e	-0.15559837
47	0xbe3f0579	-0.18654431
48	0xbd8b390a	-0.06797989
49	0xbd488830	-0.048958004
50	0xbe3b1e27	-0.18273221
51	0xbe1a91b2	-0.15094641
52	0x3cf6bce2	0.030119363
53	0xbdffdd1b	-0.124933444
54	0xbddf3ba5	-0.10900048
55	0xbda79b92	-0.081839696
56	0x3de9791c	0.11400053
57	0xbd4d62c2	-0.05014301
58	0xbe0016b5	-0.12508662
59	0xbd9afea3	-0.07568099
60	0xbcc27ff1	-0.023742648
61	0x3e33de43	0.17565255
62	0x3e13c5b9	0.14430894
63	0xbdbf22db	-0.0933282

critic.2.weight f4 [64, 64]
0	0xbde9e328	-0.1142028
1	0xbcba04d9	-0.02270739
2	0x3e525e4b	0.20543782
3	0x3de9caca	0.11415632
4	0x3b331a22	0.0027328809
5	0xbc84d298	-0.0162137
6	0x3dba0934	0.090837866
7	0x3d9ae52a	0.07563241
8	0x3e89950c	0.26871526
9	0x3e26fef5	0.16308196
10	0x3b01d372	0.001980987
11	0xbdcaa06d	-0.0989388
12	0xbe78ab11	-0.24284007
13	0x3df00f6a	0.1172169
14	0x3d3b4de7	0.04572859
15	0x3d437344	0.047717348
16	0xbda0abbe	-0.07845257
17	0xbe31c795	-0.17361291
18	0xbdfd4e34	-0.12368432
19	0xbe2e12ee	-0.16999409
20	0x3c23067c	0.009950276
21	0xbe354e72	-0.17705706
22	0xbd42f93c	-0.04760097
23	0x3c36cd78	0.011157386
24	0x3c217210	0.009853855
25	0xbcade2d9	-0.021226333
26	0x3d9c814c	0.07641849
27	0xbd8350e3	-0.06411912
28	0x3dbcdd13	0.09221854
29	0xbe5818f2	-0.21103266
30	0x3db3d6a4	0.08781174
31	0xbddc2df0	-0.107509494
32	0x3d15b8ea	0.0365533
33	0x3d37b467	0.04484978
34	0x3e000b6c	0.12504357
35	0x3d87af5d	0.06625245
36	0xbd881f0b	-0.06646546
37	0xbe474aa1	-0.19462062
38	0xbe686078	-0.2269305
39	0x3dea7fad	0.114501335
40	0x3db2c6b8	0.08729309
41	0xbdacfe02	-0.08446886
42	0xbda04c51	-0.07827056
43	0xbe4333ba	-0.19062701
44	0xbd3ea42f	-0.046543296
45	0x3e3514e8	0.17683756
46	0x3dd6aa1d	0.10481665
47	0xbe185447	-0.148759
48	0xbd47dbea	-0.04879371
49	0xbcdddfef	-0.027084319
50	0x3cb8fb22	0.022580687
51	0xbddce58f	-0.10785972
52	0x3d7d1051	0.06178314
53	0xbdda96c1	-0.10673285
54	0xbdb407f1	-0.08790577
55	0xbc1bc561	-0.009507508
56	0x3e22386f	0.1584184
57	0x3deeee48	0.11666542
58	0x3d51b093	0.051193785
59	0x3d92b35d	0.07163117
60	0xbd6d9d7d	-0.05801152
61	0x3ca6039e	0.020265397
62	0x3c96d552	0.018412266
63	0xbda2d533	-0.07950821
64	0xbd601d2d	-0.054715324
65	0xbda88d93	-0.08230128
66	0xbc2c1c2b	-0.010504763
67	0x3dd4d48f	0.10392105
68	0xbc197d8d	-0.009368313
69	0x3d8295a9	0.06376202
70	0xbd3291b5	-0.04359599
71	0xbd163b3b	-0.03667758
72	0xbdf5a76e	-0.11994825
73	0x3e3f539d	0.1868424
74	0x3e395c69	0.18101658
75	0x3de6e6ad	0.11274467
76	0xbe3bd7de	-0.18344066
77	0xbce348ac	-0.027744614
78	0x3e9281df	0.2861471
79	0xbd0a6019	-0.033783052
80	0x3d77ae1f	0.06046879
81	0xbde65836	-0.11247294
82	0x3c8a0d29	0.016851978
83	0xbddb7e85	-0.10717491
84	0x3e4b4137	0.19849096
85	0xbda23f85	-0.07922272
86	0xbd5061e5	-0.05087461
87	0x3e2393f2	0.15974405
88	0x3e25d7cf	0.16195606
89	0x3e30335a	0.17207089
90	0x3d91c82d	0.071182586
91	0x3d3a2501	0.045445446
92	0x3d9da1be	0.076968655
93	0xbd8606e2	-0.065442815
94	0x3d6c6a02	0.057718284
95	0x3af8ca5a	0.0018981204
96	0x3db42d54	0.08797708
97	0xbdb58554	-0.08863321
98	0xbe0f54dd	-0.13997217
99	0xbdc82610	-0.09772885
100	0xbddebd86	-0.108759925
101	0xbca2a22a	-0.019852716
102	0xbdd742e4	-0.10510805
103	0x3e90a1b5	0.28248373
104	0x3cb57011	0.022148164
105	0xbdf82609	-0.1211663
106	0x3e8554ea	0.26041347
107	0xbe000ffd	-0.12506099
108	0xbdd88db4	-0.10573903
109	0x3d8a2d40	0.06746912
110	0xbcaa8796	-0.020816606
111	0x3c343cf9	0.011000865
112	0xbd3cfece	-0.04614144
113	0xbe59593f	-0.21225451
114	0xbd802abd	-0.06258152
115	0xbcf49294	-0.02985505
116	0x3cd695de	0.02619451
117	0xbe5816f5	-0.21102507
118	0xbc080492	-0.008301871
119	0xbdafb813	-0.08580031
120	0x3e174c7a	0.14775267
121	0x3c9805cb	0.01855745
122	0x3d142471	0.036167566
123	0x3e567983	0.2094479
124	0x3c3c10bd	0.0114786
125	0x3e315e92	0.17321232
126	0x3e269c1a	0.16270486
127	0x3db4bcaa	0.08825047
128	0x3dab4f6a	0.083647564
129	0xbd476072	-0.04867596
130	0x3d333d2c	0.04375951
131	0xbde5170c	-0.111860365
132	0x3d63f149	0.05565003
133	0x3b78f67c	0.0037988713
134	0xbda0cace	-0.07851182
135	0x3e1b33d4	0.1515649
136	0xbe49a8f7	-0.19693361
137	0x3b793b6b	0.00380298
138	0x3cf324cd	0.029680634
139	0x3ca7d913	0.020489251
140	0xbe14719f	-0.14496468
141	0x3e1994fe	0.14998242
142	0xbdab004f	-0.08349668
143	0x3e035744	0.12826258
144	0xbda076e6	-0.07835178
145	0x3e314a61	0.1731353
146	0xbcca3fa1	-0.024688544
147	0x3e24e077	0.16101252
148	0x3d8fc871	0.07020653
149	0xbe703d95	-0.23460992
150	0xbd175b4f	-0.036952313
151	0xbd3d1e45	-0.046171445
152	0xbdf693e1	-0.120399244
153	0x3e1c779c	0.15280002
154	0x3c8e7870	0.017391413
155	0xbdac8716	-0.08424203
156	0xbc1ae604	-0.009454254
157	0x3e30050e	0.17189428
158	0x3d336d6a	0.043805517
159	0x3dd64116	0.10461633
160	0xbbaba087	-0.005237642
161	0xbd5a06f4	-0.053229287
162	0x3d177874	0.036980107
163	0xbc800529	-0.01562746
164	0xbd4a12bc	-0.049334273
165	0x3d7efa3c	0.06225036
166	0xbc563ef0	-0.013076529
167	0xbca90d2f	-0.02063617
168	0x3d421b1e	0.047389142
169	0xbdd8ac2a	-0.10579713
170	0x3d807df6	0.06274025
171	0xbe0da349	-0.1383182
172	0xbd64d5c9	-0.055867944
173	0x3d07719d	0.033067334
174	0xbdb73417	-0.08945482
175	0xbe00c6a4	-0.12575775
176	0xbd9508c2	-0.07277061
177	0x3d83ec95	0.06441609
178	0xbdcd8478	-0.10035032
179	0xbd8077e8	-0.0627287
180	0x3d9d4d27	0.07680731
181	0x3e0f9d8b	0.14024942
182	0x3dcbe8ae	0.099564895
183	0x3d016214	0.031587675
184	0xbd21480d	-0.039375354
185	0xba1ba7cb	-0.0005937784
186	0x3e2c15a0	0.16805124
187	0xbe07efb1	-0.13275029
188	0x3da70215	0.08154694
189	0x3df5210f	0.11969196
190	0x3db8a696	0.09016149
191	0xbcbd5650	-0.023112446
192	0xbd3ec11d	-0.046570886
193	0xbc64d111	-0.013965861
194	0x3e7d6b79	0.24748029
195	0xbd03581d	-0.032066453
196	0xbdd61a8b	-0.104542814
197	0xbd29e97f	-0.041482445
198	0x3c4646ac	0.01210181
199	0xbd0a8a00	-0.033823013
200	0xbd823fbc	-0.063598126
201	0x3ee344cd	0.44388428
202	0x3cc7dc21	0.024396958
203	0x3e9c939d	0.3058137
204	0xbe644aad	-0.22294112
205	0xbe0d51f6	-0.13800797
206	0xbc9b6fd7	-0.018974228
207	0x3e0e7126	0.1391035
208	0xbc23051e	-0.0099499505
209	0x3d933d86	0.07189469
210	0xbcf75782	-0.030193094
211	0x3e939b8d	0.28829613
212	0x3f0320a6	0.5122169
213	0xbe355117	-0.17706715
214	0xbcc2243c	-0.023698919
215	0x3cab7eb2	0.020934436
216	0xbe1f94f9	-0.15584172
217	0x3dc495a2	0.09598853
218	0x3e1dcec3	0.15410905
219	0xbde1ea1e	-0.110309824
220	0x3d335284	0.043779865
221	0xbd9baa51	-0.07600845
222	0x3c1735e8	0.009229161
223	0x3d68a427	0.056797173
224	0xbdae7dff	-0.085201256
225	0xbd8c03cd	-0.068366624
226	0xbde85fb9	-0.11346383
227	0xbb52a396	-0.0032140962
228	0x3dc26484	0.09491828
229	0xbd0ae139	-0.033906195
230	0xbebaad36	-0.36460274
231	0x3d1a1f76	0.03762766
232	0x3d5cff03	0.053954136
233	0xbea2db7e	-0.31808084
234	0x3e139222	0.14411214
235	0xbe66861c	-0.22512096
236	0xbe61f0a6	-0.22064456
237	0x3da5c7dd	0.080947615
238	0x3d725646	0.059164308
239	0xbba16cde	-0.004926308
240	0xbd238f8c	-0.03993182
241	0xbd29777b	-0.04137371
242	0x3e41933e	0.18903825
243	0x3deff100	0.11715889
244	0xbd8cf6ff	-0.06883048
245	0xbd60e979	-0.054910157
246	0xbd8042a5	-0.062627114
247	0xbd013df8	-0.03155324
248	0x3e905099	0.2818649
249	0xbd3e0505	-0.046391506
250	0xbde975dd	-0.11399434
251	0x3e384ec3	0.17998795
252	0xbdc7c3b4	-0.09754124
253	0xbd84b6fa	-0.064802125
254	0xbca748ec	-0.020420514
255	0xbdf3c7ae	-0.1190332

critic.2.bias f4 [64]
0	0xbceed5ce	-0.029154684
1	0xbe0e13f4	-0.13874799
2	0xbaf20708	-0.001846523
3	0xbe94d6c6	-0.2907011
4	0x3d9d932b	0.07694086
5	0xbdb16771	-0.08662308
6	0xbd8185f4	-0.06324378
7	0x3db03c3f	0.08605241
8	0x3e225312	0.15852001
9	0x3da012dd	0.07816098
10	0xbdcf0dd7	-0.101100616
11	0xbe2f4785	-0.17117126
12	0xbde069a1	-0.10957647
13	0x3d3fda90	0.046839297
14	0x3c14ce82	0.009082438
15	0x3d666804	0.05625154
16	0x3ddccbb2	0.10781039
17	0xbddbaab6	-0.1072592
18	0xbdf2d53b	-0.11857077
19	0x3d7be4e5	0.061497588
20	0xbdb9950f	-0.09061634
21	0xbe31734e	-0.17329141
22	0x3d156015	0.036468584
23	0x3d412f3c	0.047164187
24	0xbdb3e168	-0.08783227
25	0x3c009f63	0.007850501
26	0xbe215f3d	-0.15758987
27	0xbc10f672	-0.00884782
28	0xbdd29911	-0.10283101
29	0x3cd306ab	0.025760015
30	0x3db865ca	0.0900379
31	0x3b20aeee	0.0024518329
32	0xbca98879	-0.020694958
33	0x3daa5e8c	0.08318815
34	0x3e04db22	0.12974218
35	0x3dff3c26	0.12462644
36	0xbd358359	-0.044314716
37	0x3c8f6a99	0.017506884
38	0xbe52733f	-0.20551775
39	0xbe04f39b	-0.12983553
40	0xbe5fc95b	-0.21854155
41	0xbd8690ff	-0.065706246
42	0x3dce5343	0.10074475
43	0x3e3fa64f	0.18715785
44	0x3d5cbc02	0.053890236
45	0xbd499eea	-0.049223818
46	0x3d70fc9f	0.05883467
47	0xbbfeeef6	-0.007779951
48	0x3de8236f	0.113348834
49	0xbd837c37	-0.064201765
50	0x3e256f33	0.161557
51	0x3af50c7c	0.0018695737
52	0xbd880b62	-0.06642796
53	0xbd92eee0	-0.07174468
54	0x3cca086b	0.024662217
55	0xbcb3a1c4	-0.021927722
56	0xbdbd8d90	-0.092555165
57	0xbdd4279a	-0.10359116
58	0xbd2f9a2c	-0.04287164
59	0xbd85d4a6	-0.065347
60	0xbdf939bc	-0.12169215
61	0xbbde1f60	-0.0067786425
62	0xbd940506	-0.07227521
63	0x3c00eced	0.0078689875

critic.4.weight f4 [1, 64]
0	0xbd735777	-0.059409585
1	0xbd5d032c	-0.053958103
2	0xbcd57e98	-0.026061341
3	0xbdaa2fdd	-0.083099104
4	0xbcf3d8d4	-0.029766478
5	0x3ca4c9d5	0.020115772
6	0xbd0c7a0d	-0.034296084
7	0xbd00989a	-0.031395532
8	0xbd8c130a	-0.06839569
9	0xbd1696d8	-0.03676495
10	0xbdd2e362	-0.10297276
11	0x3dcd1a1d	0.10014746
12	0xbc80df31	-0.015731426
13	0x3db16c8d	0.086632825
14	0xbd0541e2	-0.032533534
15	0xbd28fea7	-0.04125848
16	0xbc800cb0	-0.01563105
17	0x3e0c9cef	0.1373174
18	0xbceb7991	-0.02874449
19	0x3cbbb8e5	0.022915313
20	0xbc5c13e2	-0.013432475
21	0xbd7c6132	-0.06161613
22	0x3d05f650	0.032705605
23	0x3b034429	0.002002964
24	0x3d26babc	0.040705428
25	0xbc1a3a01	-0.009413243
26	0x3c0c8f83	0.008579138
27	0x3ca6dcbb	0.020368924
28	0x3cbf7dcb	0.023375412
29	0xbb16a0e7	-0.002298409
30	0xbb412e0d	-0.0029476911
31	0xbcca559b	-0.024699023
32	0x3cb79fd0	0.022415072
33	0xbd4e243f	-0.050327536
34	0x3bdffa8c	0.0068352874
35	0x3ce6499f	0.028111277
36	0xbd149c85	-0.03628208
37	0x3b893966	0.0041877506
38	0xbd54810d	-0.051880885
39	0xbbf2174a	-0.00738803
40	0xba77e159	-0.00094558817
41	0xbd151c60	-0.036404014
42	0xbc91cb5d	-0.017797166
43	0xbe17e030	-0.14831614
44	0x3c92d350	0.017923027
45	0x3e126177	0.14294992
46	0x3d1d583d	0.03841423
47	0x3ae2cbdf	0.001730319
48	0xbd421ab7	-0.04738876
49	0xbc8728be	-0.01649892
50	0x3c1e2afe	0.009653805
51	0x3d7acb31	0.061228935
52	0xbd8d7d2a	-0.06908639
53	0xbae6350f	-0.001756342
54	0x3cb595b1	0.022166105
55	0x3cc13c04	0.023588188
56	0xbd0b7e2b	-0.03405587
57	0xbd84c6d1	-0.06483234
58	0xbca7e000	-0.020492554
59	0xbcdb5c2c	-0.02677735
60	0xbd818af1	-0.06325329
61	0x3ddc9ece	0.10772477
62	0xbdc96952	-0.098345414
63	0xbc895cb0	-0.01676783

exp_avg f4 [7]
0	0xb970362d	-0.00022908366
1	0x3906548d	0.00012810733
2	0xbb30d0fc	-0.0026980033
3	0xb96e26e8	-0.00022711942
4	0x3b9099b2	0.004412853
5	0xbb5dd13c	-0.0033846637
6	0x3b5dadab	0.0033825438

exp_avg_sq f4 [7]
0	0x393aa57b	0.00017799989
1	0x39cb16ae	0.00038736075
2	0x39899b1b	0.0002624624
3	0x3a210f20	0.00061439164
4	0x39dc3493	0.0004200084
5	0x39bddceb	0.00036213486
6	0x39993735	0.00029223567

exp_avg f4 [64, 32]
0	0xb911fd20	-0.00013922574
1	0x3a29363c	0.000645492
2	0x39486805	0.00019112237
3	0x39edf94f	0.00045389912
4	0x3915d63f	0.0001428956
5	0xb9c79e3c	-0.00038074132
6	0x3a9ac58a	0.0011808139
7	0xb8331abe	-4.270183e-05
8	0xb800a42e	-3.0670482e-05
9	0x39732f48	0.000231919
10	0xb8132a36	-3.5086843e-05
11	0xb9e2df79	-0.0004327258
12	0x3926b856	0.00015899664
13	0xb7f1fca4	-2.8847084e-05
14	0x393a5006	0.00017768153
15	0x39e8f861	0.00044435545
16	0x370df5ba	8.461468e-06
17	0x372669c0	9.918993e-06
18	0x39df06e3	0.00042539006
19	0x370481d6	7.898043e-06
20	0x399d50ad	0.00030005482
21	0xad9bc954	-1.7710867e-11
22	0xb9b38d70	-0.0003424692
23	0x39d450b9	0.00040495934
24	0xad83c880	-1.4982016e-11
25	0xb9a3bd23	-0.000312307
26	0x39d9f4ee	0.00041571952
27	0x39b41739	0.00034349578
28	0x3a8b4072	0.0010624065
29	0x39f10d54	0.00045977032
30	0xba90768f	-0.0011021661
31	0x3b26fd15	0.0025480438
32	0xb90b660c	-0.00013294088
33	0x3aad7a64	0.0013235328
34	0x3a19116d	0.00058390835
35	0x3a91cd82	0.0011123868
36	0x39ce3b56	0.0003933559
37	0xbabde7d5	-0.0014488647
38	0x3b291795	0.002580141
39	0xb8f5ff84	-0.00011730104
40	0xb8d7c02c	-0.00010287794
41	0xb9f69716	-0.00047033344
42	0xb8cb02e7	-9.680335e-05
43	0x39de2c7a	0.00042376277
44	0x39e99920	0.0004455531
45	0xb7837f20	-1.5675614e-05
46	0xba6d15bc	-0.0009044071
47	0xba2760f3	-0.0006384991
48	0x369a0123	4.58969e-06
49	0x37bac70e	2.226562e-05
50	0x3a89729d	0.0010486428
51	0x3932fa52	0.00017068654
52	0x3a5fa73b	0.0008531694
53	0xae9b19d1	-7.05317e-11
54	0x39790b0c	0.00023750606
55	0x3ad3795d	0.0016134192
56	0x2d360b2c	1.0347983e-11
57	0xba3f3827	-0.0007294439
58	0x3a81d6db	0.0009905951
59	0x3a75a964	0.00093712495
60	0x3b636f45	0.0034703773
61	0x3a839383	0.0010038469
62	0xbb4520a9	-0.0030079281
63	0x3b9b48c4	0.004738899
64	0xbab4eb43	-0.0013803024
65	0x3b7e6c28	0.003882179
66	0x3af2e891	0.0018532445
67	0x3b89ca9b	0.0042050607
68	0xba7a1c4c	-0.000954096
69	0xbbb28462	-0.00544791
70	0x3b97b193	0.004629323
71	0xb998fa62	-0.0002917825
72	0xb94f80fd	-0.0001978911
73	0x3a73f695	0.0009306458
74	0xba56310c	-0.00081707607
75	0xbab20207	-0.0013580926
76	0xb92d47f0	-0.00016525364
77	0x3a23540b	0.000623048
78	0x3b17e0c5	0.0023174745
79	0xba7b1da7	-0.00095793087
80	0xb6c69417	-5.9180998e-06
81	0x38b15d92	8.4574465e-05
82	0x3b447a7b	0.002998023
83	0x399d171a	0.00029962586
84	0x3b118a88	0.0022207815
85	0xaf312af0	-1.611331e-10
86	0xbb4d1aec	-0.0031296564
87	0x3b7196ec	0.0036863638
88	0xaf16a984	-1.3702645e-10
89	0xbb547870	-0.003242042
90	0x3b63f258	0.00347819
91	0x3b604274	0.0034219297
92	0x3c38cad7	0.01127883
93	0xbac414d2	-0.0014959818
94	0xbc1b2775	-0.0094698565
95	0x3c185ed2	0.009299951
96	0xb937bf5e	-0.0001752353
97	0x399cd9bf	0.00029916872
98	0x3873659f	5.8030357e-05
99	0x37edb0e1	2.8334967e-05
100	0x372b1b7e	1.0198795e-05
101	0xb79d3de1	-1.8744673e-05
102	0x389ee053	7.575811e-05
103	0xb7baf24c	-2.2285756e-05
104	0xb788f44c	-1.6326223e-05
105	0x3a0ee142	0.0005450436
106	0xb93574a2	-0.00017304954
107	0xb91dea8c	-0.00015060062
108	0x392c0ab5	0.00016407187
109	0x3a020fed	0.00049614796
110	0x3a07d42e	0.00051814585
111	0xb90681f3	-0.00012827646
112	0xb651f2ad	-3.1284683e-06
113	0x370e8ae5	8.4961985e-06
114	0x395ac126	0.00020862053
115	0xb88c03e4	-6.676445e-05
116	0x38f45a11	0.00011651603
117	0xad3f8fd4	-1.0889029e-11
118	0x372ab830	1.0175674e-05
119	0x3982487e	0.00024849543
120	0x2af99c42	4.433971e-13
121	0xb7bb76c5	-2.2347444e-05
122	0xb7b20757	-2.1222671e-05
123	0x3964e7f4	0.00021830184
124	0x3a0293e5	0.00049811444
125	0x39315594	0.00016911916
126	0xb920a5f4	-0.00015320611
127	0x398c9655	0.00026814887
128	0xb981d3e6	-0.00024762674
129	0x3a5661f6	0.00081780495
130	0x39e7e01b	0.00044226725
131	0x39c80a35	0.00038154577
132	0x39b4f455	0.00034514317
133	0xb848489a	-4.775133e-05
134	0x3b9977e3	0.004683481
135	0xb8ccbb39	-9.762351e-05
136	0xb801ba3f	-3.0929452e-05
137	0x381438fa	3.5339013e-05
138	0xb9476501	-0.00019015746
139	0x395135cf	0.00019951838
140	0x3a5300c0	0.0008049123
141	0xb8f0ba7d	-0.00011478828
142	0x3a0890ee	0.00052095845
143	0xb94ee1df	-0.00019729834
144	0xb86edd59	-5.6949768e-05
145	0xb8028f43	-3.1127838e-05
146	0x39ec9a5f	0.00045128443
147	0x3854f5b0	5.0773553e-05
148	0x39bbbc6b	0.00035807802
149	0xae3949de	-4.2129737e-11
150	0xbaf26575	-0.0018493371
151	0x3a7c9e30	0.0009636609
152	0xaeb1e1f7	-8.0891675e-11
153	0xb9c2d07a	-0.0003715789
154	0x39ce3c12	0.00039336138
155	0x3a8c6786	0.0010712005
156	0x3aa51f99	0.0012597918
157	0x3a0fff27	0.0005493038
158	0xb9f2ceab	-0.00046311817
159	0x3c153a83	0.009108189
160	0x38ff2738	0.000121666526
161	0xb9c73f30	-0.00038003316
162	0x381e2036	3.7700134e-05
163	0x399e3191	0.00030173038
164	0xba2d4c1c	-0.00066107675
165	0xba0dd372	-0.0005410231
166	0xbb0a23ae	-0.0021078396
167	0x3808346b	3.2473745e-05
168	0x372c5bc9	1.0273369e-05
169	0x390361b6	0.00012529534
170	0x38f60afc	0.0001173224
171	0x38302760	4.199834e-05
172	0x38c1efc7	9.247619e-05
173	0x3a6e673a	0.00090943614
174	0x3a09c33e	0.00052552286
175	0xb93a014a	-0.00017738822
176	0x37c988a6	2.4024699e-05
177	0x37ea6722	2.7942999e-05
178	0xb8e43076	-0.00010880914
179	0x39060624	0.00012781523
180	0xb87ddd86	-6.052621e-05
181	0x2d9bcff7	1.7713815e-11
182	0x3985c859	0.00025517007
183	0xb9d48a84	-0.00040538993
184	0x2d442233	1.1148904e-11
185	0xb923b540	-0.00015612412
186	0xb99c83ee	-0.00029852934
187	0xb97dc0d1	-0.0002419979
188	0x396ef7b6	0.00022789728
189	0xba99e33c	-0.0011740695
190	0xb9ccb9ef	-0.00039048443
191	0xbb8b84d5	-0.004257778
192	0xb97f6580	-0.00024356507
193	0x39172ceb	0.00014417215
194	0x39742903	0.00023284931
195	0x3987ad41	0.0002587829
196	0xb9a86131	-0.0003211587
197	0xb9cd365d	-0.0003914115
198	0xb96fbbf8	-0.0002286284
199	0xb7685c71	-1.3849801e-05
200	0xb70ee58f	-8.517308e-06
201	0xba1ead46	-0.00060530414
202	0x38a46340	7.838616e-05
203	0x39add5d0	0.00033156434
204	0xb936b574	-0.00017424469
205	0x398e930d	0.00027193912
206	0x3a0c831d	0.00053601136
207	0x396ab0f7	0.00022381904
208	0xb3ab7eb0	-7.985852e-08
209	0x36e5f608	6.8533736e-06
210	0x393a7c34	0.00017784612
211	0x38936240	7.027807e-05
212	0x394ec295	0.00019718178
213	0xad8822cc	-1.5476863e-11
214	0xba483a75	-0.00076381053
215	0x39b9ce1e	0.0003543952
216	0xae12e8f5	-3.3403464e-11
217	0xba0c3bc6	-0.0005349483
218	0x39dc9c8d	0.0004207831
219	0x3a1cf416	0.00059872994
220	0x3a223ea1	0.0006189142
221	0xba1dd8eb	-0.0006021398
222	0xb9ab9f64	-0.00032734417
223	0xb9a636ce	-0.0003170282
224	0x395df841	0.00021168684
225	0x378eca03	1.7021788e-05
226	0xb92652ec	-0.00015861884
227	0xb9acf5a7	-0.00032989422
228	0xb9d82e13	-0.00041233058
229	0x3a086e49	0.0005204422
230	0xbb1b903c	-0.0023737093
231	0x383b0ce9	4.4596298e-05
232	0x378f52c0	1.7085462e-05
233	0xb9a0d62c	-0.0003067715
234	0x388aac08	6.612396e-05
235	0xb9b1d9e3	-0.0003392241
236	0x3a31ddcb	0.0006785064
237	0xb809010b	-3.2664317e-05
238	0xba20e243	-0.0006137231
239	0xba39bded	-0.0007085491
240	0x372b83f0	1.0223113e-05
241	0x362fc044	2.6188945e-06
242	0xb87a61e1	-5.96958e-05
243	0x3874ddab	5.8380578e-05
244	0xb9811e2c	-0.00024627277
245	0x2c17e955	2.1587916e-12
246	0x3a8054d7	0.0009790909
247	0xb84f8ab5	-4.9481827e-05
248	0x2e3c3c5b	4.2799857e-11
249	0x3995e3aa	0.00028589118
250	0x39c9323d	0.00038375138
251	0xb9e9fbaf	-0.00044628742
252	0xb9d8465c	-0.00041251152
253	0xba2c8e8e	-0.00065825216
254	0x3aa362cb	0.0012465356
255	0xbb965801	-0.0045881276
