logs/rsl_rl/franka_reach/2025-06-26_19-51-50/model_650.pt (torch, 172795 bytes, 36 tensors)

std f4 [7]
0.08208527 0.051583543 0.060752984 0.04217683 0.049893893 0.05899958 0.064649016
00000000: 521c a83d 4449 533d 1fd8 783d 9dc1 2c3d
00000010: 8a5d 4c3d 8ba9 713d b466 843d

actor.0.weight f4 [64, 32]
-0.19411103 0.16311093 -0.1993419 0.11404456 0.27958176 0.07666297 0.48732403 0.3199096
0.60085547 -0.009766334 -0.10860603 0.08014817 0.083455645 0.071763925 0.042018313 0.068975195
-0.007758121 -0.29745936 -0.24623522 -1.9744724 0.33691117 -0.023089526 -1.4732852 0.53220874
-0.14864564 -0.098294124 -0.18661751 -0.17657697 -0.0018634365 -0.12971857 0.05309942 0.17783321
0.37199825 0.2542424 0.351497 0.9735281 0.51946706 0.48226342 -0.10334236 -0.20040283
0.01791204 0.09921659 -0.035076965 0.11021024 0.09888597 -0.035556186 -0.06543297 0.09744118
-0.19816576 0.15359902 -0.8022806 -1.281174 -0.079854965 0.14542302 0.36484033 0.032054015
0.05684027 -0.004171747 0.2090683 -0.09804124 -0.07398572 -0.06347937 0.08909833 -0.10758376
0.975319 0.12608111 0.90808487 -0.50961363 -0.07740639 -0.12791453 0.28291842 0.38612518
0.6188067 -0.17253852 0.05883808 -0.2164064 -0.014658574 -0.03165117 0.07678747 0.08293041
0.16777043 -0.0929207 0.33530614 -0.7506936 0.61050993 -0.03982206 -0.08193686 -0.24050489
-0.08839767 0.041242216 0.24477676 0.0063065486 0.18028666 0.10967365 -0.26773053 -0.13767289
-0.16832025 -0.15877983 0.19385938 -0.080783166 0.0588802 0.32514915 0.3250707 -0.19892654
0.03919301 -0.04712796 -0.038053747 -0.08862846 -0.09656373 -0.16177908 0.05899601 -0.015174202
0.53232485 -0.2925018 -0.99863636 0.08415177 0.78321135 -0.15757309 -0.47851172 -0.012283787
-0.00085965026 0.3057295 0.17308007 -0.16322657 0.0057436284 -0.21285985 -0.182188 -0.1290707
-0.080973856 -0.0050503775 0.029977877 0.29756886 -0.3778231 0.73353475 -0.14439544 -0.1350088
-0.11933679 -0.044680465 -0.024694834 -0.03623973 -0.058203995 0.06096407 0.024968794 -0.16054285
0.19477285 0.79486907 -0.2993653 0.5228564 1.0447096 -0.13795246 -0.03822143 -0.67851895
-0.016932413 -0.47690263 0.35378483 0.07885498 -0.06607397 0.10237089 -0.119709566 0.051303253
0.1227728 -0.2851022 -0.32457379 -0.11791074 0.14440176 0.12761565 0.039442506 0.27018043
0.1742432 -0.1249733 -0.26212513 -0.08221711 0.18646573 -0.05213185 -0.026908403 0.09667105
0.6249372 0.8475019 -0.05280681 -2.2753997 -0.8283038 0.08831871 0.12298848 0.5778749
0.09164385 -0.09575392 0.21761133 -0.05183572 -0.27426514 0.16965397 0.25793847 -0.02875049
0.3873918 -0.065486535 0.7051086 -0.27211016 -0.17018166 0.23002191 0.0023124025 0.25782475
0.07098429 0.16780773 0.00090380374 0.07692408 0.017641276 -0.0077739363 0.030023906 -0.12697847
0.091390505 0.13870953 0.20088595 0.64796 -0.18553205 -0.107576355 -0.39857328 0.52727693
0.023742678 0.06629131 0.09388511 0.15368897 -0.004482865 0.14420423 0.14079957 0.02731142
1.1291357 0.08301259 1.0314727 -0.1268781 -0.47378772 -0.32485756 -0.53978926 0.2974193
0.1911525 0.035094835 -0.008582101 0.110193476 0.14343913 0.08470102 -0.024001924 -0.024305101
-0.15082005 -0.6774414 -0.24737933 -0.68101066 -0.5681117 -0.124187194 -1.0300316 0.37862316
-0.06428165 -0.076564156 -0.05442449 -0.2711215 -0.020555953 -0.13658783 0.10704533 -0.064077556
00000000: 0bc5 46be 8d06 273e 4820 4cbe 3290 e93d
00000010: 5725 8f3e 7a01 9d3d 8982 f93e 31cb a33e
00000020: aad1 193f f902 20bc d76c debd b924 a43d
00000030: cbea aa3d f7f8 923d 651b 2c3d de42 8d3d
00000040: d637 febb 984c 98be 1625 7cbe 83bb fcbf
00000050: 9f7f ac3e 3f26 bdbc 9c94 bcbf d53e 083f
00000060: 9036 18be 6e4e c9bd a918 3fbe 98d0 34be
00000070: 8e3e f4ba f2d4 04be c77e 593d e919 363e
00000080: 8e76 be3e 0f2c 823e 6af7 b33e 2339 793f
00000090: cbfb 043f 3beb f63e 29a5 d3bd 6636 4dbe
000000a0: 45bc 923c 1132 cb3d ddac 0fbd e8b5 e13d
000000b0: ba84 ca3d 5da3 11bd b901 86bd 3e8f c73d
000000c0: f7eb 4abe 1049 1d3e 4362 4dbf 82fd a3bf
000000d0: 008b a3bd c6e9 143e 5acc ba3e 124b 033d
000000e0: 58d1 683d 26b3 88bb 0016 563e d8c9 c8bd
000000f0: d385 97bd 7901 82bd 2f79 b63d e054 dcbd
00000100: 82ae 793f 681b 013e 4078 683f 0a76 02bf
00000110: 3e87 9ebd 07fc 02be afda 903e 33b2 c53e
00000120: 1e6a 1e3f f0ad 30be 3300 713d a499 5dbe
00000130: 842a 70bc a8a4 01bd c042 9d3d 6bd7 a93d
00000140: 03cc 2b3e 354d bebd 3fad ab3e 752d 40bf
00000150: 614a 1c3f 751c 23bd 83ce a7bd ea46 76be
00000160: d609 b5bd 99ed 283d c2a6 7a3e 2aa7 ce3b
00000170: 119d 383e 949c e03d fa13 89be 1ffa 0cbe
00000180: 255c 2cbe 2e97 22be 1383 463e a571 a5bd
00000190: 5d2c 713d f379 a63e ab6f a63e 66b3 4bbe
000001a0: da88 203d 3f09 41bd 3fde 1bbd d782 b5bd
000001b0: 34c3 c5bd 6aa9 25be cda5 713d 379d 78bc
000001c0: 7146 083f ccc2 95be a2a6 7fbf c357 ac3d
000001d0: 8a80 483f d75a 21be 7dff f4be f041 49bc
000001e0: 275a 61ba 9488 9c3e e73b 313e de24 27be
000001f0: 0c35 bc3b eff7 59be 7e8f 3abe 1c2b 04be
00000200: 9fd5 a5bd a37d a5bb 2a94 f53c f25a 983e
00000210: 0872 c1be efc8 3b3f 66dc 13be bf3f 0abe
00000220: d966 f4bd dd02 37bd d24c cabc 1c70 14bd
00000230: 5067 6ebd 76b5 793d 5b8b cc3c 5865 24be
00000240: 8972 473e 8a7c 4b3f 6946 99be ebd9 053f
00000250: 0bb9 853f 6943 0dbe 138e 1cbd 6bb3 2dbf
00000260: d8b5 8abc 952c f4be 4923 b53e b87e a13d
00000270: ca51 87bd d4a7 d13d 4a2a f5bd 5c23 523d
00000280: 4e70 fb3d eaf8 91be 892e a6be 307b f1bd
00000290: 0ede 133e adad 023e 778e 213d 1755 8a3e
000002a0: cf6c 323e 00f2 ffbd 4435 86be 7261 a8bd
000002b0: dff0 3e3e 3588 55bd 036f dcbc 79fb c53d
000002c0: e2fb 1f3f e2f5 583f f44b 58bd 26a0 11c0
000002d0: b80b 54bf 71e0 b43d 62e1 fb3d 9cef 133f
000002e0: c5af bb3d a21a c4bd 81d5 5e3e b151 54bd
000002f0: 7b6c 8cbe c5b9 2d3e 8310 843e 2686 ebbc
00000300: 3858 c63e ce1d 86bd ff81 343f 0652 8bbe
00000310: 1a44 2ebe dd8a 6b3e ad8b 173b 9b01 843e
00000320: 3660 913d cad5 2b3e 3eed 6c3a 5f8a 9d3d
00000330: 7084 903c 81bc febb b2f4 f53c a506 02be
00000340: f22a bb3d df09 0e3e 0cb5 4d3e b5e0 253f
00000350: 1dfc 3dbe fe50 dcbd cc11 ccbe 9ffb 063f
00000360: 0180 c23c bdc3 873d d646 c03d a460 1d3e
00000370: ffe4 92bb 46aa 133e c32d 103e 33bc df3c
00000380: 8587 903f 8102 aa3d 4c07 843f 55ec 01be
00000390: 4e94 f2be bb53 a6be a12f 0abf 5847 983e
000003a0: 7bbd 433e 9abf 0f3d f19b 0cbc 1ead e13d
000003b0: b5e1 123e ba77 ad3d af9f c4bc 7e1b c7bc
000003c0: 9270 1abe cd6c 2dbf 0251 7dbe b756 2ebf
000003d0: c56f 11bf db55 febd 13d8 83bf e5da c13e
000003e0: 19a6 83bd abcd 9cbd 37ec 5ebd 70d0 8abe
000003f0: f564 a8bc aedd 0bbe 953a db3d 183b 83bd

actor.0.bias f4 [64]
-0.18092531 0.08643081 -0.39775366 0.053716347 0.0703544 -0.33777544 -0.34893763 -0.09367648
0.32903323 0.20120461 -0.08329253 0.14763042 0.09675795 -0.32048103 -0.3001227 -0.2513297
0.6199639 0.13432887 0.22274321 -0.0015664541 0.26323316 0.123572364 -0.13238363 0.100290135
-0.5855792 0.71754426 0.021479597 -0.25710285 -0.10518579 0.08411524 -0.09403325 0.35549194
-0.46592182 0.013765778 0.07272411 -0.027573947 0.23545165 0.29548678 -0.21691495 -0.014479422
0.15986162 -0.18093388 0.454811 -0.031444963 0.44909322 0.28918204 -0.21924232 0.038285986
0.28546506 -0.09173481 -0.18636167 -0.21912928 0.16298385 0.1410688 -0.40205696 -0.37008798
-0.40599576 -0.036563974 0.18273523 0.45044264 -0.05394995 0.13580284 0.3125945 -0.031756923
00000000: 7c44 39be a302 b13d 5ea6 cbbe ac05 5c3d
00000010: f815 903d e7f0 acbe f4a7 b2be 74d9 bfbd
00000020: 0b77 a83e 9508 4e3e 4695 aabd 6e2c 173e
00000030: 0829 c63d 1716 a4be afa9 99be 49ae 80be
00000040: f4b5 1e3f 828d 093e cc16 643e 7a51 cdba
00000050: 7fc6 863e 8213 fd3d 938f 07be ea64 cd3d
00000060: 85e8 15bf fbb0 373f fbf5 af3c fca2 83be
00000070: a66b d7bd 9c44 ac3d 8194 c0bd 0a03 b63e
00000080: 4e8d eebe dc89 613c 61f0 943d c2e2 e1bc
00000090: 3d1a 713e 0b4a 973e f41e 5ebe 193b 6dbc
000000a0: c4b2 233e bb46 39be fddc e83e 6fcc 00bd
000000b0: 8cef e53e ab0f 943e 0f81 60be c4d1 1c3d
000000c0: 7a28 923e 76df bbbd 98d5 3ebe 6d63 60be
000000d0: 3de5 263e 5774 103e 69da cdbe 2c7c bdbe
000000e0: adde cfbe 1bc4 15bd f21e 3b3e 6ba0 e63e
000000f0: 9ffa 5cbd e60f 0b3e 630c a03e 8c13 02bd

actor.2.weight f4 [64, 64]
-0.013085758 -0.2585151 0.3019847 -0.02361043 0.13240635 -0.047020853 0.16305831 0.035748627
-0.039684378 -0.31045243 0.19665124 0.21356604 -0.06336753 -0.0072964835 -0.17389025 -0.38099638
0.09978283 0.03483365 -0.026632708 -0.01926408 -0.045068502 0.25912496 0.06746665 0.10308557
0.31597385 -0.3005117 -0.12855628 0.19888599 0.32765272 -0.21304034 0.110088624 0.20868392
0.08698435 0.27682862 -0.084746554 -0.22956805 -0.19694807 -0.10402989 -0.015518515 -0.07002231
-0.1526534 -0.078368805 -0.00042278098 0.06905786 -0.09685306 0.034433715 0.08424356 -0.07733157
0.049547173 -0.105693966 0.19297874 0.033904873 0.18919905 -0.016799856 -0.17186058 -0.030193603
-0.0040479763 -0.10779376 0.120698184 -0.10181678 -0.2420662 -0.0044332766 0.1415036 -0.058826555
0.1059945 -0.20168653 -0.4292356 0.17478888 -0.06647107 3.4643588e-05 -0.043848142 -0.019405471
0.10060931 0.20048486 -0.068220116 0.15625457 -0.09470144 -0.13396809 -0.14618458 -0.021609595
0.16056567 -0.039223645 0.21065155 0.0026490837 0.12381791 -0.062103447 0.06487933 0.18925196
-0.124312684 -0.009124146 0.022680474 -0.08004384 -0.18544304 0.20891039 0.13662732 0.28493285
-0.07111928 -0.09148889 -0.038421355 -0.16126305 0.053391647 0.21259432 -0.03818088 0.102368735
-0.055145465 -0.081321105 -0.06544821 0.07609308 0.2635502 0.10486777 -0.11960343 0.17217647
0.0051177116 0.1476934 0.066649556 0.057709835 -0.06580347 0.061687376 -0.15010303 -0.15722343
-0.13467897 -0.20042846 0.058887433 0.16135444 0.121397935 0.22242914 -0.10094146 -0.12529768
0.012795348 -0.40892923 0.043886088 -0.113591485 0.07136727 -0.17350896 -0.01019172 -0.12041653
0.032779664 -0.37791756 0.014407601 0.04771746 -0.25541353 -0.07809856 -0.42332315 -0.177791
0.06588148 0.04207598 -0.0115855215 0.016829196 -0.020704193 0.23170888 0.27998418 -0.0356933
0.15219936 -0.03499156 -0.20840153 0.2107835 0.37668636 0.16051728 0.07756165 0.29829615
0.09146354 0.26509917 0.082953684 -0.42461777 -0.4278901 -0.20254983 -0.102359556 -0.17272362
-0.1619028 -0.19248639 -0.12106059 0.033347435 -0.13745147 0.14201137 0.25798833 -0.008260833
0.11515684 -0.07472537 0.1470172 -0.07884775 -0.10024028 0.08650664 -0.20191035 0.02389776
-0.103646785 0.0114403395 0.13097973 -0.017407548 -0.25681764 0.10916696 0.1484943 -0.03490811
-0.033012427 -0.109676376 -0.13692081 -0.08167156 -0.115228444 0.1259533 -0.088522874 0.2665574
0.05269818 0.088116884 -0.10221884 -0.106880285 0.19865154 -0.06954902 -0.115316994 0.022268748
0.10390172 0.04255399 0.17364106 0.10430338 0.093034744 0.180133 -0.009601753 0.0721135
-0.43744835 0.103405654 0.25240055 -0.28891897 -0.21176113 0.03793891 0.030604335 0.09161366
0.0066173417 0.06731964 0.058777433 0.020211246 0.2996201 0.09032657 0.07741498 -0.14810883
0.018733641 -0.110433616 -0.02671343 0.050361242 0.16083248 0.060132418 -0.09358193 0.28316474
-0.010615588 0.07671824 -0.14311954 0.069468535 -0.14019752 0.25954175 -0.22897717 0.024564723
-0.1293077 -0.10351074 0.250614 0.16582662 0.002218427 0.11585735 0.09017033 0.3824551
00000000: a665 56bc 175c 84be bd9d 9a3e a96a c1bc
00000010: 8895 073e f098 40bd c2f8 263e 276d 123d
00000020: 168c 22bd 9ff3 9ebe f15e 493e 0eb1 5a3e
00000030: d6c6 81bd 5717 efbb 4910 32be f511 c3be
00000040: f15a cc3d bbad 0e3d d62c dabc b4cf 9dbc
00000050: c099 38bd 07ac 843e f42b 8a3d 871e d33d
00000060: 53c7 a13e abdc 99be 42a4 03be c5a8 4b3e
00000070: 19c2 a73e 3f27 5abe 2576 e13d 3db1 553e
00000080: da24 b23d 7bbc 8d3e 9a8f adbd e313 6bbe
00000090: c1ac 49be 9f0d d5bd 5f41 7ebc db67 8fbd
000000a0: 2c51 1cbe d37f a0bd b4a8 ddb9 356e 8d3d
000000b0: e65a c6bd 5e0a 0d3d e387 ac3d 0460 9ebd
000000c0: faf1 4a3d 1476 d8bd 389c 453e d6df 0a3d
000000d0: 65bd 413e da9f 89bc 38fc 2fbe 9358 f7bc
000000e0: e3a4 84bb fac2 dcbd 9c30 f73d 5185 d0bd
000000f0: 34e0 77be 0545 91bb 52e6 103e 1df4 70bd
00000100: a513 d93d ea86 4ebe c5c4 dbbe dbfb 323e
00000110: fc21 88bd 454e 1138 1c9a 33bd 39f8 9ebc
00000120: 410c ce3d e74b 4d3e fdb6 8bbd 3301 203e
00000130: d4f2 c1bd ee2e 09be 69b1 15be 9b06 b1bc
00000140: 546b 243e f9a8 20bd 0ab5 573e 409c 2d3b
00000150: 3f94 fd3d 2f60 7ebd 74df 843d 44cb 413e
00000160: a697 febd 717d 15bc 67cc b93c 06ee a3bd
00000170: c8e4 3dbe 9bec 553e 08e8 0b3e b8e2 913e
00000180: fca6 91bd 875e bbbd b65f 1dbd 2422 25be
00000190: 33b1 5a3d 53b2 593e 8e63 1cbd b3a6 d13d
000001a0: 36e0 61bd ae8b a6bd b609 86bd b0d6 9b3d
000001b0: 0df0 863e eac4 d63d a5f2 f4bd 074f 303e
000001c0: 7ab2 a73b f03c 173e 907f 883d 2661 6c3d
000001d0: f8c3 86bd e7ab 7c3d 9cb4 19be 2eff 20be
000001e0: 49e9 09be 1e3d 4dbe f333 713d 193a 253e
000001f0: 7b9f f83d 77c4 633e 65ba cebd 094e 00be
00000200: 94a3 513c 2c5f d1be e6c1 333d a7a2 e8bd
00000210: 0129 923d 55ac 31be 2cfb 26bc f19c f6bd
00000220: f843 063d 697e c1be dc0d 6c3c 6273 433d
00000230: 90c5 82be 23f2 9fbd d0bd d8be d80e 36be
00000240: dfec 863d dd57 2c3d 33d1 3dbc 62dd 893c
00000250: d79b a9bc 1845 6d3e 165a 8f3e 2333 12bd
00000260: 26da 1b3e 4f53 0fbd 3667 55be a1d7 573e
00000270: 09dd c03e a45e 243e a4d8 9e3d 46ba 983e
00000280: 3d51 bb3d 14bb 873e 9fe3 a93d 8067 d9be
00000290: 6914 dbbe 3969 4fbe e3a1 d1bd 76de 30be
000002a0: d9c9 25be 271b 45be 9dee f7bd 5297 083d
000002b0: 14c0 0cbe 6e6b 113e 0c17 843e 7258 07bc
000002c0: 59d7 eb3d 9d09 99bd ad8b 163e ee7a a1bd
000002d0: c74a cdbd 652a b13d 96c1 4ebe 3cc5 c33c
000002e0: c444 d4bd 4370 3b3c 8d1f 063e 469a 8ebc
000002f0: 9a7d 83be ed92 df3d e40e 183e cefb 0ebd
00000300: 0a38 07bd 029e e0bd f834 0cbe 6b43 a7bd
00000310: e4fc ebbd e7f9 003e 7b4b b5bd 367a 883e
00000320: 0cda 573d a076 b43d 1c58 d1bd 0de4 dabd
00000330: 4f6b 4b3e b76f 8ebd 512b ecbd f36c b63c
00000340: 6dca d43d 184d 2e3d f6ce 313e 039d d53d
00000350: 0089 be3d c974 383e ac50 1dbc 3eb0 933d
00000360: 3bf9 dfbe 58c6 d33d a53a 813e 30ed 93be
00000370: e9d7 58be d565 1b3d f1b5 fa3c f19f bb3d
00000380: 49d6 d83b e1de 893d 9bc0 703d 0e92 a53c
00000390: ce67 993e 23fd b83d bf8b 9e3d d7a9 17be
000003a0: 4b77 993c 052b e2bd 20d6 dabc 9747 4e3d
000003b0: 45b1 243e 694d 763d e2a7 bfbd f8fa 903e
000003c0: 01ed 2dbc 741e 9d3d ee8d 12be 8545 8e3d
000003d0: f08f 0fbe a8e2 843e fe78 6abe f53b c93c
000003e0: 3d69 04be 70fd d3bd 7a50 803e 74ce 293e
000003f0: 0763 113b 9e46 ed3d 39ab b83d 28d1 c33e

actor.2.bias f4 [64]
-0.2429606 0.005108247 -0.13016409 0.1115188 -0.084553614 -0.11475672 -0.19709149 -0.2994848
-0.10936394 -0.011043513 -0.24433364 -0.41031703 -0.28871056 -0.039698306 0.20125324 -0.17843764
-0.03730966 -0.3340632 -0.20969269 -0.21360931 -0.28843218 -0.2525954 -0.19210772 -0.23488718
-0.28903767 -0.2672588 -0.26836428 -0.18565857 -0.098815255 -0.29597524 0.24592012 -0.38968495
-0.06259099 0.10065923 -0.2555153 -0.16244444 -0.34949985 -0.2345816 -0.19013856 -0.053387802
-0.3106432 -0.2297462 -0.044551194 -0.07878384 -0.210931 -0.38330618 -0.007526826 -0.13279079
0.10139668 -0.20177346 0.020719364 -0.0007811072 -0.20314665 -0.15235011 -0.02192982 -0.26929015
-0.12011769 -0.05908616 -0.03991175 -0.20275007 -0.32658163 -0.2244505 0.01911384 0.030133326
00000000: aaca 78be 1563 a73b bc49 05be f863 e43d
00000010: 722a adbd 9205 ebbd 5ad2 49be 1256 99be
00000020: 34fa dfbd daef 34bc 9932 7abe 1315 d2be
00000030: dfd1 93be b19a 22bd 5415 4e3e 5bb8 36be
00000040: 04d2 18bd 550a abbe aeb9 56be 66bc 5abe
00000050: 62ad 93be 2f54 81be e3b7 44be 4486 70be
00000060: bffc 93be 25d6 88be 0b67 89be 481d 3ebe
00000070: a75f cabd 118a 97be 7cd2 7b3e c984 c7be
00000080: b42f 80bd 6d26 ce3d e7d2 82be d657 26be
00000090: a5f1 b2be 2936 70be afb3 42be 2bad 5abd
000000a0: a00c 9fbe 9642 6bbe 507b 36bd 6c59 a1bd
000000b0: 4cfe 57be b540 c4be 98a3 f6bb 4ffa 07be
000000c0: 10a9 cf3d b49d 4ebe a8bb a93c 38c3 4cba
000000d0: ad05 50be ab01 1cbe 2aa6 b3bc 66e0 89be
000000e0: 4300 f6bd 5404 72bd 817a 23bd b79d 4fbe
000000f0: b535 a7be 5ad6 65be a194 9c3c 2ada f63c

actor.4.weight f4 [7, 64]
-0.010463764 0.20486432 0.06735284 -0.09183114 -0.0069481228 0.11020819 0.07418028 0.039558895
-0.19955203 0.06779283 0.15824406 0.11545458 0.0365329 0.1787786 0.24150525 -0.22015986
0.088897124 0.00026943986 -0.023111459 0.017398523 -0.30973235 0.06731603 0.059326183 -0.11299145
-0.002651445 0.15140018 -0.07996152 -0.00845858 0.10664559 -0.07474435 -0.032453157 -0.0019260508
0.13564292 0.21629333 0.21274695 0.06495808 -0.09079685 0.10873565 0.038389955 0.111633524
0.21136072 0.06806293 -0.2648321 -0.03233011 0.027178528 -0.011908584 0.31119117 -0.02049415
0.13700065 -0.020038182 0.14295317 -0.025763439 -0.030174298 0.008285878 0.026675312 -0.07615654
0.15213372 -0.23502663 0.008433295 0.025403528 0.10941531 0.23110455 0.085638665 -0.035751406
0.09581659 0.09124886 0.1887411 0.057949934 -0.0932281 -0.062026665 -0.14984307 -0.028914517
-0.035932776 0.05794101 -0.23955171 0.019593054 -0.023770612 -0.021533389 0.06268836 0.10735678
-0.17050757 -0.1537083 0.22872627 -0.119731195 -0.030210944 0.14735405 0.026632998 -0.0272372
-0.17260614 0.067822665 -0.1736127 -0.044485636 0.022720397 0.07930919 0.25004792 0.03344902
0.1865787 -0.09983489 -0.15907983 -0.27847326 -0.18254273 -0.058677357 0.28194726 0.048319306
-0.11323137 -0.027464164 -0.07250169 0.043960992 0.25963473 -0.1436396 0.19199412 -0.0013151517
0.15798303 -0.0011947531 0.14006436 -0.027321406 0.012329654 -0.17406455 -0.110763006 0.049880035
0.016684486 0.069796994 -0.06593388 -0.30381677 0.07347988 0.03929392 0.06868658 0.07184239
0.076685965 -0.005548067 0.14762574 -0.10271568 -0.11651445 -0.17677182 0.1896209 0.081903756
-0.32001677 0.17941168 0.13574511 0.00814364 0.0035650902 -0.123067014 0.2747271 0.09786365
-0.20085345 -0.08850068 0.037673924 0.12410609 -0.24418312 0.04804436 0.12309043 -0.17100078
-0.04370893 0.0693937 -0.027485738 -0.12555009 0.10432023 -0.11793374 -0.25954387 0.18970269
0.025909193 0.19527201 0.067217164 0.10743257 0.105426505 0.02908871 0.08640374 0.04096547
0.1949751 -0.07585419 -0.08578658 -0.061502486 -0.17406328 -0.14545475 0.37749937 0.12445007
-0.03582763 -0.02597486 0.08153263 -0.05038536 0.051306676 -0.04246189 -0.021240607 -0.057171762
0.13166617 -0.18606178 -0.09200911 -0.059302703 0.09605182 0.18706651 0.14768246 -0.092820786
0.25605276 -0.11084379 0.27027372 -0.16981067 -0.11103669 -0.011714897 0.089436494 0.2094248
0.08889849 -0.05736415 0.25271246 -0.083363414 0.21521299 -0.20228972 -0.39509284 -0.10733838
0.022093648 0.08820615 0.26722056 -0.2104315 0.091680795 0.112111144 0.022698695 -0.2196014
0.012973656 0.05946507 0.20038117 0.029584264 -0.23229118 0.1893412 -0.007890164 -0.07011484
0.15402913 0.07077084 0.029608617 0.05909856 0.045652818 0.08564146 0.09547169 -0.105461545
-0.21205391 0.16682768 -0.3578401 0.1480544 0.1821935 0.19143994 0.08389701 0.017376162
-0.21619916 -0.33227605 0.007934282 -0.12015079 0.12392806 -0.008035588 -0.15181547 -0.011495413
-0.1263161 -0.11514399 -0.0119662145 -0.27474773 0.024071971 0.040377375 -0.08246981 -0.17639947
00000000: 3570 2bbc f4c7 513e 49f0 893d f711 bcbd
00000010: 14ad e3bb d5b4 e13d d5eb 973d 8208 223d
00000020: 5e57 4cbe f8d6 8a3d bb0a 223e 7373 ec3d
00000030: 86a3 153d bd11 373e 274d 773e 9671 61be
00000040: b20f b63d 9b43 8d39 3e54 bdbc 5987 8e3c
00000050: 3d95 9ebe fddc 893d 0300 733d 1068 e7bd
00000060: dec3 2dbb a608 1b3e dec2 a3bd db95 0abc
00000070: 0169 da3d 9113 99bd 9aed 04bd 8a73 fcba
00000080: fae5 0a3e 007c 5d3e 56da 593e be08 853d
00000090: b3f3 b9bd ccb0 de3d c93e 1d3d 1ea0 e43d
000000a0: f26e 583e 9464 8b3d 1398 87be 946c 04bd
000000b0: 81a5 de3c 391c 43bc 7354 9f3e 59e3 a7bc
000000c0: e649 0c3e 1d27 a4bc 5162 123e d90d d3bc
000000d0: 1730 f7bc 7ec1 073c 2f86 da3c f6f7 9bbd
000000e0: f1c8 1b3e d2aa 70be ce2b 0a3c 0f1b d03c
000000f0: 2215 e03d aca6 6c3e 5363 af3d 1170 12bd
00000100: 7d3b c43d afe0 ba3d 5945 413e e95c 6d3d
00000110: 60ee bebd ac0f 7ebd 7670 19be 23de ecbc
00000120: 3f2e 13bd 8d53 6d3d 0b4d 75be 9d81 a03c
00000130: 96ba c2bc ca66 b0bc c162 803d dfdd db3d
00000140: 8999 2ebe b565 1dbe 3837 6a3e a135 f5bd
00000150: f17c f7bc fbe3 163e 722d da3c 8c20 dfbc
00000160: aabf 30be 9ce6 8a3d 87c7 31be 9236 36bd
00000170: 2020 ba3c db6c a23d 4806 803e d701 093d
00000180: 7d0e 3f3e 3c76 ccbd d3e5 22be 0c94 8ebe
00000190: 7bec 3abe ab57 70bd 645b 903e 77ea 453d
000001a0: d9e5 e7bd 87fc e0bc c47b 94bd 7110 343d
000001b0: d8ee 843e 4216 13be 1b9a 443e 2b61 acba
000001c0: 4ec6 213e 4399 9cba 086d 0f3e 24d1 dfbc
000001d0: 5102 4a3c fa3d 32be b7d7 e2bd 024f 4c3d
000001e0: e7ad 883c baf1 8e3d 5808 87bd df8d 9bbe
000001f0: 9f7c 963d a9f2 203d 8dab 8c3d 1a22 933d
00000200: 880d 9d3d 8fcc b5bb 342b 173e 995c d2bd
00000210: 219f eebd ac03 35be fb2b 423e 28bd a73d
00000220: 3dd9 a3be b2b7 373e c400 0b3e e76c 053c
00000230: 4aa4 693b 8f0a fcbd 08a9 8c3e bd6c c83d
00000240: 87ac 4dbe d83f b5bd f94f 1a3d 552b fe3d
00000250: 240b 7abe 2aca 443d d616 fc3d d41a 2fbe
00000260: 2308 33bd 491e 8e3d c529 e1bc 3490 00be
00000270: d8a5 d53d 3f87 f1bd efe2 84be 6c41 423e
00000280: 843f d43c 63f5 473e 27a9 893d 9b05 dc3d
00000290: dae9 d73d 724b ee3c 72f4 b03d 69cb 273d
000002a0: 8da7 473e 7159 9bbd e0b0 afbd 08ea 7bbd
000002b0: a53d 32be 17f2 14be 9947 c13e aedf fe3d
000002c0: febf 12bd 3bc9 d4bc 94fa a63d e160 4ebd
000002d0: f326 523d 85ec 2dbd c800 aebc f02c 6abd
000002e0: 7fd3 063e fb86 3ebe 466f bcbd 64e7 72bd
000002f0: d1b6 c43d 5d8e 3f3e 123a 173e d318 bebd
00000300: 5919 833e 1202 e3bd 5161 8a3e d9e2 2dbe
00000310: 3467 e3bd d7ef 3fbc 7b2a b73d 7473 563e
00000320: 6910 b63d acf6 6abd 8763 813e 70ba aabd
00000330: cb60 5c3e 0925 4fbe 9c49 cabe 39d4 dbbd
00000340: bdfd b43c 6da5 b43d 22d1 883e 5b7b 57be
00000350: 24c3 bb3d 879a e53d 9df2 b93c 30df 60be
00000360: 758f 543c a591 733d b930 4d3e b35a f23c
00000370: bddd 6dbe a9e2 413e bf45 01bc 5f98 8fbd
00000380: d0b9 1d3e 4df0 903d c58d f23c 5511 723d
00000390: 73fe 3a3d ca64 af3d a986 c33d 39fc d7bd
000003a0: a924 59be e0d4 2a3e d136 b7be 939b 173e
000003b0: ef90 3a3e d508 443e 32d2 ab3d 7458 8e3c
000003c0: 5063 5dbe 1620 aabe cafe 013c 9e11 f6bd
000003d0: ffcd fd3d b3a7 03bc 8475 1bbe 4257 3cbc
000003e0: 0259 01be 9dd0 ebbd f10d 44bc bcab 8cbe
000003f0: 9532 c53c bf62 253d efe5 a8bd 10a2 34be

actor.4.bias f4 [7]
-0.016883882 0.16703649 -0.04606597 0.110135265 0.050490376 -0.19041719 0.08449401
00000000: 1150 8abc 9d0b 2b3e acaf 3cbd 998e e13d
00000010: ffce 4e3d b9fc 42be 320b ad3d

critic.0.weight f4 [64, 32]
-0.01657308 -0.08023908 0.08502693 0.17369749 -0.14546786 0.06764977 -0.29337743 0.12015719
-0.016650235 0.033126064 -0.12663285 0.02986836 -0.07820977 0.019077392 -0.007795731 0.012351532
-0.16276713 -0.097975425 -0.3304908 0.037231307 0.24330735 0.04424074 -0.206347 -0.31981093
-0.12373463 0.09613571 -0.07343928 -0.022218153 0.0015263068 -0.08167962 -0.044301968 -0.009429905
-0.1556374 0.1185699 -0.028857945 0.16607073 0.07226652 0.22225334 0.09865452 0.004227774
0.055151083 0.026747692 0.0008184645 -0.019514678 -0.061416473 -0.07341319 -0.06028102 -0.0644097
-0.11702702 0.060553778 0.17175895 -0.3796319 0.02568073 0.069168635 0.3334549 0.15189768
-0.009602223 -0.06320853 0.08757057 0.03593316 0.011717326 0.016067151 0.09110236 -0.19697832
-0.028669924 0.11783947 -0.27218425 0.034578647 0.12058504 0.0066906554 -0.08057056 0.016604023
0.15385431 -0.10579366 -0.112321384 -0.10894895 -0.084591255 0.069663905 -0.07322369 0.011248087
0.12517683 -0.03763895 -0.16877238 -0.5101465 -0.08020013 0.054718807 0.0008293826 -0.101054505
-0.08784767 0.055510607 -0.0011787399 -0.09355857 0.12537804 -0.020303018 -0.012935797 -0.0063953237
-0.15667014 0.052833207 0.042088665 -0.16790974 0.053510528 0.012469387 0.24195121 0.25884557
0.11724084 -0.084571004 -0.043912694 -0.08287212 0.08464483 0.019420983 0.010282267 -0.00042419485
0.09077786 0.28842568 -0.13316339 -0.78689706 -0.30704132 -0.12394499 -1.1184314 0.24755156
0.16145703 -0.021972401 -0.09711056 0.08777691 -0.03635562 -0.09802271 0.030557388 0.048423596
-0.16668384 -0.10596167 0.059621107 -0.011226646 0.25729674 0.09110752 0.24262515 0.032938533
-0.0003026922 0.012229697 -0.018853255 -0.010539286 0.0107508935 -0.009304876 0.01060334 -0.0065595177
-0.035075005 0.017374756 0.24367581 -0.088446856 0.10486646 0.03997508 -0.64864993 0.36457175
-0.14179675 -0.013652293 -0.07777721 -0.04107913 -0.012519008 -0.00055642956 -0.050182626 0.065393835
-0.08279414 -0.021382412 -0.022175184 -0.043931868 0.1668191 0.10994981 0.01445649 -0.11339627
0.036572512 0.02350741 0.009972133 -0.024490116 0.11934373 -0.024940684 0.006743014 -0.0012920919
0.006685773 -0.18964797 -0.27988973 0.12586434 -0.23923957 -0.15115969 0.60412693 0.4585443
0.0710578 -0.08401026 0.16927332 0.015197652 0.048961826 0.034443315 0.020336447 -0.021260628
0.1544334 0.22429459 -0.09750187 0.16128848 0.14280237 0.10844586 0.0739412 -0.108742036
0.124377556 0.019480968 0.025973821 0.026005521 0.014403932 0.007950474 -0.01824234 -0.029833324
-0.1651004 -0.30250314 0.23383795 -1.8129781 -0.04505855 0.14173876 -0.8842675 0.043843813
-0.03870612 -0.0241525 0.05598459 0.008460453 0.03633616 0.026118299 0.054164127 0.039124902
0.061463628 0.18043931 -0.06604345 -0.07092705 -0.100463666 -0.2800074 -0.1422711 0.1938313
0.1376428 -0.0056131934 0.051769506 0.027889155 -0.020735264 0.025698012 0.036689017 0.04069302
-0.10791655 0.0069263377 0.17613669 0.49145705 -0.21331808 0.12725204 -0.58806294 -0.060730398
0.13281843 -0.0710049 -0.03567582 -0.04993586 0.0005739688 -0.0089794705 -0.020699931 0.012131242
00000000: 45c4 87bc 6354 a4bd 9922 ae3d c1dd 313e
00000010: 87f5 14be f68b 8a3d 9135 96be f914 f63d
00000020: 1366 88bc 32af 073d 0bac 01be 7eae f43c
00000030: 722c a0bd 3148 9c3c 5573 ffbb 145e 4a3c
00000040: 6dac 26be 57a7 c8bd 1736 a9be db7f 183d
00000050: 9025 793e c735 353d a14c 53be 42be a3be
00000060: 9568 fdbd cde2 c43d 5567 96bd d802 b6bc
00000070: 5c0e c83a a547 a7bd fb75 35bd e37f 1abc
00000080: 695f 1fbe c7d4 f23d 7f67 ecbc 720e 2a3e
00000090: 7800 943d 6196 633e 620b ca3d 2489 8a3b
000000a0: 1ae6 613d fa1d db3c 398e 563a 3fdd 9fbc
000000b0: d78f 7bbd a859 96bd 3be9 76bd 3ce9 83bd
000000c0: ddab efbd 3d07 783d 94e1 2f3e 1d5f c2be
000000d0: 6560 d23c 49a8 8d3d 9aba aa3e 118b 1b3e
000000e0: a452 1dbc 7973 81bd 3358 b33d a62e 133d
000000f0: 07fa 3f3c 429f 833c e093 ba3d afb4 49be
00000100: 30dd eabc d255 f13d bc5b 8bbe 57a2 0d3d
00000110: 4af5 f63d 493d db3b 2e02 a5bd 2905 883c
00000120: fc8b 1d3e 59aa d8bd c108 e6bd a120 dfbd
00000130: 2e3e adbd f3ab 8e3d 4df6 95bd e549 383c
00000140: 5b2e 003e 4d2b 1abd abd2 2cbe f698 02bf
00000150: f73f a4bd d420 603d ed6a 593a aaf5 cebd
00000160: 7be9 b3bd 175f 633d f37f 9aba a39b bfbd
00000170: 1a63 003e 8452 a6bc aaf0 53bc dd8f d1bb
00000180: 236e 20be a267 583d 2a65 2c3d 88f0 2bbe
00000190: db2d 5b3d 664c 4c3c 0fc2 773e 6887 843e
000001a0: f71b f03d 9033 adbd ccdd 33bd dcb8 a9bd
000001b0: 455a ad3d c118 9f3c f476 283c 7866 deb9
000001c0: bee9 b93d 88ac 933e fc5b 08be 1672 49bf
000001d0: 8534 9dbe dfd6 fdbd c328 8fbf 287e 7d3e
000001e0: fe54 253e 77ff b3bc e7e1 c6bd 61c4 b33d
000001f0: a1e9 14bd 21c0 c8bd 7d53 fa3c d257 463d
00000200: 2baf 2abe 6f02 d9bd 4335 743d f7ef 37bc
00000210: 66bc 833e 9496 ba3d ba72 783e 8eea 063d
00000220: a9b2 9eb9 115f 483c 2472 9abc f8ac 2cbc
00000230: 8424 303c 7b73 18bc a2b9 2d3c 39f1 d6bb
00000240: cfaa 0fbd 8155 8e3c 2786 793e a023 b5bd
00000250: 3ac4 d63d e9bc 233d ec0d 26bf 26a9 ba3e
00000260: 2b33 11be dead 5fbc a849 9fbd 9742 28bd
00000270: 861c 4dbc 5bdd 11ba 4c8c 4dbd 34ed 853d
00000280: f98f a9bd 2b2a afbc bba8 b5bc e7f1 33bd
00000290: a0d2 2a3e 5e2d e13d eada 6c3c 4e3c e8bd
000002a0: 0fcd 153d 9d92 c03c 2862 233c 7f9f c8bc
000002b0: 7c6a f43d 6850 ccbc 80f4 dc3b 695b a9ba
000002c0: 5414 db3b 1433 42be b54d 8fbe 95e2 003e
000002d0: 38fb 74be 9bc9 1abe 10a8 1a3f 52c6 ea3e
000002e0: c086 913d 920d acbd fc55 2d3e 93ff 783c
000002f0: 328c 483d 6f14 0d3d 9f98 a63c c52a aebc
00000300: ca23 1e3e 7bad 653e 0faf c7bd cf28 253e
00000310: c93a 123e dd18 de3d 7c6e 973d 25b4 debd
00000320: a9b9 fe3d 8d96 9f3c 0dc7 d43c 8809 d53c
00000330: 78fe 6b3c b442 023c f670 95bc 0465 f4bc
00000340: 1410 29be b1e1 9abe 3773 6f3e ab0f e8bf
00000350: 508f 38bd f723 113e 5b5f 62bf 9295 333d
00000360: 4f8a 1ebd 77db c5bc 1950 653d b69d 0a3c
00000370: 3ad5 143d 0bf6 d53c 34db 5d3d 6f41 203d
00000380: 49c1 7b3d 15c5 383e ca41 87bd 3442 91bd
00000390: e5bf cdbd 215d 8fbe 84af 11be b67b 463e
000003a0: 3cf2 0c3e e1ee b7bb 430c 543d cc77 e43c
000003b0: 00dd a9bc a384 d23c 3947 163d b9ad 263d
000003c0: 5a03 ddbd 55f6 e23b 2d5d 343e 42a0 fb3e
000003d0: 0e70 5abe 5c4e 023e 4b8b 16bf 70c0 78bd
000003e0: 8e01 083e 046b 91bd cf20 12bd 8b89 4cbd
000003f0: 6576 163a a11e 13bc e792 a9bc 1ec2 463c

critic.0.bias f4 [64]
0.13371849 -0.17498396 -0.10755768 -0.12772496 -0.015097086 -0.08111183 -0.06733399 0.04888707
-0.049299214 -0.12686235 -0.0038333302 0.10766221 -0.018443769 -0.101775244 0.06925198 -0.10139602
-0.10955994 0.14257775 -0.019017493 0.107455425 0.13030455 -0.092892185 0.080971606 -0.045157976
0.0693237 -0.041109066 0.036590654 0.02930901 -0.06904028 0.19752859 -0.049607705 -0.0030053048
-0.07161146 -0.040594347 0.0380154 -0.088059135 -0.0591931 0.19864348 -0.14405484 -0.016065987
0.049571592 0.076016635 0.06696796 -0.22510871 -0.17265503 0.03299889 -0.22567308 -0.18536575
-0.06783588 -0.054253116 -0.19633353 -0.15423588 0.03601555 -0.12675862 -0.10541391 -0.08332162
0.11078761 -0.048071712 -0.12416818 -0.076635174 -0.021420136 0.18973413 0.15223353 -0.09276937
00000000: 80ed 083e ff2e 33be 3347 dcbd 55ca 02be
00000010: c559 77bc f61d a6bd 67e6 89bd cf3d 483d
00000020: f9ed 49bd 34e8 01be 9c38 7bbb 017e dc3d
00000030: 6317 97bc 8a6f d0bd fbd3 8d3d b7a8 cfbd
00000040: f660 e0bd e7ff 113e 93ca 9bbc 9711 dc3d
00000050: 8e6e 053e 423e bebd 71d4 a53d 92f7 38bd
00000060: 96f9 8d3d fb61 28bd 15e0 153d 7319 f03c
00000070: fe64 8dbd ef44 4a3e 7331 4bbd a6f4 44bb
00000080: 07a9 92bd 4246 26bd 09b6 1b3d 5958 b4bd
00000090: 7774 72bd 3269 4b3e 1d83 13be d19c 83bc
000000a0: 950b 4b3d 9cae 9b3d 7f26 893d e682 66be
000000b0: 7bcc 30be d829 073d d816 67be 85d0 3dbe
000000c0: 8aed 8abd 8438 5ebd a80b 49be 03f0 1dbe
000000d0: 0b85 133d 03cd 01be 3fe3 d7bd 87a4 aabd
000000e0: 9de4 e23d d8e6 44bd e34b febd e7f2 9cbd
000000f0: 4879 afbc aa49 423e 1be3 1b3e defd bdbd

critic.2.weight f4 [64, 64]
-0.11369709 -0.018571837 0.20855185 0.11472325 0.0051516336 -0.017704668 0.09396455 0.08166907
0.2681976 0.17295848 0.0017755436 -0.0876516 -0.26447487 0.123802416 0.036186993 0.057103354
-0.06108225 -0.17975509 -0.121121995 -0.17060201 0.026079249 -0.17067568 -0.043181613 0.0036003464
-0.016371455 -0.020653727 0.07479581 -0.06016781 0.10124986 -0.21183226 0.08681252 -0.101852775
0.039284337 0.041411992 0.1386529 0.067025915 -0.051933575 -0.21849748 -0.22856899 0.102598436
0.09215676 -0.07859456 -0.074760176 -0.18202572 -0.041635033 0.18346095 0.12281933 -0.15199517
-0.05307236 -0.021313397 0.040551815 -0.10861112 0.06375196 -0.10079108 -0.08257014 -0.016711699
0.15750135 0.12387743 0.042990528 0.08671554 -0.060567684 0.019674942 0.016525585 -0.07752608
-0.06164456 -0.090908825 -0.023392066 0.10556442 -0.0088204555 0.062392846 -0.04782017 -0.033292137
-0.119495526 0.1944265 0.17873138 0.14017865 -0.19811916 -0.030383045 0.29123336 -0.02707507
0.048195243 -0.10984135 0.0067477287 -0.1113269 0.2141366 -0.07607535 -0.04892231 0.16950874
0.15029314 0.16369657 0.0752006 0.04410525 0.06299037 -0.08588606 0.058270864 -0.004723041
0.09009191 -0.086012974 -0.14651936 -0.09825433 -0.118682444 -0.026612328 -0.116656184 0.28506428
0.021786839 -0.12132445 0.2694404 -0.14482161 -0.10922016 0.061487854 -0.030702554 0.014959479
-0.05033559 -0.22321932 -0.098146014 -0.03468965 0.026008623 -0.20897895 -0.014981925 -0.083347574
0.16503504 0.020523516 0.031977233 0.20465417 0.00998041 0.17738438 0.16653325 0.08648919
0.08695443 -0.04625042 0.045927722 -0.1115621 0.056591682 0.0035603067 -0.077782564 0.15031995
-0.19627963 0.008816093 0.029090073 0.017400669 -0.15875445 0.14850587 -0.08108533 0.13000697
-0.081757054 0.17003076 -0.024694316 0.16219138 0.078278765 -0.2328954 -0.03691602 -0.043878946
-0.1324808 0.15110692 0.016232101 -0.084274895 -0.01592485 0.17593135 0.045427036 0.105113335
-0.0028955454 -0.05567575 0.039283235 -0.014416451 -0.043540694 0.056550696 -0.009984535 -0.01995197
0.047630534 -0.104133055 0.06748333 -0.1377997 -0.054503873 0.031498667 -0.09077995 -0.12775873
-0.073696315 0.06598522 -0.11419115 -0.064193696 0.07803599 0.13977022 0.10058077 0.027271096
-0.048036445 -0.0006074451 0.16660881 -0.13398911 0.080266595 0.118134715 0.08996226 -0.02192765
-0.076659866 -0.0010161798 0.22805998 -0.036357984 -0.10855676 -0.041861698 0.009139125 -0.026513327
-0.051409442 0.56066555 0.02030315 0.38158405 -0.28783002 -0.13185345 -0.018904984 0.16437227
0.008712013 0.027571106 -0.033120234 0.28590658 0.5837941 -0.17888953 -0.025565779 0.0119417105
-0.17233795 0.09190629 0.18080305 -0.1053229 0.071664296 -0.16544524 0.008203482 0.068649076
-0.10175372 -0.070656486 -0.10106005 -0.010719387 0.13327524 -0.042626623 -0.4119376 0.034133565
0.065372415 -0.3328079 0.16640654 -0.24340382 -0.22444366 0.10578156 0.07836101 -0.007410425
-0.031834602 -0.048334662 0.25315636 0.12056473 -0.05602064 -0.053536322 -0.059992906 -0.0332649
0.33484998 -0.019979877 -0.116600245 0.23123859 -0.08580189 -0.06610948 -0.023565412 -0.12930854
00000000: 05da e8bd f723 98bc 9e8e 553e 06f4 ea3d
00000010: 09cf a83b 6109 91bc 7c70 c03d 1d42 a73d
00000020: 3251 893e 071c 313e 5bb9 e83a af82 b3bd
00000030: 4069 87be 1f8c fd3d d038 143d 35e5 693d
00000040: 6231 7abd b811 38be cf0e f8bd 4bb2 2ebe
00000050: 26a4 d53c 9bc5 2ebe 34df 30bd caf3 6b3b
00000060: 6e1d 86bc 0132 a9bc 8c2e 993d 8672 76bd
00000070: 165c cf3d 8eea 58be c3ca b13d 3098 d0bd
00000080: 9de8 203d 9f9f 293d 07fb 0d3e e244 893d
00000090: 4db8 54bd cebd 5fbe fd0d 6abe 211f d23d
000000a0: afbc bc3d 2ff6 a0bd dd1b 99bd f364 3abe
000000b0: 7f89 2abd 30dd 3b3e b388 fb3d 9fa4 1bbe
000000c0: 6762 59bd 6f99 aebc a919 263d 826f debd
000000d0: 6390 823d 8e6b cebd 891a a9bd f9e6 88bc
000000e0: 0948 213e 73b3 fd3d d616 303d eb97 b13d
000000f0: d215 78bd 582d a13c aa60 873c fec5 9ebd
00000100: 027f 7cbd 682e babd b8a0 bfbc 2932 d83d
00000110: ac83 10bc a48f 7f3d 15df 43bd 565d 08bd
00000120: 12ba f4bd be17 473e 5c05 373e fe8a 0f3e
00000130: c0df 4abe dde5 f8bc 8a1c 953e 8acc ddbc
00000140: 6068 453d 80f4 e0bd 0d1c dd3b 5cff e3bd
00000150: a046 5b3e 65cd 9bbd c362 48bd b393 2d3e
00000160: 72e6 193e 13a0 273e c602 9a3d b5a7 343d
00000170: 1801 813d 08e5 afbd 6ead 6e3d bdc3 9abb
00000180: 1b82 b83d 9227 b0bd 2c09 16be 9139 c9bd
00000190: c80f f3bd 1902 dabc 70e9 eebd f2f3 913e
000001a0: 507a b23c f478 f8bd 18f4 893e 1e4c 14be
000001b0: d2ae dfbd b0da 7b3d ec83 fbbc 9a18 753c
000001c0: b12c 4ebd 9b93 64be c700 c9bd bc16 0ebd
000001d0: 0910 d53c 94fe 55be bf76 75bc 22b2 aabd
000001e0: f2fe 283e ef20 a83c 8ffa 023d dd90 513e
000001f0: e084 233c 40a4 353e b187 2a3e 3f21 b13d
00000200: 2a15 b23d 1571 3dbd b51e 3c3d ac7a e4bd
00000210: aecc 673d 0954 693b 774c 9fbd 79ed 193e
00000220: 87fd 48be 6071 103c 4e4e ee3c d98b 8e3c
00000230: 8790 22be ec11 183e 1110 a6bd 8c20 053e
00000240: 3e70 a7bd 8b1c 2e3e bc4b cabc 7f15 263e
00000250: 9e50 a03d 227c 6ebe 4135 17bd 69ba 33bd
00000260: 0ca9 07be c6bb 1a3e 2ff9 843c 5198 acbd
00000270: d574 82bc 5927 343e b311 3a3d a945 d73d
00000280: 31c3 3dbb 410c 64bd 75e7 203d fa32 6cbc
00000290: ba57 32bd b4a1 673d 2d96 23bc 5072 a3bc
000002a0: 3c18 433d b643 d5bd b334 8a3d 5d1b 0dbe
000002b0: 743f 5fbd bf04 013d d7ea b9bd 2fd3 02be
000002c0: 18ee 96bd 4223 873d 0ddd e9bd fc77 83bd
000002d0: 55d1 9f3d ed1f 0f3e 4afd cd3d a267 df3c
000002e0: ddc1 44bd f33c 1fba 809b 2a3e 7134 09be
000002f0: d062 a43d 9df0 f13d 223e b83d 9da1 b3bc
00000300: d9ff 9cbd 5631 85ba 8e88 693e 1cec 14bd
00000310: 0253 debd 2c77 2bbd 45bc 153c 7a32 d9bc
00000320: b592 52bd c787 0f3f cb52 a63c fc5e c33e
00000330: 755e 93be 9704 07be a0de 9abc 3451 283e
00000340: d5bc 0e3c cddc e13c 15a9 07bd 5962 923e
00000350: 8873 153f d12e 37be 536f d1bc 2aa7 433c
00000360: 5c79 30be 5d39 bc3d 6f24 393e 88b3 d7bd
00000370: bbc4 923d 7a6a 29be e667 063c e397 8c3d
00000380: 4164 d0bd 59b4 90bd 92f8 cebd 5ea0 2fbc
00000390: 4e79 083e 4199 2ebd 7ce9 d2be a3cf 0b3d
000003a0: f9e1 853d cc65 aabe 7a66 2a3e da3e 79be
000003b0: 8fd4 65be 01a4 d83d bd7b a03d 27d3 f2bb
000003c0: 0065 02bd 91fa 45bd b69d 813e a4ea f63d
000003d0: e675 65bd e748 5bbd 1fbb 75bd c740 08bd
000003e0: 7571 ab3e d7ac a3bc 1ccc eebd cfc9 6c3e
000003f0: e7b8 afbd 6864 87bd 400c c1bc 7569 04be

critic.2.bias f4 [64]
-0.029240953 -0.1402384 -0.00386069 -0.29969898 0.0731679 -0.0833121 -0.054653075 0.082702205
0.15740536 0.0789761 -0.10116874 -0.16970856 -0.112313695 0.04643301 0.008065122 0.056147136
0.11188934 -0.10517366 -0.122764155 0.061741237 -0.089016065 -0.17275663 0.040964577 0.052560266
-0.08868626 0.008897107 -0.15439083 -0.010024763 -0.103507355 0.021406429 0.091520265 0.00038060616
-0.01779023 0.08200515 0.1302154 0.12805948 -0.0451801 0.020818116 -0.20848992 -0.12906611
-0.21308759 -0.06618468 0.099254966 0.18375252 0.057141617 -0.046960276 0.057841912 -0.0075724367
0.11421566 -0.06653979 0.16214105 -0.0014447804 -0.068205155 -0.0767498 0.026279647 -0.02040566
-0.09719022 -0.09833618 -0.04520485 -0.06547756 -0.1202563 -0.007235637 -0.070933044 0.005048163
00000000: b98a efbc a89a 0fbe a103 7dbb 2572 99be
00000010: 0dd9 953d 899f aabd e7db 5fbd c65f a93d
00000020: df2e 213e 39be a13d 8e31 cfbd 15c8 2dbe
00000030: b904 e6bd 8a30 3e3d 9323 043c 8afa 653d
00000040: 3d26 e53d 4a65 d7bd c66b fbbd 61e4 7c3d
00000050: 0e4e b6bd 1de7 30be 79ca 273d 6f49 573d
00000060: 24a1 b5bd 2cc5 113c a118 1ebe e73e 24bc
00000070: aafb d3bd 895c af3c fa6e bb3d 188c c739
00000080: d1bc 91bc 51f2 a73d 3057 053e 0622 033e
00000090: c50e 39bd c18a aa3c 627e 55be e829 04be
000000a0: a233 5abe d58b 87bd 3046 cb3d 9f29 3c3e
000000b0: 540d 6a3d 6b59 40bd a4eb 6c3d 3422 f8bb
000000c0: e6e9 e93d 0346 88bd 4e08 263e c95e bdba
000000d0: 25af 8bbd 002f 9dbd 6a48 d73c c529 a7bc
000000e0: ab0b c7bd 7b64 c9bd b928 39bd 1919 86bd
000000f0: ef48 f6bd ec18 edbb 5845 91bd 0f6b a53b

critic.4.weight f4 [1, 64]
-0.07085318 -0.059235584 -0.03029056 -0.10159665 -0.033965718 0.028355192 -0.041802265 -0.036358725
-0.06971606 -0.039242104 -0.11375771 0.10425295 -0.014843865 0.092408895 -0.039804164 -0.04488681
-0.022048954 0.13864824 -0.03618328 0.02701056 -0.018433308 -0.060619272 0.036216915 0.0039905743
0.041470237 -0.014094985 0.008743919 0.03167589 0.025815647 -0.0025573254 -0.0016263918 -0.032781255
0.029771265 -0.051094115 0.007641679 0.03238449 -0.038870953 0.011407641 -0.05356844 -0.0077869375
-0.0005764977 -0.041155174 -0.019320743 -0.14889885 0.020819563 0.14450194 0.044609305 9.840036e-05
-0.058403295 -0.021450268 0.008330875 0.06753366 -0.07090226 -0.009198973 0.024328746 0.037576713
-0.035716105 -0.07121506 -0.023495315 -0.02775861 -0.08041658 0.110262826 -0.10799913 -0.016826604
00000000: 791b 91bd 03a1 72bd e923 f8bc e811 d0bd
00000010: a31f 0bbd 2649 e83c da38 2bbd e3ec 14bd
00000020: 4bc7 8ebd 54bc 20bd cdf9 e8bd 9282 d53d
00000030: af33 73bc e040 bd3d b109 23bd 3bdb 37bd
00000040: 02a0 b4bc cef9 0d3e eb34 14bd 4045 dd3c
00000050: 7301 97bc ea4b 78bd 3058 143d 5dc3 823b
00000060: b2dc 293d a7ee 66bc a842 0f3c 94be 013d
00000070: 567b d33c cd98 27bb a72c d5ba a345 06bd
00000080: dee2 f33c 1048 51bd 0d67 fa3b 99a5 043d
00000090: 2637 1fbd 1de7 3a3c 956a 5bbd 9129 ffbb
000000a0: 1b20 17ba 5492 28bd 8946 9ebc f178 18be
000000b0: ca8d aa3c 51f8 133e 3fb8 363d 4a5c ce38
000000c0: 4b38 6fbd 79b8 afbc 397e 083c 164f 8a3d
000000d0: 3435 91bd 4ab7 16bc 144d c73c 0aea 193d
000000e0: 0d4b 12bd 34d9 91bd 3f79 c0bc 0666 e3bc
000000f0: 73b1 a4bd 7ad1 e13d a62e ddbd f2d7 89bc

exp_avg f4 [7]
-7.132052e-05 0.0016138903 -0.0010228216 -0.002078455 -0.00431067 0.0006923705 -0.0033914594
00000000: ea91 95b8 2c89 d33a 3310 86ba b036 08bb
00000010: 8540 8dbb 3380 353a 3f43 5ebb

exp_avg_sq f4 [7]
0.00017534729 0.00038669803 0.00030249488 0.00066613825 0.0004802849 0.0003138472 0.0002415479
00000000: 6edd 3739 bbbd ca39 2d98 9e39 c89f 2e3a
00000010: c0ce fb39 dc8b a439 0548 7d39

exp_avg f4 [64, 32]
-0.00013876021 0.0007653467 0.00030379806 0.00034894803 -9.5503456e-05 -0.00038092426 0.0007647156 -3.7707265e-05
-1.8765131e-05 -5.0158513e-05 -0.00019313516 -0.00021434942 -2.4031731e-05 0.0004875097 -0.00048220548 -0.00025169214
1.6311989e-06 -1.8362367e-06 0.0003154643 -1.5678817e-05 0.00024125137 -2.6451511e-11 -0.00034775346 0.0006052467
-1.5192916e-11 -0.0004819223 0.0004830821 0.00034183016 0.0015509778 -0.00028142965 -0.0013774271 0.0011777689
-0.0006773241 0.0022532337 0.00091808726 0.002137447 0.0005348063 -0.0026125317 -0.00015219302 -0.00013577337
-0.00010831865 -0.0011976338 0.00017520526 0.0014153665 0.0011993719 -0.0023933118 -0.00049089466 -0.00052052224
-2.9854513e-05 -2.4392863e-05 0.0016876202 5.5006294e-05 0.0016290651 -1.2560654e-10 0.00083597674 0.0028750696
3.652052e-11 -0.0017235216 0.0019852025 0.0016468647 0.006426412 0.00047848583 -0.00376261 -0.0004032447
2.7982298e-05 -0.00093736354 -0.00062078174 -0.0012078137 0.0010738401 5.5839922e-05 0.015193284 8.720445e-05
6.6263754e-05 -0.00068060047 0.0006029249 0.0016692067 0.00039119401 -0.00043751378 -0.0014630656 -0.0030424853
0.00011322934 -1.7072916e-05 -0.00075047615 -8.529654e-05 -0.0013277596 8.429818e-11 -0.0047367956 -0.001929035
-2.0689696e-10 6.961599e-05 -0.0012929024 1.3079634e-05 -0.0017402141 0.0014624848 -0.0015977103 0.028675634
-0.00037746073 0.0015331741 0.00042649498 0.001220572 -0.00017997305 -0.0012089402 -0.0003301318 -0.00010565357
-3.873469e-05 2.4616038e-05 -0.0003211986 2.9434954e-05 -5.9294867e-05 -0.00019899603 0.00023065896 -0.00026864643
-2.4335088e-05 -3.5568843e-05 0.00097034295 7.484099e-05 0.00067067315 -4.524035e-11 -0.00049150066 0.0010352498
-2.1484219e-11 -0.00061723794 0.0014551685 0.0007882747 0.002668032 -0.00038376314 -0.002805771 -0.0005091577
-0.0002528524 0.00089069194 0.00028655367 0.00080467935 -6.4186876e-05 -0.0012877714 0.0018426367 -4.6409077e-05
-3.673391e-05 -1.4267643e-05 0.00012827983 0.0003609176 0.00026333018 -0.001202139 -0.00027036213 -0.00054890104
4.2922336e-05 -8.783479e-07 0.00066430744 -1.1290313e-05 0.0004457771 -2.0980148e-11 0.00016950959 0.00048072674
7.414024e-12 -0.0009045015 0.0005654581 0.0005897455 0.0027852824 -0.0004242767 -0.0024886958 0.0031797155
2.1671449e-05 -0.00010109962 -0.000101101155 0.00024233302 0.00030420942 0.00037270933 0.0013240784 2.3492234e-05
3.002509e-05 0.00011440892 4.1882297e-05 0.0004776858 1.1243884e-06 -0.00030147244 0.0009688411 0.00037125734
8.1818225e-06 -3.3041144e-07 -0.00014077136 -2.2858947e-05 -0.00042707875 3.300936e-11 -0.00036329174 -0.0007553178
-1.587899e-11 0.00041634915 -0.00021189332 0.00023583931 -0.00022431718 0.000755748 0.0008952158 0.0030819795
5.2825653e-06 -0.00069922215 -0.0002492039 -0.00040969285 0.00062701624 0.00021059132 0.0029966324 2.671981e-05
2.0016028e-05 -0.0002557855 2.6742407e-05 0.0005568791 -0.0001337096 0.00014415241 2.49682e-05 -6.175204e-05
-5.4686843e-06 2.7441822e-06 -0.00048370275 -8.449007e-05 -0.0005358378 4.6730016e-11 -0.00064471416 -0.0010693802
-2.8157846e-11 -4.0369937e-06 -0.00066479214 -0.00036541914 -0.000677834 0.0012855639 -0.00024118097 0.006302192
2.8842592e-06 0.0002694028 0.00026596067 0.00092656753 -3.9234877e-05 -0.0005122875 9.404361e-05 -4.0687606e-05
7.677468e-06 0.00014126416 -4.5102737e-05 0.00044829716 0.0003475391 -0.0010319378 0.00057635806 -0.00068921014
1.2131007e-05 4.4015615e-06 0.00028591728 0.00020810768 0.00031021572 -1.0663132e-12 -0.0014597619 2.3719469e-05
-6.380386e-11 -8.92495e-05 0.00021850171 0.00044124978 0.0010954948 -0.00019183289 -0.00029968173 2.2769e-05
00000000: 2980 11b9 8ca1 483a 1647 9f39 03f3 b639
00000010: 0749 c8b8 cab6 c7b9 3277 483a de27 1eb8
00000020: d069 9db7 4b61 52b8 5384 4ab9 fcc2 60b9
00000030: c097 c9b7 7298 ff39 86d0 fcb9 8cf5 83b9
00000040: 91ef da35 9d74 f6b5 e764 a539 0186 83b7
00000050: 6cf8 7c39 82ab e8ad ae52 b6b9 6ba9 1e3a
00000060: 68a3 85ad 84aa fcb9 2f46 fd39 ab37 b339
00000070: 2e4a cb3a d98c 93b9 c98a b4ba 5e5f 9a3a
00000080: 738e 31ba fdaa 133b cbab 703a 6914 0c3b
00000090: 3e32 0c3a 0237 2bbb 0196 1fb9 635e 0eb9
000000a0: 2229 e3b8 ecf9 9cba 4eb7 3739 d283 b93a
000000b0: 3e34 9d3a 1cd9 1cbb 62af 00ba a873 08ba
000000c0: 1470 fab7 469f ccb7 2333 dd3a 8fb6 6638
000000d0: 5b86 d53a 191b 0aaf 7325 5b3a aa6b 3c3b
000000e0: 739e 202e cae7 e1ba 2c1a 023b 9cdb d73a
000000f0: a794 d23b 48dd fa39 1f96 76bb 966a d3b9
00000100: 87bb ea37 67b9 75ba f5bb 22ba 814f 9eba
00000110: 18c0 8c3a a935 6a38 40ed 783c 88e1 b638
00000120: 15f7 8a38 536a 32ba 9b0d 1e3a 48c9 da3a
00000130: 2c19 cd39 1b62 e5b9 56c4 bfba 6f64 47bb
00000140: 8a75 ed38 cf37 8fb7 9abb 44ba 3be1 b2b8
00000150: 3808 aeba a85f b92e 1f37 9bbb acd7 fcba
00000160: 517c 63af cdfe 9138 9b76 a9ba 9a70 5b37
00000170: e517 e4ba d9b0 bf3a 436a d1ba 2ae9 ea3c
00000180: ece5 c5b9 c9f4 c83a 309b df39 9afb 9f3a
00000190: 26b7 3cb9 4d75 9eba 8a15 adb9 5492 ddb8
000001a0: 0f77 22b8 8a7e ce37 8c66 a8b9 15eb f637
000001b0: 61b3 78b8 97a9 50b9 0bdd 7139 1dd9 8cb9
000001c0: 3423 ccb7 c12f 15b8 9d5e 7e3a f3f3 9c38
000001d0: 1dd0 2f3a 1bf8 46ae 0dd8 00ba 38b1 873a
000001e0: 29fa bcad 23ce 21ba 5abb be3a 38a4 4e3a
000001f0: 26da 2e3b d133 c9b9 07e1 37bb ff78 05ba
00000200: 4691 84b9 537d 693a 953c 9639 1ef1 523a
00000210: 119c 86b8 70ca a8ba a184 f13a 5ea7 42b8
00000220: bc12 1ab8 0f5f 6fb7 db82 0639 8a39 bd39
00000230: 940f 8a39 1791 9dba 64bf 8db9 20e4 0fba
00000240: 8207 3438 9cc7 6bb5 eb24 2e3a 866b 3db7
00000250: 31b7 e939 188b b8ad 62be 3139 0d0a fc39
00000260: cc6d 022d 111c 6dba 403b 143a 2799 1a3a
00000270: 4989 363b 7471 deb9 6319 23bb c662 503b
00000280: 15cb b537 7205 d4b8 4506 d4b8 c61a 7e39
00000290: 4c7e 9f39 3368 c339 b38c ad3a 3011 c537
000002a0: 64de fb37 d2ee ef38 c6aa 2f38 e771 fa39
000002b0: b1e9 9635 f20e 9eb9 d3f9 7d3a 51a5 c239
000002c0: a944 0937 6763 b1b4 069c 13b9 37c1 bfb7
000002d0: 8ae9 dfb9 3c2d 112e 3178 beb9 8500 46ba
000002e0: 4fac 8bad 7049 da39 ae2f 5eb9 a24b 7739
000002f0: af36 6bb9 641d 463a eaac 6a3a 09fb 493b
00000300: e440 b136 014c 37ba 95a7 82b9 0bcc d6b9
00000310: 595e 243a 2dd2 5c39 2663 443b 5b24 e037
00000320: 18e8 a737 f31a 86b9 e254 e037 86fb 113a
00000330: 6634 0cb9 9e27 1739 cd72 d137 e080 81b8
00000340: a47f b7b6 b128 3836 7c99 fdb9 4330 b1b8
00000350: 7777 0cba 5285 4d2e 0902 29ba 722a 8cba
00000360: d5ad f7ad 8375 87b6 7245 2eba ba95 bfb9
00000370: abb0 31ba 5e80 a83a 86e5 7cb9 9e82 ce3b
00000380: 328f 4136 a23e 8d39 a370 8b39 e5e4 723a
00000390: 2190 24b8 084b 06ba 4739 c538 fca7 2ab8
000003a0: 79ce 0037 4f20 1439 b22c 3db8 6d09 eb39
000003b0: e935 b639 1642 87ba bc16 173a 1cac 34ba
000003c0: 4786 4b37 20b1 9336 2be7 9539 7b37 5a39
000003d0: 73a4 a239 fb11 96ab 7b55 bfba 2cf9 c637
000003e0: 614e 8cae 762b bbb8 9b1d 6539 8b57 e739
000003f0: b596 8f3a c026 49b9 9a1e 9db9 0e00 bf37
