logs/rsl_rl/franka_reach/2025-06-26_19-51-50/model_900.pt (torch, 172795 bytes, 36 tensors)

std f4 [7]
0.06353207 0.038105115 0.048915796 0.026574168 0.03903076 0.043294188 0.047238514
00000000: 1a1d 823d 1c14 1c3d ee5b 483d 12b2 d93c
00000010: b8de 1f3d 3f55 313d 2c7d 413d

actor.0.weight f4 [64, 32]
-0.19243397 0.15862705 -0.20108947 0.112016894 0.27485654 0.07795267 0.48664808 0.32071343
0.6039937 -0.011667337 -0.112700246 0.08558955 0.07798309 0.06409708 0.046294536 0.07860404
-0.018288773 -0.30507654 -0.24750556 -1.9813483 0.33760145 -0.023079034 -1.4727823 0.5314928
-0.14863653 -0.09560052 -0.18815199 -0.1741773 -0.0037447226 -0.13663442 0.053731527 0.17796648
0.36309743 0.26281917 0.34794268 0.9719859 0.51146924 0.48767382 -0.10406687 -0.19722362
0.020077055 0.09737666 -0.021380862 0.10684264 0.09510267 -0.030408252 -0.06937481 0.09684248
-0.21715651 0.1565541 -0.79876065 -1.2946371 -0.09665715 0.14549518 0.3666748 0.030668322
0.056931302 -0.010883655 0.22041504 -0.096442685 -0.07612698 -0.07158491 0.09386883 -0.10836664
0.9768266 0.12501368 0.9091423 -0.5078967 -0.074768074 -0.1285536 0.28251877 0.3837591
0.616155 -0.17077632 0.05268141 -0.21775597 -0.012588889 -0.027108436 0.07755031 0.08029251
0.14716795 -0.110199414 0.33465922 -0.7495834 0.61427176 -0.03993738 -0.083145626 -0.23956378
-0.08853187 0.04042592 0.24437419 0.005137778 0.18076298 0.11201157 -0.26817968 -0.1377545
-0.16820848 -0.16086772 0.19051547 -0.0826464 0.058966193 0.32605493 0.326513 -0.19458319
0.04228969 -0.049592704 -0.035946615 -0.084017016 -0.09476663 -0.15993269 0.059856996 -0.01891081
0.54226136 -0.27344325 -1.0002782 0.08318455 0.7787162 -0.1574402 -0.47814766 -0.015920473
-0.00084740476 0.3080076 0.16953076 -0.16263328 0.0043921066 -0.21544442 -0.1811422 -0.1283057
-0.085682735 -0.0024398856 0.028611818 0.2967437 -0.38181382 0.7360044 -0.14725891 -0.13351896
-0.11774563 -0.047271136 -0.02125889 -0.033608068 -0.058664944 0.068607405 0.02072595 -0.16391794
0.18228734 0.7989388 -0.2973857 0.5151615 1.0388047 -0.13802475 -0.039034504 -0.67702806
-0.016969677 -0.48172465 0.35691568 0.078540705 -0.06652062 0.0962964 -0.11869119 0.048904434
0.13206817 -0.2927945 -0.3258272 -0.12484416 0.14765151 0.12887281 0.046608247 0.2692093
0.17252682 -0.13327375 -0.25763974 -0.08009289 0.18591674 -0.039877918 -0.029541856 0.09119665
0.6120976 0.82873905 -0.06451868 -2.2604203 -0.8225348 0.088423215 0.11287521 0.5729189
0.09150159 -0.08724603 0.21009143 -0.053634185 -0.2806158 0.1756319 0.25899985 -0.022609519
0.3924635 -0.06946712 0.707926 -0.2699411 -0.1690983 0.22591658 0.0019130051 0.25327864
0.06776311 0.17093946 -0.0031316476 0.085581854 0.0145775 0.0027183883 0.023687955 -0.13093702
0.07689132 0.115341514 0.19959128 0.65587515 -0.17545404 -0.107649975 -0.40069455 0.5291879
0.023679376 0.06811378 0.0899532 0.1524003 -0.0028233884 0.14681114 0.13697065 0.026684614
1.1327496 0.08249317 1.0346906 -0.12362683 -0.4795392 -0.32747576 -0.5411326 0.29793018
0.18793781 0.023655625 -0.005124076 0.11684446 0.14765717 0.07851806 -0.02215727 -0.024951253
-0.13338706 -0.6733792 -0.24803111 -0.6654389 -0.5632801 -0.12423055 -1.0307409 0.3798813
-0.064308375 -0.075113885 -0.054327197 -0.26849088 -0.017816212 -0.1415291 0.10565626 -0.06621364
00000000: 690d 45be 216f 223e 66ea 4dbe 1d69 e53d
00000010: ffb9 8c3e a6a5 9f3d f029 f93e 8d34 a43e
00000020: 559f 1a3f 5c28 3fbc 63cf e6bd 9349 af3d
00000030: 99b5 9f3d 5445 833d 579f 3d3d 28fb a03d
00000040: 56d2 95bc fe32 9cbe 1972 7dbe d29c fdbf
00000050: 19da ac3e 3e10 bdbc 2184 bcbf ea0f 083f
00000060: 2d34 18be 35ca c3bd eaaa 40be 895b 32be
00000070: 056a 75bb e5e9 0bbe 9715 5c3d d83c 363e
00000080: e8e7 b93e 3c90 863e 8b25 b23e 11d4 783f
00000090: a6ef 023f 62b0 f93e 0321 d5bd fdf4 49be
000000a0: a378 a43c 6a6d c73d eb26 afbc 50d0 da3d
000000b0: 30c5 c23d ba1a f9bc 6114 8ebd 5a55 c63d
000000c0: 475e 5ebe b84f 203e 947b 4cbf abb6 a5bf
000000d0: 2ff4 c5bd b0fc 143e cdbc bb3e 223c fb3c
000000e0: cc30 693d 5c51 32bc 7bb4 613e be83 c5bd
000000f0: 76e8 9bbd 1c9b 92bd 4d3e c03d 54ef ddbd
00000100: 4f11 7a3f 9603 003e 8dbd 683f 8505 02bf
00000110: 0120 99bd 8ea3 03be 4da6 903e 137c c43e
00000120: 56bc 1d3f fddf 2ebe 76c8 573d 6cfb 5ebe
00000130: a141 4ebc 8312 debc b2d2 9e3d 6670 a43d
00000140: 32b3 163e 3bb0 e1bd 7458 ab3e b3e4 3fbf
00000150: ea40 1d3f 6195 23bd 4148 aabd 3550 75be
00000160: 3250 b5bd a695 253d 3a3d 7a3e ce5a a83b
00000170: ee19 393e 5266 e53d d94e 89be 840f 0dbe
00000180: d83e 2cbe 82ba 24be 7d16 433e 8442 a9bd
00000190: 8986 713d acf0 a63e b62c a73e d140 47be
000001a0: f437 2d3d b821 4bbd c23c 13bd 1d11 acbd
000001b0: 0215 c2bd 65c5 23be 9c2c 753d d8ea 9abc
000001c0: a4d1 0a3f c100 8cbe 1e09 80bf a95c aa3d
000001d0: f259 473f 0138 21be c5cf f4be a76b 82bc
000001e0: 5f24 5eba 2cb3 9d3e 7999 2d3e 5789 26be
000001f0: a9eb 8f3b 769d 5cbe 577d 39be 9262 03be
00000200: 6e7a afbd 7de6 1fbb 5563 ea3c caee 973e
00000210: 1a7d c3be c96a 3c3f 0acb 16be 32b9 08be
00000220: 9f24 f1bd 619f 41bd 2027 aebc 9da8 09bd
00000230: a74a 70bd 0a82 8c3d 78c9 a93c 1bda 27be
00000240: 88a9 3a3e 4187 4c3f f042 98be a0e1 033f
00000250: 8df7 843f 5c56 0dbe a5e2 1fbd b651 2dbf
00000260: fe03 8bbc 9da4 f6be a7bd b63e f3d9 a03d
00000270: f63b 88bd 0c37 c53d 5e14 f3bd 0450 483d
00000280: e13c 073e 29e9 95be d3d2 a6be 4cae ffbd
00000290: f531 173e 3cf7 033e 4ae8 3e3d cdd5 893e
000002a0: dfaa 303e ea78 08be 5be9 83be be07 a4bd
000002b0: f560 3e3e 0757 23bd c301 f2bc 4fc5 ba3d
000002c0: 6eb2 1c3f 3e28 543f 5f22 84bd baaa 10c0
000002d0: a491 52bf 3b17 b53d 1e2b e73d d0aa 123f
000002e0: 3065 bb3d 0cae b2bd 3522 573e 85af 5bbd
000002f0: e0ac 8fbe d9d8 333e a19b 843e 9937 b9bc
00000300: faf0 c83e c744 8ebd a33a 353f b835 8abe
00000310: 1b28 2dbe ad56 673e cdbd fa3a bdad 813e
00000320: 63c7 8a3d c10a 2f3e 543c 4dbb 8a45 af3d
00000330: 77d6 6e3c fd26 323b 3e0d c23c 5b14 06be
00000340: 3279 9d3d 2c38 ec3d a861 4c3e 6fe7 273f
00000350: 39aa 33be 9777 dcbd d627 cdbe dc78 073f
00000360: 40fb c13c 3d7f 8b3d 6239 b83d d30e 1c3e
00000370: 9908 39bb a955 163e 0942 0c3e b199 da3c
00000380: f0fd 903f 2ef2 a83d be70 843f 1030 fdbd
00000390: 2986 f5be e7aa a7be ab87 0abf 4e8a 983e
000003a0: c572 403e 71c9 c13c dde7 a7bb 264c ef3d
000003b0: 7133 173e 14ce a03d 2a83 b5bc 9266 ccbc
000003c0: 9e96 08be 9462 2cbf defb 7dbe 345a 2abf
000003d0: 2033 10bf 966c febd 51ef 83bf cd7f c23e
000003e0: 1cb4 83bd 4fd5 99bd 3286 5ebd a377 89be
000003f0: 4ef3 91bc 01ed 10be 4f62 d83d 049b 87bd

actor.0.bias f4 [64]
-0.1826896 0.084685996 -0.39725766 0.050784785 0.07001048 -0.34171352 -0.34717518 -0.09309474
0.32902429 0.20249309 -0.0807162 0.1468551 0.097777665 -0.32224226 -0.3007338 -0.25037682
0.62184274 0.13415882 0.22270286 -0.0017907438 0.2635157 0.123728655 -0.13436705 0.099942535
-0.585305 0.7165252 0.023017952 -0.25683165 -0.106372155 0.08580207 -0.09236673 0.3566709
-0.46794957 0.015751764 0.071707286 -0.028897002 0.23608589 0.2959443 -0.21728712 -0.012355379
0.16120437 -0.18210566 0.45485052 -0.032500785 0.44925672 0.28863394 -0.22162735 0.03764623
0.2864048 -0.09251352 -0.18717824 -0.21753544 0.16377881 0.1387218 -0.40183365 -0.37120825
-0.40589324 -0.037653193 0.18164727 0.45117766 -0.05236269 0.13498005 0.31264645 -0.031207157
00000000: fc12 3bbe da6f ad3d 5b65 cbbe b503 503d
00000010: a861 8f3d 13f5 aebe f2c0 b1be 74a8 bebd
00000020: df75 a83e 595a 4f3e 894e a5bd 2f61 163e
00000030: a83f c83d f0fc a4be c8f9 99be 6431 80be
00000040: 1631 1f3f ee60 093e 380c 643e 64b7 eaba
00000050: 88eb 863e 7365 fd3d 8497 09be acae cc3d
00000060: 8cd6 15bf 326e 373f 2590 bc3c 707f 83be
00000070: a5d9 d9bd ffb8 af3d c52a bdbd 919d b63e
00000080: 1697 efbe d809 813c 45db 923d 68b9 ecbc
00000090: 80c0 713e 0386 973e 8480 5ebe 376e 4abc
000000a0: c212 253e e879 3abe 2be2 e83e 8b1f 05bd
000000b0: fa04 e63e d4c7 933e 48f2 62be ef32 1a3d
000000c0: a6a3 923e ba77 bdbd a7ab 3fbe 9cc1 5ebe
000000d0: a2b5 273e 160d 0e3e 24bd cdbe 020f bebe
000000e0: 3dd1 cfbe 3c3a 1abd be01 3a3e c200 e73e
000000f0: 437a 56bd 3638 0a3e 3213 a03e 27a6 ffbc

actor.2.weight f4 [64, 64]
-0.013717125 -0.25800446 0.30231413 -0.01956727 0.13327926 -0.048514202 0.16231257 0.038939316
-0.042575113 -0.3115606 0.19811963 0.21202202 -0.063118555 -0.010527498 -0.17327775 -0.3768263
0.099637784 0.034296338 -0.027418103 -0.019124305 -0.04629058 0.26041007 0.06658214 0.102311954
0.31543174 -0.29947272 -0.13027836 0.19877404 0.32561162 -0.21312635 0.11199215 0.2049763
0.087594226 0.27627224 -0.0861455 -0.22857854 -0.19430798 -0.107171886 -0.013326227 -0.06809296
-0.1535152 -0.076220356 -0.00061020814 0.068383455 -0.09748006 0.035570048 0.084173724 -0.081053056
0.051113248 -0.10589252 0.18867026 0.03351139 0.19028197 -0.018569112 -0.170447 -0.030639453
-0.0047157444 -0.106568694 0.1195656 -0.10313746 -0.24192409 -0.0051775547 0.14123827 -0.060358014
0.10958548 -0.20941491 -0.42874837 0.17398225 -0.079522304 -0.00024548805 -0.043346327 -0.017864654
0.093888626 0.19070984 -0.06462407 0.1550714 -0.093228444 -0.13340142 -0.14991853 -0.0290334
0.15715334 -0.039211344 0.20488943 0.007950955 0.12744303 -0.0617467 0.06611055 0.19245861
-0.12854965 -0.00057885644 0.024500553 -0.080939434 -0.18380293 0.2136936 0.13036764 0.2827245
-0.071832046 -0.088130176 -0.035009187 -0.16210635 0.049250565 0.20418736 -0.039146293 0.103310026
-0.04990998 -0.08119188 -0.063373975 0.08190982 0.2635219 0.10592185 -0.12031501 0.17362373
0.0076195765 0.1450976 0.06333443 0.05303226 -0.06370005 0.06631014 -0.15549207 -0.15824448
-0.13406438 -0.19813113 0.058072396 0.16634268 0.122115985 0.2192252 -0.099322155 -0.124439284
0.011268237 -0.4089517 0.044724997 -0.10905256 0.070763364 -0.17539798 -0.011201168 -0.115796916
0.02936092 -0.38038957 0.017126193 0.04692342 -0.25477728 -0.08338137 -0.42501932 -0.17351107
0.06592576 0.04053644 -0.012440693 0.0177685 -0.022998706 0.23346415 0.27971524 -0.03754677
0.15051827 -0.031754855 -0.21004122 0.21064848 0.37406927 0.16074926 0.07892977 0.29255795
0.09192712 0.26415345 0.080515146 -0.42477766 -0.4249205 -0.20926572 -0.09945282 -0.16907606
-0.16384858 -0.18960313 -0.12175587 0.031974196 -0.13738361 0.14242114 0.25874898 -0.01310222
0.117631294 -0.07400083 0.14049368 -0.07941945 -0.09949663 0.08544371 -0.20229763 0.023368489
-0.10517876 0.011536667 0.12950629 -0.018521296 -0.25671268 0.10728518 0.14778215 -0.037264675
-0.031251326 -0.11357189 -0.13596654 -0.077867165 -0.11302034 0.12597983 -0.08520154 0.26480907
0.052922215 0.08768249 -0.09842258 -0.10847356 0.19626907 -0.06704396 -0.11267049 0.02065928
0.102997504 0.043949433 0.17417985 0.10252585 0.09420938 0.18145181 -0.009794556 0.073694006
-0.43557543 0.09959737 0.2535245 -0.28718796 -0.21125726 0.036990784 0.03151502 0.09172497
0.006811262 0.06992887 0.06082353 0.022790316 0.29604506 0.0989268 0.078850105 -0.1488316
0.019169798 -0.109038875 -0.02477727 0.050333362 0.16526183 0.0616454 -0.093791336 0.27915597
-0.01196686 0.07973821 -0.143627 0.06975043 -0.13722661 0.25730315 -0.22902481 0.026674377
-0.12593149 -0.10196943 0.24911699 0.16572167 0.0019038324 0.11881957 0.090362996 0.38701126
00000000: cbbd 60bc 2919 84be ebc8 9a3e 8a4b a0bc
00000010: 5c7a 083e d4b6 46bd 4435 263e d57e 1f3d
00000020: 3e63 2ebd df84 9fbe dfdf 4a3e 4d1c 593e
00000030: 4d44 81bd 877b 2cbc b96f 31be 60ef c0be
00000040: e50e cc3d 517a 0c3d ee9b e0bc 93aa 9cbc
00000050: 319b 3dbd 7854 853e 385c 883d ee88 d13d
00000060: 4580 a13e 7d54 99be b167 05be 6c8b 4b3e
00000070: 91b6 a63e cb3d 5abe 245c e53d 4fe5 513e
00000080: 9a64 b33d 8e73 8d3e 0d6d b0bd 7e10 6abe
00000090: acf8 46be ef7c dbbd 3f56 5abc 5274 8bbd
000000a0: 1733 1dbe 6b19 9cbd 60f6 1fba a00c 8c3d
000000b0: a0a3 c7bd e6b1 113d 4663 ac3d 25ff a5bd
000000c0: 205c 513d 2dde d8bd c732 413e 3d43 093d
000000d0: 47d9 423e 401e 98bc a989 2ebe 97ff fabc
000000e0: 8886 9abb b040 dabd cfde f43d bc39 d3bd
000000f0: f3ba 77be 7aa8 a9bb c4a0 103e f739 77bd
00000100: 5a6e e03d dd70 56be e884 dbbe 6728 323e
00000110: 97dc a2bd d9b4 80b9 eb8b 31bd e558 92bc
00000120: ae48 c03d 7149 433e a059 84bd 09cb 1e3e
00000130: 8eee bebd 629a 08be 3e84 19be 74d7 edbc
00000140: ceec 203e 139c 20bd 89ce 513e b944 023c
00000150: 6d80 023e 1cea 7cbd f864 873d df13 453e
00000160: 85a2 03be 66be 17ba 62b5 c83c 93c3 a5bd
00000170: d636 3cbe 7fd2 5a3e 187f 053e 44c1 903e
00000180: ae1c 93bd 987d b4bd cb65 0fbd 35ff 25be
00000190: f6ba 493d 7e16 513e dd57 20bd 3594 d33d
000001a0: 686e 4cbd ee47 a6bd 37ca 81bd 56c0 a73d
000001b0: 58ec 863e 8eed d83d b767 f6bd 6bca 313e
000001c0: a4ad f93b 7794 143e 7bb5 813d 5b38 593d
000001d0: 2c75 82bd 9ccd 873d 5039 1fbe d70a 22be
000001e0: 2c48 09be e3e2 4abe 52dd 6d3d bc55 2a3e
000001f0: f217 fa3d 927c 603e 6a69 cbbd 06da febd
00000200: 699e 383c 1e62 d1be 8f31 373d f356 dfbd
00000210: 62ec 903d 879b 33be 1b85 37bc ef26 edbd
00000220: 5086 f03c 6cc2 c2be 3b4c 8c3c c632 403d
00000230: 2b72 82be dac3 aabd 229c d9be e3ac 31be
00000240: 1604 873d 8a09 263d 0cd4 4bbc 3f8f 913c
00000250: c867 bcbc 3a11 6f3e d636 8f3e a4ca 19bd
00000260: 7621 1a3e 6111 02bd 0c15 57be 3cb4 573e
00000270: 0286 bf3e 749b 243e eea5 a13d 28ca 953e
00000280: 4944 bc3d 1f3f 873e 20e5 a43d 757c d9be
00000290: 2e8f d9be c149 56be ecad cbbd 4622 2dbe
000002a0: ecc7 27be 5327 42be 245b f9bd 60f7 023d
000002b0: 4aae 0cbe d9d6 113e bf7a 843e b2aa 56bc
000002c0: ade8 f03d bf8d 97bd 93dd 0f3e aaa6 a2bd
000002d0: e4c4 cbbd 1dfd ae3d 1c27 4fbe 466f bf3c
000002e0: f667 d7bd 4a04 3d3c 4c9d 043e f9b9 97bc
000002f0: d86f 83be 55b8 db3d 3454 173e d8a2 18bd
00000300: 6401 00bd 6198 e8bd d03a 0bbe d278 9fbd
00000310: 3577 e7bd db00 013e 257e aebd 0e95 873e
00000320: f7c4 583d e192 b33d c791 c9bd 6327 debd
00000330: c2fa 483e 584e 89bd c9bf e6bd a63d a93c
00000340: 5bf0 d23d 5204 343d 345c 323e 13f9 d13d
00000350: d9f0 c03d 81ce 393e 5879 20bc e2ec 963d
00000360: be03 dfbe b5f9 cb3d f7cd 813e 4d0a 93be
00000370: d353 58be a683 173d e515 013d 4dda bb3d
00000380: 0231 df3b de36 8f3d 1822 793d c2b2 ba3c
00000390: 3893 973e 229a ca3d 2a7c a13d 5067 18be
000003a0: fb09 9d3c c64f dfbd b4f9 cabc 5b2a 4e3d
000003b0: 663a 293e e37f 7c3d ac15 c0bd 88ed 8e3e
000003c0: a610 44bc c94d a33d f512 13be 50d9 8e3d
000003d0: 2285 0cbe 3dbd 833e 7b85 6abe 3984 da3c
000003e0: 2ff4 00be 59d5 d0bd 8618 7f3e f1b2 293e
000003f0: 048a f93a ad57 f33d 3c10 b93d 5726 c63e

actor.2.bias f4 [64]
-0.24257468 0.004366483 -0.13040447 0.11178665 -0.08676023 -0.122242786 -0.19616336 -0.2997532
-0.11240786 -0.012550187 -0.24403165 -0.4082869 -0.28983882 -0.041223936 0.20069514 -0.18115723
-0.037434373 -0.3362643 -0.20944706 -0.21491596 -0.2874201 -0.25548375 -0.19313997 -0.23467293
-0.29164124 -0.2669492 -0.2688399 -0.18577686 -0.09882554 -0.2963012 0.24617195 -0.39054054
-0.06372361 0.100401126 -0.2575688 -0.16541225 -0.35263896 -0.2351509 -0.1913251 -0.051130086
-0.31214085 -0.22924595 -0.043089643 -0.08034168 -0.2141072 -0.3838367 -0.005808775 -0.13438912
0.101787455 -0.20212239 0.017882755 -0.00043856737 -0.20060994 -0.15258627 -0.022534441 -0.26923504
-0.11529957 -0.059759542 -0.04032287 -0.20280828 -0.32616755 -0.22619398 0.019502511 0.030869242
00000000: 7f65 78be b714 8f3b c088 05be 66f0 e43d
00000010: 59af b1bd 6d5a fabd 0cdf 48be 4079 99be
00000020: 1836 e6bd 4d9f 4dbc 6fe3 79be fb0a d1be
00000030: c165 94be 6eda 28bd 0783 4d3e 4881 39be
00000040: c954 19bd d62a acbe 4a79 56be ee12 5cbe
00000050: ba28 93be c4ce 82be 7cc6 45be 1a4e 70be
00000060: 0052 95be 91ad 88be 62a5 89be 4a3c 3ebe
00000070: 0b65 cabd cab4 97be 8014 7c3e eef4 c7be
00000080: 8681 82bd 1b9f cd3d 0fe0 83be d461 29be
00000090: 188d b4be 66cb 70be baea 43be c86d 51bd
000000a0: edd0 9fbe 73bf 6abe c47e 30bd 2e8a a4bd
000000b0: eb3e 5bbe 3e86 c4be 8957 bebb 4d9d 09be
000000c0: f175 d03d 2cf9 4ebe db7e 923c 84ef e5b9
000000d0: b16c 4dbe 933f 1cbe 269a b8bc 2dd9 89be
000000e0: 2e22 ecbd 6cc6 74bd 9829 25bd f9ac 4fbe
000000f0: 6fff a6be 659f 67be bbc3 9f3c 7ee1 fc3c

actor.4.weight f4 [7, 64]
-0.01295142 0.2079287 0.06725547 -0.08841727 -0.01878992 0.106738515 0.068421416 0.044449735
-0.19884561 0.06329521 0.15548924 0.0997144 0.03416745 0.18469048 0.23961537 -0.22974758
0.08354865 -0.002795097 -0.01905031 0.016664999 -0.3094915 0.0833476 0.052865904 -0.11960506
-0.012722447 0.14946283 -0.08532345 -0.006464408 0.104490064 -0.07270494 -0.03387962 -0.009050291
0.13671742 0.21074255 0.20764932 0.0647415 -0.08276545 0.109613776 0.037416402 0.11411941
0.21095522 0.06890341 -0.2693881 -0.026762584 0.028723072 -0.01635761 0.3108062 -0.024023661
0.13779719 -0.014005825 0.1505468 -0.030223876 -0.031424124 0.010656185 0.026968295 -0.07493168
0.14069533 -0.2355488 0.01033547 0.025256379 0.10755721 0.22817339 0.0936354 -0.032324377
0.09493987 0.08859717 0.18739921 0.051646743 -0.08591845 -0.060591668 -0.14570682 -0.034697965
-0.04068004 0.056598198 -0.23707567 0.02876535 -0.0204416 -0.018757427 0.059691958 0.10332805
-0.17175235 -0.15091929 0.22234392 -0.12168898 -0.029790532 0.13403572 0.018341193 -0.02349281
-0.156277 0.0698663 -0.1753491 -0.04140869 0.01722035 0.07349224 0.24719042 0.035376202
0.1873678 -0.1059508 -0.15518573 -0.27345383 -0.17967589 -0.0502663 0.27982405 0.044058796
-0.111049324 -0.018150209 -0.07851405 0.026897404 0.26086456 -0.15014496 0.19169289 -4.4552733e-05
0.14252885 0.0005688015 0.123563 -0.021539252 0.005795441 -0.16552933 -0.11171792 0.04798744
0.017176693 0.067090034 -0.06276883 -0.29543546 0.07496372 0.043089684 0.055342827 0.07289043
0.0794032 -0.007067179 0.15001826 -0.10055639 -0.112767555 -0.17425439 0.19149642 0.08276385
-0.3174754 0.17912239 0.1362115 0.0059801945 0.009475146 -0.12570052 0.27392262 0.10308503
-0.20009609 -0.086996414 0.038446706 0.124625295 -0.24435835 0.045682117 0.124948025 -0.16902716
-0.039248783 0.07023882 -0.025861619 -0.12548403 0.10490572 -0.11531787 -0.2604682 0.19022357
0.024420286 0.20028214 0.06427057 0.10746674 0.10244851 0.02866798 0.08809469 0.042808235
0.19384369 -0.0766018 -0.08125454 -0.059594642 -0.17340834 -0.14256546 0.37750646 0.1268374
-0.02965791 -0.029899783 0.07862035 -0.05252436 0.05358373 -0.043871664 -0.021388747 -0.06001871
0.131884 -0.18420675 -0.0939803 -0.053132325 0.09686742 0.18498647 0.14641914 -0.096274436
0.25451463 -0.11178911 0.26799536 -0.16783263 -0.10842996 -0.009964296 0.08887548 0.20668341
0.08438759 -0.05923937 0.25252855 -0.08178973 0.2114749 -0.200678 -0.39549503 -0.10760585
0.02249891 0.08721913 0.26476833 -0.21057652 0.091454186 0.10762572 0.01969271 -0.21868593
0.0134188095 0.059979 0.19756696 0.025038078 -0.23144788 0.18817694 -0.008769134 -0.069946766
0.15359007 0.07102485 0.029142225 0.06165199 0.044609595 0.085671134 0.090897575 -0.10469442
-0.21273455 0.16682029 -0.35744423 0.14069898 0.18530403 0.18761335 0.08204922 0.019984238
-0.22016113 -0.33286953 0.0045392737 -0.11936548 0.12330398 -0.0063462905 -0.15045163 -0.011465161
-0.12854543 -0.11574187 -0.010880651 -0.2718817 0.024460938 0.038986508 -0.08668088 -0.17649542
00000000: 3132 54bc 43eb 543e 3cbd 893d 1d14 b5bd
00000010: 51ed 99bc b999 da3d 8720 8c3d ed10 363d
00000020: 2f9e 4bbe eba0 813d 9238 1f3e 1037 cc3d
00000030: 2bf3 0b3d 801f 3d3e bb5d 753e f342 6bbe
00000040: 8e1b ab3d f22d 37bb 650f 9cbc 0985 883c
00000050: ab75 9ebe 26b2 aa3d eb89 583d 7ff3 f4bd
00000060: cf71 50bc c90c 193e 10be aebd 62d3 d3bb
00000070: e3fe d53d 54e6 94bd 5bc5 0abd ac47 14bc
00000080: a7ff 0b3e e5cc 573e 06a2 543e 3197 843d
00000090: ef80 a9bd 307d e03d f141 193d 70b7 e93d
000000a0: a504 583e 3b1d 8d3d 3ded 89be 353d dbbc
000000b0: a64c eb3c 6500 86bc fe21 9f3e 45cd c4bc
000000c0: b51a 0d3e b078 65bc f128 1a3e 1098 f7bc
000000d0: 95b6 00bd 4897 2e3c 9dec dc3c c875 99bd
000000e0: 7012 103e b433 71be 1a56 293c 77e6 ce3c
000000f0: f446 dc3d 49a6 693e ebc3 bf3d 9166 04bd
00000100: d66f c23d 6f72 b53d 94e5 3f3e 898b 533d
00000110: 03f6 afbd f82e 78bd 2b34 15be 741f 0ebd
00000120: 1da0 26bd 83d3 673d f7c3 72be 50a5 eb3c
00000130: 2475 a7bc 2da9 99bc 8e7f 743d a89d d33d
00000140: d9df 2fbe 968a 1abe 20ae 633e 1238 f9bd
00000150: 460b f4bc a940 093e 4540 963c fe73 c0bc
00000160: 1407 20be 1016 8f3d b78e 33be 299c 29bd
00000170: b111 8d3c 1983 963d 7c1f 7d3e a3e6 103d
00000180: 58dd 3f3e bcfc d8bd 02e9 1ebe 2402 8cbe
00000190: f5fc 37be 09e4 4dbd 1945 8f3e ff76 343d
000001a0: d46d e3bd bfaf 94bc f9cb a0bd f257 dc3c
000001b0: 0a90 853e 9abf 19be 244b 443e 22de 3ab8
000001c0: 15f3 113e 9f1b 153a 990e fd3d 1673 b0bc
000001d0: afe7 bd3b 8580 29be 5dcc e4bd 7a8e 443d
000001e0: 23b6 8c3c 8066 893d f28c 80bd 5143 97be
000001f0: 9486 993d cf7e 303d 29af 623d 9447 953d
00000200: 259e a23d cb93 e7bb 639e 193e 82f0 cdbd
00000210: adf2 e6bd be6f 32be a317 443e 1880 a93d
00000220: 238c a2be dc6b 373e 077b 0b3e 82f5 c33b
00000230: a53d 1b3c a3b7 00be 963f 8c3e 3f1e d33d
00000240: fde5 4cbe 2d2b b2bd 4b7a 1d3d 8c3b ff3d
00000250: 1339 7abe 2c1d 3b3d c0e4 ff3d 7515 2dbe
00000260: 55c3 20bd 5fd9 8f3d bfdb d3bc e37e 00be
00000270: cfd8 d63d c72b ecbd 175c 85be f8c9 423e
00000280: 0d0d c83c c316 4d3e 4aa0 833d 8617 dc3d
00000290: 86d0 d13d 1dd9 ea3c fd6a b43d b057 2f3d
000002a0: f67e 463e 68e1 9cbd c868 a6bd 8319 74bd
000002b0: f591 31be aefc 11be 8748 c13e aae1 013e
000002c0: 25f5 f2bc 64f0 f4bc b503 a13d c923 57bd
000002d0: 9d7a 5b3d c6b2 33bd 7437 afbc 2ed6 75bd
000002e0: 990c 073e b2a0 3cbe be78 c0bd 48a1 59bd
000002f0: 6d62 c63d 186d 3d3e e6ee 153e 882b c5bd
00000300: be4f 823e b0f1 e4bd b036 893e 51dc 2bbe
00000310: 8710 debd 4941 23bc 5904 b63d d1a4 533e
00000320: 67d3 ac3d fba4 72bd 6c4b 813e 6081 a7bd
00000330: e08c 583e 897e 4dbe 537e cabe 7560 dcbd
00000340: a24f b83c f19f b23d b78f 873e 5fa1 57be
00000350: 554c bb3d e06a dc3d 9b52 a13c 34ef 5fbe
00000360: 91da 5b3c 8aac 753d fe4e 4a3e a81c cd3c
00000370: ac00 6dbe 75b1 403e 6aac 0fbc 4040 8fbd
00000380: b746 1d3e 7a75 913d adbb ee3c cc86 7c3d
00000390: 8db8 363d 5974 af3d 8228 ba3d 076a d6bd
000003a0: 16d7 59be f0d2 2a3e ee02 b7be 6513 103e
000003b0: 57c0 3d3e b71d 403e 6c09 a83d fcb5 a33c
000003c0: eb71 61be e06d aabe 30be 943b e475 f4bd
000003d0: cc86 fc3d 8bf4 cfbb fe0f 1abe 5fd8 3bbc
000003e0: 6aa1 03be 130a edbd c244 32bc 1434 8bbe
000003f0: 4e62 c83c 51b0 1f3d bf85 b1bd 37bb 34be

actor.4.bias f4 [7]
-0.01857935 0.16704589 -0.045255955 0.110321425 0.052316338 -0.19027333 0.08360422
00000000: b933 98bc 140e 2b3e 4f5e 39bd 33f0 e13d
00000010: a849 563d 03d7 42be b038 ab3d

critic.0.weight f4 [64, 32]
-0.011106229 -0.0818139 0.099430375 0.18382382 -0.14655337 0.06378279 -0.29404795 0.11681513
-0.015107588 0.031592075 -0.11368881 0.0078764865 -0.07275522 0.012369378 -0.004083485 0.012971394
-0.18498215 -0.12584734 -0.33950266 0.072711036 0.26279393 0.04424074 -0.20808099 -0.3131841
-0.12373463 0.100231975 -0.08739981 -0.021499198 0.007412117 -0.09149955 -0.049087558 -0.011333895
-0.2001119 0.10585762 -0.03631093 0.1728699 0.083675094 0.21843073 0.087191686 0.018646242
0.07111145 0.07305183 -0.0061157006 0.0071153077 -0.021389365 -0.042698972 -0.05254576 -0.10939005
-0.11774575 0.07809929 0.20870581 -0.43040985 -0.0118618775 0.069168635 0.35209423 0.14980504
-0.009602224 -0.10138854 0.0784223 0.044661198 0.015478269 0.05412516 0.08351119 -0.19883175
-0.035988968 0.11536155 -0.27968574 0.05352665 0.13688417 0.022162903 -0.07934759 0.037464455
0.17892148 -0.058763072 -0.28933665 -0.11395854 -0.10980584 0.08120372 -0.06493809 0.014579166
0.1454885 -0.014916828 -0.121150605 -0.5149246 -0.12508234 0.054718807 0.008466916 -0.10521617
-0.08784767 0.06499922 -0.012214809 -0.076173924 0.13637123 -0.012647045 -0.0006727712 -0.0051209694
-0.15645681 0.018775068 0.04795579 -0.17431176 0.060960617 0.0060951733 0.23996492 0.26234397
0.12203407 -0.073838405 -0.022731012 -0.06335618 0.09752937 -0.0076689324 0.021354388 -0.018567074
0.0760615 0.27812222 -0.1295761 -0.76006657 -0.29253274 -0.12394499 -1.1294065 0.24392097
0.16145703 -0.019550947 -0.114559986 0.08892552 -0.0377842 -0.098441556 0.028031483 0.045498133
-0.16718224 -0.10771545 0.077227265 -0.006411864 0.2520479 0.09330295 0.23961951 0.027069656
-0.00010930051 0.017609768 -0.014213932 -0.014875132 0.014254664 -0.009122165 0.011185085 -0.007757497
-0.03859364 0.02733661 0.22711952 -0.094697796 0.13787545 0.03997508 -0.65209645 0.36908427
-0.14179675 -0.008569974 -0.07623414 -0.033489782 -0.006955713 0.007903269 -0.053311758 0.06522732
-0.09053849 0.015520968 -0.025816789 -0.061481554 0.15367621 0.11704424 0.01962738 -0.12213316
0.022594297 0.022025056 0.051911257 -0.016992912 0.15096676 -0.014403363 0.011342429 0.005831991
0.040440343 -0.16342433 -0.30453002 0.13586567 -0.2499916 -0.15115969 0.6166715 0.4571783
0.0710578 -0.100781254 0.17798367 0.009296186 0.04459093 0.0330569 0.024312941 -0.018229414
0.15631074 0.20490633 -0.0916063 0.15603341 0.14109506 0.11771121 0.06752549 -0.101024054
0.13708924 0.004975102 0.034677222 0.01274109 0.040722236 0.048553873 -0.021642363 -0.012676067
-0.20023206 -0.33865136 0.25199598 -1.804301 -0.039335974 0.14173876 -0.8973947 0.047903653
-0.03870612 -0.019621234 0.04498597 0.007559059 0.03521202 0.033358186 0.05699805 0.036687028
0.09377178 0.14746267 -0.075335056 -0.06389331 -0.08840044 -0.2810827 -0.13866441 0.2121786
0.15657184 -0.015015521 0.0485538 0.037395954 -0.013518296 0.022908425 0.046114583 0.027552905
-0.10263104 0.021267489 0.21496448 0.5042368 -0.23630011 0.12725204 -0.59810907 -0.05677563
0.13281843 -0.04944902 -0.03520906 -0.06515487 -0.007877609 -0.022322765 -0.023770452 0.008468758
00000000: e7f6 35bc 0c8e a7bd 27a2 cb3d 503c 3c3e
00000010: 1612 16be 8da0 823d 748d 96be c53c ef3d
00000020: d185 77bc b166 013d aed5 e8bd 610c 013c
00000030: b000 95bd eea8 4a3c c1ce 85bb f885 543c
00000040: f66b 3dbe 20de 00be 4bd3 adbe 86e9 943d
00000050: ed8c 863e c735 353d 2f13 55be ab59 a0be
00000060: 9568 fdbd 6c46 cd3d acfe b2bd 161f b0bc
00000070: 58e1 f23b 1e64 bbbd 0910 49bd cdb1 39bc
00000080: 22ea 4cbe e1cb d83d c5ba 14bd cf04 313e
00000090: d95d ab3d 4eac 5f3e 8e91 b23d 01c0 983c
000000a0: e1a2 913d 339c 953d 3766 c8bb 8727 e93b
000000b0: c038 afbc 1ee5 2ebd 393a 57bd e407 e0bd
000000c0: af24 f1bd 85f2 9f3d fab6 553e ae5e dcbe
000000d0: 5258 42bc 49a8 8d3d b245 b43e 7e66 193e
000000e0: a652 1dbc cba4 cfbd df9b a03d a9ee 363d
000000f0: 9198 7d3c 58b2 5d3d ea07 ab3d 8d9a 4bbe
00000100: 2b69 13bd ad42 ec3d f832 8fbe c33e 5b3d
00000110: 5d2b 0c3e fa8e b53c fd80 a2bd 5474 193d
00000120: 3137 373e 8cb1 70bd ef23 94be 1863 e9bd
00000130: e2e1 e0bd 234e a63d 43fe 84bd 74dd 6e3c
00000140: f0fa 143e b665 74bc cf1d f8bd 19d2 03bf
00000150: 9615 00be d420 603d d2b8 0a3c 937b d7bd
00000160: 7be9 b3bd 501e 853d 9f20 48bc 1301 9cbd
00000170: e6a4 0b3e 8d35 4fbc e95c 30ba cecd a7bb
00000180: 3736 20be 2cce 993c 4a6d 443d c87e 32be
00000190: d7b1 793d 05ba c73b 5db9 753e f351 863e
000001a0: 00ed f93d 9738 97bd 6336 babc e3c0 81bd
000001b0: 7abd c73d ab4b fbbb 66ef ae3c fa19 98bc
000001c0: 22c6 9b3d 0966 8e3e 99af 04be b993 42bf
000001d0: dac6 95be dfd6 fdbd 6490 90bf 6bc6 793e
000001e0: fe54 253e 4f29 a0bc 6d9e eabd 951e b63d
000001f0: 9bc3 1abd ba9b c9bd 48a2 e53c 405c 3a3d
00000200: d231 2bbe eb99 dcbd 5429 9e3d 9d1a d2bb
00000210: 6c0c 813e 9e15 bf3d d15e 753e 2fc1 dd3c
00000220: 4438 e5b8 5c42 903c 8de1 68bc d3b6 73bc
00000230: 658c 693c 2275 15bc a641 373c 9a32 febb
00000240: 5d14 1ebd 07f1 df3c 0592 683e ebf0 c1bd
00000250: 392f 0d3e e9bc 233d cbef 26bf 9df8 bc3e
00000260: 2b33 11be 1469 0cbc a520 9cbd 952c 09bd
00000270: c0ec e3bb b67c 013c 6e5d 5abd e795 853d
00000280: 3e6c b9bd a84b 7e3c bb7d d3bc 15d4 7bbd
00000290: 4c5d 1d3e e4b4 ef3d 99c9 a03c f320 fabd
000002a0: ad17 b93c e46d b43c e6a0 543d b834 8bbc
000002b0: 0897 1a3e 15fc 6bbc 98d5 393c 491a bf3b
000002c0: c6a4 253d b558 27be 5ceb 9bbe 5f20 0b3e
000002d0: ccfd 7fbe 9bc9 1abe 2fde 1d3f 4613 ea3e
000002e0: c086 913d 6766 cebd 5a41 363e 084f 183c
000002f0: fba4 363d ac66 073d ef2b c73c da55 95bc
00000300: ec0f 203e f7d2 513e 159c bbbd 39c7 1f3e
00000310: 397b 103e 9312 f13d ce4a 8a3d b3e5 cebd
00000320: 1f61 0c3e 2e06 a33b b409 0e3d 01c0 503c
00000330: 5ccc 263d 6de0 463d 534b b1bc 47af 4fbc
00000340: a209 4dbe b663 adbe 9e05 813e 56f3 e6bf
00000350: c21e 21bd f723 113e a9bb 65bf 9f36 443d
00000360: 4f8a 1ebd b6bc a0bc 3543 383d fcb1 f73b
00000370: 7b3a 103d 98a2 083d ca76 693d 2345 163d
00000380: 6b0b c03d 7400 173e 4449 9abd 7fda 82bd
00000390: 4a0b b5bd 12ea 8fbe 0bfe 0dbe 5945 593e
000003a0: 5e54 203e a903 76bc 59e0 463d 802c 193d
000003b0: d87b 5dbc 73aa bb3c a5e2 3c3d a1b6 e13c
000003c0: 3930 d2bd 2839 ae3c a61f 5c3e aa15 013f
000003d0: a8f8 71be 5c4e 023e ad1d 19bf 908d 68bd
000003e0: 8e01 083e 0e8b 4abd 6037 10bd eb6f 85bd
000003f0: 1611 01bc 3bde b6bc 40ba c2bc 8cc0 0a3c

critic.0.bias f4 [64]
0.13296646 -0.18369581 -0.11779962 -0.12805791 -0.015595698 -0.08073611 -0.071329966 0.045470357
-0.04810562 -0.13296147 -0.01015021 0.10830707 -0.017299127 -0.10728723 0.06595852 -0.10242696
-0.110579886 0.140777 -0.021939188 0.10492222 0.13468704 -0.08775286 0.08136143 -0.041916553
0.07250345 -0.03927602 0.024192031 0.030839894 -0.08299751 0.21085198 -0.048904702 -0.013831805
-0.066862315 -0.029809145 0.03964479 -0.09766479 -0.06609422 0.19039452 -0.14362015 -0.01611812
0.046761144 0.084729366 0.07645771 -0.2304671 -0.17295052 -0.011836119 -0.28671417 -0.18508127
-0.067852736 -0.06273931 -0.20397782 -0.15577962 0.046589077 -0.12828405 -0.10174543 -0.09355065
0.10944396 -0.044180844 -0.119793795 -0.0766412 -0.021247765 0.21059409 0.15830708 -0.09367099
00000000: 5c28 083e c11a 3cbe ed40 f1bd 9d21 03be
00000010: 1985 7fbc f958 a5bd 7215 92bd 203f 3a3d
00000020: 660a 45bd 0d27 08be 114d 26bc 19d0 dd3d
00000030: e6b6 8dbc 68b9 dbbd 4315 873d 3ac5 d1bd
00000040: b577 e2bd d927 103e d0b9 b3bc 76e1 d63d
00000050: 66eb 093e c5b7 b3bd d2a0 a63d b1b0 2bbd
00000060: b07c 943d e4df 20bd 5e2e c63c f2a3 fc3c
00000070: 99fa a9bd 95e9 573e 4c50 48bd cc9e 62bc
00000080: 1cef 88bd 4f32 f4bc 9362 223d 7a04 c8bd
00000090: 685c 87bd c8f6 423e 2911 13be 260a 84bc
000000a0: 9d88 3f3d 9786 ad3d dc95 9c3d 91ff 6bbe
000000b0: f119 31be 48ec 41bc 33cc 92be f285 3dbe
000000c0: 60f6 8abd 787d 80bd 90df 50be b184 1fbe
000000d0: 30d4 3e3d e55c 03be e85f d0bd 7c97 bfbd
000000e0: 2824 e03d f9f6 34bd 7356 f5bd 10f6 9cbd
000000f0: cb0f aebc faa5 573e 401b 223e 93d6 bfbd

critic.2.weight f4 [64, 64]
-0.11483703 -0.017552441 0.21313144 0.11556344 0.0080599105 -0.020788398 0.09667416 0.08720521
0.2705219 0.18574522 0.00019704027 -0.06533578 -0.27689907 0.13118818 0.026571542 0.06634673
-0.040191688 -0.17951427 -0.12372537 -0.16816474 0.046008114 -0.16169819 -0.038503736 -0.0028267042
-0.039841607 -0.018172398 0.074280314 -0.058483176 0.1029347 -0.2299727 0.08423717 -0.09717496
0.040693074 0.039881513 0.14694251 0.06807672 -0.041684177 -0.24309352 -0.2295846 0.09256936
0.09750833 -0.07399166 -0.06854265 -0.18323556 -0.03843843 0.18849267 0.13578187 -0.15157434
-0.05732238 -0.01890531 0.061194587 -0.10645241 0.06560365 -0.09619356 -0.073141225 -0.022382978
0.16575545 0.13539578 0.03527428 0.097224504 -0.058258772 0.020181885 0.016438423 -0.076389685
-0.0643504 -0.100504436 -0.04295729 0.111058936 -0.005288586 0.054255046 -0.047793467 -0.020703204
-0.12147682 0.19911091 0.18146832 0.16409226 -0.20750077 -0.028208487 0.28331202 -0.02757833
0.04472615 -0.10724018 0.006188745 -0.111887515 0.22967315 -0.07316435 -0.04384609 0.18973702
0.12371773 0.1547242 0.07532118 0.04246211 0.05386998 -0.12151677 0.05591321 -0.0027476002
0.0947903 -0.07945064 -0.13797131 -0.09384194 -0.121075235 -0.053126227 -0.1261501 0.28046012
0.029270602 -0.11819317 0.27145013 -0.16930044 -0.11135652 0.062117245 -0.03704006 0.015748385
-0.05609615 -0.23380215 -0.117067434 -0.043887902 0.030628033 -0.21634968 -0.01120979 -0.08679627
0.17630462 0.03225837 0.022991115 0.2016948 0.014573061 0.18931901 0.17668524 0.08777166
0.09183832 -0.04513983 0.04971858 -0.1134444 0.055164568 0.0048177196 -0.08256211 0.14731033
-0.19223449 0.014997961 0.030209452 0.013632707 -0.1632026 0.14393792 -0.06854487 0.13118628
-0.08618657 0.17193148 -0.029933995 0.16670527 0.087076925 -0.23195682 -0.040998038 -0.037470344
-0.12775478 0.14482653 0.01742264 -0.086075574 -0.035039444 0.16468658 0.04888144 0.098642774
-0.0053498363 -0.059551533 0.038001955 -0.016209254 -0.042671934 0.0574006 -0.009619097 -0.012992681
0.04330168 -0.10471933 0.07733981 -0.14558439 -0.055989627 0.024865426 -0.102051966 -0.125226
-0.07013493 0.06403206 -0.12246581 -0.06576723 0.076022774 0.1378258 0.099291496 0.033254147
-0.052111246 -0.001446975 0.16827008 -0.14711028 0.086225085 0.11587465 0.08932709 -0.02438912
-0.121690184 0.012404308 0.22763649 -0.04264684 -0.11121484 -0.0409867 0.001352628 -0.015798256
-0.04689286 0.6905718 0.013148587 0.47820655 -0.35492602 -0.10513382 -0.016600104 0.20339917
0.03714483 -0.016563421 -0.038443755 0.2792107 0.68466944 -0.16428392 -0.02920595 -0.0035629717
-0.20033221 0.090113446 0.25541297 -0.09231035 0.091837436 -0.26687777 0.012656788 0.100194566
-0.12690517 -0.072625585 -0.0912671 -0.018133566 0.17781608 -0.06833178 -0.45587844 0.02384084
0.08432911 -0.34237486 0.17562926 -0.28424874 -0.22059663 0.14287476 0.10597606 -0.012089282
-0.03986994 -0.051502325 0.3180546 0.12223352 -0.04643183 -0.040217042 -0.04927836 -0.02415394
0.39314178 0.024177229 -0.124816984 0.29638246 -0.07788483 -0.07203324 -0.02749736 -0.1411902
00000000: ad2f ebbd 23ca 8fbc 213f 5a3e 86ac ec3d
00000010: b70d 043c 6e4c aabc 1afd c53d a598 b23d
00000020: d981 8a3e ff33 3e3e 989c 4e39 c4ce 85bd
00000030: b7c5 8dbe 3256 063e 90ac d93c cbe0 873d
00000040: 0aa0 24bd 97d2 37be ba63 fdbd 6133 2cbe
00000050: 0173 3c3d 3694 25be 18b6 1dbd 3a40 39bb
00000060: f430 23bd 48de 94bc 4720 983d 0e8c 6fbd
00000070: 6ecf d23d f77d 6bbe 8a84 ac3d aa03 c7bd
00000080: c8ad 263d cc5a 233d 1978 163e cf6b 8b3d
00000090: 07bd 2abd 82ed 78be 3a18 6bbe 0195 bd3d
000000a0: 73b2 c73d f088 97bd 1760 8cbd 1aa2 3bbe
000000b0: 9d71 1dbd 3904 413e 670a 0b3e 4e36 1bbe
000000c0: dfca 6abd 4fdf 9abc 2da7 7a3d b903 dabd
000000d0: 355b 863d 2101 c5bd 11cb 95bd 825c b7bc
000000e0: ccbb 293e 31a5 0a3e c37b 103d a41d c73d
000000f0: c0a0 6ebd 7b54 a53c dfa9 863c 3272 9cbd
00000100: 24ca 83bd 45d5 cdbd fcf3 2fbd de72 e33d
00000110: e04b adbb 8a3a 5e3d 15c3 43bd c499 a9bc
00000120: d7c8 f8bd bbe3 4b3e d5d2 393e cd07 283e
00000130: 157b 54be 7c15 e7bc 460e 913e f3eb e1bc
00000140: c432 373d bda0 dbbd f5ca ca3b 4825 e5bd
00000150: 702f 6b3e 31d7 95bd f597 33bd 6c4a 423e
00000160: b95f fd3d 0570 1e3e fe41 9a3d c0ec 2d3d
00000170: c5a6 5c3d c9dd f8bd 4005 653d 1511 34bb
00000180: 6b21 c23d 04b7 a2bd 5a48 0dbe 3430 c0bd
00000190: 4bf6 f7bd e39a 59bd 7e2d 01be 7898 8f3e
000001a0: e7c8 ef3c 430f f2bd 83fb 8a3e 185d 2dbe
000001b0: e30e e4bd a76e 7e3d 51b7 17bd c202 813c
000001c0: 14c5 65bd d569 6fbe 0dc1 efbd cdc3 33bd
000001d0: a4e7 fa3c c58a 5dbe 44a9 37bc 3ec2 b1bd
000001e0: 3389 343e 5a21 043d dd57 bc3c 1589 4e3e
000001f0: d9c3 6e3c d8dc 413e faec 343e a1c1 b33d
00000200: bb15 bc3d 8be4 38bd b6a5 4b3d 8a55 e8bd
00000210: 3ef4 613d f6dd 9d3b 5316 a9bd 85d8 163e
00000220: 1ed9 44be 02ba 753c d079 f73c b85b 5f3c
00000230: 951e 27be 7664 133e 4161 8cbd b255 063e
00000240: 9682 b0bd ce0e 303e 2338 f5bc c9b4 2a3e
00000250: 6355 b23d 1786 6dbe 8fed 27bd 817a 19bd
00000260: 26d2 02be 684d 143e edb9 8e3c 6448 b0bd
00000270: 8585 0fbd 99a3 283e e837 483d 3905 ca3d
00000280: ae4d afbb 4fec 73bd f0a7 1b3d 45c9 84bc
00000290: c4c8 2ebd e41c 6b3d 6b99 1dbc 41df 54bc
000002a0: 1a5d 313d 1777 d6bd 5664 9e3d 1314 15be
000002b0: 6155 65bd 94b2 cb3c 9f00 d1bd 3f3b 00be
000002c0: e7a2 8fbd 3e23 833d 5bcf fabd f8b0 86bd
000002d0: d4b1 9b3d 3522 0d3e 5759 cb3d 8035 083d
000002e0: 9a72 55bd 6da8 bdba fe4e 2c3e 14a4 16be
000002f0: c796 b03d b04f ed3d 1ff1 b63d b1cb c7bc
00000300: b438 f9bd 703b 4b3c 8a19 693e 74ae 2ebd
00000310: 9bc4 e3bd ace1 27bd aa4a b13a 586b 81bc
00000320: ba12 40bd 50c9 303f 2c6d 573c 7dd7 f43e
00000330: ddb8 b5be 6650 d7bd f1fc 87bc df47 503e
00000340: 2d25 183d 03b0 87bc 3377 1dbd b4f4 8e3e
00000350: 7f46 2f3f 0b3a 28be 5141 efbc bf80 69bb
00000360: e323 4dbe 668d b83d 7dc5 823e 350d bdbd
00000370: 4415 bc3d 34a4 88be 6b5e 4f3c cf32 cd3d
00000380: 6ef3 01be b9bc 94bd 3fea babd d88c 94bc
00000390: 6b15 363e 88f1 8bbd e668 e9be de4d c33c
000003a0: beb4 ac3d c24b afbe 28d8 333e 0d89 91be
000003b0: 15e4 61be c34d 123e fa09 d93d 2012 46bc
000003c0: aa4e 23bd 1af4 52bd 0dd8 a23e 9155 fa3d
000003d0: 4d2f 3ebd a0ba 24bd 1bd8 49bd 7cde c5bc
000003e0: e149 c93e 530f c63c 0ca0 ffbd 71bf 973e
000003f0: 1582 9fbd 2a86 93bd 2542 e1bc 2a94 10be

critic.2.bias f4 [64]
-0.030154828 -0.13941623 -0.007844175 -0.30614614 0.06739446 -0.08154701 -0.048511773 0.083168074
0.15698525 0.07944977 -0.10078958 -0.17176472 -0.114857204 0.047125276 0.0077200355 0.057281572
0.11507964 -0.10201692 -0.12862138 0.05947522 -0.089848466 -0.1654803 0.04431803 0.055758353
-0.08875537 0.01012627 -0.15108675 -0.010771131 -0.105369315 0.01618692 0.093640506 -0.001310195
-0.016634636 0.079982966 0.12992975 0.12954573 -0.048938643 0.021839038 -0.21296877 -0.12751283
-0.20180385 -0.065108754 0.10045357 0.17884405 0.059068367 -0.04328791 0.057290684 -0.011245195
0.12077713 -0.068039834 0.16347842 -0.002998903 -0.066522166 -0.078762755 0.027332874 -0.017969174
-0.09955284 -0.0892322 -0.046569772 -0.066291384 -0.11880038 -0.008076962 -0.0724244 0.0028778294
00000000: 4207 f7bc 21c3 0ebe db84 00bc 30bf 9cbe
00000010: 1b06 8a3d 1e02 a7bd 48b4 46bd 0654 aa3d
00000020: bec0 203e 90b6 a23d c46a cebd 17e3 2fbe
00000030: 413a ebbd 6f06 413d 5af8 fc3b 15a0 6a3d
00000040: e0ae eb3d 3fee d0bd 53b5 03be 4a9c 733d
00000050: 7902 b8bd ab73 29be d386 353d df62 643d
00000060: 60c5 b5bd a8e8 253c 7cb6 1abe 6679 30bc
00000070: decb d7bd 6f9a 843c 98c6 bf3d d9ba abba
00000080: 5c45 88bc 1cce a33d 4e0c 053e a3a7 043e
00000090: e373 48bd c8e7 b23c 7c14 5abe b992 02be
000000a0: aba5 4ebe bd57 85bd 9aba cd3d e522 373e
000000b0: acf1 713d aa4e 31bd a3a9 6a3d c43d 38bc
000000c0: 005a f73d 7858 8bbd e366 273e 3e89 44bb
000000d0: c63c 88bd 5e4e a1bd 31e9 df3c 1734 93bc
000000e0: 5ce2 cbbd 5fbf b6bd f2bf 3ebd c7c3 87bd
000000f0: 9d4d f3bd 3c55 04bc 3e53 94bd f799 3c3b

critic.4.weight f4 [1, 64]
-0.08382028 -0.06444069 -0.03553364 -0.1280379 -0.0377344 0.038495943 -0.055162095 -0.043245133
-0.071505524 -0.040895063 -0.12519102 0.106514804 -0.015350356 0.09701583 -0.04748401 -0.047700588
-0.029609634 0.13914509 -0.03995201 0.03611807 -0.023491096 -0.05968172 0.04299489 0.011948127
0.042962167 -0.01977715 0.009645333 0.040315636 0.029620774 -0.00308011 -0.0035898646 -0.04004907
0.03727622 -0.050789885 0.010704437 0.03866737 -0.041365575 0.021111142 -0.05658871 -0.0095735295
-0.00030838145 -0.04448071 -0.0215062 -0.14950757 0.021388268 0.14509545 0.047837164 -0.008846083
-0.06941312 -0.029246947 0.0085476125 0.07203745 -0.0790712 -0.011422522 0.024558045 0.04160219
-0.03891763 -0.07784351 -0.026254961 -0.028766898 -0.0940457 0.11439644 -0.11723592 -0.017641827
00000000: f8a9 abbd 7bf9 83bd b98b 11bd 5e1c 03be
00000010: 638f 1abd ecad 1d3d a6f1 61bd cf21 31bd
00000020: 7d71 92bd 9581 27bd 1332 00be 6f24 da3d
00000030: 0f80 7bbc 3cb0 c63d 987e 42bd b161 43bd
00000040: e78f f2bc 0d7c 0e3e b8a4 23bd 8bf0 133d
00000050: 6670 c0bc d274 74bd 691b 303d 14c2 433c
00000060: 19f9 2f3d b103 a2bc 7507 1e3c 0222 253d
00000070: 44a7 f23c acdb 49bb ef43 6bbb 7e0a 24bd
00000080: f3ae 183d 0e09 50bd aa61 2f3c ad61 1e3d
00000090: f36e 29bd 46f1 ac3c 90c9 67bd 4bda 1cbc
000000a0: 42ae a1b9 6831 36bd c52d b0bc 8318 19be
000000b0: 7336 af3c e793 143e e7f0 433d 29ef 10bc
000000c0: 7728 8ebd 4b97 efbc 490b 0c3c 5f88 933d
000000d0: 15f0 a1bd 8825 3bbc f42d c93c 0f67 2a3d
000000e0: 1868 1fbd 6b6c 9fbd a514 d7bc 8fa8 ebbc
000000f0: 089b c0bd ae48 ea3d 6319 f0bd 9885 90bc

exp_avg f4 [7]
-4.3680287e-05 0.0030618843 -0.0015239592 0.0066192937 0.0014754133 0.002192854 -0.0014894885
00000000: 5a35 37b8 e5a9 483b 96bf c7ba a9e6 d83b
00000010: a862 c13a fcb5 0f3b f13a c3ba

exp_avg_sq f4 [7]
0.000120984296 0.00039320614 0.00023478293 0.0007575125 0.00033957273 0.00028764317 0.00025482444
00000000: f3b8 fd38 3c27 ce39 1030 7639 ce93 463a
00000010: ae08 b239 d0ce 9639 f599 8539

exp_avg f4 [64, 32]
-8.369882e-05 0.00041066366 0.00016586499 0.0001308513 0.00017215931 -0.0004003777 0.0009790222 -1.50152955e-05
-3.7016855e-06 0.00011004219 -0.00015000472 -0.0001841842 6.827906e-05 -0.00011145198 0.00022851283 0.00028324025
1.6839793e-06 -3.3357926e-06 0.00031428214 -9.132266e-06 0.00018026544 -1.6330215e-11 -0.00013563357 0.00037355366
-5.926149e-12 -8.8383014e-05 0.0002108357 0.00039720823 0.001084455 0.00017832553 -0.00038355993 0.0019167786
-0.00035711884 0.001965094 0.00044789346 0.0007600743 -0.0014009419 -0.0009133182 -0.0060019293 -0.00013439923
-9.9475874e-05 -0.00022954062 -0.0010351917 0.00026721394 -0.00027188184 0.00014405814 -0.0001983242 -0.00031318914
6.123404e-06 1.8487162e-05 0.0014540509 0.00024885856 0.00094460667 -1.3175584e-10 0.00014629314 0.0030145107
6.4003334e-12 -0.0006555454 0.0025778995 0.0013117545 0.0031962623 -0.0024306937 -0.0018449828 -0.010846358
0.00087923603 -0.0019212408 -0.0003888187 -0.0014549554 0.0006522947 0.0023327123 -0.0012959818 0.00013448221
0.000111242785 0.0010362706 -2.6610716e-05 -0.00062829413 5.5020213e-05 0.0016359328 -0.00050857535 -0.0017838576
-1.3399612e-05 -3.0976178e-05 -0.001391915 7.507631e-05 -0.00081802317 2.5468794e-11 0.00028509845 -0.0005812116
1.2554836e-11 0.0026820456 -0.0014026752 -0.0006993879 -0.0036652265 0.0020107692 0.0043028276 -0.0027467397
-0.0002920686 0.0016785655 0.00048464243 0.0011273978 -0.00018428512 -0.0011740095 -0.000115458475 -7.503052e-05
-7.190566e-05 -0.0001805122 -0.0004703236 8.813953e-05 -0.00018796617 0.00033481736 6.918464e-05 -3.975316e-05
8.467406e-07 9.204323e-06 0.0009265582 9.313956e-05 0.0004466967 -2.9561787e-11 -0.0008165119 0.0006763662
-3.5701365e-11 -0.00041611117 0.0017912309 0.0012763399 0.002943794 -0.0004438804 -0.0023741254 0.0001284747
-4.05784e-05 0.00068867806 -0.00013376758 -0.00039135214 -0.00060127437 7.1398295e-05 -0.0047988375 -7.067337e-05
-3.2374897e-05 -0.00010217989 -7.110477e-05 -6.122874e-05 0.00015934753 0.00040877186 4.071663e-05 -0.0013623581
6.9254584e-06 3.02478e-06 0.0003718844 7.87082e-05 0.00019594571 -6.2133576e-11 0.0013867649 0.0014227186
6.064045e-11 0.0003884946 0.0007838427 0.00011189614 -4.3111064e-05 -0.0010694667 -9.020838e-05 -0.009736292
0.00022944636 0.0001496273 0.0002774638 7.8096404e-05 0.00047639917 0.0009690363 0.002141502 2.0735757e-05
1.1943979e-06 6.719588e-05 -0.000105845305 4.0138795e-05 -4.403949e-05 -0.00015594014 0.0004524579 -0.00018025705
-1.768543e-05 -2.1056742e-06 -0.00014962025 0.00018977562 -0.00020427439 4.5953332e-12 -0.00072061055 -0.00010562525
-3.1487157e-11 0.0006930582 0.0003336148 0.0007001804 -0.00016842604 0.0011363053 0.0013971352 0.0048199636
0.00020060918 -0.00094969536 -0.0001768868 -0.00025257622 0.00037616934 0.00030946697 0.0021030447 6.744275e-05
5.1983166e-05 0.0002703555 0.00012422942 -4.823446e-06 0.00034772555 0.00019576152 -0.00029509063 -0.0006166471
-6.850802e-06 -1.8495071e-05 -0.000652728 -9.585023e-05 -0.00042172923 4.808024e-11 -6.528266e-05 -0.0011002531
-2.8397929e-12 0.00048459476 -0.0010158707 -0.0004681292 -0.001113684 0.0008283046 0.00048712597 0.0037050962
-0.00012682803 0.00021002661 0.00023033554 0.00053737196 0.00025762903 -0.0005616669 0.0027249004 8.38542e-06
-1.7345777e-05 0.00010975685 7.602688e-05 -0.0001202364 -0.00036276845 0.0004698261 0.00017002728 -0.0003604073
-3.8046666e-05 -1.2558166e-05 3.0666422e-05 -1.4572007e-06 -0.00013479918 3.6357133e-11 -0.001065828 -0.00083256495
-4.6601008e-11 -0.00038260553 0.00024895172 0.00027361303 0.0008742011 0.00050876103 -0.001469588 0.0053378306
00000000: 7687 afb8 584e d739 0bec 2d39 2135 0939
00000010: aa85 3439 c9e9 d1b9 8952 803a 34ea 7bb7
00000020: 796a 78b6 73c6 e638 964a 1db9 9221 41b9
00000030: 0b31 8f38 53bb e9b8 f29c 6f39 dd7f 9439
00000040: 1705 e235 7bdc 5fb6 3cc6 a439 c936 19b7
00000050: a305 3d39 60a4 8fad dc38 0eb9 86d9 c339
00000060: 0182 d0ac 455a b9b8 c713 5d39 6340 d039
00000070: 4624 8e3a e5fc 3a39 8b18 c9b9 6b3c fb3a
00000080: ae3b bbb9 cec8 003b 3ed3 ea39 b93f 473a
00000090: cf9f b7ba bf6b 6fba d5ab c4bb 85ed 0cb9
000000a0: b49d d0b8 d7b0 70b9 45af 87ba d918 8c39
000000b0: 5d8b 8eb9 500e 1739 3ff5 4fb9 8933 a4b9
000000c0: a477 cd36 e114 9b37 da95 be3a 3b79 8239
000000d0: 7b9f 773a f9dd 10af 4466 1939 198f 453b
000000e0: 1431 e12c e8d8 2bba faf1 283b 2def ab3a
000000f0: 6278 513b 464c 1fbb 5ad3 f1ba ecb4 31bc
00000100: 887c 663a 25d2 fbba 5dda cbb9 34b4 beba
00000110: c2fe 2a3a 6be0 183b efdd a9ba cb03 0d39
00000120: 044b e938 79d3 873a 143a dfb7 1bb4 24ba
00000130: 81c5 6638 cc6c d63a ea51 05ba 54d0 e9ba
00000140: e5ce 60b7 6bec 01b8 eb70 b6ba 4972 9d38
00000150: 9b70 56ba a006 e02d 4479 9539 735c 18ba
00000160: f4dd 5c2d 42c5 2f3b f8d9 b7ba 2157 37ba
00000170: 4c34 70bb 1cc7 033b bcfe 8c3b a502 34bb
00000180: c920 99b9 5003 dc3a 9b17 fe39 31c5 933a
00000190: a93c 41b9 39e1 99ba 4c22 f2b8 b459 9db8
000001a0: 0fcc 96b8 e047 3db9 c495 f6b9 8dd7 b838
000001b0: c918 45b9 6d8a af39 3917 9138 a1bc 26b8
000001c0: 924b 6335 446c 1a37 45e4 723a ec53 c338
000001d0: 9e32 ea39 9d03 02ae 300b 56ba 2b4e 313a
000001e0: 2a04 1dae 7f29 dab9 bcc7 ea3a dc4a a73a
000001f0: abec 403b 9eb8 e8b9 3797 1bbb 2ab7 0639
00000200: ba32 2ab8 6788 343a f643 0cb9 652e cdb9
00000210: d79e 1dba abbb 9538 913f 9dbb 7a36 94b8
00000220: 48ca 07b8 6949 d6b8 151e 95b8 ee67 80b8
00000230: 8716 2739 6e50 d639 26c7 2a38 2791 b2ba
00000240: 3c61 e836 53fd 4a36 7bf9 c239 2510 a538
00000250: c776 4d39 18a2 88ae 1cc4 b53a 847a ba3a
00000260: 8a59 852e ddae cb39 cb7a 4d3a c8a9 ea38
00000270: 27d2 34b8 592d 8cba 412e bdb8 f884 1fbc
00000280: 8a97 7039 46e5 1c39 9078 9139 b0c7 a338
00000290: 37c5 f939 ed06 7e3a 7158 0c3b b3f1 ad37
000002a0: 334f a035 83eb 8c38 44f9 ddb8 b45a 2838
000002b0: 0bb7 38b8 dd83 23b9 df37 ed39 6203 3db9
000002c0: 2c5b 94b7 354f 0db6 61e3 1cb9 81fe 4639
000002d0: 7d32 56b9 15af a12c 5be7 3cba 2083 ddb8
000002e0: 637b 0aae 59ae 353a 05e9 ae39 508c 373a
000002f0: 859b 30b9 14f0 943a 1420 b73a c9f0 9d3b
00000300: 9e5a 5239 faf4 78ba b07a 39b9 356c 84b9
00000310: 9838 c539 f43f a239 3cd3 093b 0d70 8d38
00000320: 8008 5a38 80be 8d39 9543 0239 16d9 a1b6
00000330: ef4e b639 5545 4d39 65b6 9ab9 7da6 21ba
00000340: f1df e5b6 dd25 9bb7 d61b 2bba 3303 c9b8
00000350: 8a1b ddb9 8a75 532e 5ce8 88b8 5e36 90ba
00000360: 29d5 47ac 3511 fe39 f726 85ba 3d6f f5b9
00000370: 09f9 91ba 9522 593a f164 ff39 33d1 723b
00000380: 24fd 04b9 973a 5c39 3a86 7139 6cde 0c3a
00000390: 6212 8739 d43c 13ba 3e94 323b 1baf 0c37
000003a0: c681 91b7 432d e638 9f70 9f38 6d27 fcb8
000003b0: f531 beb9 fe52 f639 5a49 3239 0df5 bcb9
000003c0: 4c94 1fb8 eab0 52b7 d29f 0038 0995 c3b5
000003d0: e158 0db9 7ee6 1f2e 41b3 8bba 7d40 5aba
000003e0: 12f4 4cae 7298 c8b9 bc85 8239 b873 8f39
000003f0: a52a 653a 605e 053a 319f c0ba f8e8 ae3b
