logs/rsl_rl/franka_reach/2025-06-26_19-51-50/model_700.pt (torch, 172795 bytes, 36 tensors)

std f4 [7]
0.078570895 0.0462425 0.0584686 0.039229207 0.046951033 0.05638225 0.057858426
00000000: c7e9 a03d c768 3d3d c57c 6f3d ceae 203d
00000010: ba4f 403d 13f1 663d f5fc 6c3d

actor.0.weight f4 [64, 32]
-0.19420512 0.16210781 -0.2008726 0.11392276 0.27697876 0.07740522 0.48719573 0.3200145
0.6013415 -0.010168645 -0.10582301 0.07950168 0.08451747 0.069913566 0.04254498 0.06742264
-0.014476278 -0.30357116 -0.24557608 -1.9789379 0.3374298 -0.023100551 -1.473591 0.53283656
-0.14864957 -0.097613655 -0.1854323 -0.1766041 -0.0016986666 -0.1319355 0.052455842 0.17772648
0.36952585 0.2559154 0.34969455 0.97224706 0.5189865 0.48369718 -0.102626435 -0.20006318
0.018026246 0.09730395 -0.030376432 0.11128968 0.09926024 -0.034104865 -0.067084864 0.097973354
-0.20308588 0.15812322 -0.8015808 -1.2879289 -0.08345017 0.14540476 0.36457777 0.032370657
0.05682596 -0.0062422026 0.21167788 -0.099161714 -0.07489459 -0.06461388 0.0903004 -0.10701554
0.9759991 0.12606847 0.90851146 -0.50876045 -0.0777029 -0.12789802 0.2824945 0.3846966
0.6173094 -0.1722936 0.05879134 -0.21759361 -0.013258716 -0.029728027 0.07758072 0.0822324
0.15065384 -0.099385835 0.33553678 -0.7480001 0.6114641 -0.039879654 -0.08238688 -0.24003106
-0.08844716 0.041711856 0.24456838 0.0065198964 0.18060265 0.11021501 -0.26810953 -0.13799356
-0.16616844 -0.15901108 0.19304194 -0.081217356 0.061723325 0.32555738 0.32509378 -0.19723059
0.03998667 -0.045983303 -0.037834335 -0.09174103 -0.09750158 -0.15859973 0.06283929 -0.01744452
0.5396915 -0.28857976 -0.9989395 0.084880136 0.7817439 -0.1575347 -0.47833765 -0.013301994
-0.0008539067 0.3079283 0.1731846 -0.16354774 0.0059866724 -0.21261531 -0.18155107 -0.12929364
-0.08285479 -0.0049931016 0.027909417 0.29679766 -0.37883013 0.7345984 -0.14495888 -0.13431415
-0.11943411 -0.043962274 -0.022778356 -0.036396112 -0.057526924 0.06810125 0.026190016 -0.16536152
0.1870395 0.799295 -0.299352 0.5179565 1.043254 -0.13796632 -0.03927143 -0.67824674
-0.016978605 -0.47908497 0.35332158 0.077008784 -0.06619574 0.10186183 -0.119365275 0.051005162
0.12693526 -0.2876023 -0.32307026 -0.1194785 0.14465222 0.12540965 0.0425426 0.27060533
0.17417318 -0.122566774 -0.2576141 -0.08650319 0.19023916 -0.049997207 -0.021828402 0.09207331
0.6223059 0.8406754 -0.05686687 -2.2671473 -0.82906425 0.08838978 0.12105945 0.57453024
0.09161641 -0.09272885 0.2149235 -0.05230656 -0.27576518 0.16966274 0.25726524 -0.02600033
0.38847488 -0.06712604 0.7047453 -0.27132088 -0.16901636 0.22905385 0.0031018625 0.25732392
0.070850834 0.17146564 0.0033274305 0.07212996 0.015461428 -0.0017437103 0.023904681 -0.13034196
0.084976375 0.12884085 0.19981636 0.6471905 -0.18392694 -0.10753996 -0.39816475 0.5262997
0.023754667 0.06683911 0.09147342 0.15201467 -0.0045099882 0.14665273 0.13930051 0.027886717
1.1299742 0.08301357 1.0334835 -0.12527387 -0.475831 -0.32599849 -0.53844994 0.2981404
0.19112144 0.030092036 -0.008451051 0.115673825 0.14570446 0.08480938 -0.02367985 -0.026341371
-0.1446821 -0.6797309 -0.24766423 -0.67660534 -0.56745344 -0.12416401 -1.0301975 0.37799037
-0.06428729 -0.07722546 -0.054563265 -0.27032807 -0.01939786 -0.13942263 0.10727906 -0.06358768
00000000: b5dd 46be 97ff 253e 8cb1 4dbe 5650 e93d
00000010: 29d0 8d3e a186 9e3d b871 f93e f1d8 a33e
00000020: 84f1 193f 639a 26bc bcb9 d8bd c7d1 a23d
00000030: 7f17 ad3d d82e 8f3d a543 2e3d e214 8a3d
00000040: e92d 6dbc ae6d 9bbe 4c78 7bbe d64d fdbf
00000050: 99c3 ac3e 5e3d bdbc a19e bcbf fa67 083f
00000060: 9837 18be abe9 c7bd f7e1 3dbe b5d7 34be
00000070: cba5 deba 1a1a 07be f0db 563d eefd 353e
00000080: 7e32 bd3e 5807 833e 2a0b b33e 2fe5 783f
00000090: 4ddc 043f 28a7 f73e cf2d d2bd 5ddd 4cbe
000000a0: c7ab 933c 4b47 c73d ffd7 f8bc d8eb e33d
000000b0: f448 cb3d 8bb1 0bbd ca63 89bd 41a6 c83d
000000c0: bff5 4fbe 0eeb 213e 6634 4dbf dbda a4bf
000000d0: ece7 aabd fce4 143e f0a9 ba3e 1897 043d
000000e0: 56c2 683d 648b ccbb 16c2 583e 4c15 cbbd
000000f0: 5662 99bd 4854 84bd 6bef b83d f72a dbbd
00000100: 14db 793f 1818 013e 3594 683f 203e 02bf
00000110: b322 9fbd b3f7 02be 1ea3 903e f4f6 c43e
00000120: fd07 1e3f bc6d 30be 30cf 703d dcd0 5ebe
00000130: 163b 59bc 3188 f3bc a4e2 9e3d 7669 a83d
00000140: 0045 1a3e cd8a cbbd 7acb ab3e ef7c 3fbf
00000150: e988 1c3f d958 23bd 74ba a8bd b4ca 75be
00000160: c923 b5bd 0dda 2a3d 2270 7a3e dba4 d53b
00000170: e7ef 383e 68b8 e13d a745 89be 2f4e 0dbe
00000180: 0f28 2abe cdd3 22be c9ac 453e 4955 a6bd
00000190: 99d1 7c3d 75af a63e b172 a63e d1f6 49be
000001a0: 10c9 233d fd58 3cbd 2df8 1abd b9e2 bbbd
000001b0: e9ae c7bd f867 22be e3b1 803d cfe7 8ebc
000001c0: 3929 0a3f bac0 93be 80ba 7fbf a3d5 ad3d
000001d0: 5e20 483f c750 21be ace8 f4be 9bf0 59bc
000001e0: b5d8 5fba c7a8 9d3e 4e57 313e 0f79 27be
000001f0: d92b c43b d4b7 59be 86e8 39be 8d65 04be
00000200: c6af a9bd 2c9d a3bb 4aa2 e43c ddf5 973e
00000210: 06f6 c1be a40e 3c3f 1a70 14be a689 09be
00000220: df99 f4bd c911 34bd ad99 babc 1714 15bd
00000230: 5aa1 6bbd ab78 8b3d 728c d63c 8854 29be
00000240: 4887 3f3e 999e 4c3f aa44 99be cc98 043f
00000250: 5989 853f 0b47 0dbe 14db 20bd 94a1 2dbf
00000260: b716 8bbc a04a f5be 91e6 b43e c8b6 9d3d
00000270: a291 87bd ef9c d03d c875 f4bd caea 503d
00000280: 51fb 013e 9c40 93be 7769 a5be 25b1 f4bd
00000290: b61f 143e 636b 003e 2641 2e3d c88c 8a3e
000002a0: 745a 323e 4a04 fbbd ffe5 83be 9628 b1bd
000002b0: 0ece 423e dfc9 4cbd 7ad1 b2bc ee90 bc3d
000002c0: 714f 1f3f 8136 573f 3ced 68bd f118 11c0
000002d0: 8e3d 54bf b305 b53d 04ee f73d 6a14 133f
000002e0: 62a1 bb3d a0e8 bdbd e814 5c3e 673f 56bd
000002f0: 1831 8dbe 12bc 2d3e 45b8 833e a5fe d4bc
00000300: 2ee6 c63e 6179 89bd 306a 343f 92ea 8abe
00000310: a012 2dbe 188d 6a3e 9e48 4b3b f6bf 833e
00000320: 3e1a 913d b094 2f3e 0511 5a3b dfb8 933d
00000330: ee51 7d3c 358d e4ba c0d3 c33c 5d78 05be
00000340: 1808 ae3d dbee 033e a99c 4c3e 47ae 253f
00000350: 5857 3cbe e93d dcbd 40dc cbbe 94bb 063f
00000360: 2699 c23c f1e2 883d 6b56 bb3d bca9 1b3e
00000370: 86c8 93bb 222c 163e cba4 0e3e af72 e43c
00000380: ffa2 903f 0503 aa3d 3049 843f cb47 00be
00000390: 1fa0 f3be 46e9 a6be dbd7 09bf dca5 983e
000003a0: 57b5 433e 9383 f63c 4776 0abc 66e6 ec3d
000003b0: 8d33 153e 8ab0 ad3d 3ffc c1bc dcc9 d7bc
000003c0: 8b27 14be d802 2ebf b19b 7dbe 0236 2dbf
000003d0: a144 11bf b349 febd 83dd 83bf f487 c13e
000003e0: 0ea9 83bd 6228 9ebd bb7d 5fbd 7168 8abe
000003f0: 43e8 9ebc cec4 0ebe 20b5 db3d 423a 82bd

actor.0.bias f4 [64]
-0.18053211 0.08642892 -0.39762655 0.052974015 0.06999691 -0.34048405 -0.3496736 -0.09415647
0.3287359 0.20149331 -0.08252601 0.1475077 0.09693341 -0.3207198 -0.29969826 -0.25130066
0.62022793 0.13393322 0.22252347 -0.0017802492 0.26370758 0.12304555 -0.13284348 0.09974156
-0.58570284 0.7170572 0.021836517 -0.2571588 -0.10594609 0.08484942 -0.094586484 0.35520312
-0.4664897 0.013962008 0.07247879 -0.027140675 0.23596445 0.2953716 -0.21692516 -0.0133807575
0.16090102 -0.1809012 0.4550917 -0.031455748 0.4492686 0.28897876 -0.21945749 0.038252883
0.28541812 -0.091544166 -0.18704443 -0.21708103 0.1630496 0.14125818 -0.40119708 -0.36990902
-0.4055605 -0.0364134 0.18193981 0.45046192 -0.053547062 0.13591425 0.31157517 -0.03192584
00000000: 69dd 38be a501 b13d b595 cbbe 48fb 583d
00000010: 8a5a 8f3d ed53 aebe 6b08 b3be 1bd5 c0bd
00000020: 1250 a83e 4354 4e3e 6603 a9bd 420c 173e
00000030: 0685 c63d 6335 a4be 0d72 99be 7baa 80be
00000040: 42c7 1e3f ca25 093e 31dd 633e 4057 e9ba
00000050: ae04 873e 4eff fb3d 1f08 08be 4e45 cc3d
00000060: 9ff0 15bf 1091 373f 7fe2 b23c 51aa 83be
00000070: 43fa d8bd 88c5 ad3d 8fb6 c1bd 2fdd b53e
00000080: bdd7 eebe e8c0 643c c36f 943d 1f56 debc
00000090: aaa0 713e f23a 973e a121 5ebe f73a 5bbc
000000a0: 3dc3 243e 2a3e 39be c801 e93e bed7 00bd
000000b0: 8906 e63e 06f5 933e 77b9 60be 0eaf 1c3d
000000c0: 5322 923e 827b bbbd 9388 3fbe 7d4a 5ebe
000000d0: 79f6 263e fca5 103e b469 cdbe b764 bdbe
000000e0: a0a5 cfbe 3826 15bd 6e4e 3a3e f2a2 e63e
000000f0: 2a54 5bbd 1b2d 0b3e c886 9f3e abc4 02bd

actor.2.weight f4 [64, 64]
-0.013516909 -0.25838158 0.30163586 -0.022886321 0.1335336 -0.046992768 0.1618025 0.037153035
-0.039741762 -0.3110514 0.19741836 0.21359366 -0.063625515 -0.0077416617 -0.17443436 -0.38012916
0.100021325 0.03528207 -0.02625213 -0.018647252 -0.045793545 0.25908262 0.067613654 0.10236667
0.31567684 -0.30188805 -0.1291906 0.19901012 0.32671145 -0.21235204 0.110502675 0.20815893
0.08676397 0.27694342 -0.08510207 -0.22944848 -0.19614536 -0.105611704 -0.01457715 -0.06934252
-0.15288837 -0.07769738 -0.0005915188 0.06890242 -0.09632726 0.034758586 0.08483491 -0.07811457
0.049577385 -0.10610576 0.19207516 0.03473902 0.18972301 -0.0171982 -0.17271182 -0.030145338
-0.0046226503 -0.10773562 0.12027425 -0.10208788 -0.24210238 -0.0046816785 0.14183816 -0.058714386
0.10571036 -0.20438664 -0.4282313 0.17606467 -0.06919486 -0.0004753552 -0.043913506 -0.02037238
0.09951886 0.20076229 -0.067148685 0.15600137 -0.095571496 -0.1349556 -0.145589 -0.022818409
0.15916385 -0.04061961 0.21055365 0.0019370554 0.123637736 -0.062516 0.06518581 0.18901694
-0.12548487 -0.0078556985 0.02366041 -0.079346925 -0.18628104 0.20864166 0.13691352 0.28357854
-0.07149268 -0.09259722 -0.039197378 -0.1618476 0.05211357 0.21411198 -0.038600482 0.103643924
-0.05484244 -0.08024183 -0.06607297 0.07604979 0.2654554 0.10343489 -0.11974632 0.17003332
0.006429117 0.1477747 0.06542084 0.055796314 -0.06334574 0.06370829 -0.15027015 -0.15819569
-0.13476656 -0.20033325 0.05750696 0.16238321 0.12241508 0.22055422 -0.102508634 -0.12621227
0.012135772 -0.408893 0.04359746 -0.11272659 0.072321214 -0.17361848 -0.011257334 -0.118975535
0.03269386 -0.37861365 0.015534861 0.047982607 -0.25562522 -0.07909645 -0.42423898 -0.17677389
0.06603809 0.04219082 -0.011355333 0.017389113 -0.021760643 0.23182878 0.2801124 -0.036668297
0.15160076 -0.036187265 -0.2087509 0.21091028 0.37557113 0.16129778 0.07804555 0.29718947
0.09114538 0.26499784 0.08224252 -0.4248643 -0.4271263 -0.20476173 -0.1013793 -0.17151159
-0.16220802 -0.19142538 -0.12132824 0.033080723 -0.13678977 0.14207914 0.25895655 -0.009798719
0.11574027 -0.07480847 0.1456685 -0.07830423 -0.09991822 0.08641553 -0.2029517 0.02381695
-0.10425545 0.0112696 0.13038874 -0.017514506 -0.25676164 0.1085827 0.14870219 -0.035020266
-0.032256633 -0.110857554 -0.13601728 -0.07997357 -0.11541761 0.12548661 -0.08711568 0.26530975
0.053117525 0.08786 -0.10135919 -0.10715572 0.19812529 -0.070017666 -0.11415116 0.021012412
0.10486645 0.04323769 0.17475715 0.104142725 0.09341495 0.17947048 -0.009539753 0.072769776
-0.43737465 0.10438558 0.2526191 -0.2886134 -0.2110705 0.037674695 0.030856393 0.09137961
0.00786285 0.06830767 0.059776954 0.021362714 0.29826775 0.09098739 0.0774155 -0.14830236
0.018881578 -0.11011845 -0.025827607 0.05058409 0.16205575 0.06063167 -0.09394356 0.2825776
-0.0107328 0.07937168 -0.14482787 0.06988447 -0.1391207 0.26056904 -0.22824633 0.02549829
-0.12792443 -0.103034474 0.2504872 0.16554861 0.0018179833 0.11699947 0.0901714 0.38430288
00000000: 0776 5dbc 974a 84be 0470 9a3e 187c bbbc
00000010: 08bd 083e 7d7b 40bd 8eaf 253e c82d 183d
00000020: 42c8 22bd 2142 9fbe 0a28 4a3e 4cb8 5a3e
00000030: 184e 82bd c4ad fdbb ec9e 32be 4aa0 c2be
00000040: fbd7 cc3d ef83 103d b50e d7bc 1fc2 98bc
00000050: 0392 3bbd 7aa6 843e 0779 8a3d 9ea5 d13d
00000060: 65a0 a13e 1291 9abe 8a4a 04be 4fc9 4b3e
00000070: b946 a73e d072 59be 3a4f e23d 9d27 553e
00000080: 4fb1 b13d 87cb 8d3e fe49 aebd 8bf4 6abe
00000090: 54da 48be f34a d8bd 00d5 6ebc 7303 8ebd
000000a0: c58e 1cbe ce1f 9fbd 2810 1bba b61c 8d3d
000000b0: 3a47 c5bd 055f 0e3d edbd ad3d 88fa 9fbd
000000c0: a811 4b3d fa4d d9bd 5aaf 443e 814a 0e3d
000000d0: c046 423e 3de3 8cbc 5edb 30be 5bf3 f6bc
000000e0: 9a79 97bb 7ea4 dcbd 5952 f63d 7313 d1bd
000000f0: b0e9 77be c468 99bb 063e 113e 7f7e 70bd
00000100: ac7e d83d bb4a 51be 2241 dbbe 4c4a 343e
00000110: 09b6 8dbd 1839 f9b9 a6de 33bd fae3 a6bc
00000120: 8bd0 cb3d a194 4d3e 4085 89bd d3be 1f3e
00000130: fdba c3bd cd31 0abe 4815 15be aced babc
00000140: d9fb 223e c060 26bd 609b 573e cbe4 fd3a
00000150: c835 fd3d 6308 80bd 2380 853d a88d 413e
00000160: 1b7f 00be 30b5 00bc 7ad3 c13c a480 a2bd
00000170: 75c0 3ebe 29a6 553e 0f33 0c3e 3531 913e
00000180: c16a 92bd 9ca3 bdbd 6e8d 20bd 61bb 25be
00000190: 0a75 553d 2c40 5b3e 8a1b 1ebd 4443 d43d
000001a0: 77a2 60bd d455 a4bd 4451 87bd febf 9b3d
000001b0: c5e9 873e acd5 d33d 8f3d f5bd 371d 2e3e
000001c0: 58ab d23b 4052 173e 5dfb 853d ad8a 643d
000001d0: 69bb 81bd 7e79 823d 6be0 19be 0dfe 21be
000001e0: 3f00 0abe 2924 4dbe 6b8c 6b3d c947 263e
000001f0: c2b4 fa3d f7d8 613e 0cf0 d1bd ca3d 01be
00000200: 1ed5 463c 6c5a d1be 4093 323d 33dd e6bd
00000210: 251d 943d 0bc9 31be ae70 38bc 72a9 f3bd
00000220: ffe9 053d a6d9 c1be ee85 7e3c 6989 443d
00000230: 4fe1 82be 52fd a1bd da35 d9be 3704 35be
00000240: fa3e 873d 48d0 2c3d b80b 3abc 9d73 8e3c
00000250: 6043 b2bc 8664 6d3e e46a 8f3e 7f31 16bd
00000260: 3b3d 1b3e 1939 14bd ccc2 55be ddf8 573e
00000270: dc4a c03e 3f2b 253e 58d6 9f3d 3829 983e
00000280: 6eaa ba3d ccad 873e c46e a83d d087 d9be
00000290: 4cb0 dabe 0fad 51be f39f cfbd bca0 2fbe
000002a0: dc19 26be 0405 44be f17a f8bd a77f 073d
000002b0: 9e12 0cbe 327d 113e f495 843e ce8a 20bc
000002c0: 3c09 ed3d 2f35 99bd 202a 153e f85d a0bd
000002d0: eca1 ccbd a0fa b03d 92d2 4fbe c41b c33c
000002e0: e283 d5bd 21a4 383c a084 053e 957a 8fbc
000002f0: 4376 83be 9b60 de3d 6345 183e 6971 0fbd
00000300: 881f 04bd 4909 e3bd 1d48 0bbe 2fc9 a3bd
00000310: 1160 ecbd 907f 003e b569 b2bd aed6 873e
00000320: c391 593d f2ef b33d 6895 cfbd 7574 dbbd
00000330: 5be1 4a3e 6c65 8fbd 15c8 e9bd 3922 ac3c
00000340: 39c4 d63d 011a 313d 8af3 323e c848 d53d
00000350: 5650 bf3d 1cc7 373e a04c 1cbc 5208 953d
00000360: 92ef dfbe 1bc8 d53d 4a57 813e 23c5 93be
00000370: dd22 58be c850 1a3d 8cc6 fc3c 3c25 bb3d
00000380: 2fd3 003c e4e4 8b3d aed8 743d dc00 af3c
00000390: 8db6 983e 9957 ba3d 058c 9e3d 93dc 17be
000003a0: 8aad 9a3c c885 e1bd 6b94 d3bc 4331 4f3d
000003b0: f1f1 253e ea58 783d 7b65 c0bd 03ae 903e
000003c0: a0d8 2fbc 9f8d a23d c24d 14be 971f 8f3d
000003d0: a875 0ebe 4e69 853e 68b9 69be cae1 d03c
000003e0: 9ffe 02be bd03 d3bd dc3f 803e 9385 293e
000003f0: 6649 ee3a 6b9d ef3d c8ab b83d 59c3 c43e

actor.2.bias f4 [64]
-0.2432905 0.0047986032 -0.13063 0.11155197 -0.085017845 -0.11501995 -0.1968391 -0.29965773
-0.11014773 -0.0115640005 -0.24438465 -0.41028607 -0.28961483 -0.039408814 0.20120037 -0.17898166
-0.0377672 -0.3340662 -0.21006927 -0.21368684 -0.28837472 -0.253167 -0.19216114 -0.23433651
-0.28988773 -0.26756448 -0.26777372 -0.18512103 -0.098375835 -0.2965324 0.24530625 -0.39052945
-0.06314341 0.10036787 -0.25615588 -0.16222587 -0.35026762 -0.23418967 -0.19100551 -0.052531485
-0.3098826 -0.22920023 -0.04425406 -0.079095334 -0.21238641 -0.38320896 -0.0070261555 -0.13320753
0.101753645 -0.20146677 0.020080369 -0.0004348903 -0.2026199 -0.15171808 -0.022211837 -0.2698971
-0.1194926 -0.0590382 -0.03926275 -0.20234606 -0.32675335 -0.2250936 0.01927059 0.030426696
00000000: 2521 79be 9a3d 9d3b dfc3 05be 5c75 e43d
00000010: d61d aebd 948f ebbd 3090 49be bd6c 99be
00000020: 2295 e1bd ef76 3dbc f83f 7abe 0411 d2be
00000030: 6548 94be 236b 21bd 7807 4e3e f846 37be
00000040: c8b1 1abd ba0a abbe 661c 57be b9d0 5abe
00000050: daa5 93be 1b9f 81be e4c5 44be e9f5 6fbe
00000060: 2a6c 94be 36fe 88be a319 89be 5e90 3dbe
00000070: 4579 c9bd 18d3 97be 9031 7b3e 7af3 c7be
00000080: 5551 81bd ab8d cd3d dd26 83be 8a1e 26be
00000090: 4756 b3be 6bcf 6fbe f396 43be 412b 57bd
000000a0: efa8 9ebe 77b3 6abe bf43 35bd bcfc a1bd
000000b0: d37b 59be f733 c4be aa3b e6bb 8e67 08be
000000c0: 3764 d03d 4e4d 4ebe 967f a43c fd01 e4b9
000000d0: 977b 4fbe fc5b 1bbe 99f5 b5bc f42f 8abe
000000e0: 89b8 f4bd 0ad2 71bd fad1 20bd ce33 4fbe
000000f0: 374c a7be f07e 66be 5bdd 9d3c 6841 f93c

actor.4.weight f4 [7, 64]
-0.011667816 0.20509608 0.06710609 -0.09303614 -0.00949847 0.11057906 0.074008666 0.041957807
-0.19909017 0.06743037 0.1583882 0.11416157 0.038209293 0.17901361 0.24227712 -0.22020237
0.08794198 -0.002598691 -0.021867646 0.019425262 -0.30915803 0.07436095 0.05915382 -0.11324791
-0.0027603726 0.15114327 -0.080066085 -0.0076091695 0.10571953 -0.072938845 -0.033402003 -0.0023905025
0.13651767 0.21633114 0.21185514 0.06676316 -0.09047906 0.108084075 0.0389568 0.11151717
0.21129178 0.069423504 -0.26480353 -0.030921727 0.031252645 -0.012573093 0.31171885 -0.020170411
0.1361495 -0.02120762 0.14397724 -0.025942829 -0.03198634 0.010277506 0.024683118 -0.07644112
0.15026332 -0.2338601 0.008768277 0.032921817 0.10850482 0.23044413 0.08662027 -0.03612254
0.09534819 0.09066677 0.18811424 0.055141967 -0.09169427 -0.0616951 -0.148496 -0.030434357
-0.035801098 0.05858606 -0.23826589 0.0211824 -0.021260962 -0.021583684 0.06352257 0.10592172
-0.1714503 -0.15221117 0.22612761 -0.118976064 -0.030563878 0.1433185 0.025419865 -0.025192572
-0.16490503 0.068699524 -0.1734353 -0.04202059 0.020904033 0.077766635 0.24953866 0.033715125
0.18614936 -0.10216537 -0.15732072 -0.27601403 -0.18099408 -0.05687282 0.2823723 0.04469684
-0.11253231 -0.024662754 -0.07340931 0.03866036 0.25892186 -0.14461611 0.19179767 -0.0016977796
0.1545481 -0.0026234915 0.13692458 -0.025664669 0.011057159 -0.1707388 -0.11122374 0.04877962
0.016911611 0.06927946 -0.064267896 -0.29810807 0.07429818 0.0409024 0.06545048 0.07210816
0.07747941 -0.005711727 0.14801621 -0.10394982 -0.117822416 -0.17705466 0.18987393 0.083023995
-0.31873766 0.17824087 0.1352701 0.0062213033 0.008502623 -0.12385749 0.27382356 0.10111319
-0.2012565 -0.08770384 0.03774196 0.124002054 -0.2438675 0.048417363 0.12304478 -0.1722485
-0.043462228 0.06841844 -0.026145931 -0.12222206 0.10324524 -0.11717673 -0.25982848 0.18897533
0.023702275 0.1964939 0.0662575 0.106770046 0.10511038 0.02867485 0.08566278 0.041065212
0.19536121 -0.074714124 -0.0841355 -0.060916133 -0.17551674 -0.14546333 0.37715715 0.1253069
-0.03695146 -0.02483194 0.08210756 -0.05148348 0.05184243 -0.042549327 -0.021033026 -0.056965556
0.13123968 -0.1863802 -0.09262889 -0.056194898 0.095130265 0.18700626 0.14731573 -0.092798784
0.25577646 -0.11101055 0.2700874 -0.1683169 -0.11028721 -0.011438207 0.08968866 0.20834666
0.08623085 -0.057518538 0.25248426 -0.08273373 0.2143365 -0.20136468 -0.39456972 -0.10782277
0.021426884 0.08781811 0.2671681 -0.21031116 0.09136657 0.11135422 0.022475459 -0.21828462
0.012006321 0.060224015 0.19857316 0.028182913 -0.23228312 0.18917908 -0.0081403665 -0.07013037
0.15416662 0.068761505 0.030292366 0.05980033 0.04569142 0.085459486 0.09420568 -0.10490957
-0.21185648 0.16692717 -0.35890386 0.14553113 0.18232803 0.18967889 0.08253924 0.017885678
-0.2162198 -0.3328341 0.00810716 -0.11982695 0.124453805 -0.00829066 -0.15099765 -0.012237031
-0.12611003 -0.11618122 -0.01166054 -0.27573475 0.02487307 0.04139804 -0.082799755 -0.17585191
00000000: 5e2a 3fbc b504 523e eb6e 893d bb89 bebd
00000010: 799f 1bbc 4677 e23d db91 973d f3db 2b3d
00000020: 4bde 4bbe ef18 8a3d 8430 223e 8bcd e93d
00000030: 5981 1c3d 584f 373e 7e17 783e bb7c 61be
00000040: ed1a b43d cd4e 2abb c723 b3bc ba21 9f3c
00000050: f649 9ebe 8e4a 983d 474b 723d 85ee e7bd
00000060: 5ee7 34bb 4dc5 1a3e b0f9 a3bd 5756 f9bb
00000070: 7b83 d83d f660 95bd 8ad0 08bd faa9 1cbb
00000080: 4acb 0b3e e985 5d3e 8ef0 583e 20bb 883d
00000090: 164d b9bd 2f5b dd3d 2a91 1f3d 1d63 e43d
000000a0: df5c 583e e92d 8e3d 5494 87be 904f fdbc
000000b0: c602 003d 60ff 4dbc 9d99 9f3e 6b3c a5bc
000000c0: c66a 0b3e 9abb adbc c56e 133e 0e86 d4bc
000000d0: 1c04 03bd fc62 283c 4034 ca3c 298d 9cbd
000000e0: a1de 193e 0679 6fbe d2a8 0f3c 07d9 063d
000000f0: c637 de3d 8cf9 6b3e f865 b13d 3af5 13bd
00000100: e945 c33d 80af b93d 05a1 403e 8bdc 613d
00000110: 35ca bbbd 00b4 7cbd 560f 18be 7951 f9bc
00000120: 2ca4 12bd f0f7 6f3d f9fb 73be b686 ad3c
00000130: 782b aebc 44d0 b0bc 1f18 823d 7ded d83d
00000140: ab90 2fbe 3fdd 1bbe ff8d 673e b9a9 f3bd
00000150: 1961 fabc 16c2 123e 523d d03c a760 cebc
00000160: dddc 28be 56b2 8c3d 0699 31be c81d 2cbd
00000170: ef3e ab3c 1d44 9f3d 1087 7f3e df18 0a3d
00000180: f09d 3e3e 143c d1bd af18 21be b651 8dbe
00000190: 8356 39be 79f3 68bd 1a93 903e 0914 373d
000001a0: 5777 e6bd 8b09 cabc 9f57 96bd 535a 1e3d
000001b0: 6891 843e 3f16 14be 9c66 443e 0888 deba
000001c0: db41 1e3e e2ee 2bbb f535 0c3e b63e d2bc
000001d0: 1629 353c 27d6 2ebe 46c9 e3bd 24cd 473d
000001e0: 388a 8a3c 64e2 8d3d e39e 83bd 9fa1 98be
000001f0: a529 983d 4689 273d e70a 863d 71ad 933d
00000200: 86ad 9e3d 7029 bbbb 9091 173e a5e3 d4bd
00000210: e14c f1bd d14d 35be 506e 423e 7c08 aa3d
00000220: 9531 a3be c684 363e 3f84 0a3e 13dc cb3b
00000230: 964e 0b3c ffa8 fdbd 9a32 8c3e 6f14 cf3d
00000240: 2f16 4ebe 129e b3bd 5097 1a3d caf4 fd3d
00000250: 67b8 79be 4951 463d e7fe fb3d e961 30be
00000260: 7305 32bd f81e 8c3d fe2f d6bc 8f4f fabd
00000270: 3e72 d33d 5afa efbd 3d08 85be c082 413e
00000280: 462b c23c b235 493e 03b2 873d 41aa da3d
00000290: 1c44 d73d 85e7 ea3c f86f af3d ff33 283d
000002a0: c50c 483e b803 99bd 3c4f acbd 3283 79bd
000002b0: a9ba 33be 57f4 14be be1a c13e 7450 003e
000002c0: 6a5a 17bd 5a6c cbbc 0228 a83d 57e0 52bd
000002d0: ba58 543d 3448 2ebd 744d acbc b754 69bd
000002e0: b263 063e 73da 3ebe 37b4 bdbd 9f2c 66bd
000002f0: a8d3 c23d 927e 3f3e efd9 163e 4a0d bebd
00000300: 22f5 823e 8059 e3bd e548 8a3e 445b 2cbe
00000310: 43de e1bd 5167 3bbc b0ae b73d d458 553e
00000320: cd99 b03d 8f98 6bbd 9e45 813e 4d70 a9bd
00000330: 077b 5b3e 8b32 4ebe 0b05 cabe 2fd2 dcbd
00000340: 6f87 af3c fbd9 b33d 42ca 883e cf5b 57be
00000350: 651e bb3d ae0d e43d 741e b83c 0186 5fbe
00000360: 29b6 443c 75ad 763d c356 4b3e dadf e63c
00000370: a0db 6dbe 29b8 413e 2c5f 05bc 83a0 8fbd
00000380: dbdd 1d3e d5d2 8c3d b227 f83c 31f1 743d
00000390: ed26 3b3d 6205 af3d e8ee c03d d4da d6bd
000003a0: e8f0 58be f5ee 2a3e 3fc2 b7be 1d06 153e
000003b0: 33b4 3a3e 2f3b 423e 550a a93d fc84 923c
000003c0: b968 5dbe 3b69 aabe e5d3 043c d567 f5bd
000003d0: a3e1 fe3d 8cd5 07bc 219f 1abe d47d 48bc
000003e0: fd22 01be 6bf0 edbd d90b 3fbc 1b2d 8dbe
000003f0: 9cc2 cb3c fe90 293d eb92 a9bd 8612 34be

actor.4.bias f4 [7]
-0.017408406 0.16677476 -0.046000738 0.10987712 0.0512146 -0.19019613 0.0837536
00000000: 139c 8ebc 01c7 2a3e 456b 3cbd 4107 e13d
00000010: 67c6 513d c6c2 42be 0287 ab3d

critic.0.weight f4 [64, 32]
-0.015608699 -0.08096485 0.08767921 0.17440578 -0.14667657 0.06776843 -0.2936239 0.118764706
-0.016197642 0.031889092 -0.12332483 0.022951106 -0.07727716 0.01556618 -0.005935639 0.013041602
-0.173388 -0.10725935 -0.3331593 0.045313384 0.24686234 0.04424075 -0.20703372 -0.31846914
-0.12373463 0.09701446 -0.07822746 -0.02237146 0.0022257613 -0.084536545 -0.044762865 -0.009862138
-0.17073806 0.115845375 -0.030915633 0.16797864 0.072258614 0.22145343 0.09664048 0.008551658
0.06026272 0.037564754 0.0124169355 -0.014614663 -0.045740772 -0.06655809 -0.06042813 -0.07468287
-0.12245061 0.059056982 0.17911789 -0.39807555 0.016648967 0.069168635 0.33713952 0.15063661
-0.0096022235 -0.07517451 0.08613754 0.03913659 0.012468628 0.02165788 0.08937427 -0.19590645
-0.034029055 0.11744436 -0.2744181 0.03735147 0.12508352 0.011645541 -0.07897243 0.021355381
0.16016188 -0.094529636 -0.15204148 -0.109169565 -0.088832565 0.07505968 -0.07468174 0.013777893
0.1265135 -0.03642252 -0.16010551 -0.51687276 -0.08923705 0.054718807 0.000954684 -0.10254933
-0.08784767 0.055448692 -0.0028297459 -0.08907393 0.12698732 -0.019130874 -0.009101114 -0.0046757907
-0.15662917 0.042788833 0.04089445 -0.17164809 0.05527747 0.013026733 0.24080803 0.2613329
0.11963562 -0.08467827 -0.03696137 -0.08026496 0.08581336 0.013256911 0.013932762 -0.006698552
0.08718287 0.2858709 -0.13145025 -0.7823702 -0.30583525 -0.12394499 -1.122679 0.246043
0.16145703 -0.020650418 -0.10298041 0.08629817 -0.038435478 -0.098846324 0.030885248 0.046642482
-0.16555275 -0.10661013 0.063756846 -0.011915573 0.2575754 0.092957854 0.24168493 0.030771488
-0.0006543861 0.012993283 -0.01771392 -0.011234709 0.009124671 -0.008310121 0.011730923 -0.00792369
-0.039649352 0.016963897 0.2387852 -0.08546124 0.11166203 0.03997508 -0.6495276 0.36637112
-0.14179675 -0.011557195 -0.078559145 -0.038920272 -0.012250974 0.0036500753 -0.050790235 0.06511134
-0.08567919 -0.011110941 -0.020834098 -0.046925273 0.16122156 0.10915744 0.016904656 -0.117050745
0.03156924 0.022170946 0.021934053 -0.024827069 0.12832043 -0.020746998 0.0056359265 0.00070182653
0.01795415 -0.18032128 -0.28499314 0.1297549 -0.2402934 -0.15115969 0.60750335 0.45929503
0.0710578 -0.09018264 0.17323288 0.014359084 0.048851553 0.03204611 0.019642137 -0.019009428
0.15267769 0.22125398 -0.0973853 0.16075316 0.1440461 0.11129308 0.07149496 -0.107571915
0.12742531 0.017906416 0.028803729 0.026347097 0.021643355 0.018662428 -0.019499695 -0.02522689
-0.17816213 -0.31545985 0.23854393 -1.8141627 -0.044147212 0.14173876 -0.8872261 0.04519598
-0.03870612 -0.023458315 0.05413842 0.009341105 0.036801882 0.029072275 0.054766525 0.03796202
0.06690544 0.1749908 -0.06906193 -0.0649085 -0.09855601 -0.2829429 -0.14139609 0.19944774
0.1427171 -0.007800096 0.051677816 0.031377304 -0.019230409 0.023409232 0.039265506 0.038632315
-0.108024724 0.00997695 0.1880746 0.49293548 -0.21826564 0.12725204 -0.59115416 -0.060168885
0.13281843 -0.065565236 -0.03359874 -0.05140233 0.0017071583 -0.012720109 -0.023958026 0.011279941
00000000: a1bb 7fbc e6d0 a5bd 2891 b33d 6e97 323e
00000010: 6232 16be 2dca 8a3d df55 96be e93a f33d
00000020: ebb0 84bc 239e 023d ba91 fcbd f503 bc3c
00000030: 7d43 9ebd 4b09 7f3c c07f c2bb 72ac 553c
00000040: a08c 31be caaa dbbd db93 aabe 879a 393d
00000050: 7bc9 7c3e ca35 353d a600 54be 630e a3be
00000060: 9568 fdbd 84af c63d b835 a0bd 5a44 b7bc
00000070: 14de 113b 7f21 adbd 4459 37bd ce94 21bc
00000080: f5d5 2ebe 5740 ed3d c842 fdbc 9802 2c3e
00000090: 53fc 933d b0c4 623e 72eb c53d 411c 0c3c
000000a0: 0bd6 763d 80dd 193d 6770 4b3c 5772 6fbc
000000b0: ad5a 3bbd 9c4f 88bd 7d83 77bd 55f3 98bd
000000c0: 63c7 fabd bce5 713d ae6a 373e 8fd0 cbbe
000000d0: 6a63 883c 49a8 8d3d 8d9d ac3e 7c40 1a3e
000000e0: a552 1dbc 18f5 99bd e168 b03d b04d 203d
000000f0: 3749 4c3c de6b b13c db09 b73d b39b 48be
00000100: 0d62 0bbd ab86 f03d 8780 8cbe dbfd 183d
00000110: e515 003e f0cc 3e3c 4cbc a1bd 7bf1 ae3c
00000120: 7a01 243e c198 c1bd c3b0 1bbe 4b94 dfbd
00000130: d9ed b5bd e4b8 993d bdf2 98bd acbc 613c
00000140: c18c 013e c82f 15bd b3f2 23be c651 04bf
00000150: eac1 b6bd d420 603d c243 7a3a 6205 d2bd
00000160: 7be9 b3bd 2b1e 633d 4273 39bb 656c b6bd
00000170: f708 023e 5ab8 9cbc d71c 15bc 6037 99bb
00000180: 6663 20be 5843 2f3d f080 273d 84c4 2fbe
00000190: a16a 623d 146e 553c 6196 763e 6dcd 853e
000001a0: 8503 f53d cd6b adbd ce64 17bd f561 a4bd
000001b0: eabe af3d 8433 593c 3d46 643c 877f dbbb
000001c0: ef8c b23d ac5d 923e e59a 06be 6a49 48bf
000001d0: 7096 9cbe dfd6 fdbd f2b3 8fbf b2f2 7b3e
000001e0: fe54 253e 112b a9bc 65e7 d2bd 18bd b03d
000001f0: 856e 1dbd f16f cabd 0f03 fd3c 300c 3f3d
00000200: a986 29be 6956 dabd f392 823d 8939 43bc
00000210: ece0 833e b060 be3d 417c 773e 7d14 fc3c
00000220: 1c8b 2bba c7e1 543c c81c 91bc c911 38bc
00000230: a57f 153c 2c27 08bc 0f33 403c 5dd2 01bc
00000240: 5c67 22bd dff7 8a3c 1c84 743e 4d06 afbd
00000250: 10af e43d e9bc 233d 7147 26bf ff94 bb3e
00000260: 2b33 11be 645a 3dbc 9ee3 a0bd dd6a 1fbd
00000270: 4fb8 48bc 1a36 6f3b 6c09 50bd 1859 853d
00000280: 9278 afbd aa0a 36bc 45ac aabc b734 40bd
00000290: 4417 253e f08d df3d a27b 8a3c 4db8 efbd
000002a0: bf4e 013d d89f b53c 0baf b33c 2362 cbbc
000002b0: 6e66 033e 9cf5 a9bc 94ad b83b c8fa 373a
000002c0: 9514 933c 24a6 38be 9fea 91be 78de 043e
000002d0: 790f 76be 9bc9 1abe 5785 1b3f b828 eb3e
000002e0: c086 913d adb1 b8bd f663 313e 5d42 6b3c
000002f0: 9118 483d c842 033d 8ce8 a03c a9b9 9bbc
00000300: 8a57 1c3e 6790 623e f271 c7bd 7a9c 243e
00000310: d280 133e a0ed e33d f36b 923d aa4e dcbd
00000320: c87b 023e 7ab0 923c ccf5 eb3c ded5 d73c
00000330: 684d b13c f3e1 983c d3bd 9fbc 9fa8 cebc
00000340: 2270 36be f483 a1be dc44 743e 7c36 e8bf
00000350: b5d3 34bd f723 113e 4021 63bf 6c1f 393d
00000360: 4f8a 1ebd a72b c0bc 3fc0 5d3d 6f0b 193c
00000370: 92bd 163d fb28 ee3c dd52 603d 107e 1b3d
00000380: b805 893d ca30 333e 5770 8dbd bfee 84bd
00000390: bcd7 c9bd e4dd 90be 23ca 10be 073c 4c3e
000003a0: 6e24 123e f397 ffbb 1eac 533d 7d85 003d
000003b0: 1789 9dbc b8c4 bf3c ded4 203d eb3c 1e3d
000003c0: 113c ddbd 5c76 233c a196 403e 0a62 fc3e
000003d0: 0781 5fbe 5c4e 023e e155 17bf a673 76bd
000003e0: 8e01 083e 1147 86bd d59e 09bd 408b 52bd
000003f0: bac2 df3a 0168 50bc 9f43 c4bc 80cf 383c

critic.0.bias f4 [64]
0.1332164 -0.17781484 -0.10986719 -0.12786016 -0.01530702 -0.08005363 -0.06774631 0.048950244
-0.050400577 -0.12925054 -0.0050242855 0.10685043 -0.017588904 -0.10289943 0.06842153 -0.101425424
-0.11108977 0.14193429 -0.020241136 0.10795478 0.13230228 -0.09210478 0.08143548 -0.044411685
0.07122036 -0.041039255 0.028728168 0.029902788 -0.073929206 0.1990622 -0.048951454 -0.002887
-0.070588805 -0.040025882 0.038733743 -0.089398645 -0.0603726 0.19845045 -0.14351648 -0.015415417
0.04959981 0.07717004 0.06929326 -0.22686392 -0.17268361 0.017484557 -0.24493295 -0.18651843
-0.06673963 -0.056469925 -0.19844866 -0.1548188 0.038872417 -0.12641168 -0.10473332 -0.085811354
0.1100788 -0.04730337 -0.123471186 -0.07681147 -0.021341521 0.19352393 0.15347679 -0.0935111
00000000: e169 083e 1815 36be 0d02 e1bd c6ed 02be
00000010: 4cca 7abc 28f3 a3bd 94be 8abd 0d80 483d
00000020: d670 4ebd 415a 04be c3a2 a4bb 66d4 da3d
00000030: 9b16 90bc f0bc d2bd 9620 8c3d 22b8 cfbd
00000040: 0983 e3bd 3957 113e bdd0 a5bc 6517 dd3d
00000050: 407a 073e 6ea1 bcbd a5c7 a63d 07e9 35bd
00000060: fbdb 913d c718 28bd 5657 eb3c b1f6 f43c
00000070: 3268 97bd f6d6 4b3e 5281 48bd d333 3dbb
00000080: dd90 90bd 2ef2 23bd 46a7 1e3d a316 b7bd
00000090: 4249 77bd 9836 4b3e fcf5 12be f290 7cbc
000000a0: 2c29 4b3d 530b 9e3d a0e9 8d3d 044f 68be
000000b0: f9d3 30be c63b 8f3c b4cf 7abe b0fe 3ebe
000000c0: caae 88bd 024d 67bd 2036 4bbe d288 1ebe
000000d0: af38 1f3d 1072 01be 6c7e d6bd ddbd afbd
000000e0: fe70 e13d 2ec1 41bd 76de fcbd 554f 9dbd
000000f0: 6ad4 aebc 232b 463e 0529 1d3e bf82 bfbd

critic.2.weight f4 [64, 64]
-0.114381656 -0.018416194 0.20804463 0.11508217 0.006246968 -0.018849878 0.09510468 0.08351982
0.26822126 0.1757692 0.00064197433 -0.084615506 -0.26777682 0.12567662 0.033973746 0.05854268
-0.056124784 -0.17970197 -0.121925026 -0.17026791 0.030814191 -0.16807248 -0.041303992 0.0027999305
-0.0209037 -0.019465579 0.074109286 -0.059411764 0.10243471 -0.2166495 0.08590946 -0.10006099
0.040025637 0.04056514 0.1411243 0.06756305 -0.04836415 -0.22583482 -0.22791837 0.099673204
0.094493516 -0.07715057 -0.072108865 -0.18093625 -0.04056753 0.1854983 0.12632236 -0.15268882
-0.055803314 -0.020229487 0.045935035 -0.10788863 0.06485113 -0.1007714 -0.07984325 -0.0207426
0.15904804 0.12750648 0.04067994 0.091627195 -0.060843073 0.019637246 0.016116695 -0.07668636
-0.061595812 -0.093131706 -0.02480346 0.10609736 -0.008906701 0.060893815 -0.04763163 -0.030311126
-0.12083747 0.19621521 0.18005392 0.14841272 -0.20129825 -0.02921294 0.28919834 -0.025158899
0.046763096 -0.108749606 0.006756858 -0.11112187 0.21806276 -0.07630041 -0.048413187 0.17330942
0.13976085 0.16101307 0.07591017 0.043739524 0.06225906 -0.09122825 0.05807164 -0.0043038577
0.09070141 -0.08538997 -0.14403073 -0.097727925 -0.119885206 -0.034898557 -0.12174744 0.28381255
0.02353035 -0.121003166 0.26958388 -0.15066606 -0.11068391 0.062270235 -0.030274894 0.014631929
-0.05366 -0.22580776 -0.1019434 -0.036108058 0.02695858 -0.21048656 -0.013796982 -0.08632197
0.16812134 0.022726309 0.028825354 0.20635845 0.008616044 0.17998356 0.16847616 0.08613354
0.08661385 -0.04626169 0.04500754 -0.1119775 0.05662397 0.004467038 -0.078613795 0.14935434
-0.19519839 0.01069644 0.028155826 0.017729 -0.16037872 0.14680514 -0.077935934 0.13032325
-0.083618075 0.1711473 -0.026661918 0.16337624 0.08119113 -0.23226975 -0.037471864 -0.0426561
-0.13117854 0.14960876 0.016663589 -0.08429447 -0.021066424 0.1710675 0.046214405 0.10319027
-0.0031991487 -0.05665571 0.038143225 -0.014683605 -0.043498475 0.057228368 -0.008537663 -0.018546192
0.046776332 -0.104375765 0.07019657 -0.1392236 -0.05471584 0.02973381 -0.093934454 -0.12724063
-0.07363271 0.06553787 -0.11642744 -0.064194314 0.07731359 0.1395872 0.10058175 0.028934365
-0.047398563 -0.00060148514 0.1668026 -0.13719636 0.081623286 0.117131524 0.089653865 -0.022178985
-0.08844287 0.0022280142 0.22818144 -0.036725074 -0.10826294 -0.041904695 0.010903665 -0.023878338
-0.04869783 0.5950064 0.017821772 0.40585163 -0.3086988 -0.12812747 -0.021635298 0.17046209
0.015500449 0.017553713 -0.033151083 0.28618565 0.6095528 -0.1776702 -0.025334215 0.007927244
-0.1847271 0.09222664 0.1955592 -0.10323177 0.07802911 -0.18757631 0.0074529946 0.0752188
-0.10610995 -0.06999387 -0.09965872 -0.011216836 0.14246617 -0.04473591 -0.42542988 0.03117321
0.07121765 -0.33683535 0.17029214 -0.25081974 -0.22506274 0.112985544 0.08509654 -0.007926036
-0.033661805 -0.05004243 0.2726865 0.12265896 -0.051871013 -0.05265524 -0.053697746 -0.034861755
0.35100088 -0.008550506 -0.11680481 0.25650406 -0.083035916 -0.06565209 -0.022976503 -0.13099052
00000000: ee40 eabd 8fdd 96bc a709 553e 33b0 eb3d
00000010: 5eb3 cc3b 0f6b 9abc 3ec6 c23d 700c ab3d
00000020: 4c54 893e d7fc 333e 2b4a 283a e54a adbd
00000030: 0b1a 89be 5fb1 003e 0e28 0b3d 73ca 6f3d
00000040: 1ae3 65bd cb03 38be d4b3 f9bd b65a 2ebe
00000050: 0b6e fc3c 311b 2cbe 602e 29bd 0a7f 373b
00000060: 3c3e abbc 4776 9fbc 9cc6 973d c059 73bd
00000070: 4ac9 d13d 5ed9 5dbe 4df1 af3d c7ec ccbd
00000080: ecf1 233d a227 263d e382 103e 7f5e 8a3d
00000090: 7d19 46bd 3e41 67be 6f63 69be 7721 cc3d
000000a0: d185 c13d 1e01 9ebd d0ad 93bd 5a47 39be
000000b0: 232a 26bd 44f3 3d3e a65a 013e 755a 1cbe
000000c0: 0492 64bd 4fb8 a5bc 6026 3c3d b7f4 dcbd
000000d0: abd0 843d 3c61 cebd dc84 a3bd 63ec a9bc
000000e0: 7ddd 223e 0f91 023e 02a0 263d 0aa7 bb3d
000000f0: 9636 79bd 4ade a03c 2907 843c bd0d 9dbd
00000100: e44b 7cbd d6bb bebd a030 cbbc 9349 d93d
00000110: 69ed 11bc cb6b 793d 6219 43bd 0a4f f8bc
00000120: a379 f7bd a4ec 483e 0e60 383e 81f9 173e
00000130: 2121 4ebe fa4f efbc ce11 943e 091a cebc
00000140: a98a 3f3d 1db8 debd a268 dd3b dd93 e3bd
00000150: d84b 5f3e 6443 9cbd e84c 46bd 0678 313e
00000160: 781d 0f3e 9ce0 243e cb76 9b3d 3728 333d
00000170: 5b03 7f3d e0d5 babd 87dc 6d3d 6007 8dbb
00000180: a9c1 b93d f0e0 aebd cb7c 13be 9425 c8bd
00000190: 6086 f5bd caf1 0ebd b956 f9bd e14f 913e
000001a0: b8c2 c03c 82d0 f7bd e606 8a3e 3448 1abe
000001b0: 3fae e2bd 130f 7f3d 0e03 f8bc c2ba 6f3c
000001c0: 97ca 5bbd 263a 67be b4c7 d0bd 0be6 13bd
000001d0: 3dd8 dc3c ca89 57be bd0c 62bc 93c9 b0bd
000001e0: 0028 2c3e 862c ba3c 2623 ec3c a14f 533e
000001f0: 4f2a 0d3c 9c4d 383e 0485 2c3e c866 b03d
00000200: 9a62 b13d e67c 3dbd d459 383d 7654 e5bd
00000210: 89ee 673d 3b60 923b 4500 a1bd 58f0 183e
00000220: 16e2 47be 1f40 2f3c 0ca7 e63c 683c 913c
00000230: 523a 24be 1654 163e e09c 9fbd 7573 053e
00000240: f43f abbd 3d41 2f3e 186a dabc 1a4c 273e
00000250: 8947 a63d 1fd8 6dbe 197c 19bd 2ab8 2ebd
00000260: ab53 06be 0a33 193e 1482 883c 94a2 acbd
00000270: 7e93 acbc 522c 2f3e 514b 3d3d 6c55 d33d
00000280: cfa8 51bb d10f 68bd 123c 1c3d 8193 70bc
00000290: 752b 32bd 4b68 6a3d 8ee1 0bbc 2fee 97bc
000002a0: 8a98 3f3d f6c2 d5bd 38c3 8f3d a290 0ebe
000002b0: b71d 60bd 5294 f33c b560 c0bd 5e4b 02be
000002c0: bfcc 96bd b838 863d 8271 eebd 4f78 83bd
000002d0: 9656 9e3d f2ef 0e3e cefd cd3d c307 ed3c
000002e0: ff24 42bd fcac 1dba 4dce 2a3e 347d 0cbe
000002f0: 1c2a a73d a7e2 ef3d 729c b73d b4b0 b5bc
00000300: 8921 b5bd e003 123b 65a8 693e 086d 16bd
00000310: f6b8 ddbd 42a4 2bbd 49a5 323c 819c c3bc
00000320: 6077 47bd 5752 183f f7fe 913c c9cb cf3e
00000330: c50d 9ebe d933 03be 823c b1bc 9d8d 2e3e
00000340: 98f5 7d3c cecc 8f3c 6ec9 07bd ed86 923e
00000350: a70b 1c3f 2def 35be b389 cfbc 45e1 013c
00000360: 1a29 3dbe 52e1 bc3d ac40 483e 2e6b d3bd
00000370: bacd 9f3d 0114 40be 4038 f43b 500c 9a3d
00000380: 2c50 d9bd f258 8fbd df19 ccbd d2c6 37bc
00000390: a7e2 113e 003d 37bd f2d1 d9be f65e ff3c
000003a0: 8fda 913d af75 acbe 1061 2e3e 726b 80be
000003b0: d976 66be f764 e73d 1847 ae3d 34dc 01bc
000003c0: f6e0 09bd 4bf9 4cbd 919d 8b3e 9f34 fb3d
000003d0: b376 54bd 05ad 57bd 2bf2 5bbd 33cb 0ebd
000003e0: 63b6 b33e 6c17 0cbc 5c37 efbd 8054 833e
000003f0: bc0e aabd 9a74 86bd 3839 bcbc 6122 06be

critic.2.bias f4 [64]
-0.02929867 -0.14020069 -0.004281134 -0.30131567 0.07192126 -0.08272 -0.051990226 0.08252845
0.15745409 0.078799345 -0.10174017 -0.17024212 -0.11270997 0.04710785 0.008295745 0.05661219
0.113193505 -0.104666896 -0.12403543 0.061245 -0.088833965 -0.17164163 0.041760862 0.053377345
-0.08909073 0.009524205 -0.15383169 -0.009263706 -0.10390537 0.020298943 0.09188626 2.082466e-05
-0.017507076 0.08183288 0.13030574 0.12857598 -0.0460697 0.020973762 -0.20894843 -0.12877075
-0.21099754 -0.06616791 0.09940672 0.18275467 0.057521515 -0.04623101 0.057598747 -0.008825317
0.115883 -0.06677699 0.16237725 -0.0022040813 -0.06733882 -0.07711287 0.026609583 -0.019845113
-0.098250955 -0.09587545 -0.045702398 -0.06538268 -0.11968788 -0.0073088566 -0.0713997 0.0046136817
00000000: c403 f0bc c590 0fbe c148 8cbb 0c46 9abe
00000010: 744b 933d 1a69 a9bd b4f3 54bd ad04 a93d
00000020: a53b 213e 8d61 a13d 265d d0bd f353 2ebe
00000030: 7cd4 e6bd 29f4 403d e0ea 073c 2fe2 673d
00000040: ffd1 e73d 995b d6bd 4a06 febd 0adc 7a3d
00000050: 95ee b5bd d3c2 2fbe 700d 2b3d 34a2 5a3d
00000060: 3375 b6bd 690b 1c3c 0e86 1dbe cdc6 17bc
00000070: 57cc d4bd f849 a63c dd2e bc3d 9eb0 ae37
00000080: 006b 8fbc ff97 a73d de6e 053e 6ca9 033e
00000090: 95b3 3cbd 2bd1 ab3c 94f6 55be 7bdc 03be
000000a0: bd0f 58be 0b83 87bd c095 cb3d 0a24 3b3e
000000b0: ae9b 6b3d ba5c 3dbd aaec 6b3d 1098 10bc
000000c0: 1154 ed3d 60c2 88bd 3946 263e 5972 10bb
000000d0: efe8 89bd 5aed 9dbd 57fc d93c 3892 a2bc
000000e0: cc37 c9bd 595a c4bd 7032 3bbd 5be7 85bd
000000f0: eb1e f5bd 227f efbb 023a 92bd 5e2e 973b

critic.4.weight f4 [1, 64]
-0.074229926 -0.060394045 -0.030433537 -0.1079884 -0.034948494 0.031413797 -0.04478796 -0.039252173
-0.070183 -0.03973783 -0.1172783 0.105441764 -0.014512982 0.09493767 -0.041791145 -0.045886483
-0.023929298 0.13897139 -0.03697734 0.029541537 -0.018742863 -0.060461912 0.037807394 0.005636135
0.041693106 -0.015027946 0.009063928 0.034631148 0.024867631 -0.0023882277 -0.0021799665 -0.034894235
0.031224243 -0.051364888 0.007944379 0.033800926 -0.03992297 0.013831521 -0.05429521 -0.007872084
-0.0005162907 -0.042103536 -0.019950313 -0.14886801 0.021790458 0.14484297 0.045425355 -0.0036191095
-0.06206394 -0.023429891 0.008500973 0.06867855 -0.072282724 -0.010884094 0.025161266 0.039096974
-0.03666269 -0.072946765 -0.024622843 -0.028194714 -0.08486777 0.11148622 -0.11128479 -0.01702885
00000000: dc05 98bd bf5f 77bd c14f f9bc 0629 ddbd
00000010: 2726 0fbd c1ab 003d 9473 37bd e3c6 20bd
00000020: 1bbc 8fbd 23c4 22bd 9b2f f0bd daf1 d73d
00000030: dcc7 6dbc ae6e c23d 312d 2bbd 77f3 3bbd
00000040: 6007 c4bc 844e 0e3e 8d75 17bd 1801 f23c
00000050: a28a 99bc e9a6 77bd eddb 1a3d 54af b83b
00000060: 64c6 2a3d c637 76bc df80 143c 64d9 0d3d
00000070: 34b7 cb3c d083 1cbb c5dd 0ebb 42ed 0ebd
00000080: fcc9 ff3c fd63 52bd 2429 023c d772 0a3d
00000090: 4586 23bd 9b9d 623c a764 5ebd eaf9 00bc
000000a0: af57 07ba c274 2cbd d76e a3bc db70 18be
000000b0: e781 b23c b751 143e f00f 3a3d 952e 6dbb
000000c0: c236 7ebd 0bf0 bfbc aa47 0b3c 57a7 8c3d
000000d0: f708 94bd 3353 32bc 001f ce3c 2624 203d
000000e0: 9e2b 16bd 1d65 95bd d8b5 c9bc 9af8 e6bc
000000f0: 27cf adbd e352 e43d 48e9 e3bd 1680 8bbc

exp_avg f4 [7]
0.002240432 0.0019397332 -0.0020049887 0.0017041545 0.0013258193 -0.0009918791 0.009046695
00000000: 36d4 123b a53e fe3a 2166 03bb f05d df3a
00000010: 1dc7 ad3a f101 82ba 9738 143c

exp_avg_sq f4 [7]
0.00017753043 0.00037336696 0.00026620703 0.00062364433 0.00049177255 0.0003640575 0.00029914672
00000000: 7627 3a39 77c0 c339 b491 8b39 107c 233a
00000010: 4cea 003a f8de be39 cbd6 9c39

exp_avg f4 [64, 32]
0.00013649628 0.00012408754 0.0002905368 0.00043012964 0.00017266504 -0.00043623164 -0.00028195136 -1.8508631e-06
-1.491699e-05 -0.00077655003 -3.14588e-05 0.000693618 -0.0005744369 -0.0008718478 0.0008715313 -0.0014013614
1.7860522e-05 2.3368824e-05 0.00039080787 0.00025618065 0.00026522393 -2.5047983e-11 -0.00017759038 0.00057241565
-7.804545e-12 -0.00014648405 0.0009070922 0.00033524822 0.0001900936 9.773347e-05 -0.00021675884 -0.0011437794
0.00048516647 -0.0024206343 -0.00044988442 -0.0013789635 -0.00060461584 0.0005235299 -0.0015148557 0.00013100739
8.679841e-05 0.001225111 0.00013919504 -0.00247211 -0.00018590492 -0.003676528 -0.0018887466 -0.0017726783
-6.582219e-05 9.227456e-06 -0.00096946536 7.096911e-05 -0.0005638319 4.8810515e-11 0.0005580858 -0.001115786
2.4344268e-11 0.001042031 -0.0026873297 -0.0012084031 -0.0043234196 -0.0019404147 0.0016706097 -0.0045179906
0.000102878046 -0.0021209894 -0.0007718063 -0.0022948366 -0.0004895869 0.0028552196 -0.007867523 0.0003023295
0.00024676125 -0.0005883692 0.0005064297 0.0011476895 0.0008116582 0.0009431083 -0.0018238446 -0.0007281792
4.07353e-05 0.00011473181 -0.0017749717 4.3368185e-05 -0.0026308289 1.9817785e-10 0.0019289468 -0.0045383344
8.4342255e-11 -2.6018668e-05 -0.0023260515 -0.0009859635 -0.0078009116 2.2325428e-05 0.008314964 -0.01473332
0.00025707434 -0.00022562982 8.167379e-05 0.00013362516 0.0003688334 -0.00021432634 -0.0012518348 -1.2172795e-06
-2.3189683e-05 9.5973075e-05 0.00049597485 0.0004276198 -0.000209737 -0.0008576181 0.0008940962 -0.0005990173
-5.1551913e-05 -8.356095e-06 -6.555473e-05 8.5577776e-05 0.0001526368 -1.9024126e-11 0.00041811285 0.00043523076
1.8212232e-11 0.0004477447 0.00044416357 -1.7826545e-05 -0.00014606623 0.0007975184 6.9322654e-05 -0.002152608
-4.679047e-05 -0.0008611147 0.000101320154 0.00058694824 -0.00050300534 -0.00015435494 -0.0033035604 6.3226726e-05
3.810107e-05 0.00071904145 0.00094745256 -0.0015256089 -0.00035934875 -0.0016688678 0.00042958435 -0.001964765
-2.6329199e-05 2.6484351e-05 -0.000110623936 7.984926e-05 -0.00023007432 3.5335575e-11 0.0011657889 -0.00081004674
5.0934836e-11 -0.00036022833 0.00027242908 -0.00019309163 -0.00022575767 -0.001340951 7.73262e-05 -0.008138441
6.6175206e-05 0.00062594196 0.00014707507 4.6599744e-05 0.0008056112 -0.00027794263 0.002812486 -3.2476844e-05
-2.6128393e-05 0.000637073 -0.00033790123 -0.00053893274 -4.007423e-05 3.3883465e-05 -0.00015923347 0.0012070852
1.083478e-05 -7.646524e-06 0.00028474466 5.8030895e-05 0.00021047973 -2.5182393e-11 -0.00043653484 0.00057672476
-1.906678e-11 0.00010275394 0.00031951853 0.00015319788 0.00062986364 0.0015961054 -0.00028458706 0.0060824514
-0.00025463584 0.0006113398 -0.00017712335 -0.00034048548 0.00085798884 0.00047421196 0.002230165 1.2474545e-05
2.6711175e-06 0.00015424448 -0.00024590507 0.00095347373 0.0011542387 -0.0005250539 0.0014185683 0.0013961312
3.634667e-05 -3.7801256e-06 0.000113596914 -0.00011844292 -0.00031186818 2.0216214e-11 -0.00037388847 -0.00046295504
-1.6294943e-11 0.00017697741 0.0002167559 0.00037531918 1.5971245e-05 0.0019752833 0.0011635324 0.0059708785
0.00072372716 0.00055920583 0.00013754575 -0.0008127079 0.00047286457 0.0015681444 0.0013111777 -6.5431605e-06
1.3895254e-05 0.0010523618 -0.0012708219 -0.0011649141 0.00021994878 0.00075518014 -0.0003339207 0.002414982
-4.8378504e-05 -2.2109332e-05 -0.000619027 0.00030572864 -0.0004970369 3.0298816e-11 9.7042874e-05 -0.0006923571
4.2394686e-12 0.0016178334 0.00012066029 -2.6187363e-05 -0.00129939 0.0010620307 0.0015709883 0.003314165
00000000: 7120 0f39 7f1d 0239 3053 9839 0683 e139
00000010: 6b0d 3539 05b6 e4b9 dfd2 93b9 2c6b f8b5
00000020: fc43 7ab7 6491 4bba a1f2 03b8 ebd3 353a
00000030: cf95 16ba b78c 64ba 7a77 643a e3ad b7ba
00000040: 2ed3 9537 2b08 c437 58e5 cc39 fc4f 8639
00000050: c10d 8b39 0b53 dcad 8e37 3ab9 2a0e 163a
00000060: 8c4c 09ad 8399 19b9 edc9 6d3a 41c4 af39
00000070: dd53 4739 42f6 cc38 c249 63b9 deea 95ba
00000080: f15d fe39 81a3 1ebb 77de ebb9 56be b4ba
00000090: 157f 1eba 7f3d 093a 1f8e c6ba 075f 0939
000000a0: 8b07 b638 e793 a03a e2f4 1139 2003 22bb
000000b0: 79ef 42b9 e8f1 70bb d28f f7ba 3759 e8ba
000000c0: 050a 8ab8 9fcf 1a37 b823 7eba 40d5 9438
000000d0: 1ece 13ba c1ab 562e 814c 123a 913f 92ba
000000e0: 6b22 d62d c294 883a e91d 30bb 4863 9eba
000000f0: 79ab 8dbb 8355 feba 5cf8 da3a a70b 94bb
00000100: 3bc0 d738 4c00 0bbb 0b53 4aba f864 16bb
00000110: 9f57 00ba a31e 3b3b c8e6 00bc fb81 9e39
00000120: bc5f 8139 ca3c 1aba ecc1 043a 126e 963a
00000130: 76c5 543a ed3a 773a 120e efba 47e3 3eba
00000140: 32db 2a38 2c9c f038 2ba6 e8ba 3ce6 3538
00000150: fc69 2cbb 1be6 592f b7d4 fc3a 4fb6 94bb
00000160: 7878 b92e aa42 dab7 ab70 18bb 723b 81ba
00000170: ca9e ffbb 7e47 bb37 7d3b 083c 0664 71bc
00000180: efc7 8639 0b97 6cb9 4848 ab38 bb1d 0c39
00000190: fb5f c139 cabc 60b9 9b14 a4ba 6861 a3b5
000001a0: 7787 c2b7 2745 c938 4f04 023a 2832 e039
000001b0: d9ec 5bb9 c7d1 60ba c861 6a3a 5f07 1dba
000001c0: 7239 58b8 2831 0cb7 6d7a 89b8 3878 b338
000001d0: 210d 2039 8656 a7ad 2836 db39 af2f e439
000001e0: 4d32 a02d 47bf ea39 a0de e839 378a 95b7
000001f0: 5b29 19b9 8e10 513a 5161 9138 c512 0dbb
00000200: e240 44b8 6ebc 61ba d87b d438 6edd 193a
00000210: 1edc 03ba 57da 21b9 8c80 58bb 9798 8438
00000220: b6ce 1f38 0e7e 3c3a 775e 783a f1f6 c7ba
00000230: f966 bcb9 e9bd daba d639 e139 49c3 00bb
00000240: 86dd dcb7 b62a de37 c6fe e7b8 bf74 a738
00000250: 1b40 71b9 5268 1b2e 62cd 983a 5159 54ba
00000260: 8703 602e 07dd bcb9 d0d4 8e39 a478 4ab9
00000270: 5db9 6cb9 d9c2 afba 302a a238 1857 05bc
00000280: 8bc7 8a38 4116 243a 2a38 1a39 1874 4338
00000290: a72f 533a d4b8 91b9 af51 383b bf37 08b8
000002a0: 4c2e dbb7 3f01 273a 5628 b1b9 2a47 0dba
000002b0: 6015 28b8 181e 0e38 e9f7 26b9 0f37 9e3a
000002c0: 07c7 3537 9249 00b7 c849 9539 3366 7338
000002d0: 39b4 5c39 b581 ddad b7de e4b9 582f 173a
000002e0: 92b6 a7ad 9a7d d738 0d85 a739 bea3 2039
000002f0: 6f1d 253a 6934 d13a a134 95b9 4d4f c73b
00000300: a580 85b9 5242 203a 30ba 39b9 3083 b2b9
00000310: a8ea 603a a79f f839 f627 123b c349 5137
00000320: 7341 3336 b0bc 2139 d2ec 80b9 8af2 793a
00000330: d349 973a c5a3 09ba 41ef b93a 64fe b63a
00000340: f172 1838 10ae 7db6 e13a ee38 8f64 f8b8
00000350: 3d82 a3b9 ded2 b12d 7606 c4b9 c6b8 f2b9
00000360: f354 8fad 0393 3939 f848 6339 7dc6 c439
00000370: fdf9 8537 c173 013b ab81 983a 5ca7 c33b
00000380: 82b8 3d3a ab97 123a 283a 1039 e70b 55ba
00000390: cfea f739 328a cd3a d3db ab3a 528d dbb6
000003a0: a91f 6937 67ef 893a b591 a6ba 08b0 98ba
000003b0: 0da2 6639 48f7 453a 1412 afb9 ad44 1e3b
000003c0: 06ea 4ab8 6e77 b9b7 3346 22ba 344a a039
000003d0: 954b 02ba 6f41 052e 7f83 cb38 4c7f 35ba
000003e0: bd29 952c 7b0d d43a 000b fd38 efac dbb7
000003f0: 4b50 aaba d633 8b3a 9fe9 cd3a 7632 593b
