logs/rsl_rl/franka_reach/2025-06-26_19-51-50/model_100.pt (torch, 172795 bytes, 36 tensors)

std f4 [7]
00000000: 23f3 323f b5af 243f 7b0f 293f d24e 1b3f
00000010: c1a7 243f 6102 3b3f 3cda 153f
0.6990225 0.6433061 0.66039246 0.60667145 0.6431847 0.73050505 0.58536124

actor.0.weight f4 [64, 32]
00000000: 5f48 62be d2b8 e33d 3103 adbe 5d1c 3b3d
00000010: cb01 6d3e 22c8 d43d 2239 fd3e fc82 a33e
00000020: 4458 183f f780 d1bb e1a1 11bd 7e0e c83c
00000030: 16f4 133e 3311 973d 8795 f8b9 59ec e93c
00000040: b5ee bdbb 2038 ebbe dfa6 35be 6481 e0bf
00000050: 87f8 ba3e cb61 bfbc 5563 acbf 3aa5 0b3f
00000060: 8986 16be 8e6b babd 67bf 2ebe 30b7 89be
00000070: df25 e2bc 975a c7bd d9b2 603d 2645 413e
00000080: a354 a13e 8bd5 3a3e 01ec 8b3e 988a 743f
00000090: 4c36 0c3f e16c 013f 2273 0bbe 4cf6 2ebe
000000a0: b97e 5c3d fed9 ff3d 0c78 183d b325 9d3d
000000b0: 3366 283e 0b60 35bd c6d8 f9bd 4453 153e
000000c0: 0845 843d 9bb1 153e d3bc 3cbf 08c8 92bf
000000d0: fb44 88bd 288a 143e 59ab be3e c2eb 173d
000000e0: 3e89 693d c025 8a3b cc70 323e 1fe3 b7bd
000000f0: df78 b0bd 4667 69bc b07d c63d 215c 0cbe
00000100: ec06 733f 6af6 0a3e efb9 5a3f d01e f7be
00000110: 8ebe ddbd 3821 1cbe 3e7c 8d3e c788 cb3e
00000120: ac46 263f 7444 2cbe d9e7 223d 6c63 83be
00000130: 4bde 21bd 5a51 10bd da01 d03d b7cb b83d
00000140: 3c93 803e c21a 4abe b014 8b3e 9965 5bbf
00000150: 0298 0e3f 292b 29bd a08e e4bd d366 60be
00000160: 6d86 b9bd 606d 583d a94e 6d3e ab56 923c
00000170: 8761 203e e69f ca3d 7907 8abe 25da 10be
00000180: c30c 67be f39e 3dbe a699 9f3c c850 c4bd
00000190: 6285 27bd 8c64 af3e fc9d 973e bb5b 38be
000001a0: 05b0 6a3d 07e8 dcbd 68de 2dbe b9d7 6fbd
000001b0: 79e8 10be 012e 7fbe f05d d63d 2724 833d
000001c0: 559a 103f 4501 a6be 5402 6dbf 794e 9abc
000001d0: 64ea 483f 1541 20be 6945 e9be 2b8d 46bd
000001e0: 980f beb8 fe97 803e bc34 413e bc28 63be
000001f0: 2096 143c 4213 94be 322d 4ebe 1078 23be
00000200: 5b27 dfbd f964 ebbc 54e5 7a3d aff9 763e
00000210: f28e b1be 2bdf 473f a59c e1bd b8a8 0dbe
00000220: a0f6 fabd 503f d4bd 9937 5ebd 44da a03b
00000230: b594 553c 8115 303c 7a2f 8e3d 9377 71be
00000240: 4550 ca3e 86c1 3f3f 20d8 8dbe b4fc 1f3f
00000250: f81e 803f f7d2 0dbe e03e bebd b8fa 29bf
00000260: c103 9cbc 04ce 13bf fd8e 9c3e 1b72 c83d
00000270: 1703 abbd 3ed7 e83d 3f3e 97bd 154d 703d
00000280: 8be3 823e a522 7cbe 04eb 2abe cd73 db3d
00000290: 4674 0d3e eb8d c93d 14ff 63bd 9b63 ac3e
000002a0: 1714 703e 5c13 23be 0582 86be ece5 b9bd
000002b0: 61ad 923e 2821 b8bc b372 8e3c c94e 583e
000002c0: e68f eb3e 7613 573f e92d 03bd 572c fabf
000002d0: 9086 44bf 84e1 b43d 4aaa 323e 3c61 143f
000002e0: b1c1 bd3d a2a3 02be f200 833e 0e33 ff3c
000002f0: 75f0 ddbd 0e6a 223e abdc 6f3e 3895 8bbd
00000300: 48b6 813e d962 90bd 2f05 093f 9e33 8cbe
00000310: e5e4 41be a628 253e 4dc9 b6bc 02b9 833e
00000320: ca5b 853d dfbe 1f3e ea0f cc3b 5214 a53d
00000330: 69f7 fcbc 6209 aebd 3700 313d 8b1b 26be
00000340: b12c 543e 1ddc 663e e467 0b3e f5d1 1c3e
00000350: 4efe 42be d73e dfbd be02 c7be 10be 133f
00000360: 5a97 c73c 9e98 c23d 12ef 0d3d 0b0f dc3d
00000370: 3087 febc 3370 df3d d50d 8b3d 5884 79bb
00000380: f1d4 993f aebb d03d a9b1 743f df00 e4bd
00000390: 31ab ebbe 0854 a5be 3ca4 16bf bfd8 a33e
000003a0: 4c33 403e ee9d 723c 4ac7 0dbd f0e8 9c3d
000003b0: 307e 283e fc49 b73d b31d 93bd 5720 f5bc
000003c0: 192d 05be 9584 2abf c4d0 4dbe e954 07bf
000003d0: 3db7 02bf 0022 01be 76a8 62bf 0a3f e33e
000003e0: 6224 73bd e8b9 3abd f10e 7eba 10a7 b7be
000003f0: bd15 8ebc ba23 02be b709 df3d 01f2 c4bd
-0.2209792 0.11119236 -0.33791497 0.045681346 0.23145215 0.10389735 0.4945765 0.3193587
0.5950968 -0.0063935476 -0.03555477 0.024420973 0.1444858 0.07376327 -0.00047413653 0.028555082
-0.0057962784 -0.45941257 -0.17739438 -1.7539487 0.36517736 -0.023362061 -1.3467814 0.5454899
-0.14699759 -0.09102546 -0.17065202 -0.26897573 -0.027605949 -0.097340755 0.054858062 0.18874034
0.31509885 0.18245523 0.27328494 0.9552398 0.5477035 0.5055676 -0.13618138 -0.17086142
0.05383179 0.124927506 0.03722386 0.07673206 0.16445236 -0.044281047 -0.121995494 0.14582545
0.06458479 0.14618532 -0.7372562 -1.1467295 -0.06653782 0.14505827 0.37240103 0.03709007
0.05701565 0.004215926 0.17425841 -0.08978867 -0.08616804 -0.014245814 0.09691942 -0.1370702
0.94932437 0.13570562 0.8543996 -0.48265696 -0.10827361 -0.15247047 0.27633852 0.3975279
0.64951587 -0.16822988 0.03977189 -0.2566179 -0.039518636 -0.035233833 0.10156603 0.090232305
0.2511233 -0.1973677 0.2716422 -0.857019 0.55700696 -0.041300926 -0.11160016 -0.21914224
-0.09058843 0.052838683 0.23174538 0.017863592 0.15662204 0.098937795 -0.26958826 -0.14145716
-0.22563462 -0.18517666 0.019482445 -0.0958572 -0.04089869 0.342564 0.2961272 -0.18003742
0.05729677 -0.10786443 -0.16979373 -0.05855534 -0.14151181 -0.24919893 0.10467136 0.0640338
0.5648549 -0.32422844 -0.9258168 -0.018836247 0.7848265 -0.15649827 -0.45560768 -0.048474472
-9.0628106e-05 0.2511596 0.18867773 -0.22183508 0.009068996 -0.28920943 -0.20134428 -0.15963769
-0.10896178 -0.028734671 0.06125386 0.24118684 -0.3467937 0.780749 -0.11016206 -0.13833892
-0.12254071 -0.103636384 -0.05425224 0.004908832 0.013035943 0.010747314 0.06942649 -0.2358077
0.39514366 0.7490467 -0.27703953 0.6249497 1.0009451 -0.13850008 -0.09289336 -0.6639819
-0.019044759 -0.5773623 0.3057784 0.09787389 -0.08350199 0.11369179 -0.073849194 0.05866726
0.25564227 -0.24622591 -0.16691214 0.107154466 0.13813886 0.09841522 -0.055663183 0.33669743
0.23445164 -0.15925354 -0.26271072 -0.09077057 0.28647903 -0.022476748 0.017388677 0.21123804
0.46008223 0.8401407 -0.032026205 -1.9544781 -0.76767826 0.08832076 0.17447773 0.5796087
0.09265459 -0.12757733 0.2558666 0.031152274 -0.10836879 0.15860769 0.23424022 -0.068155706
0.25334382 -0.07050104 0.53523535 -0.2738313 -0.18934973 0.16128787 -0.022312785 0.25727087
0.06511648 0.15600155 0.006227483 0.080605164 -0.030879693 -0.084978834 0.043213096 -0.16221444
0.20720173 0.22544904 0.1361385 0.15314467 -0.19042322 -0.109006576 -0.3886928 0.5771189
0.024364162 0.09501766 0.034651823 0.10745057 -0.031070322 0.10910072 0.067897476 -0.0038073268
1.201811 0.10192047 0.9558359 -0.11132979 -0.46029046 -0.32290673 -0.5884435 0.32001302
0.18769568 0.014808161 -0.034613885 0.07661617 0.16454387 0.08949658 -0.07183399 -0.029922647
-0.13005485 -0.66608554 -0.20099169 -0.5286394 -0.5106085 -0.12610626 -0.885383 0.44384032
-0.05936087 -0.04558745 -0.00096915575 -0.35869646 -0.01734435 -0.12708941 0.10890525 -0.09616471

actor.0.bias f4 [64]
00000000: bb67 22be b13a 5e3d 328b c2be d055 d53c
00000010: 8b1a 8c3d a6e2 bebe 6c43 a2be ba37 bbbd
00000020: 2f52 a93e 19ca 283e 5ed5 c0bd 14fd 293e
00000030: acc1 b93d e603 9bbe 5a94 9bbe 9ce3 8bbe
00000040: 6d12 173f afa8 033e f61e 523e e405 56bc
00000050: 5f59 8e3e e078 263e 96aa 05be 7e6f d23d
00000060: bee4 11bf e77b 2e3f 1b5f 213c 86d2 77be
00000070: f086 c8bd 2c01 b73d ab27 89bd 5bfb b53e
00000080: 9b8b e0be fb17 78bc ce97 c83d 686f 5fbd
00000090: ed32 473e e971 8f3e a678 84be c3d5 b0bc
000000a0: ddd1 353e d639 42be 03d3 ea3e 2b99 cb3c
000000b0: 8393 da3e ecfb 9c3e ac27 58be d03e 0f3c
000000c0: 6bd3 9d3e eb3b d6bd f578 1ebe 102b 63be
000000d0: 4031 e73d ee3c bd3d 061c cfbe c947 bfbe
000000e0: 1931 c4be 45a7 943b f82e 2e3e 336a dc3e
000000f0: 30be 19bd 2a86 1a3e 1a7a 9e3e 7b19 21bd
-0.15859883 0.05425519 -0.37996823 0.026041895 0.06841 -0.37282294 -0.31692064 -0.091414884
0.33070514 0.16483344 -0.094156966 0.16600448 0.09070143 -0.30276412 -0.3038662 -0.2732209
0.5901249 0.12857316 0.20519623 -0.013062928 0.2780256 0.16257048 -0.13053355 0.10275172
-0.5698966 0.6815781 0.009849335 -0.24201402 -0.09791362 0.089357704 -0.06697019 0.35543332
-0.4385651 -0.015142436 0.097945794 -0.054549605 0.1945302 0.28016594 -0.25873297 -0.021586305
0.17755838 -0.18967375 0.45864114 0.02485331 0.42690668 0.3066095 -0.21108884 0.008743003
0.30825362 -0.10460647 -0.15475829 -0.22184396 0.112886906 0.09240137 -0.40451068 -0.37359455
-0.3831871 0.0045365416 0.17010105 0.43049774 -0.037534893 0.15090242 0.3095253 -0.03933094

actor.2.weight f4 [64, 64]
00000000: bb2c 87bc 078d 87be 1492 803e 724a 97bd
00000010: da00 183d bc56 8cbd 8223 213e 195e 073c
00000020: f89c 57bd b41c 77be 0caf 173e 8d42 543e
00000030: 5549 91bd f716 88bd 53de 45be 4598 b6be
00000040: 657e da3d e84e 843c 6550 9f39 9a84 8fbd
00000050: afea f7bc 4d80 533e 3d16 8f3d a50d d53d
00000060: 6fbb 923e 0948 9fbe a830 26be f8cb 0d3e
00000070: fecf 993e 184a 57be 812d d23d d3f4 333e
00000080: 6f1d d63d 1ea9 2a3e 1c61 abbd b7ab 60be
00000090: 79f2 06be fe2f b7bd 5fb9 76bd e875 d3bd
000000a0: 171a 18be 8d7b febd eaf7 faba 5707 8d3d
000000b0: 711a 7abd ccc9 253d 9261 f43c 61ef d6bc
000000c0: 81c8 fb3c ad83 42bd 6d58 1a3e 5043 87ba
000000d0: 3465 d83d 9162 a3bc 805a 14be 832b 86bd
000000e0: bd6e d7bc be28 eebd cd70 de3d 10e5 f9bd
000000f0: 1685 86be 8207 2bbc da5e b03d d21d a7bd
00000100: c53d e83d 189a 26be 8489 b8be 4af1 393e
00000110: ad37 2abd 0a28 34bd a72d 75bd 2fc0 16bd
00000120: 59e7 f13d 6117 dc3d 4070 adbd ea59 2b3e
00000130: c225 a5bd 95e1 a8bd 461e d9bd 6353 c9bc
00000140: 5331 283e d9f6 32ba c7e7 2d3e 9f9d ab3c
00000150: a798 f43d 590b d13c d7de 733d 148f 483e
00000160: 5bc7 8dbd dc4c 72bb 03cf 803c d6e4 88bd
00000170: b4be 10be bb06 053e bf12 f23d a2d9 713e
00000180: 339d 53bc 49a4 203d 684d dbbc 9cb5 f0bd
00000190: fe1f ad3d d163 3e3e 4d93 0f3b ef4e ee3d
000001a0: 1829 46bd cd3c d8bd 1683 87bd 04dc 943d
000001b0: d759 6d3e 9cce dc3d c0c3 9bbd f9fe 153e
000001c0: da14 a73c 638a b73d f09e 923d 165a 683d
000001d0: 493f 7b3d d298 09bd eb03 8dbd dc4b 02be
000001e0: aa2b 25be 22e1 2dbe 0710 a03d 358f f43d
000001f0: 7f82 683d 1b47 553e 56dc f1bc f279 0dbe
00000200: 6945 0cbc e0cb bdbe 7630 c03a 032b 37be
00000210: bd9d 03bd 67fb 3dbe 0139 60bc 68cd 06be
00000220: ad5f 203d 1c59 8ebe b4db d4bc 1c4e 6a3d
00000230: e20b 84be d9e1 27be 686a ecbe ac12 04be
00000240: e4f1 b03d ce1d 3f3c 94f0 403c c17e 2abd
00000250: 9d8f 73bc e573 203e d45e 913e 49b5 41bd
00000260: 2123 ed3d 7f2f 53bd e8c0 6bbe 9f54 083e
00000270: 4c41 ab3e 56b8 213e 911c 983d 062a 853e
00000280: fe5a bd3d afd4 103e 8c29 983d 0a83 e4be
00000290: 38ca b6be 9bc4 5cbe 38e8 29be 6619 4ebe
000002a0: bb66 23be f530 76be 16b7 0ebe 69c2 cb3c
000002b0: 8472 e5bd 9d5a 073e d64a 493e 0be3 26bc
000002c0: 420a ef3d 8ff2 3cbc 8bf9 093e 1074 ccbd
000002d0: 3753 20be c818 b43d 0a67 25be 87b4 d3bc
000002e0: 4625 00be 595d 21bb c2a8 ec3d 0776 13bd
000002f0: 44f4 89be 0575 a93d d5fa 983d e0d7 eabd
00000300: 3123 d5bc b450 04bd c2cd a0bd 87a7 8fbd
00000310: 9f83 01bd c2fa 083e 1239 a6bd d523 5d3e
00000320: df2f b73d bb81 c73d 1612 13be 854b cdbd
00000330: 0bb8 2a3e 5174 bebd 43bf 1bbe 225a 86bb
00000340: 89e7 ef3d cfeb 883d 66d6 263e 2b6b 193e
00000350: 7cdf b63d 6649 323e 6d15 13bb 5462 a53d
00000360: 0650 d1be 4c8a 293e b7e1 6f3e 6f4e 6dbe
00000370: 375a 40be 1331 3b3d 7812 bc3d fcce 553d
00000380: d221 d83c bc95 d73d 1bb1 aa3d be87 c53c
00000390: 7893 953e c26a fa3d 6036 603d c725 e5bd
000003a0: fe73 943c a768 c0bd 3441 8c3c 8320 713d
000003b0: 6931 d63d 71f1 923d 4001 c5bd a7c7 603e
000003c0: b9be 33bc fb1b 883d 39d0 f6bd b4db 8e3d
000003d0: 279c d2bc 61a5 973e e1f1 51be 6369 b53c
000003e0: dfae fabd 9806 b4bd 6284 673e c146 563e
000003f0: 264e 363d 1267 1f3e 6076 023e ef1d c53e
-0.016500821 -0.26474783 0.2511145 -0.07387246 0.037110187 -0.06852481 0.15736201 0.008262181
-0.05263993 -0.24132043 0.14812869 0.20728512 -0.07094065 -0.06645005 -0.19323091 -0.35663047
0.10668639 0.016150907 0.00030386742 -0.070077136 -0.030263273 0.20654412 0.069866635 0.10402993
0.28658625 -0.31109646 -0.16229498 0.13847339 0.30041498 -0.21024358 0.102625854 0.17573862
0.10454833 0.16666076 -0.083681315 -0.21940504 -0.13178433 -0.08944701 -0.060235377 -0.10325223
-0.14853702 -0.12425909 -0.001914737 0.068861656 -0.061060373 0.04047565 0.029831681 -0.026237192
0.030735256 -0.047488857 0.15072794 -0.0010319743 0.10566178 -0.019944461 -0.14487648 -0.06551268
-0.026297921 -0.11628865 0.10861359 -0.12201893 -0.26273412 -0.010438802 0.086118415 -0.08159985
0.113399066 -0.1626972 -0.36042416 0.1815845 -0.041557003 -0.043983497 -0.05985799 -0.036804374
0.11811704 0.10746647 -0.084686756 0.16733518 -0.08063842 -0.08246151 -0.10601477 -0.024575895
0.16425066 -0.00068269443 0.16982947 0.020949183 0.119431786 0.025518106 0.05953869 0.1958583
-0.0692279 -0.0036972081 0.01572371 -0.06684272 -0.14135247 0.12990849 0.11819982 0.23618177
-0.012915897 0.039219175 -0.026770309 -0.11753389 0.08453368 0.18592764 0.0021907866 0.11636149
-0.048379034 -0.10558472 -0.066167995 0.07268527 0.23178802 0.10781595 -0.07605696 0.14648046
0.020395685 0.08961942 0.07159221 0.056726538 0.06133965 -0.033593006 -0.06885513 -0.1272425
-0.16129938 -0.16980413 0.07815557 0.11941377 0.056765076 0.20827906 -0.02952401 -0.1381605
-0.008561471 -0.37069607 0.001466288 -0.17887501 -0.032132853 -0.18552934 -0.013685466 -0.13164294
0.039153744 -0.2780236 -0.025983669 0.057203397 -0.25790316 -0.16394748 -0.46174932 -0.12897748
0.08639887 0.011664821 0.011776108 -0.04162479 -0.014865783 0.1566921 0.2839266 -0.047292028
0.11578966 -0.051558968 -0.23022807 0.1331353 0.33448255 0.15792975 0.074273236 0.26008624
0.09245871 0.14143632 0.074297994 -0.44631225 -0.35701156 -0.21559374 -0.1659249 -0.20126876
-0.15957157 -0.24042113 -0.13937029 0.024872975 -0.11203483 0.1321816 0.19657454 -0.010185967
0.116718784 -0.01153244 0.134741 -0.09983075 -0.15656744 0.08793789 -0.16152588 -0.025842918
-0.12514219 -0.002462229 0.115556255 -0.03600123 -0.26944172 0.08274273 0.074697174 -0.11466956
-0.026017757 -0.032303527 -0.07851745 -0.07014375 -0.031619664 0.13376907 -0.08116354 0.215957
0.089446776 0.09741541 -0.14362368 -0.1002417 0.1667177 -0.09299529 -0.1520968 -0.0041001
0.11714084 0.06685602 0.16292724 0.14982288 0.08929345 0.17410812 -0.002244319 0.08075395
-0.40881366 0.16556662 0.23425947 -0.23174451 -0.18784414 0.045701098 0.0918321 0.05219935
0.026383314 0.105266064 0.083345614 0.024112578 0.29214072 0.12227394 0.054739356 -0.11188846
0.018121716 -0.09394961 0.017120935 0.058868896 0.10458643 0.071749575 -0.09619379 0.21951161
-0.010970765 0.06645962 -0.12051434 0.06975499 -0.025709225 0.29618362 -0.20502426 0.022144979
-0.12240385 -0.0879032 0.22609094 0.20925428 0.044508122 0.15566662 0.12740469 0.384994

actor.2.bias f4 [64]
00000000: 93fe 6fbe 4d46 db3c ad75 efbd 6b62 c13d
00000010: dd0f a3bd 0bea d2bd b71f 4cbe cd80 90be
00000020: d3a9 d9bc 5c30 753c c97b 85be d0e4 b9be
00000030: 8e8d 89be 73fb 9bbc 8579 443e 4f1e 4cbe
00000040: 2115 e8bc c648 abbe f572 5abe 9d36 5ebe
00000050: 2c11 a5be 15ba 69be 0b1a fabd a487 64be
00000060: 3042 8cbe c992 98be 21df 99be 4217 3dbe
00000070: 1744 e2bd 8f5e 9bbe 668e 743e 3903 c1be
00000080: 8687 94bd 280a f23d 6e31 71be f76d 34be
00000090: 621d bcbe d125 4ebe ca7b 34be c42c 4fbd
000000a0: 9bb2 74be c013 7fbe 2b06 6bbd e9a3 29bd
000000b0: 4c7e 5cbe e73b a5be b034 4ebc 7db7 11be
000000c0: 4c94 d63d 7902 50be 7707 b63c b136 ffbc
000000d0: c6a3 2bbe f925 27be d915 0fbd 4399 8cbe
000000e0: 6ac7 c9bd dbac f4bd 6351 8fbd 95f1 40be
000000f0: b325 b9be 0400 5bbe 28b3 c73c 990c 8e3c
-0.23436956 0.02676692 -0.11692367 0.094426 -0.0796201 -0.102985464 -0.19933973 -0.28223267
-0.026570236 0.014965143 -0.26071003 -0.36307383 -0.2686581 -0.019040799 0.19186981 -0.19933437
-0.028330388 -0.3345396 -0.21332915 -0.21700521 -0.32239664 -0.22824891 -0.122119986 -0.22317368
-0.27394247 -0.29799488 -0.30053046 -0.18465903 -0.11048143 -0.3034558 0.23882446 -0.3769777
-0.072524115 0.118183434 -0.23554012 -0.17620073 -0.36741167 -0.20131613 -0.17625347 -0.0505798
-0.23896258 -0.24909878 -0.05737893 -0.041416083 -0.21532553 -0.32272264 -0.012585804 -0.14230151
0.10477504 -0.20313443 0.022220356 -0.031154009 -0.16761693 -0.16323079 -0.034932945 -0.2746068
-0.09852488 -0.11947032 -0.06997945 -0.18842156 -0.36161575 -0.21386725 0.02437742 0.017339991

actor.4.weight f4 [7, 64]
00000000: 0c82 67bc f6d7 be3d 877b 033d 0b46 7bbd
00000010: 9dca a3bd 6c5f 043e 54b2 ad3c ca77 c03d
00000020: 2d9e 96bc c97d f43d 5aac 213e 0078 053e
00000030: 7348 d83d 92d1 cf3d 7cc1 473e 3326 11be
00000040: c3b2 d83d 9657 f53c d87d 7bbd c9d2 f23c
00000050: dc1d d0bd 7bc6 1f3d e962 823d b5e4 2abe
00000060: 1451 22bd d2b0 6f3e 9117 79bd ad1a 99bc
00000070: 4f58 0e3e 1183 8ebd 2f38 e3bc e730 c73d
00000080: 6aa0 023e 7385 5b3d e98e 493e 8a1b 3a3c
00000090: dadd 1ebe 4955 033e b294 833c bfde 6b3e
000000a0: a73f 643e 4052 f53d 5284 92be 1e84 403d
000000b0: 273c f4ba fe2c c13c 8001 493e d20e 443d
000000c0: c26f e03d ec7a 003e 64a9 153e 5ab3 533c
000000d0: 2736 87bd 5fc2 3e3a b5c3 823d 636b 9cbd
000000e0: d694 2e3e 6a77 84be 41d7 4d3d e845 0cbc
000000f0: 3141 4b3e 6e58 793e 9334 a53d e4b9 e03c
00000100: 7d80 8c3d e0f9 573d 1f85 0e3e bce8 5c3d
00000110: 0be6 9dbd 4746 b0bd 617e 2fbe 3ee3 1abd
00000120: 0154 63bc e4cb 0a3d 1267 83be a5a9 47bc
00000130: ff79 c7bd 845b 4ebd e518 c23c eff4 9f3d
00000140: 4525 16be 023f 1bbe 94f2 1f3e aae1 d6bd
00000150: cfaf babd 8131 a93d 2c7e 9f3c 696e 12bd
00000160: 9e11 31be 0726 a33d 9b0a 35be 9db1 c6bb
00000170: 7811 103d 23b5 bb3d ad78 7c3e b282 493c
00000180: 6f4a 6d3e 6ab2 02bd 456a 11be babf 67be
00000190: 31cc 64be 2299 a3bd 4b98 233d 92f6 163d
000001a0: 46dd 0dbe a253 9cbd a6be 3cbd 76f2 a03c
000001b0: 683a 8c3e 6324 82bd f2bc 333e 990d 5f3c
000001c0: 19a9 2f3e 1881 3abd c831 2c3e 1966 50bd
000001d0: d337 2a3d f834 0dbe 4cea 1abe 5b2c 1e3d
000001e0: fc52 c5bc b48a b23d fdae 03be 9f68 6abe
000001f0: ea3b b03d 046b 523d c096 cf3d 1bbe 8f3d
00000200: 8a2c 8d3d 1f4e 103c 970f 213e 8de5 62bd
00000210: 22cb d9bc 858e 05be e2f8 1a3e db3d 963d
00000220: 44ba 24bd 8856 583e 0195 0f3e 4424 c4bd
00000230: e201 1cbd aaf4 77bd edf1 703e 6bf4 173e
00000240: 6be3 5ebe 4dff debc ce29 2f3d 6635 093e
00000250: ae51 21be bed4 f33d ef71 ca3c 766c 30be
00000260: 15b9 e6bc fdcd 173e 2e16 70bc af88 003d
00000270: 2754 e03d fde8 00be 9b8f 96be d047 863e
00000280: 6687 a73d e060 083c 20d1 ba3d d064 523d
00000290: 9bf1 153e 1391 1bbc 877f 143d 09f5 0c3d
000002a0: b5a0 293e b0d4 98bd da30 1abe 4c0d cdbc
000002b0: 0f16 0cbe 789c 96bd c8cc 363e b04b 28bb
000002c0: 40d4 1cbb cf20 d53a fb99 d73d 48e3 34bd
000002d0: 46d2 c73c 943b 17bd c810 55bc 7c9f a9bd
000002e0: d8e0 813d cd83 1ebe 8588 b3bd af97 a4bc
000002f0: 4395 3f3e 068c 8e3e eccf 0a3e 8b40 22bd
00000300: b89f 663e 8f64 89bd 987f 873e 8507 27be
00000310: 657a 8cbd f39e 4dbc 3543 443d 3509 3c3e
00000320: 1cee d33c b348 69bd 6dc4 653e 0168 0bbe
00000330: 9d15 483e 0ed8 43be 2f25 bbbe a664 b7bd
00000340: 98e7 abbc f1c6 0c3d b13e 6b3e 80c6 5abe
00000350: 0e85 b33c 59eb 003e 27fb 8a3c 0942 83be
00000360: eac7 dd3c dd11 593d 146c 5f3e 9965 1c3d
00000370: 04c1 86be d5a3 203e b8a2 42bd 987d a5bd
00000380: e94c 313e 0d9d 95bc c627 b33c 944e 9c3c
00000390: 446c 4e3d c385 873d 67ca 393d 0acb 37be
000003a0: 38b5 50be 4c9a 143e c207 b7be eec4 e13d
000003b0: 291f ce3d 83f0 963d 4a91 603d e8e0 cdbc
000003c0: 8b31 58be b809 b1be 285a a5bc 9d6d cebd
000003d0: 8c78 b33d ad3a bbbc 2c4d 03be 4721 9ebc
000003e0: a701 27be db4e debd b6b6 6fbc 8f83 a5be
000003f0: 175c bd3c 805a 423d 3ddf 7bbd 1b10 4abe
-0.014130127 0.09318535 0.032100227 -0.061346095 -0.0799763 0.12927026 0.021203198 0.09397848
-0.018385971 0.11938054 0.15788403 0.13034058 0.105606936 0.10147394 0.19507402 -0.14174728
0.10580971 0.02994899 -0.06139931 0.029641526 -0.10161945 0.039007645 0.06366522 -0.16688807
-0.039628103 0.23407295 -0.06081349 -0.018689478 0.13900875 -0.06958593 -0.027736751 0.09726124
0.12756506 0.053594064 0.19683422 0.011359105 -0.15514317 0.12825502 0.016062114 0.2303419
0.22289906 0.119785786 -0.28616577 0.047000997 -0.001863365 0.023581024 0.19629478 0.047865696
0.10958816 0.12546891 0.14615399 0.012921179 -0.066021256 0.00072768884 0.063849844 -0.0763767
0.17048964 -0.25872356 0.05025411 -0.008561589 0.19849087 0.2435014 0.08066668 0.02743239
0.06860445 0.052728534 0.13917969 0.05393289 -0.07709893 -0.08607154 -0.17138053 -0.03781437
-0.013875009 0.03388585 -0.25664574 -0.0121864425 -0.09740066 -0.050380245 0.023693511 0.07810389
-0.14662655 -0.15160754 0.1561988 -0.10492261 -0.09115564 0.08261395 0.019469343 -0.035749827
-0.17291877 0.079662375 -0.17679827 -0.0060636536 0.03517291 0.091654085 0.24655409 0.012299227
0.23172925 -0.03190843 -0.14200695 -0.22631732 -0.22343518 -0.07988192 0.03994016 0.03685624
-0.1385394 -0.07633139 -0.046080254 0.019646864 0.2738831 -0.063545965 0.17552546 0.013614082
0.1715435 -0.04553327 0.16815865 -0.050878618 0.041557144 -0.13789737 -0.1512844 0.03861652
-0.024087422 0.08717862 -0.12859721 -0.22891472 0.08605178 0.05137159 0.10136175 0.070186816
0.06893261 0.008807688 0.15728603 -0.055394698 -0.02658612 -0.13042648 0.15134004 0.07336017
-0.0402167 0.21126759 0.14021684 -0.095772296 -0.038087733 -0.060536064 0.23529787 0.14839332
-0.2176644 -0.027221346 0.042764477 0.13399276 -0.15753815 0.11905812 0.02471253 -0.17228875
-0.028164426 0.14824672 -0.014653726 0.03138035 0.10953551 -0.12588878 -0.29406437 0.26226664
0.08180122 0.008323878 0.09121919 0.051365674 0.14642946 -0.009495038 0.036254432 0.03441337
0.16565211 -0.07462442 -0.15057698 -0.025030755 -0.1368029 -0.07354063 0.17851555 -0.002567988
-0.0023930222 0.0016260388 0.10527416 -0.044162065 0.024392258 -0.036922053 -0.013004489 -0.08282372
0.06341714 -0.15479966 -0.087662734 -0.02009186 0.18709283 0.27841204 0.13555878 -0.039612334
0.22521865 -0.06708633 0.26464534 -0.16311462 -0.068592824 -0.0125501035 0.047915656 0.18362887
0.025870375 -0.056954097 0.22438212 -0.13613893 0.19539495 -0.19125387 -0.36551806 -0.08954744
-0.020984456 0.034369413 0.22973134 -0.21364784 0.021914031 0.12589778 0.016965462 -0.25636318
0.027072866 0.05299555 0.21818572 0.03818283 -0.26319134 0.15687497 -0.047518462 -0.08080596
0.17314495 -0.018263364 0.021869551 0.019080438 0.05039622 0.0661731 0.04535904 -0.17948547
-0.2038163 0.14511985 -0.35748106 0.110238895 0.10064537 0.07370093 0.05482606 -0.025131658
-0.21112649 -0.34577727 -0.020184591 -0.10079501 0.08763227 -0.022855127 -0.12822407 -0.019302977
-0.16309224 -0.10854884 -0.014630964 -0.32326934 0.0231152 0.04744959 -0.061492193 -0.19732706

actor.4.bias f4 [7]
00000000: e42a b43c 91fe 1f3e 322b 48bd 9d91 c53d
00000010: 6035 7e3d c51f 34be 9796 023e
0.021993108 0.15624453 -0.04886932 0.09646914 0.06206262 -0.17590244 0.12752758

critic.0.weight f4 [64, 32]
00000000: e6e8 50bd e5f1 9abd 5082 063e 97d7 1f3e
00000010: 847d 2abe 5365 9fbc e199 88be 0590 1a3e
00000020: 5515 e4bc 81ca f53c 7bda ddbc c737 9e3d
00000030: 15f8 f1bc 1dbd 6b3d a063 d63c 97d3 20bd
00000040: 0d48 613c 715e 1c3d ba67 81be 04a2 aebe
00000050: 00f1 443e 1633 353d dd36 3ebe 580d a3be
00000060: c967 fdbd 531a 863d 1f7d 23ba 5646 0abd
00000070: 02e4 b23c 01af fdbd 0a8c 9ebd 430d 55bc
00000080: 0fe4 20bd 6a29 123d ca27 303d 8624 1c3d
00000090: 05b6 0d3e cbe5 303e cf09 2f3e c2b0 34bc
000000a0: bf6d 083d dca0 c73a f5b2 31bd 6f21 72bd
000000b0: 56a6 e9bc 7107 89bd b045 04be b2cf 7a3a
000000c0: ebff ce3c 771b 733e 5608 a13d be5f b9bc
000000d0: 773b d33d 5ba9 8d3d d1ac 533e 099b f23d
000000e0: dc67 1dbc 5470 5c3c 6dd3 9e3d 6f57 853c
000000f0: fa86 bb3a dd71 b23c d7fc ba3d 7184 0cbe
00000100: a6ce 013c 860f 203d 1f5a 0dbe 41c1 5ebd
00000110: e0fd b13d 323e 6abc 0340 7bbd 4924 60bc
00000120: ce7c c83d 83ee 0fbe 015d 073d 30df a1bd
00000130: 01bb 8bbc 6eca 873d 549e 8dbd cabd 633d
00000140: b3c2 2e3e ce67 033d 86c2 79be 16dd 93be
00000150: 09ad 083d af21 603d 51d1 0bbd fe6a 8cbd
00000160: 1fea b3bd a07d df3c 7fd8 7b3b 07e8 a5bd
00000170: 4361 b33d 1ab3 1abd 8de9 d2bc 2874 5dbc
00000180: 5d7d 24be 735f 933d 84a5 bc3c 3c0e f4bd
00000190: f6ab d83d 8fb4 9f3d 1398 6f3e bacb 4a3e
000001a0: eba6 3d3d 0e14 7ebd 6097 66bd 18e8 f2bd
000001b0: c6d1 643d dcf0 e13c 13a5 eaba 4046 47bd
000001c0: 4b2a 4e3d a846 8d3e ffa6 0ebe c218 fdbe
000001d0: bc61 32be e3d6 fdbd 18ec 81bf 665e 903e
000001e0: 3457 253e b8d4 533c 2cf7 d9ba 9f80 003e
000001f0: 0692 eabc f360 a8bd 4f0b 403d e27e 7c3d
00000200: fa30 30be 32e8 d2bd 08ef 423d 988d 5dbd
00000210: 4d13 ac3e 3eb4 f93d 50b3 703e 6612 803d
00000220: d399 0fbb 391e b9bc 3c1c 8e3c fa4b 8ebc
00000230: 7fbe cabc bf86 46bc 9ed1 1d3b d960 aebc
00000240: f10a b8bd d36e ccbb 3016 9e3e af7d 5cbe
00000250: 00fe 213d 71c4 233d 920f 1bbf f065 a43e
00000260: b52e 11be f4b6 913b bef6 08bd 04f0 23bd
00000270: 1145 f4bc 86ac 09bb 3ee8 273b 3d07 b33d
00000280: 9e78 b5bd c5f0 35bd 8cb7 a4bd 5768 02bb
00000290: 0ec0 e33d b739 b63d 4536 2c3c 9105 96bd
000002a0: b1a4 d13d d93e 343d 64f7 9dbd 4a7b 213c
000002b0: 5766 f83c ad7f e8ba e3b4 caba d441 763c
000002c0: d391 1c3e 944d 3cbd 5057 8fbe 19e9 a8bd
000002d0: 0d53 9ebe 1dc8 1abe 34bb 123f 7376 d13e
000002e0: 5881 913d 8a52 9abd a1bd 003e ef3e ccba
000002f0: cf46 463d d00c 0d3d e6ae 7a3c c238 06bd
00000300: 1d8e 2f3e d058 ff3d a758 bbbd 803c c13d
00000310: b91f 193e 6804 993d 94cb 9c3c 9bb8 febd
00000320: 26ba 9e3d 8c0a 4a3d ec5d cebc 7484 143d
00000330: 9454 7fbc 4aa4 893b 2673 8bbb f154 c9bb
00000340: 6f76 ef3c 4d73 16bd b644 4e3e d0f5 b9bf
00000350: bb4a 6c3d 6f21 113e bd44 59bf ce1d 8b3d
00000360: c07e 1ebd d197 4bbd 808a 4e3d 16f2 ab3b
00000370: 3a44 313a a3a5 d83b bc0f 163d db64 e03b
00000380: 088f 7c3d 176d d23d c247 4b39 74f4 28be
00000390: ad97 fdbd 2e09 6dbe d401 2ebe ea8a fd3d
000003a0: 9289 813d cbbb c6bb cb57 793d da17 653c
000003b0: 26f3 553c 5faa 6d3d c68d 7c3c 02a1 a03d
000003c0: 8712 49be 5956 01be 3911 9b3d 50dd bf3e
000003d0: 8218 bebd 024d 023e ccd4 f3be 5d40 76bc
000003e0: d703 083e 3dfc b3bd d16e d5bd 98b1 82bc
000003f0: 792f d2bc 3d85 7fbc 086b ecbc c4a3 41bc
-0.05100336 -0.07565669 0.13135648 0.15609585 -0.16649443 -0.019457495 -0.266799 0.15094002
-0.027842203 0.030003788 -0.027081719 0.077254824 -0.02953724 0.0575534 0.026170552 -0.039264288
0.013750088 0.038176004 -0.2527445 -0.34107983 0.19232559 0.044238172 -0.18575616 -0.31846118
-0.12373311 0.0654799 -0.0006236601 -0.033758484 0.021837238 -0.12386895 -0.07741554 -0.01300365
-0.039279994 0.035684027 0.043006696 0.03812077 0.13838966 0.17275159 0.17093585 -0.0110284705
0.033307787 0.0015230435 -0.043383557 -0.059113916 -0.028521698 -0.066908725 -0.12917209 0.0009567692
0.025268516 0.23740946 0.07862918 -0.022628661 0.103140764 0.069170676 0.20671393 0.11845977
-0.009607282 0.0134545155 0.0775517 0.016277043 0.0014307194 0.02178281 0.091302566 -0.13722397
0.007922804 0.039077304 -0.1380391 -0.05438352 0.08691001 -0.014297055 -0.061340343 -0.013680526
0.097894296 -0.14055829 0.03304768 -0.07903898 -0.017056944 0.06630407 -0.06914964 0.05560092
0.1706646 0.032081418 -0.24390611 -0.28879613 0.033368144 0.054719623 -0.034135167 -0.06856345
-0.087848894 0.027281582 0.0038428602 -0.08100896 0.087587856 -0.03776846 -0.025746131 -0.013516463
-0.16063447 0.0719594 0.023028143 -0.119167775 0.10579674 0.07798111 0.23397855 0.19804278
0.046301764 -0.062030844 -0.056296706 -0.118606746 0.055864118 0.027580671 -0.0017901979 -0.04865098
0.050333302 0.2759297 -0.13930891 -0.4943295 -0.17420095 -0.12394502 -1.0150175 0.2819702
0.16146547 0.012929134 -0.0016629449 0.12549065 -0.028634083 -0.082216166 0.046885785 0.061644442
-0.17206183 -0.10298194 0.04759124 -0.054090112 0.33608475 0.121925816 0.23505902 0.06253509
-0.0021911755 -0.02259742 0.017347448 -0.017370213 -0.024749039 -0.012117087 0.002408124 -0.021286415
-0.08986462 -0.006238797 0.30876303 -0.2153232 0.039548874 0.039982263 -0.60570633 0.32109022
-0.14177974 0.0044468585 -0.033438437 -0.04002382 -0.02981809 -0.0021007373 0.0025620605 0.08741615
-0.088608965 -0.04441907 -0.08042821 -0.0019898617 0.11120616 0.08897727 0.010510986 -0.073252805
0.102364905 0.04400525 -0.07713202 0.009856055 0.030322237 -0.0017738246 -0.0015465285 0.015030343
0.15290003 -0.04597242 -0.27996302 -0.08247585 -0.30922738 -0.151154 0.573169 0.40910682
0.071047485 -0.07535274 0.12572338 -0.001558272 0.048407372 0.034436047 0.015300488 -0.032768972
0.17144056 0.124681115 -0.091477685 0.094353676 0.14953507 0.074715436 0.019140042 -0.124375544
0.07750349 0.049326465 -0.02519127 0.03625913 -0.01558413 0.004200493 -0.00425567 -0.006144159
0.029231278 -0.036731053 0.20143399 -1.4528141 0.057688456 0.1417291 -0.8487051 0.06792794
-0.038695097 -0.04970533 0.050425053 0.0052473648 0.0006762181 0.0066115423 0.0366361 0.0068479604
0.061659843 0.102747135 0.0001938632 -0.16499501 -0.123824455 -0.23148033 -0.16992885 0.123800114
0.063250676 -0.006064867 0.06087474 0.013982737 0.013058459 0.058023807 0.015414661 0.0784321
-0.19635974 -0.12630595 0.07571644 0.37473536 -0.09282018 0.12724689 -0.4762329 -0.015029994
0.13282715 -0.08788345 -0.10421527 -0.015953824 -0.025657402 -0.015595731 -0.02885963 -0.01181883

critic.0.bias f4 [64]
00000000: 8325 103e 0d17 3ebe 789c c5bd c99f d6bd
00000010: 6308 47ba 14c8 e6bd 795d 2fbd a6cf 7f3d
00000020: 5061 6ebd 4ea5 afbd 98c3 e13b 22f0 8c3d
00000030: 32c3 53bd 6c15 b1bd 5ddd a83d 3464 82bd
00000040: 354b d7bd 0086 0c3e e428 703c 96c6 eb3d
00000050: 39ad f63d f942 b7bd b792 cc3d 1a9f 56bd
00000060: 08af 843c 7b4a 73bd 2a14 fe3c d9f4 cb3c
00000070: 86d0 58bd ff31 3e3e 905f a3bd 589b 553d
00000080: 1e7b a2bd 0407 3cbd 9e2c 833d 3337 6fbd
00000090: 783a 08bd 53dc 273e 9bee f6bd c1dc adbc
000000a0: 506f a93d 36e2 bc3d 7d16 703c 9036 59be
000000b0: ef1c 39be 8d0e a23d bcdb bcbd 2200 39be
000000c0: 4b36 a4bd d0c1 ddbc c2d0 23be 60a1 10be
000000d0: ab7c 943d 525c 03be 2436 d2bd a5b6 b1bd
000000e0: 97ef d43d 67d2 f0bc 9f88 09be 2855 b8bd
000000f0: 3558 b1bc e418 1c3e f2cb 083e 4180 91bd
0.1407681 -0.1856348 -0.09648985 -0.10479695 -0.0007592497 -0.112686306 -0.04281375 0.06245389
-0.058198273 -0.08576451 0.0068897717 0.06881739 -0.051699825 -0.08646664 0.08245347 -0.063667685
-0.105123915 0.13722992 0.014658187 0.11512487 0.12044758 -0.08948321 0.09988921 -0.052397825
0.016196743 -0.059397202 0.031015474 0.024897026 -0.05293324 0.1857376 -0.079772115 0.0521501
-0.07933639 -0.045905128 0.064049944 -0.05840225 -0.033258885 0.16392641 -0.12057229 -0.021223428
0.08273184 0.09222834 0.014653799 -0.2121222 -0.18077444 0.079129316 -0.092215985 -0.18066457
-0.08018168 -0.027069956 -0.15997604 -0.1412406 0.07250341 -0.12828186 -0.10264233 -0.08677415
0.10397261 -0.029397203 -0.13431023 -0.09000617 -0.021648506 0.1524387 0.13359049 -0.071045406

critic.2.weight f4 [64, 64]
00000000: 32ff b5bd 2a64 9fbb b8d9 3a3e 3fda c83d
00000010: 9947 cb3c 336a 56bc ad83 b53d 46a8 c33c
00000020: a0e3 4f3e 20ef 593d 2655 8eb7 6d7b 23be
00000030: f37d cabd 1502 c83c 495e 8d3d 0784 58bb
00000040: e4ab 75bd c5a4 c7bd e98e fbbd 0f3b 58be
00000050: 0952 ebbd b28f 59bb fedb 46bd 67a9 f9bc
00000060: 0506 5f3d cd9a 02bd fc4e 8b3d cde0 c4bd
00000070: 9917 ecbb d830 debd a5c5 8e3d 300a b2bd
00000080: 10ae 113d 8cc8 e23c 4fe5 9b3d 2bc3 763d
00000090: 2f57 cabd c800 d9bd 750f e8bd 7779 053e
000000a0: b5e0 513d 749c 27bd 3c68 2fbe 6cff 84bd
000000b0: 88fd aebc 9198 b83d 26f7 643d cd3c febd
000000c0: 41aa 05bd adf1 b53c e899 683c 05d6 e2bd
000000d0: 5d99 f03c 4711 8cbd 92fd 9fbd 5b0e 263d
000000e0: 0dc1 9c3d e578 8c3d 3d32 aa3d d1e5 803c
000000f0: 55e6 59bd ed5c c4bc b3da a3bb 34d6 87bd
00000100: 8a01 03bd e0fb a4bd 64b3 763d 633f a83d
00000110: 661a 40bb 0e82 8b3d abfe 06bd b9ac 86bd
00000120: fc8b 4abe be87 df3d 91d1 4d3e 17cb dd3c
00000130: 5b49 0abe f972 653c 5865 8f3e 1287 d4bc
00000140: d399 b63d 8486 bcbd 7051 9b3d fac0 03be
00000150: 746b 193e c10e e6bb fd31 61bd a38f 9d3d
00000160: 050c 1d3e 2005 1d3e 814a 983d 5452 513d
00000170: 22e9 b33d f58d c2bb 413c 233d 50c7 72bc
00000180: 6813 a63d 4feb f4bd a256 1abe a22b dbbd
00000190: 0208 afbd b5b2 d7bc 7e75 02bc 689f 863e
000001a0: eefb 513c 3b3a b3bd 0b7b 013e 4ba5 553c
000001b0: b080 7bbd fdda 3d3d 89bd 0d3d 13f3 1d3d
000001c0: 7a94 c6bb d1a8 05be ca58 a33c 9e2b 06bc
000001d0: 3e80 16bd a996 28be 1a04 78bb 6abb 303c
000001e0: 148c eb3d cdc0 b6bb ce47 843d f07a 113e
000001f0: f5f9 32bb b8fa ed3d 49c4 f83d a1a7 bc3d
00000200: 7e60 9d3d f283 ddbc d184 1b3d bd06 f7bd
00000210: 71ae 483d deee ee3c 3a69 aebd 1c5a 173e
00000220: e750 4bbe 261d 1abc 4f15 203d 3fe9 373b
00000230: 0e18 f1bd 8369 193e 9728 bfbd fecb 063e
00000240: fa0f 9fbd ffec f73d 90d6 96bc b6e9 033e
00000250: b404 383c b4d6 5cbe 4f3a 51bd 9dfd c4bd
00000260: 6c85 a5bd 128c 193e b41b f93c 0bf7 9dbd
00000270: 5b9f 043b befb 213e 2c23 5c3d b616 a93d
00000280: 4fe3 f4bc a090 84bd a61e 8f3c d8d2 ebbc
00000290: c4d3 a4bc 50bd aa3d 9a13 3c3b 39e9 2fbd
000002a0: 25f7 a53c e889 d3bd 5021 053d 753b e1bd
000002b0: aac4 06bd 0518 483d 4756 39bd da83 01be
000002c0: 62c2 90bd 39c3 a13d 762c cbbc 11e1 8abd
000002d0: 2f74 873d e083 0d3e 4538 bd3d 296a 453d
000002e0: 926e fcbc a989 353a d5d2 1f3e ac0e f5bd
000002f0: 8e65 d83d 220e d13d 5b24 9d3d be7f 06bd
00000300: f796 c1bc f863 67bd f2de 2c3e e363 28bd
00000310: f613 9dbd 6393 62bd 2a98 e7bc e857 393b
00000320: 7e84 a3bd 0623 44bd 36fa 643d ca1d 20bc
00000330: bb14 85bd 02d3 f1bd b2dd f43c 099a 943d
00000340: 5b0f b0bd 6e0c 333d 19e8 d33b c79a 553e
00000350: 3c49 f83d 0334 543d 57c2 96ba a1f0 133d
00000360: 61db 39bd c720 603d 7cc5 d83d b9b3 00be
00000370: efe0 aabd fe63 123e ecab 363c 8daa 1b3d
00000380: 7f82 85bd 0055 b0bd 4ead 06bd 1c33 16bc
00000390: 33dc 4f3d 9522 29bd 7e8c 4fbe 05bb 093d
000003a0: a0ab 923c de26 5ebe 0aa6 b13d 540b b9bd
000003b0: 4c64 dbbd 299b 823d 3cf7 933c 8ad7 7f3c
000003c0: 50a6 7bbd 2004 c73c c7d3 193d c64f c93d
000003d0: 5e77 f3bd 882c 693b 224c bebd 7c2b 043d
000003e0: e7c7 b73d 76fd a1bd dd0d c3bd 8737 be3d
000003f0: 9336 e9bd bed7 b8bd 325a 1bbd 1f67 d6bd
-0.08886565 -0.0048642354 0.18247116 0.09807252 0.024814414 -0.013086843 0.08863006 0.02388395
0.20301676 0.053206563 -1.696737e-05 -0.15965052 -0.09887304 0.024415055 0.06902749 -0.0033037679
-0.05997838 -0.09748224 -0.12283117 -0.21116279 -0.11490256 -0.0033197221 -0.048549645 -0.030476285
0.0544491 -0.03188591 0.068021744 -0.0961319 -0.0072049615 -0.1084916 0.069712915 -0.08693349
0.03556639 0.027683519 0.076120965 0.06024472 -0.0987991 -0.10595852 -0.11331073 0.13034616
0.051239688 -0.04092069 -0.17129606 -0.0649403 -0.021361127 0.09013475 0.05589976 -0.124139406
-0.03263307 0.022209967 0.01419685 -0.11075977 0.029370004 -0.06839233 -0.078120366 0.040541034
0.07654009 0.06858996 0.083103634 0.015734585 -0.053198177 -0.023970092 -0.005000436 -0.06632653
-0.03198389 -0.08055854 0.060229674 0.08215215 -0.002931261 0.06811915 -0.032957714 -0.06575913
-0.19779962 0.10914563 0.20099474 0.02707438 -0.13504545 0.014004462 0.28007007 -0.025943313
0.089160584 -0.09205344 0.07583892 -0.12866583 0.14982396 -0.007020802 -0.054979313 0.07693412
0.15336616 0.15333986 0.074360855 0.051103905 0.08784701 -0.0059373328 0.039852384 -0.014818028
0.0810917 -0.11958944 -0.1507211 -0.10701682 -0.08546449 -0.026330331 -0.007962583 0.26293492
0.012816412 -0.08751341 0.12644593 0.013039897 -0.061402023 0.04635142 0.034604583 0.03856189
-0.0060601803 -0.1305268 0.019939799 -0.00818911 -0.036743395 -0.16463722 -0.0037844242 0.0107868705
0.11501327 -0.005577183 0.06459008 0.14207053 -0.002730963 0.116200864 0.121468134 0.0921166
0.0768442 -0.027040455 0.03796846 -0.12061832 0.048994485 0.029166635 -0.08516164 0.14780468
-0.1985508 -0.009406364 0.03908282 0.002806261 -0.11772166 0.14981656 -0.09333914 0.13163754
-0.07766719 0.1210575 -0.018412858 0.12882122 0.01123159 -0.21566278 -0.051080998 -0.096186854
-0.08082089 0.14994839 0.030408718 -0.07713135 0.0020236585 0.15818688 0.05374448 0.08256285
-0.029893545 -0.064728975 0.017470669 -0.028787062 -0.020120509 0.0833689 0.0028698207 -0.042947028
0.02025945 -0.10329038 0.032502472 -0.10997669 -0.032902397 0.04885103 -0.045248296 -0.12647954
-0.070683256 0.07898564 -0.024801474 -0.06781209 0.06613957 0.13819838 0.09239248 0.048196945
-0.030814443 0.0006925115 0.1560777 -0.11965689 0.10566245 0.10207774 0.0767295 -0.03283667
-0.023631556 -0.056491822 0.16881922 -0.041110884 -0.07669823 -0.05531634 -0.0282708 0.0028281156
-0.07984255 -0.047884963 0.055902682 -0.009772727 -0.06498095 -0.11807825 0.029890869 0.072559424
-0.08596679 0.043713026 0.006466877 0.20859824 0.12123343 0.051807415 -0.001150201 0.036118153
-0.04537523 0.05471876 0.10584542 -0.12568559 -0.08343684 0.14295956 0.011149388 0.038004447
-0.06519031 -0.086099625 -0.03288012 -0.009167459 0.050747108 -0.041292746 -0.20268437 0.03362562
0.017904103 -0.21694514 0.086742476 -0.09035364 -0.107124895 0.06377251 0.018062226 0.015615353
-0.061437905 0.02429396 0.037555482 0.09829669 -0.11888002 0.0035579521 -0.09291865 0.032268032
0.08973675 -0.07909672 -0.095241286 0.09287935 -0.11387362 -0.090255246 -0.037927814 -0.104688875

critic.2.bias f4 [64]
00000000: 38cf 81bb cc3c 0dbe d083 433c cdf8 84be
00000010: 8d75 a13d f1cc a8bd 98c2 8cbd c519 0c3e
00000020: 2cea 253e da0a 583d d659 d6bd c015 3dbe
00000030: 77ab d7bd 23cf 3d3d 8db0 d73c 0912 903d
00000040: d335 eb3d b417 efbd 658e eabd 4822 763d
00000050: 1a4b c4bd 6552 27be e7f4 c53c 3ac9 483d
00000060: c287 b7bd 3218 623c 1f85 2cbe 49d0 22bc
00000070: 7e98 c6bd ec5b b33c 2f44 c73d df9a 6d3c
00000080: cf74 03bd 0c62 b93d d13d 0d3e ab16 f03d
00000090: d6b2 57bd 8701 b33c f433 5fbe fedd 10be
000000a0: 7d8b 6bbe 10b0 67bd a97d 043e ac52 483e
000000b0: 94de 363d c313 81bd 5476 9a3d c0f8 13bc
000000c0: afb5 073e 466e 6bbd 2994 2d3e ccb7 c33c
000000d0: 1ef9 85bd c069 9ebd acab ef3c 1b0b c1bc
000000e0: 7dbf 98bd 4e32 dfbd 026a 15bd 9f6d 9bbd
000000f0: e452 f6bd 8791 82bc 9193 d2bd 5e59 4b3c
-0.00396147 -0.13792723 0.011933282 -0.2597107 0.07883749 -0.082422145 -0.06873053 0.13681705
0.1620261 0.052744724 -0.104663536 -0.18465328 -0.10530751 0.04634012 0.026329303 0.0703469
0.114848755 -0.11674443 -0.11452941 0.060091287 -0.09584637 -0.16340025 0.02416463 0.04902003
-0.089614406 0.013799714 -0.16847657 -0.009937354 -0.09697054 0.021894418 0.09729802 0.014502256
-0.03209382 0.09051904 0.13793112 0.117230736 -0.052660786 0.021851314 -0.21797162 -0.14147183
-0.2300243 -0.05656439 0.1293856 0.19562787 0.04464586 -0.063025974 0.075421005 -0.009031475
0.132529 -0.05747821 0.1695105 0.023891352 -0.06541656 -0.07735014 0.029256664 -0.023564866
-0.074583985 -0.10898267 -0.03647805 -0.07589268 -0.12027529 -0.015938533 -0.10282052 0.0124114435

critic.4.weight f4 [1, 64]
00000000: 4b82 bebb b183 4bbc de09 4b3b 9853 ccbc
00000010: cf4e 1f3c d86d 7f3b af70 7fbc e713 90bb
00000020: ac2f 8abd c969 463a b05a 30bd d42c d63d
00000030: 06e3 75bb 7e99 2c3d 1997 af3c 377f 26bd
00000040: 568e 063c e0f1 013e 80b7 84bc f248 abb9
00000050: 8f35 41bc 601d 13bd 5206 093d 8d4f e23b
00000060: d399 0b3c 6216 bc3b 553e b43c 3442 f33b
00000070: fd61 baba 63c8 25b9 3082 613c ba4c d23b
00000080: 5702 a8ba 3a42 41bd ea47 893c 0232 283c
00000090: dafc aebc 9db5 1cbc 6f6e 06bd 9370 cabb
000000a0: ee8e b83c 5df1 103b 3c85 7f3b 0a2f 16be
000000b0: d11a 9c3b 2001 083e 55e4 1f3c 953b a3bb
000000c0: ed07 3bbd 5e7f a93b a792 8a3c 8159 c33b
000000d0: d19e 23bd d1dc b7bb 0f5a bd3b 77ac a03c
000000e0: 2c43 5739 9a8b 66bc 3c94 20bc bdf7 91bc
000000f0: 6502 dab8 33bb cf3d 5531 f6bc 95a0 1fbc
-0.005813872 -0.012421534 0.0030981223 -0.024942204 0.009723379 0.0038975384 -0.015590831 -0.004396904
-0.06747374 0.0007568864 -0.043055236 0.10457769 -0.003751935 0.04213857 0.021434354 -0.040648665
0.0082126465 0.12689924 -0.01620078 -0.0003267001 -0.0117925545 -0.035916686 0.033453293 0.006906456
0.008520561 0.005739973 0.022002378 0.0074236635 -0.0014219877 -0.00015810276 0.013763949 0.006417838
-0.001281808 -0.0471823 0.016757924 0.010265829 -0.021360803 -0.009564784 -0.03282016 -0.0061779707
0.022529092 0.002211652 0.0038989326 -0.14666381 0.004763939 0.13281679 0.009759028 -0.004981468
-0.045661855 0.005172654 0.016915632 0.0059615974 -0.03994638 -0.00561104 0.005778558 0.019613488
0.00020529021 -0.01407137 -0.009800967 -0.017818326 -0.00010395496 0.10143127 -0.03005282 -0.009742876

exp_avg f4 [7]
00000000: df3e 39b9 0a70 baba 55de a5ba 7253 e1ba
00000010: 20d9 e0b8 c8e1 293a aba0 8336
-0.00017666396 -0.0014224064 -0.0012654761 -0.0017191006 -0.00010721595 0.00064804824 3.9228084e-06

exp_avg_sq f4 [7]
00000000: 5807 c338 091a fa38 f46c bf38 0fcc 0a39
00000010: c02b 0039 b3ab be38 fdea 0d39
9.2996925e-05 0.000119257784 9.127884e-05 0.00013236723 0.0001222333 9.0918875e-05 0.00013534348

exp_avg f4 [64, 32]
00000000: eb3d a9b7 ee46 80b8 2807 feb8 3328 71b9
00000010: a6c5 ed39 b5e2 eb38 8828 da39 2d19 c0b5
00000020: cb10 4836 bd92 e3b9 73ca 4c39 a858 203a
00000030: 41fc acb9 7dbc 33ba 0505 f738 56a3 b1b9
00000040: bb6d 1238 0175 08b8 31af 6b36 5e32 8db7
00000050: d9c2 c437 2ecb 1e2c 4cd3 3737 bdec 58b8
00000060: 7eeb 052b 35d4 3cb9 afb1 e738 4522 d839
00000070: 04f8 b1b9 586a 9239 2cc5 30b9 514a 4c3a
00000080: 1ed6 9fb9 000d bc39 9a1d 38b8 f714 2438
00000090: a535 dcb7 40f7 5438 0ffb dfb9 4f05 c1b7
000000a0: 7b5e a2b7 d09a 673a c8a0 a7b8 2352 fdba
000000b0: fdba e7b9 1daf 2a3a 65c8 3d37 12c4 20bb
000000c0: e9b6 36b7 6732 4337 c892 ec39 5d27 c8b8
000000d0: e42b f237 0e81 76ad 5924 883a 33d0 a739
000000e0: 9b9f 472e a037 ddb9 834c 9339 f71e 81ba
000000f0: e871 b9b9 1b3f 0db9 5dc1 ecb9 0579 20ba
00000100: 5e17 1939 8eaa 463a 6b3a e637 2f44 41b7
00000110: 6b14 e4b8 84c8 26b9 bed8 9538 6305 5436
00000120: fad2 a537 e2e0 daba 8f8d 64b9 32d4 ad3a
00000130: 6d9c 973a 2392 4dbb 3020 1fba 0649 293b
00000140: 4105 a237 af36 4335 7f82 d9b8 3a0a 1438
00000150: efe2 d9b9 dd80 34ad 04a7 92ba 3f29 7839
00000160: c20f 57ae eebd 7b3a 9ae1 103a 619a e33a
00000170: 762c d839 3be9 46ba 4ac5 23ba a8cc f9b7
00000180: d492 a9b9 796d f738 e40e ff38 5396 50b9
00000190: 68c8 1db9 4b59 ac39 d309 02ba e929 0037
000001a0: 1247 5db6 6c74 f13a 6346 a1b9 92dd 35bb
000001b0: df67 1ab9 58dd 02bb 1f28 acb8 0630 84ba
000001c0: f2e5 1337 e194 70b7 857b 9d39 11dd a2b8
000001d0: 29bd dbb8 09e3 572c 3308 9e38 23d6 93b8
000001e0: e28b 672c d59b f6ba 4d6e b239 ecc5 8cba
000001f0: a746 96b9 3f12 efb9 243f 003a c887 95ba
00000200: 028c 40b9 4c2c dc38 9c6e 04b8 720d 9a39
00000210: 430d ae37 8162 96b9 5a44 6db9 e659 a8b6
00000220: 746c c237 e71e f2b8 f4d5 24ba 082d 433a
00000230: f704 13ba d14b 88b8 0f53 f3b9 7d65 45ba
00000240: a3fb 4737 a814 00b8 4119 a139 3a7c b6b8
00000250: 7390 9638 4771 66ad 8cd5 9939 c2e0 9c39
00000260: cb26 612d 12e8 98ba 30c3 4539 3a49 21ba
00000270: bbe8 5739 0a25 61ba 5242 26ba ee51 80ba
00000280: b476 6eb7 e035 c439 df7b 5ab8 bc4c aa39
00000290: ee49 35b9 ad43 c5b9 1319 47b9 907e f2b6
000002a0: 43cc 1cb8 9ae5 bcb9 b37b 2837 9793 0d39
000002b0: 3852 8439 a478 e2b7 9591 91ba a494 b73a
000002c0: fb16 c1b7 3d0b 0438 e754 7739 0b0c 22b8
000002d0: 8416 8f39 0a1a 0fad 521e fe39 7a78 4339
000002e0: a042 ba2d cbdd 43b8 45db 193a 7ae8 d437
000002f0: c31d b93a aa7b a4b9 6e41 79ba 0360 4eba
00000300: b6fb 0739 fe03 8b39 993c d4b8 4943 9038
00000310: b53e 3239 ace6 2fb9 d129 f939 0948 84b7
00000320: 81a1 bcb6 5974 78ba a519 3639 9f1b 933a
00000330: d36d fd39 b0e2 ebb9 4bdb 3cb9 10f7 e93a
00000340: a9e9 fd36 53ac e6b7 8def 5138 c291 aeb7
00000350: 053d 2039 f0a1 25ad f469 9bb9 7c0c 6239
00000360: adc1 63ad 038e 8639 122f b539 aae6 503a
00000370: 5ff2 0c3a 6b71 9c39 c3e0 1eba c174 8b3a
00000380: 8756 efb8 8ce9 8e39 03f2 96b9 8fd2 2939
00000390: 42b3 2039 3724 ddb9 3b6f df39 fdd0 93b7
000003a0: 452b 4fb8 d1c6 523a 58a7 93b9 e9ad 13bb
000003b0: cb2e 943a 6b3d a8ba 810c 5eba 1879 deba
000003c0: 4858 beb6 d0ab 9135 d5bd e939 e414 3ab9
000003d0: 827a c539 788f e0ac 1595 31ba da65 1939
000003e0: e93b 02ae f0a6 abba fc3c 293a 8123 3fba
000003f0: f8a9 c33a d13a b639 9f2d a6ba e75f 7239
-2.0175203e-05 -6.116727e-05 -0.00012112997 -0.00022998526 0.00045351422 0.00011247901 0.00041610398 -1.4312442e-06
2.9812097e-06 -0.00043406143 0.00019530374 0.00061167264 -0.0003299434 -0.0006856395 0.00011778813 -0.00033881766
3.4911307e-05 -3.2533895e-05 3.5119704e-06 -1.6831964e-05 2.3455754e-05 2.2565938e-12 1.0956846e-05 -5.1718893e-05
4.7577903e-13 -0.0001800813 0.000110480345 0.00041224263 -0.00033944857 0.00027926522 -0.0001685812 0.00077930564
-0.00030486373 0.0003586784 -4.3896587e-05 3.9120172e-05 -2.6251024e-05 5.077501e-05 -0.00042720928 -2.3009865e-05
-1.93559e-05 0.00088350195 -7.9931284e-05 -0.0019326847 -0.0004419907 0.0006511079 1.1311936e-05 -0.002453093
-1.0890632e-05 1.1634641e-05 0.00045122788 -9.544075e-05 2.8869086e-05 -1.4012137e-11 0.0010386809 0.00032007843
4.538912e-11 -0.0004219385 0.0002809503 -0.0009851147 -0.00035370816 -0.00013470316 -0.00045157495 -0.0006121549
0.00014599922 0.0007578515 2.744534e-05 -1.1519572e-05 -0.0001087569 -0.00015905692 7.145245e-05 3.1593597e-06
1.9767776e-05 -0.00166991 -0.00021796509 0.0013262092 0.0011567004 -0.0031367622 -0.0006070165 0.002583088
1.9314351e-05 7.2722736e-07 -0.00010371673 3.5295474e-05 -0.00041558544 -1.0260429e-11 -0.001118869 0.00023666488
-4.8899336e-11 0.0009603192 0.00055267813 0.0017364734 0.00041231856 -0.00075878546 -0.0006247355 -2.9778414e-05
-0.00032343587 0.00011798269 0.00012162121 -0.00019892426 -0.00015047344 0.00032872925 -0.00049605704 7.6391525e-06
-3.2972935e-06 0.0018421537 -0.00030760755 -0.0027750474 -0.0001472528 -0.0019968357 -8.209072e-05 -0.0010085113
8.815421e-06 -1.4339778e-05 0.00030037403 -7.765939e-05 -0.000104779676 3.0679367e-12 7.535554e-05 -7.049392e-05
3.2904725e-12 -0.0018814752 0.00034032986 -0.0010740138 -0.0002866287 -0.00045599227 0.0004892221 -0.0011408264
-0.00018362704 0.000104986684 -3.1574265e-05 0.00029383186 2.0748592e-05 -0.0002868362 -0.00022627544 -5.0172557e-06
2.3177105e-05 -0.00011545215 -0.0006287985 0.000744537 -0.0005608345 -6.499107e-05 -0.00046410455 -0.00075300765
1.1919913e-05 -3.0536816e-05 0.0003072713 -8.701575e-05 7.179463e-05 -1.3099139e-11 0.0002934154 0.00029922096
1.2798383e-11 -0.0011665842 0.00018860097 -0.0006152574 0.00020590697 -0.0008588588 -0.000634228 -0.0009790042
-1.4213543e-05 0.00037424173 -5.2090614e-05 0.00032482098 -0.00017289046 -0.0003762519 -0.0001898746 -7.226896e-06
-3.7383532e-05 -0.0003602922 1.0042381e-05 0.0001350179 0.0002523826 -2.6997477e-05 -0.0011106009 0.001400609
-2.3018094e-05 3.148172e-05 0.00023587384 -3.8635026e-05 0.0002729186 -8.134391e-12 0.00048469246 0.0001864153
2.117534e-11 -4.6698184e-05 0.00058691605 2.5380625e-05 0.001412325 -0.00031372654 -0.0009508346 -0.0007872583
0.00012968373 0.0002651512 -0.00010120235 6.878988e-05 0.00016998763 -0.00016775233 0.00047524137 -1.576917e-05
-5.621638e-06 -0.00094777864 0.00017366426 0.0011223442 0.00048337746 -0.00044991588 -0.0001801077 0.001785012
7.567189e-06 -2.7498381e-05 5.0052582e-05 -2.081029e-05 0.0001528152 -9.4151215e-12 -0.00029642845 0.0002155769
-1.2946461e-11 0.0002566428 0.0003455808 0.0007968942 0.0005376692 0.00029839142 -0.0006060714 0.0010639654
-0.00011412525 0.00027258357 -0.00028790542 0.00016195535 0.00015325568 -0.00042179387 0.00042616748 -1.7621083e-05
-4.9392944e-05 0.000804049 -0.00028162706 -0.0022534078 0.0011305449 -0.0012835687 -0.0008470491 -0.0016973345
-5.6727185e-06 1.0853346e-06 0.0004458266 -0.00017746125 0.00037666043 -6.382391e-12 -0.0006774229 0.0001462916
-2.961179e-11 -0.0013096016 0.0006455926 -0.0007291362 0.0014927974 0.00034757567 -0.0012678391 0.00023114645
