logs/rsl_rl/franka_reach/2025-06-26_19-51-50/model_350.pt (torch, 172795 bytes, 36 tensors)

std f4 [7]
000000 56 bb 14 3e 66 fb ef 3d d1 92 f0 3d 49 42 ad 3d
       0.14524588 0.11717872 0.11746753 0.084599085
000010 7c 98 ec 3d a2 23 fc 3d 63 6b ea 3d
       0.115525216 0.12311484 0.11446264

actor.0.weight f4 [64, 32]
000000 1d 84 4d be 9a 60 28 3e cd 94 53 be e9 24 d2 3d
       -0.20069928 0.164431 -0.20662232 0.10260946
000010 a5 91 8c 3e 0e c7 af 3d 8f 24 f8 3e f2 3f a2 3e
       0.27454868 0.085828885 0.48465392 0.3168941
000020 41 54 19 3f 79 0b 85 bc a3 e4 bb bd b3 86 8e 3d
       0.59894186 -0.016240822 -0.09174468 0.069592856
000030 83 00 ac 3d 96 40 8f 3d a4 08 62 3c b9 02 60 3d
       0.08398535 0.06994741 0.013796005 0.054690097
000040 60 02 83 bc fc 0e a8 be b9 08 7b be 47 83 ff bf
       -0.015992343 -0.32823932 -0.24515046 -1.9961938
000050 32 a6 ab 3e 1d 32 bd bc af 5f bc bf d0 53 08 3f
       0.33525234 -0.023095185 -1.47167 0.5325289
000060 e4 30 18 be 7c ec cb bd c9 21 3d be 5d 2c 3d be
       -0.148624 -0.09957215 -0.1846992 -0.18473954
000070 68 c9 32 bc 5c 7b 08 be 15 9e 71 3d 2a e4 31 3e
       -0.010912277 -0.13328308 0.05898865 0.17372194
000080 bc 46 bf 3e 6e e0 7b 3e f5 99 b8 3e 20 fb 7a 3f
       0.37358654 0.24597332 0.3605496 0.98039436
000090 8a 0c 07 3f 0f 40 f1 3e 3f 64 d8 bd 2e 48 53 be
       0.5275351 0.47119185 -0.105659954 -0.20633003
0000a0 f7 44 94 3c 11 9a d0 3d 21 f1 24 bd 93 82 e5 3d
       0.018099291 0.10185636 -0.04026902 0.11206546
0000b0 9d 68 bd 3d 53 29 ee bc 88 0b 9e bd 05 18 e1 3d
       0.09248469 -0.02907244 -0.07717043 0.109909095
0000c0 e1 d9 35 be 79 3b 1a 3e 0f 7e 4d bf 36 32 a2 bf
       -0.17758895 0.1506175 -0.80270475 -1.2671573
0000d0 63 35 72 bd 74 b1 14 3e 04 ae b7 3e 3e 10 14 3d
       -0.059132945 0.14520818 0.3587495 0.036148302
0000e0 7a 91 67 3d a7 29 b5 bb 5a 8f 49 3e 0a 71 c3 bd
       0.05653522 -0.005528647 0.1968359 -0.09543045
0000f0 1f 97 8c bd e0 07 56 bd 79 05 ae 3d 97 70 dd bd
       -0.068647616 -0.052253604 0.084971376 -0.108124904
000100 a8 92 7a 3f 4c 95 ff 3d 0d 04 69 3f 26 2f 03 bf
       0.9788003 0.12479648 0.91021806 -0.5124382
000110 b2 f6 a2 bd a2 3f 01 be ed b9 91 3e 7d 99 c7 3e
       -0.0795721 -0.1262193 0.28462163 0.3898429
000120 ac 78 20 3f 27 ad 2e be 58 eb 92 3d 3d 4b 63 be
       0.6268413 -0.1705824 0.071737945 -0.2219667
000130 fc a5 26 bc 72 e8 09 bd 24 6c a2 3d b3 00 9f 3d
       -0.01017141 -0.033668943 0.079307824 0.07763805
000140 88 33 1f 3e 03 d4 f2 bd 2c 8d aa 3e be b0 3e bf
       0.15547001 -0.11856844 0.3331083 -0.7448844
000150 6a 10 1b 3f 3e 3e 22 bd 74 37 aa bd eb 01 78 be
       0.6057192 -0.03961014 -0.08311358 -0.24219482
000160 08 51 b5 bd 17 f0 2d 3d 8b 4c 76 3e fc f1 04 3c
       -0.08853346 0.042465296 0.24052636 0.008114334
000170 16 f5 38 3e db b7 dd 3d 40 47 89 be d9 fb 0b be
       0.18062243 0.10826083 -0.26812172 -0.13670291
000180 51 00 29 be a4 f5 22 be 14 45 46 3e 49 f2 a2 bd
       -0.16504027 -0.15914017 0.19362289 -0.079563685
000190 63 2d 91 3d 3e 30 a4 3e 74 99 a2 3e 5e 29 52 be
       0.07088735 0.32068056 0.317577 -0.20523593
0001a0 6e 2c 13 3d eb 41 6f bd 05 97 80 bd 2f 33 b8 bd
       0.035931043 -0.058412474 -0.06278805 -0.089941375
0001b0 f9 ba ca bd ad c7 28 be 7b c1 66 3d 9b 01 9d 3b
       -0.098989435 -0.1648242 0.05633686 0.004791451
0001c0 e5 fc 04 3f ed 21 a6 be 5d b3 7f bf e9 6b ab 3d
       0.51948386 -0.32447758 -0.9988306 0.083701916
0001d0 69 6f 4a 3f 31 74 21 be 8c 7b f6 be 78 0a 1e bc
       0.7907625 -0.1576698 -0.48141134 -0.009646051
0001e0 f5 69 7d ba 11 04 9f 3e 72 2a 2d 3e 4f dc 26 be
       -0.0009666973 0.3105779 0.16910723 -0.16294979
0001f0 92 9b b7 3b e0 f5 4a be 38 4f 3b be 3d fa 07 be
       0.005603262 -0.19820356 -0.18291938 -0.13279052
000200 22 5d 97 bd 92 59 07 bc eb 9f 18 3d c9 3e 97 3e
       -0.073908105 -0.008261101 0.037261885 0.2954009
000210 de 4f ba be fc 2f 3b 3f be d8 10 be 4c e6 11 be
       -0.3638906 0.73120093 -0.1414518 -0.14248008
000220 23 ec f4 bd e4 0c 32 bd 3e 1f f4 bc 8b 70 1a bd
       -0.11959102 -0.043469325 -0.029800054 -0.037704986
000230 93 7a 68 bd 5a c2 53 3d e8 64 95 3c 13 db 20 be
       -0.05675752 0.05169902 0.018236592 -0.1570857
000240 20 6f 65 3e bf 87 44 3f e9 a1 9a be 5e 18 0d 3f
       0.22405672 0.7676963 -0.30201653 0.55115306
000250 52 ad 86 3f cd 4a 0d be 3b bc 2a bd 77 88 2d bf
       1.0521643 -0.13798065 -0.041683417 -0.67786354
000260 b4 13 8c bc 0b c8 f1 be fe 09 b2 3e 2d a7 ae 3d
       -0.017099239 -0.47222933 0.34773248 0.0852798
000270 da b4 85 bd 01 b3 e8 3d 94 b3 f6 bd db ee 5a 3d
       -0.06528635 0.11362267 -0.120459706 0.053450447
000280 a7 6e df 3d ee ce 87 be 47 ad a6 be 64 eb b5 bd
       0.10909777 -0.26525062 -0.32554075 -0.08882788
000290 32 5d 13 3e a8 11 05 3e 19 09 dc 3c 4e 33 8c 3e
       0.1439102 0.12995017 0.026859807 0.27382892
0002a0 05 c5 2d 3e bd b8 fe bd 49 bf 8d be 7e 0f a2 bd
       0.16969688 -0.1243758 -0.27685001 -0.07913111
0002b0 42 1b 45 3e 6a e0 86 bd f9 6c 26 bd 1c 54 e4 3d
       0.1924868 -0.06585772 -0.04063127 0.11148855
0002c0 d6 3a 20 3f 4d 75 62 3f 69 b4 0d bd b1 34 14 c0
       0.62589777 0.88460237 -0.03459588 -2.315716
0002d0 63 97 55 bf fd 4c b4 3d 90 a8 0e 3e 25 1a 17 3f
       -0.8343412 0.08803747 0.13931489 0.5902427
0002e0 42 36 bc 3d 25 13 dc bd c6 04 72 3e c3 0e 4d bd
       0.09190036 -0.10745839 0.23634633 -0.050062906
0002f0 76 15 81 be 02 a3 2d 3e ce 3a 85 3e 5a 07 1c bd
       -0.25211686 0.16956714 0.26021427 -0.03809295
000300 ca 3f c5 3e d4 84 7d bd d4 04 32 3f ea de 8a be
       0.3852523 -0.061894253 0.6953862 -0.27123195
000310 0a 0b 2e be 4f e2 6c 3e 06 50 e8 ba f8 79 87 3e
       -0.16996399 0.23133205 -0.0017724044 0.26460242
000320 aa 27 9e 3d 7b 12 3e 3e c0 59 fb bb 3a aa 7d 3d
       0.07722409 0.18561737 -0.007670611 0.06192992
000330 4c c0 2c 3c 71 61 b1 bb 2e 8e 0a 3d 4b 74 fe bd
       0.010543894 -0.0054132272 0.033827 -0.12424525
000340 9f d1 85 3d c2 c4 0a 3e a0 62 4d 3e ee 58 20 3f
       0.06534123 0.1355162 0.20057154 0.62635696
000350 94 18 4a be b4 4d dc bd 21 c9 c9 be 96 ec 06 3f
       -0.19735938 -0.10757008 -0.39411262 0.5270475
000360 b7 92 c3 3c 05 67 94 3d 7c c6 c8 3d c4 3e 19 3e
       0.02387367 0.07246212 0.09803483 0.1496535
000370 04 b3 22 bb 1c cd 11 3e 14 d6 0c 3e 80 a6 bd 3c
       -0.002482594 0.142384 0.1375354 0.023150682
000380 fe ee 92 3f bb 03 9f 3d 65 35 84 3f e6 92 03 be
       1.1479185 0.077643834 1.0328795 -0.12849006
000390 7f e5 eb be b4 55 a7 be 6f df 0b bf ef 41 9a 3e
       -0.4607353 -0.32682574 -0.5463781 0.30128428
0003a0 01 ac 45 3e 33 66 fc 3c c0 3a cc bc 30 99 c7 3d
       0.19303896 0.030810451 -0.024930358 0.09746015
0003b0 07 22 1e 3e de de c5 3d 87 b8 f4 bc 50 79 eb bc
       0.15442668 0.09661649 -0.029873146 -0.02874437
0003c0 60 da 58 be 4d e0 2e bf a8 6d 7c be 06 b7 2a bf
       -0.21177053 -0.68311006 -0.24651206 -0.6668552
0003d0 b6 3c 10 bf 99 c9 fe bd be e0 82 bf ef 13 c5 3e
       -0.5634264 -0.124407955 -1.0224836 0.3849177
0003e0 09 15 83 bd 1c 47 6a bd 13 56 7c bd 88 7c 8c be
       -0.064004965 -0.05719672 -0.061605524 -0.2743876
0003f0 98 b8 c1 bc dc af f4 bd dd 2e d4 3d bc 2e 8c bd
       -0.023647591 -0.11947605 0.10360501 -0.068448514

actor.0.bias f4 [64]
000000 39 bb 35 be bd 80 b9 3d aa bb cc be a7 86 67 3d
       -0.17747201 0.09057758 -0.39986926 0.0565249
000010 8c 9b 93 3d b8 6c ab be 7f 46 b4 be 29 23 be bd
       0.072074026 -0.33481383 -0.35210034 -0.0928405
000020 9f dd a7 3e d3 19 4d 3e 9c ab ab bd 5a a8 14 3e
       0.3278627 0.20029382 -0.08382341 0.14517346
000030 52 d1 c5 3d ae da a3 be 5a fe 98 be 50 37 80 be
       0.09659065 -0.32002777 -0.29881555 -0.250422
000040 56 45 1d 3f c0 cd 09 3e bf f0 63 3e 60 90 e3 bb
       0.61433923 0.13457394 0.22259806 -0.006944701
000050 6e 28 86 3e ab f7 ff 3d 21 b8 04 be ff 61 cb 3d
       0.2620272 0.12498411 -0.12960865 0.09930801
000060 74 e4 15 bf 19 e7 37 3f 5a ab b0 3c 42 5d 83 be
       -0.58551717 0.71837 0.021566082 -0.25657088
000070 12 98 d8 bd 7a e5 9c 3d cc 25 c4 bd fb a7 b4 3e
       -0.1057588 0.07660957 -0.09577522 0.3528441
000080 98 80 ee be fc 3a 62 3c cd 65 8e 3d 72 58 d7 bc
       -0.46582484 0.013808008 0.06953011 -0.026287291
000090 60 c1 6f 3e c5 ad 97 3e 23 f6 5b be 9a 53 90 bc
       0.2341361 0.29624763 -0.21480612 -0.01761799
0000a0 59 45 29 3e 55 8e 34 be 08 32 e8 3e 18 8f ff bc
       0.1653036 -0.1763242 0.4535067 -0.031196162
0000b0 f8 e4 e5 3e 56 89 93 3e ea ef 5b be e3 1d 1b 3d
       0.44901252 0.28815717 -0.21478239 0.0378703
0000c0 5b cc 91 3e 63 a2 b5 bd 5a 54 41 be 81 ce 66 be
       0.28476223 -0.088688634 -0.18879834 -0.22539712
0000d0 8c 11 25 3e d5 c3 0b 3e 7d 52 cd be 7b 54 bc be
       0.16119975 0.13648923 -0.40101996 -0.36783203
0000e0 1c 3a ce be fb 40 12 bd 93 25 3a 3e 3f 12 e6 3e
       -0.4027871 -0.0357065 0.18178396 0.44935796
0000f0 a2 58 3a bd e0 18 0a 3e e5 40 a0 3e 4a 83 05 bd
       -0.045494683 0.13486052 0.3129951 -0.03259591

actor.2.weight f4 [64, 64]
000000 1a 8b 66 bc b0 8b 85 be 7e 1f 9c 3e 55 3d d5 bc
       -0.01407125 -0.26083136 0.30492777 -0.026030222
000010 bf 39 00 3e 5d 09 33 bd 38 aa 28 3e 6a a7 05 3d
       0.12522028 -0.0437101 0.16471183 0.03263036
000020 88 26 10 bd 99 e1 a0 be ac f3 4a 3e 1f 20 5c 3e
       -0.035192996 -0.31422117 0.19819516 0.21496628
000030 c9 76 86 bd bd 1a 35 bb 5d d9 33 be e3 97 c7 be
       -0.06565625 -0.0027634345 -0.17563386 -0.38983068
000040 b9 c6 ce 3d 19 e9 12 3d c3 54 c3 bc 95 ed 85 bc
       0.10096497 0.03586683 -0.023844128 -0.01634864
000050 38 1f 37 bd e1 09 83 3e 1a 14 93 3d df 87 d0 3d
       -0.044707507 0.25593475 0.071815684 0.10182165
000060 76 c1 a0 3e 70 14 9b be ec 7c 01 be 30 8f 48 3e
       0.313976 -0.3028903 -0.1264531 0.19585872
000070 b8 d5 a7 3e 86 d3 57 be 87 7b df 3d 88 fe 57 3e
       0.32780242 -0.21076784 0.10912233 0.2109319
000080 e5 99 a9 3d 79 5e 8d 3e 22 6a ad bd b7 95 6d be
       0.08281306 0.2761114 -0.08467509 -0.23201643
000090 8d 15 4b be 13 86 d3 bd 8d 04 82 bc b7 7e 93 bd
       -0.1983244 -0.10328307 -0.01587131 -0.07201903
0000a0 68 bb 1b be e8 c4 a1 bd ec a2 a0 ba 81 d7 8e 3d
       -0.15208209 -0.07898885 -0.0012255586 0.06974698
0000b0 8d 36 b6 bd 39 c6 05 3d d1 fa a9 3d 15 0d 95 bd
       -0.088971235 0.032659743 0.082997926 -0.07277886
0000c0 58 ba 37 3d fa 03 d0 bd 00 ee 48 3e e7 4e 04 3d
       0.044855446 -0.101570085 0.1962204 0.03230181
0000d0 7e 77 42 3e 1c 6b 76 bc 07 26 39 be 97 b8 e3 bc
       0.18990895 -0.015040185 -0.18080913 -0.02779798
0000e0 7c 8c b2 bb 8f ed e2 bd 69 80 f5 3d 46 fd c9 bd
       -0.005448876 -0.11080467 0.11987383 -0.09862761
0000f0 5f 3c 77 be 9a 95 ae bb b5 41 12 3e f0 02 78 bd
       -0.24144123 -0.0053278925 0.14282878 -0.060549676
000100 7b b2 c6 3d e0 9b 41 be 99 1d e1 be 3f c1 28 3e
       0.09702011 -0.18907118 -0.43967894 0.16479968
000110 59 dc 60 bd fd a9 c3 ba bd ca 28 bd 09 8f ab bc
       -0.05489764 -0.001492798 -0.04120897 -0.020942228
000120 60 b1 f7 3d 87 9b 57 3e dd b6 b3 bd 2c 92 27 3e
       0.120943785 0.21055423 -0.08775113 0.16364354
000130 38 af c2 bd 78 d3 11 be bc 93 15 be 03 ff a8 bc
       -0.095060766 -0.14240825 -0.14607137 -0.020629412
000140 46 b3 24 3e b1 e8 3b bd 46 85 60 3e 35 51 18 bc
       0.16084012 -0.04587621 0.2192584 -0.009296705
000150 a0 2d e6 3d 85 8c 78 bd 01 8b 7c 3d 93 47 3a 3e
       0.11239171 -0.060680885 0.061656002 0.18191366
000160 fc 52 f4 bd f3 3c 9c bc 72 e2 d1 3c ac 89 99 bd
       -0.119298905 -0.019072032 0.025620673 -0.07496962
000170 cb db 3e be d6 db 4c 3e 16 c8 10 3e a1 e9 92 3e
       -0.18638532 0.20005736 0.14138827 0.2869387
000180 55 72 93 bd 6c c3 ce bd d0 a7 38 bd 7a e9 29 be
       -0.071995415 -0.100958675 -0.045081913 -0.1659297
000190 f6 95 67 3d 86 32 60 3e 4b cb 33 bd 52 a4 e4 3d
       0.0565395 0.21894273 -0.043895047 0.11164154
0001a0 da 98 88 bd 9d a8 b3 bd 31 65 97 bd b4 58 85 3d
       -0.06669779 -0.08772395 -0.073923476 0.065110594
0001b0 27 b1 86 3e 05 cc c2 3d 1a 3a dc bd 80 fd 28 3e
       0.26307032 0.0951157 -0.107532695 0.16502953
0001c0 40 e9 4b 3b f3 62 0e 3e d2 df 9d 3d f7 c2 9e 3d
       0.003111437 0.13904934 0.07708706 0.0775203
0001d0 a7 ba 83 bd 38 5a 6c 3d e8 be 13 be fb a6 26 be
       -0.064320855 0.057703227 -0.14428294 -0.16274635
0001e0 3c 03 12 be 9f 5c 55 be 9c 16 7d 3d 0d b5 1d 3e
       -0.14259046 -0.20836113 0.06178914 0.15401097
0001f0 e2 9f f5 3d db fa 5c 3e 3b 16 ce bd c1 f4 f2 bd
       0.11993386 0.21580069 -0.10062834 -0.11863089
000200 a9 9f 61 3c 6b 47 d3 be c9 ee 3d 3d 3a c4 ef bd
       0.013770976 -0.41265425 0.0463703 -0.11707349
000210 59 3a 83 3d db 70 2e be 41 83 dc bb 25 30 01 be
       0.06407613 -0.17035238 -0.006729514 -0.12616022
000220 d8 2e 19 3d 48 64 c3 be 92 03 6d 3c 79 1a 44 3d
       0.03739819 -0.38162446 0.014466183 0.04787681
000230 18 c5 84 be 7b e1 93 bd 81 c2 d8 be e7 61 42 be
       -0.2593162 -0.07220741 -0.42335895 -0.1898266
000240 e8 c1 85 3d 0e 35 3a 3d 87 ad 1e bc d4 48 9a 3c
       0.06531125 0.045460753 -0.009684927 0.018833555
000250 d9 d8 91 bc 5c 0d 6a 3e f3 ec 90 3e 4c ab 0d bd
       -0.017803596 0.22856659 0.28305778 -0.03458719
000260 a4 be 1a 3e 1b cd 1e bd 4d d8 52 be 7d c4 54 3e
       0.15111786 -0.038769823 -0.20590325 0.2077808
000270 ba 2f c1 3e 2d 04 27 3e a9 2e a0 3d ff c2 9a 3e
       0.37731725 0.16310187 0.078214 0.30226895
000280 6e a6 b4 3d cb 82 87 3e 58 95 ae 3d 3b 0e da be
       0.088208064 0.26466975 0.08524579 -0.42588982
000290 98 5a dc be 8c d2 4a be 60 ee d6 bd 8c f8 34 be
       -0.43037868 -0.1980688 -0.10494685 -0.17672938
0002a0 c7 c5 21 be 59 b4 46 be 3b 67 f7 bd 64 67 18 3d
       -0.15798102 -0.19404735 -0.120802365 0.037207976
0002b0 5c a5 04 be 0e 0e 11 3e 31 37 82 3e 80 47 04 bb
       -0.12953705 0.14165518 0.25432733 -0.002018422
0002c0 1e 5e e3 3d 1b 6c 92 bd 66 9e 1b 3e 04 76 a5 bd
       0.11101936 -0.07149526 0.15197143 -0.0807915
0002d0 a9 62 c5 bd 5b 71 b5 3d 2a 84 55 be 1b 29 d2 3c
       -0.096379586 0.088595115 -0.20851198 0.025654366
0002e0 ae e1 d2 bd 2c ae 31 3c 56 7d 04 3e 32 39 55 bc
       -0.10296951 0.0108447485 0.12938437 -0.013014125
0002f0 55 4f 83 be 2c be df 3d 59 be 16 3e 5c a1 09 bd
       -0.25646463 0.10924944 0.1472105 -0.03360115
000300 63 c1 08 bd bd 6b cd bd 47 29 09 be c5 b5 b2 bd
       -0.033387553 -0.10030315 -0.13394652 -0.08726076
000310 6f a9 ee bd 9b 3b fe 3d c1 30 c0 bd 74 7c 86 3e
       -0.11653411 0.124137126 -0.09384299 0.26266825
000320 7e 07 61 3d e2 08 c2 3d 14 74 e4 bd 4b f0 d3 bd
       0.054938786 0.094743505 -0.11154953 -0.103485666
000330 2f b7 4e 3e ab d6 92 bd a5 42 ef bd 6b 63 00 3d
       0.20187066 -0.07169851 -0.11682633 0.031344812
000340 ec b4 da 3d 1f e6 3b 3d 90 a4 33 3e e4 2e d0 3d
       0.10679039 0.045873757 0.17543244 0.10165194
000350 05 23 bf 3d ee 66 3e 3e 86 d7 39 bc 5b aa 95 3d
       0.09332851 0.18593952 -0.011342889 0.07307883
000360 19 e7 dd be 91 cc d6 3d e6 a2 7e 3e b6 c3 92 be
       -0.43340376 0.10488237 0.24866828 -0.2866494
000370 b1 9b 56 be 27 ee 0e 3d 1b 03 ff 3c 48 48 c8 3d
       -0.20957829 0.03489509 0.03112941 0.097794116
000380 98 e6 2f 3c e1 94 85 3d bf dc 75 3d 9c af ac 3c
       0.01073613 0.06522537 0.060024973 0.02107983
000390 f2 e9 9a 3e 14 da b1 3d e0 b2 a5 3d d8 1b 18 be
       0.3025661 0.08684173 0.08090758 -0.14854372
0003a0 0d e5 99 3c 95 c6 e8 bd 94 bf d1 bc c0 88 50 3d
       0.018785978 -0.113660015 -0.025604047 0.050911665
0003b0 f9 8e 1a 3e d1 e6 70 3d 21 06 cc bd 9a 95 91 3e
       0.15093602 0.058813874 -0.099621065 0.2843445
0003c0 81 89 be bb ed 23 79 3d e1 31 13 be 5a f3 91 3d
       -0.0058147316 0.060825277 -0.14374496 0.07126494
0003d0 b0 c1 07 be e3 8c 84 3e d8 e8 62 be ba f5 ac 3c
       -0.1325748 0.25888738 -0.22159135 0.021113265
0003e0 65 dd 05 be 9e 19 d0 bd a7 5d 81 3e fe f6 29 3e
       -0.13072737 -0.10161136 0.25266764 0.16598126
0003f0 fb 7d 0d 3b fb 82 ed 3d d2 38 b9 3d c7 59 c5 3e
       0.0021589983 0.11597248 0.09044041 0.38545057

actor.2.bias f4 [64]
000000 3e 7a 7c be cd 66 c8 3b 3c 42 08 be 5c d4 e5 3d
       -0.24656007 0.0061157704 -0.13306516 0.11222145
000010 89 36 aa bd 9b ae e7 bd 74 50 49 be ee ec 99 be
       -0.08311183 -0.113126 -0.19659597 -0.30063576
000020 56 2a d4 bd 40 13 25 bc e7 b8 79 be 31 28 d1 be
       -0.103596374 -0.01007539 -0.24386941 -0.40850976
000030 d0 92 92 be d9 40 2f bd 54 c2 4e 3e f5 92 36 be
       -0.28627634 -0.042786453 0.20191318 -0.17829497
000040 2d 01 1e bd ba 37 a9 be d6 e0 58 be 36 71 58 be
       -0.03857534 -0.33050328 -0.21179518 -0.21136937
000050 8a a9 93 be f7 dc 7f be 36 6b 40 be d0 78 70 be
       -0.28840286 -0.24986635 -0.18790898 -0.23483586
000060 b6 d2 90 be c4 08 89 be ea 19 8d be 0e 4c 3c be
       -0.2828576 -0.267645 -0.27558833 -0.18388388
000070 9a b9 c8 bd 71 ed 96 be e5 60 78 3e 77 dd c5 be
       -0.09801026 -0.29478028 0.24255712 -0.38645527
000080 98 9b 87 bd 67 75 d3 3d 08 1f 81 be 59 33 21 be
       -0.06621474 0.10325127 -0.25218987 -0.15742244
000090 45 9a ac be f9 f9 6f be ae 67 45 be 3c 7f 6b bd
       -0.33711448 -0.23435201 -0.19277832 -0.057494387
0000a0 84 f6 9a be 65 51 6d be c9 4b 39 bd 99 c8 a7 bd
       -0.30266201 -0.23175581 -0.04523829 -0.08192558
0000b0 d9 02 57 be 2f 20 c4 be 27 e6 60 bc 9a 11 07 be
       -0.2099718 -0.38305804 -0.013726748 -0.13190308
0000c0 4f 44 cc 3d d1 d0 4e be df 68 b1 3c bc 1a b9 3a
       0.09973966 -0.20196845 0.021656452 0.0014122347
0000d0 24 09 52 be 77 7e 1a be 92 a4 b0 bc 8e 11 89 be
       -0.205113 -0.15087305 -0.021562848 -0.26771206
0000e0 dd 48 f4 bd 93 48 6d bd d6 0b 1e bd 52 7e 4e be
       -0.1192796 -0.05793054 -0.038585506 -0.20165375
0000f0 96 85 a7 be e1 14 63 be 91 e8 9c 3c 2c 27 e9 3c
       -0.32719105 -0.22175933 0.019153865 0.028461061

actor.4.weight f4 [7, 64]
000000 3a 1e 9c bb 01 30 53 3e 2e 84 8d 3d 43 ec bd bd
       -0.0047643455 0.20623781 0.06909977 -0.09273579
000010 1b c6 54 bc af 0e e4 3d 92 21 9a 3d e6 72 6a 3d
       -0.012986685 0.11135613 0.07525934 0.057238482
000020 00 1e 51 be 53 45 a9 3d 2d cf 27 3e 62 bd f9 3d
       -0.204216 0.08265176 0.16387625 0.12194325
000030 63 a1 63 3d d2 49 26 3e 9e ea 7f 3e dc 7f 55 be
       0.055573832 0.16239098 0.24991843 -0.20849556
000040 70 d4 bc 3d ba 14 9d ba 90 60 c7 bc dc 3a d4 3c
       0.09220207 -0.0011984326 -0.024338037 0.025906973
000050 cd af 94 be ad 6f 84 3d c8 2d 89 3d 3c 3b e0 bd
       -0.29040375 0.06466613 0.06698185 -0.10948798
000060 ca 61 49 bc d3 a1 1e 3e 17 2d 8c bd 27 c4 da bc
       -0.012291381 0.15491419 -0.06844538 -0.02670486
000070 8c b1 f8 3d e3 c1 91 bd e5 70 00 bd ad e0 86 3c
       0.121432394 -0.07117059 -0.031357665 0.016464556
000080 4a a9 01 3e c2 90 65 3e 1d e3 5c 3e 6a d6 95 3d
       0.12662235 0.22418502 0.21571012 0.07316287
000090 be 47 c2 bd dd 7d e9 3d 0d b1 02 3d 6b 36 fd 3d
       -0.0948634 0.1140096 0.03190713 0.12363895
0000a0 e8 5d 55 3e e4 48 90 3d a8 96 85 be 2b 08 35 bc
       0.20836604 0.07045153 -0.26091504 -0.011049311
0000b0 a7 d4 cb 3c 06 0e ab 3a 31 9b a0 3e f8 ce 35 bb
       0.024881674 0.0013050444 0.31368402 -0.0027741771
0000c0 58 3e 05 3e 89 19 5d bc 65 68 1b 3e d2 83 e0 bc
       0.13012064 -0.013494858 0.15176542 -0.027406607
0000d0 16 bc ef bc 2a 21 a8 ba 62 cb e8 3c 21 4e 98 bd
       -0.029264491 -0.0012827266 0.028417293 -0.07436777
0000e0 3c 67 20 3e ab dd 79 be 8b 2b 58 3c 99 e2 ff 3c
       0.15664381 -0.24400966 0.013193975 0.03123598
0000f0 dc 57 e1 3d 2e 45 66 3e cd 46 c1 3d 46 14 19 bd
       0.11003086 0.22487327 0.09437332 -0.03737285
000100 f9 fe c7 3d 78 ad c1 3d ad 3f 43 3e fb 0f 84 3d
       0.09765429 0.09456915 0.19067259 0.064483605
000110 13 87 cc bd 87 c2 8d bd af 61 1f be a4 9f cc bc
       -0.09986701 -0.06921869 -0.15564607 -0.024978466
000120 cc 50 01 bd 7a c0 82 3d ac fa 7c be 21 d8 a7 ba
       -0.031571195 0.06384368 -0.24704999 -0.00128055
000130 f8 b4 25 bd ab 61 d8 bc a3 82 82 3d 97 ac fe 3d
       -0.04045579 -0.02641376 0.06372573 0.12435263
000140 84 bc 2b be 55 b4 2c be e5 12 71 3e ea d6 f1 bd
       -0.16771132 -0.16865666 0.23542364 -0.1180857
000150 d2 3f 26 bd a2 5c 2e 3e de 83 14 3d 42 49 19 bd
       -0.040588208 0.17027524 0.03625857 -0.03742338
000160 8b 78 58 be 8f c2 79 3d e4 41 2c be 17 33 2c bd
       -0.21139733 0.06097656 -0.1682201 -0.04204091
000170 bc 61 0d 3d d7 66 bc 3d d2 22 84 3e 80 38 f1 3c
       0.034517035 0.09199303 0.25807816 0.029445887
000180 59 78 3a 3e b6 24 c7 bd df f4 20 be 9d a9 91 be
       0.18209971 -0.09723799 -0.15718411 -0.28449717
000190 4b ed 45 be e8 16 96 bd 6c ad 8f 3e 17 5f 73 3d
       -0.19328801 -0.07328588 0.28061998 0.059416857
0001a0 3c 4e f0 bd ce e6 34 bd 57 98 75 bd 42 1d 8d 3d
       -0.11733672 -0.044165425 -0.059959736 0.06890346
0001b0 e4 74 88 3e 61 59 07 be 86 87 3d 3e 1e df 1a bb
       0.2665168 -0.13217689 0.1850873 -0.0023631523
0001c0 ce dc 35 3e 2f eb 7c 3b 59 a5 24 3e a3 b9 22 bd
       0.17760012 0.0038592329 0.160787 -0.03972782
0001d0 7e 01 c7 3c 9b 9c 41 be 18 91 e9 bd 77 af 53 3d
       0.024292704 -0.18907396 -0.114046276 0.05168101
0001e0 79 4f 8c 3c 59 bd 9c 3d b4 fb 97 bd 94 04 a7 be
       0.01712774 0.07653303 -0.074210554 -0.3262068
0001f0 64 37 8b 3d 7c 43 3a 3d c1 70 ae 3d 8a 33 89 3d
       0.06797674 0.045474514 0.085176 0.066992834
000200 5d 0f 94 3d 9d a9 de bb 3f fb 16 3e 0f 05 d9 bd
       0.07229493 -0.006795122 0.1474428 -0.10596668
000210 b4 48 e8 bd d6 ac 30 be d8 dc 42 3e 90 5d 9c 3d
       -0.11341992 -0.17253432 0.19029558 0.07635033
000220 b7 af a0 be 66 c0 36 3e ef 5d 0d 3e 47 51 3d 3c
       -0.3138406 0.17846832 0.13805364 0.011555023
000230 af 60 a9 3c 04 77 ea bd b4 40 8d 3e 54 c7 ac 3d
       0.020675985 -0.11448482 0.27588427 0.08436456
000240 85 cd 55 be ae cb 9d bd 27 d2 f9 3c bc bf f1 3d
       -0.2087918 -0.077048644 0.030495716 0.118041486
000250 d7 1c 76 be 7f 0e 87 3d a5 c9 ef 3d 6e 38 32 be
       -0.24034439 0.06594562 0.117083825 -0.17404339
000260 3f ac 17 bd 48 13 92 3d f6 74 0c bd fd 70 c9 bd
       -0.0370295 0.07132584 -0.03429123 -0.09836004
000270 26 8c c6 3d 07 c0 0b be 7c a2 8c be b5 d5 44 3e
       0.096947 -0.13647471 -0.27467716 0.19222148
000280 ba 9a e5 3c 47 16 3a 3e d5 a2 94 3d 6a 1a d2 3d
       0.028027881 0.1817256 0.0725762 0.10258944
000290 d6 20 f1 3d f3 71 02 3d 82 0e c5 3d 2b 4b 05 3d
       0.11773841 0.03184695 0.09621908 0.03254239
0002a0 6b ec 4b 3e 33 a0 86 bd 74 b9 d7 bd 8d 2a a2 bd
       0.19914405 -0.06573524 -0.10533419 -0.07918272
0002b0 8c b6 32 be 88 cd 22 be 08 b6 c1 3e 63 88 e4 3d
       -0.17452449 -0.15898716 0.3783419 0.11158826
0002c0 7a 99 cb bc fd 19 18 bd 0d bc 91 3d 6b c5 2d bd
       -0.024853457 -0.03713416 0.07115946 -0.0424246
0002d0 83 21 20 3d 87 d2 00 bd 72 52 88 bc 02 8a 70 bd
       0.03909446 -0.031450775 -0.016640875 -0.058725365
0002e0 8e bb 09 3e b0 78 46 be d1 d2 b9 bd 58 5c 46 bd
       0.13450453 -0.19381976 -0.09073413 -0.04842791
0002f0 ea 55 ca 3d d4 1d 52 3e 85 cd 13 3e 07 6e b5 bd
       0.09879668 0.20519191 0.14433868 -0.08858877
000300 5b be 83 3e 37 f4 e8 bd 3f 60 8b 3e 4e a0 2d be
       0.25731167 -0.11374705 0.27221867 -0.16955683
000310 36 75 e3 bd da 4b 6d bc 27 32 b6 3d 9c 87 5e 3e
       -0.111063406 -0.014483416 0.088962846 0.21731418
000320 5f ce bd 3d 11 48 69 bd d7 98 81 3e 75 b4 a8 bd
       0.09267878 -0.056953494 0.2531192 -0.082375444
000330 40 ab 61 3e 59 45 4f be a6 be cb be d5 34 e9 bd
       0.22037983 -0.20241298 -0.3979389 -0.1138703
000340 f8 0f ba 3c 97 ed ac 3d e6 7b 8a 3e e1 d6 59 be
       0.022712693 0.08443754 0.27047652 -0.21273376
000350 ea c1 b6 3d be df ef 3d 41 ae aa 3c 18 45 64 be
       0.08923705 0.11712597 0.020835044 -0.22291982
000360 ed 8d e0 3c 4e da 71 3d 04 14 4f 3e 93 1e 19 3d
       0.027411425 0.059046082 0.20222479 0.037382673
000370 ef 0e 6e be 21 f6 41 3e 4e 29 33 bc 81 e3 8a bd
       -0.23247884 0.18941547 -0.010935141 -0.06781674
000380 6b 29 24 3e cd c8 82 3d 79 81 f3 3c cb 9d 67 3d
       0.16031425 0.06385956 0.029724823 0.056546967
000390 fb e2 39 3d ea a7 ad 3d 5e d5 c1 3d 64 56 d4 bd
       0.04538248 0.08479293 0.09464525 -0.1036804
0003a0 b5 ad 58 be 3b 53 2a 3e 5f d4 b9 be f3 68 1f 3e
       -0.21160014 0.16633312 -0.3629484 0.15567379
0003b0 bc b5 31 3e 1a 95 47 3e 80 95 a3 3d f5 a7 4c 3c
       0.17354482 0.19490471 0.07987499 0.012491216
0003c0 88 8a 5e be 99 e2 aa be 7c d1 1b 3c 02 b7 f1 bd
       -0.21732533 -0.33376005 0.009510394 -0.11802484
0003d0 0e 07 02 3e 63 0b 13 bc a7 41 1c be 7c f0 34 bc
       0.12698004 -0.008974883 -0.1525942 -0.011043664
0003e0 ff fa fa bd fc cf eb bd 4e b1 4d bc 2c 36 92 be
       -0.12254905 -0.11514279 -0.01255448 -0.28556955
0003f0 6c 35 c0 3c 8c ea 21 3d fd d8 a3 bd a2 3b 36 be
       0.023462974 0.039530322 -0.080003716 -0.17796186

actor.4.bias f4 [7]
000000 be cd 75 bc 74 a6 26 3e 36 ea 37 bd fc 3f de 3d
       -0.015002666 0.16274434 -0.044901095 0.10852048
000010 10 8d 51 3d 5e 67 45 be 92 90 b3 3d
       0.05115992 -0.19277713 0.08767809

critic.0.weight f4 [64, 32]
000000 6a a7 04 bd 58 cf 9a bd 88 80 6e 3d b0 6f 26 3e
       -0.03238622 -0.07559079 0.058228046 0.16253543
000010 ea 7f 12 be 4c a2 6b 3d 01 b6 91 be 39 36 00 3e
       -0.14306608 0.057527825 -0.2845917 0.12520684
000020 4e ae ba bc 70 d8 3d 3d 46 3c 0c be 2c ab a3 3d
       -0.022788193 0.04634899 -0.13694867 0.07991633
000030 eb 1a 7b bd f3 16 44 3d 68 fb b1 bb a1 aa 3a 3c
       -0.061304968 0.04787345 -0.0054315813 0.01139322
000040 60 a0 06 3c 0c 92 9c 3d dd 9d a4 be f3 e7 60 bd
       0.008216947 0.07645044 -0.3215169 -0.054908704
000050 c3 22 61 3e cd 35 35 3d 04 69 4b be c1 63 a8 be
       0.21985917 0.04424076 -0.19864279 -0.32888606
000060 96 68 fd bd c3 55 a1 3d 63 c2 18 bd 14 89 12 bd
       -0.12373464 0.07877686 -0.037294757 -0.03577526
000070 76 08 22 bb 3d a4 90 bd c2 2e 24 bd fc 36 6c bb
       -0.0024724281 -0.07062576 -0.040083654 -0.0036043515
000080 e5 1c aa bd 61 04 01 3e 31 a6 26 bc 0c ee 19 3e
       -0.083062924 0.12599327 -0.010171459 0.15032214
000090 60 b4 78 3d 86 07 77 3e d4 e2 1a 3e b6 fb c9 bc
       0.060718894 0.24123964 0.1512559 -0.024656158
0000a0 36 c7 c9 3c b7 37 e4 bc 77 74 ea bc ab d3 19 bd
       0.024631124 -0.027858598 -0.028619988 -0.037555378
0000b0 26 e5 19 be 7f c7 3f bd 1d a6 99 bd 9b 96 55 3b
       -0.1502882 -0.046821114 -0.07502387 0.0032590989
0000c0 ba 76 96 bd 37 43 ed 3d ee 74 e9 3d 5c 6f ae be
       -0.07346864 0.11585086 0.11399256 -0.34069335
0000d0 87 7e 9b 3d 49 a8 8d 3d ad b6 89 3e 2b b8 17 3e
       0.075924926 0.069168635 0.26897183 0.14816348
0000e0 ec 52 1d bc 73 ec 22 3c 61 90 d8 3d cc 1c c8 3c
       -0.00960229 0.009944069 0.10574413 0.024427794
0000f0 2d f1 19 3c 1e 5b d8 bb 82 f8 b7 3d 56 97 27 be
       0.00939588 -0.006602659 0.08982946 -0.16366324
000100 53 8a 4a bc 48 3e e5 3d 03 2a 57 be 8e 76 1e 3c
       -0.012362081 0.1119352 -0.2101212 0.00967182
000110 5f 32 b3 3d 68 3e 40 3a 2a 1e 9e bd 32 8e 6e bc
       0.08749842 0.0007333518 -0.07720597 -0.014560269
000120 77 c5 e7 3d 02 6e 00 be 8a 28 41 3d 55 91 c9 bd
       0.1131696 -0.12541965 0.0471578 -0.09842173
000130 34 36 3b bd 86 e7 3d 3d 22 df 68 bd 86 bd 02 3d
       -0.04570599 0.046363376 -0.05685342 0.031919025
000140 9f 73 b3 3d fa b6 77 bd e6 db 6a be e9 7c f2 be
       0.08762287 -0.060477234 -0.22935447 -0.47360924
000150 2f 75 ae bc d1 20 60 3d 44 de 96 bc 1a 95 b1 bd
       -0.021296112 0.054718796 -0.018416531 -0.08671017
000160 7b e9 b3 bd 3d 98 14 3d bc 0b bb 3b 6d d8 c9 bd
       -0.08784767 0.036278 0.005708186 -0.09855733
000170 72 87 da 3d de b6 ee bc 6e a5 f6 bc 37 07 48 bb
       0.106703654 -0.029139932 -0.03010818 -0.0030521879
000180 b2 0c 0c be 1a e8 e8 3d bf b0 8d 3d d4 9e 17 be
       -0.13676718 0.11372395 0.06918477 -0.14806682
000190 e3 68 85 3d 6e 97 4c 3d 78 b4 7d 3e cc 8f 6e 3e
       0.06514146 0.049949102 0.24775875 0.23297042
0001a0 05 2e b0 3d ad f8 b1 bd d3 12 b1 bd ba c4 bf bd
       0.086025275 -0.08690009 -0.086461686 -0.093636945
0001b0 04 eb 60 3d 39 db 0f 3d 5e ec 65 bc 08 a5 c1 3b
       0.05491163 0.035121176 -0.014033405 0.005909566
0001c0 31 78 1f 3d 55 e1 78 3e 27 8b 14 be 45 e2 44 bf
       0.038932983 0.24304707 -0.14506207 -0.7690776
0001d0 7c 27 96 be df d6 fd bd 19 88 89 bf 1a 64 84 3e
       -0.29327 -0.12394499 -1.0744659 0.2585762
0001e0 fe 54 25 3e f5 26 bb bc 3b 98 20 bd b4 90 d7 3d
       0.16145703 -0.022845725 -0.03920768 0.10525647
0001f0 80 88 fa bc 2f b6 b7 bd 98 c5 42 3d 58 1c 5c 3d
       -0.030582666 -0.08970296 0.04755172 0.05373797
000200 5f 11 28 be 4d 7a d7 bd f9 d8 50 3d 7c ee 5e bc
       -0.16412877 -0.10521374 0.05098817 -0.013606664
000210 6c 4a 91 3e 87 7e db 3d b5 03 7e 3e 60 98 30 3d
       0.28377092 0.107174926 0.24806102 0.043114066
000220 f3 10 03 bb 2d 90 a4 bc 75 7f 03 bc 8c 18 52 bc
       -0.0019999116 -0.02008828 -0.008025994 -0.012823235
000230 53 26 64 3b 01 5d 33 ba 2f 0e ba 3b 36 b6 63 3b
       0.0034812882 -0.0006842167 0.0056779603 0.0034746057
000240 02 28 26 bc 16 48 0e 3d d7 9c 84 3e 44 df aa bd
       -0.010141375 0.034736715 0.2590091 -0.08343366
000250 79 e5 9b 3d f0 bc 23 3d fb 5c 22 bf 81 1e b1 3e
       0.07612128 0.039975107 -0.63423127 0.34593585
000260 2b 33 11 be 7b 00 93 bc 74 b5 86 bd c0 08 2f bd
       -0.14179675 -0.017944565 -0.06577578 -0.042732954
000270 d1 b4 59 bc 15 81 a2 bb 64 49 01 bd d7 58 94 3d
       -0.013287739 -0.0049592354 -0.03156413 0.07243507
000280 41 a4 db bd 47 dc 40 bd 97 c0 46 bd 62 09 71 3b
       -0.10724688 -0.047085073 -0.04852351 0.0036779274
000290 0f e8 17 3e 76 06 99 3d ca 6d b9 3b 36 31 ba bd
       0.14834617 0.074719355 0.00565884 -0.090914175
0002a0 0a aa 8d 3d 6b 3b 12 3d b2 bb 6f bd 1b c2 27 bc
       0.06917198 0.035701197 -0.05852861 -0.010239149
0002b0 40 0d 4e 3d ed 2e 91 bb 17 b5 af ba b6 19 b4 3b
       0.050305605 -0.004430643 -0.0013405409 0.005496229
0002c0 cb be 90 3d 69 92 07 be 03 ac 77 be c2 b7 a5 3c
       0.07067641 -0.13239445 -0.24186711 0.020229224
0002d0 e2 66 85 be 9b c9 1a be 9c 2f 15 3f 9d 1a e7 3e
       -0.26055056 -0.15115969 0.5827577 0.45137492
0002e0 c0 86 91 3d 15 88 91 bd c0 4d 15 3e 9e 83 c7 3c
       0.0710578 -0.07106034 0.1458044 0.024354752
0002f0 86 21 9a 3d 65 17 d7 3c 3a 60 a8 3b fb 5e de bc
       0.07525925 0.026256273 0.005138424 -0.0271449
000300 91 74 20 3e 90 44 68 3e 15 9f c6 bd f9 f2 24 3e
       0.15669467 0.22682405 -0.09698311 0.16108312
000310 26 9e 18 3e bf bf de 3d 75 d3 a3 3d d7 dc f6 bd
       0.14904079 0.108764164 0.079993166 -0.120538406
000320 a0 b6 d0 3d 8d 08 4f 3d 78 93 0e 3c 13 f4 de 3c
       0.10191083 0.050545264 0.0087021515 0.027215993
000330 46 26 a5 bb c8 42 4c bc 71 fc 22 3a d9 c1 09 bd
       -0.005039963 -0.012467094 0.0006217426 -0.033632133
000340 33 4a d8 bd 91 92 4f be 45 a8 48 3e 58 db ec bf
       -0.105610274 -0.20270754 0.1959544 -1.8504438
000350 11 d8 d6 bc f7 23 11 3e f5 38 5e bf f1 58 07 3d
       -0.026226075 0.14173876 -0.8680566 0.033043806
000360 42 8a 1e bd 2b 59 1f bd 2b 4b 89 3d d6 8d b0 bb
       -0.03870607 -0.038903397 0.0670379 -0.005388002
000370 9a 37 07 3d a1 f0 c8 3c 1f d7 49 3d 2f 27 39 3d
       0.03301201 0.024528803 0.04927742 0.045203384
000380 4c 56 96 3d c7 0f 27 3e f8 36 7b bc 44 47 d5 bd
       0.073406786 0.16314612 -0.01533293 -0.104139835
000390 f6 6c f1 bd 32 84 83 be 4c 1a 15 be 84 91 23 3e
       -0.11788361 -0.25686795 -0.14560813 0.15973479
0003a0 d2 7e d5 3d 3b 5f be 3b 30 9e b4 3d f0 ac 0c 3c
       0.1042458 0.005809692 0.08819234 0.008586153
0003b0 bb a8 06 3b ed 4d 00 3d d3 34 11 3d ee ff 8c 3d
       0.0020547349 0.031324316 0.035450768 0.06884752
0003c0 80 a7 20 be a8 d5 68 bd 3e b2 cb 3d 43 13 0e 3f
       -0.15688896 -0.056844383 0.099461064 0.5549814
0003d0 7b 22 15 be 5c 4e 02 3e c6 dd 08 bf 1c 6a 70 bd
       -0.14563935 0.12725204 -0.534634 -0.058694944
0003e0 8e 01 08 3e 58 42 a8 bd c2 81 90 bd a2 2f 10 bd
       0.13281843 -0.08215779 -0.07055999 -0.035201676
0003f0 e8 6c 91 bb 61 e3 a0 bb 02 74 84 bc cf 84 60 3c
       -0.0044380315 -0.004909918 -0.016168598 0.013703539

critic.0.bias f4 [64]
000000 99 f7 0c 3e 74 35 2d be 30 54 c8 bd a1 49 fb bd
       0.13766326 -0.16914922 -0.097816825 -0.12269903
000010 46 da 5b bc 76 ff b8 bd 00 8d 83 bd 8a 71 1e 3d
       -0.01341874 -0.090331 -0.06423378 0.038682498
000020 67 b3 2a bd af ee ac bd e4 0c 3a 3b fd 0b c4 3d
       -0.041674998 -0.08443963 0.002838903 0.09572599
000030 e2 54 b8 bc fd 3f ce bd 6b e6 a0 3d 17 9d c0 bd
       -0.022501413 -0.100707985 0.07856449 -0.094049625
000040 cd 02 da bd 4c b0 14 3e 66 dc 61 bc 6b 90 f2 3d
       -0.106450655 0.14520377 -0.013785457 0.11843952
000050 42 79 f3 3d b0 6f bf bd 19 a2 a4 3d 15 35 4e bd
       0.118883625 -0.093474746 0.0803873 -0.05034359
000060 22 85 85 3d b4 b0 49 bd 3d ad 46 3d 33 cc d5 3c
       0.06519534 -0.049240783 0.048505057 0.026098346
000070 02 89 82 bd 85 5f 46 3e 29 68 66 bd fd 0b af 3c
       -0.063737884 0.19372375 -0.05625168 0.021368021
000080 7d af a3 bd c2 40 55 bd a6 59 f6 3c b1 e7 9f bd
       -0.07992456 -0.05206371 0.030072045 -0.078078635
000090 34 fd 5e bd 64 29 4a 3e c7 c4 0f be bc 7a 4f bc
       -0.054440692 0.19742352 -0.14039908 -0.0126635395
0000a0 3d c3 57 3d 40 7e 88 3d 01 ff 47 3d a7 91 5e be
       0.052676428 0.06664705 0.048827175 -0.2173525
0000b0 64 7e 32 be b4 03 78 3d a5 ad e8 bd 29 ae 3d be
       -0.17431027 0.060550407 -0.11361245 -0.18523468
0000c0 6b 6b 8a bd d2 e7 2d bd e6 f5 35 be 5f bf 14 be
       -0.067587696 -0.04245741 -0.17769584 -0.14526127
0000d0 07 75 e5 3c 15 7b 01 be e2 18 f2 bd 05 d4 97 bd
       0.028009905 -0.12644608 -0.11821152 -0.074134864
0000e0 f8 08 e9 3d 70 4d 5a bd 54 90 02 be fb 0e a5 bd
       0.11378664 -0.053296506 -0.1275037 -0.08059498
0000f0 94 cf cf bc a5 97 24 3e a0 76 0e 3e 5e b5 b2 bd
       -0.025367536 0.16073473 0.1391244 -0.08725999

critic.2.weight f4 [64, 64]
000000 f0 1e ef bd e0 d0 e0 bc 72 0f 47 3e fd 78 e8 3d
       -0.11675823 -0.02744335 0.19439486 0.11351202
000010 ad 62 18 3b a2 c0 87 bc df 53 b3 3d b2 a6 8a 3d
       0.0023252175 -0.016571347 0.087562315 0.06770076
000020 40 b5 87 3e 81 1c 18 3e a3 f0 b7 39 44 1f d1 bd
       0.2650547 0.14854623 0.00035083768 -0.102110416
000030 85 80 4b be 97 e4 d9 3d e6 5b 5b 3d 75 f3 1b 3d
       -0.19873245 0.10639303 0.053554438 0.038073976
000040 89 eb c4 bd 23 bf 26 be 04 9a fc bd 9f 57 30 be
       -0.09615237 -0.1628385 -0.12334064 -0.17220925
000050 df 17 a4 bc 8e 8e 33 be c2 4a 5b bd eb ad 68 3c
       -0.020030914 -0.17534849 -0.05353809 0.0142016215
000060 03 72 00 3d 70 f4 95 bc 15 0e 9c 3d a6 05 97 bd
       0.03135873 -0.018305033 0.076198734 -0.07374124
000070 fd 2b a7 3d 52 38 58 be 21 88 b0 3d 8a 32 e5 bd
       0.08162687 -0.21115234 0.086197145 -0.1119128
000080 9f 8d 08 3d f0 d2 4c 3d 96 f4 e1 3d 9c d7 86 3d
       0.033338185 0.050005853 0.11032979 0.06584093
000090 e8 65 a7 bd 8b c5 28 be 48 76 67 be c0 41 02 3e
       -0.08173734 -0.16481607 -0.22603714 0.12720394
0000a0 8e 92 9c 3d cd d1 bd bd 76 9e ba bd 3c 82 4e be
       0.076451406 -0.09268532 -0.09112255 -0.20166868
0000b0 90 c6 4b bd 40 7a 2b 3e 71 6c b5 3d ea 24 0c be
       -0.04974991 0.16745853 0.08858574 -0.13685957
0000c0 ae b0 2e bd 6c bf 04 bd 13 2a 56 3b 02 a3 db bd
       -0.042648964 -0.032409117 0.0032678887 -0.10724451
0000d0 ce 86 83 3d 16 52 e3 bd 95 76 c0 bd f6 ab d4 3b
       0.06422196 -0.11099641 -0.09397618 0.006490226
0000e0 82 21 21 3e 55 83 dc 3d e9 a4 86 3d 3b be 7f 3d
       0.15735438 0.10767237 0.06574423 0.062437277
0000f0 fa d3 71 bd 0c 4e a7 3c 3a 27 a8 3c 37 71 a5 bd
       -0.059040047 0.020422958 0.020526517 -0.08078235
000100 63 11 44 bd 90 f9 9f bd d2 31 15 3c 3e 1c d0 3d
       -0.047868144 -0.07811272 0.009106116 0.10161637
000110 64 07 0a bc 19 2d 81 3d 91 97 18 bd 85 d9 0b bd
       -0.008424614 0.0630743 -0.03725392 -0.03414299
000120 06 3d 10 be 5c f4 2a 3e 77 63 40 3e 10 e6 ac 3d
       -0.14085779 0.16694778 0.18787943 0.084423184
000130 42 68 1f be a3 8d 70 bc bb e6 8d 3e 4f 93 0a bd
       -0.15567115 -0.014682206 0.27715096 -0.03383189
000140 14 c7 94 3d 0c 24 e1 bd 33 36 2b 3d e0 f2 cc bd
       0.07264534 -0.109932035 0.041799735 -0.10007262
000150 96 d3 24 3e cb ae 94 bd 35 bc 56 bd 71 6e 1a 3e
       0.16096339 -0.072599016 -0.052425582 0.15081193
000160 35 31 22 3e ad aa 35 3e 7d b1 85 3d 9f 30 46 3d
       0.15839083 0.17740889 0.06527994 0.048386212
000170 10 ea be 3d cf b1 2e bd 1f 87 5f 3d f1 cc 86 3c
       0.09321988 -0.04265004 0.05457222 0.016455146
000180 70 55 b6 3d 26 6f b9 bd ec c8 ed bd f6 4e c2 bd
       0.08903015 -0.09054403 -0.116105884 -0.09487717
000190 2a 5c ca bd 47 6a cd bc f8 d5 b5 bd 74 92 8d 3e
       -0.0988086 -0.025075091 -0.08878702 0.27650797
0001a0 cb 35 d6 3c 1a 1d ea bd 6b 74 57 3e fa 7f c4 bd
       0.026148697 -0.11431332 0.21040504 -0.09594722
0001b0 42 e1 c4 bd ad c6 9f 3d c1 62 07 bb 18 ef 58 3c
       -0.09613277 0.07801566 -0.0020658227 0.013240598
0001c0 c8 05 33 bd ca 9e 48 be a9 c5 fa bc 51 94 da bc
       -0.043706685 -0.19591823 -0.03061183 -0.02668205
0001d0 ae b1 cd 3c 95 09 4d be c7 63 02 bb 14 a0 75 bd
       0.025109138 -0.20023187 -0.0019895898 -0.059967116
0001e0 b0 fd ff 3d 6b 9f 89 3c da ae 2a 3d 50 79 51 3e
       0.12499559 0.01679965 0.041670658 0.20456433
0001f0 29 e9 c8 3b 07 87 2c 3e 18 a5 23 3e 57 31 bc 3d
       0.0061313105 0.16848384 0.15980947 0.09189098
000200 e9 93 96 3d 3e 52 56 bd 8a 23 11 3d cc 63 e2 bd
       0.073524304 -0.052324526 0.035434283 -0.11054191
000210 5b 20 61 3d d1 00 92 3b 24 3a a5 bd 21 5c 1d 3e
       0.054962497 0.0044556637 -0.0806773 0.15367176
000220 f0 81 47 be 37 85 12 bb c7 6b c8 3c f6 2d 95 3c
       -0.19483161 -0.0022357234 0.024465455 0.018210392
000230 77 78 eb bd e2 2f 13 3e 26 eb bb bd 77 6c fe 3d
       -0.11497586 0.14373735 -0.091757104 0.12423032
000240 1b 22 97 bd c9 db 23 3e 95 bb c6 bc 82 f4 1c 3e
       -0.07379552 0.1600181 -0.024259368 0.15327647
000250 13 7e 52 3d 7b 6e 6e be 6d 74 22 bd 26 8c 7c bd
       0.051389765 -0.23284332 -0.039661814 -0.061657093
000260 30 ba d4 bd 4e 82 23 3e 0c 0f a5 3c 30 f5 b3 bd
       -0.10387075 0.15967676 0.020148776 -0.08787
000270 df c2 b1 3b 27 ed 1b 3e 7c 63 27 3d 45 3a d1 3d
       0.005424842 0.15227185 0.04086636 0.10216192
000280 96 84 48 bc 19 88 4b bd 05 b2 e0 3c f7 bc 92 bc
       -0.012238642 -0.04969034 0.027428636 -0.017912371
000290 b6 b4 42 bd ba 14 8f 3d f3 48 93 bc 6f c3 de bc
       -0.04753562 0.06986375 -0.01797912 -0.0271928
0002a0 ab d2 20 3d 67 4f eb bd ec 74 6d 3d ec b0 07 be
       0.03926341 -0.11489754 0.057972834 -0.13251084
0002b0 dd e9 68 bd 05 d6 19 3d d9 71 b0 bd 3f f7 ee bd
       -0.056863654 0.03755762 -0.08615465 -0.11668252
0002c0 42 5e 95 bd 14 1f 6e 3d 71 b4 98 bd 23 ea 72 bd
       -0.07293369 0.058135107 -0.074562915 -0.05930532
0002d0 13 48 a6 3d 5a ea 06 3e 29 cc cb 3d 83 83 0c 3d
       0.08119216 0.13175336 0.0995105 0.034305107
0002e0 ce 7b b2 bc 6a d7 0b 3b 6d 65 30 3e d8 55 fc bd
       -0.02178755 0.0021338114 0.17226191 -0.12321061
0002f0 e2 e2 b5 3d 96 84 f8 3d 3e 5c b8 3d d9 2d cd bc
       0.08881165 0.12134664 0.09001969 -0.025046276
000300 1d 0c a3 bc 90 59 09 bd 99 f7 7b 3e 2b 34 00 bd
       -0.019903237 -0.03353268 0.2460617 -0.03129975
000310 32 04 ce bd 22 f2 34 bd 19 fd d1 3b e5 fa 86 bc
       -0.10059394 -0.04417623 0.0064083454 -0.016477058
000320 78 c2 be bd ce a2 ae 3e c7 a6 12 3d 06 6c 5d 3e
       -0.09314436 0.34108585 0.035803583 0.21623239
000330 ce 17 12 be 96 1b 03 be eb 52 1a bc 18 95 07 3e
       -0.14266893 -0.12803492 -0.009419183 0.13240469
000340 0f 38 08 bd e3 65 d1 3d fd c7 99 3b 38 fb 8c 3e
       -0.033256587 0.102245115 0.00469303 0.27535415
000350 35 2c d7 3e dd 69 13 be 9d db b1 bc 66 2d 05 3d
       0.42025915 -0.14395852 -0.021711165 0.032514
000360 4f f7 22 be 96 fa c1 3d 9a 47 10 3e 56 d3 ea bd
       -0.15914653 0.094716236 0.14089814 -0.114660904
000370 5b ea 15 3d ca 81 6a bc c2 81 33 3c d0 bb ae 3d
       0.036600452 -0.014313171 0.01095623 0.08531916
000380 ec 91 9d bd 77 47 8b bd 05 98 d1 bd 0f 88 b4 3a
       -0.07693848 -0.0680074 -0.102340735 0.0013773459
000390 a2 22 8e 3d 5d 43 57 bd b2 7d ac be 94 10 03 3d
       0.069401994 -0.052554477 -0.33689648 0.031998232
0003a0 a2 52 47 3d fa 35 96 be a2 ae e4 3d 02 96 57 be
       0.04866279 -0.29338056 0.11166121 -0.21053317
0003b0 1c 05 46 be 1b 23 a0 3d a1 97 63 3d 5c 91 4c bb
       -0.19337887 0.07819196 0.055564526 -0.003121457
0003c0 93 b9 87 bd ca 8c dd bc 31 06 d2 3d 9d 00 d2 3d
       -0.06627192 -0.027044673 0.10255087 0.10254023
0003d0 9b 26 9d bd 0d 1b 34 bd 7c 57 ac bd 1e 95 d8 3a
       -0.07673379 -0.04397111 -0.08415124 0.0016523933
0003e0 0c d5 68 3e 84 2e 91 bd 8f 06 e8 bd 6d 47 1f 3e
       0.22737521 -0.0708895 -0.11329376 0.1555459
0003f0 5f b2 01 be 69 fd 89 bd 6f 69 a8 bc 7f 95 df bd
       -0.126657 -0.06737787 -0.020558087 -0.10917186

critic.2.bias f4 [64]
000000 39 b1 ef bc 8a 61 0c be b1 c2 a8 b9 28 19 90 be
       -0.029259311 -0.13709083 -0.00032188513 -0.28144193
000010 68 27 a3 3d 0c 94 b3 bd 1e 10 90 bd 2b f8 b9 3d
       0.079665005 -0.08768472 -0.07034324 0.090805374
000020 1d 20 23 3e 82 51 97 3d 9d 73 d5 bd e7 70 33 be
       0.15930219 0.07388593 -0.10422442 -0.17523538
000030 c1 a9 db bd 2b ac 4e 3d fa 20 38 3c 94 94 65 3d
       -0.10725737 0.05045716 0.011238331 0.0560499
000040 df 42 de 3d 6a 9f e2 bd f5 ad ea bd c0 a7 75 3d
       0.108525984 -0.11065562 -0.11458961 0.059974432
000050 62 43 ba bd 7b 5e 31 be a5 f7 03 3d de 57 27 3d
       -0.090948835 -0.17321198 0.032218594 0.04085528
000060 cc 22 b2 bd 70 8c 38 3c 61 69 23 be 85 8c 16 bc
       -0.08698043 0.011263952 -0.15958168 -0.009188776
000070 d7 ad d0 bd f2 b9 de 3c c7 9f b9 3d 56 e1 d6 3b
       -0.10189407 0.027188275 0.09063678 0.006557624
000080 5d 35 cd bc 0d 7c ae 3d 09 ce 03 3e f2 a5 f0 3d
       -0.02504986 0.085197546 0.12871565 0.117504016
000090 05 2a 2c bd f8 aa 91 3c bb 4e 50 be ea 9e 05 be
       -0.04203226 0.01778172 -0.20342533 -0.13048902
0000a0 c1 cc 60 be 82 f8 84 bd 87 fa d3 3d 16 cf 41 3e
       -0.21953107 -0.064927116 0.10350519 0.18926653
0000b0 68 21 4a 3d aa 8a 57 bd d4 87 70 3d 27 77 16 bc
       0.049348265 -0.052622475 0.058723286 -0.009183682
0000c0 1f 48 f1 3d 0d 5b 7c bd d4 36 23 3e e7 fe bc 3b
       0.11781334 -0.06161027 0.15938884 0.0057676914
0000d0 52 9a 80 bd b6 96 90 bd b0 46 ba 3c af ef b8 bc
       -0.06279434 -0.07059996 0.022738785 -0.022575228
0000e0 55 ce b2 bd 80 92 e0 bd 61 63 1f bd 77 83 85 bd
       -0.08730761 -0.10965443 -0.038913134 -0.065192156
0000f0 21 d1 01 be 07 d4 16 bc 5d 2a 90 bd 0c c0 11 3c
       -0.12677433 -0.009205825 -0.0703933 0.008895885

critic.4.weight f4 [1, 64]
000000 99 08 3e bd 63 9f 32 bd 39 4b 42 bc e4 61 7a bd
       -0.046394918 -0.043609034 -0.011858755 -0.061128512
000010 1d 28 cd bc 0f 7c 24 3c 43 cf 05 bd 48 e8 c9 bc
       -0.025043542 0.0100393435 -0.032668363 -0.024646893
000020 88 5a 89 bd e7 b1 07 bd 43 d7 a7 bd e4 21 c4 3d
       -0.067067206 -0.033128645 -0.08195355 0.095767766
000030 ca a0 8d bc b9 dd a0 3d f0 47 a5 bc f4 7e 16 bd
       -0.017288584 0.0785479 -0.020175904 -0.036742166
000040 b7 7e 84 bb 70 d0 0a 3e af 2f 9f bc 99 d5 8a 3c
       -0.004043426 0.13556075 -0.019431917 0.016947554
000050 0d 34 fe bb 4f be 80 bd cd d8 e9 3c 27 56 91 ba
       -0.00775767 -0.062862985 0.028545761 -0.0011088297
000060 c4 0e 28 3d 27 fc a5 bb 73 a0 04 3c 43 8f 59 3c
       0.041029707 -0.0050654593 0.008094895 0.013278785
000070 ae 85 9e 3c a0 a8 38 bb b7 45 89 bb b9 60 39 bc
       0.019350853 -0.002817668 -0.004189219 -0.011314564
000080 ac f9 e1 3b 11 89 48 bd 67 89 1d 3c bf 79 d2 3c
       0.0068962183 -0.04895884 0.009615279 0.025692819
000090 17 3f 09 bd a3 ac 68 3b 85 a3 51 bd 1b cb fc bb
       -0.033507433 0.003550329 -0.051181335 -0.0077146417
0000a0 1f ff d0 ba 2b c5 f8 bc 35 f5 83 bc 27 8d 17 be
       -0.0015945173 -0.030367455 -0.016108135 -0.14799939
0000b0 3c cf 4f 3c 71 3c 10 3e 18 3d ee 3c ca e8 1b 3b
       0.012683686 0.14085557 0.029081866 0.0023789876
0000c0 d7 c2 19 bd 84 9c 3d bc 03 04 4b 3c 55 0d 52 3d
       -0.03753933 -0.011572961 0.012391093 0.051282246
0000d0 27 fc 8b bd 3c 86 a7 3b c8 ff 43 3c 24 3c 5b 3c
       -0.068352036 0.0051124375 0.0119628385 0.013381038
0000e0 c4 88 1d bd a1 8a 66 bd 27 33 92 bc ee 23 d4 bc
       -0.038460508 -0.05628455 -0.017846657 -0.025896039
0000f0 81 23 11 bd a1 dc d7 3d ca f3 b1 bd 5f f8 80 bc
       -0.03543425 0.105401285 -0.08689077 -0.015743433

exp_avg f4 [7]
000000 d2 31 02 bb 07 cf 6d bb 1a 84 91 ba 81 bb cd 3a
       -0.001986612 -0.0036286728 -0.0011101991 0.0015696139
000010 2f e9 d8 39 7e 4b f9 ba 9d 5b 39 ba
       0.00041372466 -0.0019019691 -0.00070708414

exp_avg_sq f4 [7]
000000 2f 20 45 39 6f 7a 9d 39 ad 3e 95 39 fb f6 fe 39
       0.00018799373 0.00030036594 0.00028466192 0.0004863067
000010 5b 36 93 39 35 31 8f 39 e0 77 aa 39
       0.00028078523 0.00027311748 0.0003251424
