logs/rsl_rl/franka_reach/2025-06-26_19-51-50/model_800.pt (torch, 172795 bytes, 36 tensors)

std f4 [7]
0.068881534 0.041011296 0.054679684 0.034219377 0.039636277 0.04874601 0.049915217
00000000: c311 8d3d 76fb 273d cef7 5f3d 9e29 0c3d
00000010: a659 223d e5a9 473d e673 4c3d

actor.0.weight f4 [64, 32]
-0.19377549 0.16086422 -0.20137611 0.11378542 0.27590722 0.07592132 0.48677737 0.32098407
0.6036001 -0.008014661 -0.108859755 0.08473344 0.0816022 0.06670408 0.04566141 0.07701825
-0.011830883 -0.30356523 -0.24580668 -1.980542 0.33748022 -0.023090055 -1.4732145 0.5321309
-0.14864281 -0.09443288 -0.18725568 -0.17397757 -0.00241485 -0.13553992 0.052152358 0.17820624
0.36764497 0.25980422 0.3487435 0.9716286 0.51532453 0.487215 -0.10303482 -0.19752446
0.01992409 0.09624234 -0.023707364 0.108776316 0.09616449 -0.03119404 -0.07042981 0.09818093
-0.22257458 0.1522056 -0.80014247 -1.2890031 -0.09130857 0.14542809 0.3658583 0.031949267
0.05689228 -0.008043321 0.21702461 -0.098459944 -0.076308735 -0.067946404 0.0934976 -0.10724812
0.97674906 0.1254703 0.90856886 -0.50799406 -0.07512294 -0.12842472 0.28249606 0.38386542
0.61590827 -0.17186679 0.055826493 -0.21659747 -0.012198593 -0.028440136 0.07681796 0.0807287
0.15537621 -0.10103387 0.33512625 -0.74797434 0.6133412 -0.039937634 -0.08257673 -0.23956351
-0.088467404 0.040817242 0.24407837 0.0048744376 0.1808601 0.11110988 -0.26830512 -0.1378865
-0.16775577 -0.16042726 0.19272535 -0.08242043 0.059637375 0.32615116 0.32612354 -0.19550529
0.04225635 -0.048204217 -0.036874756 -0.09040884 -0.09272203 -0.15661427 0.06515986 -0.017418161
0.5338592 -0.28152728 -0.999574 0.08506859 0.7804517 -0.15746625 -0.47822383 -0.015159726
-0.00084979035 0.3076402 0.17002521 -0.16239195 0.0052217436 -0.21562417 -0.18123507 -0.12870719
-0.08284356 -0.0029435598 0.027223775 0.29657465 -0.38015926 0.7355514 -0.14547314 -0.1331896
-0.11931186 -0.046311524 -0.018926105 -0.03497253 -0.058118958 0.06703712 0.025337359 -0.16326176
0.18767084 0.79890555 -0.29845908 0.51768 1.0402516 -0.13798942 -0.04031511 -0.67777646
-0.017024761 -0.48070255 0.35578236 0.07552402 -0.06656926 0.09869091 -0.11883017 0.05046059
0.12397282 -0.29110855 -0.32667854 -0.12337766 0.14346008 0.12737201 0.046685856 0.2677089
0.173473 -0.12677902 -0.2587285 -0.07902052 0.19349472 -0.049367808 -0.028677804 0.09218871
0.6184274 0.8403012 -0.06067708 -2.2662714 -0.82531613 0.08838085 0.11503424 0.57505995
0.091528885 -0.0923991 0.21103461 -0.05117634 -0.27815154 0.1698941 0.25666767 -0.022446174
0.3905033 -0.06794789 0.70754194 -0.26963428 -0.16926889 0.22644551 0.0018001924 0.2534686
0.06787998 0.17159998 -0.00026496113 0.07933788 0.0140971225 -0.0014314002 0.023306068 -0.13033794
0.08418484 0.119617045 0.19976541 0.6547569 -0.17808188 -0.10761909 -0.39982334 0.52838796
0.023704946 0.06623998 0.090061516 0.15265256 -0.0029225866 0.14627826 0.13696027 0.026644092
1.1301321 0.08186404 1.0360647 -0.124813445 -0.47747442 -0.32665926 -0.53975046 0.2978581
0.19114019 0.022495067 -0.006126766 0.12059312 0.15009922 0.08587396 -0.018645134 -0.027482046
-0.14549227 -0.6817074 -0.24784896 -0.66758156 -0.5650908 -0.124188974 -1.030102 0.37870795
-0.064284556 -0.07608373 -0.05498853 -0.26644304 -0.018193133 -0.1399619 0.10650315 -0.06495973
00000000: 156d 46be 97b9 243e 8a35 4ebe 5508 e93d
00000010: b643 8d3e a37c 9b3d e23a f93e 0658 a43e
00000020: 8985 1a3f ed4f 03bc ddf1 debd ba88 ad3d
00000030: 0e1f a73d 269c 883d 7507 3b3d bfbb 9d3d
00000040: 52d6 41bc e76c 9bbe bfb4 7bbe 6682 fdbf
00000050: 35ca ac3e 5b27 bdbc 4b92 bcbf bb39 083f
00000060: d235 18be 0766 c1bd f4bf 3fbe 2d27 32be
00000070: 7642 1ebb faca 0abe b69d 553d b27b 363e
00000080: f63b bc3e 0f05 853e 828e b23e a7bc 783f
00000090: 4fec 033f 3f74 f93e eb03 d3bd da43 4abe
000000a0: d837 a33c b41a c53d f235 c2bc 1ec6 de3d
000000b0: e3f1 c43d a58a ffbc 813d 90bd 1513 c93d
000000c0: 97ea 63be c9db 1b3e 23d6 4cbf 0efe a4bf
000000d0: fdff babd 1aeb 143e c751 bb3e 3cdd 023d
000000e0: e107 693d 22c8 03bc b33b 5e3e 5ea5 c9bd
000000f0: c147 9cbd 7c27 8bbd ab7b bf3d e7a4 dbbd
00000100: 3a0c 7a3f 497b 003e f897 683f e60b 02bf
00000110: 0eda 99bd c581 03be 53a3 903e 028a c43e
00000120: 2aac 1d3f d9fd 2fbe 52aa 643d bacb 5dbe
00000130: 9bdc 47bc 4afb e8bc bc52 9d3d 1755 a53d
00000140: f11a 1f3e d8ea cebd ab95 ab3e 3f7b 3fbf
00000150: ee03 1d3f a595 23bd fd1d a9bd 2350 75be
00000160: 662e b5bd fb2f 273d aeef 793e bfb9 9f3b
00000170: 6433 393e 948d e33d 4a5f 89be 1e32 0dbe
00000180: 2bc8 2bbe 0b47 24be cb59 453e 0bcc a8bd
00000190: 5246 743d 49fd a63e aaf9 a63e 8a32 48be
000001a0: ff14 2d3d c971 45bd fc09 17bd 4528 b9bd
000001b0: 0ce5 bdbd 7e5f 20be 8872 853d 88b0 8ebc
000001c0: ffaa 083f 5824 90be 15e4 7fbf 7138 ae3d
000001d0: afcb 473f d53e 21be c1d9 f4be 8060 78bc
000001e0: 77c4 5eba 0483 9d3e 171b 2e3e 134a 26be
000001f0: 291b ab3b 95cc 5cbe b095 39be d1cb 03be
00000200: e2a9 a9bd bde8 40bb 6504 df3c a2d8 973e
00000210: 3ca4 c2be 194d 3c3f e9f6 14be db62 08be
00000220: c759 f4bd 27b1 3dbd eb0a 9bbc 5b3f 0fbd
00000230: 250e 6ebd c24a 893d 4b90 cf3c 172e 27be
00000240: c92c 403e 1385 4c3f a1cf 98be ad86 043f
00000250: f726 853f 194d 0dbe 7521 25bd c282 2dbf
00000260: 8377 8bbc a51e f6be 1b29 b63e 56ac 9a3d
00000270: 7755 88bd 761e ca3d 3b5d f3bd c3af 4e3d
00000280: 76e5 fd3d 2e0c 95be 6942 a7be 6dad fcbd
00000290: 33e7 123e cf6d 023e ab39 3f3d 2411 893e
000002a0: e8a2 313e 5cd2 01be 1078 84be 83d5 a1bd
000002b0: 7b23 463e e635 4abd b7ed eabc 6fcd bc3d
000002c0: 4251 1e3f fb1d 573f 8888 78bd 970a 11c0
000002d0: eb47 53bf 0501 b53d 1297 eb3d 2137 133f
000002e0: 7f73 bb3d bd3b bdbd 7519 583e 489e 51bd
000002f0: e169 8ebe b8f8 2d3e f269 833e 0ae1 b7bc
00000300: 0cf0 c73e 4328 8bbd 7821 353f 810d 8abe
00000310: d354 2dbe 55e1 673e 6ff4 eb3a a3c6 813e
00000320: a904 8b3d e8b7 2f3e 7bea 8ab9 e67b a23d
00000330: 9ef7 663c d29d bbba 5eec be3c 4f77 05be
00000340: 1a69 ac3d c8f9 f43d 4e8f 4c3e 269e 273f
00000350: 195b 36be 6667 dcbd a5b5 ccbe 6f44 073f
00000360: e030 c23c d4a8 873d 2c72 b83d f450 1c3e
00000370: de88 3fbb f8c9 153e 503f 0c3e b644 da3c
00000380: 2ba8 903f 55a8 a73d c59d 843f 319e ffbd
00000390: 8777 f4be e23f a7be 162d 0abf db80 983e
000003a0: 41ba 433e 9347 b83c 0ac3 c8bb 87f9 f63d
000003b0: 9cb3 193e b0de af3d aebd 98bc 0722 e1bc
000003c0: edfb 14be 6084 2ebf 1ecc 7dbe a0e6 2abf
000003d0: caa9 10bf ca56 febd 62da 83bf 02e6 c13e
000003e0: 9fa7 83bd c9d1 9bbd a73b 61bd 396b 88be
000003f0: c409 95bc 2c52 0fbe 531e da3d 9b09 85bd

actor.0.bias f4 [64]
-0.1816854 0.085266456 -0.3972509 0.051793367 0.07030923 -0.3407837 -0.34770346 -0.09407369
0.32908565 0.20213075 -0.080932006 0.14759354 0.09704866 -0.32156643 -0.29996285 -0.25066754
0.6210788 0.13382702 0.22267094 -0.002293516 0.26326817 0.12308601 -0.13474725 0.09967205
-0.58528405 0.7173815 0.02248446 -0.25702617 -0.10613179 0.08588875 -0.09325594 0.35614565
-0.46773356 0.015504652 0.071594015 -0.028509468 0.23592748 0.2957146 -0.21712705 -0.013227733
0.16160122 -0.18214755 0.45485994 -0.032125816 0.44916856 0.2891126 -0.22050826 0.037672825
0.2857663 -0.09256746 -0.18703978 -0.21847309 0.16321269 0.1382676 -0.40119514 -0.37081456
-0.40537104 -0.036734138 0.18163249 0.45161045 -0.050978195 0.13507865 0.31209877 -0.031649876
00000000: bd0b 3abe 2ea0 ae3d 7864 cbbe 4825 543d
00000010: 49fe 8f3d 337b aebe 3006 b2be b5a9 c0bd
00000020: ea7d a83e 5dfb 4e3e aebf a5bd c322 173e
00000030: 73c1 c63d 5ba4 a4be bb94 99be 7f57 80be
00000040: 05ff 1e3f f309 093e da03 643e d04e 16bb
00000050: 16cb 863e 8514 fc3d 2ffb 09be dc20 cc3d
00000060: 2dd5 15bf 50a6 373f 5531 b83c ef98 83be
00000070: a05b d9bd 71e6 af3d f8fc bebd b958 b63e
00000080: c67a efbe 3907 7e3c e29f 923d b08c e9bc
00000090: f996 713e e767 973e 8e56 5ebe 22b9 58bc
000000a0: ca7a 253e e384 3abe 67e3 e83e 5c96 03bd
000000b0: 6cf9 e53e 9106 943e ebcc 61be d24e 1a3d
000000c0: f64f 923e 0294 bdbd 5b87 3fbe 69b7 5fbe
000000d0: 3a21 273e 0696 0d3e 7369 cdbe 68db bdbe
000000e0: cb8c cfbe 8976 16bd defd 393e 7c39 e73e
000000f0: 83ce 50bd 0f52 0a3e 69cb 9f3e 4da3 01bd

actor.2.weight f4 [64, 64]
-0.013940658 -0.25759235 0.30160075 -0.02032042 0.13281828 -0.04774272 0.16211304 0.038567137
-0.04084928 -0.31185594 0.19707626 0.2124265 -0.06353288 -0.009731854 -0.17444682 -0.378196
0.09975881 0.03480277 -0.026298337 -0.0187025 -0.046241842 0.26070216 0.067374066 0.10198793
0.31550583 -0.2990761 -0.1298128 0.198543 0.32580188 -0.21293177 0.111374184 0.20604086
0.08738842 0.2764002 -0.08580814 -0.22859657 -0.19456378 -0.10629528 -0.013890385 -0.06857054
-0.1537255 -0.07625308 -0.00083264627 0.068137325 -0.095843956 0.03532339 0.08462429 -0.079316646
0.049846362 -0.10524712 0.19058803 0.034421347 0.19043228 -0.017799703 -0.1719144 -0.03032396
-0.005604186 -0.10755869 0.11985292 -0.10273783 -0.24215013 -0.004933135 0.14182219 -0.059464306
0.108871326 -0.20854218 -0.42791983 0.17709658 -0.070959054 -0.0006198883 -0.042253442 -0.01874619
0.094304144 0.19288813 -0.06433753 0.15489556 -0.09385029 -0.1326001 -0.14609015 -0.027982244
0.15771818 -0.03808225 0.20517623 0.0066103614 0.12687552 -0.06352985 0.064655825 0.19181028
-0.12777671 -0.0027484656 0.02397485 -0.08061456 -0.18482076 0.21300855 0.13290697 0.28097385
-0.07041381 -0.08979155 -0.03637658 -0.1612372 0.048717704 0.20645072 -0.039394375 0.10366356
-0.050961725 -0.0802445 -0.062316287 0.080758765 0.26437226 0.10738988 -0.119823225 0.17172949
0.008699681 0.14770304 0.06192552 0.054104656 -0.06458655 0.06690303 -0.15234117 -0.15748952
-0.13162476 -0.19773827 0.057283968 0.1659249 0.122707464 0.22048132 -0.09993262 -0.12397338
0.011437625 -0.4086827 0.04397175 -0.109818906 0.07064249 -0.17449078 -0.010972016 -0.11691291
0.03103893 -0.38017452 0.015690604 0.04705404 -0.25544485 -0.081671745 -0.42459962 -0.1751168
0.065824315 0.04151121 -0.011517577 0.017924933 -0.022557251 0.23292843 0.28019676 -0.037439834
0.15100631 -0.03237477 -0.20947525 0.21042947 0.37449288 0.16115308 0.07863228 0.29394504
0.092170835 0.26436538 0.081238255 -0.4238939 -0.42553502 -0.20727938 -0.100261174 -0.17006971
-0.16347097 -0.18960099 -0.12162685 0.03214546 -0.13601662 0.14272267 0.25879148 -0.011117955
0.11623088 -0.07336728 0.14290686 -0.07878338 -0.099270746 0.086075686 -0.20269056 0.023753216
-0.10524267 0.011175538 0.1297213 -0.017985642 -0.2569372 0.107864045 0.14846338 -0.03614726
-0.031539187 -0.11344064 -0.1353884 -0.080058195 -0.11380096 0.1257074 -0.08676426 0.26372814
0.05275607 0.087703034 -0.099658705 -0.1079415 0.19715106 -0.06770022 -0.11338654 0.020052731
0.104025334 0.04398825 0.17432976 0.10331112 0.09397065 0.17968756 -0.009922896 0.073341966
-0.43634158 0.10105527 0.2522555 -0.28683835 -0.21066898 0.037702534 0.031208089 0.091873914
0.0073214686 0.06946913 0.061041314 0.02211301 0.2968119 0.09682104 0.07871542 -0.14898229
0.019259812 -0.11055516 -0.024820542 0.050738532 0.16334121 0.061135028 -0.09381125 0.28142348
-0.010585512 0.07950361 -0.14468253 0.06923202 -0.13855667 0.25873718 -0.22840819 0.026215909
-0.12576194 -0.10211168 0.24990183 0.16533893 0.0018441908 0.118544795 0.09019958 0.3850436
00000000: 5c67 64bc 25e3 83be 6a6b 9a3e 0277 a6bc
00000010: 8401 083e df8d 43bd f600 263e 93f8 1d3d
00000020: 9351 27bd 95ab 9fbe 5cce 493e 5586 593e
00000030: 871d 82bd 5b72 1fbc 30a2 32be e8a2 c1be
00000040: 594e cc3d 598d 0e3d 9c6f d7bc fc35 99bc
00000050: 1668 3dbd c17a 853e 6afb 893d 0cdf d03d
00000060: fb89 a13e 8120 99be a6ed 04be db4e 4b3e
00000070: 81cf a63e c90a 5abe 2618 e43d 60fc 523e
00000080: b3f8 b23d 5484 8d3e 2ebc afbd 3815 6abe
00000090: ba3b 47be 57b1 d9bd 7f94 63bc b66e 8cbd
000000a0: 386a 1dbe 932a 9cbd f245 5aba 958b 8b3d
000000b0: d649 c4bd 42af 103d 804f ad3d c470 a2bd
000000c0: b32b 4c3d cd8b d7bd 8229 433e 66fd 0c3d
000000d0: ae00 433e afd0 91bc 540a 30be f469 f8bc
000000e0: 52a3 b7bb bb47 dcbd 7375 f53d 3668 d2bd
000000f0: 34f6 77be 23a6 a1bb d639 113e d890 73bd
00000100: eef7 de3d 158c 55be 4f18 dbbe ce58 353e
00000110: fb52 91bd 0080 22ba f211 2dbd 9c91 99bc
00000120: 8822 c13d 7784 453e 65c3 83bd f19c 1e3e
00000130: 9534 c0bd 52c8 07be a898 15be 053b e5bc
00000140: e080 213e 22fc 1bbd b819 523e bb9b d83b
00000150: a8eb 013e f01b 82bd 466a 843d ea69 443e
00000160: e6d7 02be 9a1f 34bb e866 c43c 3f19 a5bd
00000170: a741 3dbe ea1e 5a3e c418 083e cedb 8f3e
00000180: 1e35 90bd a2e4 b7bd 9cff 14bd 5d1b 25be
00000190: 378c 473d d167 533e ff5b 21bd 8f4d d43d
000001a0: 3ebd 50bd 3a57 a4bd 5d3f 7fbd da64 a53d
000001b0: cd5b 873e 3aef db3d e165 f5bd dbd9 2f3e
000001c0: 1b89 0e3c 773f 173e 9da5 7d3d d89c 5d3d
000001d0: f445 84bd 7504 893d 53ff 1bbe ef44 21be
000001e0: a4c8 06be e77b 4abe 98a2 6a3d 38e8 293e
000001f0: 0d4e fb3d dbc5 613e 79a9 ccbd c1e5 fdbd
00000200: e064 3b3c dc3e d1be b91b 343d bce8 e0bd
00000210: 03ad 903d b6ad 32be f8c3 33bc 0970 efbd
00000220: 5b45 fe3c 3ca6 c2be 9589 803c bdbb 403d
00000230: abc9 82be 8443 a7bd 1f65 d9be d251 33be
00000240: e6ce 863d a907 2a3d 38b4 3cbc 4fd7 923c
00000250: fcc9 b8bc ca84 6e3e f375 8f3e 835a 19bd
00000260: 66a1 1a3e 689b 04bd ae80 56be d37a 573e
00000270: 88bd bf3e 5005 253e f609 a13d f77f 963e
00000280: 10c4 bc3d e65a 873e 3e60 a63d 9f08 d9be
00000290: badf d9be 0c41 54be bb55 cdbd c126 2ebe
000002a0: ef64 27be c326 42be 7f17 f9bd f5aa 033d
000002b0: f147 0bbe e425 123e 5180 843e 1528 36bc
000002c0: 750a ee3d 9641 96bd 2d56 123e 2e59 a1bd
000002d0: 764e cbbd 7348 b03d 1d8e 4fbe 1b96 c23c
000002e0: 7889 d7bd 9b19 373c a9d5 043e a056 93bc
000002f0: 468d 83be d3e7 dc3d c906 183e 260f 14bd
00000300: 3c2f 01bd 9153 e8bd 42a3 0abe 8df5 a3bd
00000310: 7a10 e9bd 71b9 003e 76b1 b1bd 6007 873e
00000320: c016 583d a69d b33d dd19 ccbd 6f10 ddbd
00000330: f8e1 493e 6aa6 8abd 3437 e8bd a045 a43c
00000340: 3c0b d53d 062d 343d 8083 323e c894 d33d
00000350: af73 c03d 0400 383e a493 22bc 5034 963d
00000360: 2a68 dfbe 11f6 ce3d a227 813e 7adc 92be
00000370: 9cb9 57be f96d 1a3d 1ba8 ff3c 6428 bc3d
00000380: eee8 ef3b d545 8e3d 7506 7a3d 5826 b53c
00000390: bbf7 973e 1c4a c63d 8d35 a13d d08e 18be
000003a0: c1c6 9d3c be6a e2bd 7354 cbbc 35d3 4f3d
000003b0: eb42 273e b968 7a3d 1d20 c0bd bd16 903e
000003c0: db6e 2dbc cad2 a23d a827 14be 84c9 8d3d
000003d0: cde1 0dbe 3379 843e d6e3 69be bfc2 d63c
000003e0: bdc7 00be ee1f d1bd 44e6 7f3e 9c4e 293e
000003f0: c6b8 f13a 9dc7 f23d 8fba b83d 6f24 c53e

actor.2.bias f4 [64]
-0.2431088 0.004772721 -0.13077149 0.11159475 -0.086336106 -0.11773169 -0.19630805 -0.29974362
-0.111725286 -0.012281537 -0.24410228 -0.40964025 -0.28974184 -0.040072262 0.20084089 -0.18143049
-0.036398284 -0.33544645 -0.2098064 -0.21489346 -0.28871194 -0.2537692 -0.19467653 -0.23504616
-0.2906762 -0.2667172 -0.26861015 -0.18509527 -0.098627344 -0.29662868 0.24585794 -0.3910107
-0.063240334 0.101596214 -0.25629467 -0.16339651 -0.35231286 -0.23595622 -0.1912505 -0.051736105
-0.31234112 -0.2290223 -0.044069156 -0.0799796 -0.2124122 -0.38367075 -0.00651639 -0.13465402
0.10133484 -0.20180461 0.018550375 -0.0002870792 -0.20210847 -0.15178503 -0.022755064 -0.27013335
-0.11777846 -0.059299547 -0.039396476 -0.20318274 -0.32592988 -0.22532031 0.01904321 0.030067842
00000000: 83f1 78be 7c64 9c3b f6e8 05be ca8b e43d
00000010: fcd0 b0bd 501d f1bd fa04 49be ff77 99be
00000020: 3ad0 e4bd 8038 49bc f3f5 79be 5ebc d1be
00000030: 0b59 94be d022 24bd 3ca9 4d3e eac8 39be
00000040: 5e16 15bd a3bf abbe 7dd7 56be 080d 5cbe
00000050: 0dd2 93be 09ee 81be 4959 47be f1af 70be
00000060: 83d3 94be 288f 88be 4587 89be 9d89 3dbe
00000070: 22fd c9bd b7df 97be 2fc2 7b3e 8e32 c8be
00000080: 2684 81bd ad11 d03d 0e39 83be 6a51 27be
00000090: 5a62 b4be 829e 71be 2cd7 43be 3de9 53bd
000000a0: 2deb 9fbe d284 6abe dc81 34bd 58cc a3bd
000000b0: 9582 59be 7e70 c4be 7187 d5bb bee2 09be
000000c0: a488 cf3d dea5 4ebe f5f6 973c 1e83 96b9
000000d0: 86f5 4ebe 896d 1bbe d468 babc eb4e 8abe
000000e0: d535 f1bd 15e4 72bd 335e 21bd 230f 50be
000000f0: 48e0 a6be 5eba 66be 8200 9c3c d650 f63c

actor.4.weight f4 [7, 64]
-0.013275536 0.20455886 0.065627925 -0.09006397 -0.01456515 0.10700814 0.0708728 0.04149879
-0.19956335 0.06600037 0.15786795 0.105789475 0.038676355 0.18267126 0.24015418 -0.22511409
0.08311323 -0.003159272 -0.023361124 0.018291261 -0.3061856 0.078919046 0.05440054 -0.11702371
-0.0029993367 0.14935397 -0.081176 -0.005695402 0.10204305 -0.07208322 -0.03326537 -0.0066071297
0.13626157 0.21437629 0.21002187 0.06646992 -0.08481979 0.109394684 0.039092608 0.112136945
0.21098281 0.07061814 -0.26540172 -0.033686936 0.02862659 -0.015396706 0.31123164 -0.022856029
0.13397372 -0.017449237 0.1445392 -0.0288214 -0.032588903 0.011136749 0.028254837 -0.07510169
0.14387974 -0.23336285 0.010199751 0.03339787 0.10715835 0.22894228 0.08357799 -0.034643464
0.09476826 0.08947858 0.18740322 0.053749308 -0.087567 -0.0607646 -0.14683983 -0.032443486
-0.037903808 0.05744323 -0.23777798 0.025918646 -0.020106563 -0.019364057 0.061204046 0.10563912
-0.17160043 -0.15152784 0.22396097 -0.12047066 -0.030557035 0.13717194 0.020482881 -0.02491216
-0.15975584 0.069127604 -0.17463197 -0.041939665 0.018470393 0.07584815 0.2485151 0.03538695
0.18652137 -0.10582301 -0.15569514 -0.27454388 -0.18084499 -0.053304695 0.28066263 0.04516567
-0.1111788 -0.020932019 -0.07632172 0.032038286 0.2613671 -0.14892545 0.19154063 0.00015000325
0.14712477 -0.0008676195 0.12908049 -0.022998493 0.0072969366 -0.16834113 -0.11141571 0.047964472
0.016733335 0.06786102 -0.06290252 -0.2949628 0.074574515 0.042881824 0.059508167 0.07297967
0.078764796 -0.005383709 0.14953169 -0.10115614 -0.11121973 -0.1742112 0.19092385 0.08141559
-0.31629366 0.17816971 0.13472983 0.0056234077 0.0077614086 -0.12411585 0.27468657 0.102701485
-0.19901174 -0.08747827 0.03724923 0.12495288 -0.24368916 0.04550495 0.12554072 -0.16964832
-0.04187451 0.07013584 -0.026199955 -0.12369872 0.10535333 -0.11693741 -0.26020452 0.18963274
0.022708336 0.19814475 0.06527591 0.105609894 0.101779275 0.02776764 0.089517556 0.042967297
0.19524461 -0.07730247 -0.082629 -0.059594315 -0.17229572 -0.14284529 0.37802187 0.12659793
-0.029104682 -0.026612958 0.07961327 -0.051854637 0.051889837 -0.04271737 -0.020115273 -0.05914834
0.13377534 -0.18522942 -0.094460286 -0.054056156 0.096382365 0.18639699 0.14823471 -0.0944852
0.25495753 -0.11161935 0.2687879 -0.16673073 -0.10914541 -0.010403389 0.088998504 0.20687534
0.08737427 -0.05783914 0.2526721 -0.08157366 0.2129816 -0.20118576 -0.3949298 -0.10767972
0.021865623 0.08848791 0.2651206 -0.20968126 0.092047684 0.10926232 0.020987382 -0.21844603
0.014190173 0.05983291 0.19806592 0.025520496 -0.23054846 0.1880677 -0.0089241015 -0.069876246
0.15474278 0.07061448 0.029422944 0.060776047 0.044720042 0.08653656 0.09259144 -0.103869
-0.21231952 0.16650575 -0.35798666 0.14363115 0.18436095 0.18984023 0.08235399 0.018877627
-0.21630643 -0.33266062 0.0063466094 -0.119574174 0.12385709 -0.006978569 -0.1492752 -0.011757435
-0.12723136 -0.11628363 -0.011224865 -0.2712856 0.024417892 0.039825723 -0.08480486 -0.17568195
00000000: a281 59bc e177 513e ef67 863d 7573 b8bd
00000010: aba2 6ebc 1527 db3d c225 913d a3fa 293d
00000020: 565a 4cbe 342b 873d 23a8 213e 27a8 d83d
00000030: 196b 1e3d 2d0e 3b3e faea 753e 4f84 66be
00000040: 4537 aa3d ca0b 4fbb d45f bfbc 8ed7 953c
00000050: 5cc4 9cbe 4fa0 a13d 1ad3 5e3d 20aa efbd
00000060: 8590 44bb 3ff0 183e 9a3f a6bd 7fa0 babb
00000070: f2fb d03d 5ea0 93bd 4541 08bd 9f80 d8bb
00000080: 2788 0b3e 7585 5b3e f90f 573e 6221 883d
00000090: 00b6 adbd 520a e03d 921f 203d 0ea8 e53d
000000a0: e10b 583e 3ea0 903d bce2 87be 50fb 09bd
000000b0: 4f82 ea3c 7742 7cbc c159 9f3e 913c bbbc
000000c0: 6830 093e b4f1 8ebc 1602 143e db1a ecbc
000000d0: f17b 05bd e976 363c b076 e73c eace 99bd
000000e0: 3655 133e acf6 6ebe db1c 273c 34cc 083d
000000f0: d675 db3d d86f 6a3e f02a ab3d 4ee6 0dbd
00000100: dd15 c23d 8c40 b73d a1e6 3f3e 3c28 5c3d
00000110: 5456 b3bd 4de4 78bd 2e5d 16be 76e3 04bd
00000120: 0641 1bbd 9849 6b3d 127c 73be 5753 d43c
00000130: 85b6 a4bc 5fa1 9ebc 18b1 7a3d 5359 d83d
00000140: 06b8 2fbe 1d2a 1bbe 0656 653e 52b9 f6bd
00000150: bf52 fabc cd76 0c3e b7cb a73c 9614 ccbc
00000160: 0997 23be c692 8d3d b9d2 32be edc8 2bbd
00000170: 394f 973c 4656 9b3d be7a 7e3e e8f1 103d
00000180: 75ff 3e3e bcb9 d8bd 8c6e 1fbe 0491 8cbe
00000190: 6e2f 39be 0656 5abd 03b3 8f3e a3ff 383d
000001a0: b6b1 e3bd a079 abbc 904e 9cbd 943a 033d
000001b0: e9d1 853e ea7f 18be 3a23 443e 314a 1d39
000001c0: e0a7 163e f670 63ba ad2d 043e 5667 bcbc
000001d0: 241b ef3b 9e61 2cbe eb2d e4bd 6576 443d
000001e0: 5914 893c b8fa 8a3d 09d3 80bd 5d05 97be
000001f0: 86ba 983d daa4 2f3d d6be 733d 5d76 953d
00000200: 704f a13d d369 b0bb d61e 193e f32a cfbd
00000210: 2bc7 e3bd 6c64 32be 8b81 433e 38bd a63d
00000220: 3ef1 a1be 1f72 363e 9ef6 093e 9044 b83b
00000230: 6a53 fe3b 7330 febd b8a3 8c3e 2855 d23d
00000240: bcc9 4bbe cf27 b3bd a692 183d 4ce7 ff3d
00000250: a789 79be 6663 3a3d bf8d 003e 4ab8 2dbe
00000260: 9b84 2bbd 61a3 8f3d 4aa1 d6bc c155 fdbd
00000270: 7dc3 d73d e17c efbd 8739 85be 162f 423e
00000280: d506 ba3c 75e6 4a3e 60af 853d 004a d83d
00000290: a771 d03d f678 e33c fb54 b73d 7afe 2f3d
000002a0: 34ee 473e c250 9ebd 6539 a9bd 2b19 74bd
000002b0: 4a6e 30be 0946 12be 158c c13e e3a2 013e
000002c0: f16c eebc 6b03 dabc 480c a33d 8765 54bd
000002d0: 708a 543d 69f8 2ebd c9c8 a4bc 8845 72bd
000002e0: 67fc 083e c8ac 3dbe 6574 c1bd fd69 5dbd
000002f0: 1e64 c53d dade 3e3e d7ca 173e 7581 c1bd
00000300: cb89 823e b098 e4bd 919e 893e 76bb 2abe
00000310: a187 dfbd fa72 2abc d944 b63d 21d7 533e
00000320: 48f1 b23d bce8 6cbd 3d5e 813e 1710 a7bd
00000330: d917 5a3e a403 4ebe 3d34 cabe 2f87 dcbd
00000340: 891f b33c 2639 b53d e3bd 873e afb6 56be
00000350: 7f83 bc3d ecc4 df3d bbed ab3c 51b0 5fbe
00000360: e67d 683c 5a13 753d cbd1 4a3e 5c10 d13c
00000370: e514 6cbe d294 403e 6536 12bc 471b 8fbd
00000380: e474 1e3e 539e 903d 6308 f13c 4ef0 783d
00000390: 5d2c 373d 143a b13d 95a0 bd3d 45b9 d4bd
000003a0: 4a6a 59be 7c80 2a3e 074a b7be 0b14 133e
000003b0: 1ec9 3c3e 7a65 423e 35a9 a83d 41a5 9a3c
000003c0: 6f7f 5dbe 7e52 aabe 38f7 cf3b 4ee3 f4bd
000003d0: c9a8 fd3d 7bac e4bb 99db 18be 42a2 40bc
000003e0: f048 02be 1d26 eebd 7fe8 37bc f2e5 8abe
000003f0: 0808 c83c 4c20 233d 2cae adbd f8e5 33be

actor.4.bias f4 [7]
-0.016661147 0.16660824 -0.046051595 0.110215105 0.05133187 -0.19097441 0.08319653
00000000: f57c 88bc 5a9b 2a3e 99a0 3cbd 75b8 e13d
00000010: 5e41 523d cc8e 43be f162 aa3d

critic.0.weight f4 [64, 32]
-0.011179484 -0.08207463 0.096549906 0.17945027 -0.14522499 0.066082016 -0.2938061 0.11926219
-0.013336176 0.030474158 -0.11939079 0.013728201 -0.07387345 0.014644108 -0.005838497 0.013812635
-0.17949456 -0.11499963 -0.3372378 0.063632295 0.25392434 0.04424074 -0.20829368 -0.3163395
-0.12373463 0.098845966 -0.08377544 -0.021309247 0.0047261687 -0.08706815 -0.046137698 -0.010614438
-0.18878527 0.11035621 -0.031919315 0.1688429 0.08301013 0.21858321 0.09380562 0.013396237
0.06584617 0.055117305 0.0031401995 -0.0019964078 -0.032890983 -0.04586516 -0.054558158 -0.09264324
-0.12490547 0.06585363 0.19625531 -0.41629246 0.0015936435 0.069168635 0.34501 0.15121472
-0.009602224 -0.09063297 0.08207056 0.04453834 0.013136247 0.044882312 0.08533099 -0.19429162
-0.036739204 0.11715551 -0.27549437 0.04471233 0.13255739 0.0155638335 -0.07868992 0.02837236
0.16927575 -0.07377751 -0.22498803 -0.10796409 -0.09849809 0.07783302 -0.07194075 0.010724906
0.13563715 -0.025569143 -0.1399529 -0.5172018 -0.1052105 0.054718807 0.0059083463 -0.10179346
-0.08784767 0.06003024 -0.0069747334 -0.08027468 0.13196105 -0.015152029 -0.0057707657 -0.0042039016
-0.15737888 0.031007478 0.043381054 -0.17289862 0.054447018 0.008309931 0.23932329 0.26264277
0.121363714 -0.07736867 -0.024455814 -0.07021411 0.09349883 0.0034324324 0.015972486 -0.009656929
0.08492995 0.28528205 -0.13221037 -0.7703645 -0.30123043 -0.12394499 -1.1256596 0.24513496
0.16145703 -0.019902058 -0.10853474 0.0878297 -0.03800655 -0.1006029 0.029044334 0.046057336
-0.16709661 -0.10791041 0.07081109 -0.0092907585 0.25044465 0.09184079 0.2404841 0.030106056
0.0011750382 0.017240396 -0.013483582 -0.011624331 0.0121141 -0.009076033 0.009875467 -0.0066574193
-0.042599414 0.019093944 0.23051117 -0.0961778 0.12382882 0.03997508 -0.6509118 0.36782357
-0.14179675 -0.011995379 -0.07712487 -0.036651783 -0.009653026 0.0035341012 -0.052895077 0.06487336
-0.08464708 0.001204892 -0.022127973 -0.05459662 0.16404256 0.115120225 0.01957069 -0.11939478
0.026992291 0.017589418 0.03745574 -0.023969784 0.14051484 -0.014842762 0.006950579 -0.001312296
0.030677062 -0.17040205 -0.29329914 0.1437326 -0.24402918 -0.15115969 0.61231875 0.45649895
0.0710578 -0.09227447 0.17436929 0.012415413 0.04643988 0.03770901 0.02216141 -0.018177034
0.1524436 0.21175188 -0.09534748 0.15780576 0.13971536 0.11306406 0.06763481 -0.10320992
0.13424157 0.01232026 0.038330663 0.024244979 0.032535456 0.03734888 -0.022233251 -0.016800795
-0.1960305 -0.33702144 0.24513984 -1.8160762 -0.042269055 0.14173876 -0.89299184 0.04737893
-0.03870612 -0.021865 0.048838433 0.008869171 0.03590379 0.02961258 0.05521047 0.036209684
0.07748553 0.16233392 -0.07282863 -0.06423741 -0.09636209 -0.28040108 -0.140369 0.20697159
0.15017751 -0.011025344 0.048495892 0.034107976 -0.01686008 0.020691158 0.04568799 0.032633405
-0.10154009 0.020075211 0.20068052 0.49299654 -0.2292524 0.12725204 -0.5967262 -0.058805443
0.13281843 -0.05864057 -0.03300326 -0.057448935 -0.004065867 -0.019943178 -0.022341698 0.010032207
00000000: 282a 37bc be16 a8bd f5bb c53d d0c1 373e
00000010: dcb5 14be 0256 873d c16d 96be bc3f f43d
00000020: fa7f 5abc f1a4 f93c 2983 f4bd 40ec 603c
00000030: f74a 97bd d7ed 6f3c dd50 bfbb 644e 623c
00000040: 6ccd 37be ed84 ebbd 6faa acbe a651 823d
00000050: 5f02 823e c735 353d f04a 55be 40f7 a1be
00000060: 9568 fdbd c16f ca3d 7592 abbd bb90 aebc
00000070: fadd 9a3b c950 b2bd e2fa 3cbd 2ee8 2dbc
00000080: ed50 41be 7002 e23d d4bd 02bd 27e5 2c3e
00000090: 3701 aa3d 47d4 5f3e 291d c03d e47b 5b3c
000000a0: 5bda 863d afc2 613d cecb 4d3b 2ad6 02bb
000000b0: b2b8 06bd 1bdd 3bbd 6078 5fbd bdbb bdbd
000000c0: 70ce ffbd 45de 863d 27f7 483e 4924 d5be
000000d0: cde1 d03a 49a8 8d3d 27a5 b03e 08d8 1a3e
000000e0: a652 1dbc c79d b9bd 9c14 a83d d66d 363d
000000f0: 6a39 573c 84d6 373d 04c2 ae3d 62f4 46be
00000100: d97b 16bd 3aef ef3d 990d 8dbe 4724 373d
00000110: 20bd 073e 73ff 7e3c 2e28 a1bd 276d e83c
00000120: 9f56 2d3e aa18 97bd 4363 66be 471c ddbd
00000130: 5eb9 c9bd eb66 9f3d ac55 93bd 84b7 2f3c
00000140: 77e4 0a3e 6176 d1bc d04f 0fbe 5667 04bf
00000150: 9a78 d7bd d420 603d cd9a c13b 1779 d0bd
00000160: 7be9 b3bd 45e2 753d 4e8c e4bb 0d67 a4bd
00000170: cc20 073e 3740 78bc b118 bdbb e2c0 89bb
00000180: ee27 21be 6503 fe3c 55b0 313d 560c 31be
00000190: d603 5f3d 6026 083c 2a11 753e 1d79 863e
000001a0: 8a8d f83d 7773 9ebd 8f57 c8bc 6acc 8fbd
000001b0: 517c bf3d a9f2 603b bbd8 823c 1938 1ebc
000001c0: c1ef ad3d 7d10 923e 2862 07be 9c36 45bf
000001d0: e03a 9abe dfd6 fdbd 9d15 90bf a904 7b3e
000001e0: fe54 253e a409 a3bc 7647 debd 0fe0 b33d
000001f0: c2ac 1bbd e508 cebd 62ee ed3c 9ea6 3c3d
00000200: 601b 2bbe 2200 ddbd 6805 913d 4438 18bc
00000210: 483a 803e 0617 bc3d 7741 763e faa0 f63c
00000220: bd03 9a3a bb3b 8d3c 3eea 5cbc fa73 3ebc
00000230: 387a 463c a4b3 14bc b6cc 213c 7b26 dabb
00000240: b97c 2ebd e76a 9c3c 1f0b 6c3e def8 c4bd
00000250: f799 fd3d e9bc 233d 28a2 26bf 5f53 bc3e
00000260: 2b33 11be 4488 44bc a5f3 9dbd 2e20 16bd
00000270: ba27 1ebc 619c 673b 82a8 58bd 53dc 843d
00000280: 735b adbd 77ed 9d3a b945 b5bc b5a0 5fbd
00000290: c6fa 273e 27c4 eb3d b652 a03c 4085 f4bd
000002a0: f01e dd3c af17 903c 316b 193d 485c c4bc
000002b0: 1fe3 0f3e 0e2f 73bc afc1 e33b 5901 acba
000002c0: 764e fb3c e07d 2ebe 4e2b 96be a42e 133e
000002d0: c9e2 79be 9bc9 1abe ecc0 1c3f 3bba e93e
000002e0: c086 913d 66fa bcbd dd8d 323e 046a 4b3c
000002f0: be37 3e3d c374 1a3d d88b b53c 01e8 94bc
00000300: 2d1a 1c3e 7cd5 583e 8a45 c3bd d597 213e
00000310: 8b11 0f3e 218e e73d 1f84 8a3d b95f d3bd
00000320: 9f76 093e eada 493c 9d00 1d3d 689d c63c
00000330: e643 053d 24fb 183d 8222 b6bc d2a1 89bc
00000340: 38bc 48be 138e acbe f005 7b3e 2f75 e8bf
00000350: 5122 2dbd f723 113e 1d9b 64bf 6910 423d
00000360: 4f8a 1ebd 3a1e b3bc cf0a 483d 0050 113c
00000370: da0f 133d 1596 f23c 6024 623d 9b50 143d
00000380: bcb0 9e3d dd3a 263e 2d27 95bd e78e 83bd
00000390: 7d59 c5bd bb90 8fbe e4bc 0fbe 5cf0 533e
000003a0: 22c8 193e a5a3 34bc a1a3 463d ceb4 0b3d
000003b0: 271e 8abc 8180 a93c 5423 3b3d 9baa 053d
000003c0: 40f4 cfbd c574 a43c 327f 4d3e 0b6a fc3e
000003d0: 24c1 6abe 5c4e 023e 0cc3 18bf fadd 70bd
000003e0: 8e01 083e 1831 70bd 6d2e 07bd 934f 6bbd
000003f0: f73a 85bb e05f a3bc f005 b7bc 205e 243c

critic.0.bias f4 [64]
0.13159762 -0.17939307 -0.1117661 -0.12841856 -0.016851058 -0.08093291 -0.07006004 0.0469786
-0.050083615 -0.12799218 -0.00822024 0.109935135 -0.018202912 -0.105575226 0.066267036 -0.101625994
-0.10921947 0.13959329 -0.021021882 0.10701602 0.13651197 -0.0895305 0.080742605 -0.044340134
0.07051411 -0.040611353 0.030586256 0.030841187 -0.07804009 0.2002756 -0.049711585 -0.0056376257
-0.06896118 -0.032394066 0.03794306 -0.09541766 -0.061869696 0.19459562 -0.14457119 -0.016123304
0.04889036 0.07827468 0.07413016 -0.23631199 -0.17316507 0.0035041901 -0.26286575 -0.18680203
-0.06819832 -0.062870115 -0.20093305 -0.15576248 0.04054592 -0.12701392 -0.10204234 -0.089149356
0.10998107 -0.044955015 -0.12155384 -0.0758131 -0.021802502 0.20429556 0.15620843 -0.09492182
00000000: 87c1 063e d1b2 37be a0e5 e4bd 2880 03be
00000010: 3b0b 8abc 27c0 a5bd a37b 8fbd a26c 403d
00000020: 7a24 4dbd 6210 03be 2fae 06bc ac25 e13d
00000030: 461e 95bc d337 d8bd 03b7 873d 4a21 d0bd
00000040: 75ae dfbd 8bf1 0e3e 1536 acbc 372b db3d
00000050: cbc9 0b3e c45b b7bd 615c a53d 009e 35bd
00000060: b469 903d 1758 26bd 0790 fa3c a8a6 fc3c
00000070: 7cd3 9fbd 0c15 4d3e 609e 4bbd d5bb b8bb
00000080: 853b 8dbd a4af 04bd 2f6a 1b3d 566a c3bd
00000090: 146b 7dbd 1344 473e 780a 14be 0515 84bc
000000a0: 4241 483d 7a4e a03d 8ed1 973d c5fb 71be
000000b0: 2f52 31be 8ea6 653b 5796 86be 0849 3fbe
000000c0: 90ab 8bbd 0cc2 80bd 65c1 4dbe 3380 1fbe
000000d0: 7b13 263d f00f 02be 93fb d0bd f093 b6bd
000000e0: c13d e13d c022 38bd 38f1 f8bd e643 9bbd
000000f0: 299b b2bc db32 513e 1af5 1f3e 5f66 c2bd

critic.2.weight f4 [64, 64]
-0.113730915 -0.017675292 0.20962058 0.11450572 0.006644619 -0.019718824 0.09507237 0.08571157
0.26935035 0.18163025 0.0017308411 -0.07333346 -0.27197677 0.1288505 0.030547874 0.06403826
-0.047106642 -0.17792973 -0.123190954 -0.16872759 0.03958204 -0.16422324 -0.040240902 3.7850452e-05
-0.030309955 -0.02079261 0.073880985 -0.058415562 0.10241573 -0.2251423 0.08584399 -0.09892897
0.0400709 0.03884022 0.14557776 0.06705866 -0.044730727 -0.23659295 -0.22828718 0.095921144
0.095756926 -0.07461382 -0.069638655 -0.18230851 -0.03949169 0.1871624 0.13200769 -0.15261237
-0.058191773 -0.018719863 0.053783406 -0.107828096 0.06439287 -0.09765262 -0.07703157 -0.01984072
0.16222478 0.13160989 0.03618747 0.09357212 -0.060418252 0.01898742 0.014941362 -0.07707283
-0.06466426 -0.09705728 -0.036535937 0.10879723 -0.0070600864 0.058466274 -0.047580175 -0.02529045
-0.117588714 0.19994348 0.18044032 0.16065831 -0.2044696 -0.031998847 0.28494856 -0.026587062
0.04674058 -0.10918051 0.0057570986 -0.11023411 0.22805199 -0.075529285 -0.04615183 0.18096551
0.13121797 0.15609321 0.07568912 0.042591184 0.05721688 -0.11147563 0.05684414 -0.004194871
0.092483744 -0.08273469 -0.14041978 -0.09587234 -0.120026916 -0.04324648 -0.12295049 0.28190672
0.025862122 -0.12090685 0.2740064 -0.16136304 -0.11166566 0.06147003 -0.034603853 0.0150868725
-0.053952947 -0.23125498 -0.10559675 -0.040167708 0.028974509 -0.21592377 -0.011067716 -0.08699495
0.17425328 0.029180797 0.024433397 0.20338562 0.014794795 0.1845478 0.17256665 0.08681864
0.08922333 -0.04524243 0.046163615 -0.11307352 0.055577107 0.005170476 -0.08129944 0.14799266
-0.19190009 0.0146624325 0.030165086 0.018255908 -0.16136608 0.14350751 -0.07345977 0.13132218
-0.08408383 0.17180692 -0.028857663 0.16635877 0.086316235 -0.23219317 -0.039739676 -0.03912124
-0.12972708 0.14510264 0.017197948 -0.085650586 -0.029391097 0.16524765 0.047841858 0.10009424
-0.0046631778 -0.05865171 0.0391182 -0.015988734 -0.042800833 0.05799653 -0.007748181 -0.015490848
0.044137605 -0.10512538 0.07459932 -0.14347409 -0.05571909 0.026308594 -0.09882905 -0.12590125
-0.07128205 0.06468296 -0.117922485 -0.065362886 0.07611721 0.13795972 0.09989887 0.03285663
-0.050018713 -0.00079753227 0.16723354 -0.14400347 0.084767796 0.11561492 0.08893339 -0.023780633
-0.10779548 0.006635341 0.21553305 -0.039664246 -0.10937767 -0.039965693 0.006741345 -0.019587848
-0.0452703 0.64848524 0.015628628 0.44789645 -0.3341459 -0.11842872 -0.01590549 0.18728389
0.026109014 -0.0015059455 -0.036587138 0.28211305 0.6541083 -0.1714841 -0.026888443 0.0004431763
-0.18740861 0.090103 0.22548145 -0.09602138 0.081935704 -0.2345185 0.01085416 0.08376082
-0.11632939 -0.07167431 -0.09508348 -0.01414677 0.16050035 -0.051303346 -0.43834504 0.028262015
0.077110074 -0.33981037 0.1776522 -0.2691022 -0.22287926 0.12661819 0.093994275 -0.011122716
-0.035870977 -0.051517006 0.2957226 0.121779576 -0.049657237 -0.04598329 -0.04977003 -0.028886646
0.37734747 0.008795091 -0.12157264 0.27357057 -0.078195155 -0.06839791 -0.024984136 -0.135755
00000000: c1eb e8bd c6cb 90bc c7a6 563e fa81 ea3d
00000010: 1bbb d93b 5f89 a1bc 4db5 c23d 8c89 af3d
00000020: 4ae8 893e 48fd 393e 64dd e23a da2f 96bd
00000030: 8a40 8bbe 63f1 033e 893f fa3c 7e26 833d
00000040: e5f2 40bd 3633 36be 8a4b fcbd edc6 2cbe
00000050: c720 223d 232a 28be a5d3 24bd 9dc1 1e38
00000060: 954c f8bc 4355 aabc ea4e 973d 2845 6fbd
00000070: 57bf d13d b48b 66be f9ce af3d 469b cabd
00000080: 6221 243d ec16 1f3d 5612 153e 0d56 893d
00000090: 9137 37bd 6c45 72be 1dc4 69be 4e72 c43d
000000a0: 351c c43d 21cf 98bd b69e 8ebd 15af 3abe
000000b0: 0ac2 21bd 80a7 3f3e 062d 073e 6b46 1cbe
000000c0: 7f5a 6ebd 665a 99bc fd4b 5c3d fad4 dcbd
000000d0: 69e0 833d 19fe c7bd bac2 9dbd 0189 a2bc
000000e0: 411e 263e bec4 063e 5039 143d bda2 bf3d
000000f0: 2179 77bd 818b 9b3c 9dcc 743c 5cd8 9dbd
00000100: b26e 84bd f8c5 c6bd b5a6 15bd 15d1 de3d
00000110: 4c58 e7bb 557a 6f3d 6ee3 42bd eb2d cfbc
00000120: 5ad2 f0bd fcbd 4c3e 59c5 383e 9d83 243e
00000130: 7b60 51be 3911 03bd c7e4 913e 1ccd d9bc
00000140: 0d73 3f3d 089a dfbd 0ba6 bc3b 6cc2 e1bd
00000150: 7686 693e 19af 9abd b409 3dbd 064f 393e
00000160: 015e 063e e6d6 1f3e e602 9b3d 1874 2e3d
00000170: 3f5c 6a3d 564d e4bd 67d5 683d 2175 89bb
00000180: 1e68 bd3d ce70 a9bd 34ca 0fbe b858 c4bd
00000190: acd0 f5bd 3923 31bd 77cd fbbd 1456 903e
000001a0: cddc d33c 039e f7bd 914a 8c3e 5a3c 25be
000001b0: f7b0 e4bd 00c8 7b3d c5bc 0dbd ee2e 773c
000001c0: c4fd 5cbd 1bce 6cbe 1c43 d8bd e586 24bd
000001d0: f35b ed3c 1f1b 5dbe 5e55 35bc 692a b2bd
000001e0: 746f 323e 910c ef3c 8c28 c83c 5244 503e
000001f0: de65 723c 19fa 3c3e 50b5 303e f9cd b13d
00000200: b9ba b63d 2050 39bd 0f16 3d3d 1793 e7bd
00000210: d2a4 633d 196d a93b 5280 a6bd 638b 173e
00000220: 7581 44be b33a 703c c51c f73c 6a8d 953c
00000230: 263d 25be a2f3 123e 1372 96bd 5279 063e
00000240: 2534 acbd 27ee 2f3e e866 ecbc f459 2a3e
00000250: 91c6 b03d 0cc4 6dbe 12c6 22bd 983d 20bd
00000260: 2dd7 04be c995 143e b6e2 8c3c 9369 afbd
00000270: 99c5 f0bc ae36 293e d3f5 433d 35fe cc3d
00000280: 92cd 98bb c73c 70bd 683a 203d cefa 82bc
00000290: ed4f 2fbd c58d 6d3d 74e4 fdbb 53cd 7dbc
000002a0: a2c9 343d fa4b d7bd 87c7 983d dfea 12be
000002b0: b339 64bd 1f85 d73c e366 cabd 42ec 00be
000002c0: 53fc 91bd 8078 843d 5881 f1bd fadc 85bd
000002d0: 57e3 9b3d 5045 0d3e c797 cc3d ac94 063d
000002e0: 6ce0 4cbd 7c11 51ba 453f 2b3e a575 13be
000002f0: bd9a ad3d 84c7 ec3d b622 b63d 9acf c2bc
00000300: e0c3 dcbd 466d d93b b2b4 5c3e fa76 22bd
00000310: 6601 e0bd 11b3 23bd 80e6 dc3b b276 a0bc
00000320: 5a6d 39bd 2103 263f 9c07 803c af52 e53e
00000330: 2c15 abbe c28a f2bd 3b4c 82bc 59c7 3f3e
00000340: 92e2 d53c 2563 c5ba 65dc 15bd 1f71 903e
00000350: a473 273f 8799 2fbe 2745 dcbc 1e5a e839
00000360: 0be8 3fbe ec87 b83d 9ce4 663e dba6 c4bd
00000370: e8cd a73d 9e25 70be a6d5 313c cb8a ab3d
00000380: 1a3e eebd fbc9 92bd 21bb c2bd dbc7 67bc
00000390: 345a 243e 7523 52bd c36e e0be be85 e73c
000003a0: e3eb 9d3d a0fb adbe 75ea 353e c3c7 89be
000003b0: 763a 64be 33a8 013e 1280 c03d 0d3c 36bc
000003c0: 72ed 12bd 7f03 53bd f468 973e 9267 f93d
000003d0: 6365 4bbd f958 3cbd a9db 4bbd b0a3 ecbc
000003e0: b033 c13e 4919 103c 14fb f8bd 7111 8c3e
000003f0: c824 a0bd 3414 8cbd 88ab ccbc 5c03 0bbe

critic.2.bias f4 [64]
-0.029799998 -0.14007652 -0.0068292874 -0.30240065 0.06888799 -0.0817887 -0.050859492 0.082409784
0.15675019 0.07876297 -0.10109609 -0.17062017 -0.114296466 0.048293922 0.0080998335 0.056516983
0.11454345 -0.102566734 -0.1269303 0.06092452 -0.08964547 -0.16937838 0.043785766 0.05516134
-0.08845502 0.009928543 -0.15177743 -0.00883345 -0.1048124 0.017336918 0.092225514 -0.0010116976
-0.01668904 0.07981928 0.13039616 0.12944731 -0.048547164 0.021692516 -0.21068805 -0.12817185
-0.20625004 -0.06569311 0.09956494 0.17966725 0.058602445 -0.044014327 0.057826903 -0.010579946
0.11835623 -0.067815214 0.16325717 -0.002141541 -0.06765564 -0.07847156 0.027379429 -0.018454041
-0.09927976 -0.092095844 -0.04683622 -0.06612755 -0.119160846 -0.007332893 -0.0724823 0.003194597
00000000: 201f f4bc 3870 0fbe 37c8 dfbb 42d4 9abe
00000010: 2615 8d3d d580 a7bd 0b52 50bd 76c6 a83d
00000020: 1f83 203e 7b4e a13d 780b cfbd 0eb7 2ebe
00000030: 4414 eabd d9cf 453d 2ab5 043c 5a7e 673d
00000040: c295 ea3d 820e d2bd 04fa 01be fd8b 793d
00000050: 0b98 b7bd 8771 2dbe b458 333d dbf0 613d
00000060: e827 b5bd 54ab 223c 8b6b 1bbe 2dba 10bc
00000070: e2a7 d6bd 2706 8e3c bbe0 bc3d f09a 84ba
00000080: 74b7 88bc 4a78 a33d 9286 053e d68d 043e
00000090: 64d9 46bd 81b4 b13c 9cbe 57be 7b3f 03be
000000a0: 3633 53be 1c8a 86bd b4e8 cb3d b1fa 373e
000000b0: 1e09 703d 5e48 34bd e7db 6c3d 8357 2dbc
000000c0: c064 f23d b4e2 8abd e32c 273e 1959 0cbb
000000d0: 0a8f 8abd b2b5 a0bd d34a e03c ee2c 97bc
000000e0: 3053 cbbd bf9c bcbd 56d7 3fbd e26d 87bd
000000f0: 9a0a f4bd c448 f0bb 9a71 94bd 725c 513b

critic.4.weight f4 [1, 64]
-0.07882726 -0.063235655 -0.031881515 -0.11850537 -0.03549915 0.035216663 -0.049035016 -0.041251738
-0.07050078 -0.040350664 -0.12147118 0.10602816 -0.014549549 0.09672984 -0.045694027 -0.046910673
-0.027787933 0.13918298 -0.038708135 0.03437001 -0.020185413 -0.059570797 0.04059662 0.008214169
0.04183011 -0.017685575 0.009235233 0.03889399 0.026919404 -0.0031573398 -0.0047708284 -0.03844351
0.034196533 -0.050530247 0.009274584 0.036364783 -0.04085837 0.017415404 -0.055161566 -0.009180686
-0.0004726765 -0.04260876 -0.020333247 -0.14868687 0.022475729 0.14516304 0.046984084 -0.00825264
-0.06576159 -0.027354892 0.008910725 0.07057483 -0.07494931 -0.010971849 0.024720317 0.03937901
-0.037611373 -0.07635246 -0.025869928 -0.02848944 -0.090038024 0.11288372 -0.11476429 -0.01734349
00000000: 3070 a1bd b281 81bd 3196 02bd f2b2 f2bd
00000010: 8f67 11bd 593f 103d f1d8 48bd 95f7 28bd
00000020: b762 90bd bd46 25bd e2c5 f8bd 4b25 d93d
00000030: 3b61 6ebc 4b1a c63d a929 3bbd 6825 40bd
00000040: 85a3 e3bc fc85 0e3e 6c8c 1ebd 91c7 0c3d
00000050: e15b a5bc 8200 74bd a448 263d b994 063c
00000060: 0d56 2b3d 57e1 90bc 604f 173c 4e4f 1f3d
00000070: 1586 dc3c 5feb 4ebb 9c54 9cbb f176 1dbd
00000080: aa11 0c3d cef8 4ebd 6df4 173c 3df3 143d
00000090: 1b5b 27bd c0aa 8e3c 18f1 61bd 976a 16bc
000000a0: 91d1 f7b9 8686 2ebd e991 a6bc 5f41 18be
000000b0: 051f b83c 9fa5 143e 6272 403d 1536 07bc
000000c0: 03ae 86bd 5e17 e0bc 4afe 113c 8989 903d
000000d0: 067f 99bd 45c3 33bc 4382 ca3c e34b 213d
000000e0: 620e 1abd ae5e 9cbd 2ced d3bc b062 e9bc
000000f0: db65 b8bd 942f e73d 8a09 ebbd ef13 8ebc

exp_avg f4 [7]
-0.0016313503 0.0047843116 0.0006940929 -0.0011606979 -0.0007005503 -0.0004972694 0.00051756966
00000000: 08d3 d5ba b7c5 9c3b c9f3 353a 8f22 98ba
00000010: 23a5 37ba 2f5b 02ba 83ad 073a

exp_avg_sq f4 [7]
0.00015556274 0.0004829568 0.00029153022 0.00070293417 0.00046917333 0.0003036498 0.0003007189
00000000: 8e1e 2339 5d35 fd39 86d8 9839 1d45 383a
00000010: 61fb f539 3033 9f39 cfa9 9d39

exp_avg f4 [64, 32]
2.378554e-05 0.0002855722 1.8115968e-05 0.0002008408 0.00035542512 0.00036477446 0.0017754529 -9.05497e-06
-6.823068e-06 -0.00025674692 -0.00016283235 6.7189656e-05 8.21931e-05 7.9838246e-05 2.4053965e-05 -0.00029243037
1.2720988e-05 1.1408151e-05 1.37866655e-05 -0.00011048532 -6.8622525e-05 1.4659127e-12 -0.0001143703 -3.3233428e-05
-4.985419e-12 0.00014712592 0.000117432 0.00010264288 0.00019396651 0.00064559816 0.00010115819 0.0031172284
-3.5957842e-06 -0.00036827213 0.00021090706 0.00065345486 0.0009472514 -0.0005267832 0.0039313473 2.5851323e-05
5.2885225e-06 0.0006673877 -0.00030232547 -0.0002627395 0.00014608096 0.00014525793 -0.00068535574 0.00036544647
4.027373e-05 3.3321787e-05 -0.00013189302 0.00013766029 0.00022910486 2.2918282e-11 -0.00045671433 -0.0005239474
-1.9921077e-11 0.00037915912 -0.00060880097 0.0005538497 0.0012059934 0.001679194 -0.0003292634 0.007887996
0.00095817185 -0.0043810573 -0.00043114062 -0.0037415235 9.72717e-05 0.005100084 0.0055250255 0.00010179232
0.00022179 -0.0020392437 0.0013372006 0.001808511 -0.0016173027 -0.00028742163 0.00047277592 -0.0010411424
-7.945528e-05 -5.382683e-05 -0.0030357328 0.00023742377 -0.0017164146 6.475778e-11 -0.002874853 -0.0014806044
-1.2568573e-10 0.0019200654 -0.002949731 -0.00084818405 -0.011697011 0.0006379905 0.009165866 0.012093707
-1.519512e-05 0.00033011768 8.576511e-05 0.00021823923 0.00028242735 -0.00041108252 0.00081407145 1.3130114e-06
-1.7670476e-05 0.000956841 -0.00027304838 -0.00059862743 9.027569e-05 -0.00024215103 0.00011378967 0.0009190098
1.2319938e-05 -5.073276e-06 0.00021466905 -1.4425788e-05 0.00013060104 -1.4425186e-11 5.5513116e-05 0.00033031835
2.4670294e-12 0.00019571505 -5.810384e-05 0.00025326273 0.0010007833 0.00046979394 -0.0002662103 0.0021213016
7.0169976e-05 -0.00010613812 0.00010254841 0.0001149499 0.00036239717 8.97602e-05 0.004433193 -3.724594e-05
1.6875058e-05 -0.00018992797 -3.927705e-06 0.00029207603 -6.128844e-05 -0.0002631746 -0.001010294 -0.0002258518
-2.6099257e-05 -2.7574173e-05 -0.000121263256 1.5672482e-05 -1.5285023e-05 -3.9437477e-13 -0.0018498396 9.109653e-06
-8.083889e-11 0.00015360629 4.2678614e-05 0.00033583245 -0.00014923763 0.0007908698 0.00011550576 0.009274492
0.00023701203 -0.00060118036 -0.00015027288 -0.00061775715 -0.00033040284 0.00053927075 -0.001805229 3.6038262e-05
2.7124313e-05 0.00027648293 6.918901e-05 -0.00011373427 -0.00016419347 -0.00036557362 -3.6524863e-05 -0.00015532998
3.0702454e-06 -1.4453918e-06 -0.0005004501 9.648993e-05 -0.00033097554 3.1562388e-11 0.0004492903 -0.0007221235
1.9621839e-11 0.0006143204 -0.0005113243 -0.00031575846 -0.0017311344 -0.0007827947 0.0008477576 -0.0036324381
0.00013585613 -0.0005585114 -4.0931587e-05 -0.0010089249 -0.0007380672 0.00067644677 -0.0026665048 1.5546502e-05
2.3785247e-05 -0.0010275283 -3.5318542e-05 0.0008775769 -1.6710252e-05 -2.1323065e-05 0.00017185074 -0.00053750665
1.1459385e-05 1.443037e-06 -0.00045461452 9.5070776e-05 -0.00024586904 1.7224069e-12 0.00041107606 -3.964511e-05
1.7946339e-11 0.00044660218 -0.0005177757 0.0001771227 -0.0023114504 -0.0013952621 0.0018743094 -0.0055053257
0.0001281246 -0.00039393283 -6.2297746e-05 -0.0004134457 -0.00026869 0.00019701611 -0.004691052 5.964871e-05
3.4800576e-06 0.00016623636 -0.00030322938 -9.406444e-05 -0.00026973142 -6.390612e-05 0.0009603068 0.00090964505
9.733195e-06 1.0893255e-05 -0.00011306623 4.227352e-05 -4.0256386e-05 7.057812e-12 0.0017877425 -0.00016154791
7.8154816e-11 9.486859e-05 -0.0009474825 -0.00040806536 -0.00056103757 -0.00045356914 0.0010170416 -0.0090718
00000000: 0f87 c737 dab8 9539 bff7 9737 cb98 5239
00000010: 5a58 ba39 333f bf39 50b6 e83a cdea 17b7
00000020: b5f1 e4b6 fd9b 86b9 fabd 2ab9 2ce8 8c38
00000030: 165f ac38 d56e a738 7fc7 c937 5751 99b9
00000040: 3a6c 5537 a365 3f37 474d 6737 5bb4 e7b8
00000050: 70e9 8fb8 124f ce2b 16da efb8 1f64 0bb8
00000060: aa68 afac d045 1a39 d345 f638 fa41 d738
00000070: 7d63 4b39 5c3d 293a e424 d438 6a4a 4c3b
00000080: 1a4f 71b6 a614 c1b9 ef26 5d39 9d4c 2b3a
00000090: f750 783a d217 0aba 88d2 803b 4bdb d837
000000a0: 1074 b136 a1f3 2e3a 7081 9eb9 4cc0 89b9
000000b0: 4f2d 1939 6150 1839 72a9 33ba 6599 bf39
000000c0: 97eb 2838 ffc2 0b38 c34c 0ab9 e758 1039
000000d0: de3b 7039 6297 c92d 2973 efb9 8459 09ba
000000e0: 473a afad e0c9 c639 f197 1fba 3930 113a
000000f0: 6c12 9e3a 6718 dc3a fca0 acb9 a73c 013c
00000100: d32d 7b3a f98e 8fbb b70a e2b9 5934 75bb
00000110: 59fe cb38 9b1e a73b 460b b53b 5679 d538
00000120: 4d90 6839 d5a4 05bb 0245 af3a 8f0b ed3a
00000130: acfb d3ba 14b1 96b9 e9de f739 f176 88ba
00000140: 3ba1 a6b8 1ec4 61b8 25f3 46bb f5f4 7839
00000150: 51f9 e0ba 6467 8e2e 0868 3cbb d710 c2ba
00000160: 6331 0aaf b4aa fb3a 4650 41bb ab58 5eba
00000170: d2a4 3fbc d13e 273a 6e2c 163c af24 463c
00000180: 8bee 7eb7 a513 ad39 cbdc b338 26d7 6439
00000190: c212 9439 9086 d7b9 6967 553a ba3a b035
000001a0: 0f3b 94b7 83d4 7a3a ef27 8fb9 35ed 1cba
000001b0: 6452 bd38 ece9 7db9 5da2 ee38 b4e9 703a
000001c0: bbb1 4e37 1c3b aab6 c918 6139 4a06 72b7
000001d0: f3f1 0839 43c5 7dad c1d6 6838 942e ad39
000001e0: 0d9a 2d2c dc38 4d39 86b4 73b8 59c8 8439
000001f0: b72c 833a ad4e f639 2492 8bb9 8905 0b3b
00000200: 3828 9338 7896 deb8 420f d738 4211 f138
00000210: 2000 be39 a43d bc38 5144 913b 8638 1cb8
00000220: e98e 8d37 6727 47b9 bbca 83b6 c821 9939
00000230: fb87 80b8 b2fa 89b9 d76b 84ba a2d2 6cb9
00000240: baef dab7 164f e7b7 b74e feb8 6678 8337
00000250: 5638 80b7 6503 deaa 5176 f2ba a9d5 1837
00000260: 40c4 b1ae 6011 2139 d001 3338 ab12 b039
00000270: ac7c 1cb9 6052 4f3a af3b f238 0af4 173c
00000280: 6f86 7839 8898 1dba 9292 1db9 fbf0 21ba
00000290: eb39 adb9 d95d 0d3a 6f9d ecba ca27 1738
000002a0: 0589 e337 e9f4 9039 9119 9138 9f84 eeb8
000002b0: 592b 2cb9 76aa bfb9 4632 19b8 13e0 22b9
000002c0: 6a0a 4e36 49ff c1b5 a330 03ba a35a ca38
000002d0: c986 adb9 17d0 0a2e b98e eb39 e34c 3dba
000002e0: 7498 ac2d 580a 213a 650a 06ba 628c a5b9
000002f0: 3be7 e2ba 7734 4dba 0d3c 5e3a 330e 6ebb
00000300: 9a74 0e39 1169 12ba f5ad 2bb8 e73d 84ba
00000310: da7a 41ba 9353 313a 87c0 2ebb dc69 8237
00000320: 6e86 c737 21ae 86ba ff22 14b8 300d 663a
00000330: fe2c 8cb7 efde b2b7 d532 3439 76e7 0cba
00000340: af41 4037 60ae c135 5459 eeb9 bc60 c738
00000350: fce7 80b9 4068 f22b b285 d739 9d48 26b8
00000360: 90db 9d2d ee25 ea39 57bb 07ba 03ba 3939
00000370: b47b 17bb 3ae1 b6ba 63ab f53a 0566 b4bb
00000380: 2f59 0639 c588 ceb9 d9a5 82b8 bec3 d8b9
00000390: f6de 8cb9 1c96 4e39 65b7 99bb 512f 7a38
000003a0: ef8a 6936 bc4f 2e39 c2fa 9eb9 7644 c5b8
000003b0: bd6a 8db9 5605 86b8 19bd 7b3a 3f75 6e3a
000003c0: c14b 2337 2dc2 3637 f81d edb8 d94e 3138
000003d0: f7d8 28b8 1e53 f82c af52 ea3a 3065 29b9
000003e0: 40dd ab2e 30f4 c638 7960 78ba 9bf1 d5b9
000003f0: 9812 13ba 05cd edb9 414e 853a e3a1 14bc
