logs/rsl_rl/franka_reach/2025-06-26_19-51-50/model_300.pt (torch, 172795 bytes, 36 tensors)

std f4 [7]
000000 9f 59 34 3e a7 9b 15 3e 7f d1 18 3e 8d c2 da 3d
       0.17612313 0.14610158 0.14923666 0.10681639
000010 a5 02 15 3e ab bc 2f 3e 37 ec 0a 3e
       0.1455179 0.17161815 0.13566671

actor.0.weight f4 [64, 32]
000000 fb c1 4c be 09 e7 2b 3e a3 16 52 be 57 5d d3 3d
       -0.19995873 0.16787352 -0.20516448 0.103205375
000010 2c b3 8e 3e 6a 64 bb 3d c2 78 fa 3e 99 1b a0 3e
       0.27871072 0.09150012 0.48920256 0.31271055
000020 0a 8a 18 3f 41 6d c1 bc 8e 84 ab bd 1b da 92 3d
       0.5958563 -0.023611667 -0.08374892 0.071705066
000030 2a b8 91 3d bd a3 94 3d 75 50 b0 3c 1b 40 41 3d
       0.07115205 0.07257793 0.02152274 0.047180276
000040 ed 30 24 bd 06 7c af be 7d 30 77 be 18 b5 fe bf
       -0.04008572 -0.3427431 -0.2413959 -1.9899015
000050 e7 83 ad 3e a7 ee bd bc 1d 64 bc bf d6 bf 09 3f
       0.33889696 -0.023185087 -1.4718052 0.53808343
000060 4b 31 18 be 82 ff d1 bd 28 27 36 be bf 69 3e be
       -0.14862554 -0.102538124 -0.17788374 -0.18595026
000070 ee 41 1e bc a2 07 03 be 69 52 74 3d ab 3f 36 3e
       -0.009659274 -0.1279588 0.059648905 0.17797725
000080 50 d4 be 3e 22 e1 79 3e 10 18 b7 3e 36 ea 7a 3f
       0.37271357 0.24402288 0.35760546 0.9801363
000090 19 61 07 3f f9 91 ef 3e 54 87 e0 bd 24 f6 54 be
       0.52882534 0.46791056 -0.10963312 -0.2079702
0000a0 20 9c 73 3c 48 c7 e5 3d 7b 33 39 bd 47 d5 d4 3d
       0.014868766 0.112196505 -0.04521511 0.10392242
0000b0 69 81 c0 3d 80 c4 f9 bc b1 fc a6 bd 1b c0 f0 3d
       0.09399683 -0.030489206 -0.08153666 0.11755391
0000c0 be aa 2c be 05 ae 29 3e 6d bb 4d bf dd 0b a2 bf
       -0.16862008 0.1657029 -0.80364114 -1.265987
0000d0 44 90 5b bd af 9c 14 3e 85 38 b7 3e 33 6c 1a 3d
       -0.05360438 0.14512895 0.35785308 0.037700843
0000e0 64 60 67 3d e0 ed 90 ba 52 95 45 3e de 91 c4 bd
       0.05648841 -0.001105722 0.19295242 -0.095981345
0000f0 48 f5 8f bd 2e 42 56 bd d8 3c aa 3d 9a bb e4 bd
       -0.070292056 -0.052309208 0.08312386 -0.11168595
000100 98 f5 7a 3f 1e 21 fd 3d 54 da 68 3f df 66 03 bf
       0.98030996 0.12359832 0.9095814 -0.51328844
000110 23 60 a1 bd 65 19 01 be 3c 58 91 3e 07 33 c9 3e
       -0.07879665 -0.12607343 0.2838763 0.39296743
000120 6b d8 20 3f f6 3e 2b be 23 6a 8c 3d b3 e3 63 be
       0.6283023 -0.16723236 0.068561815 -0.22254829
000130 8a 18 ba bb 22 50 1b bd c5 3d a3 3d 34 74 9d 3d
       -0.005679195 -0.037918217 0.07970766 0.076881796
000140 6a 35 37 3e ed e8 ea bd 4b e8 a9 3e 1d 22 3f bf
       0.1789147 -0.11470208 0.33185038 -0.7466143
000150 e9 b0 1a 3f 2d f1 21 bd 4c 8e a8 bd 27 97 78 be
       0.60426193 -0.039536644 -0.08230266 -0.2427641
000160 5d 1f b5 bd 47 ca 2b 3d b8 3c 74 3e e7 ef d9 3b
       -0.08843873 0.041940954 0.23851287 0.006650913
000170 6d ad 38 3e 82 96 d9 3d a0 d1 88 be cd 1f 0d be
       0.18034907 0.1062441 -0.2672243 -0.13781662
000180 b6 f0 25 be 89 b4 22 be ae 6c 43 3e 0f 53 a5 bd
       -0.16205105 -0.15889181 0.19084427 -0.08072483
000190 cd e2 93 3d 23 d0 a4 3e 70 c1 a1 3e 7c 89 53 be
       0.07220993 0.32190046 0.31592894 -0.20657915
0001a0 96 b1 0f 3d f6 ed 6c bd cc 97 93 bd df 54 ba bd
       0.03508147 -0.057844125 -0.07206687 -0.09098219
0001b0 cb ae cf bd b8 36 38 be 4e dd 86 3d 34 46 91 3b
       -0.10140761 -0.17989624 0.06585179 0.0044334177
0001c0 78 3c fe 3e 61 63 a7 be c8 10 80 bf df e4 b1 3d
       0.4965551 -0.32693008 -1.0005121 0.08686232
0001d0 31 82 4a 3f cb 6d 21 be 0f 4b f5 be 28 6d 29 bc
       0.79104906 -0.15764539 -0.47908828 -0.010340966
0001e0 6d f6 67 ba b6 5f 9f 3e 44 70 2c 3e e5 c4 2a be
       -0.0008848671 0.3112771 0.16839701 -0.16676672
0001f0 09 d2 88 3b 99 ef 49 be 41 6f 38 be 15 e2 08 be
       0.0041754288 -0.19720306 -0.1801119 -0.13367493
000200 76 b7 96 bd b2 8f fc bb c0 1f 05 3d 8a 33 95 3e
       -0.07359211 -0.0077075595 0.032500982 0.29140884
000210 d3 46 b9 be 4d 0f 3c 3f 73 f8 0f be b9 0e 13 be
       -0.36186847 0.7346085 -0.1405962 -0.14361085
000220 51 e7 fe bd a5 8a 32 bd 0f b4 ff bc 4b d0 17 bd
       -0.12446464 -0.043589253 -0.031213788 -0.037063878
000230 22 d0 57 bd 5f 87 49 3d 12 5d 80 3c 5c f8 1c be
       -0.052688725 0.049201366 0.01566938 -0.15329117
000240 77 9b 6c 3e de 54 46 3f 24 5d 9b be b6 00 0d 3f
       0.2310618 0.7747325 -0.30344498 0.5507921
000250 80 b2 86 3f 85 4b 0d be ee 5e 42 bd 26 84 2d bf
       1.0523224 -0.1379834 -0.047453813 -0.6777977
000260 b8 0b 8e bc b5 42 f1 be e8 77 b1 3e 65 18 a8 3d
       -0.017339572 -0.47121206 0.34661794 0.08207778
000270 e7 4c 8b bd 48 d9 e1 3d 40 a2 ed bd 73 49 5a 3d
       -0.06801777 0.11027771 -0.11603212 0.053292703
000280 e8 7e dc 3d e4 5b 88 be 62 53 9b be ed 93 a0 bd
       0.10766393 -0.26632607 -0.30337054 -0.078407146
000290 6f 80 0c 3e 22 2b 04 3e 0d 51 a5 3c 95 af 8f 3e
       0.13720869 0.12907079 0.02018025 0.28063646
0002a0 3b 71 36 3e 06 a9 0c be 8b 4f 94 be 9f ab 95 bd
       0.17816631 -0.13736352 -0.28966936 -0.07308125
0002b0 d5 d7 51 3e a2 43 93 bd 2b 0e 0e bd fc d3 f4 3d
       0.2049249 -0.07190634 -0.03468148 0.11954495
0002c0 d0 c1 26 3f f6 0f 62 3f 30 cb 02 bd eb d0 13 c0
       0.65139484 0.88305604 -0.031932056 -2.3096263
0002d0 83 c9 55 bf a9 4b b4 3d b1 ff 06 3e 1c 24 17 3f
       -0.8351061 0.088034935 0.13183476 0.59039474
0002e0 2e ef bb 3d d2 97 f7 bd e6 cf 73 3e 9a d2 3b bd
       0.09176479 -0.12089504 0.23809776 -0.045855142
0002f0 e5 7c 7b be 1a a5 29 3e 2d e3 85 3e 83 1c 2f bd
       -0.24559362 0.16566887 0.26149884 -0.0427518
000300 5f 1d c4 3e f6 18 84 bd 41 0a 31 3f 9d 69 8c be
       0.38303658 -0.064500734 0.6915627 -0.27424327
000310 c1 b9 2b be 65 eb 6c 3e 2d b8 41 bb 50 d3 89 3e
       -0.16770078 0.23136671 -0.002955924 0.2691903
000320 1c 8d a9 3d 93 6f 42 3e a0 0b 89 3b 86 34 81 3d
       0.082788676 0.18987875 0.004182294 0.06308846
000330 04 25 85 3c e8 29 78 bc 95 7c 14 3d dd 9f e9 bd
       0.016253002 -0.01514671 0.036251623 -0.114074446
000340 98 97 b8 3d 6f 41 18 3e 5a 3a 4b 3e 24 3b 1e 3f
       0.09013289 0.14868711 0.19846478 0.6180899
000350 4f c9 4e be eb 2c dc bd 63 17 c9 be 7b 82 06 3f
       -0.2019398 -0.10750755 -0.39275655 0.5254285
000360 80 e5 c3 3c e3 44 95 3d 29 fb c5 3d b9 eb 18 3e
       0.023913145 0.0728853 0.096670456 0.14933671
000370 8d 21 b4 bb ce 55 12 3e 0d 03 0f 3e 06 25 bb 3c
       -0.0054971636 0.14290544 0.13966008 0.022844803
000380 f9 ba 93 3f 39 c8 9b 3d 15 35 84 3f ab b2 02 be
       1.1541435 0.07606549 1.0328699 -0.12763469
000390 01 45 e9 be b7 55 a8 be bc 8d 0b bf 2c 00 9a 3e
       -0.45560458 -0.32877895 -0.54513144 0.30078256
0003a0 fa 99 47 3e b1 87 e5 3c 52 67 ab bc 65 31 ca 3d
       0.19492331 0.028018804 -0.02092329 0.098727025
0003b0 e0 09 26 3e 2c ee e8 3d c5 d2 11 bd 33 00 af bc
       0.16214705 0.11373553 -0.035601396 -0.0213624
0003c0 3c 28 4d be 37 21 2e bf 68 80 7d be 1d 29 2c bf
       -0.2003488 -0.6801943 -0.24756014 -0.67250234
0003d0 b1 6a 10 bf 88 ff fe bd 83 d9 81 bf 97 8e c6 3e
       -0.564128 -0.124510825 -1.0144504 0.38780662
0003e0 98 7d 82 bd 0d 87 64 bd 39 23 76 bd 69 cd 8e be
       -0.06371611 -0.055792857 -0.060092185 -0.2789109
0003f0 e0 24 be bc ea 90 df bd 28 83 cf 3d be 2a 88 bd
       -0.023210943 -0.10916312 0.10132438 -0.066487774

actor.0.bias f4 [64]
000000 0c 34 31 be 09 c6 bc 3d dd 7f cd be 12 af 65 3d
       -0.1730501 0.0921746 -0.40136614 0.056075163
000010 1e 68 95 3d b1 52 ad be 65 9b b5 be a7 e5 c1 bd
       0.072952494 -0.3385215 -0.3547012 -0.09467631
000020 4e 1d a7 3e 51 86 4c 3e d0 e0 ae bd d8 9a 14 3e
       0.32639545 0.19973113 -0.08538973 0.14512193
000030 43 08 c3 3d b8 b8 a4 be e9 9f 99 be de 10 81 be
       0.0952306 -0.3217218 -0.30004814 -0.2520818
000040 c2 af 1c 3f ca fc 09 3e a9 18 64 3e c8 45 0e bc
       0.61205685 0.13475338 0.22275032 -0.008683629
000050 27 fe 85 3e c1 0a ff 3d ed 2f 02 be 1c 6c ce 3d
       0.26170465 0.12453223 -0.12713595 0.10079214
000060 c6 1f 16 bf dc 29 38 3f 89 13 a7 3c fa e8 82 be
       -0.5864223 0.7193887 0.020395057 -0.25568372
000070 a3 63 d9 bd 9f a2 9e 3d 0e f6 c0 bd fc 3f b4 3e
       -0.10614707 0.07745861 -0.09421931 0.35205066
000080 fc cc ee be b7 60 51 3c d3 30 8a 3d ce 21 d3 bc
       -0.46640766 0.012779406 0.06747594 -0.025772955
000090 f9 8b 6f 3e d3 c4 97 3e b4 20 5b be 76 34 8d bc
       0.23393239 0.29642352 -0.21399194 -0.01723693
0000a0 d4 77 2c 3e 5b 34 33 be 5c fa e8 3e c4 64 e0 bc
       0.16842586 -0.17500441 0.4550351 -0.027391799
0000b0 bf 26 e6 3e b0 26 94 3e 29 62 58 be 5a c3 19 3d
       0.44951436 0.28935766 -0.21131195 0.037539817
0000c0 12 d6 91 3e 93 b1 b2 bd da 2e 42 be ef 79 64 be
       0.28483635 -0.08725276 -0.18963185 -0.22312139
0000d0 93 54 24 3e ac 01 0c 3e 24 48 cd be 09 8a bb be
       0.16047888 0.13672513 -0.400941 -0.3662875
0000e0 5a c8 ce be 16 11 11 bd 0f 6b 39 3e 87 24 e6 3e
       -0.4038723 -0.035416685 0.18107246 0.44949743
0000f0 ab 9d 55 bd f0 5d 0c 3e 19 bb a1 3e 59 07 0c bd
       -0.052152317 0.1370771 0.31588057 -0.034186695

actor.2.weight f4 [64, 64]
000000 7f 7b 76 bc 60 bf 85 be 84 33 9c 3e ce 22 f1 bc
       -0.015044092 -0.2612257 0.30508053 -0.029435541
000010 a8 13 f1 3d 85 bd 30 bd 4c 85 2a 3e 58 61 07 3d
       0.11771327 -0.04314949 0.16652411 0.03305182
000020 a5 3b 0b bd 18 f4 9f be 4c 6b 49 3e 33 9f 5a 3e
       -0.03399243 -0.31240916 0.19669837 0.21349792
000030 b9 96 89 bd 83 0e 27 bb 1b 8b 34 be 01 23 c7 be
       -0.06718201 -0.0025490827 -0.1763119 -0.38893893
000040 a8 cb ce 3d 73 c4 16 3d fa 62 c8 bc 1a a4 8d bc
       0.10097438 0.036808442 -0.024461258 -0.017290164
000050 82 15 37 bd 6c fd 81 3e 23 b6 92 3d 3b 21 d0 3d
       -0.044698246 0.25388658 0.07163646 0.10162588
000060 f2 ed a0 3e 6c a5 9a be 29 85 02 be 38 54 47 3e
       0.31431538 -0.30204332 -0.12746109 0.1946572
000070 a1 4d a8 3e 4f 35 56 be 5a 65 e0 3d a2 16 59 3e
       0.32871726 -0.20918773 0.10956831 0.2120004
000080 b1 4a ab 3d 60 74 8c 3e 2a 13 ae bd d9 bf 6f be
       0.08363856 0.27432537 -0.08499749 -0.23413028
000090 23 0d 4a be 62 1c d6 bd d4 6a 87 bc be 61 95 bd
       -0.19731574 -0.10454632 -0.016530432 -0.072940335
0000a0 52 f5 1a be 90 6c a9 bd 16 2e 42 ba 21 8a 8f 3d
       -0.15132645 -0.0827266 -0.000740738 0.07008768
0000b0 fa 8d bc bd 4f eb 03 3d f6 36 a5 3d 3b b0 96 bd
       -0.092067674 0.03220683 0.080671236 -0.07357832
0000c0 2f cf 3c 3d f7 09 d3 bd 68 45 4c 3e 5a b1 ec 3c
       0.046096023 -0.10304635 0.19948351 0.028893162
0000d0 b1 84 3f 3e 4a 10 63 bc 2c da 37 be a4 e5 eb bc
       0.18702962 -0.013858864 -0.1795432 -0.028796025
0000e0 cc 49 9f bb a3 08 e4 bd 1a 9f f4 3d e5 55 cb bd
       -0.004861092 -0.1113446 0.11944409 -0.099284925
0000f0 0d fc 77 be 9d d4 dd bb 9b 7e 11 3e 36 03 83 bd
       -0.24217243 -0.0067697302 0.14208452 -0.06397097
000100 ac 42 cb 3d a9 8c 41 be 4e 9b e0 be 93 32 2c 3e
       0.09924826 -0.18901314 -0.43868488 0.16816168
000110 3d 4f 62 bd fe 8d 58 bb ff 9a 34 bd da c8 d8 bc
       -0.05525135 -0.0033043618 -0.04409313 -0.026462961
000120 a1 2b f5 3d 4f 75 59 3e c3 0c b2 bd 4e 43 26 3e
       0.11971212 0.21236156 -0.0869384 0.16236612
000130 98 31 c4 bd 1d 1b 0c be 91 11 15 be 16 16 89 bc
       -0.09579772 -0.13682218 -0.14557482 -0.016734164
000140 5b ff 29 3e 67 aa 37 bd 03 fd 60 3e d6 e3 57 bc
       0.16601317 -0.044840243 0.21971516 -0.013176879
000150 00 e1 ec 3d 31 d5 67 bd 26 ff 6f 3d be 9f 3d 3e
       0.11566353 -0.0565998 0.058592938 0.18517968
000160 c0 30 e7 bd 78 d2 81 bc a7 ab e2 3c 6e 50 99 bd
       -0.11288595 -0.01584743 0.02766974 -0.07486044
000170 f2 af 3b be 19 6f 49 3e 4d 12 11 3e 51 2d 96 3e
       -0.18328837 0.19671287 0.14167137 0.2933145
000180 79 af 96 bd 4c 62 c1 bd 26 95 32 bd d0 85 25 be
       -0.073576875 -0.09442577 -0.04359927 -0.16164327
000190 81 cd 55 3d 4f 06 6a 3e 03 50 3e bd dd 0f d9 3d
       0.052197937 0.22853969 -0.046463024 0.10598729
0001a0 c7 d9 84 bd ae a1 b5 bd f6 df 96 bd dc b1 8a 3d
       -0.0648685 -0.088687286 -0.07366936 0.06772205
0001b0 9f 3e 88 3e 88 b7 c9 3d ed 8d d6 bd 3a 42 25 3e
       0.26610276 0.09849459 -0.10476289 0.16138545
0001c0 a1 3c 31 bb 55 7e 08 3e 91 54 b6 3d 54 77 9e 3d
       -0.0027044194 0.13329442 0.089028485 0.07737604
0001d0 e3 7d 79 bd 95 22 2b 3d fc 1a 0e be 83 0c 24 be
       -0.06091107 0.041781027 -0.13877481 -0.16020398
0001e0 28 a2 19 be f1 5b 52 be 41 03 86 3d 64 bb 1f 3e
       -0.15003264 -0.20542885 0.065435894 0.15598828
0001f0 7f fd f4 3d eb fc 61 3e 8d 58 c0 bd 97 6e ef bd
       0.11962413 0.22069137 -0.0939189 -0.11691015
000200 e5 95 55 3c 70 78 d3 be 73 3d 3e 3d da cd fa bd
       0.013036226 -0.41302824 0.04644532 -0.12246294
000210 c1 85 55 3d ff b3 2d be 4d 3b b4 bb 92 ca 01 be
       0.05212951 -0.16963194 -0.0055002333 -0.1267493
000220 57 60 19 3d 5b fd c1 be dd cd 40 3c 92 8c 3e 3d
       0.037445392 -0.37888607 0.011767832 0.046520777
000230 67 9d 85 be 6e f2 92 bd 5c 40 d8 be 78 fa 40 be
       -0.2609665 -0.07175146 -0.42236602 -0.18845546
000240 3f 4e 84 3d 76 f7 3b 3d 6d 2e 35 bc 72 74 87 3c
       0.06460237 0.045890294 -0.011058432 0.016535018
000250 45 67 8c bc be e2 65 3e 04 47 90 3e d3 f9 0b bd
       -0.017139086 0.22449777 0.2817918 -0.034173798
000260 b3 fb 1a 3e 1a 58 1a bd 53 67 53 be a9 91 53 3e
       0.15135078 -0.037681676 -0.20644884 0.20661034
000270 a4 c9 c1 3e 52 25 28 3e 02 a9 a1 3d 42 e1 9b 3e
       0.37849152 0.16420487 0.07893564 0.30445296
000280 9c b1 b4 3d 55 b4 86 3e 1e f2 ae 3d e6 8c db be
       0.08822939 0.26309457 0.08542274 -0.42880934
000290 c5 dd db be 5b 12 4c be 23 1b da bd 72 18 37 be
       -0.42942634 -0.19928877 -0.10649707 -0.17880419
0002a0 d6 a0 1f be dd 34 4b be 20 7c f5 bd 77 c6 1c 3d
       -0.15588698 -0.19844384 -0.119865656 0.03827521
0002b0 39 cd 07 be b5 84 10 3e 77 1f 81 3e 5e 2d 85 bb
       -0.1326188 0.14113124 0.25219318 -0.004064246
0002c0 a7 c8 e6 3d 2c af 98 bd 52 d1 20 3e be 8b ad bd
       0.1126874 -0.074552864 0.1570485 -0.08473919
0002d0 42 ed c5 bd ed 40 b7 3d 69 2a 53 be 96 07 c6 3c
       -0.09664394 0.089479305 -0.20621647 0.02417354
0002e0 bd 50 cf bd 2d 64 2d 3c 11 24 04 3e 0c 4f 55 bc
       -0.101228215 0.010582966 0.12904383 -0.0130193345
0002f0 19 c4 83 be ff f5 db 3d 27 e9 15 3e 66 41 1b bd
       -0.25735548 0.107402794 0.14639722 -0.037904166
000300 9b cb eb bc 1d 3a d3 bd f5 15 04 be 12 e3 ba bd
       -0.02878361 -0.103138186 -0.12899001 -0.091253415
000310 ab 81 ed bd 80 c6 fc 3d 76 68 c1 bd 6b 03 84 3e
       -0.11596998 0.12342548 -0.094437525 0.25783858
000320 44 56 49 3d 50 6a c1 3d fc ab df bd e6 23 d3 bd
       0.049154535 0.094441056 -0.10921475 -0.103095815
000330 2e cb 50 3e 69 23 8f bd e9 5f e9 bd 78 ba fc 3c
       0.20390007 -0.06989176 -0.113952465 0.030850634
000340 a0 26 d5 3d 04 d2 4e 3d 7e 60 36 3e 3a bd d3 3d
       0.10407758 0.050493255 0.17810246 0.103388265
000350 8a 59 c5 3d cb 45 41 3e 7f 7f 52 bc 55 e3 9d 3d
       0.09636219 0.1887428 -0.01284778 0.07709376
000360 1b dc db be de ed c8 3d d1 e7 7e 3e 91 31 91 be
       -0.42941365 0.098109946 0.24893118 -0.2835813
000370 27 f0 54 be a6 40 0d 3d 3c 78 00 3d 04 83 d3 3d
       -0.20794736 0.03448548 0.031364664 0.103277236
000380 81 71 78 3c 95 67 8c 3d f4 28 84 3d a6 19 d3 3c
       0.01516378 0.06855694 0.06453124 0.025769066
000390 d8 7a 9a 3e 0c 3f b7 3d b6 cc ad 3d a7 c6 18 be
       0.30171847 0.08947572 0.08486311 -0.1491953
0003a0 5f 1d bb 3c f5 5f e2 bd 0f e3 b5 bc 0c 34 62 3d
       0.022841154 -0.110534586 -0.022202997 0.055225417
0003b0 c2 06 21 3e b5 c6 78 3d 67 6c dd bd 35 82 96 3e
       0.15725234 0.060736377 -0.10811692 0.29396215
0003c0 7f 7c b3 bb 3a 14 7d 3d 66 bb 1a be a9 49 91 3d
       -0.0054774876 0.061786868 -0.1511055 0.07094128
0003d0 c1 4c 04 be ad 93 81 3e b6 84 60 be f8 4b c7 3c
       -0.12919904 0.2530798 -0.21925625 0.024328217
0003e0 de f3 fc bd c1 09 c7 bd 30 d1 81 3e e4 29 2a 3e
       -0.123512015 -0.09718657 0.2535491 0.16617543
0003f0 82 a2 6e 3a 37 c3 f5 3d 04 52 b3 3d fc 86 cb 3e
       0.0009103195 0.12000125 0.087558776 0.39751422

actor.2.bias f4 [64]
000000 85 7c 7c be ff c5 11 3c b5 5b 07 be 4a 7d e5 3d
       -0.24656875 0.008897304 -0.13218577 0.112055376
000010 3b 6a a6 bd 83 6d de bd 05 3f 47 be fb 4f 9a be
       -0.081257306 -0.108607315 -0.19457634 -0.30139145
000020 0f 17 d8 bd e5 f9 19 bc 4b 2c 78 be 48 46 cf be
       -0.10551273 -0.009397958 -0.24235646 -0.40483308
000030 67 ad 91 be ce 89 30 bd c0 e2 4f 3e a2 e3 36 be
       -0.28452608 -0.04310017 0.20301342 -0.17860273
000040 ff 95 1d bd 95 36 a9 be 84 4c 59 be a6 8e 58 be
       -0.038473126 -0.33049455 -0.21220595 -0.21148166
000050 c4 42 94 be 97 02 80 be 2f d8 3b be 88 e7 70 be
       -0.28957188 -0.25001976 -0.18344186 -0.23525822
000060 9a ff 8e be 48 e2 89 be 55 c9 8e be 29 36 3b be
       -0.27929384 -0.2693045 -0.2788798 -0.18282379
000070 30 e0 c5 bd c2 5f 97 be cd 9a 77 3e 8d 77 c6 be
       -0.09661901 -0.29565245 0.24180146 -0.38763085
000080 5e fd 84 bd 30 89 e0 3d f4 29 80 be 83 c7 1d be
       -0.064936385 0.109636664 -0.25032008 -0.15408139
000090 50 66 a9 be da 56 71 be 93 6c 47 be 8b c7 70 bd
       -0.3308587 -0.23568287 -0.19475012 -0.05878405
0000a0 ab e7 9a be 6c 72 6d be 6f f0 36 bd 93 e3 a9 bd
       -0.30254874 -0.2318818 -0.04466289 -0.082953595
0000b0 3c b3 55 be 02 47 c4 be 42 3d 6a bc df 24 08 be
       -0.20869154 -0.38335425 -0.014296832 -0.13295315
0000c0 d3 ae cd 3d 59 11 4f be 93 e7 b8 3c 38 78 b9 3a
       0.10043111 -0.20221461 0.02257136 0.0014150208
0000d0 52 b1 51 be 17 57 18 be c8 25 a9 bc 74 a9 88 be
       -0.20477799 -0.14876972 -0.020647898 -0.26691782
0000e0 de 25 e8 bd 49 81 72 bd c7 f7 1f bd 7a 13 4e be
       -0.113353476 -0.059205327 -0.03905466 -0.20124617
0000f0 ab 52 a8 be f0 74 61 be b4 82 9c 3c 25 64 ea 3c
       -0.3287557 -0.22017264 0.019105293 0.028612206

actor.4.weight f4 [7, 64]
000000 e3 81 75 bb 16 2d 57 3e db f7 94 3d d6 cc c6 bd
       -0.0037461452 0.21013293 0.07273837 -0.09707038
000010 3d 82 a1 bc 6e ab ec 3d bd bd 9e 3d a0 77 6c 3d
       -0.019715423 0.11556135 0.077510335 0.05773127
000020 10 a6 4d be da ac c3 3d ad c9 2b 3e 6d eb fa 3d
       -0.20082879 0.09554453 0.16776152 0.12251935
000030 ee fe 89 3d 4f 4c 22 3e 6c cf 80 3e 5a 37 54 be
       0.06738077 0.15849422 0.2515825 -0.2072424
000040 fc 4e cb 3d ef 31 7a 3b 68 2b cd bc 53 9d bc 3c
       0.099271744 0.0038176735 -0.025045112 0.023024237
000050 6f 64 93 be 52 8b 8c 3d 2d 4c 8f 3d c4 0b e0 bd
       -0.28787562 0.06862511 0.06996951 -0.10939744
000060 42 03 c4 bc a4 cc 1e 3e 92 cc 8d bd 49 3d 12 bd
       -0.023927335 0.15507752 -0.06923784 -0.035702977
000070 fe 24 02 3e 00 31 95 bd d7 60 e8 bc 22 ca aa 3c
       0.12709424 -0.07284737 -0.02836649 0.020848338
000080 d6 4a 09 3e b0 0c 63 3e e4 61 5e 3e 8e 8c 92 3d
       0.13407454 0.22172809 0.2171703 0.07155715
000090 39 e1 b8 bd f8 ac e8 3d c1 46 ed 3c ad b0 02 3e
       -0.09027333 0.11361116 0.028964402 0.12762709
0000a0 56 cd 54 3e a5 d8 a1 3d 59 9b 86 be 65 0c 77 bb
       0.20781454 0.0790265 -0.26290396 -0.0037696597
0000b0 f3 be ae 3c 64 8f f1 3a 3e 39 a1 3e 57 5d 25 ba
       0.021331286 0.0018429575 0.31488985 -0.0006308159
0000c0 53 ce 02 3e f8 03 20 bc f1 ca 25 3e 54 b5 e9 bc
       0.12774019 -0.009766571 0.16190697 -0.028528847
0000d0 67 13 02 bd 9c 60 81 bb 7a 0b e1 3c 92 88 97 bd
       -0.031756785 -0.0039482843 0.027471293 -0.073990956
0000e0 b7 da 1d 3e f2 44 80 be 9b c2 87 3c 7f 67 ff 3c
       0.15415464 -0.250526 0.016572287 0.03117728
0000f0 6d 8f e3 3d 35 e2 67 3e b9 2a d1 3d bd 98 14 bd
       0.11111341 0.22644885 0.10213227 -0.036278475
000100 24 d4 c8 3d 55 7a c0 3d c7 a5 43 3e e2 1a 8f 3d
       0.098060876 0.09398333 0.19106208 0.06987549
000110 27 52 dc bd cd 50 9a bd 1c 10 24 be 13 3f cc bc
       -0.10757857 -0.07534943 -0.1602177 -0.02493242
000120 e6 45 fe bc b7 3d 82 3d 3c 0c 80 be 61 11 b1 bb
       -0.03103919 0.063594274 -0.25009334 -0.005403683
000130 25 39 2d bd d8 fc ea bc 74 42 80 3d 66 79 02 3e
       -0.042290825 -0.028685018 0.06262675 0.12741622
000140 a6 b5 2b be 68 66 30 be b9 dd 76 3e b7 71 fc bd
       -0.16768512 -0.17226565 0.24108018 -0.12326377
000150 3c 17 3b bd 82 03 38 3e e4 b7 1d 3d 9d 14 21 bd
       -0.045676455 0.17970088 0.03850545 -0.0393263
000160 d2 4e 73 be 74 e4 77 3d ca d0 30 be b3 79 30 bd
       -0.23760536 0.060520604 -0.17267147 -0.04308481
000170 ae 46 0a 3d 78 91 c4 3d 21 f2 87 3e 38 70 e6 3c
       0.03375881 0.095980585 0.26551917 0.028129682
000180 0c 3b 3c 3e 82 bc c5 bd a7 15 24 be 1d 5e 94 be
       0.183819 -0.09655096 -0.16023885 -0.28978053
000190 b1 ac 49 be 42 6c 9b bd 2b 70 90 3e 94 2c 87 3d
       -0.19694783 -0.07589008 0.28210577 0.066002995
0001a0 d0 52 f2 bd 0d c5 45 bd 83 d7 72 bd d7 79 9e 3d
       -0.118322015 -0.048283625 -0.05928756 0.07738083
0001b0 8f a3 89 3e 73 3c 08 be 2b ad 3d 3e 61 cd 9c bb
       0.26882598 -0.1330431 0.1852309 -0.0047852253
0001c0 ee 6e 45 3e bc de c0 3b 1d cd 2b 3e 87 ff 28 bd
       0.19280598 0.005885927 0.16777463 -0.041259315
0001d0 7a 72 ea 3c 5b e6 47 be 46 0b f3 bd 0f 6b 4e 3d
       0.02861904 -0.19521467 -0.118673846 0.050395068
0001e0 6f 76 81 3c 59 19 a2 3d 07 3e a3 bd 2a ca ab be
       0.015803544 0.07914991 -0.07970815 -0.33552676
0001f0 f6 00 8c 3d d4 c6 37 3d 95 bb bd 3d 18 7c 84 3d
       0.06836121 0.04486735 0.09264294 0.064689815
000200 e1 10 8e 3d 7c 93 d1 bb 29 fb 15 3e b9 51 d6 bd
       0.06936813 -0.0063957553 0.14646591 -0.10464806
000210 d6 09 e1 bd 7f 4a 33 be 91 8d 43 3e fa c4 92 3d
       -0.10988204 -0.17508887 0.19096972 0.071664765
000220 98 72 9b be 88 b2 3b 3e 62 ba 0e 3e 1c da 39 3c
       -0.30360866 0.18329823 0.13938287 0.011343505
000230 3a b7 68 3c 4f 78 e6 bd 02 0e 8f 3e 7a 9a af 3d
       0.014203841 -0.11253416 0.27940375 0.08574386
000240 57 07 59 be 90 18 9c bd a2 11 ed 3c ce 72 05 3e
       -0.21194206 -0.076218724 0.028939072 0.13032076
000250 bb 16 74 be 58 b9 8d 3d 56 83 e8 3d 7a 53 34 be
       -0.23836796 0.06920117 0.11353175 -0.17609969
000260 38 5a e8 bc e2 ff 93 3d 30 9a 0b bd 69 f0 b5 bd
       -0.028363332 0.0722654 -0.03408259 -0.08883745
000270 48 58 c1 3d 86 4b 0f be 89 c3 8d be 76 43 4c 3e
       0.094406664 -0.13993654 -0.27688244 0.1994761
000280 0a fa 0d 3d 2e 64 36 3e da 94 9f 3d 09 a3 db 3d
       0.034662284 0.17811653 0.07792063 0.10724456
000290 82 eb 01 3e 81 37 f3 3c 39 54 c6 3d 9e 16 e1 3c
       0.12687495 0.029689552 0.09684033 0.027476605
0002a0 9b b0 4a 3e 08 a2 84 bd 5c ae c8 bd 44 f0 a1 bd
       0.19793932 -0.064762175 -0.097988814 -0.07907155
0002b0 8e 25 2d be 44 17 24 be 81 04 c1 3e 3f a9 dd 3d
       -0.16908857 -0.160245 0.3769875 0.10823297
0002c0 4c 24 ab bc 4e 1c 36 bd 61 33 a0 3d 4a 1e 29 bd
       -0.020891331 -0.044460587 0.078223 -0.04128865
0002d0 2b 2a 17 3d 4d 4b ed bc d4 df 96 bc 4f 55 77 bd
       0.03690545 -0.02896657 -0.018417276 -0.06038409
0002e0 98 94 07 3e f7 a3 47 be 35 e3 b2 bd 65 ea 47 bd
       0.13240278 -0.19496141 -0.087347426 -0.04880752
0002f0 43 a6 ca 3d af 37 5b 3e 52 c1 14 3e 88 86 b4 bd
       0.09894993 0.2140796 0.14526871 -0.08814722
000300 54 cb 83 3e 8b a4 ea bd 69 f2 8b 3e 6d 93 2f be
       0.25741065 -0.11457165 0.27333382 -0.17146082
000310 b5 21 e4 bd a9 a6 7f bc ba 37 b5 3d 82 7a 61 3e
       -0.111392416 -0.0156037 0.088485196 0.2201939
000320 08 d6 bb 3d 61 9b 6c bd 7f 8f 81 3e a9 11 a8 bd
       0.091716826 -0.05776537 0.2530479 -0.082064934
000330 4a fa 60 3e a0 82 4f be 09 cc cc be a9 a5 ec bd
       0.21970478 -0.20264673 -0.39999416 -0.11555035
000340 c3 bf a5 3c 0d e7 a4 3d 17 9b 8b 3e 9f ad 5c be
       0.02023304 0.08051882 0.27266762 -0.21550606
000350 d0 56 b2 3d a5 f9 fb 3d be 3d a9 3c d4 7f 65 be
       0.087079644 0.12303475 0.020659324 -0.22412044
000360 ca 07 01 3d 87 5c 71 3d c9 c7 50 3e b6 de 10 3d
       0.03150157 0.05892613 0.20388712 0.035368644
000370 cb 5e 71 be 20 39 42 3e ef f0 37 bc 55 6c 87 bd
       -0.23571317 0.18967104 -0.011226877 -0.066124596
000380 0c c0 26 3e d8 52 84 3d 78 2f eb 3c c1 1f 61 3d
       0.16284198 0.06461114 0.028709158 0.054961924
000390 68 b1 2e 3d 49 e1 aa 3d d7 d8 c1 3d 8f e9 da bd
       0.042649657 0.08343751 0.09465187 -0.10689079
0003a0 8f 97 59 be 14 65 27 3e 7c 7c bb be e5 02 21 3e
       -0.21249221 0.16347152 -0.36618412 0.1572376
0003b0 dc cd 2a 3e dd 92 47 3e b8 08 ac 3d 8e 20 47 3c
       0.16680092 0.19489618 0.084001005 0.012153758
0003c0 e4 4b 5f be 38 90 ab be 5d c6 29 3c 6d 7c f6 bd
       -0.21806294 -0.33508468 0.010362235 -0.12035451
0003d0 26 7c 04 3e 64 d3 2a bc 5e a3 1d be 16 1d 33 bc
       0.12937984 -0.010426376 -0.15394351 -0.010932228
0003e0 39 50 fb bd 8d 20 ea bd ee 7c 63 bc 0b b7 93 be
       -0.12271161 -0.1143199 -0.013884766 -0.28850588
0003f0 43 b0 c4 3c 39 c4 21 3d 8c 6b a4 bd 70 fd 36 be
       0.02400983 0.039493773 -0.080283254 -0.17870116

actor.4.bias f4 [7]
000000 21 ef 4a bc 65 41 25 3e 28 6b 3a bd 6a 4e de 3d
       -0.012386114 0.16138227 -0.04551235 0.108548
000010 ac 0e 59 3d b8 7c 49 be d2 f7 b6 3d
       0.052992508 -0.19676483 0.08933987

critic.0.weight f4 [64, 32]
000000 09 5e 10 bd 6b db 96 bd 58 be 7c 3d ee f8 22 3e
       -0.03524593 -0.073660694 0.061704963 0.15915272
000010 25 3d 16 be 14 40 53 3d c1 d2 90 be 3e 3f 03 3e
       -0.14671762 0.05157478 -0.28285792 0.12817094
000020 cd e0 ca bc 6c 96 55 3d 8f 08 fb bd 5d 08 ac 3d
       -0.024765396 0.052145407 -0.12257492 0.08400033
000030 45 9c 68 bd 5b a4 6e 3d 3e a6 07 bb e6 00 16 3c
       -0.056789655 0.05826221 -0.0020698453 0.009155488
000040 98 1e 01 3d 7f 7c c5 3d 53 88 a3 be 40 dc 97 bd
       0.031523317 0.09642886 -0.31939945 -0.07415056
000050 d4 b4 5d 3e c3 35 35 3d 4f 69 48 be 5f 1e a8 be
       0.21651012 0.044240724 -0.19571422 -0.3283567
000060 98 68 fd bd 84 09 97 3d de c2 f7 bc 64 ac 17 bd
       -0.12373465 0.07374862 -0.030244287 -0.03702964
000070 59 cc 11 bb 88 83 93 bd 68 d6 2c bd d3 a0 52 bb
       -0.0022247045 -0.07202822 -0.04219666 -0.0032139316
000080 3f 31 9f bd 5f d9 f8 3d 66 bf 0f bc cb 65 14 3e
       -0.07773065 0.12150835 -0.00877366 0.14491956
000090 67 0b 7a 3d 42 65 7d 3e ef 81 1e 3e a1 2c c6 bc
       0.06104603 0.24745658 0.15479253 -0.024191203
0000a0 7c 62 ca 3c 8b 65 ec bc 68 d8 27 bd f6 32 27 bd
       0.024705164 -0.028857013 -0.040977865 -0.040820085
0000b0 d4 87 17 be 34 a3 26 bd d2 ec a8 bd 43 70 fc 3b
       -0.14797908 -0.040682986 -0.08248295 0.0077038123
0000c0 ee 99 59 bd 9d 22 0f 3e d0 f0 d5 3d 56 53 b4 be
       -0.053125314 0.13978048 0.10446322 -0.3521983
0000d0 5e a3 a2 3d 49 a8 8d 3d 2c 4c 81 3e f3 80 0f 3e
       0.07941316 0.069168635 0.25253427 0.14014034
0000e0 bb 53 1d bc 72 f1 8e 3c 62 cd d4 3d a4 d8 b1 3c
       -0.009602482 0.017449114 0.10390736 0.021709748
0000f0 22 6c 02 3c 75 1e 10 bc 67 dc b7 3d 2d e2 25 be
       0.007960351 -0.008796324 0.08977585 -0.1619956
000100 1c a3 78 bc 47 a7 de 3d 86 b5 3d be 24 bc 89 3b
       -0.015175607 0.10871749 -0.18526277 0.0042033363
000110 b3 3c a9 3d 7b 3f 90 3b 9e 84 96 bd 67 60 98 bc
       0.082635306 0.0044020987 -0.073495135 -0.018600656
000120 fb aa d6 3d 0f 2d 04 be 5a f7 66 3d 3a 51 c4 bd
       0.10481831 -0.12907813 0.056388237 -0.09585805
000130 49 c7 2f bd 6f 19 3d 3d 90 1a 69 bd 1f c6 29 3d
       -0.042914663 0.046166833 -0.056910098 0.04144871
000140 26 6c c7 3d 89 84 5b bd 78 d7 73 be 5a 92 ee be
       0.097374246 -0.053593192 -0.23812664 -0.46596032
000150 af 76 21 bc c9 20 60 3d 26 73 c2 bc b0 25 a8 bd
       -0.0098549565 0.054718766 -0.023736548 -0.08210313
000160 7b e9 b3 bd 30 94 fe 3c 4a 34 c9 3b 1e ce b3 bd
       -0.08784767 0.03107652 0.0061402665 -0.08779548
000170 26 1e d6 3d 94 97 02 bd 33 3d fd bc fd 95 e1 ba
       0.10454969 -0.031882837 -0.030912971 -0.0017210838
000180 cf 39 0a be d2 67 f3 3d 0e aa 91 3d 08 d2 10 be
       -0.13498615 0.118850365 0.071125135 -0.1414262
000190 66 6c 8e 3d dd 91 82 3d 96 64 7c 3e c7 fb 66 3e
       0.06954269 0.063754775 0.24647745 0.22556983
0001a0 f9 03 9e 3d 56 1a b1 bd 57 93 c6 bd 0c 91 ce bd
       0.077156015 -0.08647601 -0.096960716 -0.10086259
0001b0 53 3b 56 3d 1d 84 f4 3c ae 79 84 bc 4e 7e d1 b9
       0.05230267 0.029848153 -0.016171303 -0.0003995769
0001c0 5d 7a d3 3c e2 b3 65 3e eb 07 16 be d3 5b 47 bf
       0.025815183 0.22431901 -0.14651458 -0.7787449
0001d0 df 03 91 be df d6 fd bd 22 0b 88 bf d9 42 86 3e
       -0.28323266 -0.12394499 -1.0628397 0.26222876
0001e0 fe 54 25 3e ec 80 c4 bc d9 e0 e0 bc 51 f9 dc 3d
       0.16145703 -0.023987256 -0.027450966 0.10789741
0001f0 46 41 df bc a6 8d ba bd 6c f5 47 3d 49 ed 5f 3d
       -0.027252804 -0.091090485 0.048818037 0.054669652
000200 1e 6a 22 be 95 b2 db bd 38 18 5c 3d 44 d5 a1 bc
       -0.15860793 -0.10727421 0.053734034 -0.019755013
000210 36 32 96 3e b1 88 e8 3d 05 9b 7f 3e f7 70 39 3d
       0.29335183 0.11354197 0.24961479 0.045273747
000220 a7 7b 79 bb 19 af c9 bc 8a cf 2c bc d0 88 81 bc
       -0.0038068087 -0.024619626 -0.010547528 -0.015812308
000230 a8 da 31 3b b8 cd 72 3a 3a f8 bf 3b a7 af 8e 3b
       0.0027138386 0.0009262222 0.0058584483 0.0043544355
000240 35 c0 8b 3a 65 6f 31 3d 9f 03 85 3e 4b 50 90 bd
       0.001066214 0.043319125 0.25979325 -0.07046565
000250 79 4b 91 3d 0b bd 23 3d 4e 7c 21 bf 27 1c ad 3e
       0.070944734 0.039975207 -0.630803 0.3381054
000260 2b 33 11 be a7 5d 97 bc ee 35 7e bd 57 2d 2b bd
       -0.14179675 -0.018477274 -0.06206315 -0.041791286
000270 c8 0d 7b bc 72 fb 08 bb 3b bd d6 bc 77 2f 9e 3d
       -0.01532311 -0.0020901826 -0.026213279 0.07723897
000280 f5 10 ed bd ea e9 39 bd b1 d8 6d bd 65 6e 4c 3c
       -0.115755 -0.045389093 -0.05806798 0.012477492
000290 a9 fa 0d 3e a7 a6 84 3d 85 7e a9 3b 36 15 b1 bd
       0.1386515 0.06477099 0.005172553 -0.08646624
0002a0 5f a9 9c 3d 30 ef 11 3d 0c 00 a4 bd 62 d6 2e bb
       0.076494925 0.035628498 -0.080078214 -0.0026678075
0002b0 cd 65 4f 3d 72 bf 02 bb 95 ab e9 ba 33 ad a8 3b
       0.050634194 -0.0019950536 -0.0017827625 0.0051476
0002c0 11 ab dc 3d 23 46 b2 bd 8d 19 74 be c0 1c 81 bc
       0.10774816 -0.08704784 -0.23837872 -0.01576078
0002d0 f4 97 89 be 9b c9 1a be c5 21 15 3f 75 04 e5 3e
       -0.26873744 -0.15115969 0.58254653 0.44729963
0002e0 c0 86 91 3d f2 73 91 bd 4a c4 11 3e ef ba aa 3c
       0.0710578 -0.07102193 0.14235035 0.02084109
0002f0 21 c7 a2 3d fb 80 b9 3c 1a 8d 91 3b 8a 86 f6 bc
       0.07948137 0.02264451 0.0044418694 -0.03009345
000300 d3 5c 18 3e 08 f5 62 3e cd 6d c1 bd b6 11 21 3e
       0.1487916 0.22163785 -0.09444771 0.15729412
000310 62 b1 1e 3e 80 72 e2 3d c7 15 a5 3d d4 d9 f7 bd
       0.15497354 0.110569954 0.08060794 -0.12102094
000320 f1 c9 c6 3d 82 3d 49 3d 5f 41 80 3c c5 1f e3 3c
       0.09706486 0.049130924 0.015656171 0.02772511
000330 96 13 a3 bb 59 31 51 bc 11 d1 c1 3a f8 5b d9 bc
       -0.0049767 -0.012768113 0.0014787038 -0.026533112
000340 a3 dc 88 bd 7f fa 24 be e7 1e 42 3e c0 4c f0 bf
       -0.06682708 -0.16111182 0.18957101 -1.8773422
000350 4a 58 a4 bc f7 23 11 3e b9 b3 5d bf e9 8a e8 3c
       -0.02006163 0.14173876 -0.8660236 0.02838655
000360 45 8a 1e bd 44 6f 43 bd 2d c8 85 3d 97 dc 5e bb
       -0.038706083 -0.047713533 0.06532321 -0.0034005994
000370 0f ea 02 3d e5 27 d9 3c ca 52 43 3d d5 30 45 3d
       0.031961497 0.026508281 0.047686376 0.048142273
000380 3d 34 b2 3d d4 56 0f 3e 96 de b0 bb ea 12 fc bd
       0.0870137 0.13997966 -0.005397628 -0.12308295
000390 c1 e0 d7 bd 6a 50 7a be a7 1c 12 be 64 e5 1b 3e
       -0.10540915 -0.24444738 -0.14268743 0.15224224
0003a0 08 fc c6 3d 6a e3 f2 3b ed 52 c5 3d 66 8d 05 3c
       0.0971604 0.007412364 0.096349575 0.008151388
0003b0 02 33 12 3c 49 a8 ee 3c 23 64 06 3d 30 25 9e 3d
       0.008923294 0.029132979 0.03281034 0.07721937
0003c0 8c 1c 2c be f2 85 9b bd 68 5d a8 3d 35 7f 18 3f
       -0.16807765 -0.075939074 0.08220941 0.595691
0003d0 03 86 04 be 5c 4e 02 3e 34 90 06 bf 69 af 75 bd
       -0.12941746 0.12725204 -0.52563787 -0.059981737
0003e0 8e 01 08 3e a1 5c 94 bd 6f fa b0 bd 94 49 09 bd
       0.13281843 -0.0724423 -0.086415164 -0.033517435
0003f0 2b ab 65 bc b0 6e 01 3b 0a 05 84 bc 5a 0e 8c 3c
       -0.01401786 0.0019749813 -0.016115684 0.017096687

critic.0.bias f4 [64]
000000 31 49 0e 3e 0b e5 30 be 71 36 c5 bd 95 80 f9 bd
       0.13895108 -0.17274873 -0.096295245 -0.12182728
000010 3a 79 59 bc b8 8b be bd 95 0b 84 bd 2a b6 14 3d
       -0.013273532 -0.09303993 -0.064475216 0.036306538
000020 98 a2 2b bd c0 d5 a5 bd 2e 89 1c 3b 25 f6 bf 3d
       -0.04190311 -0.0809741 0.0023885476 0.0937312
000030 1e e3 bc bc 68 5b cf bd 21 8e a4 3d ed 44 b8 bd
       -0.023057517 -0.10124856 0.080349214 -0.089975215
000040 11 0c e0 bd 37 e4 14 3e d6 19 5d bc 10 40 f1 3d
       -0.109398015 0.14540182 -0.013494929 0.11779797
000050 7d 39 ee 3d 56 26 b8 bd cd 67 a5 3d 61 3f 4b bd
       0.11632059 -0.08991687 0.08076439 -0.04962099
000060 d0 20 73 3d 91 d9 5f bd 6b 3b 49 3d b8 6b d2 3c
       0.059357464 -0.054650847 0.04912893 0.02568613
000070 3a b1 87 bd 5f 26 47 3e 99 70 75 bd 0f 9f a3 3c
       -0.066256 0.19448231 -0.059921835 0.019973306
000080 57 7a ab bd 05 65 56 bd b4 fc fa 3c 61 e3 a1 bd
       -0.08372944 -0.052342433 0.030638076 -0.07904697
000090 b2 38 64 bd 52 a8 4a 3e c6 01 0f be 32 1a 71 bc
       -0.05571813 0.19790772 -0.1396552 -0.014715718
0000a0 e6 49 56 3d 7d a8 8a 3d bd 72 2d 3d 2c ab 5f be
       0.05231657 0.06770418 0.04234575 -0.2184264
0000b0 3d a6 30 be 48 e5 77 3d 19 d7 dc bd 26 f2 3c be
       -0.17250915 0.060521394 -0.10783214 -0.18451747
0000c0 8f 82 8a bd e5 92 21 bd 75 bb 36 be 85 4e 14 be
       -0.06763183 -0.03944673 -0.17844947 -0.14483078
0000d0 38 cf ed 3c 1d 92 04 be 6b ff f5 bd d4 21 95 bd
       0.029029474 -0.12946363 -0.12011608 -0.07281843
0000e0 23 0d e7 3d d0 bb 56 bd 29 c8 05 be 23 57 a9 bd
       0.112818025 -0.052425206 -0.13064636 -0.08268573
0000f0 86 2c d3 bc 49 eb 21 3e bf a6 0d 3e 99 66 b0 bd
       -0.025778066 0.1581241 0.1383314 -0.08613319

critic.2.weight f4 [64, 64]
000000 12 1d f1 bd 1c a8 d4 bc 78 a7 3f 3e 4a 68 e8 3d
       -0.11773123 -0.025959067 0.18716228 0.113480166
000010 4b ad 69 3b 33 f5 86 bc 99 d6 b2 3d 12 0e 85 3d
       0.003565627 -0.016474342 0.087323375 0.06496824
000020 37 1c 86 3e 58 27 13 3e 25 56 a3 ba 3d ea dc bd
       0.261934 0.14370477 -0.0012461586 -0.10786865
000030 9f 16 34 be 76 fe c9 3d 2c b0 56 3d 35 cd 00 3d
       -0.17586754 0.09862988 0.052414104 0.0314457
000040 93 2d c6 bd 27 c6 29 be 60 89 fd bd d1 98 31 be
       -0.09676661 -0.16579495 -0.12379718 -0.17343451
000050 77 d9 eb bc eb 5f 2e be fc 84 65 bd 9c 7d 4c 3c
       -0.028790219 -0.17028777 -0.056035027 0.0124811195
000060 0f bf 21 3d fa a8 88 bc c5 a1 99 3d 87 51 9f bd
       0.03948885 -0.016682137 0.07501558 -0.07779222
000070 18 1a 96 3d 6b 04 59 be ca 50 af 3d 40 64 ea bd
       0.07329196 -0.21193092 0.08560331 -0.114449024
000080 44 33 fb 3c f4 94 4e 3d e6 16 ce 3d 25 d5 85 3d
       0.030664094 0.05043502 0.10062961 0.06534795
000090 db ff a9 bd d6 16 1d be 66 2f 5d be af d8 02 3e
       -0.08300754 -0.15340742 -0.21600112 0.1277797
0000a0 6b df 92 3d 9a 2e c2 bd 68 af c8 bd 1c 8c 42 be
       0.0717152 -0.09481545 -0.09799081 -0.1899876
0000b0 40 d8 41 bd 4f a3 24 3e 3e 37 a8 3d 9a 40 05 be
       -0.047325373 0.16077922 0.082136616 -0.13012925
0000c0 09 5f 17 bd 0b c2 ff bc 85 02 df 3b 46 32 d8 bd
       -0.036955867 -0.031220457 0.0068057203 -0.10556464
0000d0 55 6e 86 3d cc 7b e4 bd c6 d1 c1 bd b9 8b 68 3c
       0.06564013 -0.11156425 -0.09463839 0.014193469
0000e0 b4 bb 1b 3e 5c 47 d7 3d 49 e0 93 3d 87 1d 69 3d
       0.15208322 0.105116576 0.072205134 0.056912925
0000f0 2d b7 63 bd 5d 7e 93 3c 43 4e a3 3c 6f 99 a5 bd
       -0.055594612 0.01800459 0.019934779 -0.08085906
000100 8b c8 3a bd 4c f1 97 bd 70 a3 be 3c 98 3c cc 3d
       -0.04560141 -0.074190706 0.023271292 0.09972495
000110 9f 40 14 bc a0 c8 83 3d 1e 67 0c bd 0c 0a 0a bd
       -0.00904861 0.064347506 -0.034278028 -0.033700988
000120 96 80 18 be 02 c9 27 3e 67 fb 43 3e b3 52 93 3d
       -0.14892802 0.16385272 0.19138871 0.07193508
000130 47 9d 19 be 05 a3 06 bc 5f f9 89 3e 9f 0a 04 bd
       -0.15001403 -0.008217578 0.26948068 -0.03223669
000140 1b f5 a7 3d 01 12 f4 bd 3a 65 57 3d d7 20 c3 bd
       0.08201047 -0.119174965 0.05258677 -0.09527748
000150 65 fb 22 3e 8d ca 90 bd 87 4d 61 bd f3 eb 0e 3e
       0.15916212 -0.070698835 -0.055005576 0.13957195
000160 69 7e 1b 3e d8 30 3a 3e 96 fa 86 3d 89 3c 52 3d
       0.1518494 0.18182695 0.06590764 0.051327262
000170 8b 1d cb 3d b0 77 12 bd 82 ca 5d 3d 0e 51 98 3c
       0.09917744 -0.035758674 0.054148205 0.018593337
000180 53 c5 b0 3d dd de be bd 92 0c e2 bd 87 c8 c2 bd
       0.086313866 -0.093198515 -0.11037554 -0.09510904
000190 71 fa ba bd d9 86 e3 bc e0 06 a1 bd 9f eb 8a 3e
       -0.09129799 -0.027774261 -0.078626394 0.2713289
0001a0 33 93 e4 3c d6 df e9 bd ce 3b 42 3e bc 5a 9f bd
       0.027902221 -0.114196464 0.18968126 -0.07780978
0001b0 14 e4 b9 bd 5c 4b ac 3d d1 a8 31 3c ff d1 6b 3c
       -0.090767056 0.08412811 0.010843472 0.014393329
0001c0 43 f5 26 bd af 7e 41 be 43 a7 b6 bb c7 59 af bc
       -0.040761244 -0.18895982 -0.0055741384 -0.021405114
0001d0 8e 3f b4 3c 58 d6 49 be 11 c6 63 3a 61 c1 47 bd
       0.022002961 -0.19710672 0.0008688877 -0.048768405
0001e0 b5 27 f5 3d 6b 53 93 3c dd a8 2e 3d 90 1a 4e 3e
       0.11970464 0.017984113 0.04264151 0.2012732
0001f0 86 18 03 3c c3 ea 27 3e 3d 2f 20 3e af 02 bc 3d
       0.008001452 0.16398148 0.1564302 0.09180199
000200 be 49 8a 3d 35 5b 46 bd 46 15 e7 3c 45 b9 e1 bd
       0.067523465 -0.048426826 0.028208386 -0.110216655
000210 a6 59 65 3d 9e 27 0c 3c 41 4a a2 bd 89 4c 1f 3e
       0.0559937 0.008554367 -0.07924319 0.1555654
000220 da d7 43 be 72 cb 99 3a c6 b9 a3 3c c2 b2 7a 3c
       -0.1912531 0.0011733605 0.019986045 0.015301408
000230 b4 54 e0 bd 5e 9f 11 3e b7 e4 cc bd bb b6 fa 3d
       -0.10953656 0.1422095 -0.100045614 0.12241884
000240 b4 41 90 bd ef d8 11 3e 5f c2 be bc 19 2c 17 3e
       -0.07043782 0.1424291 -0.023286043 0.14762916
000250 27 b4 37 3d fa e8 69 be bf 8b 28 bd e4 35 97 bd
       0.04484954 -0.2284278 -0.041148897 -0.07383326
000260 ed dc c3 bd ef ea 26 3e e5 c5 ac 3c bf 19 b3 bd
       -0.095636226 0.16300558 0.021090457 -0.08745145
000270 6f ce 39 3c 2b ae 10 3e 5c cb 26 3d 6b 05 cc 3d
       0.0113407215 0.1412894 0.040721282 0.09961971
000280 7e d3 90 bc 47 11 4f bd c3 d4 a6 3c b3 46 9b bc
       -0.017678972 -0.050553586 0.020365125 -0.01895461
000290 69 40 11 bd ae a0 9d 3d dc 95 00 bc 27 f8 16 bd
       -0.035461817 0.07696663 -0.007848229 -0.03685775
0002a0 ca 8b 0c 3d d2 9c ee bd e3 9e 53 3d 5c b7 f0 bd
       0.034313 -0.11651005 0.051665198 -0.11753723
0002b0 e2 c4 49 bd d6 39 2a 3d 22 93 a1 bd e4 c3 e8 bd
       -0.049260028 0.041559063 -0.078893915 -0.11365488
0002c0 34 e0 8e bd 9a 7e 77 3d a9 4a 31 bd c5 0a 69 bd
       -0.06976357 0.06042347 -0.043284092 -0.056895036
0002d0 85 6b a7 3d 87 ea 05 3e 42 e9 cc 3d bd 36 1f 3d
       0.081748046 0.13077746 0.10005428 0.038870562
0002e0 2d df 98 bc 9f b2 b2 3b 15 b8 30 3e 2d d5 f3 bd
       -0.018661106 0.005453422 0.17257722 -0.119058944
0002f0 9b 08 c9 3d cf 54 f3 3d 62 89 b4 3d e7 d8 cc bc
       0.098160945 0.1188141 0.08815266 -0.02500577
000300 4d 17 82 bc 1c 6a 11 bd a8 a6 70 3e e8 42 f1 bc
       -0.015880251 -0.035501584 0.23501074 -0.029450849
000310 84 f5 c5 bd 54 66 33 bd 11 0c cd 3b 3d f9 64 bc
       -0.09665969 -0.04379876 0.006257542 -0.013975439
000320 05 b6 c5 bd 26 95 a2 3e 06 4e 18 3d 20 20 3f 3e
       -0.09653858 0.31754416 0.037183784 0.18664598
000330 04 7d f5 bd 5c 71 04 be 2b 99 42 bc 6b 03 02 3e
       -0.119867355 -0.12933868 -0.011877338 0.12696616
000340 36 c7 25 bd b4 64 cf 3d 3f fc 3e 3c ae b5 8a 3e
       -0.040473185 0.101266295 0.01165682 0.27091736
000350 08 a2 cc 3e 0d 78 05 be 69 0b a3 bc 03 b5 12 3d
       0.3996737 -0.13034077 -0.019902902 0.035817157
000360 ff a9 1a be e1 a6 c1 3d ee 33 0b 3e 47 29 ed bd
       -0.15103911 0.09455658 0.13594028 -0.11580139
000370 c7 75 ec 3c 2f 87 46 3c e7 14 3a 3c 03 4d b2 3d
       0.028864754 0.012117191 0.011357523 0.08706095
000380 79 e7 9a bd f1 fc 88 bd eb 9c d1 bd 7b 5c 6a 3b
       -0.07563681 -0.0668887 -0.10235008 0.003576069
000390 a2 56 87 3d 95 3a 41 bd 5c f6 a2 be 67 7b d7 3c
       0.06608321 -0.04717501 -0.31828582 0.02630396
0003a0 91 91 35 3d d2 8d 92 be a8 31 da 3d e7 94 4c be
       0.044328276 -0.28623825 0.106540024 -0.19978677
0003b0 47 c1 38 be 3e 94 99 3d e1 19 5c 3d ab 48 07 bb
       -0.1804248 0.07498978 0.053735618 -0.0020642679
0003c0 c3 5a 8d bd ff ee b4 bc db 8b b6 3d f3 4e cd 3d
       -0.06902077 -0.022086618 0.08913394 0.10024824
0003d0 db bd a1 bd 77 4e 2e bd 7e 66 b3 bd 69 2d fe 3b
       -0.0789754 -0.0425553 -0.08759783 0.007756878
0003e0 6f 6e 52 3e 06 bf 97 bd 0a c0 e3 bd 6c 4c 18 3e
       0.2054994 -0.07409482 -0.11120613 0.14872903
0003f0 24 29 03 be 05 56 8b bd 1b 70 9f bc 30 88 d7 bd
       -0.12808663 -0.06803516 -0.019462636 -0.105240226

critic.2.bias f4 [64]
000000 de 29 ee bc 4e ae 0c be 39 16 30 3b 41 61 8e be
       -0.029072698 -0.13738367 0.0026868714 -0.27808574
000010 47 87 a3 3d ef e7 b6 bd b5 f2 93 bd de 4c c0 3d
       0.079847865 -0.089309566 -0.07224027 0.09389661
000020 60 0a 23 3e 38 ed 91 3d c0 ae d8 bd cc 7a 35 be
       0.15921926 0.07125324 -0.10580206 -0.17722625
000030 c8 45 db bd 52 f1 4d 3d 41 8a 50 3c 96 27 63 3d
       -0.10706669 0.05027897 0.012728275 0.055457674
000040 51 e3 e0 3d 02 31 e4 bd 04 d1 ea bd d1 68 75 3d
       0.10980857 -0.1114216 -0.11465648 0.059914414
000050 b7 86 b9 bd 50 73 32 be 59 81 00 3d e0 a4 24 3d
       -0.09058898 -0.174268 0.031373356 0.0401963
000060 73 c6 b0 bd e7 e7 55 3c cc b8 23 be 71 74 17 bc
       -0.08631601 0.013055778 -0.15988463 -0.00924407
000070 22 cd ce bd 53 42 e0 3c 52 42 ba 3d 5f 32 06 3c
       -0.1009772 0.027375376 0.09094681 0.00819072
000080 a7 52 d2 bc 2e cb af 3d 9d 0b 04 3e 91 97 eb 3d
       -0.025674177 0.08583675 0.12895055 0.115035184
000090 62 e6 2a bd ae eb 93 3c f3 3d 51 be 79 a2 05 be
       -0.041723616 0.018056717 -0.20433788 -0.1305026
0000a0 39 05 61 be c7 6d 82 bd d5 5e d5 3d e0 b3 41 3e
       -0.21974649 -0.063685946 0.104184784 0.18916273
0000b0 c9 d6 44 3d 8c 0d 5c bd 23 37 73 3d b7 d6 14 bc
       0.048056398 -0.053723857 0.059378754 -0.009084395
0000c0 06 ab f3 3d 08 a1 77 bd 43 f8 21 3e 0f 91 16 3c
       0.118978545 -0.060456306 0.1581736 0.009189858
0000d0 96 08 83 bd cf 9f 90 bd e5 ba b8 3c d0 cb b0 bc
       -0.06398122 -0.07061731 0.022550056 -0.02158156
0000e0 b2 05 b3 bd 59 58 e5 bd bf b3 18 bd 60 04 88 bd
       -0.08741321 -0.111984916 -0.037280794 -0.066414595
0000f0 e9 b1 01 be 16 c7 0d bc 8b fe 8c bd 92 e2 13 3c
       -0.12665524 -0.008653423 -0.06884488 0.009026187

critic.4.weight f4 [1, 64]
000000 9c 42 20 bd 84 f9 1f bd 1a ae ba bb 2f 69 62 bd
       -0.039126024 -0.039056316 -0.005697024 -0.055276092
000010 3f 62 98 bc 9e 49 c5 3b 2d 06 f7 bc d3 da 86 bc
       -0.018601535 0.0060207387 -0.030154312 -0.016461765
000020 d5 84 88 bd e0 37 e7 bc 89 f8 9b bd 28 08 c0 3d
       -0.06665961 -0.028224885 -0.07615764 0.09376556
000030 62 34 8f bc bc ff 9a 3d db 6f 81 bc e7 7d 11 bd
       -0.017481033 0.07568309 -0.015800407 -0.03552046
000040 4a 01 3c bb 6c bd 09 3e 83 8b 89 bc af 21 77 3c
       -0.0028687292 0.13451165 -0.016790157 0.015083714
000050 9d d3 c6 bb 71 63 7d bd 85 7b e0 3c a5 a6 53 ba
       -0.0060677067 -0.061862413 0.027402649 -0.0008073843
000060 e4 e2 1b 3d 8b 1c 91 bb 88 95 08 3c c1 27 1e 3c
       0.038058177 -0.0044284514 0.008336432 0.009653033
000070 82 bd 8a 3c 2a b7 0c bb ea de a7 bb b5 c6 ff bb
       0.016936067 -0.002147148 -0.005123009 -0.00780567
000080 b5 f4 33 3b 51 b6 46 bd 1a e5 2f 3c 7d 26 c6 3c
       0.002745909 -0.048513714 0.010735774 0.024188275
000090 6a a0 05 bd 8f 11 6d 3b a8 ce 50 bd 95 25 01 bc
       -0.032623686 0.0036173796 -0.050978333 -0.007882495
0000a0 0c fd ae ba bc 46 da bc 61 b6 55 bc d2 09 17 be
       -0.001335056 -0.026645057 -0.013043971 -0.1474984
0000b0 1a d6 39 3c 8a ef 0e 3e 09 fe ce 3c c7 cf 4e b9
       0.01134255 0.13958564 0.025267618 -0.00019723094
0000c0 de 4c 0f bd 92 7e 46 bc 5f 9a 5c 3c 09 ec 31 3d
       -0.034985416 -0.012115138 0.013464539 0.04343799
0000d0 46 be 88 bd 66 63 ce 3b d9 cb 1a 3c 1f 18 05 3c
       -0.06676917 0.0062984703 0.009448015 0.008123427
0000e0 c8 29 26 bd 3b 34 56 bd d8 2a 78 bc 20 3b d4 bc
       -0.04056719 -0.052295905 -0.0151469335 -0.0259071
0000f0 59 4a e8 bc 21 e8 d4 3d 64 f8 a9 bd 70 87 82 bc
       -0.028355764 0.103958376 -0.0829933 -0.015933722

exp_avg f4 [7]
000000 9e 2a 0d 3a 3d 5a 46 bb a5 df b0 bb 00 5f a3 ba
       0.00053850736 -0.0030266189 -0.0053977543 -0.0012464225
000010 b0 bf 88 ba a0 7f 97 ba 85 40 80 bb
       -0.0010433104 -0.0011558421 -0.0039139413

exp_avg_sq f4 [7]
000000 9a 38 4c 39 60 09 a3 39 18 95 90 39 0b 16 fe 39
       0.00019476042 0.00031096768 0.00027576904 0.0004846308
000010 36 7e 92 39 94 e8 5c 39 ab 0d e1 39
       0.00027941325 0.00021067477 0.00042925528
