logs/rsl_rl/franka_reach/2025-06-26_19-51-50/model_600.pt (torch, 172795 bytes, 36 tensors)

std f4 [7]
0.09124043 0.056935966 0.068521775 0.04509362 0.055121563 0.06212268 0.06985511
00000000: 43dc ba3d b035 693d 2555 8c3d 16b4 383d
00000010: 26c7 613d 5a74 7e3d 3210 8f3d

actor.0.weight f4 [64, 32]
-0.19313174 0.1636411 -0.19903238 0.11290429 0.27829513 0.07716223 0.4868845 0.31835932
0.6019801 -0.014895642 -0.10022998 0.084771626 0.08527412 0.072148584 0.040947914 0.070439585
-0.0047809617 -0.29780036 -0.24606448 -1.9827249 0.33567932 -0.023082288 -1.4737661 0.53177106
-0.1486527 -0.097711705 -0.18403064 -0.17611195 -0.0018756171 -0.1290768 0.054801613 0.17725345
0.37308097 0.25344977 0.35226026 0.97406876 0.52212274 0.48136267 -0.10285923 -0.20257105
0.017561428 0.10398232 -0.03954743 0.10681222 0.101618305 -0.036513317 -0.06633788 0.09953034
-0.19104305 0.14405341 -0.8023265 -1.2795784 -0.077245794 0.14536643 0.36339977 0.033048056
0.05676751 -0.0030880293 0.20842278 -0.09791609 -0.07351791 -0.059638392 0.08893404 -0.107117064
0.97609 0.12532401 0.90698946 -0.51017743 -0.07772907 -0.12784448 0.2835977 0.38736424
0.6204116 -0.17152822 0.062498562 -0.21741092 -0.013789851 -0.030169573 0.078574635 0.08355892
0.1759861 -0.09274849 0.33468217 -0.7502231 0.60947067 -0.039688323 -0.082802005 -0.24156795
-0.0884962 0.04127242 0.24463326 0.0052672233 0.17973582 0.10950304 -0.26754752 -0.13723588
-0.16768567 -0.15883408 0.19366641 -0.08136537 0.058233373 0.32504934 0.3237675 -0.20112641
0.03926128 -0.04549275 -0.0407382 -0.08977714 -0.09970835 -0.1623856 0.06255392 -0.012424659
0.5214727 -0.30142894 -0.99900556 0.083506 0.78312516 -0.15756701 -0.47761866 -0.012434073
-0.00082711567 0.30691054 0.17359398 -0.16330524 0.005128464 -0.21137007 -0.18197687 -0.12972511
-0.07974726 -0.0061884285 0.029784217 0.29819003 -0.3780261 0.7323368 -0.14447434 -0.13705783
-0.118618384 -0.04422169 -0.023846572 -0.035893656 -0.05887619 0.05747215 0.023769127 -0.15842196
0.20071764 0.786943 -0.2995721 0.5243224 1.0470046 -0.13794535 -0.037856188 -0.67865336
-0.01691676 -0.47490367 0.35366502 0.07944315 -0.06546521 0.10310255 -0.1205482 0.050819933
0.120401055 -0.27977422 -0.32195854 -0.11425761 0.14161697 0.13214365 0.037216306 0.27143198
0.17335097 -0.12849219 -0.27107495 -0.081756786 0.18859564 -0.052829888 -0.027198184 0.10056667
0.6165765 0.8540699 -0.052424904 -2.274647 -0.83340085 0.08832586 0.124307185 0.5775499
0.09166294 -0.09893481 0.2224527 -0.05015649 -0.27187732 0.16640827 0.26062292 -0.030353386
0.38686568 -0.06572457 0.70465857 -0.27252814 -0.17044583 0.22949432 0.0009771057 0.25944567
0.07133758 0.1756845 -0.004644062 0.071354486 0.0139104575 -0.0081338445 0.031966645 -0.12285192
0.08737671 0.13682604 0.2006853 0.6475167 -0.18672222 -0.107553266 -0.39836115 0.52667594
0.023748642 0.06417863 0.0939192 0.15231165 -0.0048143766 0.14410232 0.1408731 0.02637521
1.1288849 0.08084666 1.0303241 -0.12848885 -0.4691541 -0.32483816 -0.54001504 0.29847404
0.19124308 0.035944223 -0.008689789 0.10430469 0.14753981 0.08215221 -0.020302007 -0.024906073
-0.1662557 -0.67955655 -0.24873821 -0.6848301 -0.5679985 -0.1241764 -1.030155 0.37829205
-0.06428556 -0.07840489 -0.05727174 -0.2751989 -0.02210231 -0.13245918 0.10655455 -0.06388052
00000000: 54c4 45be 8891 273e 25cf 4bbe 5d3a e73d
00000010: b37c 8e3e 3b07 9e3d ed48 f93e feff a23e
00000020: 5e1b 1a3f da0c 74bc 6045 cdbd bf9c ad3d
00000030: 33a4 ae3d a3c2 933d 00b9 273d a142 903d
00000040: 9da9 9cbb 4a79 98be 54f8 7bbe eec9 fdbf
00000050: 29de ab3e 1117 bdbc 5ea4 bcbf 2622 083f
00000060: 6a38 18be 131d c8bd 8772 3cbe b156 34be
00000070: 44d7 f5ba b52c 04be a877 603d ee81 353e
00000080: 7804 bf3e 2bc4 813e 755b b43e 925c 793f
00000090: d6a9 053f 2b75 f63e dca7 d2bd c96e 4fbe
000000a0: fcdc 8f3c aff4 d43d 7cfc 21bd 5dc0 da3d
000000b0: 421d d03d fd8e 15bd 28dc 87bd 90d6 cb3d
000000c0: caa0 43be bd82 133e 4565 4dbf 3ac9 a3bf
000000d0: 0b33 9ebd f0da 143e 890f ba3e 665d 073d
000000e0: 0c85 683d 8960 4abb c86c 553e 3b88 c8bd
000000f0: 8f90 96bd 6347 74bd 0d23 b63d 3160 dbbd
00000100: 09e1 793f f054 003e 7630 683f fd9a 02bf
00000110: 6b30 9fbd aae9 02be b833 913e 9b54 c63e
00000120: 4bd3 1e3f 18a5 2fbe 7efe 7f3d f8a0 5ebe
00000130: d4ee 61bc 2e26 f7bc bdeb a03d f020 ab3d
00000140: b335 343e ecf2 bdbd 765b ab3e 9f0e 40bf
00000150: 4506 1c3f 3990 22bd 1994 a9bd 975d 77be
00000160: 7f3d b5bd 450d 293d 2481 7a3e ac98 ac3b
00000170: ab0c 383e 2143 e03d fdfb 88be 9087 0cbe
00000180: cbb5 2bbe 67a5 22be 7d50 463e e3a2 a6bd
00000190: 1e86 6e3d de6c a63e dbc4 a53e 15f4 4dbe
000001a0: 70d0 203d 9b56 3abd 19dd 26bd 14dd b7bd
000001b0: e433 ccbd 6948 26be 451c 803d cc90 4bbc
000001c0: 3c7f 053f e554 9abe d4be 7fbf 3205 ab3d
000001d0: e47a 483f 3f59 21be 6f8a f4be 48b8 4bbc
000001e0: cbd2 58ba 6123 9d3e 9fc2 313e 7d39 27be
000001f0: ad0c a83b 6571 58be 2558 3abe a9d6 04be
00000200: 8852 a3bd 4dc8 cabb 08fe f33c 5dac 983e
00000210: a38c c1be 6d7a 3b3f 15f1 13be e358 0cbe
00000220: 32ee f2bd ce21 35bd e359 c3bc 3a05 13bd
00000230: 2928 71bd eb67 6b3d 79b7 c23c 5e39 22be
00000240: ed88 4d3e 1975 493f 8461 99be fe39 063f
00000250: 3f04 863f 8c41 0dbe 170f 1bbd 3abc 2dbf
00000260: 0495 8abc 9326 f3be 9513 b53e 17b3 a23d
00000270: a012 86bd 6e27 d33d fae1 f6bd 9028 503d
00000280: d494 f63d 913e 8fbe c0d7 a4be e5ff e9bd
00000290: 0a04 113e aa50 073e 2070 183d 22f9 8a3e
000002a0: eb82 313e 7593 03be 56ca 8abe 1a70 a7bd
000002b0: 371f 413e 2764 58bd bace debc e6f5 cd3d
000002c0: f5d7 1d3f 53a4 5a3f 7fbb 56bd d193 11c0
000002d0: c259 55bf 30e4 b43d c494 fe3d 4fda 133f
000002e0: c8b9 bb3d 559e cabd a4ca 633e e470 4dbd
000002f0: 8133 8bbe ee66 2a3e 5e70 853e aaa7 f8bc
00000300: 4213 c63e 9a9a 86bd 8164 343f cf88 8bbe
00000310: 5a89 2ebe 8f00 6b3e 3a12 803a 10d6 843e
00000320: 7019 923d a3e6 333e 372d 98bb 4d22 923d
00000330: b0e8 633c d143 05bc 75ef 023d ca99 fbbd
00000340: 8ff2 b23d 201c 0c3e 7380 4d3e a8c3 253f
00000350: 1c34 3fbe e344 dcbd fef5 cbbe 3cd4 063f
00000360: 838c c23c 1670 833d b658 c03d 96f7 1b3e
00000370: ebc1 9dbb 8f8f 133e 0a41 103e d310 d83c
00000380: 4d7f 903f ef92 a53d a9e1 833f 9592 03be
00000390: f734 f0be 3051 a6be 6d3e 0abf 97d1 983e
000003a0: 3ad5 433e 403a 133d 9e5f 0ebc b39d d53d
000003b0: ad14 173e 6b3f a83d 6550 a6bc d207 ccbc
000003c0: ef3e 2abe 6bf7 2dbf 3bb5 7ebe 0751 2fbf
000003d0: 5a68 11bf 3250 febd 1edc 83bf 7faf c13e
000003e0: 26a8 83bd be92 a0bd c695 6abd dfe6 8cbe
000003f0: e70f b5bc 61a3 07be 4639 da3d cad3 82bd

actor.0.bias f4 [64]
-0.1811431 0.08689169 -0.3984305 0.05372631 0.07060969 -0.33924866 -0.34920892 -0.094582245
0.32917443 0.2014144 -0.08398854 0.14764307 0.096243806 -0.3207152 -0.29982272 -0.25137368
0.619565 0.13438763 0.22270092 -0.0030372983 0.26252332 0.12383108 -0.13146952 0.099298134
-0.58562607 0.71840674 0.020408997 -0.2568206 -0.10532057 0.083507724 -0.0938698 0.3550222
-0.46623862 0.013815482 0.07316208 -0.027077937 0.23575841 0.29557332 -0.21670505 -0.0151139
0.15970744 -0.18109554 0.4551259 -0.030282391 0.44912603 0.28927147 -0.218491 0.03853605
0.28505147 -0.091286905 -0.18660234 -0.2216061 0.16394451 0.14045736 -0.40187415 -0.36979738
-0.40640518 -0.036809266 0.18246756 0.45010817 -0.05466149 0.13568915 0.3117874 -0.032208845
00000000: 947d 39be 45f4 b13d 15ff cbbe 1f10 5c3d
00000010: d09b 903d 00b2 adbe 83cb b2be 56b4 c1bd
00000020: 8d89 a83e 943f 4e3e 2f02 acbd bf2f 173e
00000030: 791b c53d c834 a4be 5d82 99be 0db4 80be
00000040: d09b 1e3f e99c 093e b60b 643e 690d 47bb
00000050: 7569 863e 269b fd3d f29f 06be d25c cb3d
00000060: 97eb 15bf 81e9 373f c530 a73c fd7d 83be
00000070: 50b2 d7bd 1906 ab3d cf3e c0bd 78c5 b53e
00000080: d4b6 eebe 555a 623c 00d6 953d 8dd2 ddbc
00000090: a76a 713e 6355 973e eee7 5dbe 4ba0 77bc
000000a0: 598a 233e 1c71 39be 4306 e93e c712 f8bc
000000b0: d9f3 e53e 641b 943e 1bbc 5fbe fad7 1d3d
000000c0: 44f2 913e a1f4 babd af14 3fbe b6ec 62be
000000d0: 12e1 273e 0ed4 0f3e 73c2 cdbe 1556 bdbe
000000e0: 5714 d0be 50c5 16bd c7d8 3a3e 9474 e63e
000000f0: bae4 5fbd 19f2 0a3e 99a2 9f3e 6ced 03bd

actor.2.weight f4 [64, 64]
-0.013188623 -0.25856936 0.3021001 -0.023582086 0.13285051 -0.046055734 0.16268212 0.0350914
-0.039291713 -0.31005508 0.1963576 0.21424904 -0.06386255 -0.008013692 -0.17376341 -0.38075158
0.09990449 0.03470657 -0.02718152 -0.019555422 -0.044920124 0.25974518 0.06730788 0.10298541
0.31547448 -0.299316 -0.12811187 0.19873951 0.32771486 -0.2135909 0.11056896 0.20879002
0.08605678 0.27716565 -0.084405735 -0.2302644 -0.19691427 -0.10365984 -0.015899632 -0.070247106
-0.1526589 -0.07820399 -0.0006097422 0.069165885 -0.09624472 0.033997186 0.08525167 -0.076311156
0.049692106 -0.1048395 0.19471516 0.034553226 0.18868908 -0.01649371 -0.17197663 -0.03011792
-0.0049883905 -0.10844513 0.12094614 -0.10128821 -0.24149406 -0.0036147917 0.1426773 -0.059602626
0.10402025 -0.20046592 -0.42925417 0.17372894 -0.06292769 -0.001379133 -0.044808883 -0.017604206
0.10582439 0.19985147 -0.06784636 0.15944366 -0.093151644 -0.13809302 -0.14832442 -0.023846759
0.16217703 -0.04020523 0.2140173 0.0031562096 0.12137747 -0.059599828 0.067680754 0.18724029
-0.12543318 -0.010679116 0.023745336 -0.07859247 -0.1854173 0.20731899 0.1363593 0.285788
-0.06887463 -0.09412734 -0.039597265 -0.16172233 0.053283334 0.2112125 -0.03659213 0.10543692
-0.05644965 -0.08049113 -0.06504656 0.07398055 0.26460707 0.1038642 -0.12043955 0.17152807
0.009167812 0.14917834 0.06228728 0.05929975 -0.064145215 0.06477455 -0.1526802 -0.15860078
-0.13538492 -0.20153636 0.058063187 0.16158879 0.12120122 0.2212378 -0.10019535 -0.12630379
0.012529313 -0.40882444 0.04405841 -0.11381086 0.07249724 -0.1724506 -0.010367998 -0.12105433
0.033891797 -0.3774421 0.014144453 0.049025614 -0.25571316 -0.07918212 -0.42372516 -0.17833456
0.066182226 0.042175554 -0.01189717 0.01653337 -0.020637304 0.23215546 0.28007963 -0.035977818
0.1514818 -0.03408614 -0.20787236 0.2105827 0.3766711 0.16000915 0.07812073 0.2982746
0.09104242 0.26505917 0.083359376 -0.42526522 -0.4279261 -0.20214985 -0.102547266 -0.17251317
-0.16179328 -0.19217461 -0.121147536 0.033475593 -0.13637565 0.14159776 0.2589353 -0.007074896
0.11615922 -0.0735698 0.14857657 -0.07777415 -0.1002323 0.0875041 -0.20235059 0.023789791
-0.10444575 0.010813788 0.13107346 -0.016439624 -0.25619075 0.10990258 0.14930694 -0.03642813
-0.032644067 -0.10838725 -0.13674185 -0.08082917 -0.11502715 0.12529664 -0.08879789 0.2654726
0.052767426 0.08766965 -0.102931224 -0.10789473 0.19824888 -0.06725892 -0.11467054 0.022732897
0.10440445 0.043584917 0.17463775 0.1044194 0.09315437 0.17935918 -0.009652591 0.0724819
-0.4369194 0.102572046 0.25215465 -0.2892248 -0.21262175 0.038875066 0.030564316 0.092052564
0.0061964197 0.06790792 0.059680343 0.02190649 0.30037516 0.08970426 0.077822536 -0.14840063
0.019788535 -0.11032022 -0.026677923 0.05116598 0.1601422 0.06033014 -0.09513661 0.2809915
-0.013620067 0.07362454 -0.14382987 0.0691961 -0.13635461 0.25980467 -0.22809581 0.024483196
-0.12898383 -0.10246821 0.25024602 0.16648304 0.0021015904 0.11446258 0.09195997 0.383953
00000000: 1815 58bc 3463 84be ddac 9a3e 382f c1bc
00000010: f709 083e f0a4 3cbd 2496 263e 00bc 0f3d
00000020: 59f0 20bd 8abf 9ebe f711 493e 1a64 5b3e
00000030: 5eca 82bd dc4b 03bc 09ef 31be dff1 c2be
00000040: ba9a cc3d 7a28 0e3d c7ab debc b132 a0bc
00000050: 2afe 37bd 52fd 843e b7d8 893d 04ea d23d
00000060: df85 a13e f23f 99be c22f 03be 5f82 4b3e
00000070: 3eca a73e 93b7 5abe fb71 e23d 0dcd 553e
00000080: 893e b03d a8e8 8d3e eadc acbd 6eca 6bbe
00000090: e5a3 49be 9c4b d4bd f23f 82bc b7dd 8fbd
000000a0: 9d52 1cbe 6a29 a0bd 1bd7 1fba d8a6 8d3d
000000b0: f41b c5bd a240 0b3d 6d98 ae3d 0649 9cbd
000000c0: f389 4b3d 17b6 d6bd 6963 473e af87 0d3d
000000d0: b637 413e d11d 87bc a41a 30be dbb9 f6bc
000000e0: a775 a3bb 7b18 debd 9cb2 f73d 3170 cfbd
000000f0: 384a 77be 24e6 6cbb 001a 123e e221 74bd
00000100: 9208 d53d f046 4dbe 34c7 dbbe 00e6 313e
00000110: 3ce0 80bd 06c4 b4ba 8589 37bd b236 90bc
00000120: 75ba d83d dda5 4c3e 08f3 8abd 3345 233e
00000130: 4ac6 bebd 4268 0dbe 5be2 17be 475a c3bc
00000140: bc11 263e 3dae 24bd 5a27 5b3e 69d8 4e3b
00000150: c094 f83d f31e 74bd 359c 8a3d ebbb 3f3e
00000160: 8e71 00be 75f7 2ebc 9485 c23c 17f5 a0bd
00000170: 08de 3dbe 6e4b 543e c6a1 0b3e ce52 923e
00000180: 240e 8dbd d6c5 c0bd be30 22bd 8a9a 25be
00000190: a03f 5a3d 1748 583e a1e1 15bd 50ef d73d
000001a0: c037 67bd 89d8 a4bd 2137 85bd 1d83 973d
000001b0: 947a 873e c1b6 d43d 03a9 f6bd 0ea5 2f3e
000001c0: 9734 163c 35c2 183e f220 7f3d 4be4 723d
000001d0: 915e 83bd 85a8 843d 3358 1cbe 3e68 22be
000001e0: 58a2 0abe 8c5f 4ebe aad3 6d3d 8877 253e
000001f0: 5838 f83d 298c 623e 3833 cdbd c855 01be
00000200: bf47 4d3c 7051 d1be 9776 343d ab15 e9bd
00000210: 6f79 943d e496 30be 89de 29bc 55eb f7bd
00000220: 20d2 0a3d 1740 c1be 23be 673c 15cf 483d
00000230: d6ec 82be 3c2a a2bd 81f2 d8be 569d 36be
00000240: 8c8a 873d 46c0 2c3d 59ec 42bc fd70 873c
00000250: 900f a9bc 29ba 6d3e 9966 8f3e 7a5d 13bd
00000260: 0c1e 1b3e e99d 0bbd 7edc 54be fea2 573e
00000270: 09db c03e 70d9 233e c3fd 9f3d 73b7 983e
00000280: 7374 ba3d d6b5 873e 52b8 aa3d 5dbc d9be
00000290: 2119 dbbe 5f00 4fbe 4d04 d2bd 4ba7 30be
000002a0: 23ad 25be 6cc9 44be 331c f8bd b41d 093d
000002b0: 0fa6 0bbe 01ff 103e 2b93 843e 87d4 e7bb
000002c0: e3e4 ed3d c3ab 96bd 7524 183e 0e48 9fbd
000002d0: 9846 cdbd 5935 b33d fe34 4fbe cfe2 c23c
000002e0: a7e7 d5bd 502c 313c 1f38 063e 64ac 86bc
000002f0: 6f2b 83be 9b14 e13d ebe3 183e aa35 15bd
00000300: c9b5 05bd 22fa ddbd 0e06 0cbe c489 a5bd
00000310: 5b93 ebbd c34d 003e abdb b5bd 06ec 873e
00000320: a822 583d 258c b33d 9bcd d2bd eaf7 dcbd
00000330: c101 4b3e 0bbf 89bd 63d8 eabd 573a ba3c
00000340: 00d2 d53d 1986 323d 3dd4 323e d7d9 d53d
00000350: b8c7 be3d efa9 373e e725 1ebc 6471 943d
00000360: e6b3 dfbe 4b11 d23d 6a1a 813e 4615 94be
00000370: 84b9 59be 763b 1f3d 0462 fa3c 0e86 bc3d
00000380: 560b cb3b 4f13 8b3d 6073 743d 3d75 b33c
00000390: c6ca 993e deb6 b73d 6c61 9f3d 56f6 17be
000003a0: 911b a23c 91ef e1bd a98b dabc 6b93 513d
000003b0: 51fc 233e bd1c 773d fcd6 c2bd 1ede 8f3e
000003c0: b426 5fbc 76c8 963d 2348 13be afb6 8d3d
000003d0: 8ba0 0bbe 1e05 853e f391 69be fc90 c83c
000003e0: 5614 04be dada d1bd 3f20 803e 887a 2a3e
000003f0: d6ba 093b 5b6b ea3d 8255 bc3d 7d95 c43e

actor.2.bias f4 [64]
-0.24331895 0.0048238887 -0.13073611 0.11139165 -0.08457984 -0.11313552 -0.19727808 -0.29941684
-0.10760067 -0.010878002 -0.24400641 -0.41016605 -0.28877687 -0.040224627 0.20155945 -0.178117
-0.035141323 -0.33320257 -0.2098978 -0.2132106 -0.2915361 -0.2522085 -0.19194424 -0.2356425
-0.28830338 -0.2670424 -0.2681877 -0.18574446 -0.09819963 -0.29672378 0.24629632 -0.38898396
-0.062199954 0.10119367 -0.2554263 -0.16242808 -0.3469298 -0.23557688 -0.19048242 -0.05340432
-0.3111341 -0.22879787 -0.044918623 -0.07894466 -0.21061774 -0.38349718 -0.008068361 -0.13259566
0.10124971 -0.20201167 0.020622386 -0.0006300633 -0.20369767 -0.1517086 -0.021803068 -0.26943594
-0.11943791 -0.058968835 -0.039013915 -0.20207395 -0.32655582 -0.22429743 0.01914097 0.029917052
00000000: 9a28 79be b611 9e3b b0df 05be 4e21 e43d
00000010: 3238 adbd 98b3 e7bd 4403 4abe 2a4d 99be
00000020: bd5d dcbd a639 32bc d1dc 79be 4901 d2be
00000030: 90da 93be 94c2 24bd 9a65 4e3e 4e64 36be
00000040: 59f0 0fbd 8799 aabe 73ef 56be e153 5abe
00000050: 3844 95be 7921 81be 088d 44be 444c 71be
00000060: 809c 93be c8b9 88be e64f 89be cc33 3ebe
00000070: e31c c9bd 2eec 97be 1a35 7c3e e828 c7be
00000080: 61c5 7ebd a03e cf3d 3cc7 82be 8c53 26be
00000090: c8a0 b1be 113b 71be d30d 43be 7dbe 5abd
000000a0: f84c 9fbe fd49 6abe 97fc 37bd bdad a1bd
000000b0: 2dac 57be be59 c4be 2931 04bc 28c7 07be
000000c0: 025c cf3d 26dc 4ebe 47f0 a83c d52a 25ba
000000d0: 1f96 50be 8059 1bbe 599c b2bc 82f3 89be
000000e0: dd9b f4bd 4e89 71bd 0ecd 1fbd 79ec 4ebe
000000f0: 5332 a7be 3aae 65be 86cd 9c3c 9b14 f53c

actor.4.weight f4 [7, 64]
-0.009829632 0.2071177 0.06675212 -0.09091835 -0.015244823 0.10849482 0.07263938 0.042899713
-0.19957453 0.069131315 0.15802151 0.11882338 0.043770067 0.17704946 0.24219167 -0.21741454
0.08864537 0.00013574836 -0.02294162 0.021640785 -0.30346513 0.06366383 0.060276438 -0.11190773
-0.00012630752 0.14986846 -0.0776129 -0.015943374 0.106899455 -0.07319688 -0.03183985 -0.00037657822
0.1404398 0.2198496 0.21127985 0.06671276 -0.09318892 0.11092602 0.03403066 0.116641924
0.20980044 0.06419384 -0.26258922 -0.027988976 0.032126695 -0.008767254 0.31426683 -0.017705945
0.13890244 -0.018641435 0.14596167 -0.026210506 -0.030684363 0.0035433294 0.017696802 -0.07655032
0.1527491 -0.23292895 0.005608851 0.032603186 0.10643748 0.22616133 0.08926728 -0.03646237
0.09583783 0.09149674 0.18838555 0.059359375 -0.09387938 -0.0633842 -0.15086676 -0.029653475
-0.035586007 0.06020842 -0.23997468 0.016360065 -0.023454463 -0.021561692 0.062481973 0.10878264
-0.17190479 -0.1576568 0.22843203 -0.1185954 -0.03016464 0.14643636 0.026707979 -0.02851826
-0.17102657 0.06717426 -0.17205432 -0.046599634 0.024122227 0.0810094 0.25170588 0.033306148
0.18756852 -0.0990811 -0.15774569 -0.2781254 -0.1834137 -0.06139079 0.28231314 0.049259394
-0.11333288 -0.029740637 -0.070573464 0.04492609 0.25877702 -0.14187826 0.19308257 -0.001596243
0.15914883 0.0009210164 0.14332785 -0.029047385 0.014320657 -0.17702696 -0.11211982 0.049608275
0.01605523 0.07062181 -0.0661346 -0.30527282 0.073176816 0.040899925 0.06868182 0.071448475
0.07631181 -0.0065259035 0.14792132 -0.10391191 -0.11423093 -0.17754538 0.19039404 0.08102642
-0.3202259 0.17937115 0.13663317 0.0081703225 0.0051046233 -0.12242467 0.2739967 0.096455544
-0.20285305 -0.08653905 0.038845718 0.12041473 -0.24683322 0.048385043 0.1222013 -0.172567
-0.043800283 0.06868096 -0.028525313 -0.11858915 0.10389285 -0.11934583 -0.26022768 0.1880388
0.026596028 0.19367304 0.068697505 0.10640586 0.10696614 0.030039823 0.08782801 0.037611067
0.19571653 -0.07349745 -0.08836316 -0.06753922 -0.17510752 -0.14959803 0.37758082 0.122719266
-0.038304217 -0.028129712 0.07974292 -0.048775945 0.050519627 -0.040339064 -0.020221362 -0.056918424
0.13243924 -0.18736127 -0.09149778 -0.061724488 0.09584314 0.18915996 0.14548673 -0.09205721
0.25621098 -0.110376135 0.27061483 -0.16934922 -0.11305044 -0.011610756 0.089600325 0.20947033
0.08822463 -0.057578743 0.25293922 -0.082465865 0.21397883 -0.20362252 -0.39478326 -0.107895866
0.021655638 0.08701566 0.26774728 -0.21133643 0.09013478 0.11114529 0.023468545 -0.22033958
0.011694372 0.058912825 0.20129488 0.02829971 -0.23166911 0.1893021 -0.0077201054 -0.070078574
0.15200026 0.06796471 0.029593764 0.05826324 0.045245964 0.084646225 0.095382504 -0.10525659
-0.21198606 0.16597176 -0.3587088 0.14915396 0.18007882 0.19044152 0.08344504 0.017004265
-0.21558322 -0.33225688 0.0090653645 -0.12009394 0.12400934 -0.009037901 -0.1527555 -0.011335836
-0.12597172 -0.11546709 -0.011961415 -0.279042 0.023543335 0.039827492 -0.08151701 -0.17701809
00000000: 770c 21bc aa16 543e 56b5 883d 6633 babd
00000010: 6cc5 79bc 8832 de3d f5c3 943d 9cb7 2f3d
00000020: 445d 4cbe b894 8d3d 64d0 213e ac59 f33d
00000030: 3e48 333d 744c 353e 1801 783e eba1 5ebe
00000040: b48b b53d ac57 0e39 10f0 bbbc 0448 b13c
00000050: c85f 9bbe 2f62 823d 6de4 763d e12f e5bd
00000060: 6b71 04b9 1e77 193e 83f3 9ebd ae9b 82bc
00000070: 1aee da3d 3fe8 95bd 816a 02bd 796f c5b9
00000080: 73cf 0f3e 4120 613e bf59 583e b3a0 883d
00000090: d5d9 bebd 2e2d e33d bc63 0b3d f6e1 ee3d
000000a0: edd5 563e 0f78 833d 1872 86be 2349 e5bc
000000b0: 4897 033d 87a4 0fbc 95e7 a03e 0f0c 91bc
000000c0: 713c 0e3e ecb5 98bc fa76 153e 6ab7 d6bc
000000d0: c65d fbbc 3437 683b e2f8 903c 6ac6 9cbd
000000e0: 436a 1c3e ed84 6ebe 74ca b73b eb8a 053d
000000f0: e5fb d93d d696 673e c4d1 b63d 9159 15bd
00000100: a046 c43d a562 bb3d 24e8 403e d122 733d
00000110: d543 c0bd 93cf 81bd d17c 1abe d8eb f2bc
00000120: a2c2 11bd 1b9d 763d ecbb 75be 8b05 863c
00000130: 9323 c0bc 25a2 b0bc 19ed 7f3d 6fc9 de3d
00000140: cf07 30be c970 21be 16ea 693e 25e2 f2bd
00000150: d61b f7bc 6af3 153e b1ca da3c 209f e9bc
00000160: 9721 2fbe a992 893d 022f 30be 42df 3ebd
00000170: fa9b c53c 42e8 a53d 98df 803e 076c 083d
00000180: f611 403e 08eb cabd 1688 21be 7466 8ebe
00000190: cdd0 3bbe e974 7bbd 598b 903e 38c4 493d
000001a0: 121b e8bd a3a2 f3bc d288 90bd 6b04 383d
000001b0: 6c7e 843e 8948 11be 70b7 453e 0739 d1ba
000001c0: e9f7 223e 5d70 713a 89c4 123e c8f4 edbc
000001d0: 30a1 6a3c 8e46 35be 149f e5bd 0c32 4b3d
000001e0: 4286 833c 2ba2 903d 9471 87bd b84c 9cbe
000001f0: badd 953d ae86 273d 0ea9 8c3d 9453 923d
00000200: 5e49 9c3d 3fd7 d5bb b078 173e c4cf d4bd
00000210: e8f1 e9bd 75ce 35be a8f6 423e 2ef1 a53d
00000220: a6f4 a3be 12ad 373e 91e9 0b3e d1dc 053c
00000230: af44 a73b c9b9 fabd 4c49 8c3e 7c8a c53d
00000240: b6b8 4fbe 633b b1bd b01c 1f3d ff9b f63d
00000250: d9c1 7cbe 652f 463d ad44 fa3d 67b5 30be
00000260: ed67 33bd 9aa8 8c3d ebad e9bc dede f2bd
00000270: c6c5 d43d 966b f4bd 903c 85be 3e8d 403e
00000280: eadf d93c 3a52 463e 47b1 8c3d 51eb d93d
00000290: 1011 db3d 1316 f63c 2cdf b33d 100e 1a3d
000002a0: ea69 483e d585 96bd bff7 b4bd 0152 8abd
000002b0: 634f 33be 3a30 19be 4652 c13e 3d54 fb3d
000002c0: e2e4 1cbd 4870 e6bc 4250 a33d 49c9 47bd
000002d0: abed 4e3d 933a 25bd 45a7 a5bc 4b23 69bd
000002e0: 279e 073e a2db 3fbe 3063 bbbd d1d2 7cbd
000002f0: 6849 c43d 26b3 413e 79fa 143e 7e88 bcbd
00000300: 162e 833e e20c e2bd 078e 8a3e e269 2dbe
00000310: fd86 e7bd 0a3b 3ebc 6080 b73d 647f 563e
00000320: 1daf b43d b0d7 6bbd 4081 813e dde3 a8bd
00000330: 441d 5b3e 6c82 50be 0821 cabe 82f8 dcbd
00000340: 2a67 b13c 4435 b23d 2c16 893e 9468 58be
00000350: 9598 b83d 24a0 e33d 1b41 c03c b3a0 61be
00000360: c099 3f3c 934e 713d 3f20 4e3e cbd4 e73c
00000370: ab3a 6dbe 69d8 413e f0f8 fcbb 5b85 8fbd
00000380: f5a5 1b3e 1531 8b3d 9f6e f23c 6fa5 6e3d
00000390: d553 393d 005b ad3d e757 c33d c490 d7bd
000003a0: e012 59be 80f4 293e aea8 b7be d1bb 183e
000003b0: 9566 383e 1a03 433e 3ce5 aa3d 874c 8b3c
000003c0: d9c1 5cbe 931d aabe e586 143c d0f3 f5bd
000003d0: 9cf8 fd3d b413 14bc f06b 1cbe f1b9 39bc
000003e0: bbfe 00be 027a ecbd d0f9 43bc 98de 8ebe
000003f0: f4dd c03c 2722 233d 64f2 a6bd 3b44 35be

actor.4.bias f4 [7]
-0.016882183 0.16641013 -0.0453067 0.11007903 0.050552916 -0.19077113 0.08460103
00000000: 814c 8abc 6b67 2a3e 8593 39bd 1d71 e13d
00000010: 9310 4f3d 8259 43be 4e43 ad3d

critic.0.weight f4 [64, 32]
-0.019222826 -0.07997815 0.08323952 0.17274259 -0.14556958 0.06738518 -0.29245344 0.1214607
-0.016980076 0.03064834 -0.13019526 0.035372734 -0.07944166 0.020602865 -0.010405569 0.010837567
-0.15812804 -0.09222583 -0.32816172 0.028605398 0.2391669 0.04424074 -0.20608342 -0.32216612
-0.12373463 0.09142579 -0.06815347 -0.022637742 0.0007028235 -0.07978667 -0.04339566 -0.008185983
-0.14447924 0.119747035 -0.026983557 0.16136812 0.073331326 0.22140495 0.10542466 -0.000977838
0.049199007 0.012085201 0.0022797354 -0.030664427 -0.071708284 -0.07195042 -0.068265826 -0.048851132
-0.12160383 0.057866216 0.1630296 -0.37032822 0.03578119 0.069168635 0.32664415 0.15241753
-0.009602223 -0.04898005 0.0885813 0.035170257 0.009155103 0.012343771 0.089636505 -0.19342604
-0.025780428 0.11813839 -0.2722418 0.027225938 0.11841706 0.003355683 -0.08180121 0.009546283
0.14505808 -0.115688406 -0.08124125 -0.109979264 -0.07697902 0.060315058 -0.070778795 0.0105970325
0.11452878 -0.04052505 -0.1796547 -0.5158817 -0.0692587 0.054718807 0.00078638026 -0.09754565
-0.08784767 0.056005366 0.0010819985 -0.099908344 0.12052281 -0.020015227 -0.015729485 -0.00829781
-0.1539003 0.06251079 0.04244922 -0.16802447 0.051019985 0.016363002 0.24172741 0.25716436
0.11566621 -0.084318236 -0.049679164 -0.08178289 0.08295782 0.02495483 0.00573945 0.0037182523
0.09148027 0.28901288 -0.13842827 -0.78387547 -0.3099803 -0.12394499 -1.1130491 0.24737047
0.16145703 -0.020315636 -0.08972139 0.08829875 -0.03678853 -0.0970382 0.03421111 0.048223
-0.16558333 -0.10587386 0.05735931 -0.011992522 0.2626918 0.09237966 0.24280334 0.036113065
0.0016255538 0.008988873 -0.018626776 -0.008471365 0.0102053005 -0.007967965 0.008168716 -0.0049914056
-0.039777365 0.017471809 0.24441974 -0.082895204 0.09802541 0.03997508 -0.6472765 0.36015475
-0.14179675 -0.014301191 -0.077445075 -0.041337494 -0.012892013 0.0005072371 -0.047104545 0.06612281
-0.08082899 -0.03171865 -0.0225671 -0.03591086 0.16919051 0.105759226 0.014617818 -0.109509684
0.04151812 0.022764463 0.006684219 -0.029429365 0.10263512 -0.025242234 0.0052834717 -0.0011808366
0.0044593266 -0.19696337 -0.27092066 0.12201761 -0.2389643 -0.15115969 0.5987388 0.45834512
0.0710578 -0.0799112 0.16301754 0.01670136 0.051890206 0.03322312 0.016218984 -0.020330675
0.15849839 0.22758068 -0.10081835 0.16011058 0.14602317 0.107675076 0.07690027 -0.110448934
0.12134576 0.022945896 0.02105069 0.026489988 0.005948731 -0.0012274183 -0.016335275 -0.034118455
-0.1622255 -0.29070258 0.22616498 -1.8161811 -0.045568127 0.14173876 -0.879767 0.041977353
-0.03870612 -0.020720018 0.058375306 0.006440077 0.034918282 0.027454317 0.055101916 0.04087005
0.056663256 0.18403783 -0.06326936 -0.076099165 -0.10642911 -0.27701512 -0.14337493 0.18944485
0.1337903 0.00066887215 0.05210465 0.026663525 -0.018488165 0.02956807 0.036787197 0.043639455
-0.10983705 0.002360977 0.16323188 0.49120274 -0.20699103 0.12725204 -0.5829412 -0.061646137
0.13281843 -0.07512083 -0.038045693 -0.048330914 3.5725574e-05 -0.007973775 -0.017822267 0.011923544
00000000: 3079 9dbc 96cb a3bd 7b79 aa3d 6fe3 303e
00000010: 3110 15be 3e01 8a3d 75bc 95be 63c0 f83d
00000020: cd19 8bbc 3a12 fb3c e851 05be 00e3 103d
00000030: 4fb2 a2bd 57c7 a83c 1f7c 2abc 0d90 313c
00000040: 51ec 21be e5e0 bcbd d004 a8be de55 ea3c
00000050: 2be8 743e c735 353d 8807 53be f5f2 a4be
00000060: 9568 fdbd 723d bb3d 0c94 8bbd c972 b9bc
00000070: b03d 383a 3267 a3bd a6bf 31bd 801e 06bc
00000080: 5ef2 13be ef3d f53d 9f0c ddbc af3d 253e
00000090: bc2e 963d fbb7 623e e2e8 d73d cc2a 80ba
000000a0: e684 493d 0201 463c 9d67 153b f733 fbbc
000000b0: cbdb 92bd be5a 93bd f4ce 8bbd 2018 48bd
000000c0: 6e0b f9bd 2005 6d3d 3bf1 263e a99b bdbe
000000d0: 4c8f 123d 49a8 8d3d e73d a73e 5713 1c3e
000000e0: a452 1dbc 4e9f 48bd 1d6a b53d b00e 103d
000000f0: 49ff 153c 873d 4a3c 5893 b73d 7a11 46be
00000100: 7a31 d3bc 8af2 f13d 4763 8bbe ee08 df3c
00000110: a584 f23d 05eb 5b3b 6587 a7bd 0368 1c3c
00000120: 1b8a 143e 0bee ecbd d061 a6bd cf3c e1bd
00000130: 2da7 9dbd ec0c 773d 79f4 90bd 2d9f 2d3c
00000140: 118e ea3d 98fd 25bd 67f7 37be d310 04bf
00000150: 81d7 8dbd d420 603d 1625 4e3a 04c6 c7bd
00000160: 7be9 b3bd e265 653d d8d1 8d3a bf9c ccbd
00000170: aad4 f63d f9f6 a3bc 1fdb 80bc 8af3 07bc
00000180: 0a98 1dbe a805 803d 3cdf 2d3d 9b0e 2cbe
00000190: 55fa 503d b40b 863c 6487 773e 0cab 833e
000001a0: 68e2 ec3d 0aaf acbd 617c 4bbd ca7d a7bd
000001b0: cae5 a93d 126e cc3c ff11 bc3b ecad 733b
000001c0: 025a bb3d 7ff9 933e 24c0 0dbe 10ac 48bf
000001d0: bdb5 9ebe dfd6 fdbd 6578 8ebf af4e 7d3e
000001e0: fe54 253e fa6c a6bc d9bf b7bd fad5 b43d
000001f0: 92af 16bd f7bb c6bd f320 0c3d 7b85 453d
00000200: ad8e 29be 65d4 d8bd 99f1 6a3d 487c 44bc
00000210: 8a7f 863e 8c31 bd3d 70a1 783e 4beb 133d
00000220: 8910 d53a 1146 133c 2e97 98bc 7bcb 0abc
00000230: 2234 273c 118c 02bc 14d6 053c f28e a3bb
00000240: 97ed 22bd 0a21 8f3c 2b49 7a3e f6c4 a9bd
00000250: 8cc1 c83d e9bc 233d eab3 25bf 3466 b83e
00000260: 2b33 11be 8b4f 6abc 869b 9ebd 8151 29bd
00000270: 0639 53bc 1bf8 043a b2f0 40bd 656b 873d
00000280: ab89 a5bd 6aeb 01bd a4de b8bc 4417 13bd
00000290: 4740 2d3e 4b98 d83d 937f 6f3c 9d46 e0bd
000002a0: e70e 2a3d 8a7c ba3c 4b07 db3b da15 f1bc
000002b0: 5d32 d23d cdc8 cebc f920 ad3b 4dc6 9aba
000002c0: 8b1f 923b c4b0 49be 1db6 8abe 5ee4 f93d
000002d0: 0fb3 74be 9bc9 1abe f246 193f 36ac ea3e
000002e0: c086 913d 7ca8 a3bd 12ee 263e 4ad1 883c
000002f0: d38a 543d f714 083d addd 843c 848c a6bc
00000300: 674d 223e e90a 693e da79 cebd 07f4 233e
00000310: 1987 153e c084 dc3d e47d 9d3d 0d33 e2bd
00000320: 2084 f83d 08f9 bb3c 7f72 ac3c 8801 d93c
00000330: 93ed c23b 53e1 a0ba 8ed1 85bc cbbf 0bbd
00000340: 711e 26be f8d6 94be cb97 673e 9f78 e8bf
00000350: a5a5 3abd f723 113e 6938 61bf 72f0 2b3d
00000360: 4f8a 1ebd 07bd a9bc f21a 6f3d 4807 d33b
00000370: 7906 0f3d e0e7 e03c 8cb2 613d 5b67 273d
00000380: bb17 683d 6a74 3c3e 5e93 81bd e1d9 9bbd
00000390: 81f7 d9bd edd4 8dbe e1d0 12be d5fd 413e
000003a0: 5300 093e 4057 2f3a af6b 553d 776d da3c
000003b0: 7e74 97bc bd38 f23c 2cae 163d 49bf 323d
000003c0: 3ff2 e0bd 9fba 1a3b 4226 273e ed7e fb3e
000003d0: 75f5 53be 5c4e 023e a23b 15bf a980 7cbd
000003e0: 8e01 083e f3d8 99bd cdd5 1bbd a3f6 45bd
000003f0: 0bd8 1538 70a4 02bc 0100 92bc f85a 433c

critic.0.bias f4 [64]
0.13370799 -0.17257248 -0.104206406 -0.12909447 -0.017297285 -0.0818544 -0.06770384 0.04769505
-0.048258603 -0.11944791 -0.0026483648 0.11041875 -0.021035632 -0.09924733 0.0696535 -0.100059874
-0.108798265 0.1432273 -0.01781125 0.10874695 0.13098174 -0.09313107 0.07985364 -0.04741286
0.06495944 -0.04099363 0.04832446 0.02897111 -0.065674014 0.19459267 -0.049838055 0.0010524531
-0.0743001 -0.041662432 0.035502 -0.08860788 -0.057301022 0.19783585 -0.14546469 -0.016582906
0.05074413 0.07242061 0.064840555 -0.22826485 -0.17225538 0.04753558 -0.19314191 -0.18679042
-0.067257315 -0.052684825 -0.19134264 -0.15292384 0.032353327 -0.124186486 -0.10629548 -0.080869034
0.11243806 -0.048502896 -0.12454732 -0.07538458 -0.02143218 0.18566015 0.1498325 -0.09422741
00000000: bfea 083e d7b6 30be 2b6a d5bd 5731 04be
00000010: 09b3 8dbc 48a3 a7bd 50a8 8abd e25b 433d
00000020: d0aa 45bd 1ba1 f4bd 3090 2dbb 3a23 e23d
00000030: eb52 acbc 2f42 cbbd 7fa6 8e3d 31ec ccbd
00000040: a0d1 debd 2daa 123e e6e8 91bc b9b6 de3d
00000050: 1420 063e 81bb bebd 4e8a a33d fd33 42bd
00000060: 7409 853d f0e8 27bd deef 453d d254 ed3c
00000070: 1980 86bd 4d43 473e fd22 4cbd 77f2 893a
00000080: a72a 98bd 3aa6 2abd 8c6a 113d 0c78 b5bd
00000090: 7ab4 6abd 7b95 4a3e b2f4 14be e0d8 87bc
000000a0: 14d9 4f3d 4251 943d 20cb 843d 43be 69be
000000b0: b763 30be abb4 423d fec6 45be fd45 3fbe
000000c0: 34be 89bd 0bcc 57bd 53ef 43be 1198 1cbe
000000d0: ec84 043d 7c55 febd 72b1 d9bd aa9e a5bd
000000e0: ed45 e63d f9aa 46bd aa12 ffbd 3b63 9abd
000000f0: 8a92 afbc b21d 3e3e b16d 193e 4dfa c0bd

critic.2.weight f4 [64, 64]
-0.11315514 -0.019692801 0.20665567 0.11405725 0.0038976741 -0.016971309 0.092335634 0.08002216
0.26812315 0.17062485 0.0029799663 -0.0917607 -0.25856298 0.12248318 0.038968094 0.053866625
-0.06560386 -0.17761624 -0.12250022 -0.17077683 0.021840619 -0.17313722 -0.04502117 0.006271467
-0.008216781 -0.022062955 0.07539617 -0.061126046 0.098241955 -0.21251737 0.087680764 -0.104145326
0.03810056 0.04180412 0.1353573 0.06621525 -0.056475293 -0.21282448 -0.22827779 0.106197625
0.091070116 -0.08002601 -0.07523974 -0.18450941 -0.043359213 0.18135075 0.11749366 -0.15172261
-0.05266417 -0.023044901 0.033922113 -0.10875905 0.06260739 -0.1026931 -0.08478704 -0.014838001
0.15568379 0.12173454 0.04457855 0.08195818 -0.06003051 0.019541034 0.016265966 -0.0785377
-0.05974192 -0.08755966 -0.019543482 0.104839705 -0.009200834 0.06302876 -0.04691679 -0.03469706
-0.11835691 0.19368353 0.1793584 0.1306414 -0.19379786 -0.029782778 0.28889376 -0.031023243
0.05458606 -0.11130398 0.0075119254 -0.109912336 0.21182927 -0.07858489 -0.049712002 0.16449553
0.15713985 0.1674479 0.0740846 0.04515135 0.06548528 -0.079514556 0.058267538 -0.0038746384
0.08947561 -0.08756725 -0.14602782 -0.09853196 -0.11629917 -0.02517929 -0.1114201 0.28476074
0.0223868 -0.12171012 0.27033377 -0.13892737 -0.10876067 0.06225831 -0.028884616 0.012584622
-0.050409775 -0.22019602 -0.088384815 -0.03190612 0.025808154 -0.2106201 -0.011853088 -0.08958357
0.1581163 0.021222008 0.03198126 0.20588912 0.010754758 0.17591159 0.16442505 0.08663732
0.086154655 -0.04757333 0.04307519 -0.11124884 0.05672979 0.0027555746 -0.07774033 0.15152557
-0.19697873 0.0071852086 0.029838024 0.018438244 -0.15567118 0.150072 -0.08284519 0.12930119
-0.080653824 0.17170846 -0.024532104 0.16124314 0.07581768 -0.23245719 -0.036356084 -0.043307107
-0.1310037 0.15087754 0.015702717 -0.0847231 -0.013041747 0.17411321 0.044459574 0.10620684
-0.0030337672 -0.054788556 0.040394578 -0.014429065 -0.044628 0.056315243 -0.010573699 -0.020996328
0.048914 -0.103667535 0.065790765 -0.13755599 -0.054428674 0.03263931 -0.08956085 -0.1276549
-0.07435725 0.065925844 -0.111596115 -0.064443424 0.07827259 0.13986337 0.1001664 0.028747458
-0.047813978 -8.522542e-05 0.16651347 -0.13276221 0.080098435 0.11896336 0.09021413 -0.021766514
-0.07027799 -0.0040935157 0.23272799 -0.03553923 -0.10731941 -0.03896422 0.010266021 -0.032692797
-0.05175722 0.53055996 0.020688733 0.3619572 -0.27104855 -0.13564532 -0.018901039 0.15531948
0.0028054998 0.039563503 -0.03540721 0.28691676 0.56340134 -0.1811813 -0.026350576 0.01260711
-0.1628107 0.09200768 0.17073613 -0.105570115 0.059479576 -0.13945621 0.009432291 0.057180956
-0.0969179 -0.07027864 -0.10875761 -0.00857729 0.119887166 -0.034130372 -0.39376098 0.03677392
0.05825037 -0.32903925 0.161187 -0.23757884 -0.22352776 0.09475454 0.070487514 -0.0069072377
-0.030993562 -0.04662787 0.23606573 0.11975342 -0.062235903 -0.05297327 -0.059701875 -0.032737482
0.31992507 -0.0294769 -0.11557304 0.20916122 -0.0865841 -0.06626292 -0.022950852 -0.1261501
00000000: e2bd e7bd cc52 a1bc 8b9d 533e d996 e93d
00000010: 1f70 7f3b 6a07 8bbc 771a bd3d a9e2 a33d
00000020: 7047 893e 48b8 2e3e 8a4b 433b 09ed bbbd
00000030: 5e62 84be 76d8 fa3d 029d 1f3d 40a3 5c3d
00000040: 515b 86bd 08e1 35be 65e1 fabd 1fe0 2ebe
00000050: 19eb b23c e24a 31be 1e68 38bd e180 cd3b
00000060: ad9f 06bc 5fbd b4bc 4f69 9a3d 4e5f 7abd
00000070: 1433 c93d 279e 59be f991 b33d 254a d5bd
00000080: 550f 1c3d cc3a 2b3d 1b9b 0a3e dc9b 873d
00000090: a352 67bd a9ee 59be a7c1 69be 247e d93d
000000a0: f882 ba3d ade4 a3bd 4b17 9abd 09f0 3cbe
000000b0: 6e99 31bd 03b4 393e 84a0 f03d 2c5d 1bbe
000000c0: 62b6 57bd a9c8 bcbc eaf1 0a3d 11bd debd
000000d0: 4e38 803d c350 d2bd d4a4 adbd 161b 73bc
000000e0: 926b 1f3e f54f f93d ff97 363d b1d9 a73d
000000f0: 8de2 75bd 8514 a03c 3440 853c 60d8 a0bd
00000100: f2b3 74bd 7b52 b3bd a719 a0bc 33b6 d63d
00000110: 18bf 16bc 3915 813d d22b 40bd 811e 0ebd
00000120: 1c65 f2bd fa54 463e baa9 373e dcc6 053e
00000130: f272 46be 03fb f3bc e2e9 933e 7524 febc
00000140: a295 5f3d 57f3 e3bd 9926 f63b b819 e1bd
00000150: c6e9 583e 1df1 a0bd d09e 4bbd 8471 283e
00000160: 45e9 203e 7677 2b3e abb9 973d 9ff0 383d
00000170: 251d 863d 87d8 a2bd f1a9 6e3d a5ed 7dbb
00000180: fd3e b73d 7556 b3bd 5188 15be 20cb c9bd
00000190: 422e eebd cc44 cebc 3930 e4bd 29cc 913e
000001a0: 8664 b73c 2843 f9bd 3069 8a3e fa42 0ebe
000001b0: eabd debd 9202 7f3d 6e9f ecbc bb2f 4e3c
000001c0: 7b7a 4ebd 117b 61be 1903 b5bd feaf 02bd
000001d0: 9f6b d33c ccac 57be 7433 42bc 9777 b7bd
000001e0: 3de9 213e c7d9 ad3c c8fe 023d 99d4 523e
000001f0: b934 303c 2b22 343e 0a5f 283e e86e b13d
00000200: da71 b03d 41dc 42bd 9c6f 303d 6fd6 e3bd
00000210: 7f5d 683d df96 343b 5236 9fbd 8529 1b3e
00000220: cbb4 49be e671 eb3b df6e f43c cd0b 973c
00000230: 4468 1fbe 79ac 193e bdaa a9bd 8867 043e
00000240: d52d a5bd 58d4 2f3e 8df7 c8bc ec1c 253e
00000250: 4d46 9b3d 4209 6ebe 1eea 14bd cb62 31bd
00000260: d525 06be a47f 1a3e fca2 803c 4e83 adbd
00000270: 0dad 55bc bc4a 323e 3e1b 363d f982 d93d
00000280: 2bd2 46bb f769 60bd c974 253d e367 6cbc
00000290: dacb 36bd d0aa 663d 4f3d 2dbc 7e00 acbc
000002a0: 0c5a 483d a54f d4bd 4fbd 863d 7adb 0cbe
000002b0: 9af0 5ebd ccb0 053d ae6b b7bd f7b7 02be
000002c0: 9d48 98bd 2104 873d 818c e4bd eafa 83bd
000002d0: 614d a03d 5838 0f3e 0b24 cd3d ca7f eb3c
000002e0: 97d8 43bd 0dbb b2b8 8282 2a3e d1f2 07be
000002f0: a60a a43d 10a3 f33d 30c2 b83d b04f b2bc
00000300: e8ed 8fbd e622 86bb 3f50 6e3e 9591 11bd
00000310: 47ca dbbd f298 1fbd d032 283c e2e8 05bd
00000320: 61ff 53bd c7d2 073f 6b7b a93c 7452 b93e
00000330: e0c6 8abe 9be6 0abe 5ad6 9abc 120c 1f3e
00000340: 7adc 373b 570d 223d 2707 11bd c1e6 923e
00000350: 123b 103f 9787 39be 2add d7bc 0d8e 4e3c
00000360: d9b7 26be 866e bc3d 74d5 2e3e 2535 d8bd
00000370: dba0 733d 9ccd 0ebe e589 1a3c 9436 6a3d
00000380: e47c c6bd 3fee 8fbd 4fbc debd c387 0cbc
00000390: 6787 f53d 4acc 0bbd 0a9b c9be 40a0 163d
000003a0: f197 6e3d d577 a8be 340e 253e de47 73be
000003b0: 76e4 64be ab0e c23d c25b 903d 1c56 e2bb
000003c0: 36e6 fdbc defc 3ebd 37bb 713e 4841 f53d
000003d0: 13eb 7ebd 80fa 58bd f489 74bd bd17 06bd
000003e0: 38cd a33e 8a79 f1bc 8fb1 ecbd 5c2e 563e
000003f0: 0153 b1bd dbb4 87bd 6d03 bcbc 7e2d 01be

critic.2.bias f4 [64]
-0.029505381 -0.14022419 -0.0032601235 -0.29572654 0.07402923 -0.08428888 -0.059367906 0.083203845
0.15727693 0.07855546 -0.100844465 -0.16980171 -0.11180369 0.04701899 0.0074498556 0.055838976
0.1100302 -0.10529785 -0.12168213 0.062329184 -0.089742795 -0.1743816 0.03987363 0.051534217
-0.087883055 0.007594809 -0.1551989 -0.009485514 -0.102919094 0.022550434 0.09037831 0.0005802217
-0.018156866 0.081779025 0.13042925 0.12716891 -0.044761423 0.019937964 -0.20779857 -0.12973453
-0.21548757 -0.06647173 0.09909927 0.18428631 0.056789186 -0.04723901 0.058564715 -0.007869496
0.11251415 -0.06615575 0.16225445 0.00016742537 -0.068747014 -0.07607745 0.02609823 -0.020377968
-0.096194744 -0.10037059 -0.044886716 -0.06565683 -0.120571285 -0.0058530145 -0.07131413 0.005829457
00000000: 45b5 f1bc ee96 0fbe cca7 55bb 7869 97be
00000010: a39c 973d a69f acbd c32b 73bd c766 aa3d
00000020: 340d 213e afe1 a03d 8b87 cebd 80e0 2dbe
00000030: 55f9 e4bd fc96 403d eb1d f43b 69b7 643d
00000040: 8357 e13d 66a6 d7bd 7b34 f9bd e34c 7f3d
00000050: 12cb b7bd 1791 32be 8852 233d 8b15 533d
00000060: 08fc b3bd e0dd f83b 76ec 1ebe 2169 1bbc
00000070: 3fc7 d2bd b0bb b83c 4318 b93d 051a 183a
00000080: b5bd 94bc c37b a73d 3f8f 053e 9138 023e
00000090: c157 37bd f154 a33c 26c9 54be 21d9 04be
000000a0: c6a8 5cbe 5522 88bd 8ff4 ca3d 8db5 3c3e
000000b0: c79b 683d b17d 41bd 8ee1 6f3d 0fef 00bc
000000c0: d26d e63d aa7c 87bd 0826 263e e88e 2f39
000000d0: 3ccb 8cbd 7ece 9bbd f5cb d53c b2ef a6bc
000000e0: c001 c5bd 198f cdbd 22db 37bd 1777 86bd
000000f0: 14ee f6bd a5ca bfbb 250d 92bd 0805 bf3b

critic.4.weight f4 [1, 64]
-0.06737678 -0.0580259 -0.028960275 -0.096284345 -0.032710366 0.025410065 -0.038267657 -0.034193214
-0.0689565 -0.03862899 -0.111470684 0.10302067 -0.014912843 0.089434914 -0.03783278 -0.043943062
-0.020376787 0.13835846 -0.03440225 0.025925566 -0.015892912 -0.060973622 0.035139523 0.0026951921
0.039908532 -0.011888557 0.008504763 0.027401 0.024490902 -0.002072513 -0.0007847542 -0.03046518
0.027648814 -0.050703734 0.007189387 0.030312782 -0.03784922 0.008190194 -0.052475072 -0.007799633
-0.00049233634 -0.03917194 -0.017678985 -0.1482626 0.019786837 0.14413469 0.042379633 -0.00052782305
-0.055011787 -0.020064212 0.008106399 0.06513634 -0.07036283 -0.0066636186 0.023305267 0.032267816
-0.035087902 -0.06962751 -0.021805326 -0.027287176 -0.07543865 0.10970631 -0.104738675 -0.016409809
00000000: d6fc 89bd 91ac 6dbd 193e edbc ba30 c5bd
00000010: 4efb 05bd c528 d03c 8cbe 1cbd 2f0e 0cbd
00000020: 1139 8dbd 6f39 1ebd be4a e4bd 80fc d23d
00000030: ff54 74bc a729 b73d 8cf6 1abd a4fd 33bd
00000040: 38ed a6bc d7ad 0d3e 60e9 0cbd da61 d43c
00000050: da31 82bc 7abf 79bd 76ee 0f3d d2a1 303b
00000060: 2177 233d 39c8 42bc 9057 0b3c 1078 e03c
00000070: 25a1 c83c 00d3 07bb f6b7 4dba 1d92 f9bc
00000080: c47f e23c b8ae 4fbd f394 eb3b 8352 f83c
00000090: c907 1bbd 2a30 063c 1af0 56bd 1094 ffbb
000000a0: 2210 01ba c272 20bd 85d3 90bc 27d2 17be
000000b0: 0118 a23c 0b98 133e 4496 2d3d 9b5d 0aba
000000c0: 0a54 61bd b45d a4bc b4d0 043c 3466 853d
000000d0: 631a 90bd 7c5a dabb b0ea be3c 422b 043d
000000e0: 55b8 0fbd de98 8ebd 15a1 b2bc 5b89 dfbc
000000f0: 947f 9abd b4ad e03d 3b81 d6bd dd6d 86bc

exp_avg f4 [7]
0.0009796894 -0.0010880845 -0.0022371481 0.0023181853 -0.0019008123 -0.0013534816 0.0014260742
00000000: ec68 803a 0f9e 8eba 1e9d 12bb b2ec 173b
00000010: ad24 f9ba 4e67 b1ba 1ceb ba3a

exp_avg_sq f4 [7]
0.00017900417 0.00036818898 0.00032332874 0.00063660403 0.00040702065 0.0003999377 0.00025698444
00000000: 11b3 3b39 7d09 c139 7384 a939 c6e1 263a
00000010: 6365 d539 bbae d139 debb 8639

exp_avg f4 [64, 32]
3.2925476e-05 -0.00016647435 -0.000108923705 -0.00031850603 -8.6036205e-05 0.00025219528 -0.00014471248 1.2198531e-05
1.52585335e-05 -6.577232e-05 1.9563206e-05 0.0002765691 0.00022152826 0.00027313564 -0.00021147745 0.00018989503
-1.319731e-05 -1.2465414e-05 -0.00030763686 1.0366032e-05 -0.00023211584 1.775348e-11 -0.000117215386 -0.0004061031
-5.1212975e-12 7.713133e-05 -0.00016310532 -0.0001552654 -0.000794044 -0.00023098383 0.00070257665 -0.00011972713
-4.3223015e-05 0.0005005352 0.00013797887 0.001136467 0.0005064052 -0.0017042779 -0.0012608083 -5.3347325e-05
-5.7399076e-05 0.0008650402 -0.00032637734 -0.00023562009 0.00031025568 0.000523824 -0.0015530691 0.00216723
-3.4127894e-05 4.252509e-05 0.00069554994 5.344827e-05 0.0006928353 -1.5269747e-12 0.0013105213 3.5067318e-05
5.7313595e-11 0.00024562978 9.195542e-05 0.00058567175 0.0028964034 0.0012839729 -0.0033935898 -0.0010694184
-9.6726515e-05 -0.00045285464 -0.00034133828 -0.0016539297 -0.00010939679 0.0016971356 0.0009798182 1.2671477e-05
-6.557634e-05 0.0016041904 -0.0007147558 -0.0022492486 -0.0015342631 -0.00047473802 0.002943188 0.0015592538
6.4601736e-05 -9.048503e-06 -0.0006618657 -0.00021503461 -0.00072145386 -4.001924e-11 -0.001294106 0.0009143821
-5.6582936e-11 -0.00044163517 -0.00014792757 -0.0010212184 -0.0032842003 7.9492034e-05 0.0049979826 0.0020092146
-4.5647805e-05 0.0001971261 0.00011805793 0.00045228607 6.494998e-05 -0.0006952199 -0.0004923986 -2.5819274e-05
-2.6648563e-06 -0.00034213252 0.00015124894 -3.9599868e-06 0.0004738239 0.00044048973 -0.001040844 0.00044932993
-1.177633e-05 5.129723e-06 0.00022526392 1.943368e-05 0.00016801424 6.1862316e-12 0.00024734627 -0.00014112201
1.0811924e-11 -8.776031e-05 0.00015123634 0.00025673673 0.0012517817 -1.5998127e-06 -0.0018193204 -0.000707487
0.00028365094 -0.0012435472 -0.00032866895 -0.0013108184 0.00016339905 0.0012304935 0.0010982262 5.3981043e-05
2.4697052e-05 0.00013339295 -0.00021387573 0.00016602284 -0.00015765698 0.00014545607 0.0002324515 0.001181782
-3.2160153e-06 -6.7321957e-06 -0.0008483592 -3.0974537e-05 -0.0005269394 2.2248156e-11 -0.00044139998 -0.0005090322
-1.9325338e-11 0.00054018135 -0.0010367405 -0.0005191571 -0.002927459 0.00053758366 0.0022816914 0.0025370333
-0.00015308295 0.0003651396 6.295225e-05 0.00027460005 0.00025911164 2.1867441e-05 0.00092216185 -7.745086e-06
-2.2561682e-05 0.00021448867 9.931741e-05 -0.00024326489 0.0001022202 -0.0005782671 0.00035916152 -0.0004106236
8.895564e-06 3.452673e-06 0.00023631834 -5.933899e-05 0.00014635485 -1.8862373e-11 9.989327e-05 0.0004315959
4.378158e-12 -0.00022637355 0.00041057199 0.00014589095 0.00078584027 0.0004200771 -6.2571366e-05 0.0021865668
-9.259567e-05 -0.00014124923 -4.8046037e-05 -0.00024539893 5.6826065e-07 3.6403073e-06 0.00032338043 -1.0790195e-05
-5.970373e-06 0.00073166 -0.00016607119 -0.0006156738 -0.0006092404 -0.00017162549 0.0009800228 -0.0003004936
1.5955862e-05 -2.4463127e-06 -7.656073e-05 -5.500851e-05 1.4014362e-05 -1.8988753e-11 0.00015233002 0.00043397583
6.6706324e-12 -0.00023626967 -0.0003365999 -0.00025547043 -0.0005889277 3.5062665e-05 0.00068396126 0.0003033829
-7.5178985e-05 0.0007541008 0.0004786698 0.0013131405 4.5470366e-05 -0.0011881056 -0.0004247815 -3.457236e-05
-7.082007e-06 0.00014735802 -0.000102707345 -0.00026122073 -0.00017637316 0.00023611382 -4.831468e-05 -0.00062995724
4.4471703e-06 2.6551455e-05 0.0006965616 0.00018398532 0.00052761455 -2.3307512e-11 7.983143e-05 0.0005332905
3.5142239e-12 -0.00012435876 0.00040753296 0.00093366747 0.0028342148 7.598159e-05 -0.0019914042 -0.0006805885
00000000: 7619 0a38 9e8f 2eb9 f86d e4b8 28fd a6b9
00000010: 566e b4b8 1439 8439 f6bd 17b9 4ba8 4c37
00000020: e7fe 7f37 3fef 89b8 aa1b a437 7a00 9139
00000030: 0a4a 6839 a533 8f39 0cc0 5db9 8f1e 4739
00000040: 046a 5db7 8c22 51b7 524a a1b9 c5e9 2d37
00000050: 1f64 73b9 4829 9c2d 88d1 f5b8 3cea d4b9
00000060: 8c30 b4ac 91c1 a138 4007 2bb9 bdce 22b9
00000070: 6427 50ba 4034 72b9 1f2d 383a 0316 fbb8
00000080: 5c4a 35b8 5936 033a 6cae 1039 81f5 943a
00000090: 47c0 043a 1462 dfba b541 a5ba 41c1 5fb8
000000a0: cabf 70b8 ddc3 623a a01d abb9 c910 77b9
000000b0: d0a9 a239 3c51 093a 5a90 cbba 1608 0e3b
000000c0: 8c24 0fb8 f85c 3238 9155 363a a52d 6038
000000d0: 649f 353a 10e7 d6ab ccc5 ab3a 3f15 1338
000000e0: 5f11 7c2e dfc7 8039 31d8 c038 c487 193a
000000f0: 96d1 3d3b fb4a a83a fd66 5ebb ba2b 8cba
00000100: a7d9 cab8 1f6d edb9 a6f5 b2b9 acc8 d8ba
00000110: f46b e5b8 6c72 de3a 3e6d 803a 9497 5437
00000120: 0886 89b8 b343 d23a 735e 3bba 2168 13bb
00000130: 5419 c9ba 42e6 f8b9 80e2 403b e05f cc3a
00000140: cb7a 8738 06cf 17b7 0e81 2dba ea7a 61b9
00000150: f31f 3dba a901 30ae fe9e a9ba 25b3 6f3a
00000160: b9da 78ae 458b e7b9 011d 1bb9 67da 85ba
00000170: bd3b 57bb f6b4 a638 1ec6 a33b 07ad 033b
00000180: f575 3fb8 a2b3 4e39 de95 f738 cf20 ed39
00000190: c135 8838 6b3f 36ba 5014 01ba 7896 d8b7
000001a0: e2d5 32b6 4060 b3b9 9498 1e39 07e0 84b6
000001b0: 916b f839 88f1 e639 ee6c 88ba 0b94 eb39
000001c0: f492 45b7 fc1f ac36 d334 6c39 8305 a337
000001d0: fb2c 3039 9fa8 d92c 41ae 8139 27fa 13b9
000001e0: 9434 3e2d f50b b8b8 3295 1e39 9f9a 8639
000001f0: d312 a43a 25b9 d6b5 4376 eeba a676 39ba
00000200: fcb6 9439 85fe a2ba 3351 acb9 c4cf abba
00000210: 1956 2b39 8348 a13a 5bf2 8f3a b469 6238
00000220: 842c cf37 66df 0b39 d443 60b9 6b16 2e39
00000230: b950 25b9 9185 1839 39be 7339 06e6 9a3a
00000240: b9d2 57b6 1fe5 e1b6 6c64 5eba a8ea 01b8
00000250: 4e22 0aba 65b2 c32d b46b e7b9 9370 05ba
00000260: cbfc a9ad f59a 0d3a 3de3 87ba 0b18 08ba
00000270: 9dda 3fbb a1ec 0c3a 6e88 153b 5b44 263b
00000280: e484 20b9 3570 bf39 3b05 8438 32f8 8f39
00000290: 60d9 8739 f96f b737 3cbd 713a e4f0 01b7
000002a0: d842 bdb7 5de8 6039 a148 d038 ec14 7fb9
000002b0: 0d5f d638 d996 17ba d84d bc39 f748 d7b9
000002c0: 283e 1537 78b4 6736 39cc 7739 c1e2 78b8
000002d0: d576 1939 4aea a5ad ca7d d138 d247 e239
000002e0: f10a 9a2c b05e 6db9 0a42 d739 4efa 1839
000002f0: d900 4e3a cb3d dc39 bf38 83b8 814c 0f3b
00000300: ec2f c2b8 4d1c 14b9 0a85 49b8 e3a8 80b9
00000310: 938a 1835 014c 7436 638b a939 8907 35b7
00000320: 1d55 c8b6 dfcc 3f3a 6523 2eb9 2b65 21ba
00000330: 6eb5 1fba 5ef6 33b9 1c74 803a 918b 9db9
00000340: f4d8 8537 552b 24b6 3b8f a0b8 f0b8 66b8
00000350: 3a1f 6b37 df06 a7ad c7ba 1f39 4087 e339
00000360: b7b3 ea2c 28bf 77b9 ac79 b0b9 a9f0 85b9
00000370: 4562 1aba 4010 1338 dd4b 333a 5d0f 9f39
00000380: 69a9 9db8 d9ae 453a f9f5 fa39 af1d ac3a
00000390: 6fb7 3e38 35ba 9bba 35b5 deb9 ca01 11b8
000003a0: faa1 edb6 1e84 1a39 9664 d7b8 74f4 88b9
000003b0: cff0 38b9 5295 7739 7ea5 4ab8 b723 25ba
000003c0: e738 9536 d1ba de37 7599 363a 2fec 4039
000003d0: 9d4f 0a3a da03 cdad 2c6b a738 85cc 0b3a
000003e0: a14a 772c 4d66 02b9 26aa d539 5dc1 743a
000003f0: 3cbe 393b 4e58 9f38 3882 02bb 8569 32ba
