logs/rsl_rl/franka_reach/2025-06-26_19-51-50/model_50.pt (torch, 172737 bytes, 36 tensors)

std f4 [7]
0.840853 0.82372046 0.8224441 0.82293195 0.7994093 0.87493515 0.7346238
00000000: 2442 573f 58df 523f b28b 523f abab 523f
00000010: 16a6 4c3f c0fb 5f3f 4e10 3c3f

actor.0.weight f4 [64, 32]
-0.25023282 0.14969105 -0.4258835 0.18706317 0.24681617 0.09977198 0.47767845 0.30861986
0.61074746 0.0057275686 0.037789326 0.020105336 0.032991342 0.103728846 -0.023314726 -0.03824405
0.015075698 -0.76171154 -0.1975411 -1.6351609 0.28771073 -0.022231 -1.1184636 0.45780563
-0.14455436 -0.0710193 -0.121681795 -0.27297655 -0.059780933 -0.064804405 0.040412102 0.17149368
0.061458316 0.19224086 0.08904597 0.9793833 0.5293272 0.5354588 -0.14071763 0.022202464
0.14528345 0.08169853 0.1869456 0.12643519 0.21612997 -0.09396891 -0.11169032 0.13321118
0.117561586 0.03837468 -0.3627864 -1.1280632 -0.11656633 0.14552277 0.3186109 0.003297844
0.056613974 -0.054041725 0.17405097 -0.11385105 -0.00012933774 -0.022319358 0.077225484 -0.11676707
0.5946995 0.17658982 0.66130096 -0.4385884 -0.16553566 -0.24075693 0.24536155 0.2564981
0.55866426 -0.16425177 0.016852256 -0.2996237 -0.079368584 0.06049226 0.06974501 0.03944118
-0.099368915 -0.32893404 0.017386673 -0.858631 0.37257606 -0.041559827 -0.06484947 -0.20480052
-0.09014062 0.11562956 0.1923775 -0.00067334523 0.108637154 0.12870947 -0.25341696 -0.14493018
-0.2763054 -0.25857607 -0.021914253 -0.03140664 -0.08000765 0.3746478 0.2568202 -0.010152725
0.19342114 -0.025180139 -0.14668432 -0.027820865 -0.20735265 -0.26448643 0.10638791 0.14749844
0.74358755 -0.49931523 -0.55152553 0.14394224 0.57571423 -0.1550321 -0.4563774 -0.22604102
-0.0004389285 0.25913948 0.07070537 -0.28190407 0.012560976 -0.37955713 -0.2508094 -0.1669681
-0.10259488 0.03315637 0.08137655 0.16304095 -0.2810627 0.72367954 -0.054888267 -0.10293928
-0.057047285 -0.16222975 -0.0076168985 0.03142889 0.09313128 0.0030418488 0.008979589 -0.28516218
0.5383789 0.32130334 -0.1916926 0.55392474 0.80292916 -0.13835463 -0.11287813 -0.6692602
-0.019693743 -0.61152697 0.30308464 0.020159144 0.02832111 0.11124222 -0.06354032 0.07889465
0.24386303 -0.28029805 -0.3080936 0.22401083 0.07707083 0.16490656 -0.103734136 0.41554418
0.2734023 -0.17699689 -0.2269794 -0.047735862 0.19083776 0.024844516 -0.08747774 0.07537037
0.18616375 1.2079005 0.017964197 -1.8141344 -0.6894778 0.089159094 0.18006918 0.5337881
0.092727825 -0.124624014 0.26508877 0.00547963 -0.10221406 0.13682355 0.22007625 -0.12099884
0.18106899 -0.09865998 0.484829 -0.21754818 -0.15610054 0.043260332 -0.01636976 0.22935589
0.037410572 0.12217659 0.009466619 0.059890315 -0.056420926 -0.10214959 0.024477607 -0.09419057
0.15985066 0.51496714 0.06555132 0.058375817 -0.16882998 -0.10848802 -0.3541099 0.54823387
0.024788361 0.0034197741 0.055634633 0.04566175 -0.05262092 0.12721834 0.010886041 0.01346617
0.81263006 0.09945031 0.7199868 0.04291546 -0.41940114 -0.39286134 -0.7093803 0.3091946
0.15639067 0.06342402 -0.06856827 -0.02199136 0.13336271 0.00828096 -0.089081556 -0.036163438
0.12745337 -0.63978827 -0.10030462 -0.5020335 -0.351314 -0.1259079 -0.68673503 0.43132898
-0.05579741 -0.08799051 0.025102712 -0.38053703 0.036036897 -0.08044901 0.048934255 -0.18857609
00000000: 841e 80be 9c48 193e 670d dabe 7d8d 3f3e
00000010: 61bd 7c3e 4055 cc3d 4592 f43e 6c03 9e3e
00000020: f259 1c3f 54ae bb3b fbc8 1a3d f2b3 a43c
00000030: ee21 073d ca6f d43d 86fe bebc cba5 1cbd
00000040: 0f00 773c 87ff 42bf 3748 4abe f44c d1bf
00000050: d24e 933e c91d b6bc d129 8fbf 8065 ea3e
00000060: 0f06 14be 9172 91bd 4e34 f9bd 95c3 8bbe
00000070: dadc 74bd 2cb8 84bd 2987 253d 0a9c 2f3e
00000080: b7bb 7b3d cada 443e bc5d b63d ddb8 7a3f
00000090: fd81 073f d413 093f 4818 10be f1e1 b53c
000000a0: 2fc5 143e 8f51 a73d ab6e 3f3e 3a78 013e
000000b0: 2d51 5d3e c672 c0bd e5bd e4bd 8368 083e
000000c0: 21c4 f03d c52e 1d3d 24bf b9be 6064 90bf
000000d0: 54ba eebd ec03 153e f820 a33e a420 583b
000000e0: 0ee4 673d db5a 5dbd 6b3a 323e bd2a e9bd
000000f0: d69e 07b9 16d7 b6bc 6528 9e3d 9323 efbd
00000100: 3a3e 183f f6d3 343e 054b 293f a98e e0be
00000110: 2e82 29be fc88 76be 0f40 7b3e b853 833e
00000120: 9f04 0f3f 9e31 28be be0d 8a3c 4768 99be
00000130: ff8b a2bd bbc6 773d 79d6 8e3d 138d 213d
00000140: ee81 cbbd 0b6a a8be 7f6e 8e3c 3ecf 5bbf
00000150: 4ac2 be3e a33a 2abd cdcf 84bd 3ab7 51be
00000160: a59b b8bd 31cf ec3d 9bfe 443e 6f83 30ba
00000170: 287d de3d 6acc 033e debf 81be 9468 14be
00000180: e777 8dbe 1564 84be 8585 b3bc 40a4 00bd
00000190: 0ddb a3bd d6d1 bf3e f07d 833e 9d57 26bc
000001a0: 3110 463e 9446 cebc 6a34 16be 95e8 e3bc
000001b0: 4154 54be c46a 87be e8e1 d93d d509 173e
000001c0: c15b 3e3f 3fa6 ffbe c730 0dbf 9865 133e
000001d0: 0262 133f bcc0 1ebe 4caa e9be 4c77 67be
000001e0: fc1f e6b9 eead 843e facd 903d bb55 90be
000001f0: 8dcc 4d3c 5055 c2be 176a 80be b0f9 2abe
00000200: 441d d2bd f9ce 073d c0a8 a63d 35f4 263e
00000210: 73e7 8fbe 1043 393f 85d2 60bd d4d1 d2bd
00000220: 6aaa 69bd 8e1f 26be 2d97 f9bb 94bb 003d
00000230: 9dbb be3d c159 473b 201f 133c c700 92be
00000240: 33d3 093f df81 a43e 114b 44be 03ce 0d3f
00000250: c48c 4d3f d6ac 0dbe a62c e7bd a354 2bbf
00000260: c654 a1bc 088d 1cbf e92d 9b3e ca24 a53c
00000270: ac01 e83c f6d2 e33d 6d21 82bd 8593 a13d
00000280: 3bb7 793e 3a83 8fbe 72be 9dbe 1863 653e
00000290: 50d7 9d3d 44dd 283e 9072 d4bd 35c2 d43e
000002a0: 63fb 8b3e ac3e 35be 4a6d 68be ae86 43bd
000002b0: f96a 433e ba86 cb3c 8827 b3bd c85b 9a3d
000002c0: b6a1 3e3e 7c9c 9a3f a729 933c 8e35 e8bf
000002d0: 9e81 30bf 0b99 b63d 0e64 383e 56a6 083f
000002e0: 16e8 bd3d e03a ffbd b7b9 873e 788e b33b
000002f0: 9b55 d1bd 791b 0c3e ab5b 613e 3dce f7bd
00000300: 266a 393e 3e0e cabd 823b f83e f3c4 5ebe
00000310: d2d8 1fbe bf31 313d e019 86bc 45dc 6a3e
00000320: d43b 193d b837 fa3d e119 1b3c 8c4f 753d
00000330: a119 67bd ce33 d1bd 4385 c83c fce6 c0bd
00000340: e4af 233e e3d4 033f c53f 863d 7b1b 6f3d
00000350: c4e1 2cbe f82e debd e54d b5be 0e59 0c3f
00000360: f610 cb3c 4a1e 603b 24e1 633d d107 3b3d
00000370: 0989 57bd 8645 023e 5e5b 323c 36a1 5c3c
00000380: 8608 503f 9bac cb3d 0e51 383f 1fc8 2f3d
00000390: bfbb d6be 1f25 c9be f399 35bf c14e 9e3e
000003a0: e024 203e 74e4 813d 856d 8cbd 3927 b4bc
000003b0: 3c90 083e ddac 073c 6470 b6bd 1d20 14bd
000003c0: 2383 023e 2ac9 23bf 826c cdbd 4485 00bf
000003d0: 6edf b3be 00ee 00be decd 2fbf 27d7 dc3e
000003e0: d38b 64bd 5e34 b4bd 34a4 cd3c c0d5 c2be
000003f0: 6d9b 133d 73c2 a4bd 496f 483d 171a 41be

actor.0.bias f4 [64]
-0.182657 -0.044309016 -0.2860802 -0.13862519 0.0059740115 -0.40339354 -0.29336375 -0.074335806
0.2937464 0.0893498 -0.0661154 0.1950609 0.02859332 -0.29752618 -0.34532315 -0.29201916
0.5735007 0.05525441 0.17440002 -0.02550258 0.22642246 0.15313774 -0.1756944 0.042199653
-0.5317066 0.6564945 -0.0023837467 -0.1922067 0.020253139 0.09112708 -0.05345391 0.32940924
-0.38566405 -0.06912425 0.08829458 -0.13279405 0.03360704 0.13773376 -0.33047068 -0.09764112
0.07996584 -0.32418746 0.43902045 0.02733088 0.25070074 0.32434767 -0.24603581 -0.11600658
0.3240762 -0.16872986 -0.097206295 -0.23548765 0.06703897 0.113398656 -0.41056907 -0.36992967
-0.35604063 0.06335048 0.2321221 0.36039934 -0.06293819 0.084613256 0.27508563 -0.09547221
00000000: 700a 3bbe 5f7d 35bd 1b79 92be c3f3 0dbe
00000010: a4c1 c33b 9989 cebe c633 96be 5f3d 98bd
00000020: ee65 963e 07fd b63d 8367 87bd 0bbe 473e
00000030: 8a3c ea3c 5a55 98be 32ce b0be 8983 95be
00000040: f1d0 123f 7352 623d eb95 323e c9ea d0bc
00000050: 4adb 673e 24d0 1c3e 3ce9 33be 8bd9 2c3d
00000060: ec1d 08bf 0610 283f a238 1cbb d5d1 44be
00000070: e9e9 a53c d6a0 ba3d 7df2 5abd 54a8 a83e
00000080: c275 c5be 0491 8dbd cad3 b43d 2afb 07be
00000090: 89a7 093d 140a 0d3e 7433 a9be 11f8 c7bd
000000a0: 21c5 a33d e6fb a5be 4ac7 e03e 02e5 df3c
000000b0: d95b 803e e610 a63e d0f0 7bbe dc94 edbd
000000c0: 51ed a53e 85c7 2cbe 1814 c7bd ad23 71be
000000d0: ba4b 893d 8e3d e83d 1c36 d2be 6c67 bdbe
000000e0: f54a b6be e5bd 813d 6ab1 6d3e 4386 b83e
000000f0: bde5 80bd b749 ad3d 06d8 8c3e ef86 c3bd

actor.2.weight f4 [64, 64]
0.022327615 -0.115203395 0.15472366 -0.06306314 -0.007407814 -0.026976304 0.075868845 0.023449732
-0.070216104 -0.07501999 0.06857639 0.12951335 -0.041952085 0.07268995 0.09406115 -0.29150513
0.084766336 -0.0067930743 0.03402936 -0.046480145 -0.009684157 0.098353334 0.0777233 0.11808601
0.19213429 -0.3371394 -0.100445054 0.050414406 0.1342569 -0.2190884 0.08685416 0.08956822
0.11928159 0.1489743 -0.0891139 -0.16821285 0.06439914 0.027244614 -0.039158113 -0.14603242
-0.11785196 -0.08587161 0.02707037 0.06798079 0.09902895 0.045402765 0.03530135 -0.032804374
-0.117379405 0.031707633 0.068729304 -0.008383577 0.12283079 0.06801247 -0.11349237 0.0070451433
0.08101141 -0.103149705 0.06263508 -0.12511346 -0.21305388 -0.064597234 0.052141383 -0.052423373
0.08827246 -0.05569699 -0.18075056 0.11101173 -0.013164264 0.010333078 -0.04165375 -0.034116156
0.086496145 0.10691107 -0.05791714 0.16213456 -0.067650035 -0.11813555 -0.112393126 -0.0016891605
0.13727053 -0.025661485 0.1246201 -0.035120364 0.09383904 0.09183147 0.0028530192 0.19220753
0.008743539 0.03363588 -0.002241889 -0.05992944 -0.1095279 0.103575066 0.0746458 0.21059372
-0.022476137 0.024244409 0.009148239 -0.11571279 0.05628504 0.086565144 0.044328313 0.06821625
-0.07076596 -0.07360775 -0.05625662 0.07061861 0.15560612 0.101708785 -0.073432885 0.055884976
-0.015910553 0.010045892 0.009228238 0.11982646 0.080414675 -0.060589958 -0.058929004 -0.039800957
-0.122155644 -0.17390801 0.1442627 0.05995922 0.06239708 0.19221778 -0.025252808 -0.082705595
0.007954793 -0.18108936 -0.11775371 -0.14140159 -0.06715084 -0.13726433 -0.07469561 -0.086486556
0.05143081 -0.10558648 -0.14329615 -0.027601985 -0.1849491 -0.14287205 -0.23324318 -0.011395882
0.048637588 -0.053210586 0.06270046 -0.053985957 -0.03311286 0.04610896 0.2741396 -0.055543896
0.021867415 -0.060868874 -0.14606817 0.05494258 0.16538776 0.14178355 0.061257012 0.13234991
0.09862802 0.1476166 0.049083903 -0.38466707 -0.13096239 -0.1661897 -0.17488949 -0.2075249
-0.15910764 -0.21263579 -0.13387632 0.0004197818 -0.019422218 0.11812492 0.15548949 -0.04223296
-0.03542824 0.058402892 0.06598917 -0.11770696 -0.14375408 0.19160241 -0.09104332 -0.007482986
-0.02682848 -0.019663917 0.050095905 -0.043634564 -0.20213728 0.0036545491 0.02234066 -0.054790284
-0.057418615 -0.006457238 -0.15892626 -0.13151385 -0.048445083 0.18832478 0.089922205 0.10253999
0.095423155 0.15265498 0.008220794 -0.0575899 -0.04443672 -0.13940555 -0.084312834 0.009880791
0.081485406 0.09898028 0.13028513 0.12612695 0.057210743 0.07699097 0.023748394 0.06251098
-0.19703418 0.06923683 0.20106484 -0.19155242 -0.10725194 0.066482484 0.19772425 0.073957324
0.041447584 0.031552956 0.012349373 -0.056022897 0.055524837 0.123599336 -0.03716381 -0.07522688
-0.0024955722 -0.009383453 0.0041914196 0.0528375 -0.0026643274 0.060224127 -0.065654844 0.05184209
0.06840416 0.12738436 -0.0036017199 0.073434286 0.004573261 0.1102344 -0.0058252756 0.014584331
-0.009252254 -0.10422664 0.12892336 0.10499903 0.06304174 0.19694945 0.110416554 0.25239426
00000000: 67e8 b63c c2ef ebbd e16f 1e3e 3f27 81bd
00000010: 3fbd f2bb 69fd dcbc 2061 9b3d a719 c03c
00000020: 76cd 8fbd 15a4 99bd c771 8c3d 269f 043e
00000030: f3d5 2bbd 78de 943d 22a3 c03d 2940 95be
00000040: f999 ad3d 7098 debb 5f62 0b3d f761 3ebd
00000050: 4caa 1ebc 796d c93d 652d 9f3d 14d7 f13d
00000060: dabe 443e 899d acbe 23b6 cdbd 567f 4e3d
00000070: a47a 093e b658 60be 98e0 b13d 8b6f b73d
00000080: e849 f43d b88c 183e 5981 b6bd fd3f 2cbe
00000090: b2e3 833d 1930 df3c 4264 20bd 8689 15be
000000a0: 5e5c f1bd 74dd afbd aec2 dd3c 8339 8b3d
000000b0: b1cf ca3d 40f8 393d 2698 103d e15d 06bd
000000c0: 9d64 f0bd dddf 013d f3c1 8c3d 455b 09bc
000000d0: b68e fb3d 1f4a 8b3d b06e e8bd f2da e63b
000000e0: 4fe9 a53d 2740 d3bd d246 803d be1d 00be
000000f0: cc2a 5abe 8e4b 84bd 3492 553d e4b9 56bd
00000100: 31c8 b43d 8722 64bd ad16 39be 1e5a e33d
00000110: edae 57bc 124c 293c 1f9d 2abd 62bd 0bbd
00000120: e424 b13d 31f4 da3d 863a 6dbd 9a06 263e
00000130: 1a8c 8abd 0df1 f1bd 5e2e e6bd d266 ddba
00000140: a590 0c3e 0938 d2bc d338 ff3d 5fda 0fbd
00000150: af2e c03d 2312 bc3d b8f9 3a3b 0dd2 443e
00000160: 1041 0f3c c7c5 093d a8ec 12bb 9378 75bd
00000170: 2a50 e0bd 2a1f d43d e6df 983d e1a5 573e
00000180: e01f b8bc 369c c63c 7fe2 153c d4fa ecbd
00000190: 248b 663d 1149 b13d 9b91 353d f6b4 8b3d
000001a0: beed 90bd a9bf 96bd 576d 66bd 7da0 903d
000001b0: 3657 1f3e b24c d03d fb63 96bd a5e7 643d
000001c0: d956 82bc 8697 243c 0932 173c 9367 f53d
000001d0: 73b0 a43d 2d2d 78bd 8a5f 71bd 5406 23bd
000001e0: bd2c fabd f114 32be 9ab9 133e cd97 753d
000001f0: 1594 7f3d bdd4 443e fade cebc 8d61 a9bd
00000200: d254 023c 7d6f 39be db28 f1bd 94cb 10be
00000210: 6186 89bd 058f 0cbe 03fa 98bd dd1f b1bd
00000220: 1da9 523d b93d d8bd 3abc 12be 8f1d e2bc
00000230: 4c63 3dbe 0d4d 12be 4dd7 6ebe cbb5 3abc
00000240: 3538 473d 58f3 59bd 1969 803d 6120 5dbd
00000250: 5aa1 07bd c0dc 3c3d 075c 8c3e ff81 63bd
00000260: 4b23 b33c a451 79bd e592 15be 790b 613d
00000270: 695b 293e b52f 113e a2e8 7a3d bc86 073e
00000280: 7dfd c93d ce28 173e 340c 493d 15f3 c4be
00000290: 011b 06be a22d 2abe 3b16 33be 6881 54be
000002a0: 1ded 22be 32bd 59be e016 09be 2916 dc39
000002b0: 581b 9fbc 7aeb f13d a338 1f3e 78fc 2cbd
000002c0: 341d 11bd df37 6f3d 5425 873d 5910 f1bd
000002d0: 4534 13be 6c33 443e ec74 babd d633 f5bb
000002e0: 67c7 dbbc 3916 a1bc 5d31 4d3d 28ba 32bd
000002f0: 13fd 4ebe 2981 6f3b c303 b73c c76b 60bd
00000300: c82f 6bbd 3d97 d3bb 91bd 22be 91ab 06be
00000310: 5a6e 46bd 36d8 403e 2229 b83d 7c00 d23d
00000320: 376d c33d 9651 1c3e 82b0 063c 63e3 6bbd
00000330: 4703 36bd 54c0 0ebe 35ac acbd 0be3 213c
00000340: d2e1 a63d 2cb6 ca3d 7769 053e 6c27 013e
00000350: d055 6a3d 71ad 9d3d fe8b c23c c205 803d
00000360: 54c3 49be 0acc 8d3d f1e3 4d3e 5126 44be
00000370: e8a6 dbbd f827 883d 3a78 4a3e f076 973d
00000380: f1c4 293d ac3d 013d 0655 4a3c 4478 65bd
00000390: 036e 633d a621 fd3d 1439 18bd 8d10 9abd
000003a0: c18c 23bb 0ebd 19bc 2d58 893b 226c 583d
000003b0: ff9b 2ebb 93ad 763d 0c76 86bd 5f58 543d
000003c0: 7b17 8c3d 0c71 023e d50a 6cbb b764 963d
000003d0: 4bdb 953b 93c2 e13d f4e1 bebb 1ef3 6e3c
000003e0: c496 17bc c774 d5bd 7c04 043e bb09 d73d
000003f0: 071c 813d 1ead 493e 1322 e23d d239 813e

actor.2.bias f4 [64]
-0.14524132 0.011639331 -0.032591008 0.06552288 -0.08045958 -0.11974195 -0.12537651 -0.22085722
0.03541884 -0.03730731 -0.23675124 -0.35829303 -0.24607037 -0.05080929 0.07974038 -0.14786896
-0.087757766 -0.30688787 -0.109773465 -0.2154733 -0.3241801 -0.17534573 -0.052853767 -0.18536381
-0.2541057 -0.2902758 -0.27629966 -0.1313236 -0.116661385 -0.20528676 0.18051371 -0.38209808
-0.041667063 0.07145741 -0.22825514 -0.20281641 -0.36085188 -0.14855199 -0.106520385 -0.044596534
-0.2022167 -0.198579 -0.13998275 0.050462317 -0.09294614 -0.2592603 0.05772087 -0.12648562
0.08038323 -0.1896127 0.0008452563 -0.09009699 -0.14817187 -0.15741315 -0.06337026 -0.29656607
-0.10916582 -0.15488116 -0.09502818 -0.23799291 -0.359373 -0.19310895 0.07783609 0.0017485351
00000000: 24ba 14be e4b2 3e3c 267e 05bd dc30 863d
00000010: fec7 a4bd 443b f5bd b362 00be 6528 62be
00000020: 5813 113d 8dcf 18bd eb6e 72be 2f72 b7be
00000030: dff9 7bbe 671d 50bd ed4e a33d f66a 17be
00000040: 58ba b3bd 6820 9dbe e9d0 e0bd 08a5 5cbe
00000050: effa a5be d58d 33be 317d 58bd 03d0 3dbe
00000060: 241a 82be 089f 94be 2677 8dbe b279 06be
00000070: 2aec eebd b136 52be 96d8 383e 5ca2 c3be
00000080: 15ab 2abd 4358 923d b7bb 69be 1baf 4fbe
00000090: 94c1 b8be 031e 18be 5c27 dabd dbaa 36bd
000000a0: e511 4fbe 4b58 4bbe a357 0fbe 93b1 4e3d
000000b0: 8c5a bebd c4bd 84be b86c 6c3d 7285 01be
000000c0: f69f a43d d529 42be 3194 5d3a c584 b8bd
000000d0: 5eba 17be ea30 21be 44c8 81bd 82d7 97be
000000e0: 5492 dfbd 2b99 1ebe 229e c2bd 6ab4 73be
000000f0: bdff b7be 5abe 45be 8768 9f3d 1a2f e53a

actor.4.weight f4 [7, 64]
0.06643934 -0.0051434473 0.044473488 -0.03676839 -0.07075911 0.0967293 -0.0034957565 0.13414821
-0.014623049 0.13120773 0.11299133 0.06793544 0.09909631 0.042042993 0.07657153 -0.05946238
0.0658353 0.0044520604 -0.032110233 0.038822025 -0.063279636 0.030282209 0.015218859 -0.09112049
-0.010215582 0.23812105 -0.049026784 -0.021564107 0.10908985 -0.07345815 -0.016720844 0.09502987
0.09018456 0.034178406 0.20283861 0.018784134 -0.1031242 0.08676132 -0.03420169 0.16957127
0.12912518 0.055977996 -0.19202667 -0.009144029 -0.04265155 -0.0065840897 0.12676428 0.017647456
0.091498226 -0.005650381 0.12710847 0.02258625 -0.09684288 0.023804717 0.08344119 -0.123913325
0.09346201 -0.18150935 0.033908818 0.04812082 0.20044716 0.24419022 0.030803544 0.0005218829
0.03520505 0.03793502 0.028371666 0.04192674 -0.035836414 -0.06548641 -0.067129 -0.031208169
-0.014233657 0.047987133 -0.18450399 -0.14338797 -0.09044394 -0.037387647 0.046186816 0.066465124
-0.08385186 -0.14991675 -0.0018417083 -0.06370163 -0.08577048 0.016612021 0.040441547 -0.07127482
-0.06988872 0.06804158 -0.12211207 -0.021441327 0.011254515 0.04913016 0.14096493 -0.007006594
0.19614439 0.009221805 -0.118710935 -0.14052059 -0.20389938 -0.07390114 0.012675223 0.01736802
-0.15941577 -0.078278325 -0.046133842 -0.008337805 0.13705833 -0.03652514 0.10706485 0.021185907
0.10447577 -0.09128215 0.15234023 -0.032028135 0.0410719 -0.05774885 -0.10823581 0.06188276
0.028407998 -0.01598471 -0.11195635 -0.10464502 0.06872774 0.057259478 0.037510157 0.0037275555
0.031329226 0.037677325 0.12182139 0.022181606 -0.003368628 -0.021824714 0.077642865 0.010292698
-0.0016368411 0.10970964 0.06312382 -0.08496562 0.046274766 -0.044658154 0.10024898 0.084967524
-0.1497946 -0.013208218 0.031042779 0.06077071 -0.15338802 0.10178984 -0.035039093 -0.11594723
0.023892172 0.15422662 0.032625854 0.0052258396 0.112926185 -0.06556792 -0.21188946 0.2605516
0.07401534 -0.014288983 0.060562268 0.03339326 0.10387975 0.03316838 0.02699651 -0.022160966
0.0543191 -0.05772752 -0.12583527 0.020007158 -0.08857747 -0.019981839 0.029104063 -0.030535994
-0.018915534 -0.0712836 0.06480162 -0.06514147 0.0860731 0.007938431 -0.005366047 -0.083561026
-0.004851613 -0.08981979 -0.019023817 -0.027003767 0.2004769 0.2345414 0.08894286 -0.046267625
0.05373719 0.001638745 0.07514049 -0.035095252 -0.020105476 -0.026568789 0.036279526 0.061823968
-0.008641736 -0.07676215 0.18992908 -0.11560821 0.07623736 -0.0048735924 -0.17904599 -0.061404377
0.040606935 0.080014735 0.0015679899 -0.06081333 -0.0029850597 0.05778906 -0.00043872648 -0.114121296
0.003880303 0.05132311 0.18154761 0.00565777 -0.2212775 0.08194603 -0.06325762 -0.060939945
0.16029628 -0.0011286243 0.020835713 -0.005543533 0.033362996 0.060388673 -0.026929382 -0.14641397
-0.12753016 0.0856255 -0.27990982 0.006158218 0.04848691 -0.007302733 0.01852206 -0.021651499
-0.08370975 -0.16484083 -0.012252435 0.0070268363 0.0008749332 0.006418506 -0.014015321 -0.030070528
-0.17136833 -0.060211632 0.03888539 -0.1411465 0.012305968 0.021819422 -0.00906768 -0.16291338
00000000: 5911 883d 5d8a a8bb d529 363d 749a 16bd
00000010: 27ea 90bd 031a c63d 1019 65bb 265e 093e
00000020: 8395 6fbc 525b 063e 0068 e73d bc21 8b3d
00000030: 02f3 ca3d 4635 2c3d 89d1 9c3d d38e 73bd
00000040: a8d4 863d 97e2 913b 0586 03bd d803 1f3d
00000050: c198 81bd 6512 f83c 8558 793c 619d babd
00000060: 425f 27bc 01d6 733e 4fd0 48bd 36a7 b0bc
00000070: 806a df3d 3a71 96bd 27fa 88bc 059f c23d
00000080: afb2 b83d a8fe 0b3d edb4 4f3e 2fe1 993c
00000090: c832 d3bd ebaf b13d 1217 0cbd 17a4 2d3e
000000a0: 6439 043e 2f49 653d a4a2 44be d6d0 15bc
000000b0: 64b3 2ebd 59bf d7bb 7fce 013e 6691 903c
000000c0: 6c63 bb3d d526 b9bb b928 023e cd06 b93c
000000d0: 8f55 c6bd 1c02 c33c 37e3 aa3d 45c6 fdbd
000000e0: 0369 bf3d 96dd 39be f9e3 0a3d 561a 453d
000000f0: 0542 4d3e 000d 7a3e b757 fc3c f8ce 083a
00000100: 2c33 103d c061 1b3d b26b e83c 60bb 2b3d
00000110: 34c9 12bd bd1d 86bd ee7a 89bd 46a8 ffbc
00000120: 4934 69bc 288e 443d 9dee 3cbe 4cd4 12be
00000130: ac3a b9bd ca23 19bd 632e 3d3d de1e 883d
00000140: 86ba abbd c783 19be 7a65 f1ba 0076 82bd
00000150: 6fa8 afbd ef15 883c 09a6 253d 88f8 91bd
00000160: d121 8fbd 6259 8b3d e515 fabd b9a5 afbc
00000170: db64 383c b53c 493d 1c59 103e 9297 e5bb
00000180: 13da 483e 0e17 173c b81e f3bd a1e4 0fbe
00000190: 00cb 50be 7b59 97bd bdab 4f3c 6147 8e3c
000001a0: e33d 23be 6350 a0bd d7f6 3cbd 4a9b 08bc
000001b0: 0559 0c3e 639b 15bd d144 db3d 118e ad3c
000001c0: 64f7 d53d 23f2 babd 14ff 1b3e ef2f 03bd
000001d0: 023b 283d 0f8a 6cbd bdaa ddbd c778 7d3d
000001e0: e4b7 e83c 5ef2 82bc 5f49 e5bd 2150 d6bd
000001f0: 21c1 8c3d ea88 6a3d 40a4 193d 014a 743b
00000200: 1353 003d 8a53 1a3d 7e7d f93d 33b6 b53c
00000210: 33c4 5cbb bec9 b2bc 3903 9f3d b4a2 283c
00000220: 468b d6ba 73af e03d 1047 813d 7402 aebd
00000230: 9c8a 3d3d 78eb 36bd 564f cd3d 7403 ae3d
00000240: c163 19be 4867 58bc 6d4d fe3c b5ea 783d
00000250: c011 1dbe 3177 d03d 2785 0fbd be75 edbd
00000260: 84b9 c33c 95ed 1d3e b0a2 053d 853d ab3b
00000270: d845 e73d 7948 86bd 8df9 58be 0567 853e
00000280: 5b95 973d 571c 6abc 2410 783d 5fc7 083d
00000290: e8be d43d 91db 073d c927 dd3c ea8a b5bc
000002a0: b47d 5e3d b173 6cbd f6da 00be 0de6 a33c
000002b0: 1b68 b5bd f4b0 a3bc a56b ee3c 9f26 fabc
000002c0: c0f4 9abc 23fd 91bd b6b6 843d e468 85bd
000002d0: 1847 b03d 3110 023c aad5 afbb 0b22 abbd
000002e0: 48fa 9ebb 70f3 b7bd d6d7 9bbc 0137 ddbc
000002f0: d149 4d3e 9f2b 703e ad27 b63d 1f83 3dbd
00000300: 871b 5c3d 28cb d63a 42e3 993d 0ac0 0fbd
00000310: 3db4 a4bc caa6 d9bc d799 143d 213b 7d3d
00000320: 1196 0dbc 7935 9dbd c57c 423e ffc3 ecbd
00000330: 5522 9c3d a8b2 9fbb d557 37be 2883 7bbd
00000340: 7553 263d c4de a33d 0385 cd3a 6617 79bd
00000350: fea0 43bb 39b4 6c3d df04 e6b9 6db8 e9bd
00000360: ae4c 7e3b 2e38 523d 9ee7 393e d164 b93b
00000370: 9296 62be 52d3 a73d 368d 81bd 2a9c 79bd
00000380: b524 243e 59ee 93ba a8af aa3c 86a6 b5bb
00000390: a3a7 083d 1d5a 773d 029b dcbc 8bed 15be
000003a0: 4497 02be 6c5c af3d 5750 8fbe e0ca c93b
000003b0: 369a 463d c44b efbb 93bb 973c 7c5e b1bc
000003c0: 0470 abbd 09cc 28be 70be 48bc 6041 e63b
000003d0: c65b 653a 5552 d23b 84a0 65bc 7856 f6bc
000003e0: 2e7b 2fbe 79a0 76bd 4946 1f3d b588 10be
000003f0: f99e 493c a5be b23c 9b90 14bc c4d2 26be

actor.4.bias f4 [7]
0.030438283 0.15591194 -0.03307525 0.08370693 0.06715524 -0.09196393 0.08889071
00000000: b559 f93c 61a7 1f3e ea79 07bd 8a6e ab3d
00000010: b088 893d 9657 bcbd 550c b63d

critic.0.weight f4 [64, 32]
-0.06735385 -0.053165074 0.123762205 0.17830239 -0.1309835 -0.051063 -0.27188748 0.15256016
-0.033008344 0.0283312 -0.03694124 0.072471544 -0.054562792 0.072171874 0.027967026 -0.06654163
0.052857544 0.03061114 -0.21058288 -0.17608902 0.13559192 0.04424221 -0.16423364 -0.32966834
-0.123725414 0.05578675 -0.012770055 -0.06724317 0.03939338 -0.12389654 -0.10289849 -0.024688952
-0.038635183 -0.007885426 0.027884303 0.00440769 0.12233812 0.17287579 0.15366699 -0.01832407
0.025184773 0.013271136 -0.033214115 -0.0800371 -0.0039073536 -0.06563653 -0.1386598 0.042315926
0.016428398 0.2532062 0.09655316 -0.036907606 0.065383986 0.06916122 0.19727612 0.13990326
-0.009610221 0.015842127 0.06215384 -0.0027376453 -0.015379216 0.03181867 0.09542765 -0.13223565
0.016745478 0.026891304 -0.13710147 -0.06228968 0.09350961 -0.01692447 -0.060152166 -0.007978059
0.103899695 -0.14539337 0.03935254 -0.06820336 -0.017062925 0.081443354 -0.076397404 0.06250081
0.18267465 0.03813821 -0.24329135 -0.08925922 0.011971487 0.054727618 -0.03512333 -0.08170763
-0.08784948 0.028946802 -0.012261044 -0.08137903 0.072087266 -0.03700017 -0.028813979 -0.014546872
-0.18282403 0.0614687 0.013381173 -0.13399357 0.09376333 0.098335154 0.20733164 0.22700825
0.07444706 -0.06776172 -0.011336349 -0.10230675 0.05881643 0.019879758 -0.0064713904 -0.05843721
0.01667948 0.2654795 -0.1740565 -0.38209286 -0.08858591 -0.123919584 -0.96113247 0.22284064
0.16148292 0.019174384 -0.010052363 0.12483507 -0.06067858 -0.080202274 0.049617488 0.07013836
-0.19787791 -0.108962975 0.04263325 -0.058245055 0.35570076 0.09282288 0.24163926 0.061562344
-0.008586909 -0.024672713 0.033710964 -0.009336958 -0.019484414 -0.009316401 0.00075488153 -0.013330307
-0.09945943 0.01863533 0.33576483 -0.28137287 0.0155024165 0.040010706 -0.58114135 0.29056776
-0.14174671 0.0028425276 -0.04385321 -0.047681436 -0.013934746 0.021771682 -0.019056309 0.10967204
-0.09183377 -0.099624135 -0.08360864 -0.039810926 0.08750494 0.1254274 0.014626106 -0.054789945
0.12747797 0.047531992 -0.07384122 0.0084518455 0.031921204 0.005262264 -0.0007339303 0.024066059
0.11229731 -0.05443902 -0.32880986 0.0021924486 -0.28869495 -0.15114322 0.5459855 0.39668542
0.07101666 -0.09397024 0.118468076 0.0067217327 0.027020447 0.03786376 0.0016918351 -0.035091285
0.17341013 0.10052201 -0.09964121 0.105283976 0.13733965 0.071694575 -0.031165257 -0.11100751
0.08563524 0.042759143 -0.034255225 0.032641858 -0.0026858496 0.0018122054 0.0069082305 0.006307751
0.07904196 -0.04009579 0.20407799 -1.1181582 0.062235083 0.14176911 -0.8021468 0.021997808
-0.038663957 -0.07348589 0.052218437 0.004767248 0.003226432 -0.006143974 0.011817284 -0.015180164
0.06516425 0.12414077 0.0027542838 -0.13486645 -0.14088446 -0.204487 -0.20067902 0.12778501
0.06519855 -0.015194795 0.042555343 0.0216183 0.012753239 0.08170353 0.01495963 0.06735735
-0.2044835 -0.12319085 0.07138623 0.026530553 -0.062297855 0.12724864 -0.44641584 -0.014947107
0.13283937 -0.09577748 -0.10739215 0.002480862 -0.03465005 -0.017822945 -0.0039532417 -0.023943407
00000000: d1f0 89bd 9fc3 59bd 0a77 fd3d e794 363e
00000010: 8a20 06be 7027 51bd d634 8bbe bb38 1c3e
00000020: c233 07bd d516 e83c b34f 17bd f66b 943d
00000030: 3c7d 5fbd d9ce 933d 1b1b e53c fa46 88bd
00000040: 2781 583d 37c4 fa3c 0aa3 57be ae50 34be
00000050: 9cd8 0a3e 5237 353d dd2c 28be 4aca a8be
00000060: c063 fdbd a680 643d 7e39 51bc cab6 89bd
00000070: f45a 213d 78bd fdbd 72bc d2bd 7c40 cabc
00000080: ed3f 1ebd e031 01bc 9f6d e43c 626e 903b
00000090: 698c fa3d 5a06 313e e15a 1d3e 5c1c 96bc
000000a0: 4c50 ce3c 2e6f 593c 860b 08bd 7eea a3bd
000000b0: 4209 80bb 726c 86bd d6fc 0dbe 7753 2d3d
000000c0: d994 863c 3ea4 813e aabd c53d 6e2c 17bd
000000d0: 0ae8 853d 66a4 8d3d c002 4a3e cd42 0f3e
000000e0: 3074 1dbc 59c7 813c 0695 7e3d 116a 33bb
000000f0: 1bf9 7bbc 4b54 023d 926f c33d c868 07be
00000100: d02d 893c 274b dc3c 5464 0cbe 7723 7fbd
00000110: f781 bf3d 30a5 8abc 1e62 76bd 68b6 02bc
00000120: 5dc9 d43d 00e2 14be 2130 213d 34ae 8bbd
00000130: 8cc7 8bbc c6cb a63d 3e76 9cbd 6d00 803d
00000140: 100f 3b3e d036 1c3d 5e21 79be 8acd b6bd
00000150: 0e24 443c 112a 603d 7bdd 0fbd 5456 a7bd
00000160: 6eea b3bd d821 ed3c 8ce2 48bc 0daa a6bd
00000170: 7da2 933d 7e8d 17bd 4b0b ecbc 0156 6ebc
00000180: 3936 3bbe 9bc6 7b3d b53c 5b3c 9c35 09be
00000190: fd06 c03d f163 c93d bf4e 543e da74 683e
000001a0: b377 983d a8c6 8abd 18bc 39bc 3486 d1bd
000001b0: 7fe9 703d e0da a23c f50d d4bb db5b 6fbd
000001c0: 68a3 883c eeec 873e de3b 32be ada1 c3be
000001d0: 886c b5bd 8dc9 fdbd c70c 76bf 5630 643e
000001e0: c75b 253e 9913 9d3c abb2 24bc 87a9 ff3d
000001f0: 1a8a 78bd 1741 a4bd b53b 4b3d b3a4 8f3d
00000200: 82a0 4abe fb27 dfbd 34a0 2e3d 5e92 6ebd
00000210: 691e b63e ec19 be3d 4870 773e cc28 7c3d
00000220: 1bb0 0cbc 6e1e cabc 8214 0a3d 0afa 18bc
00000230: c79d 9fbc d1a3 18bc 3ee3 453a 5c67 5abc
00000240: 63b1 cbbd 1fa9 983c 5ee9 ab3e 1b10 90be
00000250: d9fd 7d3c 44e2 233d aec5 14bf 4cc5 943e
00000260: 0d26 11be b349 3a3b 6c9f 33bd 9c4d 43bd
00000270: 904e 64bc 875a b23c fa1b 9cbc bc9b e03d
00000280: 5813 bcbd bd07 ccbd 023b abbd c810 23bd
00000290: ca35 b33d 0a70 003e 56a2 6f3c 6c6b 60bd
000002a0: 9689 023e e8b0 423d 113a 97bd 9c79 0a3c
000002b0: cfbf 023d 126f ac3b 3b65 40ba 2f26 c53c
000002c0: 22fc e53d 73fb 5ebd c459 a8be 2faf 0f3b
000002d0: d3cf 93be 4ac5 1abe b5c5 0b3f 5a1a cb3e
000002e0: 2f71 913d 7873 c0bd 649f f23d fb41 dc3b
000002f0: fc59 dd3c 0817 1b3d 91c0 dd3a e1bb 0fbd
00000300: 6d92 313e 7cde cd3d b110 ccbd 209f d73d
00000310: c4a2 0c3e 9bd4 923d 484e ffbc e857 e3bd
00000320: 8761 af3d 3624 2f3d 354f 0cbd 78b3 053d
00000330: 1405 30bb 8687 ed3a 705e e23b 40b1 ce3b
00000340: c0e0 a13d 7c3b 24bd d2f9 503e cf1f 8fbf
00000350: 37ea 7e3d ec2b 113e 7e59 4dbf bf34 b43c
00000360: 195e 1ebd c57f 96bd 00e3 553d 9336 9c3b
00000370: 8c72 533b 6453 c9bb 489d 413c 39b6 78bc
00000380: d674 853d 843d fe3d 3781 343b 6e1a 0abe
00000390: 0444 10be 0a65 51be cd7e 4dbe 13da 023e
000003a0: d186 853d 97f3 78bc 834e 2e3d dc18 b13c
000003b0: f6f2 503c 2e54 a73d 3c19 753c a6f2 893d
000003c0: 1f64 51be 7c4b fcbd f232 923d 9a56 d93c
000003d0: 092c 7fbd 784d 023e 9e90 e4be b6e4 74bc
000003e0: 0b07 083e fc26 c4bd 6af0 dbbd f595 223b
000003f0: 36ed 0dbd 6d01 92bc 328a 81bb f724 c4bc

critic.0.bias f4 [64]
0.1461307 -0.16597478 -0.10362377 -0.15365982 0.008407816 -0.13302119 -0.054756857 0.054840315
-0.06327978 -0.1070202 0.0015277852 0.07009614 -0.046536326 -0.08675999 0.083932966 -0.060113482
-0.100513734 0.16423681 -0.03455628 0.096933976 0.063485295 -0.030543787 0.098361835 -0.07522547
0.0099135935 -0.03658613 0.026990777 -0.0081966305 -0.05540384 0.204203 -0.0772668 0.04375184
-0.08747083 -0.060740225 0.062135637 -0.10569826 -0.03610415 0.12030937 -0.097268306 -0.020413702
0.06901775 0.12546013 0.006689354 -0.18283862 -0.15672141 0.06802772 -0.0859419 -0.107758425
-0.091401964 -0.0028713797 -0.14710984 -0.07589956 0.03281064 -0.12168366 -0.10652043 -0.09539667
0.058197048 -0.03490492 -0.105056144 -0.09501612 -0.025185734 0.11790208 0.1004343 -0.076624066
00000000: 49a3 153e 4bf5 29be b338 d4bd 0059 1dbe
00000010: f0c0 093c b536 08be ba48 60bd 3da0 603d
00000020: d498 81bd 682d dbbd f73f c83a 918e 8f3d
00000030: e09c 3ebd 39af b1bd 0ce5 ab3d 8e39 76bd
00000040: 25da cdbd b22d 283e e38a 0dbd 5285 c63d
00000050: 9404 823d f736 fabc ee71 c93d d00f 9abd
00000060: a06c 223c 56db 15bd c31b dd3c 294b 06bc
00000070: 23ef 62bd 971a 513e 0e3e 9ebd 2135 333d
00000080: e823 b3bd beca 78bd f081 7e3d 5478 d8bd
00000090: f2e1 13bd c264 f63d 9b34 c7bd a33a a7bc
000000a0: 2e59 8d3d 9f78 003e 5e32 db3b 0c3a 3bbe
000000b0: 947b 20be 1e52 8b3d 4f02 b0bd 73b0 dcbd
000000c0: f430 bbbd c22d 3cbb f6a3 16be 3a71 9bbd
000000d0: 7364 063d 4835 f9bd 6227 dabd 545f c3bd
000000e0: 0760 6e3d 76f8 0ebd ad27 d7bd d097 c2bd
000000f0: 5052 cebc a576 f13d 80b0 cd3d 14ed 9cbd

critic.2.weight f4 [64, 64]
-0.078171514 -0.0043740817 0.17788337 0.09275288 0.02506843 -0.0101341605 0.085347116 0.03394994
0.2065997 0.052047838 0.015870072 -0.13412866 -0.10099382 0.04036993 0.057448223 -0.0018054296
-0.051998384 -0.07660829 -0.12753159 -0.22088054 -0.09097774 0.04177154 -0.04837102 -0.029239468
0.046148546 -0.02531649 0.06595521 -0.10182829 -0.0021749006 -0.13148928 0.06397252 -0.067245394
0.030045131 0.022344831 0.10057141 0.053824123 -0.094098814 -0.1130731 -0.105714485 0.11614927
0.064785704 -0.030820137 -0.18243356 -0.06561714 -0.015762415 0.08558164 0.049859334 -0.11116345
-0.032965682 0.023459015 0.010320767 -0.13508996 0.02944912 -0.07288211 -0.07963353 0.034722764
0.0658696 0.07373198 0.07260468 0.025446516 -0.06301654 -0.024505762 -0.009168043 -0.06987086
-0.034737043 -0.08199074 0.057666183 0.081310436 -0.003085602 0.06807492 -0.03423218 -0.063849434
-0.19278014 0.13047251 0.20220695 0.040676832 -0.11910552 0.019338476 0.27249843 -0.027870517
0.09315036 -0.08796841 0.06959174 -0.1374631 0.16206169 0.003070068 -0.054568317 0.0791188
0.16601421 0.1483951 0.07313131 0.049099926 0.09181909 -0.043643363 0.03656636 -0.021123977
0.07923346 -0.121207096 -0.1452777 -0.10970533 -0.08047317 -0.026397957 -0.004827259 0.25509053
0.016233815 -0.092862226 0.1337816 0.015881069 -0.06540643 0.027572604 0.036767077 0.048110444
0.004533433 -0.13056555 0.021830667 -0.00882026 -0.04217425 -0.16970123 -0.0020192284 0.014169305
0.11972402 -0.0015695181 0.05696447 0.14533383 -0.005925612 0.11477327 0.11891339 0.09000787
0.071984395 -0.024867084 0.045595832 -0.113615595 0.040900983 0.028279183 -0.07363304 0.12180875
-0.18916625 -0.008891994 0.025085773 -0.012607755 -0.105576634 0.14611728 -0.078807354 0.13525519
-0.064271316 0.08126263 -0.008880836 0.16144012 0.016682196 -0.25545835 -0.053325284 -0.0988992
-0.06832346 0.14240251 0.040966216 -0.08303251 -0.00016292596 0.15517788 0.06440098 0.06442751
-0.023415143 -0.051802956 0.01705746 -0.020771828 -0.03418594 0.09319821 -0.008869174 -0.015301776
-0.0063626864 -0.12592705 0.04450773 -0.11352603 -0.08030365 0.006832275 -0.026262775 -0.12634355
-0.06287772 0.074469484 -0.022393635 -0.03276548 0.077839084 0.14171737 0.10670152 0.04976069
-0.035191916 -0.03161774 0.15796594 -0.111415535 0.07526629 0.096719384 0.08269833 -0.03003994
-0.025385436 -0.049500063 0.1651464 -0.049787316 -0.06456653 -0.07500038 -0.022781013 0.029947538
-0.0942912 -0.10592412 0.063556544 0.0062888814 -0.07930809 -0.091610454 0.009259046 0.07992872
-0.09508437 0.10463706 -0.015906796 0.19416352 0.023409061 0.1298332 0.006666014 0.046540286
-0.074109174 0.090442635 0.10153883 -0.12638694 -0.09112951 0.22938886 -0.010951658 0.04891316
-0.06159205 -0.08527609 -0.03469155 -0.015373911 0.051859375 -0.08006792 -0.17906797 -0.02564561
0.045671448 -0.15865645 0.09694274 -0.06286178 0.0041865623 0.12385328 0.048749298 0.043881256
-0.08015476 0.024585666 0.03540194 0.11990726 -0.13344026 0.011418098 -0.10192737 0.042274777
0.09057033 -0.050388057 -0.07904248 0.110079646 -0.09043905 -0.07625696 -0.035332095 -0.10427254
00000000: 6318 a0bd 7554 8fbb 0f27 363e 39f5 bd3d
00000010: 4f5c cd3c c009 26bc 78ca ae3d 180f 0b3d
00000020: df8e 533e 1d30 553d f401 823c 0659 09be
00000030: d9d5 cebd f15a 253d d44e 6b3d 2aa4 ecba
00000040: 42fc 54bd cfe4 9cbd a497 02be 822e 62be
00000050: 8a52 babd a218 2b3d b120 46bd 9c87 efbc
00000060: 4206 3d3d 8764 cfbc 8613 873d 5a8b d0bd
00000070: c788 0ebb 20a5 06be 0604 833d f4b7 89bd
00000080: 3521 f63c 820c b73c 62f8 cd3d af76 5c3d
00000090: e1b6 c0bd df92 e7bd d680 d8bd abdf ed3d
000000a0: 5eae 843d 837a fcbc ddcf 3abe 4762 86bd
000000b0: 2e20 81bc 6d45 af3d 4d39 4c3d aaa9 e3bd
000000c0: 0607 07bd 1f2d c03c 6f18 293c 0655 0abe
000000d0: 483f f13c 3743 95bd e716 a3bd 7539 0e3d
000000e0: a4e6 863d cb00 973d c3b1 943d 3675 d03c
000000f0: d10e 81bd 4fc0 c8bc 8f35 16bc 7418 8fbd
00000100: 6e48 0ebd c3ea a7bd 6033 6c3d 1686 a63d
00000110: d037 4abb dd6a 8b3d 0b37 0cbd 7ec3 82bd
00000120: 2868 45be 969a 053e 570f 4f3e c09c 263d
00000130: 98ed f3bd b96b 9e3c ea84 8b3e b650 e4bc
00000140: 9ec5 be3d c828 b4bd 1d86 8e3d 20c3 0cbe
00000150: 80f3 253e 3233 493b 0783 5fbd 0a09 a23d
00000160: a1ff 293e e3f4 173e dec5 953d 011d 493d
00000170: a60b bc3d 62c3 32bd 9cc6 153d 310c adbc
00000180: 2745 a23d 6d3b f8bd adc3 14be 30ad e0bd
00000190: 1ecf a4bd 8740 d8bc fc2d 9ebb 3a9b 823e
000001a0: c7fc 843c 8d2e bebd 0bfe 083e 0419 823c
000001b0: cef3 85bd f1df e13c 1399 163d 750f 453d
000001c0: 318d 943b fab2 05be 3ad6 b23c da82 10bc
000001d0: e8be 2cbd 29c6 2dbe 0855 04bb 5f26 683c
000001e0: de31 f53d 4ab8 cdba 9353 693d 64d2 143e
000001f0: a32b c2bb 400e eb3d dd88 f33d 0c56 b83d
00000200: 8e6c 933d 0eb6 cbbc b2c2 3a3d 4baf e8bd
00000210: ca87 273d bfa9 e73c ebcc 96bd de76 f93d
00000220: ccb4 41be baaf 11bc ae80 cd3c c290 4ebc
00000230: 9038 d8bd c59f 153e c065 a1bd 5680 0a3e
00000240: aea0 83bd 066d a63d ed80 11bc 8f50 253e
00000250: 1aa9 883c 70cb 82be 9d6b 5abd aa8b cabd
00000260: 2ced 8bbd f7d1 113e 31cc 273d f30c aabd
00000270: 1bd7 2ab9 f3e6 1e3e a9e4 833d 92f2 833d
00000280: 1dd1 bfbc 562f 54bd 16bc 8b3c ae29 aabc
00000290: 8e06 0cbd b4de be3d 0350 11bc 4db4 7abc
000002a0: 157e d0bb 05f3 00be bd4d 363d 5680 e8bd
000002b0: 3d76 a4bd 47e1 df3b 0825 d7bc 3460 01be
000002c0: 09c6 80bd 7583 983d db72 b7bc 1935 06bd
000002d0: 196a 9f3d 5c1e 113e 5486 da3d ded1 4b3d
000002e0: 6625 10bd 9a81 01bd d3c1 213e d42d e4bd
000002f0: 3625 9a3d d014 c63d be5d a93d 5216 f6bc
00000300: 1ef5 cfbc 94c0 4abd 231c 293e c9ed 4bbd
00000310: 753b 84bd cd99 99bd 3f9f babc 8a54 f53c
00000320: bf1b c1bd bfee d8bd ef29 823d f612 ce3b
00000330: 486c a2bd 439e bbbd 41b3 173c abb1 a33d
00000340: 98bb c2bd f44b d63d f84e 82bc cdd2 463e
00000350: 5cc4 bf3c fff2 043e 946e da3b 07a1 3e3d
00000360: 8dc6 97bd fd39 b93d 97f3 cf3d 946b 01be
00000370: 1ca2 babd eae4 6a3e 956e 33bc 2a59 483d
00000380: f247 7cbd 3ba5 aebd ba18 0ebd dbe2 7bbc
00000390: 7f6a 543d a6fa a3bd 985d 37be be16 d2bc
000003a0: fc11 3b3d d676 22be ea89 c63d adbd 80bd
000003b0: 6e2f 893b caa6 fd3d 58ad 473d d5bc 333d
000003c0: 2e28 a4bd e167 c93c a001 113d f091 f53d
000003d0: 90a4 08be f912 3b3c 4cbf d0bd 5128 2d3d
000003e0: f07c b93d b563 4ebd 06e1 a1bd 7071 e13d
000003f0: 1c38 b9bd 9c2c 9cbd 63b8 10bd d78c d5bd

critic.2.bias f4 [64]
0.0016501865 -0.14700957 -0.02890997 -0.22802211 0.062297273 -0.09815492 -0.07241651 0.12818204
0.17649756 0.04602711 -0.03914626 -0.20858133 -0.12418437 0.0016451129 0.009235616 0.10069882
0.059787873 -0.11941082 -0.09450961 0.060097486 -0.090455234 -0.11266798 0.010164317 0.021490118
-0.086813144 -0.02781746 -0.18033668 -0.049477585 -0.09044272 0.02496561 0.08249032 -0.0022793226
-0.03305459 0.10667451 0.13074993 0.11348888 -0.027326372 0.03070412 -0.18427537 -0.1417561
-0.24717192 -0.06515642 0.100532085 0.20677276 0.044429705 -0.06745018 0.08253747 -0.0047299787
0.15190826 -0.070284 0.14458863 0.032789107 -0.033266887 -0.070460014 0.025202546 -0.045417883
-0.112493284 -0.10160633 -0.033726934 -0.049554564 -0.118599795 -0.025425453 -0.081798665 0.019695766
00000000: 124b d83a ad89 16be 9ad4 ecbc a17e 69be
00000010: 6d2b 7f3d 7205 c9bd 1b4f 94bd 2742 033e
00000020: c7bb 343e ec86 3c3d d457 20bd 5896 55be
00000030: 6054 febd d4a0 d73a fb50 173c 2f3b ce3d
00000040: 21e4 743d a98d f4bd 418e c1bd c828 763d
00000050: 9840 b9bd 78be e6bd 3c88 263c 0b0c b03c
00000060: 17cb b1bd 71e1 e3bc 2eaa 38be 02a9 4abd
00000070: 083a b9bd ae84 cc3c aff0 a83d b060 15bb
00000080: 4064 07bd 2a78 da3d 4fe3 053e dc6c e83d
00000090: 8edb dfbc 3587 fb3c afb2 3cbe 8328 11be
000000a0: a31a 7dbe bb70 85bd c4e3 cd3d 3dbc 533e
000000b0: ecfb 353d 5223 8abd 6809 a93d f0fd 9abb
000000c0: d78d 1b3e 0ff1 8fbd 0b0f 143e df4d 063d
000000d0: dc42 08bd 574d 90bd 9275 ce3c 1a08 3abd
000000e0: e162 e6bd fb16 d0bd 4125 0abd baf9 4abd
000000f0: 73e4 f2bd 0a49 d0bc 0f86 a7bd 0459 a13c

critic.4.weight f4 [1, 64]
-0.0010745873 0.0047769966 0.008745851 -0.014459135 0.011595868 0.0023734786 0.0014863997 0.0013292482
-0.06895804 0.003290802 -0.01962255 0.10136515 0.008476055 0.019528514 0.007541807 -0.039569255
0.012919386 0.1229089 -0.007371848 -0.0012199994 0.00033564778 -0.01752512 0.039121237 0.008622469
-0.0025722182 0.0067677363 0.032941766 0.010430948 -0.0061935936 -0.0039956057 0.019282214 0.007283169
-0.0014105999 -0.04427242 0.010333632 0.0041360166 -0.013544473 -0.016353693 -0.008653061 0.003955556
0.04828009 0.010311394 0.013155932 -0.1440333 -0.0037714816 0.13190305 -0.011818083 -0.010207128
-0.055079576 0.020937407 0.015333468 -0.0063346946 -0.03145356 -0.0052635255 0.001676679 0.021310648
0.014002556 -0.00024355463 0.005394777 -0.010168733 0.00047945933 0.107232936 -0.019276502 -0.0005151563
00000000: 2bd9 8cba 5a88 9c3b c24a 0f3c 02e6 6cbc
00000010: 98fc 3d3c 5d8c 1b3b 4cd3 c23a 2b3a ae3a
00000020: df39 8dbd 7faa 573b 78bf a0bc 8898 cf3d
00000030: 27df 0a3c 43fa 9f3c 4321 f73b 5f13 22bd
00000040: d5ab 533c a9b7 fb3d 8b8f f1bb 63e8 9fba
00000050: e2f9 af39 d790 8fbc 973d 203d 4245 0d3c
00000060: a992 28bb e3c3 dd3b f2ed 063d 91e6 2a3c
00000070: a1f3 cabb 92ed 82bb bcf5 9d3c a6a7 ee3b
00000080: e1e3 b8ba ff56 35bd 654e 293c 6c87 873b
00000090: a3e9 5dbc 2ef8 85bc 92c5 0dbc 9c9d 813b
000000a0: 58c1 453d 1ff1 283c fa8b 573c 777d 13be
000000b0: f62a 77bb 9811 073e a2a0 41bc cc3b 27bc
000000c0: 1f9b 61bd ed84 ab3c 3a39 7b3c 4593 cfbb
000000d0: 73d5 00bd a779 acbb 03c4 db3a ab93 ae3c
000000e0: fa6a 653c b362 7fb9 abc6 b03b c29a 26bc
000000f0: f15f fb39 f19c db3d c1e9 9dbc 8e0b 07ba

exp_avg f4 [7]
0.00010380554 -0.0006324483 0.00035654107 0.0013285453 0.002309154 -0.00064142834 0.000102303
00000000: 2db2 d938 e3ca 25ba 22ee ba39 9522 ae3a
00000010: 2d55 173b 8725 28ba 818b d638

exp_avg_sq f4 [7]
5.675028e-05 6.2764106e-05 6.727152e-05 6.5553395e-05 8.016014e-05 6.815142e-05 7.232141e-05
00000000: 2607 6e38 39a0 8338 1f14 8d38 b679 8938
00000010: a61b a838 84ec 8e38 43ab 9738

exp_avg f4 [64, 32]
-8.3694e-06 -0.00013070094 -6.390008e-05 3.2408712e-05 0.0002863686 -7.074129e-05 0.00015052498 1.0274109e-05
6.9119983e-06 0.00030756544 9.412338e-05 -0.00034387977 -4.8337817e-05 0.00013900448 -0.00025801876 -0.00024357754
8.644409e-06 2.5190623e-06 -0.00012991963 4.964593e-05 -8.929898e-05 1.311663e-11 -9.595229e-05 -0.00030009713
-4.1955224e-12 0.00034713777 1.6390686e-05 -0.00041482426 -0.00018782422 0.00027358893 -0.0003880654 0.0005267183
3.306641e-05 8.596806e-05 -1.9329802e-05 -4.4729753e-05 0.00011185721 2.290774e-05 0.00022565077 -8.965739e-06
-4.432218e-06 0.000112166585 0.00013024225 0.00020071364 -1.1023042e-05 -0.0006864338 -9.446142e-05 0.0005331776
-1.2448377e-05 -2.4672468e-06 0.00017128402 7.2146744e-05 2.8883711e-05 -2.064356e-12 -0.0001874991 4.7264963e-05
-8.193617e-12 0.00026439072 7.877624e-05 0.00011105561 7.1029724e-05 0.00010461828 -0.00032044807 0.00041360594
-0.000100625024 0.0004966004 -0.0001151847 7.6025986e-05 0.00031535805 -0.00019542685 0.00043321584 -3.6642887e-05
-3.6859412e-05 -0.00044999077 7.235345e-05 0.00021102649 -0.0006349827 0.00011651948 0.00011403818 0.00035096752
2.0654294e-05 -6.9695574e-07 0.00041999866 7.786433e-05 0.00016211481 -1.7590528e-11 -0.00048739644 0.00040248584
-2.1299913e-11 -0.00033131856 0.0006520372 -5.2291085e-05 3.7941552e-06 0.00057139364 -0.00032867867 0.0012841648
4.521251e-05 7.0725575e-05 4.449225e-06 2.6626478e-05 -5.0087794e-05 5.746451e-05 1.47239e-05 -6.556043e-06
-8.011943e-06 -5.2250783e-05 -0.0002127994 -0.000291938 9.780487e-06 -0.0005741704 -0.00052559713 -0.00045475873
-7.2268654e-06 8.576461e-06 0.00027654087 4.5189404e-06 4.473794e-06 -2.4149595e-12 -0.00030902046 5.5390294e-05
-1.35125175e-11 9.048767e-05 7.9375524e-05 -7.446681e-05 -0.00015926617 -0.00013786466 -0.0003217798 -0.00024131339
-0.00012749668 -0.00012768238 1.2932201e-05 3.4182447e-06 -0.0003509815 6.1592604e-05 -0.00013559732 1.6980499e-05
8.513649e-06 0.00082353 0.0003079702 -0.0006595282 0.0004472926 -0.0010421496 -0.0004464243 -0.00046163422
-5.144372e-06 -7.501768e-06 0.00015974612 -6.269216e-05 -0.00017177168 8.745172e-12 -0.00012259274 -0.00020004659
-5.372325e-12 0.0010884912 -8.196462e-05 0.00025682457 0.00022777235 -0.00088902476 -0.00011034829 -0.0005914017
-0.00013154598 1.9272426e-05 -9.0939975e-05 -8.2773404e-05 0.000104611456 2.883185e-05 0.00025974365 -6.0636885e-06
3.965699e-06 -0.0006944629 -0.00014610532 0.00010914576 1.7523906e-05 -0.0005648963 -3.7227182e-05 0.00016079235
-1.2616908e-05 -6.39647e-06 0.00010958919 -4.594444e-05 9.205583e-05 -7.8424e-12 4.5100405e-05 0.0001795147
1.9718105e-12 -0.00043900224 -8.327059e-05 -0.000102636535 0.00030701788 -0.0002816177 0.00044743984 0.00047703812
-1.1769161e-05 0.00020137425 4.2299376e-07 2.2122758e-05 0.00016266994 1.2095529e-05 0.00025983388 -8.171606e-06
-8.742553e-07 -0.00032078853 -0.00019292606 0.0006904959 -6.0869406e-05 0.00037408184 -0.00028104061 0.0002169643
-2.1233097e-06 -1.0236626e-05 7.4218595e-05 3.2719418e-05 0.00012154306 -2.5868578e-12 -0.0001466353 5.9173813e-05
-6.4131127e-12 -0.00036478203 -0.00012122106 0.00013907487 0.00019075953 0.00026684205 8.67128e-06 0.0005652515
-5.8275447e-05 0.0002417243 -8.474755e-05 -8.09362e-06 0.00011443058 -8.224699e-05 0.00019148945 -1.3845747e-05
-7.2044354e-06 -0.0001279161 -0.0008524981 0.00037125676 -0.0002520515 0.0005447413 -0.00042800463 0.0007752769
1.1665578e-05 2.4385881e-05 0.0002145006 7.1275266e-05 0.00013887623 -3.3241357e-13 9.3135975e-05 7.7465465e-06
4.0721714e-12 -0.00030093137 -0.00037755654 -1.7760137e-06 0.000409802 0.00031374462 -0.00019797267 0.0008917882
00000000: 4d6a 0cb7 c40c 09b9 1802 86b8 97ee 0738
00000010: be23 9639 f15a 94b8 3ed6 1d39 f65e 2c37
00000020: 9ded e736 bc40 a139 1b64 c538 c34a b4b9
00000030: 56be 4ab8 bbc1 1139 b146 87b9 d968 7fb9
00000040: 7407 1137 290d 2936 093b 08b9 e93a 5038
00000050: 0646 bbb8 0dc0 662d fe39 c9b8 5b56 9db9
00000060: e89d 93ac 0b00 b639 bb7e 8937 c57c d9b9
00000070: aef2 44b9 7c70 8f39 4275 cbb9 7713 0a3a
00000080: cab0 0a38 c049 b438 6f26 a2b7 359c 3bb8
00000090: e294 ea38 ff29 c037 ab9c 6c39 8e6b 16b7
000000a0: 76b8 94b6 fa3a eb38 a391 0839 a876 5239
000000b0: 9bef 38b7 cbf1 33ba 9719 c6b8 f1c4 0b3a
000000c0: 5fd9 50b7 fa92 25b6 b49a 3339 7d4d 9738
000000d0: 4c4b f237 2244 11ac 689b 44b9 5e3e 4638
000000e0: c524 10ad ec9d 8a39 ac34 a538 87e6 e838
000000f0: cbf5 9438 8366 db38 d001 a8b9 40d9 d839
00000100: a606 d3b8 4a2e 023a 518f f1b8 2470 9f38
00000110: a456 a539 7feb 4cb9 3f21 e339 00b1 19b8
00000120: 7e99 1ab8 bdec ebb9 76bc 9738 fe46 5d39
00000130: f874 26ba eb5b f438 c827 ef38 1002 b839
00000140: c242 ad37 6f16 3bb5 4433 dc39 184b a338
00000150: 5dfd 2939 59ba 9aad 3e89 ffb9 bc04 d339
00000160: 245b bbad d3b4 adb9 7aed 2a3a 2053 5bb8
00000170: 179f 7e36 94c9 153a 8152 acb9 6c51 a83a
00000180: 90a2 3d38 8152 9438 8d4a 9536 ed5b df37
00000190: 5c15 52b8 0c06 7138 ab06 7737 fbfb dbb6
000001a0: 086b 06b7 da27 5bb8 e722 5fb9 410f 99b9
000001b0: df16 2437 ec83 16ba 3ac8 09ba af6c eeb9
000001c0: 4d7e f2b6 9fe3 0f37 b0fc 9039 67a1 9736
000001d0: 991d 9636 0bf0 29ac 0604 a2b9 e052 6838
000001e0: f8b6 6dad 33c4 bd38 6976 a638 102b 9cb8
000001f0: b000 27b9 c38f 10b9 8eb4 a8b9 1209 7db9
00000200: a1b0 05b9 7ae2 05b9 61f7 5837 ff64 6536
00000210: f103 b8b9 472b 8138 212f 0eb9 5871 8e37
00000220: d8d5 0e37 2ae2 573a 0f77 a139 30e4 2cba
00000230: 9982 ea39 bd98 88ba 0e0e eab9 7f07 f2b9
00000240: d29d acb6 b2b7 fbb6 8681 2739 9979 83b8
00000250: 9c1d 34b9 c1d8 192d 3d8c 00b9 99c3 51b9
00000260: 9a05 bdac b4ab 8e3a 6ce4 abb8 69a6 8639
00000270: 2dd6 6e39 710d 69ba c96a e7b8 4c08 1bba
00000280: 9bef 09b9 38ab a137 07b7 beb8 a296 adb8
00000290: d962 db38 eddb f137 342e 8839 b076 cbb6
000002a0: 1811 8536 9e0c 36ba d933 19b9 2fe5 e438
000002b0: 4d00 9337 8d15 14ba 6224 1cb8 5e9a 2839
000002c0: 35ad 53b7 42a1 d6b6 40d3 e538 78b4 40b8
000002d0: 190e c138 08f7 09ad 312a 3d38 1c3c 3c39
000002e0: fbc0 0a2c e229 e6b9 8fa1 aeb8 923e d7b8
000002f0: 3ef7 a039 16a6 93b9 5c96 ea39 f91a fa39
00000300: 2974 45b7 fd27 5339 d217 e334 4394 b937
00000310: 6192 2a39 e7ed 4a37 503a 8839 c818 09b7
00000320: 5eae 6ab5 822f a8b9 324c 4ab9 6502 353a
00000330: 074e 7fb8 6a20 c439 a258 93b9 e980 6339
00000340: 2f7e 0eb6 f9bd 2bb7 cea5 9b38 353c 0938
00000350: efe4 fe38 b008 36ac 1dc2 19b9 6631 7838
00000360: 2fa4 e1ac 3740 bfb9 1038 feb8 a0d4 1139
00000370: 9f06 4839 efe6 8b39 dd7a 1137 632d 143a
00000380: c96c 74b8 5f77 7d39 7fba b1b8 d5c9 07b7
00000390: 73fa ef38 047c acb8 8fca 4839 084b 68b7
000003a0: a1bd f1b6 3721 06b9 2e7a 5fba 3da5 c239
000003b0: c825 84b9 f8cc 0e3a cf65 e0b9 f43b 4b3a
000003c0: 47b7 4337 4890 cc37 91eb 6039 9e79 9538
000003d0: 4e9f 1139 d821 bbaa ff51 c338 2af7 0137
000003e0: dc46 8f2c 53c6 9db9 c8f2 c5b9 5e5f eeb5
000003f0: b2da d639 177e a439 e296 4fb9 e5c6 693a
