logs/rsl_rl/franka_reach/2025-06-26_19-51-50/model_0.pt (torch, 172231 bytes, 36 tensors)

std f4 [7]
00000000: c4c3 803f 946c 7f3f 3239 7f3f 6ca2 7f3f
00000010: 72ff 7e3f 0adc 803f 89d9 7e3f
1.0059743 0.9977505 0.9969665 0.9985721 0.9960853 1.006715 0.9955068

actor.0.weight f4 [64, 32]
00000000: eed6 0d3e b236 843d efb5 2b3c ed42 023e
00000010: 5760 53bd 6253 053d d5a2 a9bd 1851 ba3d
00000020: 1c23 293e 3072 ebbd 98cd 273e 41aa 383d
00000030: 083c 0d3e 36a5 d63b e67c 943d 85de 13bd
00000040: 0cab 14bb a439 d9bd 695e f6bd a5df 7fbd
00000050: a1fb 93bd facc a9bc b478 9bbd 5523 ed3d
00000060: 1ae6 0ebe e254 99bd bc00 12bd 4002 c6bd
00000070: 8720 533d 968a 30be 669c 153e 73ad 16be
00000080: e1c6 c63d 41a5 a23d f90d b2bc 4d84 033e
00000090: ffec 9e3d 1c49 193e f82c 813d 7a72 57bd
000000a0: 78f9 283d 38b6 2ebd 0a7c af3d cee6 183e
000000b0: b5c7 bb3d 8403 93bd 3acc dc3d 4fe0 603d
000000c0: f9fc fb3d 2d9e 92bd f974 30be 1495 12be
000000d0: d359 0ebe d387 143e aa39 403d be4c 963d
000000e0: 8df9 643d de39 c7bc b927 f63d bba1 0abe
000000f0: 4405 e7bb c25c cdbd 3dec 4c3d f022 38bd
00000100: 898c 9d3d 2530 1ebd 71a9 5d3e 1c43 01be
00000110: e3cd 0cbe b4e8 2cbd ba69 503e e6b5 823d
00000120: 52ad 353e d5ed 06be 04ef 14be 425c 02be
00000130: a04a f0bd 9bf2 9b3d f7e0 663d 25b0 033e
00000140: bc43 cdbd 89ba dbbd 7903 b43d e3c9 d3bd
00000150: 7746 d73d a4ea 2bbd 721e e03d 7258 07be
00000160: 90b0 b6bd 99cc 963d 9f32 a73d 60de 47bd
00000170: 880e ec3d 0826 d43d 78b0 0bbe 7d2e f3bd
00000180: fe0a c83d 3acc ebbd d046 a0bc c28e 33be
00000190: 97d5 c4bd 3dd7 093d 0bfa aabd 406b 11be
000001a0: 73be 68bb a821 fbbd 5ea8 1bbe 5ca1 98bd
000001b0: 1654 2cbe 23e0 02be 32dc 3f3e c204 3e3d
000001c0: ae71 4b3d e8bc 4dbe 73ad 03be 13e6 02be
000001d0: a6a5 f83c bb4e 1fbe b9cf 79bd f975 c0bd
000001e0: 717f 043a e336 fcbc b6b7 afbc c360 88bd
000001f0: 9f04 e0bd 9405 f9bd bd4d 3abd d5a2 f7bd
00000200: c3ae 293e e4aa 65bd d871 003e ab15 b43c
00000210: 09f3 46be 9a8c e53d 3d64 6ebc 260e 03bd
00000220: 4de0 bdbd 957c 26be a44b 523d 5990 12bd
00000230: 3078 fa3c 184d 16be 95e6 e93d 70a6 efbd
00000240: 18c2 1cbe 0a9c 78bd f66b a13d a56e 4f3e
00000250: 5e9c 123e d287 0fbe a872 7d3d 71b8 abbd
00000260: d48d 9ebc 6e68 e3bd 70e4 2c3e 03ee 0dbe
00000270: b620 d23d 4254 593d c97d 6a3d 8221 7bbd
00000280: b2e3 3f3e 49c2 c33d 6c28 57bd 8cd3 c2bd
00000290: 7e84 843d dff0 f7bc da36 abbc 92dc 3b3e
000002a0: b790 893d 57a4 d4bd 169d acbd 1b79 2dbd
000002b0: d926 c43d 4228 00bd 96ce d4bd 8466 98bd
000002c0: 7e6b e6bd 9919 c33d c52f ea3d f594 0ebe
000002d0: b9db 7eb9 1704 bb3d 8e62 c53b 077c 5fbd
000002e0: 20f3 bc3d c6c1 853d 8338 c63d c62b 96bd
000002f0: a66d 0c3c 5b04 b33b f6ff 07bd fba2 6bbd
00000300: 8857 0a3e c302 833d 5af5 4b3d 24a7 99bd
00000310: 797b e5bc 441a 133d f443 783d 1169 763d
00000320: bdd8 0dbe 64af 8cbd 106a 253e 1260 b53d
00000330: 2fc4 01bc 113f c6bd b646 dfbd eaa5 1bbe
00000340: c4b8 e8bd 623f f63a 589c b73d d4ae cc3c
00000350: ec9b 28be 9f8f d9bd 3d5a 93bd d48c 1f3e
00000360: 44c9 d03c 0033 50bd 184e a03d 4085 1ebd
00000370: 5e46 9ebd 1fa0 0a3e 16de a2bd 4305 11bd
00000380: ace0 03be 20f5 f13d 4d64 8f3d 9abc fb3c
00000390: ffe7 09be 8f9f 3fbe 62f3 1ebe 4720 393e
000003a0: 8dbb 063e 4bdf 123e 959c bc3d 3144 393d
000003b0: a5ef 693c c6c4 0dbe e6df 19be d202 4cbe
000003c0: 3022 03ba 2064 1bbe 25c8 1dbd 6e82 24be
000003d0: 59d4 85bd 74d7 febd e960 22be 1018 853d
000003e0: 3882 57bd 4bf6 e93d 3e32 66bd 7877 0dbe
000003f0: a114 423d 3aac d6bd b890 2fbd 24fb 2cbe
0.1385152 0.06455745 0.010480388 0.12720843 -0.05160555 0.032550223 -0.08283011 0.09097499
0.165173 -0.11496389 0.16387022 0.04508424 0.13792431 0.0065504564 0.07250385 -0.036100883
-0.002268496 -0.10606697 -0.12029726 -0.062469143 -0.07225729 -0.020727623 -0.07591382 0.11579005
-0.13954964 -0.07486893 -0.03564523 -0.09668398 0.051544692 -0.17240366 0.14610443 -0.14714603
0.09705902 0.07941676 -0.021735178 0.12843437 0.07760047 0.14969295 0.06307405 -0.052599408
0.041253537 -0.042654246 0.085685804 0.14931795 0.091689505 -0.07178405 0.107811406 0.054901417
0.1230411 -0.07159076 -0.17232122 -0.14314681 -0.13901453 0.14504938 0.046929993 0.07338856
0.055902053 -0.024319585 0.12019295 -0.13538258 -0.0070501883 -0.10027458 0.050029982 -0.044955194
0.076928206 -0.038620133 0.21646668 -0.12623256 -0.13750415 -0.04221411 0.20352831 0.063823506
0.17741898 -0.13176663 -0.14544302 -0.12730506 -0.117329836 0.07614633 0.056366887 0.12860163
-0.10022685 -0.10728938 0.08789725 -0.10341241 0.10511487 -0.041971818 0.10943307 -0.13217333
-0.089203954 0.07363243 0.08163952 -0.048796058 0.11526209 0.103588164 -0.13641536 -0.11874101
0.097677216 -0.115135625 -0.019565016 -0.17534927 -0.096110515 0.033652533 -0.08348473 -0.14201069
-0.0035513907 -0.12262279 -0.15200946 -0.07452652 -0.16828951 -0.12780814 0.18736342 0.046391256
0.04966896 -0.20091593 -0.12859134 -0.12783079 0.030352425 -0.15557377 -0.060989115 -0.093975015
0.00050543906 -0.03078789 -0.021449905 -0.06659081 -0.109383814 -0.12159267 -0.045484293 -0.120916046
0.16570573 -0.056071177 0.12543428 0.021982988 -0.19428648 0.11208458 -0.014550266 -0.031995915
-0.092712976 -0.16258462 0.051341668 -0.035782192 0.030574888 -0.14677846 0.11420933 -0.11701667
-0.15308416 -0.060695685 0.0788192 0.20257051 0.14317462 -0.14016655 0.061876923 -0.08384789
-0.019354738 -0.11103903 0.16884017 -0.13860326 0.10260145 0.05305887 0.057248864 -0.061311252
0.18739203 0.09558541 -0.052528784 -0.095130056 0.064705834 -0.030266223 -0.020900179 0.1834586
0.06717055 -0.10382908 -0.08428399 -0.042351823 0.09577722 -0.031288393 -0.10390966 -0.07441428
-0.11250971 0.09526367 0.114348926 -0.1392401 -0.0002430518 0.091316395 0.0060237115 -0.05456164
0.0922606 0.065311 0.096787475 -0.07332568 0.008571064 0.0054631657 -0.033203088 -0.057528477
0.13509953 0.06397011 0.049794532 -0.07502583 -0.028012978 0.03591372 0.06061168 0.060158793
-0.1385221 -0.068693906 0.16153741 0.088562146 -0.007920309 -0.09679998 -0.10902159 -0.1520001
-0.11363366 0.00187872 0.08965367 0.024985708 -0.1646573 -0.10623097 -0.07194946 0.15581065
0.025486596 -0.050829887 0.07827395 -0.038701296 -0.07728265 0.13537644 -0.07952516 -0.03540541
-0.12878674 0.11814332 0.07001553 0.03072958 -0.13467406 -0.1871321 -0.1552253 0.18078719
0.13157482 0.14342992 0.09209553 0.045231048 0.014278327 -0.13844594 -0.15026817 -0.19922951
-0.0005002348 -0.15174913 -0.03852095 -0.1606538 -0.06534643 -0.12443438 -0.15857281 0.0649873
-0.05261442 0.1142393 -0.05620026 -0.13815105 0.047382955 -0.10482068 -0.042862624 -0.16892678

actor.0.bias f4 [64]
00000000: e3eb af3d c6c6 083d aa52 21bd 2c1e af3d
00000010: 670b 543d da2d 47be e9c1 efbd c135 c4bc
00000020: 15a8 883d 2e51 a53d 0857 bcbd 8908 13be
00000030: 7db5 7bbc cbc8 a3bc 6e1f 233d 5046 56bd
00000040: 4398 093e 374c 6f3b cde0 e23d 9a22 03be
00000050: 7918 793d cbb1 343c 3d46 d7bd 316c 883d
00000060: 142a 30be 9bf1 063e 745b a13c 8f85 6cb7
00000070: 7c61 a33d 2971 ff3a ec8a 683d e9d4 bd3d
00000080: ae75 1bbe 7091 f93d 0cfa 35bd 0ba9 f8bc
00000090: a233 933c d5aa 083e d8db dbbd 320c efbd
000000a0: 8026 b53d 6023 b7bd bfd4 613d af83 adbc
000000b0: 60a1 f43c e04e fc3d e753 acbd f63a 0fbe
000000c0: d32e a53d 6053 91bb 97a6 9bbc 98c4 10be
000000d0: ea93 ff3d e540 56bc 9511 42bd 325c afbd
000000e0: 1b9a 0fbd 880e a53d c2cc 2dbc 6504 183e
000000f0: 952d a13a 4303 1cbd 6746 953d 90bf 6bbc
0.08589914 0.03339269 -0.039385475 0.08550677 0.051768687 -0.19451085 -0.11706907 -0.023951413
0.06672684 0.080721244 -0.091962874 -0.14358725 -0.015363094 -0.019993206 0.039824896 -0.05231315
0.1343699 0.0036513933 0.110780336 -0.12806168 0.060814355 0.011028717 -0.10511444 0.06661261
-0.17203552 0.13178103 0.019696929 -1.4097793e-05 0.07977578 0.001948868 0.05677311 0.09269125
-0.1518161 0.12185943 -0.044427916 -0.030354043 0.017968956 0.13346417 -0.10735291 -0.11672248
0.08845234 -0.08942294 0.05513453 -0.021180956 0.029862106 0.12319732 -0.084144406 -0.13987336
0.08065572 -0.004434988 -0.019000335 -0.14137495 0.12479384 -0.0130769955 -0.04738005 -0.08562507
-0.035059076 0.08059412 -0.0106079 0.14845426 0.001229691 -0.038089048 0.07288819 -0.014388934

actor.2.weight f4 [64, 64]
00000000: 481d 91bc 7d1a 173d b286 9e3d eadd e23c
00000010: d684 ad3d 492e 913d 69d9 243d f201 eb3c
00000020: 7596 8d3c ea73 093c aabd f43d 7d2b bf3d
00000030: 61c2 8b3d ebff 7d3c 0f30 a43d d84c e1bd
00000040: 50ef a53d 4830 793d 00d0 bf3d 297e 16bc
00000050: 8ac4 b2bd bd1b c83d 5a59 4bbd 8bdf 4a3d
00000060: 9045 743d bfc0 f6bd 82ef 73bb d8e9 5abd
00000070: 2754 b23d 84dc bdbd 0fbf 813d ca9d 8e3d
00000080: 8da6 993d 66da 173e 77bd 0d3d bb6b e3bd
00000090: f15a cd3d 052b 2d3c 8903 e5ba 5426 febd
000000a0: d49d 26bd 734e 5abd 10c6 e33d 9d5a a53d
000000b0: 0c75 d63d cf3f a43d 7a91 a2bd 7ec1 4bbd
000000c0: afa0 8ebd ff79 77bd 3105 c03d a00c 213d
000000d0: fe7f f83d 5008 3c3c ab2f f5bd 33eb e7bc
000000e0: 284f b93d 2daf ac3d 4911 793d 4e46 42bd
000000f0: 6351 f3bd 14df a2bd bef4 683d c0d9 47bd
00000100: 94db 723d ba7f 3e3d c84c 46bd 5125 8e3d
00000110: 0dcf 0abd 1dfd 81bb 97ac 50bd 4759 03be
00000120: 2aa3 153c 2a36 963c b234 61bd c991 713d
00000130: 8403 f3bd cc46 09be ff8c abbd 8783 48bd
00000140: 4ae9 adba 915f b0bc 4398 843d 4b78 cebd
00000150: ec5a 813c d011 093c 8afc 573d b8e1 033e
00000160: 2ecb ad3d 2a39 8cbd e1eb dcbd ee9a efbc
00000170: ca77 49bd 7211 173d 4b5d aeba ad46 e63d
00000180: 96fe 4b3d 8817 ecbc 4de4 2e3c 9747 073d
00000190: d67a 81bc e9f2 bb3d 3782 b7bd 8b75 593d
000001a0: fb97 a3bd 1428 f9bd 9e95 a6bc 5b00 8c3d
000001b0: 44d3 b13d aa0a 0c3d 3769 bcbb b899 29bb
000001c0: f83f 59bd 2472 fbbb 6b56 d2bb 63e0 dc3d
000001d0: f1f8 893d bef3 d4bd 0442 643c 4a47 a1bd
000001e0: d528 46bc 9ec7 c3bd 1c72 e23c 00c4 b8bd
000001f0: 9870 e03d 61b5 d03d ce9e a1bd 8ba0 e3bd
00000200: 861e 313c d841 23bd f444 bd3c e9cb acbd
00000210: ee1f 693d 132a ccbd c3de 5cbd 2e54 8dbd
00000220: 0489 313d f060 173b 845d dcbd a083 9bbd
00000230: 9445 84bd a0ef e4bd b643 2a3c 5180 bb3c
00000240: a96f 55bc 3c3b 2abd 4a23 8e3c 6e75 c1bd
00000250: 9f21 88bd bc20 393a 5258 183e 661d ecbc
00000260: 5f94 773d 6efc 42bd 53a5 1ebd 5d73 ddbd
00000270: ae4f ea3d 002a 043e 4945 7dbc 2446 a43d
00000280: 53bb f63d 9092 883d bcee 703d f06a 0abe
00000290: e127 eebd 1146 b1bd d89e 0f3d 6990 0abe
000002a0: eba1 d0bd 5e73 80bd 253a 13be b948 d43c
000002b0: 1e4a a73c 9b2d 91bd aae3 983d 4cf8 4ebd
000002c0: c8f7 76bd 3842 c13d 2bd2 b53d 33bc 8dbc
000002d0: 3f42 efbd b777 60bd 17ae 893c a7c1 833d
000002e0: 2d3a 983d 2c88 36bd 4626 fbbd a353 9fbd
000002f0: 5257 3abd 973c 96ba 82d4 37bd bb19 b0bd
00000300: dabd 48bb 002f cfbd bebb bfbd 626b e4bd
00000310: 81e5 2dbd 3516 e43d 234b 7c3d 7594 683b
00000320: 436a d03c 6f3d 093d 88a5 0dbb a593 bfbd
00000330: 8710 8ebd 4c91 b2bd 045b 8f3c 37d4 c4bd
00000340: 3770 a4bc ecf9 f8bc 64e6 e63d 69c7 de3d
00000350: b5a8 473d d19d 74bb 602c 1abd 1ae2 113d
00000360: aa3f a7bd 9ff2 5cbd 9f29 dabc 33e9 dcbc
00000370: 5f44 f9bd 593e 563d 1716 d63d 124f 87bd
00000380: 189b 1e3d d734 dabc bdb6 ed3b a829 b73c
00000390: a75e e53d 58af d23b eb08 a6bd 15de 1abd
000003a0: f220 293d fe1f ef3c c471 e43c f1ef c1bb
000003b0: c3b4 5cbd 1bbd 4abd 2b0e 63bd 30bd e03c
000003c0: 469c 273d 5c68 ce3d 3091 d7bc 947c b93b
000003d0: b7d0 793d 8a2e 643d c935 6e3b 6d6f 453d
000003e0: 6a1a 5b3c 0aa8 f3bd 7c76 31ba cbc1 08bd
000003f0: af84 ca3d fd15 f03d 52d4 4eba f973 f53d
-0.017714158 0.036890496 0.07740535 0.027693707 0.08472602 0.07088906 0.0402464 0.028687451
0.017283658 0.0083894525 0.11950238 0.093344666 0.06824184 0.01550291 0.08016979 -0.11000985
0.08102286 0.06083706 0.09365845 -0.009185352 -0.08728893 0.09770916 -0.04964576 0.049529593
0.059636652 -0.12048482 -0.0037221615 -0.053445667 0.08707457 -0.09270576 0.0633527 0.069636896
0.0750247 0.14829406 0.034604516 -0.11104532 0.10027111 0.010569339 -0.0017472367 -0.12409654
-0.04067786 -0.05329747 0.11121762 0.08073924 0.10471544 0.08019983 -0.07937904 -0.049745075
-0.06964242 -0.06041908 0.0937599 0.03931868 0.121337876 0.011476591 -0.119719826 -0.028310394
0.09048301 0.0843185 0.0608075 -0.04743033 -0.11880758 -0.07952705 0.05687403 -0.048791647
0.059291437 0.04650853 -0.048413068 0.06940711 -0.033888865 -0.003966941 -0.050945845 -0.12827025
0.00913314 0.018336374 -0.054981895 0.058976922 -0.11865905 -0.13405913 -0.08376502 -0.04895356
-0.0013268378 -0.021529945 0.06474354 -0.10081538 0.015790425 0.008366063 0.052731074 0.12879074
0.08486019 -0.06846841 -0.10787178 -0.02924868 -0.049186505 0.03688187 -0.001330295 0.11243949
0.04980334 -0.028819814 0.010674548 0.033027258 -0.015805643 0.09177191 -0.089603834 0.053090613
-0.07987972 -0.121658474 -0.020335015 0.06836005 0.08682874 0.034189858 -0.0057498473 -0.0025878977
-0.05303952 -0.0076735187 -0.006418993 0.10784986 0.06736935 -0.10398053 0.013931755 -0.078749254
-0.012094696 -0.09559558 0.027642302 -0.09021759 0.109589756 0.10190845 -0.07891618 -0.111146055
0.0108105 -0.039857715 0.023104168 -0.0843733 0.056915216 -0.099689625 -0.05392338 -0.069008216
0.04334356 0.002309855 -0.10760024 -0.07593465 -0.064585835 -0.11178517 0.01039212 0.022888334
-0.01302711 -0.041560397 0.017350812 -0.09446226 -0.06647038 0.0007062068 0.14877442 -0.028822612
0.060444232 -0.047604017 -0.038731884 -0.108130194 0.11440979 0.12906647 -0.015458413 0.08021191
0.12047448 0.066685796 0.058821425 -0.13517356 -0.116287 -0.08655942 0.035063595 -0.1353165
-0.101871334 -0.062720045 -0.14377649 0.025913583 0.020421084 -0.07088777 0.074652985 -0.050529763
-0.060294896 0.09436458 0.08877977 -0.017301654 -0.11682557 -0.05480167 0.016806645 0.06433421
0.07432971 -0.044563457 -0.122631595 -0.07779624 -0.04549343 -0.0011462149 -0.044880398 -0.08598658
-0.0030630738 -0.101163864 -0.09361981 -0.11153294 -0.0424552 0.11137048 0.061595093 0.0035488878
0.025441295 0.033505853 -0.0021613557 -0.09354333 -0.06936746 -0.087191194 0.017499454 -0.09610789
-0.02007304 -0.03039261 0.11274412 0.10877878 0.048744876 -0.0037325511 -0.037639976 0.035616018
-0.0816644 -0.05394232 -0.026631175 -0.026966667 -0.12171244 0.052305553 0.10453432 -0.06606878
0.038722128 -0.026636524 0.00725445 0.02235873 0.11199694 0.006429594 -0.0810717 -0.03780945
0.041291185 0.02919006 0.027886279 -0.005918496 -0.053883325 -0.04949675 -0.055433434 0.027433962
0.04092052 0.10078499 -0.026314348 0.005660603 0.06099006 0.055708446 0.0036347976 0.048201967
0.013372997 -0.11897285 -0.00067696697 -0.03338794 0.09888589 0.11722944 -0.00078899146 0.11985011

actor.2.bias f4 [64]
00000000: d9c4 94bd 129d 87bd 6b26 96bd d0cc 90bd
00000010: c4bd afbd 72f9 97bd 0caf 2ebd 690d dbbd
00000020: 99b7 c93d 4e54 163d 7eaf 01be 84c3 01be
00000030: afb9 8fbd 6e78 513d 2c80 e73d b048 eabc
00000040: 7f9b 8c3d f147 6dbd f9f3 a7bc 1baa debc
00000050: eb21 02be 95ff bcbb 58fa d33c 8484 a13d
00000060: a641 bebd 2fb9 0abd b8ec 503b f5f3 773b
00000070: eb96 0b3c 75a8 b0bd db2b c43d 087a eabd
00000080: af46 22bd 18c9 743d 6048 15bd a644 85bd
00000090: 6329 01be 5c97 af3d 36d8 19bc 80cc 4f3d
000000a0: 4083 653c 499e b7bd 1f6f 72bd 9b68 af3d
000000b0: 212f 82bd 4d2c 71bd 991a 893d f59c 4cbd
000000c0: 2cdd 813c ea77 81bd 2d8d 0a3d 2c66 353b
000000d0: 5193 d6bd e93a c5bd 3b69 073d f995 35bd
000000e0: 4993 693d d175 443c 5c1b 30bd b2f5 85bc
000000f0: c30b 81bd df55 6e3d 99af c43d 2835 aebb
-0.07264108 -0.06621756 -0.073315464 -0.07070315 -0.08581117 -0.07420625 -0.042647406 -0.10695917
0.098494716 0.036701493 -0.12664601 -0.1267224 -0.07017838 0.05114024 0.11303744 -0.028599113
0.06865596 -0.057929937 -0.020502077 -0.027180722 -0.12708251 -0.0057677724 0.02587621 0.078866035
-0.09289865 -0.03386801 0.0031879377 0.0037834619 0.008519868 -0.08625881 0.09578677 -0.11449057
-0.03961819 0.05976209 -0.036445975 -0.06507234 -0.12613444 0.085737914 -0.009389928 0.050732136
0.014008343 -0.089657374 -0.059188005 0.08564874 -0.063566454 -0.05888014 0.06694526 -0.049954373
0.015852533 -0.063217 0.033826042 0.0027679307 -0.10477317 -0.09630377 0.03305934 -0.04433248
0.057025228 0.01199098 -0.042994842 -0.016352508 -0.063010715 0.05818736 0.09603805 -0.0053163953

actor.4.weight f4 [7, 64]
00000000: a05a 85bd a505 8e3d 0f51 c63d e875 9d3d
00000010: 5dab 8abb ed43 d13c 5e25 83ba e823 18bd
00000020: c0b4 c9bd 3538 ca3b 9f9a 5a3d 6929 783d
00000030: fd69 353d fa36 2c3d 9912 9a3d 38f9 42bc
00000040: 68ef bc3d fa48 d1bb 63f0 1cbd 20ac 2cbd
00000050: 5c95 84bd 40c7 9dbd c608 0c3d 8492 e73d
00000060: 2501 9bba 8b2a 813c fdec 82bd c86c 33bd
00000070: 516b ccbc 3c3d 423d 0311 f03c adc2 49bd
00000080: d293 cd3c 80ad d4bc 8816 00bc 71ad aa3d
00000090: 7206 64bd 7736 e23d e124 84bd 049a ee3d
000000a0: 868f 433d 0fed 533d b8c8 64bc 977e 0bbd
000000b0: fee8 a3bd b528 b9bd e29d b83d d9ed 033e
000000c0: 619e 283d f37a 71bd 4c43 6d3c b516 cabb
000000d0: 4ccf d9bd ad5d cfbd f7c9 463d 1429 37bd
000000e0: d245 c8bc ab56 93bd acd3 623d 1edb 5abd
000000f0: affb 32bd 565d 473d 4271 c33d d5e8 d23d
00000100: 9861 6c3d e722 d3bb c8c2 d03d a473 d13d
00000110: c2b9 4d3d 8d6a 113d 30b6 bc3c b4ab bf3c
00000120: a29f a83d 49f9 ea3c 1934 d7bd 2113 92bd
00000130: 1c9a d2bd b5da 13bd 8f4e 83ba 140d 81bd
00000140: 16ad dabd 0be9 acbd 151d 4a3d e7ee 75bb
00000150: daf7 7bbc 0c3a cd3c b919 b9bc 57e9 93bd
00000160: 60ca 39bd 3806 e5bc 4c09 f3bd f587 e3bd
00000170: 2bc3 20bd bcc6 533d b664 f13d b4f2 8b3b
00000180: eb4a ad3d 2db2 e63c fff3 ccbd 970b 6ebd
00000190: 99a4 c3bc 3b98 f4bd 31de c33b c88b 1a3d
000001a0: cf43 99bd b566 e7bc 316a aebd 5557 e93d
000001b0: 6824 ab3d 7cb6 38bd e5d2 e83d 11b2 92bd
000001c0: 7c1f c33d 4edd 2ebd 8e64 f53c 7281 b13d
000001d0: 77d0 8c3d 86e5 393d 1efd 94bb c303 6b3c
000001e0: 1d22 d33d a07f 4dbd 5097 43bd 482c 2b3c
000001f0: dd7b 47bd ea7d 63bd b170 363b 045c d43d
00000200: 23f4 563d 1c46 7bbd a509 933d 9565 11bd
00000210: 9724 153d 5020 273c 2fca a13d 1144 f8bc
00000220: 1c1d 31bd a5a2 6fbc 2f02 4bbc ee68 30bd
00000230: 165c 993d 48bf 88bd 0892 d53c 8f2c b6bd
00000240: bb9c dcbc 43d2 8bbc bdfb 66bd a035 883d
00000250: aa36 d9bd 6e29 c4bb c4b8 04bc 1e67 80bd
00000260: ddf7 953d c0fe 9d3d 5af1 9c3c 6c57 0e3c
00000270: 9147 743d 58ec 4ebd 3f75 c1bd cb28 d23d
00000280: b37a 54bd e9d5 cd3c d8c3 103c abd4 bb3d
00000290: 3060 f43d 0cea 73bd a18f 303b 758d d7bd
000002a0: 5d82 773d 48d5 ba3d b9c1 45bd 3444 f53c
000002b0: 6ac6 9dbc 6c4e 32bc 2806 bd3d 9451 f5bd
000002c0: fd76 323c 3579 3c3c f077 aebd 4bd9 623d
000002d0: 2b4e 823d 40bf a7bd 7a3c 253d a684 3abb
000002e0: 7abe d73d 1c6b e0bd e268 bd3d 7046 2abd
000002f0: ab11 d53d dac4 74bd 3f5c e73c 4992 043d
00000300: 6910 8e3d 6ad8 4b3d 20c8 7d3d 8b78 13bd
00000310: d31d aebd c92f 8938 37fe df3d 22bd c63d
00000320: 7915 8ebd f5e7 a13d c952 483d b9ac 4cbc
00000330: 7cda 723d c2ae 0ebc f601 1e3c 2b6b 8fbd
00000340: e10b c2bc e1a8 dd3d 1928 9c3d 6dda adbd
00000350: 2aec 83bc ccac 8c3d 5302 f4bc 04dd 9cbb
00000360: 1855 423d 8c11 bb3d b10d f03d 1f65 7ebd
00000370: 8485 f5bd 40cf bf3d 05e3 78bc 720c e53d
00000380: 14bb aa3d 72e4 2bbd e97f 0a3d 1a5b 423d
00000390: 4f62 3cbd 5c69 e73d 1292 033b 60c6 22bd
000003a0: f2f5 ebbd 25eb b03d bef8 efbd e556 af3d
000003b0: 8ebe 4fbd 6190 0fbc 6ebc f83b 8861 e63d
000003c0: 857f 91bd 9022 b4bd d5e5 523d 0265 50bd
000003d0: 417d 34bd 1391 6b3d fa0b 61bd adc3 873d
000003e0: e737 46bd 33ff b13d 4b5e d93d ece3 3c3c
000003f0: 0119 27bd 91e3 983d 6667 1d3d 8426 81bc
-0.06511426 0.0693467 0.096834294 0.076885045 -0.004231854 0.025545085 -0.0010005643 -0.037143618
-0.098489285 0.006171251 0.053370114 0.060586367 0.04429053 0.042044617 0.075230785 -0.011900239
0.092253506 -0.0063868733 -0.03831519 -0.04215634 -0.064738005 -0.077040195 0.034188055 0.113072425
-0.0011825903 0.015767356 -0.06392858 -0.043804914 -0.024953516 0.04742168 0.029304987 -0.049257923
0.0250949 -0.025961637 -0.007817872 0.083338626 -0.05567021 0.110455446 -0.064523466 0.1165047
0.047744296 0.05173975 -0.013963871 -0.034056272 -0.08003424 -0.090409674 0.09014489 0.128837
0.041166667 -0.058955144 0.014481377 -0.0061672577 -0.10635242 -0.10125289 0.048532452 -0.04471691
-0.024447355 -0.07194265 0.055377647 -0.053431623 -0.043697055 0.048672996 0.095430866 0.102983154
0.05771026 -0.0064433697 0.101934016 0.10227135 0.05022598 0.035502005 0.023036093 0.023397304
0.082335725 0.028683322 -0.10507984 -0.07132555 -0.102833 -0.036097247 -0.0010017919 -0.063013226
-0.10677545 -0.08442887 0.04934414 -0.003752643 -0.015378917 0.025052093 -0.022595273 -0.072222404
-0.045359015 -0.027957067 -0.118670076 -0.11109916 -0.039248627 0.0517032 0.11786787 0.004270876
0.08461555 0.028161133 -0.10007476 -0.05811652 -0.023882197 -0.11943098 0.005977415 0.037730962
-0.074836366 -0.028247217 -0.08516348 0.113936104 0.08356553 -0.045095906 0.1136835 -0.0716287
0.095274895 -0.04269152 0.029955175 0.08667268 0.06875699 0.045384906 -0.0045467755 0.014344159
0.10309241 -0.05017054 -0.047751725 0.010447569 -0.04870211 -0.055540003 0.0027838165 0.10369113
0.05247892 -0.06134616 0.07179574 -0.035497267 0.036411848 0.010200575 0.078998916 -0.030305894
-0.04324065 -0.01462618 -0.012390657 -0.04306882 0.07488267 -0.06677109 0.02607061 -0.088952176
-0.026930204 -0.017068034 -0.05639242 0.06650853 -0.106061295 -0.005986384 -0.008100692 -0.06269668
0.07322667 0.07714605 0.019158054 0.008687835 0.059638564 -0.050518364 -0.09446191 0.10261687
-0.051874828 0.025126414 0.008835755 0.091714226 0.11932409 -0.059549376 0.0026941078 -0.10525028
0.06042706 0.091227114 -0.04828045 0.029939748 -0.01925965 -0.010882955 0.0922969 -0.119784504
0.010892627 0.011503507 -0.0851897 0.055383008 0.063625656 -0.08190775 0.040340878 -0.0028460412
0.105343774 -0.109579295 0.092485204 -0.04157108 0.104037605 -0.059758045 0.028242229 0.03236607
0.06936724 0.049766935 0.061958432 -0.03600363 -0.08501782 6.54157e-05 0.109371595 0.09704043
-0.06937689 0.079055704 0.048907075 -0.012492352 0.059290394 -0.008708658 0.009644022 -0.070028625
-0.023687305 0.10823227 0.076248355 -0.08488927 -0.016103823 0.06868896 -0.029786265 -0.0047870893
0.047444433 0.09134206 0.117213614 -0.062108155 -0.11988357 0.09365702 -0.015190844 0.111840144
0.083364636 -0.04196591 0.03381339 0.047450162 -0.045992192 0.112993926 0.0020076078 -0.039739966
-0.1152152 0.086386 -0.11717366 0.08561496 -0.050718836 -0.00876245 0.007590822 0.11249071
-0.071044005 -0.08795655 0.051488716 -0.05087758 -0.044064764 0.0575114 -0.054943062 0.06629119
-0.048393156 0.086912535 0.10613688 0.01152895 -0.04079533 0.0746528 0.038428687 -0.015765436

actor.4.bias f4 [7]
00000000: 5461 b43d 7b5b 21bd b6ce db3c 12ef 233d
00000010: 4270 7dbd ca46 ba3b 10d8 c53c
0.08807626 -0.039393883 0.026831966 0.040022917 -0.061874636 0.0056847082 0.024150878

critic.0.weight f4 [64, 32]
00000000: a5c5 25be 8cfa 4a3b 0def 203c bdab 283e
00000010: aebf aa3c a6c7 67bd 1307 bebc c4d1 133e
00000020: 218e 5bbd bae5 183e b3fd a7bb 4c4a f73d
00000030: 128d afbd c0ac 123e 7de1 813c 0c0d dabc
00000040: 7afa 133e c536 c33d 9973 cabd d531 b5bd
00000050: 16a8 173e 522e 343d 31ed 4ebd a1df cebd
00000060: 9c84 fdbd d256 fd3d 4ddc ef3c d5d2 06be
00000070: 7233 a73c a344 df3b b99d 0ebe 6e17 183e
00000080: 38b6 07bd 0d69 ffbc cc9f 533d 31c4 4b3c
00000090: 3d25 a73d 4662 4a3e 71f5 c03d 92f9 adbc
000000a0: b514 d73c f4c4 083d ed26 52bd cb75 14be
000000b0: b29f 51bc 6da7 86bd da2b 1fbe 0799 d13d
000000c0: 6db3 15bc 81f1 6f3e f9d9 503d f1e3 853d
000000d0: 2bc8 2b3d 84af 8d3d 9a95 1d3e 83e6 d83d
000000e0: b362 1dbc 894d 82bd 7628 673d 068c 9fbd
000000f0: e690 babc 686f 553d 782f 8a3d 202e 1dbe
00000100: abfd 7c3d b8f4 80bc fc6d d4bd 3657 e3bd
00000110: 7d7c 233d 5ab9 e23d 45ed 0bbe 9570 b03c
00000120: 482d 083e aab1 e6bd e020 603d 18c7 7cbd
00000130: 6567 d43c 5016 633d 7810 ecbd 9e90 a93d
00000140: c95b 883e 9488 d23d 5c3f f8bd 83ef 6fbc
00000150: e176 3f3d 994d 5f3d 5b8e 0e3d 9727 50bd
00000160: 0be4 b3bd 106e e63d f7eb bbbd 15ce 6abd
00000170: 590f bc3d 10c1 cdbd 5303 3fbd 9bef 40bd
00000180: 41ea 65be 97d2 f93c 05f5 41bd d615 a9bd
00000190: 729a d93c c9a3 083e 3329 5a3e 5b6c 5c3e
000001a0: 0cd2 7a3d 2ec1 0abe 2a03 353d dd69 01bd
000001b0: 582e 613e 20cd 373d e9e6 eebd e5a2 08bc
000001c0: f233 373d 24b9 133e 00b6 57bc d943 183d
000001d0: a043 033d 38b1 fdbd b393 4abe 6f33 c33d
000001e0: 2973 253e 8627 d4bd d886 393e af7c 6f3c
000001f0: 17e8 ea3b d666 a5bc 1549 05bd 27e6 743d
00000200: fa10 d0bd a749 f7bd bb68 1d3e d0bf 2cbd
00000210: 3818 113e 7a9d b53c 60f5 af3d 3f1c 803d
00000220: 8a48 1ebc 01c5 a73d ba49 dc3c 394f bfbd
00000230: e5b8 07be f06f 03be a5d4 84bc d99b 3a3c
00000240: bd66 47be 260b 4bbd 68ff ce3d 8688 fa3d
00000250: 6dc8 8fbd daa2 253d 37c0 42be a288 123e
00000260: 63b4 10be 7418 6c3c 11cb 83bd cc76 0fbe
00000270: cfdc 06be 3756 c4bd 4fea ddbd 1ea0 e83d
00000280: b8f4 25bd e268 e9bd 0550 213c 4c7c d7bd
00000290: cc13 d7bc 2836 8f3e c593 40be 0860 01be
000002a0: a748 903d 64de dc3d 78ba 99bd 9d1a be3c
000002b0: 1327 f83d 9c79 6fbc 2278 aebd c841 d73d
000002c0: 0a2d 093e 5146 7a3c b0bd 32be af18 f6bc
000002d0: 2e1e 14be b26c 1abe 66a4 623d 02c9 b13d
000002e0: 6551 913d 6f6f 35be 7bc2 5d3e 72e5 9c3d
000002f0: 7e13 cb3d 8fce 44bc 99ab dfbc 71ed 13be
00000300: 4f9e 093e ffcf 743c 1db0 28be bd85 2d3e
00000310: 902b d5bc 2106 213e b88e aebb c0a4 1dbd
00000320: fb4d 143e 8305 223e 8034 98bd fbaa b53b
00000330: 90c3 e63d 7eda 5f3b 4c4f 1bbd 8051 2d3e
00000340: 67bf 283e 0f80 27bd a580 0d3e b43d 0cbe
00000350: 3287 293c 0d32 113e 0f97 e0bd 9edb 99bc
00000360: eb73 1dbd 08f3 10be 4b30 e23d 5fca fcbd
00000370: 3503 cabd b851 af3b 09e0 093d 49e6 313c
00000380: 8b1b c93c 584b 0c3e aa70 36be 1502 7fbd
00000390: dc5b 96bc 3ca7 6dbe afa9 eabd 59f7 0c3e
000003a0: b619 903d fab7 24bd 4a5f cb3c 6b18 0a3d
000003b0: fa54 ffbb c0d8 0c3e a795 1bbc 217e 043e
000003c0: 71f7 52be c310 0ebe 4cc7 373d 9d4f 0d3e
000003d0: fbf3 72bd 8863 023e 15b2 30be 3086 1fbd
000003e0: 540f 083e c93e dabd 9ddc 34be 6200 d0bc
000003f0: 3c9e 01be 8c94 2c3d f5de a5bc 9e26 fcbc
-0.16188677 0.0030972091 0.009822619 0.16471763 0.020843353 -0.056586884 -0.023196733 0.14435488
-0.05360234 0.14931384 -0.005126679 0.12074718 -0.08571829 0.14323711 0.015854592 -0.02661755
0.14451018 0.09531931 -0.0988533 -0.08847395 0.14810213 0.043989487 -0.050519172 -0.101012476
-0.12378809 0.12370075 0.029279852 -0.13166364 0.020410273 0.006813602 -0.13927354 0.14852688
-0.03313276 -0.031178022 0.051666066 0.012436912 0.081613995 0.19764051 0.09421814 -0.021237168
0.026254991 0.033390954 -0.051306654 -0.1449806 -0.012794422 -0.06574903 -0.15544072 0.10234266
-0.009137017 0.2343197 0.050989125 0.06537617 0.041938942 0.069182426 0.153891 0.105908416
-0.009606051 -0.06362445 0.05643507 -0.07790379 -0.022774171 0.0521082 0.06747335 -0.15349627
0.061765354 -0.015741691 -0.1037254 -0.111006185 0.039913643 0.11070509 -0.1366473 0.021538058
0.13298523 -0.112643555 0.054718852 -0.061713308 0.025928209 0.0554412 -0.11526579 0.08279537
0.26632527 0.102799565 -0.1212146 -0.014644506 0.04674423 0.054517362 0.03480373 -0.050819006
-0.0878373 0.112514615 -0.09175866 -0.05732544 0.09182615 -0.100465894 -0.04663403 -0.047103506
-0.22452642 0.030495925 -0.04735281 -0.08256118 0.026562903 0.13343729 0.21304779 0.2152571
0.061235473 -0.13550255 0.04419247 -0.0315951 0.21990335 0.044873357 -0.11665136 -0.008339618
0.044727273 0.14426094 -0.013165951 0.03717408 0.032046914 -0.123873174 -0.19782905 0.095312946
0.16157211 -0.10359101 0.18117845 0.014617129 0.0071687805 -0.020190638 -0.0325404 0.059789803
-0.10159488 -0.12074595 0.15371983 -0.042175114 0.14169395 0.022169817 0.085917234 0.062553875
-0.009660849 0.081918724 0.026890624 -0.093412824 -0.13254125 -0.1283567 -0.016214678 0.011389696
-0.19472785 -0.04957118 0.101073086 0.12233071 -0.0702065 0.04043851 -0.19018637 0.14309934
-0.14131312 0.014410127 -0.06435216 -0.14010161 -0.1317017 -0.09586757 -0.108357064 0.11358665
-0.040516585 -0.11396958 0.009845738 -0.105217546 -0.026254557 0.27971005 -0.1880637 -0.1263429
0.07045107 0.10784605 -0.07506269 0.02320605 0.12116828 -0.014616396 -0.08519007 0.10510594
0.13396087 0.015275554 -0.17455173 -0.030041067 -0.14464638 -0.15080526 0.055332564 0.08680917
0.07095603 -0.1771829 0.2165622 0.07660951 0.09915827 -0.012012138 -0.027303504 -0.14446045
0.13439296 0.014942168 -0.16473432 0.16945548 -0.026021749 0.15724994 -0.005327072 -0.038487196
0.14482872 0.15822415 -0.074318886 0.005544064 0.11267769 0.003415733 -0.03791742 0.16925621
0.16479264 -0.04089361 0.13818605 -0.13695413 0.0103471745 0.14179249 -0.10966312 -0.01878148
-0.038440626 -0.14155209 0.110443674 -0.12343287 -0.09863893 0.005350318 0.033660922 0.010858127
0.024549266 0.13700616 -0.17816415 -0.062257845 -0.018354349 -0.23208326 -0.11458146 0.1376623
0.07036154 -0.040214516 0.02482571 0.033714693 -0.0077921124 0.13754559 -0.009496129 0.1293874
-0.20602204 -0.13873582 0.0448678 0.13799901 -0.05931471 0.1273328 -0.17255433 -0.03894633
0.13287097 -0.106565066 -0.17662282 -0.025390808 -0.12658018 0.042133853 -0.020247916 -0.030780133

critic.0.bias f4 [64]
00000000: f557 233e de97 1fbe 073e 03be 4387 12be
00000010: 8e92 7c3b 8cf7 5ebd 8903 09be 5990 153d
00000020: 0da9 4dbd 389a c6bd 5644 b3bb 69ab 393d
00000030: 3872 3d39 9649 a8bd de38 fe3d 43f3 94bc
00000040: 60a5 9ebd a6eb 1b3e 0d0b a1bc 064c ec3d
00000050: d2c8 b23d 20dd aebc 55a1 f63d 0b03 0b3d
00000060: 3deb ea3d 4c9b 2b3d c6fb 8f3d 0b5d 7a3d
00000070: fc39 a3bd 983c 1e3e 27df 3ebc 288e 843d
00000080: 9536 24be 8d9a a9bd 4e02 913d 5a73 b5bd
00000090: a78f d83c 7ae5 fe3d bffd 0bbe 965d 65bb
000000a0: 0077 5a3d ff1a fe3d 0d69 71bd 4daa 30be
000000b0: 74d6 00be a985 653d 2bb6 0bbe 2994 0abe
000000c0: 07e1 23bd d37d 293d a094 01be 8bf3 50bd
000000d0: a6d2 bf3d 7b28 1abe fcfd 18be 6f20 4abd
000000e0: 1c02 083e cd83 3bbd 3c86 e9bd 6c9b fcbd
000000f0: 8d2d 20bd 545b e23d 2c93 913d 1f14 d7bd
0.15951522 -0.15585276 -0.1281663 -0.14309411 0.0038539502 -0.054435298 -0.13380255 0.036514614
-0.050210048 -0.09697384 -0.0054707928 0.045329485 0.00018066994 -0.082171604 0.1241319 -0.018182402
-0.077463865 0.15226611 -0.01965859 0.11537938 0.0872971 -0.021345675 0.120424904 0.03393845
0.114706494 0.04189615 0.07030444 0.06112389 -0.07970044 0.15452802 -0.011649883 0.06472427
-0.16036446 -0.08281431 0.07080518 -0.08859892 0.026435686 0.12446113 -0.13671015 -0.0034998409
0.053336143 0.12407493 -0.058938075 -0.17252465 -0.12581807 0.05603567 -0.1364371 -0.13533081
-0.040009525 0.04137976 -0.12654352 -0.05101351 0.0936635 -0.15054505 -0.14940637 -0.049347337
0.13282055 -0.045779992 -0.11402556 -0.12334332 -0.03910594 0.11052576 0.07108149 -0.10501885

critic.2.weight f4 [64, 64]
00000000: edc9 a1bd 5152 e7bd 841d 7d3d c98e 743d
00000010: 3671 c13c c4aa 1cbd f83d 8c3d d34c 143d
00000020: a0d0 67bc 8c6b b03c 69ef 1d3c b3a8 903a
00000030: 987e e4bc 445f a23d 43a4 85bd 34e6 313d
00000040: fd30 1bbe 0746 e33d d12c 16be 994f 8bbd
00000050: 0ef8 ccbd 787c 45bd bbad 4fbd 3384 aabd
00000060: 2670 e83c b7ff 413d b1da 953d 8488 01be
00000070: 796b 4bbd f5f6 c93c 5176 d23d 7b37 383d
00000080: 87e9 983c 252a 32bc 9780 dc3c 642e 87bc
00000090: 49d8 e3bd ee92 00be 2e7f 1cbd add5 1cbb
000000a0: 14dc 133e d6f3 433d 2d02 22bd ba66 26bb
000000b0: 78d1 813d 5026 173d 7725 463c 9f9f e2bc
000000c0: 7550 38bd 5a1b 6d3d 3a55 45bd 174c 993c
000000d0: 80dd aa3c 0568 87bd 8563 b4bd 0728 743d
000000e0: ba21 a63d 9b6e 043d 85df 303d 53b6 7abd
000000f0: 9a83 e13c d9d8 89bd 4f18 1abd 0d77 10be
00000100: f517 a8bd 03fe 86bd 406c 063d 8a1f eb3d
00000110: 8ba1 d8ba 0504 b23d ebf9 563b 868b 4fbd
00000120: 3b69 c7bd c0fb 8ebd 131a ba3d b07a ab3d
00000130: 7728 173e 6db5 a7bc 01e6 933d 2407 1fba
00000140: c427 0e3e f9b7 b1bd d377 a03c d81b 1fbe
00000150: 2bea dc3c e286 94bd 2344 86bd cff0 703b
00000160: a219 0a3e d6f0 e53d 4703 c33d cfb9 8a3c
00000170: 809d 8aba a647 dbbd 19ec 913d ed0b 4c3d
00000180: 3568 f73d c3af f6bd b9e2 8dbb 6996 c1bd
00000190: 57e7 05be 5346 5fbd 2578 8b3c 0ec6 dd3d
000001a0: 212e 243d c4f4 f9bc 648d 323d 6d9d 013e
000001b0: ff87 253d e626 13bc 9a8d b1bd 8fca 7a3d
000001c0: e140 87bc 5691 a0bd 9de0 4c3d 5fb2 f3ba
000001d0: 7aaf 34bd e4cc 00be 5c49 1d3d 5dfc 7abd
000001e0: f674 89bc 808f ebbc b225 a83d b9d1 803d
000001f0: 9afb 093e 8586 993d f0eb 893d 98d0 0d3e
00000200: e647 643c f015 7f3d 2fd6 52bc 8760 e8bd
00000210: 53fc c33d f6cd a2bb 53a5 11bd 5240 a23d
00000220: 1612 abbd 7426 6c3d a1a5 9cbd 8688 2cbd
00000230: 5926 f7bd 7a90 943d 0b5d 013d 94a4 d73d
00000240: 68ea 8f3d 0992 94bc 9940 863c a9d3 be3b
00000250: 104e c1bd de43 6ebd e091 14bd 3515 bebd
00000260: 42ac d1bc d8aa ea3d d914 543d 9f7d cebd
00000270: 1b01 49bd 1a77 a13d 6118 d6bc 3459 b6bc
00000280: 9964 643c b06b 3b3c b4a3 1a3d f092 d13a
00000290: dd3e 853d 4fb5 793d 018f 063d faf6 1c3d
000002a0: 8123 24bd 2d26 ffbd 5a80 5bbd 4a83 cebd
000002b0: 24b5 e9bd 4787 02be bae8 3ebc 3408 cabd
000002c0: fa12 b03c 554c 893d b1a3 753d 2373 fbbd
000002d0: 898d e33d d757 8f3d 67d4 093e 40e7 323d
000002e0: 90ea 803c a440 72bc f07c af3d 626f b2bd
000002f0: 4de5 c83d 570a b53d bdde 713d bd2e 65bc
00000300: dd0b e2bd 9064 3ebd b63d d73d 7433 8cbc
00000310: 2273 59bd 1e2c 85bd 0cec 0dbd afca 613d
00000320: 5eec 773c 8022 05bc 2b4d 84bd b87d 823d
00000330: a788 50bc be87 f8bd f014 a03d 576a 813d
00000340: 13ef 37bc 73ef a4bc 5dcc 9b3d b104 073e
00000350: 7b12 d53b 1017 da3d 277e 983c f093 9d3d
00000360: 4220 44bc 7deb 0abd ad24 793d 09cb e1bd
00000370: 3c82 9bbd 5a8d aa3d 5a21 02bc a32e 9f3d
00000380: 58ad febc 839a a0bd 3b0d 85bc 5f71 863c
00000390: 2fa7 983d 5593 bcbd d0e9 b9bd 208a bebc
000003a0: 39a0 f23d 9442 c0bd 6937 41bd e2e3 a3ba
000003b0: 0a28 763d 7ac8 a93d 6d66 d0bc ed82 b73c
000003c0: 7419 d7bd b106 de3d 4e7b c83d bd1d 913d
000003d0: bfb4 03be ac42 9e3d 3d1f bbbd b87b 8c3c
000003e0: 31e3 6a3d 8ca7 0ebb e25f 25bd df11 af3d
000003f0: 6066 433d 634f 23bd 7630 cdbd d7d7 8fbd
-0.078998424 -0.112949975 0.061795726 0.059706483 0.023613553 -0.038248792 0.06847757 0.036206078
-0.014148861 0.021535657 0.009639599 0.0011036604 -0.027892396 0.07928327 -0.06525471 0.04343243
-0.15155406 0.11097341 -0.14665534 -0.068022914 -0.1000825 -0.048214406 -0.05070279 -0.08325996
0.028373789 0.04736301 0.07317103 -0.12649733 -0.04966304 0.024653891 0.10276473 0.044974785
0.018666042 -0.010874306 0.026916785 -0.016501613 -0.111252375 -0.12556049 -0.038207226 -0.0023931072
0.14439422 0.047839962 -0.039552856 -0.002539082 0.06338781 0.036901772 0.012093893 -0.027664004
-0.044998605 0.057887413 -0.04817698 0.01871304 0.020857573 -0.06611637 -0.08808044 0.059608486
0.081119016 0.032332044 0.043181915 -0.061209034 0.027528573 -0.067308135 -0.03762084 -0.14107914
-0.082076944 -0.06591418 0.03281808 0.11480625 -0.0016527636 0.08692173 0.0032802771 -0.05067017
-0.09736868 -0.06981611 0.090870045 0.0837301 0.1476153 -0.020472253 0.07221604 -0.00060664327
0.13882357 -0.08677668 0.019588387 -0.15537965 0.026967129 -0.07252289 -0.06555965 0.0036764627
0.1348634 0.112275764 0.095221095 0.016934304 -0.0010575503 -0.10707025 0.0712511 0.04981606
0.12080423 -0.12045243 -0.004330006 -0.094525166 -0.1307653 -0.054510426 0.017025063 0.108287916
0.040083054 -0.030512221 0.04359187 0.1265771 0.0404129 -0.008981442 -0.086695865 0.06122833
-0.016510429 -0.07840221 0.050018895 -0.0018592587 -0.04411266 -0.1257816 0.03840004 -0.06127583
-0.016779404 -0.02875495 0.08210315 0.062900014 0.13474885 0.07496361 0.06734455 0.13849103
0.013933158 0.06227678 -0.012868448 -0.11346536 0.095696114 -0.0049684 -0.035558056 0.079224244
-0.08353059 0.05765386 -0.07648779 -0.042122386 -0.12067861 0.07254119 0.031582873 0.10529438
0.07027131 -0.018136041 0.016388224 0.0058235717 -0.09438717 -0.058170192 -0.03627193 -0.09281389
-0.025594834 0.11458367 0.051777694 -0.10082554 -0.04907332 0.07884045 -0.026134672 -0.022259332
0.01394 0.011439249 0.037753776 0.0015989225 0.06506131 0.060963925 0.032851223 0.038321473
-0.04007292 -0.12458453 -0.053589202 -0.10083635 -0.11411503 -0.12746917 -0.011652166 -0.09864846
0.021493424 0.06704012 0.05997056 -0.1227782 0.1111098 0.06999176 0.13459931 0.04367757
0.015736848 -0.014785919 0.08568752 -0.08712651 0.09809361 0.08839863 0.05905031 -0.013988194
-0.11037419 -0.046482623 0.10509817 -0.017114379 -0.053088315 -0.06502555 -0.03464894 0.055124935
0.015132038 -0.008125901 -0.06460031 0.06371635 -0.012727893 -0.12135266 0.078164935 0.06319111
-0.011226433 -0.02013371 0.076073386 0.13185383 0.006502447 0.1064893 0.018614842 0.076942325
-0.0119705815 -0.033915985 0.060825992 -0.11025054 -0.075931996 0.08327742 -0.007942522 0.07772567
-0.031088516 -0.07841971 -0.01624166 0.016411481 0.07453763 -0.09207789 -0.09077799 -0.023259223
0.11846966 -0.09387699 -0.047171984 -0.0012503827 0.060096778 0.08290191 -0.025439465 0.022401297
-0.10502902 0.1084112 0.097891435 0.0708575 -0.12861918 0.077275604 -0.091368176 0.017148837
0.057345573 -0.0021767346 -0.040374644 0.085483305 0.047705054 -0.03987063 -0.10019009 -0.0702359

critic.2.bias f4 [64]
00000000: 07d5 813d 12ed 94bd 15f6 35bd 916b e1bd
00000010: 42db c63d 22f5 90bc 1599 75bd 60c0 b03d
00000020: 6e0a fd3d a842 6c3d aaa1 a73d 2d4d f9bd
00000030: faa7 d6bd 140c 7d3d 1d41 93bc 820d 6e3d
00000040: dbb8 863d aa8d 1fbd 8506 72bd 0947 da3d
00000050: cb22 63bd faf2 76bd b0ee b73d 3ba9 273a
00000060: dd4c 93bd 62ab 263d fbbd 97bd 9365 32bb
00000070: e4f7 b3bd 9df5 c6bc 2baa af3d 182f 4a3c
00000080: 85a7 92bc 3163 cc3d dd20 993d 98c8 9f3d
00000090: a9f6 4d3d 9b9f 0dbd 4486 03be 4c43 aebd
000000a0: f9a0 b3bd 6852 ca3c df94 b03d e505 fb3d
000000b0: 24e4 b53d ed3b e03b 18f2 9d3d aac5 8bbb
000000c0: 36c1 853d 0c73 9abd 903e ff3d cb8f 353d
000000d0: 5e6e 27bc 773b 2abd 0338 dd3c 97c5 d5bc
000000e0: 4773 b8bd 48e5 a0bd f5b1 27bd 522a cc3c
000000f0: 43b5 babd bf65 713d 1ad5 8bbd 9547 823d
0.0633946 -0.0727178 -0.044424135 -0.11006845 0.09709789 -0.017695013 -0.059960444 0.086304426
0.12355505 0.057680756 0.08185132 -0.12172923 -0.10481258 0.061779097 -0.017975384 0.05811835
0.06578227 -0.03895346 -0.05908825 0.1065808 -0.055453103 -0.060290314 0.08981073 0.0006395762
-0.07192395 0.040690787 -0.07409283 -0.0027221187 -0.08787516 -0.02428704 0.08577379 0.01234033
-0.017902145 0.09979857 0.07476971 0.07801932 0.05028406 -0.03457604 -0.12844187 -0.085089296
-0.087709375 0.024697497 0.08622145 0.12256984 0.08881405 0.006843081 0.07712191 -0.0042655068
0.06530993 -0.07541475 0.12463105 0.044326585 -0.010219185 -0.041560616 0.027004248 -0.026095195
-0.090063624 -0.07856232 -0.040941197 0.024922524 -0.09116604 0.058934923 -0.06827755 0.063613094

critic.4.weight f4 [1, 64]
00000000: 3252 ebba 818f 153c 757e 423b e8b5 cf3a
00000010: 0a8e 333d 27a4 6a3c bbd5 cabc 790f a33b
00000020: 7931 70bd bfef f93b 98f3 1abb a382 3d3d
00000030: 31ad 093c f5e5 6bbb 6550 11bd 2c30 01bd
00000040: d4d7 5bb6 9797 563d 1a53 773b 9b8b 993d
00000050: 8fec aebc 8c35 0b3a 9f26 933d e9c6 24bc
00000060: 3379 4a3d 014b 7b36 120a 663d 96b1 1ebb
00000070: 37bd 22bd 8c6e 6cbd 749e 1f3d 693e 4bbb
00000080: caec eabb cb5a a5bc 8a0d 29bd da32 15bd
00000090: 6935 35bc 3fa6 9ebd faa5 e4bb 5b0a 153d
000000a0: 5193 463d 8d8d 1e3d 5dc0 0b3c b7d6 81bd
000000b0: 7737 443d eb63 883d d14d db3c 034e 433d
000000c0: 47cd 93bd cfa9 42bd 3066 24bc 51e6 8e3c
000000d0: 5b95 353d 44c3 7bbc 4e18 f4bc 7273 433d
000000e0: b40c 6cba 0ad6 383b 2bfd 94bd 49f8 fa3b
000000f0: ce59 ac3c f9f1 cb3d f57a c5bb 5c47 7f3d
-0.0017953573 0.009128452 0.0029677425 0.0015847059 0.04383663 0.0143213635 -0.024760118 0.0049762097
-0.05864093 0.007627457 -0.0023643728 0.046267163 0.008403108 -0.003599522 -0.03547706 -0.03154008
-3.2759172e-06 0.05239066 0.0037738741 0.07497331 -0.021353034 0.00053104083 0.07185101 -0.0100571895
0.04943199 3.7445573e-06 0.056161948 -0.0024214736 -0.03973123 -0.057722613 0.038969472 -0.003101254
-0.0071693407 -0.020184895 -0.041272677 -0.03642545 -0.011060097 -0.07746553 -0.0069777938 0.03638683
0.048480336 0.038709212 0.00852975 -0.06339782 0.047904458 0.06659683 0.026770504 0.04768182
-0.07216888 -0.047525223 -0.010034129 0.017443808 0.04433189 -0.015366379 -0.029796746 0.04771752
-0.00090045785 0.002820375 -0.072748505 0.0076589924 0.021038916 0.09958262 -0.0060266205 0.062323913

exp_avg f4 [7]
00000000: 3993 f3b9 e190 92b9 474a 103b a3ac 8039
00000010: eb2d 1e3a 5d44 e2b8 e43a 04b9
-0.0004645826 -0.00027955233 0.002201693 0.00024542687 0.0006034064 -0.000107892534 -0.0001261044

exp_avg_sq f4 [7]
00000000: 56f6 e435 07c7 8035 d725 b235 fddf 3536
00000010: 9f34 a236 4f76 ad36 fd50 8535
1.7059017e-06 9.594668e-07 1.3273046e-06 2.710148e-06 4.834102e-06 5.1695747e-06 9.932843e-07

exp_avg f4 [64, 32]
00000000: 80d1 10b7 92e5 2b37 5f79 5bb3 674a 2f37
00000010: 3b33 e835 4a24 3a37 1ea4 0f37 ef2a fc35
00000020: 88c9 4fb4 0aa0 14b9 23bc 8cb6 16f7 0db7
00000030: 544e 34b8 b378 4eb8 cb49 e238 e832 4fb8
00000040: 9eb6 2637 1bf0 1237 245a 0638 e344 2e37
00000050: 1430 41b7 c362 a92b 7ddd aa36 15d2 e6b7
00000060: 8f66 7a2a 49af 38b8 601a 1bb8 600c 3f37
00000070: c481 35b8 14e7 41b8 32ed ddb7 8040 81b8
00000080: 75bd 3237 3d41 dcb4 e634 f8b6 5db7 8ab7
00000090: af67 8836 e2d8 0c38 685f 35b6 2e6f f535
000000a0: 5c34 3b36 6cba fbb8 78f0 91b8 f314 5d39
000000b0: 77e2 9937 65ad 3538 f3dd 70b8 3cbb c538
000000c0: 31c0 47b6 afbe 44b6 b081 dbb7 b9ca 6a37
000000d0: 7634 35b7 3304 e62a 05f8 29b8 2d89 1db7
000000e0: 53a5 f9ab e969 0b38 1fe1 a638 bf73 0c39
000000f0: c5b2 5837 4f70 33b8 a56e 7db8 5cdd bd38
00000100: 4b28 89b7 e0b1 9237 9614 0eb7 df7a bdb7
00000110: 4bd4 5b37 c8a8 63b8 8cde 2ab7 e35f 2336
00000120: 0fcc db35 5608 4cb9 05dc 11b9 c72d f038
00000130: 878b 7f37 72ee d7b8 2dd7 c0b8 f505 7839
00000140: f308 6c37 288d 0637 288c 38b8 d03d 59b6
00000150: 4520 0bb8 1b50 1d2c 737e 90b8 ccaa 56b8
00000160: db2d 54ac 2d65 b3b8 4efb cfb8 2f1d 6a38
00000170: 0bfb 6ab8 c90b 88b7 32de 98b7 bb63 1c39
00000180: 55db bf36 9c94 3f36 fab0 5fb5 ac5b 28b7
00000190: 5e3b c6b6 bc15 d537 9c76 1538 2a50 0636
000001a0: 1cc0 c935 0f0f 55b8 8f73 c036 e0c7 96b8
000001b0: 236f eb37 c9f0 7f37 3887 8ab8 d364 95b9
000001c0: 5f01 6735 80fb 5536 3310 8d37 ec56 8d36
000001d0: efa5 84b6 4d1f 132c 44cc dab7 42b9 48b8
000001e0: cb72 a0ab ce79 a8b8 9fc3 6638 50c6 b1b8
000001f0: 33e6 aeb7 d641 8837 9e03 bcb8 2fe8 f0b8
00000200: 1e32 e336 d9b8 40b6 b23a b4b5 8072 7137
00000210: 3c9f 00b6 64f5 40b8 af7f 3bb7 58b1 85b6
00000220: 038b a2b6 8a51 a536 06d3 b436 1d76 6eb8
00000230: 8f0b a237 58ea 7bb9 1e90 6d38 93f6 b6b6
00000240: a2fe ce35 7218 4435 20d1 2f38 9cfb 1436
00000250: 0fb0 0638 8958 09ac 7bde fa36 968d 3b38
00000260: 41f4 b72a b15d 1037 28e1 8eb8 bbdc b436
00000270: 0a15 f3b7 d105 91b8 1afc 97b7 1e7e b7b8
00000280: 5dab 30b5 de86 22b7 c0ca 5736 13f9 87b6
00000290: eea6 5fb6 bc23 d9b6 27f8 7cb6 0401 97b5
000002a0: 88d2 7fb5 fa05 0238 210c 9eb7 b30a cf37
000002b0: 738d dc37 9253 dfb8 1b20 28b8 3d70 4738
000002c0: 01ea a735 35cf ff34 4ca7 cf36 245e bcb6
000002d0: 8884 0137 a499 c328 5dd7 28b5 52e4 04b5
000002e0: 05a5 fea8 86e9 9437 24da 79b8 e023 2938
000002f0: a239 1237 2397 b1b7 aad4 aab6 4797 bd37
00000300: 422a 1ab7 2161 7437 e0a8 a3b7 7482 1238
00000310: 8873 6ab6 4680 0eb8 a776 bab5 4d07 c3b5
00000320: f7be 85b6 77b1 2838 5000 f937 f62d 85b9
00000330: 7b81 cc36 0b59 32b9 b167 6239 aa5f feb9
00000340: cc05 84b4 da40 08b5 c76b 8f38 031c 2437
00000350: 5566 9b37 0a6c a5ab 36ef c738 e686 e137
00000360: 2bc5 922c 4190 fdb5 d470 f6b7 ba78 09b9
00000370: dd3f 50b8 df9f 33b8 0cbf aa38 75bf 3db9
00000380: 1993 e8b6 7e3e 03b8 3034 0136 6bbe eb36
00000390: 3b46 25b7 fbda deb7 6554 2337 b5f9 a7b6
000003a0: f22c 8ab6 1d3a fdb7 9b71 f0b8 ac54 95b8
000003b0: 3426 b038 0c6a 77b9 71b9 aab8 a6a1 1e39
000003c0: 5ac0 7137 7779 7637 0262 2eb6 e2d8 6837
000003d0: 258e e637 a13b b9ab e471 6638 f2bf fc37
000003e0: 7fe6 282c cb3f a8b8 e6aa e1b8 8519 d3b7
000003f0: b178 acb8 9fec 65b8 355a 1eb8 1187 c636
-8.631847e-06 1.0245845e-05 -5.1100297e-08 1.0448136e-05 1.7300257e-06 1.1094913e-05 8.561676e-06 1.8787958e-06
-1.9351694e-07 -0.00014173999 -4.194227e-06 -8.461784e-06 -4.2988293e-05 -4.9226637e-05 0.00010790265 -4.9400056e-05
9.93689e-06 8.758182e-06 3.203204e-05 1.0387247e-05 -1.15148905e-05 1.2035584e-12 5.0921794e-06 -2.7515964e-05
2.2240043e-13 -4.4032266e-05 -3.6979443e-05 1.1387368e-05 -4.3274616e-05 -4.6229994e-05 -2.6455706e-05 -6.1632134e-05
1.0653738e-05 -4.102566e-07 -7.397134e-06 -1.6536267e-05 4.065186e-06 3.358059e-05 -2.7026636e-06 1.828628e-06
2.7895649e-06 -0.000120033365 -6.9589296e-05 0.00021084007 1.8344477e-05 4.331525e-05 -5.7427165e-05 9.428567e-05
-2.976518e-06 -2.9317268e-06 -2.6167225e-05 1.3994687e-05 -1.0800655e-05 4.085912e-13 -4.0523726e-05 -9.389868e-06
-1.7738401e-12 3.323882e-05 7.957429e-05 0.00013394559 1.2916226e-05 -4.278152e-05 -6.0422946e-05 9.053454e-05
-1.6350436e-05 1.7487386e-05 -8.468653e-06 -2.2587772e-05 1.31028455e-05 -5.4278207e-05 -1.0184605e-05 2.4344706e-06
1.637616e-06 -0.00019458061 -0.00013910241 0.000114526185 1.5231671e-05 -0.00010296413 -9.195353e-05 0.00023653342
1.406878e-05 8.019888e-06 -4.399955e-05 -3.23715e-06 -3.3170236e-05 2.235551e-12 -6.890008e-05 -5.1180643e-05
-3.0152467e-12 -8.5542306e-05 -9.917338e-05 5.5817127e-05 -5.602375e-05 -1.6217951e-05 -1.822328e-05 0.00014914472
5.717777e-06 2.854772e-06 -8.333151e-07 -1.0034924e-05 -5.907771e-06 2.54017e-05 3.5634832e-05 2.0014218e-06
1.5031578e-06 -5.079718e-05 5.7354987e-06 -7.189787e-05 2.8065935e-05 1.5255247e-05 -6.605539e-05 -0.00028494615
8.60562e-07 3.1885866e-06 1.6816053e-05 4.2122465e-06 -3.9532238e-06 2.0907332e-12 -2.6082744e-05 -4.785625e-05
-1.1400545e-12 -8.033552e-05 5.501846e-05 -8.476956e-05 -2.0849611e-05 1.624312e-05 -8.965212e-05 -0.00011487339
6.7709616e-06 -2.8717825e-06 -1.3428128e-06 1.43913785e-05 -1.9166173e-06 -4.6004905e-05 -1.1175797e-05 -3.9843544e-06
-4.8441593e-06 4.9268756e-06 5.3889844e-06 -5.6853623e-05 1.9317287e-05 -0.00024024525 5.6639423e-05 -5.4527277e-06
1.5422304e-06 7.305126e-07 4.1918014e-05 2.2200174e-06 3.2112057e-05 -1.9518018e-12 7.4764807e-06 4.4716136e-05
3.2676815e-13 8.604883e-06 -6.813026e-05 5.3901144e-06 -2.8977654e-05 -6.915222e-05 -1.8117997e-05 -8.749611e-05
-6.5814476e-07 -9.687354e-06 3.2155513e-06 -4.0523096e-06 -3.3326755e-06 -6.471264e-06 -3.769537e-06 -1.1250672e-06
-9.5301266e-07 3.099998e-05 -1.8840716e-05 2.4681305e-05 2.6291911e-05 -0.00010649035 -4.0084222e-05 4.7549827e-05
1.2510574e-06 4.7648214e-07 6.1885567e-06 -5.613796e-06 7.7198565e-06 2.171598e-14 -6.289827e-07 -4.950608e-07
-2.827123e-14 1.7751718e-05 -5.9569385e-05 4.032615e-05 8.715697e-06 -2.1170423e-05 -5.091152e-06 2.2601e-05
-9.188954e-06 1.4566148e-05 -1.9509753e-05 3.4930606e-05 -3.4935965e-06 -3.3974902e-05 -1.3892612e-06 -1.4530757e-06
-3.98594e-06 4.02196e-05 2.9683259e-05 -0.0002540198 6.0947473e-06 -0.00017008574 0.00021591668 -0.0004851793
-2.4591134e-07 -5.075832e-07 6.8388465e-05 9.781684e-06 1.8525092e-05 -1.1753942e-12 9.533616e-05 2.6884907e-05
4.1714596e-12 -1.8891952e-06 -2.9378025e-05 -0.00013110312 -4.965054e-05 -4.2825817e-05 8.141817e-05 -0.00018095768
-6.931263e-06 -3.1291034e-05 1.9252875e-06 7.0257133e-06 -9.851118e-06 -2.6566433e-05 9.735207e-06 -5.0060576e-06
-4.117953e-06 -3.0187011e-05 -0.000114652525 -7.120645e-05 8.39945e-05 -0.00023595261 -8.140773e-05 0.00015128273
1.4409505e-05 1.4691023e-05 -2.5985069e-06 1.3878775e-05 2.7484328e-05 -1.3161591e-12 5.4942342e-05 3.0130122e-05
2.4002187e-12 -8.0227466e-05 -0.000107606684 -2.5165044e-05 -8.22408e-05 -5.4818225e-05 -3.7754147e-05 5.9165836e-06
