logs/rsl_rl/reach_ur10/2025-06-29_12-07-40/model_0.pt (torch, 160711 bytes, 36 tensors)

std f4 [6]
1.0038078 1.0026418 1.006894 0.9931826 1.0024908 1.0035797
00000000: c67c 803f 9156 803f e7e1 803f 3741 7e3f
00000010: 9e51 803f 4d75 803f

actor.0.weight f4 [64, 25]
0.15145995 0.16033094 -0.053210124 0.18189079 -0.049646035 0.043745246 -0.0989446 0.123697825
0.1724111 -0.14775254 0.1738073 0.043816764 0.1446125 0.024148725 0.094356894 -0.03110704
0.16108675 0.026692946 -0.1002776 0.053169314 -0.09258118 -0.028854731 -0.08342127 0.13457528
-0.15089878 -0.095039584 -0.057832055 -0.12272409 0.017939448 -0.20043628 0.18672264 -0.17550343
0.15091696 0.038059767 -0.06715375 0.12514567 0.03382132 0.16053422 0.017696304 -0.06399248
0.052969582 -0.051871385 0.08340436 0.17619994 0.118978806 -0.088802576 0.11827142 0.039876953
0.09819544 -0.11770216 -0.1998523 -0.07012398 -0.1545749 0.1703686 0.055705052 0.087207444
0.05478043 -0.005559721 0.16305792 -0.1421995 0.01047791 -0.13605222 0.0622939 -0.075518884
0.061127245 -0.041293275 0.16007073 -0.11816534 -0.11347193 -0.12446947 0.17781174 0.06972125
0.19369137 -0.1655666 -0.19816142 -0.16300036 -0.13629909 0.07883531 0.06764834 0.16547094
-0.110596746 -0.1403895 0.10870484 -0.080901764 0.12045147 -0.049538936 0.11778209 -0.1515959
-0.10825973 0.0625648 0.043332655 -0.046394367 0.12026503 0.13136445 -0.14103232 -0.11088198
0.18009289 -0.066347025 -0.072727345 -0.19292177 -0.11782595 0.05164116 -0.024651982 -0.14638022
0.0069164666 -0.13976607 -0.17019735 -0.10326304 -0.17557599 -0.13023762 0.19655007 0.03881119
0.064557046 -0.18912847 -0.12863247 -0.066972785 0.033759978 -0.17638582 -0.08866038 -0.12145592
0.006676862 -0.07396392 -0.008602679 -0.14120507 -0.13595715 -0.11488683 -0.06834301 -0.1564359
0.16708592 -0.04282985 0.17392877 0.06987159 -0.16279517 0.13105749 -0.05162803 -0.07347906
-0.1638691 -0.201862 0.06229782 -0.046412386 0.07580412 -0.16959906 0.14642535 -0.1413444
-0.026536837 0.042320527 0.09575446 0.16414683 0.17962389 -0.15523 0.0505069 -0.08349326
-0.019827534 -0.14735487 0.18446484 -0.14501409 0.10539955 0.06482266 0.06913594 -0.10756388
0.17890455 0.045695346 0.028079066 -0.17980865 0.085703194 -0.028433738 -0.09715471 0.1733597
0.050119612 -0.10958179 -0.096389346 -0.0056811925 0.11813911 -0.05685701 -0.11288806 -0.06925939
-0.14193526 0.06728228 0.15273948 -0.18718116 0.0441497 0.09661123 0.042165995 -0.07218315
0.10330531 0.10596466 0.074016064 -0.035238303 -0.051423606 0.019753963 -0.036925945 -0.05476704
0.12624624 0.16704677 -0.024150984 -0.045552697 0.004986194 -0.011858203 0.05119878 0.055419706
-0.18872866 -0.06651101 0.16677806 0.07998025 -0.00601868 -0.12805475 -0.12792458 -0.17962931
-0.0643348 0.067019306 0.12114908 0.08993222 -0.1734221 -0.12788878 -0.030556962 0.19490395
0.032942075 -0.050360132 0.07873249 -0.08038624 -0.13750082 0.14753783 -0.09022388 -0.045563046
-0.20597887 0.13588548 0.15180713 0.08048941 -0.13626301 -0.19759934 -0.15721633 0.15442954
0.10058156 0.16252656 0.10439819 0.045393705 0.0039004257 -0.14492661 -0.16739562 -0.18353923
0.08063058 -0.09826343 -0.041492328 -0.11503123 -0.034553524 -0.13799709 -0.13719839 0.06375995
-0.06469489 0.1247541 -0.07018604 -0.14897317 -0.04085005 -0.10270812 -0.06361012 -0.19277613
00000000: 5118 1b3e cb2d 243e dcf2 59bd 9441 3a3e
00000010: a459 4bbd 372e 333d 77a3 cabd 4955 fd3d
00000020: 898c 303e 714c 17be 8afa 313e 3579 333d
00000030: 4d15 143e 8cd3 c53c 303e c13d 31d4 febc
00000040: edf3 243e 2aab da3c 585e cdbd 11c8 593d
00000050: 349b bdbd c260 ecbc c5d8 aabd 1ace 093e
00000060: 3685 1abe 1da4 c2bd 4ee1 6cbd c556 fbbd
00000070: c0f5 923c 2b3f 4dbe 3834 3f3e 2cb7 33be
00000080: fa89 1a3e 8fe4 1b3d e887 89bd 3026 003e
00000090: 3988 0a3d 1563 243e d7f7 903c 7d0e 83bd
000000a0: a2f6 583d 1777 54bd e8cf aa3d c26d 343e
000000b0: 29ab f33d 20de b5bd 4938 f23d 0456 233d
000000c0: b11a c93d d40d f1bd 15a6 4cbe 299d 8fbd
000000d0: e248 1ebe 1b75 2e3e fb2a 643d d199 b23d
000000e0: 7261 603d 522e b6bb a8f8 263e bf9c 11be
000000f0: 8aab 2b3c 4651 0bbe e327 7f3d a5a9 9abd
00000100: 9060 7a3d 2323 29bd 95e9 233e ab00 f2bd
00000110: f963 e8bd d9e9 febd 4814 363e 04ca 8e3d
00000120: 0857 463e 4a8a 29be d4ea 4abe 91e9 26be
00000130: fd91 0bbe 6874 a13d 368b 8a3d 3771 293e
00000140: 8c80 e2bd 44c2 0fbe a5a0 de3d d3af a5bd
00000150: 43af f63d 57e9 4abd bd37 f13d f53b 1bbe
00000160: 47b7 ddbd f921 803d 957d 313d 0508 3ebd
00000170: 834d f63d 6784 063e c76a 10be 1716 e3bd
00000180: 456a 383e f3e0 87bd 13f2 94bd 498d 45be
00000190: bb4e f1bd ae85 533d f4f2 c9bc b2e4 15be
000001a0: 87a3 e23b d61e 0fbe 3748 2ebe 937b d3bd
000001b0: 31ca 33be 035d 05be 6c44 493e 7bf8 1e3d
000001c0: 7c36 843d e5aa 41be 3bb8 03be 0729 89bd
000001d0: e747 0a3d 7c9e 34be 9393 b5bd e2bd f8bd
000001e0: 94c9 da3b 657a 97bd 40f2 0cbc 1098 10be
000001f0: 5a38 0bbe c949 ebbd 6cf7 8bbd bc30 20be
00000200: 9218 2b3e 5a6e 2fbd 621a 323e d618 8f3d
00000210: c7b3 26be ef33 063e ea77 53bd 307c 96bd
00000220: 4dcd 27be eab4 4ebe 002c 7f3d ea1a 3ebd
00000230: 313f 9b3d 60ab 2dbe 87f0 153e 96bc 10be
00000240: c863 d9bc 4a58 2d3d ea1a c43d 1b16 283e
00000250: 53ef 373e 9df4 1ebe 53e0 4e3d 84fe aabd
00000260: 5a6d a2bc 32e4 16be 5ae4 3c3e 937e 14be
00000270: b8db d73d bec1 843d 2597 8d3d 744a dcbd
00000280: c132 373e 0b2b 3b3d 1206 e63c c21f 38be
00000290: 2885 af3d dfed e8bc 0cf9 c6bd 3585 313e
000002a0: 394a 4d3d 6b6c e0bd c767 c5bd 4c29 babb
000002b0: ebf2 f13d e5e2 68bd db31 e7bd ded7 8dbd
000002c0: 7a57 11be 4bcb 893d bd67 1c3e 6bac 3fbe
000002d0: 51d6 343d 1cdc c53d 40b6 2c3d c2d4 93bd
000002e0: bc91 d33d 0004 d93d bc95 973d 0a56 10bd
000002f0: 8fa1 52bd 10d3 a13c a93f 17bd 6753 60bd
00000300: b246 013e 4f0e 2b3e 49d8 c5bc 7795 3abd
00000310: 3a63 a33b e948 42bc d0b5 513d c6ff 623d
00000320: 1642 41be ed36 88bd dec7 2a3e afcc a33d
00000330: 5938 c5bb c920 03be a9fe 02be bff0 37be
00000340: f7c1 83bd 6b41 893d 021d f83d 622e b83d
00000350: 9095 31be 47f5 02be 9852 fabc e794 473e
00000360: 45ee 063d 6d46 4ebd 803e a13d 8aa1 a4bd
00000370: 04cd 0cbe 2814 173e 4cc7 b8bd 51a0 3abd
00000380: 20ec 52be 9025 0b3e 5473 1b3e a2d7 a43d
00000390: 8888 0bbe 7b57 4abe 51fd 20be c722 1e3e
000003a0: b4fd cd3d 5d6d 263e b8ce d53d c0ee 393d
000003b0: 499e 7f3b a467 14be c269 2bbe b5f1 3bbe
000003c0: a521 a53d 563e c9bd dcf3 29bd 7e95 ebbd
000003d0: ff87 0dbd 1c4f 0dbe bc7d 0cbe 9494 823d
000003e0: c17e 84bd 147f ff3d b3bd 8fbd 6c8c 18be
000003f0: 6252 27bd a358 d2bd 0646 82bd 1b67 45be

actor.0.bias f4 [64]
-0.18111582 0.099372245 -0.17932639 -0.021285674 0.014667201 0.13947047 -0.07051049 0.05698818
0.03366371 0.11816537 0.010307411 0.074021526 -0.119029246 -0.13613205 0.17937505 -0.14784
-0.031067055 -0.03040072 0.195605 -0.04342994 -0.15644836 -0.05563528 0.10061461 0.079338916
0.16547197 -0.041018505 0.097458236 -0.18986745 0.07551907 0.0914408 0.13208897 -0.11475178
-0.053784903 0.0480999 -0.14392985 -0.16092259 -0.19490792 0.011766599 0.12574978 0.04810168
0.013085518 0.066745915 -0.123670265 0.020184938 -0.048233625 -0.09789909 0.1694514 -0.15595533
0.025434488 -0.17801635 -0.003911019 -0.092343 0.06319441 -0.112184435 0.12863739 -0.16684422
0.12086804 -0.14939974 0.10678963 -0.08696086 -0.005467141 -0.035067026 0.134403 0.06193626
00000000: 6d76 39be ad83 cb3d 56a1 37be 4b5f aebc
00000010: b34e 703c 59d1 0e3e ce67 90bd 706c 693d
00000020: f5e2 093d af00 f23d 6ae0 283c 9998 973d
00000030: 9bc5 f3bd 3366 0bbe 18ae 373e 5e63 17be
00000040: 5680 febc ee0a f9bc ad4c 483e 98e3 31bd
00000050: 0034 20be d2e1 63bd 080f ce3d 717c a23d
00000060: 7c71 293e 0503 28bd 2f98 c73d 9d6c 42be
00000070: bea9 9a3d 5045 bb3d 5542 073e fb02 ebbd
00000080: 8f4d 5cbd 6704 453d 5962 13be e4c8 24be
00000090: f195 47be b1c8 403c 8dc4 003e 4406 453d
000000a0: a464 563c 15b2 883d d646 fdbd e25a a53c
000000b0: 9f90 45bd 517f c8bd ab84 2d3e c1b2 1fbe
000000c0: fd5b d03c eb49 36be 0128 80bb 541e bdbd
000000d0: 126c 813d f4c0 e5bd 85b9 033e 36d9 2abe
000000e0: aa89 f73d 3ffc 18be 86b4 da3d 8918 b2bd
000000f0: b425 b3bb 71a2 0fbd f1a0 093e e0b0 7d3d

actor.2.weight f4 [64, 64]
-0.1057892 0.017420739 -0.08703361 0.09474463 0.024016561 -0.03269379 -0.06239649 0.04404861
-0.07351877 0.057941146 0.06503021 0.081852384 0.034789454 -0.109574944 0.08310047 -0.036529075
-0.03442236 -0.012709868 0.09062003 0.097017854 0.01986442 0.054724038 -0.1134929 0.0068540084
-0.11445184 0.043988578 -0.09201601 -0.052309357 0.08979037 0.11685417 -0.078400165 -0.066612825
0.01613286 0.053603567 -0.02515181 -0.04486338 -0.0778224 0.0558062 0.12176407 -0.059346795
0.06531386 0.06291079 0.099633925 -0.012114513 0.0033040675 0.09322932 0.080110244 0.12740503
-0.039373767 0.043435853 0.0889985 -0.0831922 0.030957606 -0.027125511 0.07974198 -0.05609148
0.006127769 0.07593618 -0.11340728 -0.10248254 -0.0660928 0.077464856 0.08195371 -0.079885304
0.026625052 -0.06364528 -0.056297243 0.1106809 0.0635042 -0.032768622 0.022626674 0.023697032
0.02699433 -0.048820127 -0.07492672 0.08341011 0.017697599 0.044271175 -0.04772842 0.060772054
0.09063473 0.07743956 0.041678652 0.12626816 -0.0008216445 0.025128752 0.117313035 0.1221546
-0.05571947 0.113981515 0.043942295 -0.01469717 0.112734124 -0.0656061 0.08238526 0.12346571
-0.07845594 -0.07244553 -0.12567373 -0.024133286 -0.11253055 -0.041657463 0.034078926 0.09082067
0.068670236 0.0733266 0.0576727 -0.076790005 -0.105132 -0.0010106007 0.11990471 -0.0013802422
-0.012599533 -0.092321865 -0.05393289 -0.093590066 0.09954508 -0.013587343 -0.10759779 0.013421886
0.010374613 -0.007594921 0.0533429 0.065385096 -0.11617392 -0.096360855 -0.001381292 -0.12041049
-0.11145595 0.11811636 -0.0087334765 -0.05960862 -0.042048264 -0.09457342 0.10003038 -0.028208433
-0.065908715 -0.09488159 0.07243301 -0.014987116 -0.012432214 -0.03317927 -0.061943248 0.0279825
0.097618096 -0.07006186 0.006977351 -0.0951165 -0.057828784 0.11470277 -0.0004943294 0.12743646
-0.018728828 -0.06439261 -0.07454782 0.10969176 -0.095539965 0.07065118 0.0315933 0.03414905
0.07211967 -0.031779893 0.07911833 -0.10016092 -0.046652637 0.09123226 0.038320083 -0.014215886
-0.026773082 -0.07425464 0.07526137 -0.004928161 -0.005125097 0.028637568 0.09165479 -0.06590564
-0.039709706 0.08307143 0.071402036 -0.06812075 -0.122374676 0.024812644 0.064010575 0.033835553
0.08853726 -0.09697033 0.06499344 -0.08019433 0.06987415 0.08967764 0.03689076 0.10284655
-0.08390075 -0.11677787 -0.1183248 0.07697406 0.03818161 -0.08920973 0.05573874 0.11300224
-0.12550886 0.088349536 0.019328203 0.006656299 0.10945127 0.11394267 0.055046633 0.09627449
0.05002619 0.015874138 -0.108504646 0.025258908 -0.09319672 0.0372468 0.01931719 -0.0019874636
-0.08749828 -0.08080881 0.09202113 0.06661521 0.06341279 -0.03825275 -0.02255177 -0.03068631
0.08670393 -0.059795953 0.07923434 0.08324487 -0.11213984 0.0042791534 -0.020235162 -0.069950536
0.04876077 -0.018312909 0.111494236 -0.08090372 0.057712786 -0.10795069 -0.063259006 0.005224277
0.09777455 0.06734293 -0.101760395 0.016361468 -0.07912905 0.005541706 -0.10244438 -0.03814242
0.088710055 -0.1142032 -0.11909437 0.020640865 0.020437919 -0.019165369 0.11189001 -0.07951498
00000000: 02a8 d8bd f0b5 8e3c ad3e b2bd 7909 c23d
00000010: 61be c43c ece9 05bd 7693 7fbd 516c 343d
00000020: 0291 96bd b253 6d3d 8f2e 853d 39a2 a73d
00000030: 637f 0e3d d468 e0bd 9430 aa3d 839f 15bd
00000040: 76fe 0cbd 0d3d 50bc ff96 b93d 4cb1 c63d
00000050: b5ba a23c 5026 603d f76e e8bd 9797 e03b
00000060: ba65 eabd 5e2d 343d e472 bcbd 5642 56bd
00000070: 03e4 b73d 3d51 ef3d 4490 a0bd 4e6c 88bd
00000080: 0f29 843c 6a8f 5b3d 2b0b cebc aac2 37bd
00000090: 5a61 9fbd 0b95 643d 715f f93d a015 73bd
000000a0: 46c3 853d 5fd7 803d df0c cc3d f37b 46bc
000000b0: 0e89 583b 04ef be3d d710 a43d 7776 023e
000000c0: 6346 21bd cbe9 313d d844 b63d ac60 aabd
000000d0: ce9a fd3c 5236 debc c34f a33d 2ec0 65bd
000000e0: 74cb c83b 6e84 9b3d 1342 e8bd 5ee2 d1bd
000000f0: a95b 87bd e5a5 9e3d 59d7 a73d e89a a3bd
00000100: c81c da3c 7558 82bd f097 66bd abac e23d
00000110: 7d0e 823d 6438 06bd 935b b93c 4720 c23c
00000120: 3723 dd3c 9df7 47bd 2e73 99bd ebd2 aa3d
00000130: 8efa 903c b155 353d e07e 43bd 1eec 783d
00000140: b49e b93d a298 9e3d 3cb7 2a3d 714c 013e
00000150: a163 57ba d0da cd3c d141 f03d 312c fa3d
00000160: 193a 64bd 246f e93d d6fc 333d 66cc 70bc
00000170: 26e1 e63d 7e5c 86bd 9ab9 a83d 97db fc3d
00000180: 82ad a0bd 525e 94bd 9db0 00be 2bb3 c5bc
00000190: 6b76 e6bd 04a1 2abd 5896 0b3d 3000 ba3d
000001a0: fba2 8c3d 422c 963d 363a 6c3d 1444 9dbd
000001b0: 724f d7bd 2276 84ba 9a90 f53d 3ee9 b4ba
000001c0: 466e 4ebc 3f13 bdbd bce8 5cbd 26ac bfbd
000001d0: 4ade cb3d 729d 5ebc 3b5c dcbd 78e7 5b3c
000001e0: 48fa 293c d1de f8bb 167e 5a3d 9fe8 853d
000001f0: 98ec edbd d758 c5bd 780c b5ba c699 f6bd
00000200: 0443 e4bd fde6 f13d db16 0fbc 2b28 74bd
00000210: cd3a 2cbd b6af c1bd badc cc3d 5f15 e7bc
00000220: 26fb 86bd 4751 c2bd c257 943d 858c 75bc
00000230: 7cb0 4bbc fce6 07bd 34b8 7dbd 8e3b e53c
00000240: ffeb c73d 987c 8fbd 43a2 e43b 71cc c2bd
00000250: e0dd 6cbd 49e9 ea3d e295 01ba b47e 023e
00000260: 336d 99bc 46e0 83bd 87ac 98bd 13a6 e03d
00000270: 75aa c3bd 91b1 903d fa67 013d e0df 0b3d
00000280: 7ab3 933d a22b 02bd ca08 a23d 2b21 cdbd
00000290: d616 3fbd fbd7 ba3d 85f5 1c3d bfe9 68bc
000002a0: 3953 dbbc d112 98bd a222 9a3d 697c a1bb
000002b0: 6ef0 a7bb 5599 ea3c 82b5 bb3d 89f9 86bd
000002c0: a5a6 22bd 5b21 aa3d 3b3b 923d e482 8bbd
000002d0: 939f fabd e343 cb3c fa17 833d 2697 0a3d
000002e0: 0653 b53d 6198 c6bd 481b 853d ed3c a4bd
000002f0: 2e1a 8f3d e9a8 b73d c41a 173d 36a1 d23d
00000300: 28d4 abbd 3c29 efbd 4654 f2bd 93a4 9d3d
00000310: 5264 1c3d 97b3 b6bd 4e4e 643d b86d e73d
00000320: 6585 00be 9af0 b43d 2e56 9e3c 151d da3b
00000330: fd27 e03d c65a e93d 9478 613d 8f2b c53d
00000340: 43e8 4c3d 7b0a 823c af37 debd c5eb ce3c
00000350: ecdd bebd 1a90 183d 153f 9e3c 1b40 02bb
00000360: 4c32 b3bd 177f a5bd 9375 bc3d 8e6d 883d
00000370: 91de 813d eaae 1cbd 7dbe b8bc db61 fbbc
00000380: d491 b13d 9aec 74bd 9d45 a23d 497c aa3d
00000390: 93a9 e5bd 2438 8c3b 36c4 a5bc 3a42 8fbd
000003a0: 60b9 473d f404 96bc 1757 e43d d9b0 a5bd
000003b0: 3e64 6c3d 4015 ddbd f08d 81bd 6930 ab3b
000003c0: 063e c83d 17eb 893d c167 d0bd 7c08 863c
000003d0: 690e a2bd 3397 b53b 5cce d1bd 3a3b 1cbd
000003e0: 9ead b53d 5ee3 e9bd c0e7 f3bd 0817 a93c
000003f0: 6c6d a73c b100 9dbc 9726 e53d c0d8 a2bd

actor.2.bias f4 [64]
0.0946764 -0.11853822 0.099524476 -0.02610475 -0.1256913 0.08065513 -0.06548194 -0.055869207
0.040160768 0.021598909 0.07902767 -0.08628222 0.06732809 0.06440413 0.07810618 -0.04091968
0.021194449 0.03677035 0.11659603 -0.07586855 -0.11544778 -0.11166385 0.01417997 -0.09650052
-0.023311293 -0.057493657 0.023282368 -0.08668869 0.08026143 -0.124351874 -0.06867207 0.030712625
-0.1279058 0.033131383 -0.045661487 -0.06394083 0.08930618 -0.04192 0.02809285 -0.050723244
0.059731785 0.11483549 0.12282157 -0.076254025 -0.12428516 -0.090175994 0.032175124 0.04652969
0.061351713 0.054152906 0.12546602 -0.09674545 -0.10146982 -0.043360837 0.10069935 -0.09473502
0.09827216 0.021551356 0.08354169 0.12595403 0.12106889 0.12154292 -0.031913992 -0.05402354
00000000: b3e5 c13d 2bc4 f2bd 7dd3 cb3d a1d9 d5bc
00000010: 38b5 00be 842e a53d 651b 86bd 1cd7 64bd
00000020: 9e7f 243d 32f0 b03c 42d9 a13d bcb4 b0bd
00000030: 4fe3 893d 50e6 833d 22f6 9f3d 659b 27bd
00000040: fb9f ad3c 829c 163d e6c9 ee3d f860 9bbd
00000050: e36f ecbd 04b0 e4bd 1b53 683c 11a2 c5bd
00000060: 53f7 bebc 787e 6bbd aaba be3c d789 b1bd
00000070: 1b60 a43d 32ac febd f1a3 8cbd 0b99 fb3c
00000080: bdf9 02be c6b4 073d 8a07 3bbd 69f3 82bd
00000090: 29e6 b63d 4eb4 2bbd fa22 e63c 2dc3 4fbd
000000a0: 51a9 743d df2e eb3d e089 fb3d 122b 9cbd
000000b0: 3889 febd 31ae b8bd 10ca 033d eb95 3e3d
000000c0: ef4b 7b3d 70cf 5d3d 2a7a 003e 7a22 c6bd
000000d0: 69cf cfbd 229b 31bd 763b ce3d 6f04 c2bd
000000e0: ea42 c93d 788c b03c e817 ab3d 18fa 003e
000000f0: f7f2 f73d 7feb f83d 3fb8 02bd ca47 5dbd

actor.4.weight f4 [6, 64]
0.052444212 0.11003207 0.0017173871 -0.030373866 -0.019561289 -0.047093514 0.05845447 -0.12181148
0.10869068 -0.0017552531 -0.07987302 -0.04311876 -0.07930496 -0.10922481 0.010904292 -0.026639877
-0.06036489 -0.018333089 -0.010526784 0.050410178 -0.100062676 -0.009293974 -0.0027418397 -0.10666515
0.11303779 -0.0662524 0.0979612 0.09428383 0.0025269396 0.094112635 -0.09454892 -0.011214371
-0.1031474 -0.07253953 0.033707038 0.09364215 -0.07333194 -0.05312877 -0.07063577 -0.017632978
-0.099624515 -0.0981526 -0.027997188 0.12113143 0.022338502 -0.05059284 0.08566365 0.08732265
0.09117872 -0.0039079515 -0.015021008 0.08022185 0.06728254 0.094497696 0.091409385 -0.03558224
0.10809241 0.023046454 0.12135948 0.1260531 0.10341373 0.0778152 0.09458887 -0.059338506
-0.05161907 -0.0343181 -0.064448416 0.09120882 0.011992266 -0.035909962 -0.056487188 -0.11438764
0.006145856 0.10716737 0.08509269 0.09852076 0.08520726 0.056132846 -0.008353042 -0.09736473
0.09011874 -0.095284544 -0.080065794 0.054419734 0.0696051 -0.06816745 0.07843013 -0.111528106
0.03236463 0.060544025 0.022623368 -0.067608185 -0.09075233 0.095310636 0.022224255 -0.050999388
0.12128531 -0.027058695 -0.01786822 0.033123214 0.10296767 -0.05079273 0.0043659816 -0.054680165
-0.059334688 -0.018918907 -0.0043441737 0.06259387 -0.09103015 0.06840636 0.09827078 -0.014705999
-0.018081296 0.026268018 -0.11522726 0.09606027 -0.020839103 0.006594908 0.055706993 0.052137345
-0.06214875 -0.090922356 -0.11459776 -0.10311326 -0.026486991 -0.10150286 -0.006870863 -0.06534839
0.076339655 0.0923638 0.110175714 -0.08431589 -0.09311914 0.042256556 -0.033928726 0.09984783
-0.11561554 0.11420421 -0.08549963 -0.10194807 -0.010911635 -0.053673357 -0.07837318 0.068354934
0.097744726 0.06857974 0.016370282 -0.017222155 -0.064779006 0.11697397 -0.06603452 -0.10339974
0.106645904 -0.010218573 0.08173019 -0.04158467 0.10171937 -0.09113181 0.0700553 0.098938204
-0.005234269 0.08376939 0.004187752 -0.11861049 0.057495475 -0.094580054 0.0061092614 -0.10913465
-0.060664266 -0.035651762 -0.04911583 -0.12565663 -0.069562376 -0.12168874 -0.10316781 -0.124488
-0.07480492 -0.02819069 0.10897183 -0.08609935 -0.09254454 -0.10162547 0.117161416 -0.015848285
-0.0349623 0.06925446 -0.07054631 -0.031374715 0.11524315 0.065003805 -0.094385974 -0.03220352
0.019293204 0.042100996 -0.055227224 0.084519625 0.0035136822 -0.106925026 0.037457302 -0.11492217
0.013919035 -0.12565053 -0.031511884 -0.029246455 -0.11340214 -0.039429594 0.011279674 -0.07628835
0.018232483 0.06822057 0.014945911 -0.12769318 0.0017969995 -0.058936253 0.036853544 -0.1025998
-0.090618454 -0.007846711 0.06574437 -0.035513036 -0.003061668 -0.01554052 -0.09299579 -0.009938131
-0.0028756505 0.020704797 0.049261816 0.040377054 0.06824593 -0.027367502 -0.05330119 0.10774326
0.09896694 0.06273135 0.0970939 0.06377642 0.11241514 0.10284823 -0.10427691 -0.12097288
-0.06236165 0.1016059 0.11262925 0.0042685797 -0.09760781 -0.051776662 0.062503986 0.119287096
0.023597052 -0.078031465 0.11763673 0.11295747 -0.056522984 -0.06066272 0.06573902 -0.09441858
00000000: becf 563d 7e58 e13d f319 e13a 9dd2 f8bc
00000010: ff3e a0bc 21e5 40bd f46d 6f3d 4c78 f9bd
00000020: 3899 de3d 8510 e6ba 7794 a3bd 4c9d 30bd
00000030: a46a a2bd 42b1 dfbd eaa7 323c df3b dabc
00000040: 2d41 77bd 462f 96bc 8878 2cbc e77a 4e3d
00000050: a9ed ccbd c145 18bc 70b0 33bb 4273 dabd
00000060: 5b80 e73d 57af 87bd e29f c83d e117 c13d
00000070: 039b 253b 20be c03d dda2 c1bd 7bbc 37bc
00000080: f23e d3bd 9b8f 94bd 6410 0a3d 75c7 bf3d
00000090: 0e2f 96bd 8e9d 59bd 7da9 90bd 0973 90bc
000000a0: f007 ccbd 3b04 c9bd 5c5a e5bc c113 f83d
000000b0: 3cff b63c 703a 4fbd 6c70 af3d 38d6 b23d
000000c0: e9bb ba3d 460e 80bb ad1a 76bc 5a4b a43d
000000d0: 6ecb 893d 0288 c13d d834 bb3d afbe 11bd
000000e0: 8e5f dd3d ebcb bc3c 528b f83d 1014 013e
000000f0: 94ca d33d 935d 9f3d cfb7 c13d ef0c 73bd
00000100: 856e 53bd 2391 0cbd 88fd 83bd b1cb ba3d
00000110: 367b 443c 5316 13bd 1c5f 67bd 1144 eabd
00000120: 2d63 c93b 917a db3d 1445 ae3d 41c5 c93d
00000130: 2581 ae3d 8eeb 653d 33db 08bc 2967 c7bd
00000140: 2d90 b83d 8b24 c3bd 89f9 a3bd 3ae7 5e3d
00000150: 1e8d 8e3d 609b 8bbd fa9f a03d d968 e4bd
00000160: c690 043d 03fd 773d a454 b93c 2976 8abd
00000170: 5cdc b9bd 3932 c33d a40f b63c bce4 50bd
00000180: 6f64 f83d 32aa ddbc 6060 92bc 35ac 073d
00000190: b7e0 d23d 0a0c 50bd 8210 8f3b 4ff8 5fbd
000001a0: ee08 73bd d3fb 9abc 9259 8ebb 3731 803d
000001b0: 046e babd a218 8c3d 3142 c93d 6ef1 70bc
000001c0: 3a1f 94bc 0730 d73c 45fc ebbd 3fbb c43d
000001d0: c4b6 aabc 191a d83b 042d 643d f88d 553d
000001e0: b08f 7ebd 8035 babd 3bb2 eabd 0b2d d3bd
000001f0: 3ffb d8bc bbe0 cfbd fa24 e1bb 60d5 85bd
00000200: f757 9c3d 3b29 bd3d cea3 e13d cfad acbd
00000210: 3fb5 bebd 3615 2d3d d9f8 0abd 057d cc3d
00000220: d7c7 ecbd e6e3 e93d 6e1a afbd 26ca d0bd
00000230: b7c6 32bc 98d8 5bbd 1e82 a0bd acfd 8b3d
00000240: 632e c83d 8973 8c3d f81a 863c 7a15 8dbc
00000250: dbaa 84bd 0c90 ef3d 1b3d 87bd 3ec3 d3bd
00000260: 2b69 da3d cd6b 27bc 2862 a73d b054 2abd
00000270: 3f52 d03d 50a3 babd 2779 8f3d 1da0 ca3d
00000280: 3b84 abbb 498f ab3d 6939 893b 0eea f2bd
00000290: 6080 6b3d 30b3 c1bd 3330 c83b fd81 dfbd
000002a0: 187b 78bd 9507 12bd ae2d 49bd 22ac 00be
000002b0: b876 8ebd f237 f9bd a549 d3bd 91f3 febd
000002c0: 5233 99bd 29f0 e6bc 9f2c df3d db54 b0bd
000002d0: fe87 bdbd 0421 d0bd 53f2 ef3d 43d4 81bc
000002e0: a134 0fbd 48d5 8d3d 957a 90bd c682 00bd
000002f0: 9a04 ec3d b720 853d 6f4d c1bd d7e7 03bd
00000300: c80c 9e3c 1872 2c3d f135 62bd a018 ad3d
00000310: ce45 663b 82fb dabd d46c 193d 515c ebbd
00000320: aa0c 643c 88aa 00be 9b12 01bd 4396 efbc
00000330: 623f e8bd ed80 21bd 62ce 383c 113d 9cbd
00000340: 4a5c 953c 3ab7 8b3d b2df 743c 00c2 02be
00000350: 4c89 eb3a 2467 71bd bef3 163d d81f d2bd
00000360: 2b96 b9bd 7e8f 00bc fca4 863d 1e76 11bd
00000370: 44a6 48bb aa9d 7ebc 9474 bebd 8bd3 22bc
00000380: 6975 3cbb 1b9d a93c c2c6 493d 6962 253d
00000390: 86c4 8b3d d031 e0bc 5952 5abd 80a8 dc3d
000003a0: 2eaf ca3d 4b79 803d 2bd9 c63d 369d 823d
000003b0: e939 e63d 18a2 d23d 228f d5bd a1c0 f7bd
000003c0: ee6e 7fbd c116 d03d 2aaa e63d 71df 8b3b
000003d0: 9ae6 c7bd c413 54bd 1702 803d cb4c f43d
000003e0: 9b4e c13c f6ce 9fbd 87eb f03d 3f56 e73d
000003f0: a584 67bd 7979 78bd 2ea2 863d 875e c1bd

actor.4.bias f4 [6]
-0.06732617 -0.0730615 -0.06773307 -0.057882983 -0.07537289 -0.06675177
00000000: 4ee2 89bd 45a1 95bd a3b7 8abd b516 6dbd
00000010: 1a5d 9abd 27b5 88bd

critic.0.weight f4 [64, 25]
-0.08172781 -0.17723039 0.16058448 0.060036205 -0.20419028 -0.20682673 -0.10711328 0.07696245
0.18503192 -0.03528195 0.12027801 -0.112021826 -0.03751864 -0.02653437 -0.19319095 0.004085013
0.053033307 0.12494369 -0.1548494 -0.06726286 0.016417032 0.022152474 0.028376335 -0.15056315
0.15097879 -0.17250979 -0.0757592 0.09589719 -0.04346387 -0.09186438 -0.19038439 0.14551494
-0.002765999 0.09329755 0.037184004 -0.15148222 -0.06587935 0.1376033 -0.10635404 -0.09545755
0.1052108 -0.08812189 0.028183648 -0.095787264 0.068283595 0.015381738 -0.16068257 -0.1455638
0.07196562 -0.060645293 0.10354791 0.015571763 -0.06336998 -0.040687766 -0.088573635 0.09309584
0.1532093 -0.010731639 -0.12371282 0.13508183 0.16845964 0.13082194 0.0012491061 0.050920717
0.014461508 -0.07128044 -0.19545414 -0.01976134 0.083919674 0.11035641 0.051089786 0.09599999
0.11709929 -0.03373982 0.12470047 0.0041080583 -0.07207023 -0.075960815 -0.11006835 -0.15664482
0.053377017 0.18500714 0.029597998 0.024509365 -0.07036976 -0.08085964 -0.058195006 0.06544925
0.026207348 -0.06585667 0.036533877 -0.031670418 -0.016278371 0.13854016 -0.07454904 0.18328775
-0.1095602 0.19114055 0.07354439 0.08489153 -0.0376002 -0.060661644 -0.14912723 -0.18516524
0.14649937 0.20105053 0.06332385 -0.077121414 0.040882234 -0.0021743039 -0.17530794 -0.15557034
0.06446096 -0.06653717 -0.05071832 -0.124892145 0.08600415 -0.10523315 -0.061672688 0.11315068
0.18338642 0.17601869 0.084974125 0.0065766396 0.15506224 0.1841312 0.08369722 0.053835563
0.05430973 0.024047092 0.13883182 0.06438545 -0.16551143 -0.122554824 -0.17571282 -0.0631801
0.015712427 -0.09027876 -0.18664055 -0.13478006 0.07999685 -0.017695656 -0.038651537 0.035987508
-0.035682578 -0.11702931 -0.09485909 -0.07511507 -0.18901949 -0.17871551 -0.06919352 0.06753909
0.19097996 0.00090634875 0.13080846 0.07177446 -0.15481056 -0.09423358 -0.06071585 -0.15795295
0.023526365 0.053403206 -0.1624827 -0.045955554 -0.18021752 0.19322416 0.11527566 -0.08138368
0.17495464 -0.11981996 0.16153108 -0.083046615 0.06509168 0.13425124 0.09938657 0.040175036
-0.018815633 0.0050461506 0.16481918 -0.0702285 -0.07203759 0.023709886 -0.09947098 -0.07207652
0.011315386 0.15226568 0.059806567 -0.11962272 0.12084575 -0.07104361 0.055015758 0.014037056
0.14627479 -0.046930905 -0.08936118 -0.039315723 0.003353926 -0.100147896 0.13862158 -0.1124282
0.040438633 -0.15973812 -0.025968216 -0.03629937 -0.076507926 0.11213277 -0.17259729 0.020476395
-0.020984288 -0.099904716 0.15322058 0.12985073 0.05535405 -0.0048570004 0.10947542 -0.091806985
-0.16169067 0.18796442 -0.07592445 0.046764076 -0.005023985 0.16698758 0.20401652 -0.13653302
0.0023029803 -0.15767801 0.12596716 0.18646869 -0.07045694 0.03874356 -0.039123606 -0.040763732
0.16467479 -0.19150029 -0.019690875 -0.0035662162 -0.17060202 0.0768581 0.13689366 -0.16439168
0.0720128 -0.020563193 0.18200696 -0.18085057 0.17428933 -0.07226927 0.16321222 -0.09455513
0.03264896 0.05261095 0.11553262 0.09960237 0.11531476 -0.048455052 -0.16066778 -0.004726507
00000000: e960 a7bd e27b 35be 4270 243e 86e8 753d
00000010: 4217 51be 63ca 53be 355e dbbd 7d9e 9d3d
00000020: 0279 3d3e ce83 10bd 5154 f63d b36b e5bd
00000030: 25ad 19bd 9b5e d9bc d9d3 45be 93db 853b
00000040: 7439 593d 7ae2 ff3d d790 1ebe 1cc1 89bd
00000050: 037d 863c 1b79 b53c 7d75 e83c 3a2d 1abe
00000060: 2f9a 1a3e 68a6 30be a427 9bbd bf65 c43d
00000070: 2c07 32bd 6423 bcbd 20f4 42be de01 153e
00000080: c345 35bb c912 bf3d 414e 183d 281e 1bbe
00000090: c1eb 86bd e1e7 0c3e 26d0 d9bd 3f7f c3bd
000000a0: c378 d73d 4079 b4bd 65e1 e63c 1d2c c4bd
000000b0: 45d8 8b3d af03 7c3c f989 24be ad0e 15be
000000c0: b662 933d 3367 78bd ed10 d43d b520 7f3c
000000d0: 1fc8 81bd 37a8 26bd 1866 b5bd 08a9 be3d
000000e0: e6e2 1c3e c2d3 2fbc 265d fdbd e452 0a3e
000000f0: af80 2c3e 30f6 053e 0cb9 a33a 3e92 503d
00000100: f6ef 6c3c 7bfb 91bd 2125 48be 89e2 a1bc
00000110: 14de ab3d 8b02 e23d 8643 513d a59b c43d
00000120: c1d1 ef3d c432 0abd f662 ff3d e49c 863b
00000130: 8f99 93bd 5891 9bbd 846b e1bd 8067 20be
00000140: dca1 5a3d 8372 3d3e 8077 f23c ddc7 c83c
00000150: 051e 90bd bd99 a5bd e35d 6ebd 420a 863d
00000160: cbb0 d63c dddf 86bd 8ca4 153d d7b8 01bd
00000170: 385a 85bc 79dd 0d3e 2bad 98bd c9af 3b3e
00000180: 1961 e0bd 59ba 433e 719e 963d 9cdb ad3d
00000190: ab02 1abd 5878 78bd cfb4 18be f59b 3dbe
000001a0: ee03 163e 31e0 4d3e efaf 813d d5f1 9dbd
000001b0: 2174 273d c47e 0ebb ed83 33be d54d 1fbe
000001c0: 1c04 843d a444 88bd 03be 4fbd 74c7 ffbd
000001d0: f222 b03d 7a84 d7bd 809c 7cbd 8bbb e73d
000001e0: a6c9 3b3e 3e3e 343e ea06 ae3d da80 d73b
000001f0: a3c8 1e3e e48c 3c3e 7369 ab3d ae82 5c3d
00000200: e173 5e3d 68fe c43c ee29 0e3e 85dc 833d
00000210: d47b 29be 06fe fabd 10ee 33be 9164 81bd
00000220: 59b7 803c 12e4 b8bd b31e 3fbe c903 0abe
00000230: 63d5 a33d 7bf6 90bc 1351 1ebd a367 133d
00000240: e527 12bd 10ad efbd 7c45 c2bd eed5 99bd
00000250: 538e 41be 3301 37be 55b5 8dbd ef51 8a3d
00000260: 4090 433e 0998 6d3a a7f2 053e 7dfe 923d
00000270: a986 1ebe 89fd c0bd 2fb1 78bd 6bbe 21be
00000280: 5dba c03c 52bd 5a3d dd61 26be e43b 3cbd
00000290: f18a 38be 8edc 453e a515 ec3d 7dac a6bd
000002a0: 4f27 333e 2b64 f5bd 6768 253e 5814 aabd
000002b0: c94e 853d 2879 093e 308b cb3d 948e 243d
000002c0: 3e23 9abc 2e5a a53b 5cc6 283e f6d3 8fbd
000002d0: 7288 93bd 3c3b c23c 71b7 cbbd db9c 93bd
000002e0: 2b64 393c 89eb 1b3e bbf7 743d c2fc f4bd
000002f0: fa7d f73d 507f 91bd 3458 613d aefb 653c
00000300: 0fc9 153e 9f3a 40bd ff02 b7bd 8609 21bd
00000310: 8acd 5b3b 571a cdbd d1f2 0d3e c240 e6bd
00000320: fba2 253d 6492 23be 4cbb d4bc a6ae 14bd
00000330: 30b0 9cbd dea5 e53d 58bd 30be 1dbe a73c
00000340: 3ee7 abbc d89a ccbd dbe5 1c3e 97f7 043e
00000350: eeba 623d 7927 9fbb a634 e03d 4d05 bcbd
00000360: 3d92 25be bf79 403e 477e 9bbd b08b 3f3d
00000370: 3ea0 a4bb cbfe 2a3e b5e9 503e 50cf 0bbe
00000380: 99ed 163b 5876 21be 89fd 003e a6f1 3e3e
00000390: ba4b 90bd 91b1 1e3d 1340 20bd dff7 26bd
000003a0: 82a0 283e a718 44be c24e a1bc 2eb7 69bb
000003b0: 4cb2 2ebe c867 9d3d da2d 0c3e 4b56 28be
000003c0: 727b 933d 2474 a8bc 0860 3a3e e430 39be
000003d0: e778 323e e901 94bd 1b21 273e 1fa6 c1bd
000003e0: eaba 053d 947e 573d 5e9c ec3d 54fc cb3d
000003f0: 252a ec3d ce78 46bd 1886 24be d0e0 9abb

critic.0.bias f4 [64]
0.19021106 0.117651 0.084250614 -0.16504204 -0.10270455 -0.0472477 -0.18500523 -0.11339223
0.04867357 -0.16823202 0.057224784 -0.0059312484 -0.01222121 -0.063469976 -0.110357136 -0.18333656
-0.1333774 0.14577208 -0.01870095 0.19841364 0.008329631 -0.021308983 0.12341439 -0.19192125
-0.12847567 0.11034897 -0.05649845 0.1544385 -0.022274382 0.1391441 0.013109274 0.025104271
-0.16669254 -0.064366475 0.013335622 0.09491095 0.032394055 -0.047703892 -0.0038221676 0.1747865
0.1359348 0.06491124 -0.14807841 -0.06555338 0.13084783 0.18373518 -0.09901934 0.09065477
-0.042266857 0.12095825 -0.025380934 -0.15475596 -0.2007575 -0.004645823 0.06170963 -0.11237102
0.151645 0.09063916 0.12548049 0.09578869 -0.18929112 -0.031851307 0.09934648 0.09398378
00000000: b0c6 423e 02f3 f03d 968b ac3d c800 29be
00000010: c356 d2bd ce86 41bd 0372 3dbe 2f3a e8bd
00000020: f05d 473d 0445 2cbe 8964 6a3d eb5a c2bb
00000030: 783b 48bc 8cfc 81bd ec02 e2bd 94bc 3bbe
00000040: 1694 08be 4745 153e bc32 99bc f22c 4b3e
00000050: 0179 083c 2d90 aebc afc0 fc3d 0187 44be
00000060: 208f 03be a4fe e13d eb6a 67bd 2025 1e3e
00000070: c478 b6bc ca7b 0e3e 48c8 563c 79a7 cd3c
00000080: 73b1 2abe 92d2 83bd a77d 5a3c ac60 c23d
00000090: a1af 043d 2865 43bd 557d 7abb 3bfb 323e
000000a0: 7e32 0b3e 2ff0 843d dea1 17be da40 86bd
000000b0: f9fc 053e 1325 3c3e a7ca cabd 35a9 b93d
000000c0: 0320 2dbd f5b8 f73d adeb cfbc 5978 1ebe
000000d0: 6093 4dbe fd3b 98bb 3dc3 7c3d c722 e6bd
000000e0: d448 1b3e 06a1 b93d f57d 003e dc2c c43d
000000f0: 88d5 41be 8476 02bd 2b76 cb3d 917a c03d

critic.2.weight f4 [64, 64]
-0.11751076 -0.07646866 0.09605522 -0.107139036 0.09026735 -0.029439948 0.0024675503 0.062499374
0.036551025 -0.08632388 0.04406093 -0.10379716 -0.05952687 -0.02598353 -0.020849455 0.09550056
-0.06372997 0.101079285 0.05830494 0.035694964 0.094363384 -0.08806975 -0.11225383 0.008567225
0.057375096 0.05852843 0.0034844228 0.12264004 0.041210223 0.058060326 -0.059097636 0.042059463
-0.045010697 -0.09728003 -0.081808284 -0.07887315 -0.023143124 -0.05586927 0.116184846 0.047957998
-0.10518888 0.009616276 0.11145021 -0.00078815134 0.018374616 0.03823623 -0.046612993 -0.07680669
-0.041987933 -0.03604643 0.101346366 -0.09863771 0.020745242 -0.045233857 -0.0167354 -0.0068905274
-0.051364712 0.02869207 0.032494772 -0.0677642 0.072924644 0.11623379 -0.05623286 0.02066205
-0.050125822 0.08047527 -0.0048835347 -0.1128318 0.025470236 0.09824867 -0.006452543 -0.032027286
0.0022025616 0.06509719 0.11037215 -0.027682915 0.07051991 0.06578686 0.11576082 0.094087474
-0.09884835 -0.10779701 -0.102761894 0.07393145 -0.057960715 0.06659452 -0.023337271 -0.048993617
0.08961296 -0.029026702 -0.06960906 -0.016291926 -0.08275123 -0.116145685 -0.018877886 -0.0028840073
-0.06943288 0.1146051 -0.0290007 -0.03500058 0.094757736 0.010429288 -0.027780028 0.025063956
-0.11443446 0.12372879 0.036829814 0.04820388 -0.09486028 0.09961138 -0.108266994 -0.039301988
-0.07599177 -0.067235306 0.0298247 -0.12038286 -0.11846168 0.029563235 0.03754598 0.005625661
-0.05062947 -0.035825443 -0.009956373 -0.021335756 -0.081359535 0.09788699 0.020885572 -0.08860381
-0.021701468 -0.08513542 -0.07807371 0.102543734 0.042517904 0.06028825 -0.0086280545 -0.03372052
0.009525128 -0.08298718 -0.12832671 0.0835304 -0.0015161093 0.07994962 0.08980419 0.0501533
-0.04718505 -0.018428821 -0.0059316694 0.011897776 -0.0006354994 -0.0950946 -0.064034976 0.0860019
0.008505104 -0.05212299 0.085411645 -0.04073612 -0.04779155 0.08313189 -0.09901788 -0.0645388
0.092547365 -0.016128985 -0.052124683 0.10762641 0.023349974 -0.11429087 -0.09343116 -0.027983624
-0.0053156833 -0.09902167 -0.05094513 0.037911296 -0.115099594 -0.121240035 0.038024865 0.019438948
-0.12452585 -0.114949994 0.10087677 0.121840924 -0.058145773 0.122429214 0.08989888 0.10736725
-0.051989935 -0.031427924 0.07078701 0.0422485 -0.09545729 0.07118393 0.12624604 -0.074433945
-0.11237863 -0.11338454 -0.08408612 -0.052610204 -0.06555448 -0.10408525 0.08472492 0.12297063
0.10139808 0.083888106 0.052131917 -0.05262699 -0.10850925 -0.06986267 0.05248697 0.023068948
0.0115310075 -0.072630085 -0.05927947 -0.047614887 -0.020724503 -0.020845747 0.017452268 -0.039046336
-0.0102164075 -0.075085625 0.06395063 -0.106965035 0.02593034 -0.12312589 -0.07272498 0.116641544
-0.024565509 -0.026625702 0.06517493 -0.10932631 -0.024580177 -0.00032494363 0.012476562 -0.017137447
-0.08700556 -0.118906744 -0.002149413 0.10018424 -0.05395003 0.0117315855 0.08511222 -0.12625147
0.104974896 0.10905325 -0.057796378 0.10562688 0.0815405 0.10270476 0.11144773 0.024209766
0.07157602 -0.06642938 0.017588466 0.11585777 -0.03907612 0.026172036 -0.059542943 0.050850853
00000000: 7ba9 f0bd 9a9b 9cbd 99b8 c43d b66b dbbd
00000010: 17de b83d 0c2c f1bc a0b6 213b 58ff 7f3d
00000020: 87b6 153d 93ca b0bd 3c79 343d 9b93 d4bd
00000030: 72d2 73bd 69db d4bc 7acc aabc cc95 c33d
00000040: dc84 82bd a802 cf3d 29d1 6e3d e234 123d
00000050: 9741 c13d ea5d b4bd 56e5 e5bd 8c5d 0c3c
00000060: 2602 6b3d 82bb 6f3d ea5a 643b b42a fb3d
00000070: 0dcc 283d aad0 6d3d 5d10 72bd 8b46 2c3d
00000080: 235d 38bd c13a c7bd 1a8b a7bd 3f88 a1bd
00000090: a696 bdbc 2dd7 64bd 52f2 ed3d 9b6f 443d
000000a0: 446d d7bd 968d 1d3c 0240 e43d f19b 4eba
000000b0: 5d86 963c 989d 1c3d 44ed 3ebd d34c 9dbd
000000c0: 8afb 2bbd 6ca5 13bd af8e cf3d 9102 cabd
000000d0: edf1 a93c 2347 39bd ad18 89bc efc9 e1bb
000000e0: ce63 52bd a20b eb3c 3d19 053d f5c7 8abd
000000f0: 8459 953d fb0b ee3d 6d54 66bd 7643 a93c
00000100: bc50 4dbd 38d0 a43d 0f06 a0bb 5c14 e7bd
00000110: f5a6 d03c 9936 c93d db6f d3bb 0b2f 03bd
00000120: da58 103b ad51 853d cb0a e23d 48c7 e2bc
00000130: be6c 903d 43bb 863d 0214 ed3d efb0 c03d
00000140: 0171 cabd aec4 dcbd d474 d2bd 5f69 973d
00000150: 3768 6dbd b562 883d ce2d bfbc 88ad 48bd
00000160: 0087 b73d 68c9 edbc 328f 8ebd a576 85bc
00000170: 7a79 a9bd cadd edbd cca5 9abc 9d01 3dbb
00000180: d332 8ebd 14b6 ea3d e092 edbc c55c 0fbd
00000190: 5810 c23d 9bdf 2a3c f192 e3bc ed52 cd3c
000001a0: 9d5c eabd 8565 fd3d dcda 163d 6f71 453d
000001b0: 1b46 c2bd 0d01 cc3d 16bb ddbd 1ffb 20bd
000001c0: 93a1 9bbd aab2 89bd ee52 f43c 4a8b f6bd
000001d0: 0a9c f2bd 992e f23c d0c9 193d 7757 b83b
000001e0: d960 4fbd b3bd 12bd 0e20 23bc 53c8 aebc
000001f0: d49f a6bd f978 c83d 3818 ab3c ea75 b5bd
00000200: 47c7 b1bc 7b5b aebd 1ce5 9fbd 7302 d23d
00000210: 4127 2e3d d0f0 763d af5c 0dbc 871e 0abd
00000220: 480f 1c3c 2ff5 a9bd 1468 03be fd11 ab3d
00000230: 30b8 c6ba a0bc a33d 42eb b73d 8c6d 4d3d
00000240: 1c45 41bd 0af8 96bc 735e c2bb e4ee 423c
00000250: a597 26ba f5c0 c2bd c524 83bd c421 b03d
00000260: fe58 0b3c eb7e 55bd 4dec ae3d ebda 26bd
00000270: 13c1 43bd 0d41 aa3d e3c9 cabd eb2c 84bd
00000280: 7989 bd3d ef20 84bc b180 55bd 3c6b dc3d
00000290: 7248 bf3c 5511 eabd d658 bfbd ea3d e5bc
000002a0: 2f2f aebb e0cb cabd d7ab 50bd e048 1b3d
000002b0: 56b9 ebbd b24c f8bd f6bf 1b3d 6e3e 9f3c
000002c0: 6907 ffbd e76a ebbd 7b98 ce3d bc87 f93d
000002d0: 432a 6ebd 2bbc fa3d e71c b83d 5ce3 db3d
000002e0: 66f3 54bd 91ba 00bd c8f8 903d c30c 2d3d
000002f0: 1d7f c3bd e1c8 913d a446 013e d370 98bd
00000300: c426 e6bd 2736 e8bd 5835 acbd cc7d 57bd
00000310: 6d41 86bd a62a d5bd 4284 ad3d 07d8 fb3d
00000320: cca9 cf3d 87cd ab3d 4788 553d 668f 57bd
00000330: 193a debd 2914 8fbd 94fc 563d 17fb bc3c
00000340: 8dec 3c3c 15bf 94bd 08cf 72bd d407 43bd
00000350: 6fc6 a9bc b3c4 aabc 0ff8 8e3c 0def 1fbd
00000360: b862 27bc 7ec6 99bd 8cf8 823d 7c10 dbbd
00000370: dd6b d43c 6d29 fcbd d6f0 94bd c3e1 ee3d
00000380: 9b3d c9bc 251e dabc 6f7a 853d 79e6 dfbd
00000390: 5e5c c9bc 325d aab9 7e6a 4c3c d563 8cbc
000003a0: f92f b2bd 6185 f3bd 2bdd 0cbb 652d cd3d
000003b0: b5fa 5cbd d635 403c 514f ae3d 1148 01be
000003c0: 14fd d63d 4f57 df3d e5bb 6cbd e852 d83d
000003d0: b5fe a63d e056 d23d b53e e43d 8f53 c63c
000003e0: 7396 923d 200c 88bd b015 903c d746 ed3d
000003f0: 480e 20bd bd66 d63c 4de3 73bd fc48 503d

critic.2.bias f4 [64]
0.035881616 0.039536174 -0.000451036 -0.012418516 0.028802674 -0.004204073 -0.020743247 -0.1173069
0.06780898 -0.07493628 0.04085032 0.048050076 0.06294391 -0.010008444 -0.0075226924 0.080517896
-0.07535391 -0.08393204 0.08499997 0.12378767 0.09053726 0.073139556 -0.07011444 0.07126102
-0.06047887 0.05968288 0.109255046 -0.03356337 -0.096622564 -0.09307617 -0.045480005 0.013174946
0.118525706 0.018376691 -0.06788268 -0.008609584 -0.039189603 0.0349527 0.054597393 -0.07685877
0.036317065 0.056556426 -0.011672422 -0.08214563 0.0758266 -0.11538761 0.06562264 0.015109896
-0.030595869 -0.05156867 0.03148273 -0.06856129 -0.0014078588 0.09730536 -0.0037077148 -0.08740026
0.09342805 0.08171617 0.09950469 -0.03486237 -0.12638731 -0.03633645 0.08840139 0.03151738
00000000: 9af8 123d aff0 213d 0779 ecb9 0877 4bbc
00000010: 96f3 eb3c 52c2 89bb beed a9bc 9a3e f0bd
00000020: 6fdf 8a3d 3178 99bd aa52 273d 28d0 443d
00000030: bde8 803d 75fa 23bc eb80 f6bb 91e6 a43d
00000040: 2753 9abd 90e4 abbd 7714 ae3d 6484 fd3d
00000050: 996b b93d 31ca 953d 2998 8fbd 4cf1 913d
00000060: b1b8 77bd 0976 743d 1cc1 df3d bf79 09bd
00000070: 0de2 c5bd b89e bebd 3e49 3abd bbdb 573c
00000080: 9bbd f23d b78a 963c 1306 8bbd 360f 0dbc
00000090: 4785 20bd 902a 0f3d 84a1 5f3d 2168 9dbd
000000a0: 34c1 143d b6a7 673d b03d 3fbc f83b a8bd
000000b0: fa4a 9b3d 5750 ecbd 2a65 863d 7f8f 773c
000000c0: 30a4 fabc ab39 53bd 09f4 003d dd69 8cbd
000000d0: e787 b8ba 0848 c73d 22fd 72bb e8fe b2bd
000000e0: 3557 bf3d cf5a a73d 1dc9 cb3d d8cb 0ebd
000000f0: ad6b 01be 88d5 14bd ca0b b53d 5e18 013d

critic.4.weight f4 [1, 64]
0.10444478 0.06070703 -0.119833775 -0.11847855 -0.019558478 -0.0797045 -0.07773088 0.008483556
-0.027638922 0.092331566 -0.06475937 0.06051706 -0.058047608 -0.0654909 0.104809605 0.019010296
0.1281856 -0.09807703 -0.049131487 -0.11049456 0.09614569 0.05615168 0.008409577 0.1136161
-0.082971305 -0.0870926 0.118343756 -0.036707025 0.07511303 0.06353615 0.0379548 -0.08219456
-0.03725136 0.10025223 0.05241406 -0.03656995 0.044224277 -0.026379649 -0.00472999 0.024991566
0.088954106 0.11517615 0.1176944 -0.019634157 0.01366531 -0.1135987 -0.0059392396 0.0042962236
-0.080830805 0.10791045 -0.05700966 -0.1090509 -0.05208843 -0.016831804 -0.10705618 0.07513459
0.0130127985 -0.07613989 0.014452181 -0.103187844 0.03622316 0.0009912027 -0.013163476 0.0063028866
00000000: 25e7 d53d efa7 783d 696b f5bd e2a4 f2bd
00000010: 1a39 a0bc 1d3c a3bd 5e31 9fbd 9dfe 0a3c
00000020: 056b e2bc 5518 bd3d 90a0 84bd bde0 773d
00000030: 54c3 6dbd 1820 86bd 6ba6 d63d 7bbb 9b3c
00000040: 1643 033e 9cdc c8bd 193e 49bd f94a e2bd
00000050: 08e8 c43d 4eff 653d 53c8 093c 8faf e83d
00000060: dcec a9bd 9b5d b2bd 365e f23d 1b5a 16bd
00000070: dcd4 993d 3e1f 823d 7e76 1b3d 9f55 a8bd
00000080: e294 18bd 0b51 cd3d 20b0 563d 5fca 15bd
00000090: 8424 353d 221a d8bc 08fe 9abb 1dbb cc3c
000000a0: 922d b63d 79e1 eb3d c309 f13d d0d7 a0bc
000000b0: 77e4 5f3c 6fa6 e8bd f49d c2bb 56c7 8c3b
000000c0: 9f8a a5bd 2700 dd3d f682 69bd 1456 dfbd
000000d0: ad5a 55bd dae2 89bc 4540 dbbd 2ae0 993d
000000e0: a233 553c 3bef 9bbd d7c8 6c3c 2654 d3bd
000000f0: bc5e 143d 3eeb 813a 9fab 57bc 7288 ce3b

exp_avg f4 [6]
-0.03239267 -0.04206684 -0.054036964 0.034431476 -0.08589949 -0.018921558
00000000: 2dae 04bd 474e 2cbd dd55 5dbd 0508 0d3d
00000010: 12ec afbd 6201 9bbc

exp_avg_sq f4 [6]
0.00043160567 0.00015868021 0.0003067765 0.00064477866 0.00044856415 0.00072687824
00000000: 2249 e239 6563 2639 d8d6 a039 5d06 293a
00000010: 432d eb39 f98b 3e3a

exp_avg f4 [64, 25]
0.00043910978 0.0003150712 0.00029427581 -0.00023946332 0.00042911255 0.00013590277 0.0020277023 -0.00051966606
-0.0056166206 -0.0021532134 0.0015562355 0.0043877265 0.0002584824 7.639476e-05 8.0572165e-05 0.0001487395
1.1325154e-05 0.0001487395 -1.1325154e-05 -0.0010010701 -0.0013087174 -0.0031512172 -0.0005292601 0.00014128351
0.00088926486 0.0008588929 0.00084322644 0.000903356 0.000350585 -0.00014925243 -0.0003274249 0.0060352585
-0.0022141058 -5.411287e-05 -0.0035511295 0.0037877313 -0.0020770363 0.00033951286 0.0004435807 0.00066105166
0.00040225688 -0.00052381534 0.00040225688 0.00052381534 -0.00218206 0.00051328127 -0.002039851 -0.0061444896
0.0034466865 -0.00061787706 0.0004724683 -0.000477021 0.0005653933 -0.00025824446 3.9011462e-05 -9.742096e-05
0.0060618483 0.0030133508 -0.0049375636 0.004172981 0.0009476263 -0.00022446473 -0.00066203676 -2.297661e-06
-0.00020785505 -0.00024269671 0.00035715284 -0.00024269671 -0.00035715284 0.0035786263 0.00075682916 -0.0012319324
0.0016745274 0.00042334615 0.00067898503 0.0010750477 3.9166895e-05 0.00026611082 0.00040479263 -0.00036900747
0.0003632808 0.0015330681 -0.002502683 0.0005603003 0.0004256978 0.0019353664 0.002164666 -0.0011055458
0.000112903195 -4.4003253e-05 -0.00054497604 -0.00047400262 -0.00054497604 0.00047400262 -0.0019523677 5.8287475e-05
-0.0012380229 -0.002128125 0.0012411274 0.0014519901 0.00073998125 0.0005190934 0.00028891457 0.00073406514
-0.00021343598 5.2777857e-05 0.0017322088 -0.0068051876 0.008121629 0.0011578931 -0.0025532623 0.009354109
0.00027842546 0.0003057206 0.0005177076 3.6619214e-05 0.00014454691 3.6619214e-05 -0.00014454691 0.0013793684
-0.0011793331 0.0008885938 -0.0036259717 -0.00016641016 0.0023575844 -0.0003032576 0.0005433109 4.571395e-05
-0.00021281195 0.00033849964 -2.511684e-05 -0.002256011 -0.0007371444 0.0008628194 -0.003652821 -0.00095505134
-0.0032539184 0.0011943871 -2.8084449e-05 0.0005088083 0.0013962149 0.00012187941 0.0013962149 -0.00012187941
-0.0021116843 -0.0013605664 0.00032675086 -0.0009792703 0.00093055115 -0.001323474 0.00052434806 -9.048267e-05
7.936087e-05 0.0002576965 -0.00028343237 -0.00019635182 0.0010219993 -0.0013430178 0.0046797525 -0.0018196017
0.0017911961 -0.0023283032 -0.00067634776 0.00016665383 -0.00017700356 -0.0005369105 -5.405739e-05 -0.0005369105
5.405739e-05 8.8635345e-05 0.000100701924 0.0020477301 -0.0025890807 0.0016007992 -0.0008438525 -3.677982e-05
-0.0003905849 7.6841505e-05 0.00048057924 -0.0007234399 0.00058706617 0.0022484984 -0.0031727434 0.0022416518
-0.0024392016 -0.00022116762 0.0077332323 -0.00074849854 0.00012455719 -0.00022729264 -0.00097597117 -0.0011730785
-0.00097597117 0.0011730785 0.00011156575 -0.0011174645 -0.004179264 -0.0037935823 -0.0036212427 0.0024891295
0.0011462113 -0.00084147445 0.00025985288 0.00018093927 -0.00075938064 0.00045017613 0.0014641676 0.0007193972
0.0025628875 -0.00046118625 0.003827871 -0.0025002789 -0.0021382424 0.00012309462 -0.00046937194 -0.0012455899
-0.0007634807 -0.0012455899 0.0007634807 -0.00040737583 0.0022341725 -0.00025770857 -0.0017573133 0.0017850318
0.0017851845 0.00024879718 -0.00036715978 -6.345831e-05 -0.00016145808 0.00033505546 -0.000101114456 -0.0031755231
-0.00017408447 0.0014290333 0.0017536065 -0.004572617 0.00025445496 3.803346e-05 -0.00023719638 -5.5400335e-05
0.00041429716 0.0009766786 0.00041429716 -0.0009766786 0.00037340113 0.00033289334 0.0030085123 0.0032481996
-0.0012305549 -0.0008234655 0.0005703426 -0.00024389099 0.00021679043 0.00045431269 -0.000453135 0.00019225072
00000000: 5138 e639 2430 a539 0849 9a39 7218 7bb9
00000010: 83fa e039 1f81 0e39 33e3 043b 333a 08ba
00000020: a10b b8bb ed1c 0dbb 99fa cb3a ebc6 8f3b
00000030: ec84 8739 2036 a038 daf8 a838 f5f6 1b39
00000040: 2b01 3e37 f5f6 1b39 2b01 3eb7 5736 83ba
00000050: 4589 abba a784 4ebb 0bbe 0aba 8125 1439
00000060: 8e1d 693a 5427 613a f80b 5d3a 32cf 6c3a
00000070: b9ce b739 a580 1cb9 3aaa abb9 6bc3 c53b
00000080: 881a 11bb 40f7 62b8 11ba 68bb 963b 783b
00000090: e31e 08bb a500 b239 6590 e839 6d4a 2d3a
000000a0: 01e6 d239 a750 09ba 01e6 d239 a750 093a
000000b0: e400 0fbb b98d 063a 05af 05bb b757 c9bb
000000c0: cee1 613b 07f9 21ba 9fb5 f739 ad18 fab9
000000d0: e736 143a fc64 87b9 3da0 2338 7b4e ccb8
000000e0: 78a2 c63b a37b 453b 49cb a1bb 80bd 883b
000000f0: 206a 783a 4b5e 6bb9 898c 2dba 8431 1ab6
00000100: aaf3 59b9 677c 7eb9 3e40 bb39 677c 7eb9
00000110: 3e40 bbb9 6387 6a3b f265 463a cb78 a1ba
00000120: d17b db3a 8ff4 dd39 eafd 313a 9de8 8c3a
00000130: 2247 2438 ca84 8b39 593a d439 5877 c1b9
00000140: b976 be39 3bf1 c83a 0e04 24bb 1ee1 123a
00000150: 3130 df39 1fac fd3a 12dd 0d3b f6e7 90ba
00000160: 71c6 ec38 2290 38b8 b9dc 0eba 8e83 f8b9
00000170: b9dc 0eba 8e83 f839 97e6 ffba b379 7438
00000180: 2845 a2ba 0378 0bbb 53ad a23a b450 be3a
00000190: 4dfb 413a c513 083a 7579 9739 476e 403a
000001a0: c9cd 5fb9 cb5d 5d38 480b e33a 0dfe debb
000001b0: 9510 053c 72c4 973a a254 27bb fa41 193c
000001c0: a2f9 9139 2049 a039 c5b6 073a 9597 1938
000001d0: 8491 1739 9597 1938 8491 17b9 eccb b43a
000001e0: da93 9aba 85f0 683a b6a1 6dbb 637e 2eb9
000001f0: b481 1a3b 8cfe 9eb9 fa6c 0e3a fbbc 3f38
00000200: 4626 5fb9 a778 b139 01b2 d2b7 95d9 13bb
00000210: ec3c 41ba d42e 623a 2b64 6fbb 695c 7aba
00000220: b13f 55bb fb8c 9c3a e596 ebb7 8c61 053a
00000230: 3301 b73a 8399 ff38 3301 b73a 8399 ffb8
00000240: 2f64 0abb 0855 b2ba c24f ab39 dc5a 80ba
00000250: 3bf0 733a 6b78 adba 6774 093a 83c1 bdb8
00000260: 8b6e a638 701b 8739 a699 94b9 cae3 4db9
00000270: 9bf4 853a 3308 b0ba 9c58 993b b47f eeba
00000280: 91c6 ea3a 7296 18bb ee4c 31ba ccbf 2e39
00000290: 089a 39b9 74bf 0cba aebb 62b8 74bf 0cba
000002a0: aebb 6238 bde1 b938 ef2f d338 3633 063b
000002b0: 91ad 29bb e8d1 d13a fc35 5dba 0844 1ab8
000002c0: 6bc7 ccb9 f825 a138 41f6 fb39 3ba5 3dba
000002d0: 58e5 193a 8b5b 133b cded 4fbb ade8 123b
000002e0: 03db 1fbb 3be9 67b9 0e67 fd3b e336 44ba
000002f0: 919b 0239 6755 6eb9 51d8 7fba fcc1 99ba
00000300: 51d8 7fba fcc1 993a 68f8 e938 e377 92ba
00000310: 35f2 88bb c09d 78bb 5f52 6dbb aa20 233b
00000320: 783c 963a 6596 5cba dd3c 8839 84ba 3d39
00000330: 2c11 47ba 9e05 ec39 50e9 bf3a ee95 3c3a
00000340: 1ef6 273b 5fcb f1b9 05dd 7a3b b8db 23bb
00000350: c121 0cbb f612 0139 0916 f6b9 1043 a3ba
00000360: 5324 48ba 1043 a3ba 5324 483a 0f95 d5b9
00000370: 326b 123b 0f1d 87b9 a655 e6ba baf7 e93a
00000380: dafc e93a fe70 8239 5a7f c0b9 ec14 85b8
00000390: 134d 29b9 62aa af39 690d d4b8 701c 50bb
000003a0: 728a 36b9 674e bb3a 45d9 e53a e4d5 95bb
000003b0: 5e68 8539 1e86 1f38 ebb7 78b9 a85d 68b8
000003c0: 0636 d939 e503 803a 0636 d939 e503 80ba
000003d0: 0dc5 c339 3088 ae39 762a 453b bfdf 543b
000003e0: 924a a1ba d6dd 57ba 0b83 153a fdbc 7fb9
000003f0: 3d52 6339 d130 ee39 c092 edb9 e996 4939
