logs/rsl_rl/franka_reach/2025-06-27_10-55-03/model_750.pt (torch, 172795 bytes, 36 tensors)

std f4 [7]
0	0x3d9ccf24	0.076566964
1	0x3d2de43b	0.042453986
2	0x3d5b061c	0.053472623
3	0x3d0eac9e	0.03483259
4	0x3d323a52	0.04351265
5	0x3d4ac19d	0.04950105
6	0x3d659743	0.056052458

actor.0.weight f4 [64, 32]
0	0xbe483cf7	-0.19554506
1	0x3e253107	0.16131984
2	0xbe4d5467	-0.20051728
3	0x3deb61ba	0.11493249
4	0x3e8d4890	0.27594423
5	0x3d9aaa1e	0.075519785
6	0x3ef9bdbd	0.4877757
7	0x3ea447cb	0.32086024
8	0x3f1a4315	0.6025861
9	0xbc42a96e	-0.0118812155
10	0xbde11bf9	-0.109916635
11	0x3db50314	0.08838478
12	0x3da7328c	0.08163938
13	0x3d8d2a17	0.068927936
14	0x3d34c314	0.044131353
15	0x3d938b5e	0.072043166
16	0xbc5ab928	-0.013349809
17	0xbe9bc973	-0.3042713
18	0xbe7a62f8	-0.24451816
19	0xbffdbe55	-1.982371
20	0x3ead5627	0.33854792
21	0xbcbd505e	-0.023109611
22	0xbfbc6ef2	-1.4721358
23	0x3f0883f2	0.5332633
24	0xbe18313f	-0.14862536
25	0xbdc6089f	-0.09669613
26	0xbe3f741f	-0.1869664
27	0xbe31acd1	-0.1735108
28	0xbaefc6a0	-0.0018293448
29	0xbe095b58	-0.13413751
30	0x3d541ce4	0.051785365
31	0x3e36f9f0	0.17868781
32	0x3ebcb8e1	0.368598
33	0x3e84328c	0.25819814
34	0x3eb28ca1	0.34872916
35	0x3f78a82b	0.97131604
36	0x3f04984f	0.51794904
37	0x3ef8d273	0.4859806
38	0xbdd1469c	-0.10218546
39	0xbe4b6f66	-0.19866714
40	0x3c9cea49	0.019154685
41	0x3dc5e28e	0.096623525
42	0xbcd5f4db	-0.026117733
43	0x3de55bdf	0.11199164
44	0x3dce4ee9	0.10073645
45	0xbd097e8a	-0.033567943
46	0xbd90d5fb	-0.070720635
47	0x3dc91ca8	0.09819919
48	0xbe5656d0	-0.20931554
49	0x3e23f238	0.16010368
50	0xbf4cf859	-0.8006645
51	0xbfa4f6ae	-1.2887781
52	0xbdb3930e	-0.08768283
53	0x3e14de65	0.14537962
54	0x3ebae61e	0.3650369
55	0x3d06532c	0.032794163
56	0x3d68db71	0.0568499
57	0xbbe59753	-0.0070065646
58	0x3e5c6844	0.21524149
59	0xbdcbfd4a	-0.099604204
60	0xbd9bdce2	-0.076104894
61	0xbd873413	-0.06601729
62	0x3dbc6cb3	0.0920042
63	0xbdda1f1b	-0.10650464
64	0x3f79cf5f	0.9758205
65	0x3e00ed55	0.12590535
66	0x3f688a1f	0.90835756
67	0xbf021d7e	-0.5082625
68	0xbd9bc94b	-0.07606753
69	0xbe0330dc	-0.12811607
70	0x3e90a304	0.2824937
71	0x3ec4d0da	0.3844059
72	0x3f1dc9cb	0.61636037
73	0xbe2ff726	-0.17184123
74	0x3d6d73f4	0.05797191
75	0xbe5e90c3	-0.2173491
76	0xbc533dc5	-0.012893145
77	0xbce62596	-0.028094094
78	0x3d9df275	0.07712261
79	0x3da57d03	0.08080485
80	0x3e1b2d05	0.15153892
81	0xbdcd6526	-0.10029058
82	0x3eabd322	0.3355952
83	0xbf3fcf40	-0.74925613
84	0x3f1cc39e	0.6123599
85	0xbd238b0f	-0.03992754
86	0xbda996fc	-0.08280751
87	0xbe7565d5	-0.23964627
88	0xbdb53c71	-0.08849419
89	0x3d27707d	0.04087876
90	0x3e7a31bd	0.24433036
91	0x3bb68732	0.0055703158
92	0x3e392354	0.18079883
93	0x3de39ee1	0.11114288
94	0xbe892e7d	-0.2679328
95	0xbe0d3b69	-0.13792194
96	0xbe2b5f8b	-0.16735666
97	0xbe24339c	-0.16035312
98	0x3e44add8	0.19206941
99	0xbda851f0	-0.08218753
100	0x3d7eec67	0.06223717
101	0x3ea6f87a	0.32611448
102	0x3ea6bc2f	0.32565448
103	0xbe482d85	-0.19548614
104	0x3d2cb303	0.042162906
105	0xbd40844a	-0.04700116
106	0xbd12f0a4	-0.035874024
107	0xbdba0d67	-0.090845875
108	0xbdc53aac	-0.096303314
109	0xbe21538e	-0.1575453
110	0x3d83df7c	0.06439111
111	0xbc95238b	-0.018205425
112	0x3f09d5dd	0.53841954
113	0xbe91f920	-0.2851038
114	0xbf7fe2b9	-0.99955326
115	0x3dab52ab	0.08365377
116	0x3f47f587	0.7810902
117	0xbe21417f	-0.15747641
118	0xbef4a468	-0.47781682
119	0xbc73aee3	-0.014873239
120	0xba5ad551	-0.00083478267
121	0x3e9d3d8d	0.30711022
122	0x3e2e8ab2	0.17045096
123	0xbe283032	-0.16424635
124	0x3ba61e69	0.005069543
125	0xbe5a7950	-0.2133534
126	0xbe39d772	-0.18148592
127	0xbe041f66	-0.12902603
128	0xbda8ba7a	-0.082386926
129	0xbb8c0156	-0.00427262
130	0x3ce7ea36	0.028309923
131	0x3e97ae2e	0.29625076
132	0xbec2294c	-0.37922132
133	0x3f3c5c6c	0.73578525
134	0xbe146cd7	-0.14494644
135	0xbe081b4c	-0.13291663
136	0xbdf14c07	-0.11782079
137	0xbd3433d4	-0.04399474
138	0xbcab08fb	-0.020878306
139	0xbd15d80c	-0.03658299
140	0xbd6c9ffa	-0.057769753
141	0x3d8f1b2e	0.06987606
142	0x3cd3f3ad	0.02587303
143	0xbe28cefe	-0.16485211
144	0x3e3c1723	0.18368201
145	0x3f4c89a4	0.7989752
146	0xbe99153c	-0.29899013
147	0x3f051683	0.51987475
148	0x3f8550d3	1.041529
149	0xbe0d49f9	-0.1379775
150	0xbd25bf48	-0.040465623
151	0xbf2d92c8	-0.67802095
152	0xbc8b85a2	-0.017031495
153	0xbef59871	-0.47967866
154	0x3eb59969	0.35468605
155	0x3d9d2ad0	0.076741815
156	0xbd888550	-0.06666052
157	0x3dcd418e	0.10022269
158	0xbdf3cef2	-0.11904706
159	0x3d51a7e7	0.051185515
160	0x3e0038c7	0.12521659
161	0xbe943981	-0.28950122
162	0xbea7a8c4	-0.32745945
163	0xbdf6c96c	-0.12050137
164	0x3e1329ad	0.14371367
165	0x3dfe4c91	0.12416948
166	0x3d361623	0.044454705
167	0x3e8976ba	0.26848394
168	0x3e311ca2	0.17296079
169	0xbe02b995	-0.12766106
170	0xbe81f8c6	-0.25385112
171	0xbda72fbc	-0.081634015
172	0x3e47767e	0.19478795
173	0xbd3260aa	-0.043549217
174	0xbccbc243	-0.024872905
175	0x3dbe6715	0.09297005
176	0x3f202a24	0.625643
177	0x3f58ec35	0.84735423
178	0xbd71271c	-0.05887519
179	0xc0111f24	-2.2675257
180	0xbf53d522	-0.8274709
181	0x3db518d0	0.08842623
182	0x3df00c0d	0.117210485
183	0x3f12aa7f	0.57291406
184	0x3dbb83ed	0.09156022
185	0xbdc00b1d	-0.0937712
186	0x3e581e09	0.21105208
187	0xbd624a63	-0.055246722
188	0xbe8d542f	-0.2760329
189	0x3e2e47e0	0.17019606
190	0x3e83220b	0.2561191
191	0xbcc88c1a	-0.024480868
192	0x3ec71526	0.38883322
193	0xbd8aa1aa	-0.06769116
194	0x3f34dc36	0.70648515
195	0xbe8a635b	-0.27028927
196	0xbe2e15b6	-0.1700047
197	0x3e6806be	0.22658822
198	0x3b0242dc	0.0019876277
199	0x3e8246f0	0.25444746
200	0x3d8bd446	0.06827597
201	0x3e31a167	0.17346726
202	0xba7403bd	-0.00093084184
203	0x3d9e7894	0.07737842
204	0x3c87d11a	0.0165792
205	0x391b375b	0.00014802573
206	0x3cca763a	0.024714578
207	0xbe04d3ad	-0.12971373
208	0x3db07aa9	0.086171456
209	0x3dfd1412	0.12357344
210	0x3e4cc251	0.19996001
211	0x3f26c95f	0.6515102
212	0xbe38c0cf	-0.180423
213	0xbddc5855	-0.107590355
214	0xbecd0671	-0.40043977
215	0x3f07125c	0.5276239
216	0x3cc20846	0.023685586
217	0x3d8ae314	0.06781593
218	0x3db87b6e	0.09007917
219	0x3e1d7815	0.15377839
220	0xbb5d6073	-0.0033779412
221	0x3e157b0e	0.14597723
222	0x3e0cd631	0.13753583
223	0x3cdd5b58	0.027021095
224	0x3f909c95	1.1297785
225	0x3daa79c8	0.08324009
226	0x3f846f9c	1.034656
227	0xbe003904	-0.1252175
228	0xbef38e66	-0.4756958
229	0xbea751c6	-0.32679576
230	0xbf09fce9	-0.53901535
231	0x3e97f9d9	0.29682806
232	0x3e420a57	0.18949257
233	0x3cbfd318	0.023416087
234	0xbc0af811	-0.008481995
235	0x3df46607	0.11933523
236	0x3e177104	0.14789206
237	0x3daefc1f	0.08544182
238	0xbca627b2	-0.0202826
239	0xbccc0c22	-0.02490813
240	0xbe094783	-0.13406186
241	0xbf2cb03a	-0.674564
242	0xbe7d4156	-0.24731955
243	0xbf2c21cc	-0.6723907
244	0xbf10f3d2	-0.5662204
245	0xbdfe53c2	-0.12418319
246	0xbf83f907	-1.0310372
247	0x3ec1d06b	0.37854323
248	0xbd83b9d2	-0.06431927
249	0xbd9dc089	-0.07702739
250	0xbd5fb3d3	-0.054614853
251	0xbe897d52	-0.26853424
252	0xbc97136a	-0.018441875
253	0xbe0dea12	-0.13858822
254	0x3dd9ee21	0.106411226
255	0xbd832f34	-0.06405488

actor.0.bias f4 [64]
0	0xbe38e38f	-0.18055557
1	0x3db075eb	0.08616241
2	0xbecb6dbe	-0.39732164
3	0x3d5563b9	0.052097056
4	0x3d8efc22	0.06981684
5	0xbeae80ea	-0.3408273
6	0xbeb252f3	-0.3482891
7	0xbdbf12f5	-0.09329788
8	0x3ea8755d	0.3290204
9	0x3e4ea4c4	0.2018004
10	0xbda5d3f6	-0.08097069
11	0x3e172cf0	0.14763236
12	0x3dc73ae1	0.09728027
13	0xbea44757	-0.32085678
14	0xbe996207	-0.299576
15	0xbe804382	-0.25051504
16	0x3f1ee37b	0.6206586
17	0x3e0910c1	0.13385297
18	0x3e63e8ae	0.22256729
19	0xbb033ec7	-0.0020026432
20	0x3e86eca6	0.26352423
21	0x3dfb6ff0	0.1227721
22	0xbe099295	-0.13434823
23	0x3dcbb0f4	0.099458605
24	0xbf15d64f	-0.58530134
25	0x3f37936b	0.71709317
26	0x3cb55946	0.022137295
27	0xbe83baff	-0.25728604
28	0xbdd92242	-0.10602237
29	0x3dad0de6	0.084499165
30	0xbdc0d09f	-0.09414791
31	0x3eb6114a	0.35560066
32	0xbeef36f9	-0.46721628
33	0x3c736516	0.014855644
34	0x3d936ea0	0.071988344
35	0xbce379d9	-0.027768062
36	0x3e71b7d0	0.23605275
37	0x3e974b76	0.2954976
38	0xbe5e374c	-0.21700782
39	0xbc58ce41	-0.0132327685
40	0x3e26511e	0.16241881
41	0xbe39a1f4	-0.18128186
42	0x3ee8f191	0.454968
43	0xbd04ab33	-0.03238983
44	0x3ee5ee70	0.44908476
45	0x3e93cfeb	0.28869566
46	0xbe617d6d	-0.22020502
47	0x3d1b66bc	0.037939772
48	0x3e922a4c	0.28547895
49	0xbdbcc643	-0.09217503
50	0xbe3fa5ca	-0.18715587
51	0xbe5f6878	-0.21817195
52	0x3e26e082	0.1629658
53	0x3e0dd6b8	0.1385144
54	0xbecd9686	-0.40153903
55	0xbebd9e76	-0.3703496
56	0xbecf6e15	-0.40513673
57	0xbd1503d4	-0.036380604
58	0x3e39fbc3	0.18162446
59	0x3ee6f62f	0.45109698
60	0xbd53c190	-0.051698267
61	0x3e0aa3cf	0.1353905
62	0x3e9f7a42	0.31147963
63	0xbd026848	-0.03183773

actor.2.weight f4 [64, 64]
0	0xbc5ec84c	-0.013597559
1	0xbe84103c	-0.25793636
2	0x3e9a7d11	0.30173543
3	0xbcaf4ccb	-0.021398922
4	0x3e073ca5	0.13206728
5	0xbd43ca92	-0.047800608
6	0x3e262a7f	0.16227148
7	0x3d1c429e	0.03814947
8	0xbd24e4ac	-0.04025714
9	0xbe9f884b	-0.3115867
10	0x3e4a3b74	0.19749242
11	0x3e59f07b	0.21283142
12	0xbd8132b9	-0.06308503
13	0xbc050b61	-0.008120389
14	0xbe3181e3	-0.17334704
15	0xbec23654	-0.37932074
16	0x3dcc1de5	0.099666394
17	0x3d1065da	0.035253383
18	0xbcd5b342	-0.026086453
19	0xbc975527	-0.018473221
20	0xbd3b9dc0	-0.04580474
21	0x3e8563a5	0.26052585
22	0x3d8aa149	0.06769044
23	0x3dd15083	0.102204345
24	0x3ea1b160	0.3158064
25	0xbe9a25ad	-0.3010687
26	0xbe04b65c	-0.1296019
27	0x3e4b7b7b	0.19871323
28	0x3ea736fb	0.32659134
29	0xbe59d1f1	-0.21271493
30	0x3de316b2	0.11088313
31	0x3e54699e	0.20743415
32	0x3db2894b	0.08717593
33	0x3e8db732	0.2767883
34	0xbdae56fd	-0.085126854
35	0xbe6a29b7	-0.22867475
36	0xbe486117	-0.19568287
37	0xbdd87882	-0.1056986
38	0xbc6554b1	-0.013997243
39	0xbd8d197d	-0.06889627
40	0xbe1ccc8a	-0.153124
41	0xbd9d7792	-0.07688822
42	0xba471f2f	-0.0007595894
43	0x3d8c9164	0.068636686
44	0xbdc64f10	-0.09683049
45	0x3d103c02	0.035213478
46	0x3dad6d21	0.0846808
47	0xbd9f7771	-0.077864535
48	0x3d4ddc1c	0.05025874
49	0xbdd93f6d	-0.10607801
50	0x3e43a929	0.19107498
51	0x3d0b9262	0.03407515
52	0x3e42abf0	0.19010901
53	0xbc9455ee	-0.01810738
54	0xbe3076c0	-0.172328
55	0xbcf7d001	-0.030250551
56	0xbb9c8c41	-0.0047774618
57	0xbddbf6cc	-0.10740432
58	0x3df6078f	0.120131604
59	0xbdd247bb	-0.10267588
60	0xbe78464e	-0.24245569
61	0xbb9a1a1a	-0.0047028186
62	0x3e10dfc6	0.14147863
63	0xbd6f6cdb	-0.058453422
64	0x3ddc3f71	0.10754288
65	0xbe537db3	-0.20653419
66	0xbedba155	-0.42896524
67	0x3e343415	0.17597993
68	0xbd8d4ae0	-0.06899047
69	0x37516dc3	1.2482927e-05
70	0xbd2bab22	-0.04191125
71	0xbc99e40b	-0.018785497
72	0x3dc5622b	0.09637865
73	0x3e4aaeec	0.1979329
74	0xbd847674	-0.06467906
75	0x3e1f7732	0.15572813
76	0xbdc2d8f0	-0.09514034
77	0xbe083393	-0.13300924
78	0xbe141ce1	-0.14464141
79	0xbccf41cd	-0.025299931
80	0x3e21e5e0	0.15810347
81	0xbd1f5b02	-0.03890515
82	0x3e54b56b	0.2077233
83	0x3b9b41ad	0.004738054
84	0x3e004e2e	0.12529823
85	0xbd83ecc3	-0.06441643
86	0x3d83c64b	0.06434306
87	0x3e43461f	0.19069718
88	0xbe01b785	-0.12667663
89	0xbc166dc5	-0.0091814445
90	0x3cce6207	0.025193227
91	0xbda45c22	-0.080253854
92	0xbe3f16a2	-0.18660977
93	0x3e590e55	0.21196873
94	0x3e09faa4	0.13474518
95	0x3e902bf9	0.28158548
96	0xbd8f4de1	-0.06997276
97	0xbdba9fd1	-0.09112514
98	0xbd19393a	-0.03740809
99	0xbe252c55	-0.16130193
100	0x3d4eabe9	0.050456915
101	0x3e579b2a	0.21055284
102	0xbd209c34	-0.039211467
103	0x3dd5a576	0.1043195
104	0xbd56efbd	-0.052474726
105	0xbda20b80	-0.0791235
106	0xbd82f5c8	-0.06394535
107	0x3da16f19	0.07882518
108	0x3e87f5d4	0.2655474
109	0x3dd7c584	0.1053572
110	0xbdf4aa93	-0.11946597
111	0x3e2db758	0.16964471
112	0x3bbff323	0.0058578416
113	0x3e179d59	0.14806117
114	0x3d8032d0	0.06259692
115	0x3d64cca6	0.05585923
116	0xbd85a17f	-0.065249436
117	0x3d85f1e1	0.06540275
118	0xbe19c076	-0.15014824
119	0xbe21ee20	-0.15813494
120	0xbe066545	-0.13124569
121	0xbe4ade08	-0.1981126
122	0x3d67aadd	0.056559432
123	0x3e289267	0.16462098
124	0x3dfa7630	0.12229574
125	0x3e6196a1	0.22030117
126	0xbdd1056f	-0.102061145
127	0xbdfdfa64	-0.12401274
128	0x3c3f99d2	0.011694388
129	0xbed148e2	-0.40875918
130	0x3d33d3a3	0.043903004
131	0xbde3ce22	-0.11123301
132	0x3d905767	0.07047921
133	0xbe3288ef	-0.17435049
134	0xbc31b302	-0.010845901
135	0xbdf09844	-0.11747792
136	0x3d02d470	0.031940877
137	0xbec25788	-0.37957406
138	0x3c81a443	0.015825396
139	0x3d4336bc	0.04765962
140	0xbe827ea5	-0.25487247
141	0xbda371e6	-0.07980709
142	0xbed8bd55	-0.4233195
143	0xbe34769c	-0.17623371
144	0x3d86e670	0.06586921
145	0x3d2be4d4	0.041966274
146	0xbc388c7a	-0.011263961
147	0x3c92adb6	0.017905097
148	0xbcb5c825	-0.022190163
149	0x3e6e30ba	0.23260775
150	0x3e8f9bcb	0.28048548
151	0xbd18b9c4	-0.037286535
152	0x3e1aeeaf	0.15130113
153	0xbd0e3f11	-0.034728114
154	0xbe562f15	-0.20916398
155	0x3e57a0dd	0.21057458
156	0x3ec01de8	0.37522817
157	0x3e25368c	0.16134089
158	0x3da02314	0.078191906
159	0x3e974b8d	0.29549828
160	0x3dbbb0e1	0.09164596
161	0x3e87965f	0.26481912
162	0x3da7ff64	0.08203009
163	0xbed91c09	-0.42404202
164	0xbeda5fb0	-0.4265113
165	0xbe5352f7	-0.20637117
166	0xbdcdb68c	-0.10044584
167	0xbe2e91ba	-0.17047778
168	0xbe26c44a	-0.16285816
169	0xbe42efa8	-0.19036734
170	0xbdf90c45	-0.12160543
171	0x3d0529be	0.03251051
172	0xbe0c460b	-0.13698594
173	0x3e11cfd2	0.14239433
174	0x3e84bd36	0.25925606
175	0xbc1c283e	-0.009531079
176	0x3dee6e9b	0.1164219
177	0xbd982eac	-0.07430777
178	0x3e1359aa	0.14389673
179	0xbda140a7	-0.078736596
180	0xbdcbeded	-0.0995749
181	0x3daf46d9	0.08558435
182	0xbe4fd630	-0.2029655
183	0x3cc319e3	0.023816055
184	0xbdd5e836	-0.10444681
185	0x3c381302	0.011235001
186	0x3e054de5	0.13017996
187	0xbc92c92b	-0.01791819
188	0xbe83a346	-0.25710505
189	0x3ddd7f4c	0.108152956
190	0x3e17c2ee	0.14820454
191	0xbd1004b0	-0.03516072
192	0xbcffd0fb	-0.03122758
193	0xbde77a13	-0.11302581
194	0xbe0abdaa	-0.13548914
195	0xbda2d049	-0.079498835
196	0xbdef83c6	-0.11695056
197	0x3e005715	0.12533219
198	0xbdb2363d	-0.087017514
199	0x3e875dc6	0.2643873
200	0x3d56fc11	0.052486483
201	0x3db27928	0.08714515
202	0xbdcc6403	-0.09980013
203	0xbddcfacc	-0.10790023
204	0x3e4a44f5	0.19752868
205	0xbd8d9883	-0.06913855
206	0xbdeac8dd	-0.11464093
207	0x3ca31ee0	0.019912183
208	0x3dd6adc5	0.10482363
209	0x3d31ee66	0.043440245
210	0x3e3255d7	0.17415558
211	0x3dd42009	0.10357673
212	0x3dc1130b	0.0942746
213	0x3e37c506	0.17946252
214	0xbc251777	-0.010076395
215	0x3d970fa5	0.07376031
216	0xbedfb40f	-0.4369206
217	0x3dd4bb21	0.103872545
218	0x3e81377e	0.2523765
219	0xbe93379c	-0.28753364
220	0xbe57d63a	-0.21077815
221	0x3d18a0b0	0.03726262
222	0x3cfc0e2b	0.030768475
223	0x3dba6bce	0.09102593
224	0x3bf16994	0.007367322
225	0x3d8db2e4	0.06918886
226	0x3d76652d	0.060155082
227	0x3cb52745	0.022113452
228	0x3e9810b4	0.29700243
229	0x3dc0c166	0.09411888
230	0x3d9ef95d	0.07762406
231	0xbe18dc88	-0.14927876
232	0x3ca1e03b	0.019760242
233	0xbde2cb44	-0.11073926
234	0xbccff6b2	-0.025386188
235	0x3d526cc7	0.05137327
236	0x3e275685	0.16341598
237	0x3d7aa68c	0.061193988
238	0xbdc0de18	-0.09417361
239	0x3e901c85	0.2814676
240	0xbc3413b8	-0.010991029
241	0x3da5974c	0.08085498
242	0xbe14b02c	-0.14520329
243	0x3d8dbf45	0.069212474
244	0xbe0e9d50	-0.13927197
245	0x3e85540b	0.26040682
246	0xbe6a7883	-0.22897534
247	0x3cd554c4	0.026041396
248	0xbe01affb	-0.12664787
249	0xbdd184db	-0.10230418
250	0x3e801df6	0.25022858
251	0x3e298c2a	0.16557375
252	0x3ad079b7	0.0015905414
253	0x3df18983	0.117938064
254	0x3db9b949	0.090685435
255	0x3ec4d72d	0.38445416

actor.2.bias f4 [64]
0	0xbe78f219	-0.24311103
1	0x3b933b26	0.004493135
2	0xbe05f776	-0.1308268
3	0x3de56c5c	0.112023085
4	0xbdaff497	-0.08591574
5	0xbded7b42	-0.11595775
6	0xbe48e174	-0.19617254
7	0xbe997e6e	-0.2997927
8	0xbde20c19	-0.11037464
9	0xbc4b5dc9	-0.012412497
10	0xbe7a6647	-0.24453078
11	0xbed1a777	-0.40948078
12	0xbe947919	-0.2899864
13	0xbd20f917	-0.03930005
14	0x3e4d8367	0.20069657
15	0xbe38e618	-0.18056524
16	0xbd159b59	-0.036525104
17	0xbeab2302	-0.33425146
18	0xbe57031b	-0.20997278
19	0xbe5bab90	-0.21452165
20	0xbe939954	-0.28827918
21	0xbe81d7e5	-0.25360027
22	0xbe46ab05	-0.19401176
23	0xbe6ff0e1	-0.23431732
24	0xbe94d767	-0.2907059
25	0xbe88aad8	-0.26692843
26	0xbe89460d	-0.26811257
27	0xbe3d1f8e	-0.18469068
28	0xbdca1c11	-0.098686345
29	0xbe97f049	-0.2967551
30	0x3e7b1791	0.24520709
31	0xbec83ebb	-0.3911036
32	0xbd811524	-0.063028604
33	0x3dcd6ce2	0.100305334
34	0xbe8325e6	-0.25614852
35	0xbe26233f	-0.16224383
36	0xbeb44508	-0.35208917
37	0xbe70ad39	-0.23503579
38	0xbe438314	-0.19092971
39	0xbd5682d1	-0.05237085
40	0xbe9f9e56	-0.31175488
41	0xbe6a5960	-0.22885656
42	0xbd344359	-0.04400954
43	0xbda30f01	-0.07961846
44	0xbe5951c9	-0.21222605
45	0xbec46248	-0.38356233
46	0xbbe7c3b5	-0.0070728906
47	0xbe0906dd	-0.13381524
48	0x3dcfd3fd	0.101478554
49	0xbe4e8b1e	-0.20170256
50	0x3c9a0f29	0.018806057
51	0xb9b81e46	-0.0003511777
52	0xbe4fa6b8	-0.20278442
53	0xbe1b3c67	-0.1515976
54	0xbcb5e5d0	-0.02220431
55	0xbe8a3f8e	-0.27001613
56	0xbdf12d36	-0.117762014
57	0xbd713ffc	-0.05889891
58	0xbd1dc9f6	-0.038522683
59	0xbe4f8915	-0.20267136
60	0xbea6e97e	-0.32600015
61	0xbe66b360	-0.22529364
62	0x3c9a4fe8	0.01883693
63	0x3cf8032a	0.030274946

actor.4.weight f4 [7, 64]
0	0xbc4bcb0d	-0.012438548
1	0x3e5042ae	0.20337936
2	0x3d872e90	0.06600678
3	0xbdbc7318	-0.0920164
4	0xbc63f115	-0.013912459
5	0x3ddd23b7	0.10797828
6	0x3d96ad2d	0.073572494
7	0x3d2c32b1	0.04204053
8	0xbe4cf9a9	-0.20017113
9	0x3d88605a	0.066590026
10	0x3e22e351	0.15907027
11	0x3de31235	0.11087457
12	0x3d28a7bb	0.041175585
13	0x3e384582	0.17995265
14	0x3e77961c	0.24178356
15	0xbe62a846	-0.22134504
16	0x3dae5dc4	0.08513978
17	0xbabf44b2	-0.0014592616
18	0xbcb83597	-0.022486491
19	0x3c964c0d	0.01834681
20	0xbe9c3c66	-0.3051483
21	0x3d99efe6	0.0751646
22	0x3d69fbeb	0.057125013
23	0xbdecfee4	-0.11572054
24	0xbb239aad	-0.002496402
25	0x3e19e60b	0.1502916
26	0xbda4348b	-0.08017834
27	0xbbc04afd	-0.0058683143
28	0x3dd86bbf	0.10567426
29	0xbd92bbb9	-0.071647115
30	0xbd08e7c4	-0.033424154
31	0xbb577e1c	-0.0032881564
32	0x3e0ca0d1	0.13733222
33	0x3e59c6aa	0.2126719
34	0x3e56fc5f	0.2099471
35	0x3d8dff32	0.0693344
36	0xbdb4e3fa	-0.088325456
37	0x3de09a91	0.10966981
38	0x3d17d9f1	0.03707308
39	0x3de7dc05	0.11321262
40	0x3e582811	0.21109034
41	0x3d94da36	0.07268183
42	0xbe875236	-0.2642991
43	0xbd08c244	-0.03338839
44	0x3ceb3b4e	0.028714802
45	0xbc664d52	-0.014056521
46	0x3e9e37af	0.30901858
47	0xbca0b912	-0.019619498
48	0x3e07a6a8	0.13247168
49	0xbc9307e3	-0.017948097
50	0x3e135b86	0.14390382
51	0xbcd3d7ef	-0.025859801
52	0xbd02c5ad	-0.0319268
53	0x3c3e443f	0.011612951
54	0x3cc51fb3	0.024062967
55	0xbd9ba3d6	-0.075996086
56	0x3e181204	0.14850622
57	0xbe6f74cb	-0.23384397
58	0x3c33b2dc	0.010967936
59	0x3d11fd53	0.03564198
60	0x3ddc4399	0.10755081
61	0x3e69ee9a	0.22844926
62	0x3dac5070	0.0841378
63	0xbd0d9e53	-0.034574818
64	0x3dc272e2	0.094945684
65	0x3db94a2f	0.090473525
66	0x3e3ffe1b	0.18749277
67	0x3d5ed276	0.05439993
68	0xbdb667b0	-0.089064956
69	0xbd7d5120	-0.061844945
70	0xbe1769c1	-0.14786436
71	0xbd01b8c6	-0.031670354
72	0xbd18109c	-0.037125215
73	0x3d6d8698	0.057989687
74	0xbe742ea2	-0.23845914
75	0x3cb9f9d4	0.022702135
76	0xbcae9b0c	-0.021314166
77	0xbca05514	-0.019571818
78	0x3d7e88c9	0.062142167
79	0x3dda3605	0.10654835
80	0xbe303adf	-0.17209958
81	0xbe1c302f	-0.15252756
82	0x3e65c7ba	0.22439471
83	0xbdf6df86	-0.120543525
84	0xbcf61b56	-0.030042332
85	0x3e0eec78	0.13957393
86	0x3cba5f3e	0.022750493
87	0xbcd459f3	-0.025921797
88	0xbe257616	-0.16158327
89	0x3d8c283f	0.06843614
90	0xbe31b5f7	-0.1735457
91	0xbd2fb782	-0.042899616
92	0x3c9dcde1	0.01926321
93	0x3d9d6c09	0.07686622
94	0x3e7f23b2	0.2491596
95	0x3d0d7397	0.034534063
96	0x3e3eab78	0.18620098
97	0xbdd4d1ac	-0.10391554
98	0xbe206fab	-0.15667598
99	0xbe8c703e	-0.27429384
100	0xbe392b95	-0.18083031
101	0xbd5e2e6b	-0.054243486
102	0x3e90b055	0.2825953
103	0x3d3ca089	0.046051536
104	0xbde3d639	-0.11124844
105	0xbcba57c7	-0.022746934
106	0xbd993478	-0.07480711
107	0x3d0ca343	0.034335386
108	0x3e85c17e	0.26124185
109	0xbe16c74c	-0.14724463
110	0x3e4628af	0.19351457
111	0xba1dc18b	-0.0006017915
112	0x3e1b207a	0.15149108
113	0x39e55774	0.0004374344
114	0x3e087c9a	0.13328782
115	0xbcc2b36c	-0.023767196
116	0x3c1568cf	0.009119227
117	0xbe2e4d7b	-0.17021744
118	0xbde4c037	-0.111694746
119	0x3d460d3d	0.04835247
120	0x3c8cd389	0.017190712
121	0x3d8cfdc4	0.068843395
122	0xbd817976	-0.06321995
123	0xbe9829c1	-0.29719356
124	0x3d97972a	0.07401879
125	0x3d2bb565	0.04192104
126	0x3d7e8894	0.06214197
127	0x3d9601ce	0.07324563
128	0x3da0ce09	0.07851798
129	0xbbb1c9b7	-0.0054256576
130	0x3e186f00	0.14886093
131	0xbdd27856	-0.102768585
132	0xbde9b096	-0.11410634
133	0xbe337e2d	-0.17528601
134	0x3e43a9bf	0.19107722
135	0x3da8b690	0.08237946
136	0xbea26cb9	-0.31723574
137	0x3e35591a	0.17709771
138	0x3e0968e1	0.13418914
139	0x3bb41d5b	0.0054966635
140	0x3bc568f5	0.0060244747
141	0xbdff79cf	-0.12474405
142	0x3e8c76c3	0.27434358
143	0x3dcf22cb	0.10114058
144	0xbe4c4b48	-0.19950593
145	0xbdb20cd5	-0.08693854
146	0x3d1a2f69	0.03764287
147	0x3e00bfb1	0.12573124
148	0xbe7a896c	-0.24466485
149	0x3d39d3bd	0.045367945
150	0x3dfee1e5	0.1244543
151	0xbe2ded94	-0.1698516
152	0xbd2d356d	-0.04228728
153	0x3d8fdbd2	0.07024349
154	0xbcd7e664	-0.026354976
155	0xbdf38f6f	-0.11892592
156	0x3dd4fd77	0.10399907
157	0xbdedcd54	-0.11611429
158	0xbe84b00f	-0.25915572
159	0x3e419b14	0.18906814
160	0x3cac5493	0.021036422
161	0x3e497b64	0.19675976
162	0x3d881f40	0.066465855
163	0x3dd6b93b	0.10484549
164	0x3dd23aa0	0.10265088
165	0x3cd8dc92	0.026472364
166	0x3db1fa53	0.08690324
167	0x3d2f7363	0.04283465
168	0x3e483303	0.1955071
169	0xbd9c6d24	-0.076380044
170	0xbdaa1963	-0.083056234
171	0xbd74e6f8	-0.05979058
172	0xbe32a690	-0.17446351
173	0xbe12e945	-0.14346798
174	0x3ec07d01	0.3759537
175	0x3e006fcf	0.12542652
176	0xbd074670	-0.03302616
177	0xbcd69a4a	-0.026196618
178	0x3da14b38	0.07875675
179	0xbd51b240	-0.051195383
180	0x3d543f88	0.0518184
181	0xbd2ca7ed	-0.042152334
182	0xbca06b4a	-0.01958241
183	0xbd6f54d1	-0.058430497
184	0x3e07a100	0.1324501
185	0xbe3dbce3	-0.18529086
186	0xbdbfe82a	-0.09370454
187	0xbd6454aa	-0.055744804
188	0x3dc62ef0	0.09676921
189	0x3e402c14	0.18766814
190	0x3e177b25	0.1479307
191	0xbdbfaf94	-0.09359661
192	0x3e82d038	0.25549483
193	0xbde49e60	-0.1116302
194	0x3e8a07cc	0.26959074
195	0xbe2c4efd	-0.16827007
196	0xbde2c9b7	-0.1107363
197	0xbc324ad8	-0.010882102
198	0x3db6d9b0	0.08928239
199	0x3e55574a	0.2083408
200	0x3db3ce8a	0.087796286
201	0xbd6d0a64	-0.057871237
202	0x3e8130b5	0.25232473
203	0xbda9341e	-0.08261894
204	0x3e5a9dfd	0.2134933
205	0xbe4decb4	-0.20109826
206	0xbeca47fa	-0.3950804
207	0xbddc4d2e	-0.10756908
208	0x3cb2db53	0.021833098
209	0x3db63b6a	0.08898051
210	0x3e8866c0	0.26640892
211	0xbe57731b	-0.21040003
212	0x3dba9b5f	0.09111666
213	0x3de3b6f3	0.11118879
214	0x3cb044a5	0.021517107
215	0xbe5fc511	-0.21852519
216	0x3c50828b	0.012726436
217	0x3d778f70	0.060439527
218	0x3e4ad9b9	0.19809617
219	0x3cd873d7	0.026422424
220	0xbe6cbf84	-0.23119932
221	0x3e4110c8	0.18854058
222	0xbc117e6a	-0.008880237
223	0xbd8e9d34	-0.06963578
224	0x3e1e9a5c	0.15488571
225	0x3d901155	0.07034556
226	0x3cf66514	0.030077495
227	0x3d76acff	0.060223576
228	0x3d3832e7	0.04497042
229	0x3db1ba91	0.08678163
230	0x3dbed9ea	0.093189076
231	0xbdd5589c	-0.104172915
232	0xbe596fd0	-0.2123406
233	0x3e2a8d1e	0.16655394
234	0xbeb7e875	-0.35919538
235	0x3e14a90b	0.1451761
236	0x3e3bdaa7	0.18345128
237	0x3e422b49	0.18961824
238	0x3da994ed	0.082803585
239	0x3c9b2c53	0.018942034
240	0xbe5d619d	-0.21619268
241	0xbeaa802e	-0.33300918
242	0x3be83ba1	0.0070871864
243	0xbdf50eef	-0.11965739
244	0x3dfe6204	0.12421039
245	0xbc071f5f	-0.008247226
246	0xbe1995e9	-0.14998592
247	0xbc47a94f	-0.012186362
248	0xbe01ce13	-0.12676267
249	0xbdee3c1a	-0.11632557
250	0xbc3d9470	-0.011571035
251	0xbe8c242e	-0.27371353
252	0x3ccd1fd1	0.025039585
253	0x3d26da2b	0.040735405
254	0xbdaadd31	-0.0834297
255	0xbe33e1bb	-0.17566578

actor.4.bias f4 [7]
0	0xbc8a248b	-0.016863128
1	0x3e2a8962	0.1665397
2	0xbd3ecb1c	-0.04658042
3	0x3de18043	0.11010792
4	0x3d525972	0.051354833
5	0xbe434120	-0.19067812
6	0x3da9c4a4	0.08289459

critic.0.weight f4 [64, 32]
0	0xbc66967a	-0.014073962
1	0xbda6b791	-0.08140481
2	0x3dc1fff9	0.09472651
3	0x3e35a5aa	0.17738977
4	0xbe1563ae	-0.14588806
5	0x3d884e6e	0.06655584
6	0xbe966184	-0.29371274
7	0x3df1d608	0.11808401
8	0xbc78f466	-0.015194988
9	0x3d00bba6	0.031428955
10	0xbdf70803	-0.12062075
11	0x3c924700	0.017856121
12	0xbd98c165	-0.07458762
13	0x3c71f963	0.014768931
14	0xbbcf0eac	-0.0063188877
15	0x3c54b7f9	0.012983316
16	0xbe325a21	-0.17417194
17	0xbde3c5e8	-0.11121732
18	0xbeaba432	-0.3352371
19	0x3d64b304	0.055834785
20	0x3e806af0	0.25081587
21	0x3d3535c7	0.04424074
22	0xbe541c29	-0.20713867
23	0xbea29568	-0.31754613
24	0xbdfd6895	-0.12373463
25	0x3dc5b607	0.096538596
26	0xbda672da	-0.08127375
27	0xbca8d1e7	-0.020607902
28	0x3b84c927	0.0040522995
29	0xbdaee471	-0.085396655
30	0xbd3c56c7	-0.045981195
31	0xbc285688	-0.010274537
32	0xbe3dc004	-0.1853028
33	0x3de7214a	0.11285646
34	0xbd04499a	-0.032296754
35	0x3e2c67f1	0.16836525
36	0x3d9d4978	0.07680029
37	0x3e619dba	0.22032824
38	0x3dbdceec	0.09267983
39	0x3c2baa7d	0.010477659
40	0x3d81576a	0.06315501
41	0x3d41665e	0.047216766
42	0x3b5f9dfd	0.0034121268
43	0xbc0bd5a4	-0.008534823
44	0xbd1055f9	-0.03523824
45	0xbd5544ad	-0.052067447
46	0xbd6610ec	-0.05616848
47	0xbda6f2c4	-0.081517726
48	0xbe023103	-0.12714009
49	0x3d735e6b	0.059416216
50	0x3e409ef7	0.1881064
51	0xbed4e523	-0.41581067
52	0x3c2ce806	0.010553366
53	0x3d8da849	0.069168635
54	0x3eaedc72	0.3415256
55	0x3e1b59c3	0.1517096
56	0xbc1d52a6	-0.009602224
57	0xbdafc8f1	-0.085832484
58	0x3da99540	0.0828042
59	0x3d30913f	0.043107267
60	0x3c51190e	0.012762321
61	0x3d099c95	0.033596594
62	0x3db2a62f	0.08723103
63	0xbe495f38	-0.1966523
64	0xbd1ae7db	-0.03781877
65	0x3dee550e	0.11637317
66	0xbe8d562c	-0.27604806
67	0x3d25f103	0.04051305
68	0x3e04d4cc	0.129718
69	0x3c6172f8	0.013760321
70	0xbda1a32a	-0.07892449
71	0x3cd0ce47	0.025488986
72	0x3e298a83	0.16556744
73	0xbdad1184	-0.084506065
74	0xbe41b54f	-0.1891682
75	0xbdded70f	-0.10880863
76	0xbdbd7280	-0.09250355
77	0x3d9c5af0	0.076345325
78	0xbd95af16	-0.073087856
79	0x3c3df4f5	0.011594047
80	0x3e05bf9b	0.13061373
81	0xbd04dd5e	-0.032437675
82	0xbe1a58a0	-0.1507287
83	0xbf067b1a	-0.5253159
84	0xbdc803c2	-0.09766342
85	0x3d6020d4	0.054718807
86	0x3b6da3e7	0.0036261023
87	0xbdd3d2c6	-0.10342936
88	0xbdb3e97b	-0.08784767
89	0x3d67b58c	0.05656962
90	0xbbca651d	-0.0061766044
91	0xbdadc599	-0.084849544
92	0x3e03e202	0.12879184
93	0xbc8982b1	-0.016785951
94	0xbbf1a87e	-0.007374822
95	0xbb9182ff	-0.004440665
96	0xbe21475b	-0.15749876
97	0x3d12a6f5	0.035803754
98	0x3d2aa56a	0.041661657
99	0xbe31805e	-0.17334124
100	0x3d61bfac	0.055114433
101	0x3c268e8b	0.010165821
102	0x3e7688bc	0.24075598
103	0x3e8661f0	0.26246595
104	0x3df729af	0.120684974
105	0xbda522b6	-0.08063261
106	0xbcede650	-0.029040486
107	0xbd99242d	-0.07477603
108	0x3db68cb3	0.08913555
109	0x3c19d74f	0.0093897125
110	0x3c714c4e	0.014727665
111	0xbc071a3c	-0.008246001
112	0x3dae793d	0.08519218
113	0x3e924b65	0.28573146
114	0xbe06fa2d	-0.13181372
115	0xbf477afc	-0.77922034
116	0xbe9bcf68	-0.30431676
117	0xbdfdd6df	-0.12394499
118	0xbf8fe314	-1.1241174
119	0x3e7b59f0	0.24546027
120	0x3e2554fe	0.16145703
121	0xbcacf36f	-0.021112172
122	0xbdd7f877	-0.10545438
123	0x3db029b0	0.08601701
124	0xbd1feb34	-0.039042667
125	0xbdca75c7	-0.098857455
126	0x3cf10235	0.029419998
127	0x3d40c6b1	0.047064487
128	0xbe2b4cad	-0.16728468
129	0xbddcbbbd	-0.10777996
130	0x3d8a8d3c	0.067652196
131	0xbc1ef23f	-0.009701311
132	0x3e82b721	0.2553034
133	0x3dbc8960	0.0920589
134	0x3e76de2f	0.24108194
135	0x3cf70060	0.030151546
136	0x39e2df2d	0.00043272358
137	0x3c86863c	0.01642143
138	0xbc944b3d	-0.018102283
139	0xbc55bcfb	-0.013045545
140	0x3c39c15d	0.011337605
141	0xbbd98c8a	-0.006639068
142	0x3c3124ad	0.010811967
143	0xbbe105e5	-0.0068671578
144	0xbd2855ef	-0.041097578
145	0x3c8e187b	0.017345658
146	0x3e6fcbae	0.23417541
147	0xbdc4b332	-0.09604491
148	0x3df08763	0.11744573
149	0x3d23bce9	0.03997508
150	0xbf263945	-0.64931136
151	0x3ebba01b	0.36645588
152	0xbe11332b	-0.14179675
153	0xbc60e40c	-0.013726246
154	0xbd9ef61b	-0.07761785
155	0xbd1e9919	-0.038720224
156	0xbc2c29a7	-0.010507978
157	0x3bd0f774	0.006377155
158	0xbd56b5c8	-0.052419454
159	0x3d851f7d	0.065001465
160	0xbdad0277	-0.08447736
161	0xbb761542	-0.0037549292
162	0xbca5fcf3	-0.020262217
163	0xbd4ffc70	-0.050777853
164	0x3e23f618	0.16011846
165	0x3de6dcbe	0.11272572
166	0x3c899115	0.016792813
167	0xbdf4059e	-0.11915134
168	0x3ce888ba	0.028385509
169	0x3c9779d3	0.018490708
170	0x3ce9e46a	0.0285513
171	0xbcb1f6bc	-0.021724097
172	0x3e070179	0.13184156
173	0xbc974f31	-0.018470379
174	0x3bc6fbb2	0.006072485
175	0x3adacff2	0.0016694053
176	0x3cc8c13d	0.024506206
177	0xbe3377b3	-0.1752613
178	0xbe94073f	-0.28911778
179	0x3e15ae9d	0.14617391
180	0xbe76770c	-0.2406885
181	0xbe1ac99b	-0.15115969
182	0x3f1bce42	0.608616
183	0x3eeadd5a	0.45872003
184	0x3d9186c0	0.0710578
185	0xbdb83e17	-0.08996218
186	0x3e31ad63	0.17351298
187	0x3c7c1370	0.015385494
188	0x3d44a329	0.048007164
189	0x3d026cec	0.031842157
190	0x3cae8fbb	0.02130877
191	0xbca0fbf8	-0.019651398
192	0x3e1a4ec2	0.15069106
193	0x3e5d8e11	0.21636225
194	0xbdc8acf3	-0.097986124
195	0x3e233896	0.15939555
196	0x3e1370a9	0.14398445
197	0x3de48c17	0.111595325
198	0x3d8e3ec3	0.069455646
199	0xbdd80362	-0.1054752
200	0x3e064544	0.1311236
201	0x3c6a551e	0.01430252
202	0x3d0de9ae	0.034646682
203	0x3cd2757d	0.025690788
204	0x3cf35ec8	0.029708281
205	0x3ce9ca5b	0.028538873
206	0xbcafbd75	-0.021452645
207	0xbcad80d7	-0.0211796
208	0xbe403a4f	-0.18772243
209	0xbea7e330	-0.32790518
210	0x3e77bffe	0.24194333
211	0xbfe9905b	-1.8247179
212	0xbd368cff	-0.044568058
213	0x3e1123f7	0.14173876
214	0xbf639ab5	-0.8890794
215	0x3d3bda21	0.04586232
216	0xbd1e8a4f	-0.03870612
217	0xbccbe65f	-0.024890123
218	0x3d5392d0	0.051653683
219	0x3be147c3	0.0068750097
220	0x3d1421de	0.03616511
221	0x3d00545d	0.031330455
222	0x3d6018b6	0.054711066
223	0x3d179719	0.037009332
224	0x3d90dc3f	0.070732586
225	0x3e2bc439	0.16774072
226	0xbd953c08	-0.07286841
227	0xbd89608d	-0.06707869
228	0xbdc36fd7	-0.09542816
229	0xbe9015c5	-0.2814161
230	0xbe0e29b1	-0.13883092
231	0x3e518fef	0.20465063
232	0x3e1728e5	0.14761694
233	0xbc2a2720	-0.010385305
234	0x3d4287e5	0.04749288
235	0x3d05d2a0	0.03267157
236	0xbc8cf0e1	-0.017204704
237	0x3cc4c4dd	0.024019653
238	0x3d2c46f6	0.04205986
239	0x3d167c54	0.036739662
240	0xbdd34e81	-0.10317708
241	0x3c903cdc	0.017607145
242	0x3e466bfc	0.1937713
243	0x3ef9515e	0.4869489
244	0xbe67a96b	-0.22623222
245	0x3e024e5c	0.12725204
246	0xbf17f615	-0.59359866
247	0xbd7baa16	-0.061441503
248	0x3e08018e	0.13281843
249	0xbd80209e	-0.06256221
250	0xbd081756	-0.03322538
251	0xbd646f91	-0.05577046
252	0xbb5f6beb	-0.0034091424
253	0xbc696d85	-0.014247303
254	0xbcb9bedc	-0.022674017
255	0x3c4f06b3	0.012635875

critic.0.bias f4 [64]
0	0x3e082e84	0.13298994
1	0xbe35cf26	-0.17754802
2	0xbde3d1b8	-0.11123985
3	0xbe03543c	-0.12825102
4	0xbc855c41	-0.016279342
5	0xbda368f9	-0.07979006
6	0xbd8d0fb6	-0.06887762
7	0x3d3f94d8	0.046772808
8	0xbd4e098a	-0.050302066
9	0xbe045e1d	-0.12926526
10	0xbbcb8490	-0.006210871
11	0x3ddf35de	0.10898946
12	0xbc938349	-0.018006938
13	0xbdd70295	-0.10498539
14	0x3d8a9a8b	0.06767758
15	0xbdcf8b76	-0.10134022
16	0xbde09c5e	-0.10967325
17	0x3e105944	0.14096552
18	0xbcae4f35	-0.021278003
19	0x3ddd931f	0.10819077
20	0x3e0a9abb	0.13535587
21	0xbdba6c11	-0.09102643
22	0x3da55a1c	0.080738276
23	0xbd358e42	-0.04432512
24	0x3d92e080	0.07171726
25	0xbd25e7e3	-0.040504348
26	0x3ced5c08	0.028974548
27	0x3cf72ad1	0.030171784
28	0xbd9ec213	-0.077518605
29	0x3e4d907b	0.20074646
30	0xbd46e420	-0.0485574
31	0xbc20a5ad	-0.009805125
32	0xbd8e37b5	-0.06944219
33	0xbd128047	-0.035766866
34	0x3d1b118c	0.03785853
35	0xbdbd8dd5	-0.09255568
36	0xbd7edf44	-0.06222464
37	0x3e497bd1	0.19676138
38	0xbe13cc7d	-0.14433475
39	0xbc760891	-0.015016691
40	0x3d471755	0.048606236
41	0x3d9e45bf	0.07728147
42	0x3d94db8d	0.072684385
43	0xbe6f4b69	-0.2336861
44	0xbe316a2c	-0.17325658
45	0x3c0a743c	0.008450564
46	0xbe8435a9	-0.2582219
47	0xbe3edc0f	-0.18638633
48	0xbd89dd5e	-0.067316756
49	0xbd768e02	-0.060194023
50	0xbe4d60a2	-0.20056394
51	0xbe1ea5b2	-0.15492895
52	0x3d2284c2	0.03967739
53	0xbe023635	-0.12715991
54	0xbdd4b749	-0.10386521
55	0xbdb30212	-0.08740629
56	0x3de0f746	0.10984664
57	0xbd3f2588	-0.046666652
58	0xbdf91ee8	-0.12164098
59	0xbd9c445b	-0.07630225
60	0xbcb2a2b5	-0.0218061
61	0x3e4c680b	0.19961564
62	0x3e1ee5da	0.15517369
63	0xbdc1785f	-0.09446787

critic.2.weight f4 [64, 64]
0	0xbde98157	-0.11401623
1	0xbc93fffa	-0.018066395
2	0x3e5559c7	0.20835029
3	0x3deb5b22	0.114919916
4	0x3bd2c49b	0.0064321286
5	0xbc9f41b7	-0.019440515
6	0x3dc2d3df	0.095130675
7	0x3dad979c	0.08476183
8	0x3e8a14d5	0.2696902
9	0x3e374822	0.1789861
10	0x3aa314ee	0.0012442151
11	0xbda0a140	-0.07843256
12	0xbe8a64f6	-0.27030152
13	0x3e018cc2	0.12651351
14	0x3d02d529	0.031941567
15	0x3d778e48	0.060438424
16	0xbd51e651	-0.051245037
17	0xbe369741	-0.17831136
18	0xbdfb8783	-0.12281706
19	0xbe2d6dc1	-0.16936399
20	0x3d150db2	0.036390014
21	0xbe2a55a0	-0.16634226
22	0xbd270974	-0.0407805
23	0x3a811c0e	0.000985028
24	0xbcca7aff	-0.024716852
25	0xbca4dca1	-0.020124735
26	0x3d97d9b5	0.07414571
27	0xbd6fded9	-0.058562133
28	0x3dd09c0b	0.10186013
29	0xbe620f97	-0.2207626
30	0x3dafaf8a	0.08578403
31	0xbdccf106	-0.10006909
32	0x3d2465fe	0.04013633
33	0x3d21f7d3	0.039542984
34	0x3e1233c6	0.14277562
35	0x3d89bd5f	0.06725573
36	0xbd3fc1a8	-0.046815544
37	0xbe6ca061	-0.23108055
38	0xbe69b771	-0.22823884
39	0x3dc81304	0.09769252
40	0x3dc2e5c3	0.0951648
41	0xbd9c3384	-0.07627013
42	0xbd8da013	-0.06915297
43	0xbe3a894a	-0.18216434
44	0xbd257000	-0.040390015
45	0x3e3eb5d6	0.18624052
46	0x3e03acba	0.12858859
47	0xbe1c574b	-0.15267675
48	0xbd6a3600	-0.057180405
49	0xbca230d2	-0.01979867
50	0x3d4a6708	0.049414665
51	0xbddc43d2	-0.10755123
52	0x3d840039	0.06445355
53	0xbdcc9195	-0.09988705
54	0xbd9f8e9a	-0.07790871
55	0xbcaacaa4	-0.02084858
56	0x3e2509ab	0.1611697
57	0x3e053f3e	0.13012406
58	0x3d1d9b09	0.03847793
59	0x3dbd0457	0.092293434
60	0xbd76ff2f	-0.060301956
61	0x3ca078ca	0.019588847
62	0x3c805cb0	0.015669197
63	0xbd9db4d0	-0.07700503
64	0xbd817a5c	-0.06322166
65	0xbdc37796	-0.095442936
66	0xbcff50d0	-0.031166464
67	0x3ddd9485	0.108193435
68	0xbbfcfb3b	-0.0077203787
69	0x3d7297cf	0.059226807
70	0xbd400d11	-0.04688746
71	0xbcddcf02	-0.027076248
72	0xbdf17f20	-0.11791825
73	0x3e4ab4c1	0.19795515
74	0x3e389af8	0.18027866
75	0x3e1dff3f	0.154294
76	0xbe50aba4	-0.20377976
77	0xbd00c36b	-0.031436365
78	0x3e92495a	0.28571588
79	0xbce14de7	-0.027502967
80	0x3d3ebfcc	0.04656963
81	0xbde05bb3	-0.1095499
82	0x3bd9f4c3	0.0066514923
83	0xbde33c74	-0.11095515
84	0x3e6566b9	0.22402467
85	0xbd9d2882	-0.07673742
86	0xbd403147	-0.046921995
87	0x3e347234	0.1762169
88	0x3e0ac1eb	0.13550536
89	0x3e22ce36	0.15898976
90	0x3d9a1e96	0.07525365
91	0x3d32ae51	0.043623272
92	0x3d75740d	0.059925128
93	0xbdcee252	-0.10101761
94	0x3d6a0114	0.057129934
95	0xbb85df37	-0.004085447
96	0x3dbc5e9c	0.09197733
97	0xbdab969a	-0.08378334
98	0xbe1169b3	-0.14200477
99	0xbdc536a1	-0.0962956
100	0xbdf4c9e2	-0.119525686
101	0xbd233e70	-0.039854467
102	0xbdfa6438	-0.122261465
103	0x3e907bd8	0.28219485
104	0x3ccf0e64	0.025275417
105	0xbdf8794a	-0.12132509
106	0x3e8c0694	0.2734877
107	0xbe1fc246	-0.15601453
108	0xbde46c73	-0.111534975
109	0x3d7f6a12	0.062357016
110	0xbd054693	-0.032538008
111	0x3c63a6bd	0.013894734
112	0xbd5ea201	-0.054353718
113	0xbe6a57b8	-0.22885025
114	0xbdd4e003	-0.10394289
115	0xbd1a8902	-0.037728317
116	0x3ce8c5e1	0.028414669
117	0xbe5c3760	-0.21505499
118	0xbc33b868	-0.010969259
119	0xbdb7da42	-0.08977176
120	0x3e2f9356	0.17146048
121	0x3cdfb9fb	0.027310362
122	0x3cd552ba	0.026040424
123	0x3e527267	0.20551454
124	0x3c4954ff	0.012288331
125	0x3e3b858a	0.1831266
126	0x3e2f91cd	0.17145462
127	0x3db19fd3	0.08673062
128	0x3db40426	0.08789854
129	0xbd3c406d	-0.04595988
130	0x3d3829cf	0.044961747
131	0xbde66cc9	-0.11251218
132	0x3d659812	0.05605323
133	0x3b992e29	0.004674692
134	0xbda37e18	-0.07983035
135	0x3e1809ca	0.14847484
136	0xbe45bdf4	-0.19310743
137	0x3c4e21fb	0.012581344
138	0x3cedbb3d	0.029019946
139	0x3c9f2fe7	0.019432021
140	0xbe25508b	-0.16144006
141	0x3e1435c4	0.14473635
142	0xbd9b150a	-0.07572372
143	0x3e05fd41	0.1308489
144	0xbdad2672	-0.084545985
145	0x3e30d601	0.17269136
146	0xbce5a339	-0.028031932
147	0x3e292f18	0.16521871
148	0x3dac4072	0.084107295
149	0xbe6d4d01	-0.23173906
150	0xbd1e8cbf	-0.038708445
151	0xbd277baf	-0.04088944
152	0xbe05d5dd	-0.13069864
153	0x3e1705c2	0.1474829
154	0x3c8e062a	0.017336924
155	0xbdae7971	-0.08519257
156	0xbccf5748	-0.025310174
157	0x3e2cddf5	0.16881545
158	0x3d3fc6d8	0.04682049
159	0x3dcf4faa	0.101226166
160	0xbb84a503	-0.0040479912
161	0xbd6ba3b8	-0.05752918
162	0x3d1d151a	0.038350202
163	0xbc7bacb0	-0.015360996
164	0xbd327e23	-0.043577325
165	0x3d6e1c6b	0.05813257
166	0xbc137929	-0.009001055
167	0xbc8b7c8b	-0.01702716
168	0x3d393f59	0.04522643
169	0xbdd722b7	-0.10504668
170	0x3d94b2e1	0.07260681
171	0xbe115dc9	-0.14195932
172	0xbd6311f2	-0.055437036
173	0x3ce64947	0.028111113
174	0xbdc5e70a	-0.09663208
175	0xbe0161cd	-0.12634964
176	0xbd9484dc	-0.072519034
177	0x3d84ba61	0.064808615
178	0xbdf09646	-0.117474124
179	0xbd83c725	-0.06434468
180	0x3d9d0135	0.07666246
181	0x3e0db947	0.13840209
182	0x3dcda274	0.10040751
183	0x3d024ebb	0.031813364
184	0xbd42fab8	-0.047602385
185	0xba3a31dd	-0.0007102767
186	0x3e2b557e	0.16731831
187	0xbe10631b	-0.14100306
188	0x3daa8bee	0.08327471
189	0x3dee9a52	0.11650528
190	0x3db76289	0.08954341
191	0xbcbd48d7	-0.023106022
192	0xbdc90b3e	-0.098165974
193	0x3b95a93d	0.004567294
194	0x3e63d05e	0.22247455
195	0xbd1abbd3	-0.03777678
196	0xbdde269f	-0.1084721
197	0xbd297d90	-0.04137951
198	0x3c212904	0.009836439
199	0xbcb2bf9d	-0.021819884
200	0xbd3bfbaa	-0.045894302
201	0x3f1fab1d	0.62370473
202	0x3c86c4be	0.016451236
203	0x3edae057	0.42749283
204	0xbea5fe47	-0.3242056
205	0xbdfce3c7	-0.123481326
206	0xbca97b74	-0.02068875
207	0x3e365595	0.17806084
208	0x3cb1b2b4	0.021691658
209	0x3c0d161c	0.008611228
210	0xbd0db800	-0.034599304
211	0x3e91a870	0.2844882
212	0x3f224ec1	0.6340142
213	0xbe32d6cc	-0.17464751
214	0xbcd459ee	-0.025921788
215	0x3b81604e	0.003948248
216	0xbe40203b	-0.18762295
217	0x3dbc624d	0.09198437
218	0x3e574555	0.21022542
219	0xbdcbc2e0	-0.09949279
220	0x3da3cfe7	0.079986386
221	0xbe574ccd	-0.21025391
222	0x3c0b31ec	0.008495789
223	0x3da38267	0.07983857
224	0xbde2b7fa	-0.11070247
225	0xbd90589c	-0.07048151
226	0xbdc8dfef	-0.09808337
227	0xbc4af78f	-0.012388124
228	0x3e1ae0eb	0.15124862
229	0xbd44cb96	-0.048045717
230	0xbedd9b20	-0.43282413
231	0x3cf2e39c	0.029649548
232	0x3d9a84f5	0.07544891
233	0xbead7ae1	-0.33882812
234	0x3e33027f	0.17481421
235	0xbe852f8a	-0.26012832
236	0xbe65cda0	-0.22441721
237	0x3df526e3	0.11970308
238	0x3db781e3	0.08960321
239	0xbc1e4f82	-0.009662511
240	0xbd0e9ea7	-0.03481927
241	0xbd514809	-0.05109409
242	0x3e924b13	0.28572902
243	0x3dfc0e5a	0.12307425
244	0xbd4d5c03	-0.050136577
245	0xbd4bf73f	-0.04979634
246	0xbd4be6e2	-0.049780734
247	0xbd06bf76	-0.032897435
248	0x3ebaaec1	0.36461452
249	0x3aecebbf	0.0018075629
250	0xbdf33e32	-0.11877097
251	0x3e88fd4a	0.26755744
252	0xbda46de3	-0.08028772
253	0xbd87a7fa	-0.06623836
254	0xbcc0ae5a	-0.023520637
255	0xbe085f01	-0.13317491

critic.2.bias f4 [64]
0	0xbceec8c2	-0.029148463
1	0xbe0ebec9	-0.13939966
2	0xbbaaa359	-0.005207461
3	0xbe9a967c	-0.30192935
4	0x3d904e27	0.070461564
5	0xbda9e260	-0.08295131
6	0xbd4f2f86	-0.05058243
7	0x3da8cf51	0.082426675
8	0x3e21026f	0.15723585
9	0x3da1d55d	0.07902024
10	0xbdce807d	-0.10083101
11	0xbe2eb85b	-0.17062514
12	0xbde7fdcf	-0.11327707
13	0x3d40e803	0.047096264
14	0x3c0dcb7b	0.008654471
15	0x3d68d6c5	0.056845445
16	0x3deba8cd	0.115068056
17	0xbdd434ac	-0.10361609
18	0xbe006fd7	-0.12542664
19	0x3d797141	0.060899023
20	0xbdb54d16	-0.088525936
21	0xbe2de2a6	-0.16980991
22	0x3d2dcc7b	0.042431336
23	0x3d5d60c8	0.054047376
24	0xbdb6fa57	-0.08934467
25	0x3c24af34	0.010051537
26	0xbe1ccb7c	-0.15311998
27	0xbc15f466	-0.009152507
28	0xbdd5fef1	-0.10449017
29	0x3c9bf048	0.019035473
30	0x3dbd5375	0.09244434
31	0xb99640fc	-0.00028658647
32	0xbc8dc061	-0.017303647
33	0x3da61068	0.08108598
34	0x3e053812	0.1300967
35	0x3e03f7c0	0.12887478
36	0xbd3f9050	-0.046768486
37	0x3cacc92b	0.021092018
38	0xbe5638f0	-0.20920157
39	0xbe035899	-0.12826766
40	0xbe55760d	-0.20845814
41	0xbd868fd5	-0.065704025
42	0x3dcd345e	0.10019754
43	0x3e39a67c	0.18129915
44	0x3d6c884e	0.057747178
45	0xbd392741	-0.04520345
46	0x3d6a118b	0.057145637
47	0xbc1ac294	-0.009445805
48	0x3df0f1ba	0.11764856
49	0xbd8959c6	-0.06706576
50	0x3e266f56	0.16253409
51	0xbb34b97b	-0.0027576375
52	0xbd89a954	-0.0672175
53	0xbd9f131c	-0.07767317
54	0x3cdb0a96	0.026738446
55	0xbc9d3d8f	-0.019194392
56	0xbdc9db2f	-0.09856259
57	0xbdbe4c59	-0.09291906
58	0xbd3c42ca	-0.045962133
59	0xbd85acc3	-0.06527092
60	0xbdf41d92	-0.119197026
61	0xbbf06525	-0.007336276
62	0xbd922bd4	-0.07137266
63	0x3b848b00	0.0040448904

critic.4.weight f4 [1, 64]
0	0xbd9cf045	-0.07663015
1	0xbd7f2446	-0.062290452
2	0xbd02dfb7	-0.031951632
3	0xbde88553	-0.113535546
4	0xbd136103	-0.03598119
5	0x3d0a62ca	0.03378562
6	0xbd3ef015	-0.04661568
7	0xbd2b038d	-0.041751433
8	0xbd90311a	-0.070406154
9	0xbd24088a	-0.040047206
10	0xbdf5dcac	-0.120049804
11	0x3dd81dd0	0.10552561
12	0xbc6fddf1	-0.014640317
13	0x3dc5fc11	0.096672185
14	0xbd352824	-0.044227734
15	0xbd3d94e4	-0.04628457
16	0xbcd6402c	-0.026153646
17	0x3e0e5e81	0.13903238
18	0xbd1a1783	-0.03762008
19	0x3d0273d1	0.031848732
20	0xbc9976d6	-0.018733423
21	0xbd750099	-0.059815023
22	0x3d1fa0b1	0.038971607
23	0x3baf92be	0.005358069
24	0x3d2cecee	0.04221814
25	0xbc883107	-0.01662494
26	0x3c1665b8	0.009179525
27	0x3d11f439	0.0356333
28	0x3cdb8d1c	0.026800685
29	0xbac6c4e4	-0.0015164879
30	0xbbacce65	-0.0052736276
31	0xbd158e7a	-0.03651283
32	0x3d0a6c7d	0.03379487
33	0xbd505d66	-0.05087032
34	0x3c0fe87f	0.008783459
35	0x3d10e261	0.03537214
36	0xbd25b821	-0.040458802
37	0x3c84f29c	0.016228966
38	0xbd614545	-0.0549977
39	0xbc08deb5	-0.008353879
40	0xb9e914c8	-0.00044456706
41	0xbd2c4d3a	-0.042065836
42	0xbca7d3ae	-0.020486679
43	0xbe184ecc	-0.14873809
44	0x3cb2087e	0.021732565
45	0x3e1471b6	0.14496502
46	0x3d3e9097	0.04652461
47	0xbb9cb526	-0.0047823368
48	0xbd832b9c	-0.06404802
49	0xbccd4467	-0.02505703
50	0x3c07894f	0.008272483
51	0x3d8f60c6	0.0700088
52	0xbd966248	-0.073429644
53	0xbc267b38	-0.010161214
54	0x3cc8bfcc	0.024505518
55	0x3d1a37d5	0.0376509
56	0xbd1707ff	-0.03687286
57	0xbd99562f	-0.07487141
58	0xbcd3147b	-0.025766602
59	0xbcea44f3	-0.02859733
60	0xbdb38d92	-0.08767237
61	0x3de57904	0.112047225
62	0xbde7d22f	-0.11319386
63	0xbc8b9282	-0.017037634

exp_avg f4 [7]
0	0x397809a9	0.00023654722
1	0x3b4196ad	0.0029539273
2	0x3b41531c	0.0029499
3	0xbb429eec	-0.0029696776
4	0xb9844b3d	-0.0002523306
5	0x3a6aadf9	0.00089523155
6	0xba826767	-0.0009949029

exp_avg_sq f4 [7]
0	0x39290150	0.00016117585
1	0x39e45e6d	0.00043557902
2	0x398e36b8	0.0002712512
3	0x3a21a0ec	0.0006165642
4	0x39ee27f1	0.00045424656
5	0x39acf405	0.00032988205
6	0x39875081	0.00025809187

exp_avg f4 [64, 32]
0	0x398e8e39	0.00027190315
1	0xba7f2ec4	-0.00097344466
2	0xb98b23e9	-0.000265389
3	0xba202978	-0.0006109695
4	0xb919fa6f	-0.00014684511
5	0x3a7c6f56	0.00096296275
6	0xbae20605	-0.0017244226
7	0x387ccf85	6.027475e-05
8	0x3881615d	6.169335e-05
9	0x39607457	0.00021405645
10	0xb8871873	-6.441856e-05
11	0xb887e2ac	-6.4795226e-05
12	0xb99289ff	-0.00027950105
13	0xb6ede1d5	-7.0894407e-06
14	0x399c1a11	0.0002977406
15	0x39948288	0.00028326013
16	0x37a5c816	1.9762705e-05
17	0x3777ce69	1.4770406e-05
18	0xba2009ac	-0.0006104957
19	0x37f6308f	2.9348097e-05
20	0xb9de9015	-0.0004245049
21	0x2e3f772d	4.353422e-11
22	0x39e248bb	0.00043160268
23	0xba828620	-0.0009958185
24	0x2da60092	1.8872268e-11
25	0x39cfcc63	0.00039634397
26	0xba4da7ce	-0.0007845134
27	0xba4352f4	-0.00074510206
28	0xbb0e04ff	-0.0021670458
29	0xb98493d7	-0.0002528715
30	0x3aff11ed	0.0019460298
31	0xbb77d2c3	-0.0037814833
32	0x3a2647a2	0.00063430716
33	0xbb467fdf	-0.003028862
34	0xba7685ec	-0.0009404111
35	0xbb1dbcd5	-0.0024068851
36	0xb6f3e967	-7.269136e-06
37	0x3b1655db	0.0022939357
38	0xbb1b2e8b	-0.0023678865
39	0x3919b781	0.00014659578
40	0x391fa4a2	0.00015224752
41	0x38978a99	7.226057e-05
42	0xb850976e	-4.9732094e-05
43	0x397c9415	0.00024087758
44	0xb9362110	-0.0001736919
45	0x3a4a4a8a	0.00077167957
46	0x3a753745	0.0009354244
47	0x391a6eb3	0.00014727823
48	0xb62a92a6	-2.5417335e-06
49	0x36cf58fe	6.179441e-06
50	0xbb0ef4bf	-0.002181336
51	0xb8dd473c	-0.000105513696
52	0xba9a77ed	-0.0011785008
53	0x2ef6f17b	1.12296804e-10
54	0xb94e7612	-0.00019689676
55	0xbb28603f	-0.0025692133
56	0xad16ce4f	-8.5723225e-12
57	0x3a918a11	0.0011103769
58	0xbb1225f7	-0.002230046
59	0xbaf7a6ba	-0.0018894293
60	0xbbdda742	-0.0067643235
61	0xb8562fbd	-5.1066036e-05
62	0x3b9ee7ce	0.0048494106
63	0xbb9613b1	-0.004579984
64	0x3b029b09	0.0019928834
65	0xbbf95a1e	-0.0076096198
66	0xbb1d89d9	-0.0024038462
67	0xbbed7b4e	-0.007247365
68	0x399d3ee6	0.00029992237
69	0x3c192622	0.0093474705
70	0xbb337164	-0.0027380819
71	0x39f86941	0.00047380666
72	0x3a01f365	0.0004957228
73	0x3afc4afd	0.0019248422
74	0x3ab29ccc	0.0013627051
75	0xb902f533	-0.0001248911
76	0xba0d05dc	-0.0005379596
77	0xbaf97b00	-0.0019033849
78	0x3b75a4c1	0.0037482234
79	0xb9b37701	-0.00034230205
80	0xb805df6d	-3.1917752e-05
81	0x3811e9e2	3.4788514e-05
82	0xbbbcb3ba	-0.0057587298
83	0xb8c9339f	-9.594042e-05
84	0xbb81e4c0	-0.0039640367
85	0x2f9056f5	2.6255234e-10
86	0x3949cf8a	0.00019246168
87	0xbbc4dc2d	-0.0060076923
88	0x2d140645	8.414218e-12
89	0x3b9e9497	0.0048394906
90	0xbbe73ff8	-0.007057186
91	0xbb92d676	-0.004481132
92	0xbca84604	-0.020541199
93	0xb9a6040f	-0.0003166501
94	0x3c9b09bd	0.018925542
95	0xbbb4bfa7	-0.005516011
96	0x3919a280	0.00014651753
97	0xba1da3c0	-0.00060134754
98	0xb958b6d8	-0.0002066748
99	0xb9952854	-0.0002844954
100	0xb97d1b82	-0.00024138208
101	0x38f6b330	0.000117635704
102	0xbb080f36	-0.002076102
103	0x38188409	3.636259e-05
104	0x380d1ced	3.364396e-05
105	0xb8b8bc48	-8.808874e-05
106	0x37f5d1fd	2.930406e-05
107	0x3697fea6	4.5297957e-06
108	0x38e22f34	0.00010785312
109	0x3a198665	0.0005856513
110	0xb9dad308	-0.0004173743
111	0x397f707f	0.00024360603
112	0xb7205be1	-9.558135e-06
113	0xb7ba606d	-2.221783e-05
114	0xb9e12809	-0.00042945173
115	0x36bb8d8d	5.589513e-06
116	0xb91c37db	-0.00014898127
117	0x2e2dd9c0	3.9529047e-11
118	0x39da8241	0.00041677247
119	0xba6cf056	-0.00090384984
120	0x2da05722	1.8228589e-11
121	0x373664a9	1.0871482e-05
122	0xb961c93d	-0.00021532639
123	0xba19a31b	-0.00058607914
124	0xba6859a0	-0.0008863453
125	0xba00bd5b	-0.00049110287
126	0x39957fc8	0.000285147
127	0xbb8d4b39	-0.0043119458
128	0x3a316cb3	0.00067682116
129	0xbb2c1402	-0.0026257043
130	0xba5ac1e2	-0.0008344931
131	0xbb2ad98a	-0.0026069605
132	0x3894e313	7.099486e-05
133	0x3b529d62	0.0032137264
134	0xbad6bf57	-0.0016383928
135	0x391af3ff	0.0001477748
136	0x3934c927	0.00017241073
137	0x39b2b8c4	0.00034088467
138	0x38a411ce	7.823446e-05
139	0x3880dd30	6.144715e-05
140	0xb993cd89	-0.0002819116
141	0x399a8777	0.00029474098
142	0x3ab70d9c	0.0013965848
143	0x388872a7	6.506341e-05
144	0xb6b01775	-5.2479395e-06
145	0x332797d5	3.9020808e-08
146	0xbb084812	-0.002079491
147	0xb87f5fb6	-6.0885875e-05
148	0xbab1a39b	-0.0013552787
149	0x2ed166b1	9.522461e-11
150	0x38a2a758	7.755932e-05
151	0xbb0ec2d7	-0.0021783614
152	0x2c6e3f17	3.3856856e-12
153	0x3aa6cf46	0.0012726567
154	0xbb121fbb	-0.0022296745
155	0xbaede1cf	-0.0018148961
156	0xbbe8cb36	-0.0071043028
157	0x38c20658	9.2518225e-05
158	0x3bde3f1e	0.0067824265
159	0xbb50c511	-0.0031855742
160	0xb98e308e	-0.00027120527
161	0x3a087a36	0.0005206199
162	0x390d2a16	0.00013462486
163	0x3a154823	0.0005694648
164	0x37aeb66f	2.0827369e-05
165	0xba36f72c	-0.00069795805
166	0x3a2ba0ef	0.00065471133
167	0xb7ba2bc7	-2.2193313e-05
168	0xb80eb4a6	-3.402368e-05
169	0x398bc3a0	0.00026657898
170	0x38c12d0f	9.21135e-05
171	0xb8ea8467	-0.00011182651
172	0x39d2a46c	0.00040176825
173	0xb99076cb	-0.00027554328
174	0xba0fd833	-0.0005487233
175	0xb98d031d	-0.00026895935
176	0xb6e03131	-6.681447e-06
177	0x36bf888f	5.708141e-06
178	0x3a05316b	0.0005080911
179	0xb8cd2d11	-9.783556e-05
180	0x39a9e844	0.00032407243
181	0xaddd7c7f	-2.5180079e-11
182	0xb9987d5e	-0.00029085105
183	0x3a16fd10	0.0005759755
184	0xad5fb1bb	-1.27155465e-11
185	0xb9b81c59	-0.00035116335
186	0x39f83e91	0.00047348862
187	0x39c4be49	0.00037525807
188	0x3ab87524	0.0014072997
189	0x3914b405	0.00014181442
190	0xba9a8ff1	-0.0011792165
191	0x3ac25f4e	0.0014829428
192	0x39537ef3	0.0002016982
193	0xba345388	-0.0006878902
194	0xb888edd6	-6.529286e-05
195	0xba0181f8	-0.00049403263
196	0x39979ca5	0.00028917674
197	0x399a168b	0.00029389965
198	0x3a9aaa18	0.001179996
199	0x37c5fcfb	2.3602033e-05
200	0x37d717eb	2.5641135e-05
201	0x3a4e1ae1	0.00078622816
202	0x39ac092c	0.0003281323
203	0xba0cf8c3	-0.00053776446
204	0x38d26163	0.0001003172
205	0xb894f5c5	-7.102968e-05
206	0x3935dce7	0.00017343798
207	0x388a3057	6.589357e-05
208	0xb5d88d95	-1.613446e-06
209	0x37a1da54	1.9294363e-05
210	0xb98e0e19	-0.00027094854
211	0x383bfa66	4.4817476e-05
212	0xb847a66d	-4.7600293e-05
213	0x2ccccac3	5.82054e-12
214	0x394b5db9	0.00019394503
215	0xb90c4425	-0.00013376826
216	0x2d151792	8.474903e-12
217	0x3a1d012b	0.0005989249
218	0xba826d6c	-0.0009950823
219	0xb9809e6d	-0.000245321
220	0xbaa16bea	-0.0012315486
221	0x39dfee4a	0.00042711414
222	0x3a1999f1	0.0005859426
223	0x3b298d64	0.002587163
224	0xb96fc2ea	-0.00022865427
225	0x3a90d3d2	0.0011049455
226	0x39ae5ecf	0.00033258504
227	0x3a604ff0	0.00085568335
228	0x37d902ea	2.5869773e-05
229	0xbacf162c	-0.0015799454
230	0x3aa05610	0.001223268
231	0xb8828b53	-6.224834e-05
232	0xb8a1a0de	-7.707042e-05
233	0xb9eb872e	-0.0004492341
234	0xb99efc43	-0.00030324058
235	0x395db7cc	0.00021144672
236	0x394e2480	0.00019659288
237	0xb869a59e	-5.5705772e-05
238	0xba94b6e6	-0.0011346012
239	0xb98bb986	-0.00026650372
240	0x34f13701	4.492977e-07
241	0x37ad784c	2.0679225e-05
242	0x3a53fc5b	0.0008086615
243	0x384c0683	4.8643455e-05
244	0x3a1dac08	0.00060147094
245	0xae2fc8b3	-3.996865e-11
246	0xba8aa86e	-0.001057876
247	0x3a6fa7da	0.00091421383
248	0xae4b5f07	-4.6241257e-11
249	0xb9e54b9f	-0.00043734626
250	0x3a522038	0.0008015665
251	0x3a45e28d	0.00075487123
252	0x3b2aeb89	0.0026080331
253	0x38a30c0d	7.77469e-05
254	0xbb3db546	-0.0028947159
255	0x3b162ef9	0.0022916181
