logs/rsl_rl/franka_reach/2025-06-27_10-55-03/model_400.pt (torch, 172795 bytes, 36 tensors)

std f4 [7]
000000 00 35 f7 3d 27 e0 ba 3d 1f 61 cc 3d 3d 25 91 3d
       0.12070656 0.09124785 0.09979462 0.07087181
000010 09 07 bb 3d 7e a3 ca 3d 41 36 c2 3d
       0.09132201 0.09894465 0.09483004

actor.0.weight f4 [64, 32]
000000 48 8d 47 be bc b4 28 3e f0 59 4e be e9 5f dc 3d
       -0.19487488 0.16475195 -0.20151496 0.10760481
000010 f7 53 8b 3e 22 f2 a9 3d bc d6 f8 3e 9c 66 a2 3e
       0.27212498 0.08298136 0.4860133 0.3171891
000020 46 55 19 3f 4c 6d 1c bc a4 b9 d3 bd 3d 69 85 3d
       0.5989574 -0.009547543 -0.103381425 0.06514213
000030 9b ee 9c 3d a0 05 94 3d 4a 31 b0 3c 7c 19 54 3d
       0.07662698 0.072276354 0.021507878 0.051782116
000040 8f a0 9a bc a7 38 ab be 7c cb 79 be 9e 63 fd bf
       -0.018875388 -0.3344166 -0.2439403 -1.9796026
000050 97 85 ab 3e 46 54 bd bc 02 94 bc bf 29 97 08 3f
       0.33500358 -0.023111474 -1.4732668 0.5335565
000060 e9 36 18 be ba 2a c5 bd 4d b4 3d be 7c 57 37 be
       -0.14864697 -0.0962729 -0.1852581 -0.17904466
000070 ee 91 e2 bb 3c 99 0a be db 82 70 3d d4 79 33 3e
       -0.006914369 -0.13535017 0.058718543 0.17526942
000080 aa 23 be 3e 37 54 7c 3e 23 34 b6 3e 8a 2d 7a 3f
       0.37136585 0.246415 0.35586652 0.9772574
000090 d4 27 07 3f 4d 9f f3 3e e5 4e d9 bd 97 b9 50 be
       0.5279515 0.47582474 -0.10610751 -0.20383297
0000a0 e2 df 93 3c bc db d4 3d 7e 8b e2 bc d9 81 e2 3d
       0.018051092 0.103934735 -0.027654406 0.11059923
0000b0 ee 87 ce 3d 16 61 ef bc 9b a2 93 bd 83 65 de 3d
       0.1008452 -0.029221099 -0.07208749 0.108592056
0000c0 89 59 4f be 17 f2 e5 3d 8d ab 4d bf 7d 04 a3 bf
       -0.20248999 0.112278156 -0.8033989 -1.2735745
0000d0 14 bb 7f bd 54 cf 14 3e 99 0e b9 3e e1 04 0b 3d
       -0.06243427 0.14532214 0.3614395 0.0339402
0000e0 79 1e 68 3d 57 ac a1 bb 99 34 4b 3e 6f 73 c5 bd
       0.056669686 -0.0049338746 0.19844283 -0.09641158
0000f0 99 f7 8f bd 46 1a 54 bd b9 f7 b0 3d 31 89 df bd
       -0.070296474 -0.05178287 0.08640999 -0.10914839
000100 b2 5f 7a 3f b4 cc fe 3d 3f c3 68 3f d7 03 03 bf
       0.9780227 0.12441388 0.9092292 -0.51177734
000110 cc 28 a4 bd 2b 26 02 be ba 7f 91 3e 83 54 c7 3e
       -0.08015594 -0.12709872 0.2841776 0.38931665
000120 db 31 20 3f ba 13 30 be 46 8a 90 3d 59 9a 61 be
       0.62576073 -0.17195025 0.070576236 -0.22031535
000130 67 dd 2a bc f7 91 07 bd 03 6b a2 3d 24 35 a4 3d
       -0.010428763 -0.033098187 0.07930567 0.08017948
000140 92 5c 1f 3e 9e 7d 00 be e2 b0 aa 3e 1d 2d 3f bf
       0.15562657 -0.12547919 0.33338076 -0.7467821
000150 4d 43 1b 3f bb 4b 22 bd ef e5 a9 bd 4d e8 77 be
       0.6064957 -0.039623003 -0.082958095 -0.2420971
000160 4b 47 b5 bd 1e 4a 2b 3d 13 25 77 3e 25 32 d3 3b
       -0.08851489 0.04181873 0.24135236 0.0064451867
000170 6b f7 38 3e 7e 5e dd 3d 57 23 89 be 1f 30 0c be
       0.18063132 0.108090386 -0.26784775 -0.13690232
000180 88 90 2b be 42 da 21 be 77 62 49 3e a0 e6 9f bd
       -0.16754353 -0.15805915 0.19666468 -0.0780766
000190 cc bf 84 3d 7f e0 a4 3e f2 44 a4 3e 0b 1a 51 be
       0.06481895 0.32202527 0.3208385 -0.20420091
0001a0 cc c2 14 3d 14 79 6f bd 30 d1 80 bd ec 72 b7 bd
       0.036318585 -0.05846508 -0.06289899 -0.089574665
0001b0 dc 42 cb bd e3 a0 27 be 2f d5 71 3d a4 6a 16 bc
       -0.09924862 -0.16369967 0.0590412 -0.009180699
0001c0 42 47 02 3f f1 1c a9 be 37 56 7f bf 6a 9f aa 3d
       0.5088998 -0.33029893 -0.9974093 0.08331187
0001d0 fb 59 4a 3f 86 7d 21 be 6e b7 f6 be c8 6a 0d bc
       0.7904355 -0.1577054 -0.4818682 -0.008631416
0001e0 85 c3 80 ba 0d 27 9c 3e 10 8e 2e 3e 1b 93 25 be
       -0.0009823894 0.30498543 0.1704638 -0.16169398
0001f0 a6 18 ee 3b a8 28 51 be a2 f4 3a be c1 1b 06 be
       0.007266122 -0.20425665 -0.18257383 -0.13096525
000200 a9 90 9a bd 28 5a 0c bc 10 9f 12 3d 05 74 97 3e
       -0.07547123 -0.008566417 0.035796225 0.29580703
000210 e6 28 bb be a4 5a 3b 3f 62 6a 10 be a4 f3 0d be
       -0.3655464 0.7318518 -0.14103082 -0.13862473
000220 e5 0a f4 bd d5 1a 29 bd 1a 6d 15 bd 2d a1 33 bd
       -0.119161405 -0.041285355 -0.036481 -0.04385488
000230 8b 94 6a bd dd 6b 69 3d 04 cd ac 3c d7 1b 1e be
       -0.057270568 0.056987632 0.021093853 -0.15440308
000240 4a ac 4e 3e f7 42 3f 3f f0 92 9a be 55 3b 0a 3f
       0.2018291 0.74711555 -0.3019023 0.53996783
000250 0d a1 86 3f 65 3d 0d be 67 b5 32 bd e0 d3 2d bf
       1.0517899 -0.13792951 -0.04363003 -0.6790142
000260 5f c8 8c bc 7b 0b f2 be 50 ff b1 3e b0 3d aa 3d
       -0.017185388 -0.47274384 0.347651 0.08312547
000270 5f 75 85 bd fb ba e8 3d 78 da f7 bd 85 c6 5e 3d
       -0.065165274 0.11363789 -0.121022165 0.05438854
000280 57 de e2 3d 8b 7e 89 be 96 7d a6 be cb 5d c1 bd
       0.11077564 -0.26854357 -0.3251769 -0.09441718
000290 76 9d 0f 3e da 97 03 3e cf c6 fb 3c 48 22 8c 3e
       0.1402491 0.12850896 0.030734448 0.27369905
0002a0 9d 5a 30 3e c5 c8 01 be 25 80 8e be cd 33 a0 bd
       0.17222066 -0.12674244 -0.27832142 -0.0782238
0002b0 e1 db 3d 3e 50 7b 80 bd 55 93 17 bd 40 e0 db 3d
       0.18540908 -0.0627352 -0.03700574 0.10736132
0002c0 d1 43 21 3f d6 25 5f 3f e8 1b 1f bd 91 8d 13 c0
       0.62994105 0.8716711 -0.038844973 -2.3055155
0002d0 96 24 56 bf 2c 9c b4 3d e4 1d 08 3e a9 74 15 3f
       -0.83649576 0.0881885 0.13292652 0.58381134
0002e0 75 fd bb 3d 5b 74 d9 bd c9 36 6e 3e 24 80 49 bd
       0.091792025 -0.10617896 0.23263086 -0.04919447
0002f0 08 68 84 be 43 24 2a 3e 12 b1 84 3e df b9 0f bd
       -0.2586062 0.16615395 0.25916344 -0.03508937
000300 d5 2e c4 3e 38 c2 80 bd 71 7f 32 3f 4d d7 8a be
       0.3831698 -0.06287044 0.6972571 -0.27117386
000310 d8 ca 2f be 6e 50 6c 3e 54 b8 81 ba b9 d0 86 3e
       -0.17167222 0.23077556 -0.0009896853 0.26331118
000320 be 59 9e 3d d0 51 3f 3e 28 77 98 bb ed 15 85 3d
       0.07731961 0.18683553 -0.0046528764 0.06498323
000330 a2 ff 57 3c 66 f7 1b ba c1 61 10 3d e3 b3 f5 bd
       0.013183506 -0.0005949646 0.035249475 -0.11997201
000340 1c 34 a6 3d 66 02 17 3e 69 6f 4c 3e 56 6f 21 3f
       0.08115408 0.14747009 0.19964375 0.6306051
000350 69 5e 49 be 27 2a dc bd 84 59 cb be 44 76 06 3f
       -0.19664921 -0.107502274 -0.39716733 0.5252421
000360 51 d6 c2 3c 3c d3 8c 3d fe e2 c9 3d 92 9f 19 3e
       0.023783835 0.06876227 0.098577484 0.15002277
000370 a9 a0 2a bb 34 c2 10 3e c6 cd 0e 3e 75 6e c4 3c
       -0.0026035702 0.14136583 0.13945684 0.023978451
000380 90 2f 92 3f 55 60 9e 3d af 44 84 3f bd 8f 05 be
       1.1420765 0.077332176 1.033346 -0.13043113
000390 e8 1e ee be f2 e2 a5 be 5e 00 0b bf 6d 7e 9b 3e
       -0.46507955 -0.32399708 -0.54297435 0.30369893
0003a0 9f e7 47 3e e6 eb 05 3d 76 ec 04 bd fa b1 cf 3d
       0.1952195 0.032695673 -0.03245207 0.10141368
0003b0 01 4f 17 3e 96 e8 b7 3d 01 9f bc bc 22 9f 00 bd
       0.14776231 0.08979909 -0.023025038 -0.03140176
0003c0 bb 8f 42 be 35 2d 28 bf 19 de 7e be a4 46 2a bf
       -0.19000141 -0.6569398 -0.24889411 -0.6651404
0003d0 0c ff 10 bf e6 97 fe bd 69 14 83 bf 61 b4 c3 3e
       -0.5663917 -0.12431316 -1.0240604 0.38223556
0003e0 ac 33 83 bd 31 5f 81 bd f0 9b 81 bd 64 cd 8b be
       -0.0640634 -0.063169844 -0.06328571 -0.27305138
0003f0 8e e4 cf bc 0c 9a fb bd da f1 db 3d 39 f2 84 bd
       -0.025377538 -0.122852415 0.10739489 -0.06491513

actor.0.bias f4 [64]
000000 fb 10 36 be a3 64 b7 3d 58 a3 cc be e4 50 68 3d
       -0.17779915 0.08954742 -0.3996837 0.05671777
000010 9f ae 92 3d 42 28 ac be ef 7a b4 be 79 75 c2 bd
       0.071622126 -0.33624464 -0.3525004 -0.094950624
000020 1d e8 a8 3e bc 23 4d 3e 37 6e ad bd 38 d7 16 3e
       0.32989588 0.20033163 -0.084682874 0.14730537
000030 8c 83 c5 3d 4b 0a a3 be 57 50 99 be ae 79 80 be
       0.09644231 -0.3184379 -0.29944107 -0.25092834
000040 eb ae 1d 3f 89 d5 08 3e 28 b2 63 3e 8b 75 de bb
       0.6159503 0.13362707 0.2223593 -0.0067889146
000050 04 3e 86 3e 55 1b fd 3d 26 00 07 be 45 fe ca 3d
       0.2621919 0.12358729 -0.1318365 0.09911779
000060 b0 f5 15 bf b7 1b 38 3f ec c0 ae 3c f2 91 83 be
       -0.58578014 0.7191729 0.021332227 -0.25697285
000070 99 6c d7 bd 41 62 a5 3d 31 6b c3 bd 1c fd b4 3e
       -0.1051876 0.08075381 -0.095419295 0.35349357
000080 90 3f ee be 1a 41 74 3c 97 ac 93 3d 2c 82 d8 bc
       -0.4653287 0.0149081 0.07210653 -0.026429258
000090 c6 1f 70 3e f8 b4 97 3e 1d 7c 5c be 80 6e 8f bc
       0.2344962 0.29630256 -0.2153172 -0.017508745
0000a0 9a 1f 29 3e 72 16 36 be 65 99 e8 3e f4 e0 f3 bc
       0.16515961 -0.17782 0.4542953 -0.029770352
0000b0 36 2f e6 3e 3e 18 94 3e c0 88 5c be 54 69 1b 3d
       0.44957894 0.28924745 -0.21536541 0.037942246
0000c0 2c c8 91 3e 9a c6 b7 bd 7e 5c 40 be a2 a3 63 be
       0.28473032 -0.08973427 -0.18785283 -0.2223039
0000d0 1a d8 25 3e 55 1a 0e 3e de 42 cd be c4 6a bc be
       0.16195717 0.13877232 -0.40090078 -0.36800206
0000e0 8f 11 cf be d7 fd 0f bd 4d 23 3b 3e 63 db e5 3e
       -0.40443084 -0.03515419 0.18275185 0.4489394
0000f0 28 cc 4c bd d3 b0 0a 3e 77 dc 9f 3e ea 0b 06 bd
       -0.049999386 0.13544016 0.3122289 -0.032726206

actor.2.weight f4 [64, 64]
000000 3b 34 5c bc 7c 00 85 be ef bc 9b 3e cc db cc bc
       -0.013440187 -0.25976932 0.30417582 -0.025007151
000010 d5 29 01 3e 79 b7 33 bd 43 59 27 3e 0e 4b 08 3d
       0.12613614 -0.043876145 0.16342644 0.033274703
000020 b9 7e 16 bd 36 ae 9f be 37 88 48 3e d4 12 5c 3e
       -0.036741946 -0.311876 0.19583212 0.21491557
000030 d1 b9 84 bd a5 93 88 bb 6f 71 32 be 49 4c c5 be
       -0.06480754 -0.004167991 -0.17426084 -0.38534763
000040 d1 8d cc 3d 26 43 16 3d 5d 3a cf bc 9a d4 8f bc
       0.09987987 0.03668513 -0.025296384 -0.017557431
000050 9a 9f 36 bd 79 6a 83 3e b7 ee 91 3d c2 3e d2 3d
       -0.0445858 0.2566717 0.07125609 0.10265876
000060 05 06 a1 3e 0a ef 99 be 15 b3 01 be 86 c6 48 3e
       0.31449905 -0.30065185 -0.1266597 0.1960698
000070 38 2f a8 3e ff 46 58 be 30 91 df 3d 76 24 57 3e
       0.32848525 -0.21120833 0.10916364 0.21010002
000080 f7 bf ac 3d e1 14 8d 3e 61 b1 ab bd 9a ad 6b be
       0.08435052 0.27554992 -0.08383442 -0.23015442
000090 69 be 49 be 6d be d3 bd e2 7b 88 bc f3 59 92 bd
       -0.19701542 -0.10339055 -0.016660634 -0.07146063
0000a0 22 51 1b be 06 fd a1 bd a3 7c 08 ba a5 ea 8f 3d
       -0.15167668 -0.079095885 -0.00052065606 0.07027177
0000b0 7f 22 bb bd d2 46 0e 3d cf 36 a9 3d c7 89 93 bd
       -0.09137439 0.03473551 0.08262407 -0.07204013
0000c0 b4 6a 3c 3d ef 69 d2 bd 53 d8 48 3e 84 a4 02 3d
       0.046000198 -0.102741115 0.19613771 0.031895176
0000d0 ec c5 42 3e a6 96 84 bc ac 59 35 be c8 ed ed bc
       0.19020814 -0.016185116 -0.17709988 -0.029044047
0000e0 3e a0 b1 bb a3 ff dd bd a4 62 f6 3d b3 be cb bd
       -0.0054207137 -0.108397745 0.12030533 -0.09948482
0000f0 88 d6 76 be fb 73 92 bb b4 a6 11 3e d8 fd 74 bd
       -0.24105275 -0.0044693924 0.14223748 -0.059812397
000100 ea 16 cf 3d d8 2a 45 be 20 cd de be e4 be 28 3e
       0.101117924 -0.19254625 -0.43515873 0.16479069
000110 b3 01 75 bd 38 5f d7 ba 54 bb 2f bd df 80 bd bc
       -0.059816074 -0.0016431576 -0.04290326 -0.02313274
000120 da c7 e8 3d 75 04 53 3e d3 24 a4 bd cd 68 23 3e
       0.11366244 0.20607169 -0.08014836 0.15957947
000130 7f 99 c3 bd f5 67 0c be b8 2a 16 be 80 01 be bc
       -0.095507614 -0.13711531 -0.14664733 -0.023194075
000140 99 06 25 3e 27 0f 31 bd 6e 35 5d 3e f9 7e a5 bb
       0.16115798 -0.04322734 0.21602413 -0.0050505367
000150 36 d4 f0 3d 8f 4a 85 bd 08 7a 77 3d 39 d9 3d 3e
       0.11759226 -0.065083615 0.060419112 0.18539895
000160 30 14 f5 bd 7f 0c 8c bc 9d 62 c2 3c b7 86 9a bd
       -0.11966741 -0.017095802 0.023728663 -0.07545226
000170 4a cd 3d be 44 29 50 3e e3 54 0c 3e e3 19 93 3e
       -0.18535343 0.20328242 0.13704257 0.28730687
000180 1d d1 8e bd 71 b5 c5 bd 8f 62 2a bd 84 4d 27 be
       -0.06973479 -0.09653748 -0.0415979 -0.16338164
000190 f4 0d 5f 3d 0e 3b 5d 3e dc a0 30 bd 1a 6d d7 3d
       0.054456666 0.21604559 -0.043122157 0.10518856
0001a0 c5 f5 76 bd e2 a1 ad bd 87 a6 91 bd 26 34 8f 3d
       -0.060292978 -0.08478142 -0.07111841 0.069923684
0001b0 43 74 84 3e ce 7a cb 3d d6 6e e9 bd 88 f6 29 3e
       0.2586995 0.099355325 -0.113980934 0.1659795
0001c0 8c 00 b7 39 72 5e 14 3e 48 e9 94 3d 4f 90 8e 3d
       0.00034904887 0.14489153 0.07271057 0.069611184
0001d0 e5 10 88 bd c7 31 80 3d ea 2c 14 be bb 3e 23 be
       -0.066438474 0.06259494 -0.14470258 -0.15941899
0001e0 bc ae 0d be 2e 49 52 be e1 0e 7b 3d a9 4f 1f 3e
       -0.13836187 -0.20535728 0.061293487 0.15557732
0001f0 4b c1 f3 3d 16 15 5f 3e 54 3a cd bd ea 5e f7 bd
       0.11902102 0.21785387 -0.10020891 -0.1207865
000200 71 a1 5d 3c 64 5d d2 be d4 0f 3a 3d 3a 48 ed bd
       0.01352726 -0.41086876 0.04542525 -0.11586042
000210 1e 6e 84 3d eb 7e 2e be f0 c2 0e bc 9f 6d fe bd
       0.06466316 -0.17040603 -0.008713469 -0.12423252
000220 2e 81 17 3d b1 66 c2 be 3e 79 51 3c 93 fc 45 3d
       0.03698843 -0.37968972 0.012785254 0.048336577
000230 8b 08 84 be 7c 76 97 bd b9 8f d8 be 69 55 3d be
       -0.25787768 -0.07395646 -0.42297152 -0.18489613
000240 a6 2a 86 3d e0 76 3b 3d 3c 0e 23 bc 22 9b 95 3c
       0.06551103 0.045767665 -0.009952124 0.01826245
000250 ef 53 98 bc ec 66 6a 3e 33 d2 90 3e f8 57 0e bd
       -0.01859471 0.22890824 0.2828537 -0.034751862
000260 2a ac 1a 3e b0 df 12 bd 6b ed 52 be 68 90 54 3e
       0.15104738 -0.035857856 -0.2059838 0.20758212
000270 4c 66 c1 3e bb e5 26 3e 3d 06 9f 3d 93 3c 9a 3e
       0.3777336 0.16298573 0.07764862 0.3012434
000280 0c 0e b7 3d 72 15 87 3e 86 e4 ae 3d 28 6d d9 be
       0.08938226 0.2638355 0.08539681 -0.42466092
000290 0d c6 db be 48 4e 4d be b4 ec d7 bd 37 ce 33 be
       -0.42924538 -0.20049393 -0.105431944 -0.17559133
0002a0 6c 6d 22 be e6 68 46 be 75 20 f7 bd b2 dc 16 3d
       -0.15862054 -0.19375953 -0.120667376 0.036831565
0002b0 bf ad 07 be fc a8 12 3e 53 89 82 3e 11 59 12 bb
       -0.13249873 0.14322275 0.25495395 -0.002233092
0002c0 c2 2f e4 3d 1b f4 92 bd e2 ca 1a 3e b7 eb a4 bd
       0.111419216 -0.07175466 0.15116456 -0.080527715
0002d0 63 69 c7 bd 54 64 b4 3d 2c 1b 53 be db 8d ca 3c
       -0.09736898 0.088081986 -0.20615834 0.024725845
0002e0 be 47 d5 bd ab ce 47 3c cb 41 05 3e 3f 16 6c bc
       -0.10414074 0.01219527 0.1301338 -0.014409601
0002f0 71 13 83 be 49 44 e0 3d 39 7e 16 3e 80 c4 0a bd
       -0.2560077 0.10950524 0.14696588 -0.033878803
000300 80 27 0c bd a2 f1 d3 bd 24 4c 0c be cf 37 ac bd
       -0.034217358 -0.10348822 -0.1370092 -0.08409082
000310 4e 1a e5 bd 43 75 00 3e a7 5c b7 bd ee d3 87 3e
       -0.11186658 0.12544732 -0.08953219 0.26528877
000320 1e 88 67 3d c9 91 bf 3d a9 44 d9 bd 9b 1b d2 bd
       0.056526296 0.09353978 -0.10608799 -0.102591716
000330 20 ba 4c 3e e3 0a 93 bd 81 78 ec bd 65 90 d4 3c
       0.19992876 -0.07179811 -0.11546422 0.025947759
000340 cf d3 dc 3d 2c 23 33 3d 7d 0a 33 3e fc fe d6 3d
       0.10782587 0.043734714 0.1748447 0.10497853
000350 b5 5f bd 3d 0c 56 38 3e 92 06 2d bc 1b da 92 3d
       0.0924677 0.18001574 -0.0105606485 0.071705066
000360 17 86 df be de e9 d5 3d c9 a8 80 3e b6 ac 93 be
       -0.4365699 0.10444997 0.25128773 -0.28842705
000370 98 29 59 be 19 4b 18 3d ce bb 00 3d 7d 50 c3 3d
       -0.21207273 0.037180994 0.031429105 0.09536836
000380 a4 6e 0b 3c 1a 60 85 3d 14 0b 6e 3d 1b c7 a8 3c
       0.0085102655 0.065124705 0.058116034 0.020602753
000390 45 bb 99 3e 6e c1 af 3d 99 eb 9e 3d b0 a4 17 be
       0.30025688 0.08581816 0.077597804 -0.14808917
0003a0 b5 f9 99 3c 3c fa e6 bd e1 9f e9 bc ea b8 4f 3d
       0.018795827 -0.11278197 -0.028518619 0.050713457
0003b0 ec b6 1c 3e 6f a5 6b 3d ac 5d c7 bd 4b f3 90 3e
       0.15304154 0.057530817 -0.09734663 0.28310618
0003c0 2e a0 da bb 29 bd 85 3d 9f c6 12 be db ad 94 3d
       -0.006671927 0.0653022 -0.1433358 0.07259723
0003d0 4b 49 09 be ba 44 87 3e 45 77 65 be 7b 5b a8 3c
       -0.13406865 0.26419622 -0.22408779 0.020551434
0003e0 b8 39 05 be 3a 82 d4 bd 8a 7f 80 3e f5 d6 2a 3e
       -0.13010299 -0.10376401 0.25097305 0.16683562
0003f0 44 52 38 3b f4 51 e8 3d 87 5c b2 3d 06 d0 c4 3e
       0.0028125206 0.11343756 0.087090544 0.3843996

actor.2.bias f4 [64]
000000 02 86 7b be c8 70 bb 3b 43 c6 07 be a4 94 e4 3d
       -0.24562839 0.0057202317 -0.13259225 0.111611634
000010 e5 94 a9 bd 3f 92 e1 bd 91 48 4a be b0 c7 99 be
       -0.082803525 -0.11014222 -0.19754244 -0.30035162
000020 38 f0 d9 bd 7d d2 3d bc ad fc 79 be 2a bf d2 be
       -0.10641521 -0.011585829 -0.24412794 -0.41161472
000030 a8 c3 93 be eb 72 2e bd 40 8d 4e 3e 0a d3 36 be
       -0.2886021 -0.042590063 0.2017107 -0.17853943
000040 4e 96 1c bd 60 ce a9 be 3b e7 57 be f1 45 58 be
       -0.03822928 -0.33165264 -0.21084301 -0.2112043
000050 09 f8 94 be b2 34 80 be 17 30 42 be 2b 7f 70 be
       -0.29095486 -0.25040203 -0.18963657 -0.2348601
000060 37 7c 92 be 58 19 89 be c8 65 8b be 36 17 3c be
       -0.28610393 -0.26777148 -0.2722609 -0.1836823
000070 79 f2 c7 bd c7 e0 96 be c4 7c 79 3e e4 2d c7 be
       -0.09763045 -0.29468367 0.24364 -0.389022
000080 04 13 87 bd b2 93 d2 3d 20 54 81 be c5 6f 22 be
       -0.06595424 0.10282077 -0.25259495 -0.15862949
000090 a6 2d ae be 53 4c 70 be c8 65 44 be 94 7e 67 bd
       -0.34019202 -0.23466615 -0.19179451 -0.0565172
0000a0 0a 11 9c be d3 aa 6a be 43 bf 3b bd bb 7d a7 bd
       -0.3048175 -0.22916727 -0.0458367 -0.08178278
0000b0 50 e6 56 be 64 78 c4 be 9d cb 5c bc 95 11 08 be
       -0.20986295 -0.383731 -0.01347628 -0.13287957
0000c0 60 32 cf 3d 87 84 4f be 41 8e ac 3c 31 fc 98 3a
       0.1011703 -0.20265399 0.021063926 0.0011671839
0000d0 d7 35 51 be 74 75 1a be df 48 ae bc 45 8a 89 be
       -0.20430695 -0.15083867 -0.021274982 -0.26863304
0000e0 40 c4 f3 bd 25 54 6f bd 89 ae 17 bd 79 87 4e be
       -0.11902666 -0.058429856 -0.037031684 -0.20168866
0000f0 fb 9f a7 be af 48 63 be 97 f8 9a 3c 84 fc f6 3c
       -0.32739243 -0.22195695 0.018917365 0.030149706

actor.4.weight f4 [7, 64]
000000 eb 1d cb bb 7f 07 52 3e 66 ad 8f 3d 09 10 bf bd
       -0.006198635 0.20510672 0.07015495 -0.0932923
000010 28 a1 0d bc ba 2d e2 3d 80 ac 99 3d eb 80 58 3d
       -0.00864438 0.11043878 0.07503605 0.05285732
000020 57 2b 4e be 4c 09 ab 3d 58 58 27 3e c0 00 fc 3d
       -0.2013372 0.083513826 0.16342294 0.123048306
000030 ea ae 58 3d 6d f6 2a 3e aa 0b 7f 3e f8 d0 57 be
       0.052901186 0.16695566 0.24906793 -0.21075809
000040 4e 05 b2 3d ad 89 89 3b d1 a3 d4 bc 54 54 ce 3c
       0.08692418 0.0041973204 -0.02595702 0.025186695
000050 87 0e 97 be d9 9c 8e 3d 1e a9 8b 3d 45 a6 de bd
       -0.2950327 0.0696351 0.06819366 -0.10871557
000060 39 6d 12 bc 49 d1 1d 3e a5 da 90 bd 13 72 84 bc
       -0.0089371735 0.15411867 -0.07072953 -0.016167676
000070 d6 39 f1 3d 5b d6 93 bd ea 98 0f bd 41 44 56 3c
       0.117786095 -0.072186194 -0.03505794 0.013077796
000080 09 a2 0c 3e 89 3d 68 3e 51 1e 5b 3e 80 2f 94 3d
       0.13733687 0.22679724 0.21398284 0.072356224
000090 e5 6e c2 bd aa 5f f6 3d 60 44 10 3d 3d 77 f7 3d
       -0.09493808 0.12029965 0.035221457 0.1208329
0000a0 b8 b3 56 3e cd ab 89 3d ef e5 85 be a0 6a 81 bc
       0.20966995 0.067222215 -0.26151988 -0.015797913
0000b0 ef 6a d9 3c 4e 30 7c 3b ef b1 a2 3e 12 d4 40 bc
       0.026540248 0.003848094 0.31776378 -0.0117693115
0000c0 a4 f0 10 3e 15 fe 90 bc 42 e5 1d 3e 5d 1f df bc
       0.14154297 -0.01769928 0.15419486 -0.027236635
0000d0 5c 5d d0 bc 69 6e 02 b7 e7 8e ef 3c 5f 54 9b bd
       -0.025435142 -7.774311e-06 0.029242946 -0.07584452
0000e0 ce 5a 22 3e 67 e6 78 be 17 8c 50 3c c4 34 07 3d
       0.15854952 -0.24306642 0.0127287125 0.033009306
0000f0 19 7f e2 3d 74 9e 69 3e 8f 5f be 3d a8 01 15 bd
       0.11059398 0.22814351 0.0929557 -0.036378533
000100 dc a3 c6 3d 95 94 be 3d 2c a8 42 3e 1a 7e 81 3d
       0.096992224 0.093056835 0.19009465 0.0632288
000110 c5 ca c5 bd ea 1c 8c bd 37 f1 1e be d5 30 cf bc
       -0.09657816 -0.068414524 -0.15521704 -0.02529184
000120 f5 b7 00 bd 6a e4 80 3d 45 66 7b be 7b a2 09 39
       -0.031425435 0.062935665 -0.24550731 0.00013125867
000130 22 71 18 bd 93 72 c1 bc f7 a4 83 3d c1 ac f6 3d
       -0.037217267 -0.023614204 0.06427949 0.12044669
000140 dd 0d 2c be bc fe 26 be 6b 3a 6f 3e 9a 95 f0 bd
       -0.16802163 -0.16308111 0.23362128 -0.11747284
000150 c4 da 11 bd 27 96 2c 3e f2 67 06 3d a3 b3 13 bd
       -0.03560902 0.16854154 0.032813974 -0.036059987
000160 90 36 4d be 39 dc 7f 3d 15 41 2d be b6 d1 22 bd
       -0.20040345 0.06246588 -0.16919358 -0.039750777
000170 22 80 ef 3c ee 61 b5 3d 5b b6 82 3e 1a 2b ea 3c
       0.029235903 0.08856569 0.2552975 0.028585006
000180 5e aa 3b 3e 0a 12 c7 bd df 44 22 be da ea 90 be
       0.18326709 -0.097202376 -0.15846585 -0.28304178
000190 6b cd 40 be e8 3f 8e bd ce ff 90 3e 11 2f 5b 3d
       -0.1882836 -0.06945783 0.28320163 0.053511683
0001a0 ab 59 ef bd 5f 29 25 bd db eb 81 bd 31 e0 80 3d
       -0.11687025 -0.040322658 -0.06343814 0.06292761
0001b0 60 53 88 3e a6 89 07 be 79 7e 3e 3e 02 b9 6c bb
       0.2662611 -0.13236102 0.18602933 -0.0036121015
0001c0 0f 41 31 3e 6a 9f a6 3b da f4 1f 3e 04 83 19 bd
       0.17309974 0.0050849216 0.15620747 -0.03747846
0001d0 b4 a7 b7 3c 74 e1 3c be 83 cd e6 bd 86 b0 51 3d
       0.022418834 -0.18445379 -0.11269667 0.051193736
0001e0 ff de 80 3c 25 d7 9c 3d 10 b5 94 bd a3 ba a2 be
       0.015731333 0.07658223 -0.072610974 -0.31783018
0001f0 0a a4 8d 3d d1 a0 34 3d 97 51 a3 3d d7 74 8b 3d
       0.069160536 0.04409868 0.079745464 0.06809395
000200 d0 86 93 3d 1d c3 06 bc 1a 1c 15 3e cb 1b d5 bd
       0.07203448 -0.00822523 0.14561501 -0.10405692
000210 20 b1 e7 bd 13 2b 32 be 4f b5 41 3e 24 31 9b 3d
       -0.11313081 -0.17399244 0.1891682 0.07577732
000220 01 db a0 be 20 d4 35 3e 68 a1 0b 3e c2 45 4c 3c
       -0.31417087 0.177567 0.1363579 0.012467803
000230 ae 52 81 3c cf 44 ed bd 04 9d 8b 3e 0b e3 b7 3d
       0.015786495 -0.1158539 0.2726823 0.08978852
000240 f5 9a 51 be bc 90 a8 bd 4f 2f 09 3d 80 5f f8 3d
       -0.20469268 -0.08230731 0.033492383 0.1212759
000250 5e fe 79 be 9d 9a 68 3d 13 8f ea 3d 98 e1 2f be
       -0.2441344 0.056788076 0.114530705 -0.17175901
000260 15 25 07 bd 70 4c 95 3d d7 62 f9 bc a0 0b e4 bd
       -0.03299435 0.0728997 -0.030442638 -0.1113503
000270 95 b8 c3 3d 8c b1 05 be 59 45 89 be fb 1f 47 3e
       0.095566906 -0.1305601 -0.2681072 0.19445793
000280 ec fb d2 3c 5b b1 3c 3e 5f 2a 9a 3d 72 c5 d3 3d
       0.025754891 0.1842703 0.07527613 0.10340394
000290 bf b4 ea 3d c4 1b e7 3c e9 4e bc 3d c8 4f 01 3d
       0.11460256 0.028211482 0.091947384 0.031570226
0002a0 2c 2c 4b 3e 2c 59 8f bd d0 07 c9 bd e1 a1 9e bd
       0.19841069 -0.0699943 -0.09815943 -0.0774572
0002b0 17 8e 30 be 05 9f 1f be 4b 68 c0 3e eb 40 ed 3d
       -0.17241703 -0.15588005 0.3757957 0.11584648
0002c0 76 71 0f bd 96 31 12 bd 8d 32 8d 3d d0 15 35 bd
       -0.035020314 -0.03569182 0.068944074 -0.044210255
0002d0 91 07 20 3d dc 9f 0e bd f4 34 aa bc e9 0f 70 bd
       0.039069716 -0.034820423 -0.020777203 -0.058608923
0002e0 cb 35 09 3e 33 a4 41 be 8e 7a bd bd 1b 10 61 bd
       0.13399427 -0.18910293 -0.09251891 -0.054947
0002f0 72 30 cb 3d c2 15 50 3e 96 8b 0e 3e 81 f2 bb bd
       0.099213496 0.203208 0.13920435 -0.09177113
000300 a1 2e 83 3e 4e 21 e6 bd 04 cf 8a 3e ad 20 2d be
       0.25621513 -0.11236821 0.27111065 -0.16906996
000310 d4 00 e1 bd 93 09 5f bc e7 f1 b5 3d e5 fe 5b 3e
       -0.10986486 -0.0136131225 0.0888403 0.21483953
000320 f7 b4 bb 3d 77 01 6a bd d3 79 81 3e a1 d7 a4 bd
       0.09165376 -0.057130303 0.25288257 -0.080489404
000330 b8 df 5d 3e 49 4e 4f be 33 31 cb be f8 de e4 bd
       0.21667373 -0.20244707 -0.39685974 -0.111753404
000340 e7 25 cb 3c f0 46 af 3d c8 13 8a 3e 12 85 59 be
       0.024798347 0.08558452 0.26968217 -0.21242169
000350 79 dd b2 3d f7 ab ef 3d 61 b0 c2 3c 91 33 62 be
       0.08733649 0.117027216 0.023765745 -0.22089984
000360 76 dc b4 3c 21 00 76 3d 94 21 4e 3e 2a aa 0d 3d
       0.02207778 0.060058717 0.20129997 0.03458611
000370 05 8b 6d be 54 3b 42 3e 4e 7f 09 bc b5 60 8a bd
       -0.23197563 0.18967944 -0.008392168 -0.06756727
000380 56 f7 21 3e a8 d5 8d 3d ac 77 fa 3c 84 0d 63 3d
       0.15817007 0.06925517 0.030574642 0.05543281
000390 3c 67 37 3d 31 bb ac 3d c7 96 c0 3d 6a 16 d6 bd
       0.044776186 0.084341414 0.094037585 -0.10453494
0003a0 a0 9f 58 be 39 09 2a 3e 98 74 b9 be 1d 5f 1e 3e
       -0.21154642 0.1660508 -0.36221766 0.1546597
0003b0 05 7e 31 3e cf ce 47 3e 71 cc a8 3d 6f 67 7a 3c
       0.17333229 0.19512485 0.08242119 0.01528345
0003c0 df 39 5b be 6c d7 aa be 57 e2 20 3c 7d 98 f2 bd
       -0.21408795 -0.3336748 0.009819589 -0.11845491
0003d0 67 e7 00 3e 51 1c 15 bc 18 c4 1c be cd 16 40 bc
       0.12588273 -0.009100989 -0.15309179 -0.011724186
0003e0 61 cb fb bd 04 7e e9 bd 33 0f 4a bc e2 d4 91 be
       -0.12294651 -0.11400989 -0.012332725 -0.2848273
0003f0 7f a0 c9 3c 68 e2 2a 3d 97 98 a5 bd dd a2 35 be
       0.024612663 0.041719824 -0.08085745 -0.17737909

actor.4.bias f4 [7]
000000 88 81 76 bc 0c 54 28 3e a4 e6 3d bd cd d3 de 3d
       -0.015045531 0.16438311 -0.046362534 0.108802415
000010 78 3e 50 3d 6d 56 44 be d0 94 b0 3d
       0.050840825 -0.19173594 0.08622134

critic.0.weight f4 [64, 32]
000000 9d c1 ea bc a9 3e 9b bd 3f f3 77 3d d0 27 29 3e
       -0.028656775 -0.07580311 0.060534712 0.16519094
000010 ca 51 12 be 59 fd 78 3d 9b 93 92 be d0 6f fb 3d
       -0.14289013 0.060788486 -0.2862824 0.12277186
000020 40 64 bb bc c2 d5 1f 3d 96 18 0a be 26 d3 91 3d
       -0.022874951 0.039022215 -0.13485941 0.071203515
000030 49 1f 8e bd dc 24 14 3d 64 e2 18 bc fc d9 44 3c
       -0.06939561 0.036167964 -0.0093313195 0.012014862
000040 70 38 ed bc 61 1c 0a 3d d8 51 a5 be 5b 5b 0f bd
       -0.028957576 0.03371847 -0.32289004 -0.034999233
000050 3c 5a 65 3e ce 35 35 3d 72 5d 4c be e9 a2 a7 be
       0.22397703 0.044240765 -0.19957522 -0.32741478
000060 96 68 fd bd 3e 86 a9 3d b5 94 2e bd 73 05 04 bd
       -0.12373464 0.08277558 -0.042622287 -0.03223176
000070 cc c3 4e bb a3 f5 96 bd f7 1e 24 bd e4 95 9a bb
       -0.003154981 -0.0737107 -0.040068593 -0.0047175754
000080 cc 1f ab bd 92 26 04 3e 58 1d 4b bc 8b 6c 23 3e
       -0.08355674 0.12905338 -0.012397133 0.15959375
000090 6a 78 8a 3d 85 30 71 3e cd a1 11 3e c6 a2 a1 bc
       0.067612484 0.23553665 0.14221878 -0.019730937
0000a0 8c bb f2 3c 32 a5 f5 bc de 5b 9e bc 55 f2 16 bd
       0.029630445 -0.029985998 -0.019330915 -0.0368522
0000b0 03 6d 17 be 82 dc 5d bd 48 72 96 bd e6 8c 6f bb
       -0.14787678 -0.05416537 -0.07346016 -0.0036552488
0000c0 a4 20 b5 bd 16 91 c6 3d 86 b3 fe 3d f7 d6 a8 be
       -0.08844116 0.09695642 0.12436585 -0.32976505
0000d0 3b af 8f 3d 49 a8 8d 3d fc 1c 92 3e 88 1f 18 3e
       0.070158444 0.069168635 0.28537738 0.14855778
0000e0 cf 52 1d bc 7e bf 4b 3b 9e 69 d9 3d 75 ab c2 3c
       -0.009602263 0.003108948 0.10615848 0.023763398
0000f0 7b a0 47 3c 33 25 9e 3a fd 29 b7 3d db db 2e be
       0.012184258 0.001206553 0.089435555 -0.17076056
000100 22 75 f2 bb bd 65 eb 3d b7 10 71 be 50 99 7a 3c
       -0.007399217 0.114940144 -0.23541532 0.015295342
000110 8a df cb 3d 31 f7 c8 3a a5 fa a2 bd 05 97 1a bc
       0.09954746 0.0015332458 -0.07957963 -0.00943542
000120 66 cc f6 3d fd a7 00 be 11 71 30 3d de af d4 bd
       0.12050705 -0.12564082 0.04307658 -0.103851065
000130 1f d0 50 bd c9 f7 31 3d 26 fd 6a bd 6d 43 be 3c
       -0.05097973 0.043449197 -0.057370327 0.02322551
000140 51 67 b3 3d c6 95 6e bd 8c e1 60 be 63 8e fa be
       0.087599404 -0.058248304 -0.2196104 -0.48936757
000150 5b b4 f8 bc d1 20 60 3d 91 e3 55 bc 52 a5 b7 bd
       -0.030359438 0.054718796 -0.013054744 -0.08967079
000160 7b e9 b3 bd 7f de 38 3d b6 8f de 3b 88 03 e0 bd
       -0.08784767 0.045134064 0.006792034 -0.109381735
000170 be 2d df 3d 5c e7 b4 bc da f2 d0 bc 9c 18 a3 bb
       0.108973965 -0.022082977 -0.025506426 -0.004977299
000180 02 62 12 be ad 2d d4 3d e9 04 7d 3d 46 73 1a be
       -0.142952 0.103602745 0.06177226 -0.15083036
000190 5a 99 6c 3d cd 05 15 3d 7f a2 7f 3e 94 92 76 3e
       0.057763435 0.036382485 0.24964331 0.24079353
0001a0 27 4b c2 3d 55 56 b5 bd 03 22 9b bd 4f e8 b3 bd
       0.094869904 -0.08854357 -0.075748466 -0.08784544
0001b0 fa b2 6c 3d 61 47 19 3d d1 89 f3 bb 98 c6 1a 3c
       0.057787873 0.037421588 -0.0074322005 0.0094467625
0001c0 d8 0f 63 3d 36 12 85 3e 09 97 0f be 7f 8d 48 bf
       0.05543503 0.25990456 -0.14022459 -0.78340906
0001d0 b0 eb 97 be df d6 fd bd b0 fb 8a bf 6f f6 83 3e
       -0.29672003 -0.12394499 -1.0858059 0.2577395
0001e0 fe 54 25 3e 6a 18 b4 bc 6e 66 4f bd c6 e5 ce 3d
       0.16145703 -0.021984298 -0.050634794 0.101024196
0001f0 84 be 01 bd 19 e9 be bd 2d dc 36 3d 25 b0 5f 3d
       -0.03167583 -0.093218036 0.04464357 0.054611344
000200 22 1f 26 be e2 79 d5 bd 20 28 4b 3d f8 6d 37 bc
       -0.16222814 -0.10423638 0.049598813 -0.011195652
000210 c6 b5 8e 3e 86 c6 d2 3d d2 ac 7c 3e 8a 4a 2d 3d
       0.27873057 0.102917716 0.246753 0.042307414
000220 41 9f 10 ba 42 77 7d bc 5d 5d 51 bc d3 b3 22 bc
       -0.0005516895 -0.015470328 -0.012778607 -0.009930569
000230 0c 65 4b 3b 36 da 01 bb d8 ea e5 3b f2 3f fc 3a
       0.003103557 -0.0019813902 0.007016521 0.0019245131
000240 90 0f 9e bb 37 be 38 3d 46 34 84 3e 1a b5 ac bd
       -0.0048236325 0.045103278 0.2582113 -0.0843298
000250 ab 78 a3 3d eb bc 23 3d 33 5a 23 bf d3 62 b3 3e
       0.07982 0.039975088 -0.6380951 0.35036334
000260 2b 33 11 be 2a 47 81 bc 3e 09 91 bd 3a bb 35 bd
       -0.14179675 -0.015781004 -0.07081841 -0.044368006
000270 f5 48 65 bc 8d f8 ad bb 50 b1 0a bd 20 d2 8e 3d
       -0.013994445 -0.0053091706 -0.033860505 0.06973672
000280 de 78 cc bd c5 c4 42 bd 29 09 1f bd dd 14 92 bb
       -0.09983991 -0.047550935 -0.038827095 -0.0044580535
000290 b7 d0 1f 3e 57 96 a6 3d 7f 8c c6 3b 15 5a c3 bd
       0.15606962 0.08134144 0.006059229 -0.09538666
0002a0 4a e1 80 3d 26 69 16 3d ea 56 0f bd c0 72 89 bc
       0.062929705 0.03672137 -0.034994997 -0.01677835
0002b0 d5 ee 6e 3d e2 65 55 bc b6 2d ef 39 54 65 03 3b
       0.058333237 -0.013024779 0.0004561969 0.002004941
0002c0 35 9b f0 3c c4 a5 36 be f6 f9 7d be b3 22 6f 3d
       0.029370883 -0.17836672 -0.24802384 0.0583827
0002d0 59 86 82 be 9b c9 1a be 9b 6e 15 3f 04 61 e7 3e
       -0.25493124 -0.15115969 0.58371896 0.45191205
0002e0 c0 86 91 3d 6e 0d 92 bd 18 af 18 3e 5f a9 dd 3c
       0.0710578 -0.07131468 0.14910543 0.027058301
0002f0 2a 56 93 3d d7 7a ee 3c 14 16 7b 3b df 5f d6 bc
       0.07194169 0.029111309 0.003831272 -0.026168762
000300 16 b3 24 3e d7 6c 6b 3e 3a 88 d4 bd d8 67 27 3e
       0.16083941 0.22990738 -0.10377546 0.16348207
000310 de a0 18 3e 99 f5 db 3d d1 f2 a5 3d 07 c4 f3 bd
       0.14905116 0.107402034 0.08102954 -0.119026236
000320 05 4b d8 3d be 08 2c 3d 07 12 93 3c 7d f0 f0 3c
       0.10561184 0.042000525 0.017952932 0.029411549
000330 25 57 9c bb e3 62 35 bc e7 1d 7e bb 67 bb 13 bd
       -0.0047711306 -0.01107094 -0.0038775147 -0.036067393
000340 1b 50 eb bd eb 08 5f be ef 65 4f 3e 5f 38 ec bf
       -0.11489888 -0.21780746 0.20253728 -1.8454703
000350 9c 97 f5 bc f7 23 11 3e 3d a9 5e bf 31 77 11 3d
       -0.02997952 0.14173876 -0.8697699 0.03551406
000360 4c 8a 1e bd 94 72 01 bd ee f9 86 3d 86 99 d0 bb
       -0.03870611 -0.03160341 0.06590639 -0.0063659577
000370 0c dc 07 3d 58 ce d5 3c c3 82 50 3d d6 24 39 3d
       0.033168837 0.026099369 0.050905954 0.045201145
000380 d2 36 86 3d 66 18 31 3e cf 1f f5 bc fb 2e c4 bd
       0.06553425 0.17294464 -0.029922394 -0.09579273
000390 f7 53 f6 bd c1 29 88 be 00 df 16 be 7a b0 2c 3e
       -0.12027734 -0.26594356 -0.14733505 0.16864195
0003a0 1e 68 e6 3d 34 03 76 3b 14 50 aa 3d f6 11 0e 3c
       0.112503275 0.003753853 0.08316055 0.008671274
0003b0 11 7e ac 3a 39 73 e9 3c 48 e3 0a 3d 44 65 78 3d
       0.0013160129 0.028497325 0.03390816 0.06064345
0003c0 89 4e 0c be 93 dc fc bc fe d0 f2 3d bb ba 06 3f
       -0.13701834 -0.030866897 0.11856268 0.5262868
0003d0 3e 0e 23 be 5c 4e 02 3e 19 3d 0b bf 93 12 6c bd
       -0.15923402 0.12725204 -0.543901 -0.0576349
0003e0 8e 01 08 3e 17 59 a9 bd 40 d2 7b bd 1f 71 2d bd
       0.13281843 -0.08268946 -0.061479807 -0.04234421
0003f0 ab 24 d6 ba f4 a2 d0 bb 42 3f 5c bc 7d 37 35 3c
       -0.0016337832 -0.006367082 -0.013442816 0.011060593

critic.0.bias f4 [64]
000000 ee 49 0c 3e 54 a0 2d be 6f d4 cb bd 4a 80 fc bd
       0.13700077 -0.16955692 -0.09952628 -0.12329157
000010 20 72 71 bc 26 2a b5 bd e4 7a 84 bd fa a5 30 3d
       -0.014736682 -0.0884593 -0.06468752 0.043127038
000020 31 5b 2e bd 8b d9 c3 bd 88 7f 10 3b 37 f1 c7 3d
       -0.042567436 -0.095629774 0.002204867 0.09762805
000030 26 05 c2 bc d1 6a c9 bd c7 6e 9c 3d fd 6d c5 bd
       -0.023684096 -0.09834827 0.076383166 -0.09640119
000040 fd cc d5 bd 71 2a 14 3e ee bb 7b bc 65 d8 ee 3d
       -0.10439489 0.14469315 -0.01536463 0.11662368
000050 88 26 f0 3d b7 e3 c1 bd da 46 a3 3d eb 9b 46 bd
       0.11726099 -0.09467261 0.07972498 -0.04848854
000060 27 22 86 3d 5f 2d 3b bd 7b 2f 44 3d a0 e9 d9 3c
       0.06549483 -0.045697566 0.047896843 0.026600659
000070 26 d4 80 bd 5c 43 46 3e d4 8f 5b bd 4c dd a4 3c
       -0.06290464 0.19361633 -0.053603962 0.020125054
000080 41 f5 9f bd 29 4f 4f bd b6 03 05 3d ad 20 a3 bd
       -0.0781045 -0.050612602 0.032474242 -0.07965217
000090 3b 38 5a bd d6 2c 48 3e a1 13 11 be 2c 58 54 bc
       -0.05327628 0.19548354 -0.14167644 -0.012960475
0000a0 5b 82 5b 3d a5 5c 8b 3d 27 b3 58 3d 36 97 5e be
       0.053591114 0.0680478 0.052905228 -0.2173737
0000b0 72 63 32 be 02 13 7a 3d 9f ae f9 bd b6 a0 3e be
       -0.17420748 0.061053284 -0.121915095 -0.18615994
0000c0 5b ae 8b bd a5 99 36 bd 14 28 37 be ad c2 16 be
       -0.06820365 -0.04458012 -0.17886382 -0.147227
0000d0 e2 e2 e9 3c 96 4a 00 be da 2f e9 bd 17 92 9a bd
       0.028550569 -0.12528452 -0.1138608 -0.07547396
0000e0 54 28 ea 3d fa 31 57 bd d5 20 02 be 76 69 a3 bd
       0.11433473 -0.052537896 -0.12707837 -0.079790995
0000f0 29 a6 d5 bc 45 55 29 3e b0 3a 10 3e 31 7e b7 bd
       -0.026080208 0.16536434 0.14084888 -0.08959616

critic.2.weight f4 [64, 64]
000000 28 62 ed bd 92 59 d0 bc f9 10 4f 3e 69 0d e9 3d
       -0.115909874 -0.025433335 0.20221318 0.11379511
000010 9a e2 f2 3a df 68 83 bc 17 14 b5 3d a1 dc 8e 3d
       0.0018530667 -0.016041217 0.088417225 0.069756754
000020 97 40 88 3e e3 4c 1c 3e 28 d5 a3 3a ad db d4 bd
       0.26611778 0.15263705 0.0012499439 -0.10393462
000030 ed cf 5d be 80 19 e4 3d 77 5b 54 3d 3f d8 2e 3d
       -0.21661349 0.11137676 0.05184504 0.042686697
000040 a0 a1 ba bd 2b 66 2d be b5 3b f9 bd 78 04 2f be
       -0.09112859 -0.16933505 -0.12169591 -0.17091548
000050 f7 b7 2b bc 88 88 35 be 29 84 53 bd f8 8a 67 3c
       -0.010480872 -0.17727864 -0.05163971 0.014132254
000060 46 35 ce 3c c2 26 a0 bc d0 5f 9d 3d 55 67 8f bd
       0.025171887 -0.019549731 0.076842904 -0.07002131
000070 62 af b3 3d 54 f4 55 be 21 1b b2 3d 4e 48 df bd
       0.08773686 -0.20893985 0.08696581 -0.10902463
000080 8e fd 0d 3d 95 d2 44 3d 25 a1 ef 3d 24 90 87 3d
       0.034665637 0.04805239 0.11700658 0.066192895
000090 65 54 9c bd be c2 33 be a6 fd 67 be ec 98 fd 3d
       -0.076332845 -0.17554757 -0.22655353 0.12382683
0000a0 7f b0 a4 3d 35 34 b8 bd ef dc b0 bd cf ae 49 be
       0.080414765 -0.08994333 -0.0863589 -0.1969559
0000b0 c2 c1 46 bd 0f 88 30 3e d3 61 c2 3d b1 e5 11 be
       -0.048524626 0.17239402 0.09491315 -0.14247777
0000c0 26 1d 34 bd 27 57 f8 bc 75 4e 14 3c 69 f6 dc bd
       -0.04397311 -0.030314995 0.009051909 -0.107891865
0000d0 8a b1 7e 3d 70 a2 de bd f5 2b be bd 7c b2 10 3b
       0.062181033 -0.10870826 -0.09285728 0.0022079041
0000e0 45 19 20 3e 4b 36 e0 3d 4b 9f 75 3d 04 8f 86 3d
       0.1563464 0.109478556 0.059966367 0.06570247
0000f0 49 29 73 bd 5f 36 a8 3c 79 cd a5 3c 03 9f a4 bd
       -0.059365544 0.020533739 0.020239579 -0.080381416
000100 ab c1 46 bd 99 e9 a2 bd ec 11 77 3a 92 26 d3 3d
       -0.04852454 -0.079547115 0.0009424973 0.10310091
000110 f5 12 08 bc 60 0a 80 3d f7 52 22 bd 79 43 12 bd
       -0.008305301 0.06251979 -0.039629903 -0.03570888
000120 37 c3 08 be f3 71 2e 3e 35 b0 3d 3e f2 ec ad 3d
       -0.13355719 0.17035656 0.18524249 0.08492459
000130 2c 09 25 be 98 db b0 bc ad 2d 90 3e 30 1a 1c bd
       -0.1611678 -0.021589085 0.28159848 -0.03811091
000140 0b 55 8e 3d c9 3f e1 bd 0c fa 04 3d 70 24 d2 bd
       0.069498144 -0.10998494 0.032465026 -0.10260856
000150 7b da 30 3e 73 f1 9b bd 60 a6 50 bd d6 f1 21 3e
       0.17270844 -0.07614412 -0.050939918 0.1581491
000160 be 11 2b 3e 16 1b 35 3e 18 b8 84 3d 10 4a 3e 3d
       0.16705987 0.17686114 0.064804256 0.04645735
000170 a5 92 ae 3d 94 13 47 bd 73 62 63 3d c9 a0 49 3c
       0.08524064 -0.048602656 0.05551381 0.012306401
000180 2e 42 b9 3d 1b 13 b7 bd 71 54 00 be e1 fa c2 bd
       0.09045826 -0.08939191 -0.12532212 -0.095205076
000190 d4 2f d4 bd dc 12 b4 bc 78 cb bc bd 13 49 8f 3e
       -0.10360685 -0.02198165 -0.09218496 0.2798544
0001a0 a1 3d ce 3c 7d 4e ef bd 2f a8 6d 3e bd a3 d5 bd
       0.025175871 -0.11684892 0.23208688 -0.10431621
0001b0 9f c8 cb bd ed 8c 93 3d b9 01 54 bc 9a f5 48 3c
       -0.09950375 0.07204614 -0.012939864 0.012265587
0001c0 08 27 33 bd 11 0d 4e be 1d 97 56 bd b7 66 e0 bc
       -0.043738395 -0.20122172 -0.052390207 -0.027392728
0001d0 ba 2d cb 3c 52 06 52 be 1d 4d 82 bb a7 1a 8f bd
       0.024802078 -0.20510224 -0.003976478 -0.069875054
0001e0 2c ca 01 3e 2a 82 85 3c 5a ee 26 3d 4b 9c 52 3e
       0.12674779 0.016297419 0.040754654 0.20567434
0001f0 45 11 fe 3b e2 e0 2e 3e 38 93 25 3e aa 46 bb 3d
       0.0077535235 0.17077973 0.16169441 0.091443375
000200 86 83 9e 3d 86 05 4d bd 7d db 36 3d d8 a4 e2 bd
       0.0773993 -0.050054096 0.044642914 -0.11066598
000210 af 00 61 3d 21 ca 8c 3b 6c ad a2 bd ea 60 1b 3e
       0.054932293 0.0042965566 -0.07943234 0.15173689
000220 96 78 48 be de 18 eb b8 90 86 d9 3c 02 96 98 3c
       -0.1957725 -0.00011210305 0.026553422 0.018626217
000230 06 e9 02 be 1d 6e 16 3e 9c a4 b4 bd 60 ab 01 3e
       -0.12784204 0.14690442 -0.08820459 0.1266303
000240 d2 b9 97 bd b5 10 28 3e 3e bb b2 bc fb 0f 22 3e
       -0.07408489 0.16412623 -0.0218178 0.15826409
000250 4d ac 76 3d bd b5 70 be d1 53 1e bd f5 c7 64 bd
       0.060222913 -0.23506828 -0.038654152 -0.055854756
000260 00 ac e3 bd 91 9d 21 3e fa c8 9e 3c 01 ba af bd
       -0.11116791 0.15782763 0.019382942 -0.08580399
000270 34 2a 00 3b e7 63 28 3e 2e 4d 2a 3d 4c 2b d6 3d
       0.0019556405 0.1644436 0.04157751 0.10457477
000280 78 b3 10 bc 8a 4b 4f bd d2 f8 f8 3c 50 73 87 bc
       -0.008831851 -0.05060915 0.030392084 -0.016534477
000290 73 75 4e bd b8 31 8a 3d 7e 66 8d bc ed 26 c0 bc
       -0.050404977 0.06747764 -0.017260786 -0.023456061
0002a0 93 f7 2e 3d eb 15 e6 bd 7d e4 76 3d 9b a6 0a be
       0.042716574 -0.11234649 0.060276497 -0.13540117
0002b0 28 41 69 bd 50 09 12 3d d2 75 b0 bd 8b 25 f8 bd
       -0.056946903 0.035653412 -0.086162224 -0.12116536
0002c0 a5 6b 92 bd cb 55 77 3d 4d bb ad bd c8 25 75 bd
       -0.07149438 0.060384553 -0.084829904 -0.059850484
0002d0 62 69 a1 3d 23 28 0c 3e 70 e2 cd 3d d7 9a 09 3d
       0.07881428 0.13687186 0.10052955 0.033594932
0002e0 20 7a ee bc 5c 4d 06 3a 5e 17 2f 3e bc ad ff bd
       -0.029110968 0.0005123222 0.17098758 -0.12484309
0002f0 79 8e af 3d b0 b8 f8 3d 8e 35 ba 3d a2 7e c6 bc
       0.085720964 0.12144601 0.09092246 -0.024230305
000300 3a bf ce bc 66 63 cc bc 13 8f 80 3e f8 d9 02 bd
       -0.025237668 -0.02494974 0.25109157 -0.031946152
000310 3f 0d d2 bd 82 21 2f bd 7a cd 10 3c 87 96 c4 bc
       -0.10256433 -0.042756565 0.008838052 -0.023997558
000320 3d 38 aa bd 3d 5a bd 3e 36 e3 07 3d 1c df 80 3e
       -0.08311508 0.3698291 0.03317567 0.2517022
000330 dc 12 2b be ed 05 08 be d5 3b 86 bc 61 3e 0c 3e
       -0.16706413 -0.1328351 -0.016385952 0.1369567
000340 a9 89 b2 bc f1 38 c5 3d 3b b1 8a bb c0 5d 91 3e
       -0.021794157 0.09630001 -0.0042325533 0.28391838
000350 ba 85 e7 3e 42 33 1e be 80 61 bd bc 18 22 ed 3c
       0.45219213 -0.15449241 -0.02311778 0.028946921
000360 b5 e1 2b be eb cd bf 3d 74 28 14 3e 4a db ea bd
       -0.16785319 0.093654476 0.14468557 -0.11467607
000370 88 f9 31 3d 37 01 c5 bc a4 ab 24 3c 04 77 a4 3d
       0.043450862 -0.02404843 0.010050688 0.08030513
000380 82 c2 a2 bd 7d 72 8c bd a2 eb d3 bd de a5 46 b9
       -0.07947256 -0.068577744 -0.10347678 -0.00018944542
000390 82 53 9f 3d 3d 5c 46 bd 02 27 b0 be 8d a0 fd 3c
       0.077796 -0.04842781 -0.3440476 0.030960346
0003a0 2b 78 43 3d 39 a9 9a be d3 d1 f3 3d a7 97 55 be
       0.047722023 -0.30207232 0.11905255 -0.20858632
0003b0 63 bc 4f be 9a 8e 9d 3d e1 71 6b 3d 5e 6a 64 bb
       -0.20286708 0.07693215 0.05748165 -0.003485344
0003c0 41 a3 50 bd a2 23 fd bc 1c bc 12 3e 8c cc d9 3d
       -0.05093694 -0.03090078 0.1432957 0.10634717
0003d0 1b 09 9a bd c9 f4 3c bd d0 8b 9e bd 59 04 98 bb
       -0.07521268 -0.046131883 -0.07741511 -0.00463919
0003e0 03 68 79 3e ea e7 84 bd d6 c5 e8 bd 85 b9 24 3e
       0.24356084 -0.064895466 -0.11365859 0.16086395
0003f0 67 1e f0 bd 8a da 89 bd 50 2a ab bc aa 2d e6 bd
       -0.11724549 -0.06731136 -0.0208942 -0.112391785

critic.2.bias f4 [64]
000000 13 1a f2 bc 16 a1 0d be d7 b7 d2 ba 95 dc 91 be
       -0.029553449 -0.1383098 -0.0016076517 -0.28488603
000010 9f 91 a1 3d 47 3a b2 bd 3e 1f 8a bd a5 cf b6 3d
       0.07889103 -0.08702522 -0.0674424 0.08926324
000020 bb 9d 22 3e 3c bd 9b 3d 79 18 d4 bd b6 7e 31 be
       0.15880482 0.07604453 -0.1035623 -0.17333493
000030 a5 c6 dd bd 62 e5 4b 3d 60 20 27 3c 25 4e 65 3d
       -0.10828904 0.049779303 0.01020059 0.055982728
000040 4a 46 d9 3d da c7 df bd d4 99 ec bd 19 27 79 3d
       0.1060911 -0.109267905 -0.11552778 0.060828302
000050 a4 0b bc bd 8f 85 30 be 43 99 09 3d 6b 44 2d 3d
       -0.09181908 -0.17238449 0.033593427 0.042301577
000060 e1 1c b1 bd 6f 42 1b 3c 9e 97 22 be 54 d8 17 bc
       -0.08648086 0.009476288 -0.1587815 -0.009267885
000070 1b 8e d0 bd 57 f7 dc 3c 97 fc b8 3d 21 89 99 3b
       -0.101833545 0.02697341 0.09032553 0.0046855365
000080 0a 32 bb bc 1c 8e ac 3d 50 79 04 3e ce f0 f5 3d
       -0.022851009 0.08425543 0.12936902 0.120088205
000090 d1 ad 2f bd 46 02 91 3c a0 eb 50 be 15 ec 05 be
       -0.042890374 0.01770128 -0.20402384 -0.1307834
0000a0 89 d5 60 be 81 59 86 bd e3 30 d0 3d 56 24 41 3e
       -0.21956457 -0.0656004 0.101655744 0.18861517
0000b0 4e 14 52 3d 50 1e 52 bd b0 f6 74 3d fa 70 11 bc
       0.051288895 -0.05129844 0.059805572 -0.008877033
0000c0 27 9a ec 3d 4d a5 80 bd 71 ef 24 3e 39 61 b1 3b
       0.1155284 -0.062815286 0.16106965 0.005413201
0000d0 8c 73 83 bd 96 61 90 bd e2 f2 c1 3c 49 e3 bc bc
       -0.06418523 -0.07049863 0.023675386 -0.023057597
0000e0 c1 09 b4 bd 69 89 de bd dd 0a 28 bd 5d ec 85 bd
       -0.08790923 -0.10866053 -0.041025985 -0.06539223
0000f0 b6 72 00 be 3d dd 0f bc a5 f2 92 bd 52 ff 0f 3c
       -0.12543759 -0.008780775 -0.07175187 0.0087889

critic.4.weight f4 [1, 64]
000000 46 a7 4f bd 63 f7 42 bd 4e c9 97 bc 76 c0 8b bd
       -0.050696634 -0.047599208 -0.018528607 -0.068238184
000010 36 51 d5 bc df a8 4e 3c ec de 10 bd 88 66 d2 bc
       -0.026039701 0.012613504 -0.035368845 -0.025683656
000020 f2 fb 89 bd 93 d3 06 bd f1 fb b6 bd 8a 10 c7 3d
       -0.06737508 -0.032916617 -0.08934773 0.097199515
000030 d6 60 8c bc 8c a6 a4 3d 9d f8 b8 bc 90 f0 1a bd
       -0.017136019 0.08039579 -0.022579486 -0.037827075
000040 fd 90 d7 bb 75 9a 0b 3e ea a4 ba bc 5d f6 92 3c
       -0.0065785632 0.1363314 -0.022783715 0.01793974
000050 14 b5 3f bc ae 30 82 bd c2 25 f4 3c c4 67 23 3b
       -0.011700887 -0.06356941 0.02980316 0.0024933675
000060 18 fe 25 3d 0e 01 a8 bb a9 ae 01 3c c4 73 84 3c
       0.040525526 -0.005127079 0.007915177 0.016168483
000070 ac ee ac 3c 58 a4 dd ba cf 6f f2 ba 46 4b 72 bc
       0.021109901 -0.001690994 -0.0018496456 -0.014788454
000080 38 de 55 3c 66 a4 4a bd a6 a5 06 3c 56 fd ce 3c
       0.013053469 -0.04947319 0.008218205 0.025267284
000090 e1 98 0c bd c4 64 63 3b 17 77 52 bd d4 12 02 bc
       -0.034325484 0.0034697512 -0.051383104 -0.007939059
0000a0 48 8f 0c bb 9d e3 08 bd 52 fd 8c bc 91 cc 17 be
       -0.0021447707 -0.033420194 -0.017210636 -0.1482413
0000b0 d5 65 80 3c 8e 17 11 3e 2c 90 06 3d 73 45 85 3b
       0.015673557 0.14169142 0.032852337 0.004067117
0000c0 f7 2f 24 bd 07 f0 50 bc c4 ff 3e 3c 60 72 5e 3d
       -0.040084805 -0.0127525395 0.011657659 0.054308295
0000d0 ed 6e 8c bd 48 97 78 3a e6 f1 81 3c 5d db 8f 3c
       -0.06857095 0.0009482992 0.015862416 0.017560655
0000e0 c1 33 15 bd ef c9 72 bd a9 2d 9b bc 4d 9a d6 bc
       -0.03642631 -0.05927461 -0.01894267 -0.026196623
0000f0 76 3f 35 bd 5e a6 d8 3d ea 28 b8 bd 52 cc 8a bc
       -0.044249974 0.10578607 -0.08992179 -0.01694313

exp_avg f4 [7]
000000 3d 26 93 3b 7a df 5b 3a a5 19 25 3b 17 02 0d bb
       0.0044906423 0.00083874876 0.0025192287 -0.0021516138
000010 f3 13 7a 39 1c c1 4e 3a a4 22 39 3b
       0.0002384929 0.0007887052 0.0028249407

exp_avg_sq f4 [7]
000000 ef 38 49 39 ea 9b b0 39 2a f2 a8 39 97 40 1e 3a
       0.00019190063 0.000336855 0.00032223883 0.00060368463
000010 32 30 dd 39 c0 7c 91 39 5c 09 bc 39
       0.00042188313 0.000277495 0.00035865128
