logs/rsl_rl/franka_reach/2025-06-27_10-55-03/model_950.pt (torch, 172795 bytes, 36 tensors)

std f4 [7]
0.062097788 0.035662957 0.048483 0.024440018 0.037455298 0.03972479 0.045573417
00000000: 405a 7e3d 5213 123d 1c96 463d 6f36 c83c
00000010: ba6a 193d 76b6 223d 31ab 3a3d

actor.0.weight f4 [64, 32]
-0.19253553 0.15745746 -0.20001926 0.11318284 0.27402386 0.076707855 0.4863936 0.3212503
0.6044334 -0.013832329 -0.11874063 0.08849891 0.07820415 0.061910167 0.04341544 0.07989941
-0.022537684 -0.30757457 -0.24676514 -1.9753827 0.33859932 -0.02310128 -1.473265 0.5330021
-0.14864333 -0.09514723 -0.19084646 -0.17264847 -0.003130151 -0.13781045 0.053435765 0.17757466
0.36162975 0.26406878 0.34717008 0.9711608 0.5100555 0.48899606 -0.10387204 -0.19642614
0.019826991 0.09727544 -0.017357983 0.10879288 0.098344564 -0.028476162 -0.07091492 0.09656991
-0.21703498 0.15551919 -0.79824257 -1.2963715 -0.09987738 0.14552246 0.36791182 0.030092292
0.05698764 -0.01185677 0.22151008 -0.095975235 -0.07680838 -0.07393847 0.09495675 -0.10845035
0.9769242 0.12508197 0.9089611 -0.5082344 -0.075245135 -0.12853613 0.2823001 0.38311967
0.61561954 -0.17239095 0.053313974 -0.21703012 -0.013202232 -0.026816996 0.07896466 0.08078107
0.1490126 -0.10874817 0.3345755 -0.75025964 0.6143001 -0.039951153 -0.08316072 -0.23946112
-0.0885333 0.040434875 0.24437192 0.005044836 0.18069333 0.11157041 -0.2679343 -0.1379805
-0.16941385 -0.16116627 0.1906403 -0.08266545 0.058754258 0.3261881 0.3270959 -0.19410181
0.04196481 -0.050325003 -0.03407632 -0.0829993 -0.095341735 -0.15777998 0.058610555 -0.017119376
0.5379309 -0.27339783 -1.0002861 0.08340916 0.77837634 -0.15743624 -0.47811958 -0.016047066
-0.00084681227 0.3071856 0.1690745 -0.16214679 0.0041606794 -0.21581702 -0.18120396 -0.12781675
-0.085780546 -0.0019017684 0.02911165 0.296499 -0.38360232 0.7366618 -0.14733054 -0.133521
-0.11806863 -0.047033742 -0.020144073 -0.03330564 -0.059448667 0.068264 0.020808155 -0.16225627
0.18174513 0.79910207 -0.29696894 0.5164267 1.0376548 -0.1380296 -0.03944564 -0.6769204
-0.016987769 -0.48169756 0.35796216 0.07939668 -0.066725105 0.093787335 -0.11812051 0.04870931
0.13516435 -0.2946077 -0.32423916 -0.12804031 0.14751405 0.12977923 0.04783944 0.27008635
0.17358023 -0.13812172 -0.25399187 -0.07910204 0.19038866 -0.037964266 -0.031301454 0.09430956
0.6112222 0.82372373 -0.06602767 -2.255408 -0.82159674 0.08844385 0.110389955 0.5718151
0.09147276 -0.08483875 0.2079692 -0.053144287 -0.28264475 0.1757904 0.25886056 -0.021436354
0.39438513 -0.07000661 0.7079469 -0.2706972 -0.16876349 0.22638759 0.0021128778 0.2525279
0.06773843 0.16960908 -0.004231538 0.08496956 0.012982844 0.0017952645 0.022544669 -0.1325732
0.08307949 0.119276285 0.19900443 0.65692425 -0.1749544 -0.10766828 -0.4004958 0.529666
0.023685794 0.070515014 0.08899775 0.15247504 -0.0033703817 0.14750522 0.13748449 0.02689682
1.1332997 0.08299788 1.0355496 -0.123406224 -0.47892666 -0.32811654 -0.5412463 0.2973302
0.18696164 0.023788936 -0.009715012 0.11351429 0.14719553 0.079156846 -0.024896039 -0.027143138
-0.12944305 -0.66561586 -0.2479476 -0.6626546 -0.5624751 -0.12426382 -1.0307822 0.38085777
-0.06431026 -0.07519233 -0.054917593 -0.26851037 -0.017544718 -0.1403461 0.10496071 -0.06619163
00000000: 0928 45be 873c 213e d9d1 4cbe 68cc e73d
00000010: db4c 8c3e 0219 9d3d 9508 f93e eb7a a43e
00000020: 26bc 1a3f fea0 62bc 4a2e f3bd eb3e b53d
00000030: 7f29 a03d 8495 7d3d 63d4 313d 4da2 a33d
00000040: f3a0 b8bc 6a7a 9dbe 00b0 7cbe 57d9 fcbf
00000050: e45c ad3e e53e bdbc f393 bcbf d372 083f
00000060: f535 18be 8ddc c2bd 416d 43be c3ca 30be
00000070: 3823 4dbb 2f1e 0dbe 76df 5a3d 22d6 353e
00000080: 8927 b93e 0634 873e 47c0 b13e ff9d 783f
00000090: ff92 023f b15d fa3e ddba d4bd ef23 49be
000000a0: 376c a23c 5938 c73d 5432 8ebc cdce de3d
000000b0: e068 c93d d746 e9bc d73b 91bd 72c6 c53d
000000c0: 6b3e 5ebe 6c40 1f3e a059 4cbf 80ef a5bf
000000d0: 838c ccbd d703 153e f05e bc3e 1c84 f63c
000000e0: df6b 693d e642 42bc 8ad3 623e aa8e c4bd
000000f0: b64d 9dbd 0d6d 97bd af78 c23d 381b debd
00000100: b417 7a3f 7d15 003e adb1 683f a61b 02bf
00000110: 1f1a 9abd fa9e 03be a489 903e 4328 c43e
00000120: 3e99 1d3f 4187 30be c15f 5a3d 253d 5ebe
00000130: 2d4e 58bc 51af dbbc 39b8 a13d 8c70 a53d
00000140: c296 183e 5cb7 debd 7b4d ab3e 0411 40bf
00000150: c542 1d3f d2a3 23bd 2b50 aabd 4c35 75be
00000160: f250 b5bd 0a9f 253d a23c 7a3e 274f a53b
00000170: ac07 393e 077f e43d af2e 89be c34a 0dbe
00000180: d37a 2dbe c508 25be 3637 433e 814c a9bd
00000190: 4ea8 703d 2002 a73e 1d79 a73e a0c2 46be
000001a0: 4be3 2b3d 9721 4ebd 9c93 0bbd 89fb a9bd
000001b0: 8742 c3bd 1391 21be 9f11 703d ef3d 8cbc
000001c0: d7b5 093f cdfa 8bbe 6009 80bf 6cd2 aa3d
000001d0: ac43 473f f736 21be 17cc f4be 2375 83bc
000001e0: 9cfc 5dba 6e47 9d3e de21 2d3e cf09 26be
000001f0: 4f56 883b 23ff 5cbe 888d 39be 65e2 02be
00000200: b6ad afbd c244 f9ba 8e7b ee3c b8ce 973e
00000210: 8667 c4be de95 3c3f d1dd 16be bbb9 08be
00000220: f7cd f1bd 74a6 40bd 2f05 a5bc 7f6b 08bd
00000230: 7280 73bd ffcd 8b3d dd75 aa3c 8226 26be
00000240: 651b 3a3e f491 4c3f 500c 98be 8a34 043f
00000250: dfd1 843f a257 0dbe c091 21bd a84a 2dbf
00000260: ef29 8bbc 10a1 f6be d146 b73e ba9a a23d
00000270: 2ca7 88bd 9313 c03d 2ae9 f1bd 6a83 473d
00000280: 8668 0a3e d2d6 96be ad02 a6be 001d 03be
00000290: ec0d 173e d9e4 043e 4af3 433d c248 8a3e
000002a0: 04bf 313e c86f 0dbe 390b 82be 4000 a2bd
000002b0: 3ff5 423e 6b80 1bbd f435 00bd 5f25 c13d
000002c0: 0f79 1c3f 8fdf 523f 8439 87bd 9b58 10c0
000002d0: 2a54 52bf 0d22 b53d 2114 e23d 7962 123f
000002e0: 1256 bb3d f0bf adbd e1f5 543e d3ad 59bd
000002f0: d0b6 90be 6602 343e 5f89 843e 4b9b afbc
00000300: d9ec c93e a05f 8fbd 023c 353f d398 8abe
00000310: 56d0 2cbe 26d2 673e 3578 0a3b 564b 813e
00000320: 72ba 8a3d 01ae 2d3e b7a8 8abb 8504 ae3d
00000330: ffb5 543c 154f eb3a 99af b83c 45c1 07be
00000340: 9425 aa3d 2047 f43d d1c7 4b3e 302c 283f
00000350: 3f27 33be 3081 dcbd c90d cdbe 3198 073f
00000360: b608 c23c 2d6a 903d 7444 b63d 6b22 1c3e
00000370: 9fe1 5cbb 9c0b 173e bcc8 0c3e b856 dc3c
00000380: f70f 913f cbfa a93d e48c 843f 67bc fcbd
00000390: e035 f5be e4fe a7be 1e8f 0abf aa3b 983e
000003a0: df72 3f3e 04e1 c23c b72b 1fbc 2e7a e83d
000003b0: 6dba 163e fc1c a23d c7f2 cbbc 495b debc
000003c0: b88c 04be cd65 2abf fae5 7dbe bba3 29bf
000003d0: 5efe 0fbf 087e febd acf0 83bf caff c23e
000003e0: 19b5 83bd 70fe 99bd 45f1 60bd 317a 89be
000003f0: f1b9 8fbc e3b6 0fbe a4f5 d63d 7a8f 87bd

actor.0.bias f4 [64]
-0.1821939 0.08424936 -0.39711076 0.05054923 0.06997789 -0.34205145 -0.3469578 -0.09229002
0.3287316 0.20245337 -0.08034441 0.14651139 0.09774642 -0.32243794 -0.3003257 -0.2503127
0.62219244 0.13382256 0.2225791 -0.0014046222 0.26369432 0.1237719 -0.13503848 0.100262664
-0.58523434 0.71633434 0.022936786 -0.2567031 -0.106429406 0.08612581 -0.09249318 0.35656276
-0.46815518 0.016352646 0.0719578 -0.028961865 0.23620425 0.2959168 -0.21730937 -0.012068835
0.16174431 -0.18226016 0.4547592 -0.032462154 0.449279 0.28857896 -0.22226702 0.037450273
0.2864028 -0.09264761 -0.18737271 -0.21712269 0.16349638 0.13950193 -0.4021039 -0.3709721
-0.40560886 -0.0376909 0.18153392 0.45101073 -0.051580485 0.13455787 0.31292364 -0.031154366
00000000: 0a91 3abe ee8a ac3d 1a52 cbbe b60c 4f3d
00000010: 9150 8f3d 5e21 afbe 74a4 b1be 8d02 bdbd
00000020: 824f a83e f04f 4f3e 9c8b a4bd 1507 163e
00000030: 462f c83d 9616 a5be 4ac4 99be fc28 80be
00000040: 0148 1f3f c808 093e c7eb 633e 4d1b b8ba
00000050: f102 873e 1f7c fd3d 8747 0abe 8356 cd3d
00000060: ebd1 15bf b061 373f ede5 bb3c 976e 83be
00000070: a9f7 d9bd bb62 b03d 106d bdbd 658f b63e
00000080: 09b2 efbe fcf5 853c 9c5e 933d 6f41 edbc
00000090: 87df 713e 6882 973e 5986 5ebe 5dbc 45bc
000000a0: 4da0 253e 68a2 3abe 33d6 e83e 09f7 04bd
000000b0: e607 e63e 9fc0 933e f799 63be 7565 193d
000000c0: 63a3 923e 08be bdbd a2de 3fbe 6955 5ebe
000000d0: 986b 273e 98d9 0e3e 90e0 cdbe 0ef0 bdbe
000000e0: f7ab cfbe c661 1abd 07e4 393e e1ea e63e
000000f0: 0f46 53bd 8ac9 093e 8737 a03e 7137 ffbc

actor.2.weight f4 [64, 64]
-0.013902072 -0.25831774 0.30266145 -0.018248664 0.13274908 -0.048893537 0.16275689 0.039215013
-0.042988416 -0.312011 0.19891506 0.21228628 -0.06280277 -0.010989309 -0.17359856 -0.37724498
0.10006315 0.03434594 -0.027454535 -0.018660726 -0.046433207 0.26076746 0.0667468 0.102106
0.31504688 -0.29813236 -0.13059005 0.19877765 0.32551044 -0.21286489 0.11205516 0.20424065
0.08770924 0.27625218 -0.08634592 -0.22869396 -0.19425815 -0.108206645 -0.012747446 -0.067607075
-0.15373658 -0.07587657 -0.00051635253 0.068365596 -0.09704003 0.0355747 0.08438961 -0.08109114
0.052301813 -0.10520424 0.18745723 0.033263214 0.19137403 -0.01895583 -0.17064619 -0.03051011
-0.004771887 -0.10687386 0.11936162 -0.10312841 -0.24193066 -0.005200607 0.14074577 -0.060515605
0.10956272 -0.20905375 -0.428951 0.17567255 -0.078511365 5.5025066e-05 -0.043687902 -0.017574182
0.09365251 0.19091488 -0.062676616 0.15415913 -0.09410171 -0.13396342 -0.15096633 -0.028304309
0.1563394 -0.039354697 0.20488216 0.010123869 0.1280065 -0.060066413 0.06689751 0.1927439
-0.12885141 -0.0005704324 0.02663869 -0.08168417 -0.18413696 0.21433264 0.13081603 0.2847153
-0.07320667 -0.088584684 -0.03532414 -0.16313753 0.048189748 0.20356266 -0.040096994 0.102233
-0.05003678 -0.07964001 -0.06379013 0.082434356 0.2625293 0.10510725 -0.12123067 0.17180288
0.006620006 0.1447277 0.063024186 0.05291646 -0.06625507 0.066422194 -0.15692441 -0.15858252
-0.13532782 -0.19858155 0.05770729 0.16619878 0.12247869 0.21916515 -0.099141724 -0.12355015
0.011362407 -0.40943876 0.04495582 -0.107789144 0.070214085 -0.17577611 -0.01108091 -0.115386195
0.028416598 -0.38105053 0.018199539 0.046838626 -0.2546113 -0.08355943 -0.42495143 -0.17369537
0.0658658 0.040718056 -0.012846248 0.018305054 -0.022974629 0.2339376 0.2798285 -0.03750383
0.15036923 -0.031269096 -0.21046688 0.21077634 0.3739226 0.1610124 0.07889019 0.29179454
0.09217966 0.26433668 0.08043189 -0.42461574 -0.4250247 -0.20964369 -0.09870808 -0.16864726
-0.16389546 -0.18905494 -0.12172962 0.03216581 -0.1369622 0.14259677 0.25894955 -0.013229264
0.11817375 -0.073675014 0.13944554 -0.07972742 -0.098421946 0.084431306 -0.20230332 0.023582218
-0.1054101 0.011633721 0.12929454 -0.018643985 -0.25677612 0.10726085 0.14762352 -0.037075374
-0.030652916 -0.11401286 -0.13646705 -0.077369735 -0.11277368 0.12635736 -0.08435044 0.26510006
0.052623916 0.08720721 -0.09784478 -0.109649464 0.19616376 -0.06719022 -0.11255935 0.02018152
0.10200411 0.043836847 0.17368726 0.102978595 0.0947479 0.18194515 -0.009803819 0.07426655
-0.43559512 0.098227255 0.2543791 -0.28730327 -0.21138008 0.037170816 0.031712472 0.09163292
0.0062644687 0.070142895 0.061113186 0.022705339 0.29495293 0.10004073 0.07846393 -0.14928266
0.019727957 -0.10856435 -0.024743045 0.050876625 0.16452521 0.061794225 -0.09390617 0.2791644
-0.011894436 0.08041711 -0.14368148 0.06940721 -0.13798292 0.25790438 -0.22942145 0.026448108
-0.1252401 -0.10153714 0.24873824 0.16612808 0.0020878697 0.119008645 0.090103306 0.3878625
00000000: 84c5 63bc 3942 84be 71f6 9a3e 397e 95bc
00000010: 60ef 073e 9744 48bd bea9 263e ec9f 203d
00000020: 9f14 30bd e8bf 9fbe 64b0 4b3e 9361 593e
00000030: bd9e 80bd 810c 34bc d2c3 31be 4126 c1be
00000040: e9ed cc3d 54ae 0c3d 55e8 e0bc 61de 98bc
00000050: bf30 3ebd 5083 853e 8cb2 883d f31c d13d
00000060: d34d a13e cea4 98be 66b9 05be 5e8c 4b3e
00000070: 4ea9 a63e 41f9 59be 2d7d e53d 7624 513e
00000080: e7a0 b33d ed70 8d3e 21d6 b0bd c02e 6abe
00000090: 9ceb 46be 729b ddbd aada 50bc 9475 8abd
000000a0: 1f6d 1dbe 2d65 9bbd d55b 07ba 4303 8c3d
000000b0: ecbc c6bd c7b6 113d 76d4 ac3d 1d13 a6bd
000000c0: 6d3a 563d 5275 d7bd caf4 3f3e 023f 083d
000000d0: 8ef7 433e 4249 9bbc e0bd 2ebe 57f0 f9bc
000000e0: 7d5d 9cbb afe0 dabd dd73 f43d fd34 d3bd
000000f0: acbc 77be da69 aabb a91f 103e 36df 77bd
00000100: 6b62 e03d 3012 56be 779f dbbe 81e3 333e
00000110: 91ca a0bd b7ca 6638 16f2 32bd bbf7 8fbc
00000120: e3cc bf3d 317f 433e 995c 80bd e4db 1d3e
00000130: 66b8 c0bd b52d 09be eb96 1abe 70de e7bc
00000140: 7017 203e 6432 21bd a1cc 513e 96de 253c
00000150: 2314 033e 3308 76bd 9001 893d a85e 453e
00000160: a0f1 03be 1289 15ba 6239 da3c 084a a7bd
00000170: 668e 3cbe 047a 5b3e a3f4 053e 34c6 913e
00000180: 61ed 95bd e36b b5bd 0cb0 10bd 860d 27be
00000190: 9d62 453d bb72 503e bf3c 24bd 895f d13d
000001a0: 5ef3 4cbd 4d1a a3bd 66a4 82bd 58d3 a83d
000001b0: 3e6a 863e 7842 d73d c947 f8bd 18ed 2f3e
000001c0: a3ec d83b 8033 143e d312 813d eebe 583d
000001d0: bdb0 87bd 5c08 883d cbb0 20be 7563 22be
000001e0: 6093 0abe f658 4bbe 7b5e 6c3d 0330 2a3e
000001f0: 1cd6 fa3d d46c 603e d10a cbbd dc07 fdbd
00000200: 6429 3a3c f5a1 d1be 9823 383d 8ec0 dcbd
00000210: 67cc 8f3d a7fe 33be b58c 35bc 994f ecbd
00000220: edc9 e83c 0e19 c3be 3317 953c dcd9 3f3d
00000230: 6a5c 82be 3521 abbd 3c93 d9be 33dd 31be
00000240: a6e4 863d fac7 263d 1279 52bc 7bf4 953c
00000250: 4a35 bcbc 578d 6f3e ae45 8f3e 9e9d 19bd
00000260: 64fa 193e 0614 00bd a184 57be c1d5 573e
00000270: c872 bf3e 6fe0 243e 2e91 a13d 1866 953e
00000280: b1c8 bc3d 2357 873e 7ab9 a43d 3c67 d9be
00000290: d69c d9be d6ac 56be 7627 cabd deb1 2cbe
000002a0: 36d4 27be 9e97 41be 614d f9bd 4cc0 033d
000002b0: d23f 0cbe e304 123e 0995 843e 8ebf 58bc
000002c0: 1405 f23d ede2 96bd d0ca 0e3e 2148 a3bd
000002d0: 7291 c9bd 52ea ac3d 9a28 4fbe 7f2f c13c
000002e0: 40e1 d7bd 5d9b 3e3c ca65 043e 45bb 98bc
000002f0: 2978 83be 94ab db3d 9f2a 173e 59dc 17bd
00000300: d31b fbbc 937f e9bd 05be 0bbe 0674 9ebd
00000310: e3f5 e6bd d363 013e ecbf acbd 32bb 873e
00000320: 2d8c 573d b299 b23d d862 c8bd e68f e0bd
00000330: 27df 483e 079b 89bd 8485 e6bd b753 a53c
00000340: 88e7 d03d 448e 333d 13db 313e 71e6 d23d
00000350: 300b c23d d44f 3a3e 32a0 20bc 1019 983d
00000360: 5306 dfbe 5f2b c93d fa3d 823e 6a19 93be
00000370: 0574 58be 6d40 183d f0e4 013d 0aaa bb3d
00000380: 2c46 cd3b 14a7 8f3d d251 7a3d 8c00 ba3c
00000390: 1204 973e 27e2 cc3d b2b1 a03d 8edd 18be
000003a0: 869c a13c fc56 debd edb1 cabc 0264 503d
000003b0: 4c79 283e f11b 7d3d e151 c0bd a3ee 8e3e
000003c0: e1e0 42bc bab1 a43d 3d21 13be 5e25 8e3d
000003d0: 654b 0dbe 0b0c 843e 75ed 6abe b4a9 d83c
000003e0: f13e 00be b4f2 cfbd 3db5 7e3e 7b1d 2a3e
000003f0: a4d4 083b ceba f33d 1588 b83d ea95 c63e

actor.2.bias f4 [64]
-0.24253297 0.0042814957 -0.13035113 0.111846305 -0.086853 -0.12282643 -0.19629763 -0.29961166
-0.11225446 -0.013515134 -0.24368758 -0.40863046 -0.289754 -0.041823365 0.20036797 -0.18080842
-0.03729001 -0.33607274 -0.20948903 -0.21460435 -0.28707367 -0.2557989 -0.1940331 -0.23459749
-0.29224715 -0.26686907 -0.26856402 -0.18566716 -0.09886464 -0.29648784 0.2461502 -0.39059478
-0.064514615 0.09979418 -0.25757533 -0.16562672 -0.35292286 -0.23536333 -0.19169354 -0.05122815
-0.3124148 -0.22979523 -0.04289983 -0.08054685 -0.21461692 -0.38369128 -0.005978663 -0.13436246
0.10195807 -0.20262259 0.016782261 -0.0005838115 -0.20050073 -0.15259844 -0.022427384 -0.26893994
-0.11554732 -0.059681173 -0.04033812 -0.20302664 -0.32605323 -0.2259481 0.019428823 0.031028595
00000000: 905a 78be ca4b 8c3b c47a 05be ad0f e53d
00000010: fcdf b1bd 6c8c fbbd 3f02 49be b366 99be
00000020: abe5 e5bd 956e 5dbc 3d89 79be 0338 d1be
00000030: a35a 94be fa4e 2bbd 432d 4d3e d825 39be
00000040: 69bd 18bd ba11 acbe 4b84 56be 3ec1 5bbe
00000050: 52fb 92be 13f8 82be 9db0 46be 533a 70be
00000060: 6ba1 95be 10a3 88be 3981 89be 881f 3ebe
00000070: 8b79 cabd 41cd 97be cc0e 7c3e 0afc c7be
00000080: 3d20 84bd e460 cc3d eae0 83be 0d9a 29be
00000090: 4eb2 b4be 1603 71be 504b 44be 9cd4 51bd
000000a0: d5f4 9fbe 714f 6bbe bbb7 2fbd bff5 a4bd
000000b0: 8ac4 5bbe 2f73 c4be a9e8 c3bb 5096 09be
000000c0: 65cf d03d 4c7c 4fbe f47a 893c ed0a 19ba
000000d0: 1050 4dbe c442 1cbe a2b9 b7bc 7fb2 89be
000000e0: 13a4 ecbd 3f74 74bd 9639 25bd 37e6 4fbe
000000f0: 73f0 a6be f05e 67be 3229 9f3c ae2f fe3c

actor.4.weight f4 [7, 64]
-0.013080214 0.20828924 0.06738028 -0.08953187 -0.01908024 0.10763413 0.068496175 0.04546007
-0.200695 0.06432991 0.1557701 0.09825916 0.031815276 0.18557638 0.23899503 -0.23095508
0.08423488 -0.0018104733 -0.018840829 0.017158194 -0.30807433 0.08389495 0.051319998 -0.12046193
-0.013336274 0.14905891 -0.08576656 -0.004360866 0.10469857 -0.072118215 -0.033535633 -0.008855257
0.13795142 0.21016143 0.20739624 0.065457866 -0.08164155 0.10973242 0.036807876 0.11349086
0.21065614 0.06884705 -0.27193475 -0.025883717 0.029433578 -0.01766643 0.30984578 -0.024979882
0.13623032 -0.012340953 0.15320493 -0.0308334 -0.03075603 0.0114963725 0.028946819 -0.07399475
0.13820235 -0.23569539 0.010752165 0.02619544 0.10759976 0.2278894 0.09457679 -0.03187236
0.094869636 0.08872667 0.1873332 0.049905606 -0.085224986 -0.060682155 -0.14478056 -0.03543759
-0.040996477 0.056436475 -0.23647997 0.02978819 -0.019532934 -0.01813501 0.059706062 0.10174669
-0.17130944 -0.15012918 0.22190961 -0.12122971 -0.030114211 0.13249637 0.016436808 -0.022933722
-0.15407725 0.06988899 -0.1765922 -0.0405388 0.016491903 0.07215133 0.24687552 0.034975275
0.18694897 -0.107460074 -0.15439399 -0.27323252 -0.17935765 -0.04941634 0.27945322 0.04264097
-0.11062235 -0.016164413 -0.08059932 0.02443367 0.26072595 -0.15098213 0.19210331 -5.1562925e-05
0.13959414 1.895658e-06 0.120356224 -0.02026842 0.0043548364 -0.16298129 -0.11033406 0.048232406
0.016653556 0.06650736 -0.062398035 -0.29421437 0.074884616 0.04326044 0.054003257 0.07356233
0.07974565 -0.0071702297 0.15029322 -0.101271644 -0.11496951 -0.17449698 0.19170296 0.0827361
-0.31656566 0.17808127 0.13611892 0.0053756926 0.009863131 -0.12560219 0.2733233 0.10304631
-0.19961646 -0.08886156 0.039397933 0.12418428 -0.24590605 0.044367474 0.12504804 -0.16868559
-0.037430216 0.070078775 -0.025197735 -0.12757827 0.10398523 -0.11558468 -0.2593968 0.18916476
0.025427727 0.20002982 0.06393488 0.10717656 0.10219737 0.027891155 0.08897146 0.043281585
0.19384633 -0.0766998 -0.07940947 -0.05988107 -0.17366284 -0.14238657 0.37838233 0.12631813
-0.030281112 -0.030860933 0.077622995 -0.052363377 0.053788614 -0.044375166 -0.02330727 -0.060633484
0.13279444 -0.18312714 -0.0949634 -0.05544979 0.09653271 0.18442738 0.14502932 -0.09679189
0.2545115 -0.11205112 0.26787534 -0.16869129 -0.10779246 -0.009416337 0.088844135 0.20649357
0.08454513 -0.059346233 0.25240973 -0.08163304 0.21181813 -0.20055342 -0.39574054 -0.107300155
0.023052644 0.088229075 0.26459822 -0.21085674 0.091509484 0.10691539 0.019614568 -0.21849838
0.013690347 0.06022977 0.19763571 0.02634868 -0.2316256 0.18819219 -0.008601425 -0.069655
0.15417248 0.07175981 0.029067043 0.062178127 0.044509653 0.08650612 0.09006987 -0.10518074
-0.21299633 0.16697232 -0.35715243 0.14025718 0.18672942 0.18809217 0.082106754 0.019954164
-0.22034009 -0.3328458 0.0048421524 -0.11904144 0.123379454 -0.0060879868 -0.15047143 -0.011565275
-0.12837249 -0.11534412 -0.010650486 -0.27078998 0.024763746 0.039171968 -0.08721394 -0.17651519
00000000: 654e 56bc c649 553e acfe 893d 7c5c b7bd
00000010: 2a4e 9cbc 486f dc3d b947 8c3d 5734 3a3d
00000020: fd82 4dbe 66bf 833d 3282 1f3e 193c c93d
00000030: bc50 023d bc07 3e3e 1dbb 743e 7d7f 6cbe
00000040: 5683 ac3d 674d edba 1558 9abc 578f 8c3c
00000050: ebbb 9dbe 1ed1 ab3d eb34 523d bfb4 f6bd
00000060: 6380 5abc e6a2 183e 61a6 afbd 98e5 8ebb
00000070: 346c d63d b7b2 93bd a95c 09bd a415 11bc
00000080: 2343 0d3e 8f34 573e ae5f 543e c60e 863d
00000090: af33 a7bd 64bb e03d dbc3 163d e56d e83d
000000a0: 3eb6 573e afff 8c3d 083b 8bbe 170a d4bc
000000b0: b01e f13c 30b9 90bc 1ba4 9e3e 9ca2 ccbc
000000c0: f67f 0b3e b531 4abc c1e1 1c3e 5496 fcbc
000000d0: 12f4 fbbc 485b 3c3c e121 ed3c 8f8a 97bd
000000e0: eb84 0d3e 225a 71be d929 303c d297 d63c
000000f0: 435d dc3d d75b 693e 7ab1 c13d 978c 02bd
00000100: 034b c23d 54b6 b53d 46d4 3f3e d269 4c3d
00000110: 708a aebd da8d 78bd 5b41 14be 0227 11bd
00000120: eceb 27bd ef29 673d ce27 72be 5d06 f43c
00000130: 8803 a0bc df8f 94bc 588e 743d 9260 d03d
00000140: be6b 2fbe 77bb 19be 463c 633e 4847 f8bd
00000150: 14b2 f6bc 21ad 073e 7ca6 863c 80df bbbc
00000160: 6dc6 1dbe f521 8f3d 96d4 34be 030c 26bd
00000170: 071a 873c 14c4 933d f0cc 7c3e 3c42 0f3d
00000180: 8d6f 3f3e 0714 dcbd 7519 1ebe 22e5 8bbe
00000190: 88a9 37be ca68 4abd 7e14 8f3e 4ca8 2e3d
000001a0: f88d e2bd 3b6b 84bc 4211 a5bd 1f29 c83c
000001b0: df7d 853e 0f9b 1abe bbb6 443e 4545 58b8
000001c0: c4f1 0e3e 506e fe35 537d f63d f509 a6bc
000001d0: 04b3 8e3b 91e4 26be d3f6 e1bd 588f 453d
000001e0: 0a6d 883c 0335 883d 1595 7fbd 44a3 96be
000001f0: 1b5d 993d dc31 313d 8532 5d3d d9a7 963d
00000200: b051 a33d 3ff4 eabb 77e6 193e 8267 cfbd
00000210: 2275 ebbd 56af 32be c84d 443e 8b71 a93d
00000220: e514 a2be f05a 363e c262 0b3e 9426 b03b
00000230: f898 213c dc9d 00be 08f1 8b3e f209 d33d
00000240: 4268 4cbe 0dfd b5bd ba5f 213d 5454 fe3d
00000250: ccce 7bbe abba 353d 980c 003e eabb 2cbe
00000260: 6d50 19bd 7685 8f3d 7b6b cebc e1a3 02be
00000270: 35f6 d43d a9b7 ecbd a8cf 84be 68b4 413e
00000280: cf4d d03c 9ed4 4c3e 4af0 823d 627f db3d
00000290: db4c d13d fe7b e43c ab36 b63d 0848 313d
000002a0: a77f 463e c914 9dbd 6fa1 a2bd da45 75bd
000002b0: acd4 31be c9cd 11be 54bb c13e 8a59 013e
000002c0: 1810 f8bc 11d0 fcbc cef8 9e3d fb7a 56bd
000002d0: 7351 5c3d bcc2 35bd e3ee bebc d15a 78bd
000002e0: 44fb 073e ae85 3bbe 2c7c c2bd 521f 63bd
000002f0: f1b2 c53d 88da 3c3e 9182 143e d43a c6bd
00000300: 554f 823e 0f7b e5bd f526 893e 69bd 2cbe
00000310: 4bc2 dcbd fb46 1abc eaf3 b53d 0d73 533e
00000320: ff25 ad3d 0915 73bd d93b 813e 392f a7bd
00000330: dae6 583e e05d 4dbe 819e cabe 2fc0 dbbd
00000340: e6d8 bc3c 72b1 b43d 6b79 873e d4ea 57be
00000350: 5369 bb3d 75f6 da3d bbae a03c 0abe 5fbe
00000360: 7a4d 603c 7eb3 763d 0461 4a3e 30d9 d73c
00000370: 432f 6dbe 74b5 403e feec 0cbc 48a7 8ebd
00000380: 64df 1d3e cff6 923d 021e ee3c 7eae 7e3d
00000390: c14f 363d 1f2a b13d 8d76 b83d 0069 d7bd
000003a0: b61b 5abe cbfa 2a3e afdc b6be 949f 0f3e
000003b0: ff35 3f3e 3c9b 403e 9627 a83d ea76 a33c
000003c0: d5a0 61be c46a aabe ebaa 9e3b 00cc f3bd
000003d0: 5eae fc3d bc7d c7bb 2f15 1abe 477c 3dbc
000003e0: 1474 03be 8a39 ecbd 607f 2ebc fca4 8abe
000003f0: 57dd ca3c c972 203d 399d b2bd 66c0 34be

actor.4.bias f4 [7]
-0.019084603 0.16698998 -0.045074016 0.11039245 0.0526483 -0.19010654 0.08344602
00000000: 5057 9cbc 6cff 2a3e 889f 38bd 7015 e23d
00000010: bea5 573d 4aab 42be bfe5 aa3d

critic.0.weight f4 [64, 32]
-0.0103329895 -0.082522616 0.10096456 0.18542255 -0.14634068 0.06271424 -0.29452845 0.11610436
-0.014650627 0.033014942 -0.113738015 0.005978788 -0.07099256 0.014118869 -0.0017980334 0.013193438
-0.18338238 -0.12320303 -0.34098855 0.073059835 0.2661074 0.04424074 -0.20859727 -0.3121826
-0.12373463 0.10001289 -0.089680806 -0.021880416 0.008835635 -0.09195111 -0.049254358 -0.011787677
-0.20290731 0.10013989 -0.035793133 0.17346658 0.08177697 0.21782951 0.086508594 0.022129543
0.07414981 0.07356401 -0.0014254048 0.00889074 -0.019097531 -0.0389915 -0.050326306 -0.11243736
-0.116012104 0.08187586 0.21425432 -0.4364302 -0.018269548 0.069168635 0.35386232 0.14516628
-0.009602224 -0.10477929 0.074221134 0.045429353 0.015222696 0.057930667 0.08199432 -0.19862214
-0.03808327 0.11438273 -0.27959606 0.05925395 0.13808991 0.02285172 -0.08162076 0.03940024
0.18154337 -0.053500243 -0.31173468 -0.112320475 -0.11133075 0.08307851 -0.05896041 0.017076595
0.14412762 -0.016303573 -0.10936799 -0.5166425 -0.13005875 0.054718807 0.011436521 -0.10548113
-0.08784767 0.06707336 -0.014229805 -0.07054948 0.14010647 -0.01123943 -0.0006925021 -0.006786482
-0.16030385 0.01396412 0.046640955 -0.17631301 0.06233569 0.005610657 0.23952764 0.26167324
0.122743405 -0.07242619 -0.023036763 -0.06201457 0.09812925 -0.012527518 0.020020524 -0.022347817
0.07033654 0.27414507 -0.129305 -0.76598936 -0.28829274 -0.12394499 -1.1299369 0.24475423
0.16145703 -0.020366404 -0.11606393 0.08847193 -0.038442194 -0.09790096 0.027618127 0.04509156
-0.16904812 -0.10852185 0.080838114 -0.0073438003 0.25077933 0.09275905 0.239445 0.026066637
0.00040243135 0.019476496 -0.015054383 -0.017506333 0.013393359 -0.008815642 0.0096256295 -0.010252639
-0.036673535 0.033078667 0.2249309 -0.1047163 0.14307976 0.03997508 -0.65298694 0.36926624
-0.14179675 -0.009992589 -0.075861044 -0.032263577 -0.006267984 0.009077755 -0.053595748 0.06590467
-0.08799991 0.02373763 -0.024001153 -0.05943419 0.15242396 0.11562305 0.020898813 -0.12322763
0.01966052 0.022931917 0.057212096 -0.011834223 0.15626304 -0.011801972 0.017236147 0.010715433
0.045624677 -0.15993491 -0.30777076 0.14665686 -0.25296757 -0.15115969 0.61787987 0.45662042
0.0710578 -0.10257673 0.18005468 0.009566912 0.047041316 0.033122927 0.022958254 -0.017795729
0.15516055 0.20008379 -0.09453689 0.15319063 0.1410301 0.117580265 0.06581479 -0.100584194
0.13880287 0.005235719 0.033341594 0.01046796 0.04621458 0.053439967 -0.021507503 -0.010011137
-0.20173149 -0.33857766 0.25502497 -1.819612 -0.036880787 0.14173876 -0.8984577 0.048878595
-0.03870612 -0.020522371 0.04219886 0.0034847541 0.03459884 0.03524357 0.056349948 0.03587638
0.09496141 0.1412989 -0.07767496 -0.064950496 -0.09015867 -0.2774659 -0.14132681 0.21344489
0.15835235 -0.017147172 0.05111991 0.038983192 -0.010964015 0.022677148 0.044490606 0.026294494
-0.10565783 0.020922605 0.22081654 0.50332606 -0.23691453 0.12725204 -0.60007477 -0.052776996
0.13281843 -0.047001336 -0.03391446 -0.06760082 -0.010768335 -0.028249789 -0.021881452 0.005230534
00000000: b34b 29bc 9e01 a9bd 82c6 ce3d 69df 3d3e
00000010: 55da 15be 5370 803d 6fcc 96be 1fc8 ed3d
00000020: 2f09 70bc ad3a 073d 7aef e8bd b5e9 c33b
00000030: 8c64 91bd d452 673c fdab ebba 4a29 583c
00000040: 97c8 3bbe df51 fcbd 0d96 aebe 65a0 953d
00000050: 3b3f 883e c735 353d 869a 55be 66d6 9fbe
00000060: 9568 fdbd 8fd3 cc3d 92aa b7bd 8f3e b3bc
00000070: 57c3 103c dd50 bcbd f0be 49bd 1a21 41bc
00000080: efc6 4fbe 2516 cd3d d29b 12bd 39a1 313e
00000090: af7a a73d b30e 5f3e 6b2b b13d 0449 b53c
000000a0: dbdb 973d baa8 963d a6d4 baba 77aa 113c
000000b0: 6d72 9cbc 8db5 1fbd f522 4ebd 8f45 e6bd
000000c0: c197 edbd 88ae a73d 7c65 5b3e c773 dfbe
000000d0: 05aa 95bc 49a8 8d3d 712d b53e 78a6 143e
000000e0: a652 1dbc 8696 d6bd 4001 983d 2114 3a3d
000000f0: 9d68 793c b548 6d3d a3ec a73d 9a63 4bbe
00000100: 34fd 1bbd 7e41 ea3d 3727 8fbe 45b4 723d
00000110: 7167 0d3e 8833 bb3c c928 a7bd 2562 213d
00000120: 81e6 393e 1223 5bbd b09b 9fbe 4708 e6bd
00000130: 6001 e4bd 1125 aa3d 7980 71bd 37e4 8b3c
00000140: 3196 133e 128f 85bc 53fc dfbd af42 04bf
00000150: 1f2e 05be d420 603d 3f60 3b3c 7e06 d8bd
00000160: 7be9 b3bd c25d 893d 2124 69bc 3f7c 90bd
00000170: 1278 0f3e 9625 38bc 0789 35ba 2361 debb
00000180: b126 24be c4c9 643c 960a 3f3d 668b 34be
00000190: b553 7f3d 9ad9 b73b bc46 753e 09fa 853e
000001a0: e560 fb3d 2f54 94bd 98b7 bcbc fd02 7ebd
000001b0: fdf7 c83d 3840 4dbc 1502 a43c c512 b7bc
000001c0: 9b0c 903d be5c 8c3e 8868 04be e117 44bf
000001d0: 1b9b 93be dfd6 fdbd c6a1 90bf daa0 7a3e
000001e0: fe54 253e 72d7 a6bc edb2 edbd c530 b53d
000001f0: 9075 1dbd 4c80 c8bd 693f e23c edb1 383d
00000200: f31a 2dbe b440 debd 748e a53d 43a4 f0bb
00000210: 2666 803e 75f8 bd3d 1231 753e b389 d53c
00000220: 6cfd d239 2c8d 9f3c a9a6 76bc 7169 8fbc
00000230: d26f 5b3c 7c6f 10bc d1b4 1d3c affa 27bc
00000240: fd36 16bd 7f7d 073d 4954 663e 8075 d6bd
00000250: 8083 123e e9bc 233d 272a 27bf 7710 bd3e
00000260: 2b33 11be f5b7 23bc 095d 9bbd d026 04bd
00000270: a963 cdbb ddba 143c 3787 5bbd 07f9 863d
00000280: 4c39 b4bd 6b75 c23c 119e c4bc 4471 73bd
00000290: 0715 1c3e c7cb ec3d fd33 ab3c c55e fcbd
000002a0: 190f a13c b7db bb3c 3b57 6a3d 54e4 41bc
000002b0: 6b03 203e 0f5d 41bc d232 8d3c c98f 2f3c
000002c0: f1e0 3a3d fac5 23be 2194 9dbe 372d 163e
000002d0: f784 81be 9bc9 1abe 602d 1e3f 27ca e93e
000002e0: c086 913d c013 d2bd 4160 383e 8abe 1c3c
000002f0: 65ae 403d e8ab 073d f312 bc3c 59c8 91bc
00000300: 68e2 1e3e c4e2 4c3e 8f9c c1bd 01de 1c3e
00000310: 326a 103e eccd f03d e8c9 863d 16ff cdbd
00000320: 5722 0e3e 6590 ab3b 3291 083d ce81 2b3c
00000330: 804b 3d3d dee3 5a3d 8130 b0bc c105 24bc
00000340: b392 4ebe 0d5a adbe a292 823e 0ce9 e8bf
00000350: 4f10 17bd f723 113e 5301 66bf ec34 483d
00000360: 4f8a 1ebd 881e a8bc b6d8 2c3d 7960 643b
00000370: 83b7 0d3d 905b 103d 34cf 663d 1cf3 123d
00000380: 217b c23d a9b0 103e 0d14 9fbd c404 85bd
00000390: 1ca5 b8bd 0310 8ebe fab7 10be 4c91 5a3e
000003a0: 1e27 223e 3a78 8cbc 1c63 513d d7ac 1f3d
000003b0: 69a2 33bc 6dc5 b93c c83b 363d 8d67 d73c
000003c0: 2263 d8bd e265 ab3c bb1d 623e fad9 003f
000003d0: b999 72be 5c4e 023e 809e 19bf b12c 58bd
000003e0: 8e01 083e 7984 40bd e4e9 0abd 4c72 8abd
000003f0: ac6d 30bc 1a6c e7bc bb40 b3bc e664 ab3b

critic.0.bias f4 [64]
0.13231643 -0.18774216 -0.11836603 -0.1271338 -0.015709527 -0.0811006 -0.071745306 0.046138193
-0.048216205 -0.13228007 -0.011445738 0.1091623 -0.01746596 -0.109108746 0.0652366 -0.10298876
-0.110496216 0.14002766 -0.022034148 0.105548404 0.13593265 -0.08706865 0.081630364 -0.04160123
0.06993104 -0.03906798 0.026259659 0.031305157 -0.08337364 0.21043149 -0.050058376 -0.012058005
-0.066217266 -0.028053593 0.04037019 -0.098131575 -0.06671211 0.18653496 -0.14390354 -0.016581416
0.047142096 0.085294135 0.07774 -0.23199047 -0.17366783 -0.016938202 -0.2930871 -0.18520157
-0.06781694 -0.06331743 -0.20481344 -0.1557295 0.048780765 -0.12973483 -0.10074286 -0.09613782
0.109548084 -0.042103633 -0.12007854 -0.07610893 -0.020924294 0.21372649 0.16009228 -0.09363876
00000000: f57d 073e 7b3f 40be e469 f2bd 5d2f 02be
00000010: 44b1 80bc 1218 a6bd 34ef 92bd 67fb 3c3d
00000020: 5b7e 45bd 6d74 07be e886 3bbc 7c90 df3d
00000030: c614 8fbc 6874 dfbd c49a 853d c5eb d2bd
00000040: d74b e2bd 6963 0f3e f580 b4bc c329 d83d
00000050: ee31 0b3e 0c51 b2bd d22d a73d 0d66 2abd
00000060: 0138 8f3d bf05 20bd 7f1e d73c d639 003d
00000070: cdbf aabd 5a7b 573e 030a 4dbd f08e 45bc
00000080: eb9c 87bd a6d0 e5bc 365b 253d 35f9 c8bd
00000090: 5ca0 88bd 0503 3f3e 735b 13be c0d5 87bc
000000a0: 1218 413d b1ae ae3d 2636 9f3d e98e 6dbe
000000b0: fbd5 31be fcc1 8abc 830f 96be 7ba5 3dbe
000000c0: 9ce3 8abd 92ac 81bd 9dba 51be 8e77 1fbe
000000d0: 57ce 473d 35d9 04be 4652 cebd e8e3 c4bd
000000e0: bf5a e03d dc74 2cbd bdeb f5bd 00df 9bbd
000000f0: 6d69 abbc 1edb 5a3e 3bef 233e aec5 bfbd

critic.2.weight f4 [64, 64]
-0.11501891 -0.01702115 0.21386404 0.11501518 0.008224346 -0.021329546 0.09687704 0.08787462
0.27074847 0.18761796 -4.8691413e-06 -0.061309762 -0.27840146 0.1326746 0.025637584 0.06786017
-0.035981935 -0.17917587 -0.12502642 -0.16773847 0.048743606 -0.1595801 -0.038039014 -0.003980621
-0.043558814 -0.017822798 0.07451739 -0.0589188 0.1035823 -0.23230493 0.08403477 -0.095638245
0.04051804 0.039002754 0.14865421 0.06790672 -0.039846808 -0.24742535 -0.22927864 0.09104277
0.09836197 -0.07299238 -0.06773052 -0.18340918 -0.037894186 0.18956001 0.1381697 -0.15092085
-0.05796413 -0.018504344 0.06428057 -0.10550911 0.065603636 -0.09685436 -0.07172805 -0.022886753
0.16622871 0.1374232 0.033737507 0.0990514 -0.057824574 0.019878834 0.015826013 -0.07638524
-0.06520723 -0.101417 -0.047303397 0.11152187 -0.004864231 0.052565966 -0.048415057 -0.018840518
-0.120063946 0.20042984 0.18106297 0.16721013 -0.20737721 -0.029924119 0.28302467 -0.029955108
0.046148438 -0.10585368 0.004730297 -0.11104479 0.2332068 -0.07279894 -0.04323461 0.19310528
0.12264644 0.15283866 0.07562354 0.04135211 0.05095498 -0.12937564 0.0557147 -0.0028144715
0.09542341 -0.07911461 -0.13685805 -0.09343483 -0.121111035 -0.055322148 -0.12553146 0.2801607
0.030174172 -0.11793681 0.2771121 -0.17389151 -0.112154014 0.060935408 -0.039946754 0.017549323
-0.055471133 -0.23582028 -0.11975854 -0.044499625 0.030758886 -0.22064291 -0.0103505505 -0.08723287
0.1758965 0.034606844 0.022347167 0.19992185 0.017422918 0.19109748 0.17784116 0.087765336
0.09326067 -0.04458643 0.050853934 -0.11426275 0.05430334 0.0048260344 -0.083929196 0.14688772
-0.19103578 0.016504139 0.030955568 0.013161469 -0.16280861 0.14202416 -0.06672722 0.13086303
-0.08517289 0.1725038 -0.031330932 0.1681245 0.08931568 -0.23206426 -0.042229638 -0.035943963
-0.12704591 0.14308496 0.017248094 -0.08720551 -0.037623797 0.16269475 0.049677696 0.09809234
-0.006466484 -0.061042774 0.038600076 -0.01723995 -0.042254098 0.057204183 -0.00967503 -0.011908082
0.042262934 -0.10503418 0.07954989 -0.14681296 -0.05668955 0.023677137 -0.104018584 -0.12385112
-0.068395324 0.063592665 -0.121993504 -0.065484904 0.075655 0.13507004 0.098862655 0.034443103
-0.05401854 -0.0013698179 0.16841951 -0.14898913 0.08809267 0.1151527 0.08863722 -0.02533369
-0.12857702 0.014850048 0.22906026 -0.04523944 -0.11189951 -0.040614806 -0.0018097904 -0.016484007
-0.049450114 0.7053084 0.011484478 0.4932696 -0.36298755 -0.09715697 -0.013244337 0.2128695
0.042058297 -0.020114535 -0.04403411 0.27767685 0.6964538 -0.15739651 -0.030509323 -0.007344391
-0.19958648 0.089817986 0.27234256 -0.08891202 0.09337894 -0.28052735 0.014627498 0.10583147
-0.13154963 -0.07360694 -0.090876244 -0.020499406 0.18445182 -0.07347746 -0.46074966 0.02195759
0.08671499 -0.34085253 0.17578676 -0.2925048 -0.21711259 0.14884655 0.11076667 -0.012287578
-0.044095688 -0.05065441 0.32449266 0.12270835 -0.047895208 -0.03429828 -0.04875086 -0.019419152
0.40248492 0.030204032 -0.12660934 0.30186674 -0.07769237 -0.07449989 -0.029448716 -0.14385466
00000000: 098f ebbd f06f 8bbc 2dff 5a3e 148d eb3d
00000010: 68bf 063c 4dbb aebc 7867 c63d 9cf7 b33d
00000020: 8b9f 8a3e ec1e 403e 9b61 a3b6 f21f 7bbd
00000030: a38a 8ebe dadb 073e e905 d23c 46fa 8a3d
00000040: cb61 13bd e179 37be ed06 00be a2c3 2bbe
00000050: 60a7 473d f768 23be ccce 1bbd df6f 82bb
00000060: ba6a 32bd 1e01 92bc 939c 983d d754 71bd
00000070: f522 d43d 58e1 6dbe 6c1a ac3d fcdd c3bd
00000080: 3ff6 253d 5ac1 1f3d cf38 183e ae12 8b3d
00000090: 6836 23bd 125d 7dbe 05c8 6abe a274 ba3d
000000a0: 0072 c93d 077d 95bd 4db6 8abd 9ecf 3bbe
000000b0: ef36 1bbd 051c 423e 5c7c 0d3e ff8a 1abe
000000c0: cc6b 6dbd 6c96 97bc 88a5 833d 2915 d8bd
000000d0: 335b 863d 945b c6bd 28e6 92bd 007d bbbc
000000e0: dc37 2a3e abb8 0c3e 5730 0a3d 76db ca3d
000000f0: 76d9 6cbd f0d8 a23c 8ea5 813c dd6f 9cbd
00000100: 5e8b 85bd b7b3 cfbd 35c1 41bd 9465 e43d
00000110: 2164 9fbb 694f 573d de4e 46bd 6e57 9abc
00000120: 16e4 f5bd 7b3d 4d3e 9268 393e 2239 2b3e
00000130: b15a 54be 6d23 f5bc 9ce8 903e 6a64 f5bc
00000140: 2506 3d3d d0c9 d8bd 9b00 9b3b 736b e3bd
00000150: c3cd 6e3e 9c17 95bd c616 31bd 64bd 453e
00000160: 0f2e fb3d bd81 1c3e 84e0 9a3d d560 293d
00000170: 2bb6 503d 0c7b 04be 1935 643d ff72 38bb
00000180: 596d c33d d706 a2bd 8424 0cbe c35a bfbd
00000190: 1009 f8bd 7a99 62bd 528b 00be 3971 8f3e
000001a0: d32f f73c db88 f1bd a3e1 8d3e 9e10 32be
000001b0: 01b1 e5bd 6897 793d 359f 23bd 99c3 8f3c
000001c0: b335 63bd df7a 71be f743 f5bd 3d45 36bd
000001d0: 0ffa fb3c 37f0 61be 5b95 29bc 26a7 b2bd
000001e0: 361e 343e e8bf 0d3d 6811 b73c 50b8 4c3e
000001f0: 82ba 8e3c 0faf 433e fe1b 363e 50be b33d
00000200: 73ff be3d 43a0 36bd 374c 503d 9702 eabd
00000210: 2e6d 5e3d b623 9e3b 12e3 abbd bc69 163e
00000220: e29e 43be b033 873c 8896 fd3c 34a3 573c
00000230: 4db7 26be c86e 113e 48a8 88bd f500 063e
00000240: 206f aebd d6a4 303e dd54 00bd d428 2c3e
00000250: 24eb b63d 41a2 6dbe fcf8 2cbd fa39 13bd
00000260: 5318 02be dd84 123e e04b 8d3c cd98 b2bd
00000270: 691b 1abd 7499 263e d77a 4b3d a3e4 c83d
00000280: cde4 d3bb fd07 7abd 1d1b 1e3d cc3a 8dbc
00000290: a212 2dbd ef4e 6a3d 0484 1ebc 1e1a 43bc
000002a0: e61b 2d3d 291c d7bd 0deb a23d 2356 16be
000002b0: 4d33 68bd 8ef6 c13c b207 d5bd a8a5 fdbd
000002c0: d912 8cbd df3c 823d bbd7 f9bd f31c 86bd
000002d0: 02f1 9a3d cd4f 0a3e 8178 ca3d 3614 0d3d
000002e0: 8b42 5dbd 768b b3ba 2a76 2c3e 9b90 18be
000002f0: ee69 b43d 2ed5 eb3d 6e87 b53d 9988 cfbc
00000300: b2a9 03be 9e4d 733c c68e 6a3e fe4c 39bd
00000310: 922b e5bd b65b 26bd 7d36 edba 7809 87bc
00000320: 348c 4abd 178f 343f 6429 3c3c d58d fc3e
00000330: 81d9 b9be 3cfa c6bd c7fe 58bc 76fa 593e
00000340: 5245 2c3d 3dc7 a4bc 1c5d 34bd a92b 8e3e
00000350: cc4a 323f 8d2c 21be b0ee f9bc 38a9 f0bb
00000360: 6660 4cbe 7ef2 b73d 7c70 8b3e 8117 b6bd
00000370: 753d bf3d 48a1 8fbe 2ca8 6f3c 2bbe d83d
00000380: f2b4 06be 3cbf 96bd 531d babd 5fee a7bc
00000390: f0e0 3c3e 5a7b 96bd 61e7 ebbe 67e0 b33c
000003a0: a197 b13d 3984 aebe 7201 343e 30c3 95be
000003b0: c352 5ebe 3b6b 183e a3d9 e23d d651 49bc
000003c0: ae9d 34bd 007b 4fbd e723 a63e 844e fb3d
000003d0: c42d 44bd 5a7c 0cbd fbae 47bd ea14 9fbc
000003e0: 8112 ce3e 726e f73c e1a5 01be 478e 9a3e
000003f0: 2d1d 9fbd 6693 98bd 6f3e f1bc a34e 13be

critic.2.bias f4 [64]
-0.03040317 -0.13940646 -0.009046945 -0.305907 0.066261046 -0.0807823 -0.048687708 0.08296193
0.15675187 0.07940046 -0.10176874 -0.17173058 -0.115582086 0.047074206 0.0074792085 0.057354152
0.115097046 -0.10138975 -0.12952517 0.059288684 -0.09067291 -0.16485433 0.04451792 0.05635801
-0.08849858 0.010217885 -0.15036114 -0.010816208 -0.10599173 0.01537621 0.09372082 -0.0020083939
-0.016091755 0.079554245 0.13030024 0.12964392 -0.04986165 0.022526357 -0.21418928 -0.12747116
-0.2000443 -0.0653039 0.10034473 0.17778306 0.05943569 -0.042474747 0.05721868 -0.012162408
0.12111131 -0.06851261 0.16379137 -0.0028407546 -0.06719271 -0.079120286 0.027725518 -0.017334286
-0.100116655 -0.08715033 -0.04710775 -0.066853024 -0.118560776 -0.008367111 -0.07288023 0.0022669884
00000000: 1210 f9bc 91c0 0ebe a339 14bc d89f 9cbe
00000010: dfb3 873d 3171 a5bd c36c 47bd f2e7 a93d
00000020: 9083 203e b59c a23d 216c d0bd 24da 2fbe
00000030: 4db6 ecbd e2d0 403d 2614 f53b 30ec 6a3d
00000040: 00b8 eb3d 6ea5 cfbd 3fa2 04be b1d8 723d
00000050: b8b2 b9bd 93cf 28be 6c58 363d a8d7 663d
00000060: be3e b5bd ea68 273c 45f8 19be 7736 31bc
00000070: 3112 d9bd 80ec 7b3c b4f0 bf3d 429f 03bb
00000080: dbd2 83bc 56ed a23d 6d6d 053e 60c1 043e
00000090: bb3b 4cbd 3289 b83c 6f54 5bbe cd87 02be
000000a0: 6ad8 4cbe 0dbe 85bd 8a81 cd3d c30c 363e
000000b0: d772 733d 00fa 2dbd 225e 6a3d d644 47bc
000000c0: 3509 f83d 5750 8cbd edb8 273e f42b 3abb
000000d0: 559c 89bd d109 a2bd a020 e33c a200 8ebc
000000e0: f609 cdbd df7b b2bd 0ef4 40bd 3dea 88bd
000000f0: fecf f2bd 3516 09bc 3b42 95bd c191 143b

critic.4.weight f4 [1, 64]
-0.085620776 -0.06570595 -0.035703823 -0.13249686 -0.03691324 0.03996622 -0.05701937 -0.04329293
-0.07176695 -0.04092942 -0.12556052 0.10717622 -0.015290552 0.09725518 -0.04906247 -0.047610786
-0.030968491 0.13929132 -0.04030314 0.0381573 -0.02346339 -0.05930699 0.043965977 0.011563265
0.042605 -0.020557748 0.009691882 0.043087628 0.029579125 -0.001744179 -0.0033015108 -0.040926933
0.03962817 -0.050545987 0.012032953 0.03976566 -0.041388076 0.022706497 -0.0569824 -0.009723452
-0.00013760239 -0.04478341 -0.021279093 -0.14952497 0.021501848 0.14519271 0.04762515 -0.011087358
-0.070226066 -0.030557692 0.008801157 0.07211538 -0.08062624 -0.012398532 0.023829449 0.04118374
-0.0393344 -0.079566024 -0.026630701 -0.02883002 -0.09602818 0.115448706 -0.11783334 -0.017679492
00000000: f259 afbd d790 86bd 2c3e 12bd 42ad 07be
00000010: 5632 17bd 9eb3 233d 258d 69bd ed53 31bd
00000020: 8dfa 92bd 9ca5 27bd f092 00be 357f db3d
00000030: 3985 7abc b92d c73d bbf5 48bd 8703 43bd
00000040: a2b1 fdbc 62a2 0e3e e814 25bd d44a 1c3d
00000050: 4c36 c0bc e3eb 72bd ab15 343d d973 3d3c
00000060: 9582 2e3d b968 a8bc b3ca 1e3c a77c 303d
00000070: ec4f f23c f09c e4ba 295e 58bb 00a3 27bd
00000080: 2651 223d 4f09 4fbd dd25 453c 51e1 223d
00000090: 8b86 29bd fa02 ba3c 6166 69bd 1d4f 1fbc
000000a0: 5c49 10b9 cf6e 37bd 7e51 aebc 131d 19be
000000b0: a524 b03c 66ad 143e 9712 433d c0a7 35bc
000000c0: afd2 8fbd 2054 fabc ba32 103c 3ab1 933d
000000d0: 5f1f a5bd 3623 4bbc fa35 c33c 48b0 283d
000000e0: 1c1d 21bd 83f3 a2bd a128 dabc ef2c ecbc
000000f0: 6caa c4bd 5f70 ec3d 9b52 f1bd 95d4 90bc

exp_avg f4 [7]
0.0011071666 0.0014119864 -0.0006350247 -0.00294411 0.0012879523 -0.0020336132 0.0004848403
00000000: 591e 913a 6712 b93a c977 26ba f8f1 40bb
00000010: 82d0 a83a 5e46 05bb 2a32 fe39

exp_avg_sq f4 [7]
0.00014570594 0.00040892704 0.00019298519 0.0009496188 0.00035487095 0.0003249302 0.0002311823
00000000: a4c8 1839 4265 d639 115c 4a39 d7ef 783a
00000010: f90d ba39 655b aa39 8769 7239

exp_avg f4 [64, 32]
5.4666158e-05 -8.237534e-05 -5.719949e-05 1.9587751e-05 0.0001525151 0.0002923739 0.00026283684 8.939511e-06
1.6499118e-05 3.2979406e-05 0.00036613262 7.471076e-05 -2.5610945e-05 -6.7170105e-05 8.3807034e-05 -9.911241e-05
-6.0024286e-06 -2.3016246e-05 -0.00012653896 1.3293734e-05 -2.4034392e-05 4.6530735e-12 -0.00016534362 -0.00010653693
-7.237083e-12 0.00028341662 0.00016001132 -2.9374394e-05 -0.00041479233 0.00014537443 -8.79868e-05 0.00011283875
-0.000108073385 0.0008232045 0.00031667948 0.00061926316 0.0003353172 -0.0012679938 0.0007917718 -6.15779e-05
-5.048953e-05 -0.0014108288 -0.00041160986 0.0011210291 -4.1981373e-05 -0.0013848328 0.00039014776 -0.0008422649
-3.770274e-05 5.7869343e-06 0.0007188157 8.940584e-06 0.00043892392 -3.1941085e-11 6.234318e-05 0.00073194737
2.7588736e-12 -0.00055675645 0.0013464928 0.00069312414 0.0012173649 3.3677865e-05 -0.0026139545 0.0006494926
-3.9494284e-05 -0.0008205894 -0.0004592389 -0.0016346406 0.0011038776 0.0020664795 0.007672995 0.00015022837
8.452856e-05 -0.0006364976 -0.00030726445 6.692918e-05 -0.0009031949 0.0015556078 3.7061585e-05 0.0020141073
5.915238e-05 1.3537743e-06 -0.0011607733 -0.00022236744 -0.0012718319 1.0649071e-10 -0.004217006 -0.0024360383
-1.8438678e-10 0.00023439244 -0.0005590576 -0.00081116747 -0.0053064306 0.0029085216 0.0028910546 0.015634472
-7.6765515e-05 0.00015406097 7.5486096e-05 0.00031670937 4.2520045e-05 -0.0008970669 -4.598868e-05 -2.423159e-05
-3.2262965e-06 0.00039783126 -0.00017444571 2.1507833e-05 0.0002844222 -0.00030988926 0.0003918419 -1.3965928e-05
1.0928295e-05 -1.5048055e-06 0.00011367045 -4.1653217e-05 0.00014077741 4.054123e-13 0.00043595608 -8.995112e-06
1.9053903e-11 0.00010354824 1.9857083e-05 0.00040294684 0.0008053481 -5.7930265e-05 -0.0013493975 -0.00031512644
0.000105669045 -0.00046763153 -0.00012924183 -0.0005525649 0.0005671353 0.000111300265 0.0010313683 3.5939764e-05
4.8003178e-05 1.7124268e-06 6.20873e-06 0.00022945346 3.515702e-05 0.00019441267 0.0001824231 -3.1169908e-05
1.5934434e-05 3.925994e-06 -0.00035186016 -5.131579e-05 -0.00030024332 2.5091686e-11 -8.408883e-05 -0.0005734698
-3.6961155e-12 0.00010907298 -0.00034101 -0.000452149 -0.0017377594 0.0010821206 0.00047122105 0.0018345161
-0.00013374689 0.00017193652 -0.00015277682 -2.4425633e-05 -0.00021417593 0.00043106245 -0.0011343671 -5.212151e-06
-5.602588e-06 -2.0445907e-06 -8.2074024e-05 -0.00025406113 -0.00014731604 0.000185986 0.0003737962 0.000272868
-8.443131e-06 -8.260478e-06 2.8892106e-05 -0.00011083746 -4.4938814e-05 -9.435441e-12 -0.0001459878 0.00021584512
-6.377149e-12 -0.00022046852 0.00014178232 -0.0002861627 -9.790769e-05 -0.00016052843 0.00017440156 -0.0017274998
-6.0555263e-05 -2.8197135e-05 -0.00015739792 0.0001071073 6.110237e-05 0.00045976444 0.0008945503 3.3026292e-05
2.1117086e-05 -6.9583075e-05 -9.844115e-05 0.0001401881 0.00018450232 0.00053323293 -0.0004229675 0.00042870687
9.016023e-06 4.3031314e-06 -8.460749e-05 -4.7201287e-05 -0.00013610933 1.9137584e-11 -0.0007729326 -0.00043843527
-3.3802194e-11 5.736232e-05 -0.00032365523 -0.00027199983 0.00011988148 0.00024987315 0.0003770505 0.001867131
-0.00022216041 0.00067038066 0.00014483157 0.000624255 -0.0005611516 -0.00017097888 -0.001705305 -3.2104825e-05
-4.606982e-05 0.00061042095 -0.00017528915 -0.00014185325 0.00032865562 -0.00013236348 -0.0002279186 0.0002680299
-1.111428e-05 2.1355088e-06 0.00047507166 8.883185e-05 0.00034828475 -2.2753494e-11 -9.858575e-05 0.0005200161
-4.2782097e-12 0.00025927028 0.0006500376 0.0009400048 0.0018440003 -0.0010219472 -0.00041783648 -0.003165087
00000000: 5749 6538 edc0 acb8 7ce9 6fb8 6050 a437
00000010: 76ec 1f39 c349 9939 5dcd 8939 e8fa 1537
00000020: 9667 8a37 5e53 0a38 7df5 bf39 09ae 9c38
00000030: 16d7 d6b7 addd 8cb8 8fc1 af38 92da cfb8
00000040: 7868 c9b6 0313 c1b7 8baf 04b9 2708 5f37
00000050: 779d c9b7 29b7 a32c 1760 2db9 946c dfb8
00000060: d9a1 feac 8997 9439 b6c8 2739 0869 f6b7
00000070: 7c78 d9b9 a76f 1839 8e85 b8b8 d8a3 ec38
00000080: 75a5 e2b8 52cc 573a 0008 a639 0c56 223a
00000090: 83cd af39 d032 a6ba e88e 4f3a 6223 81b8
000000a0: b8c4 53b8 8feb b8ba 57cd d7b9 7fef 923a
000000b0: 2815 30b8 4783 b5ba bf8c cc39 71cb 5cba
000000c0: 0223 1eb8 632d c236 e86e 3c3a 84ff 1537
000000d0: 5f1f e639 777a 0cae 3dbe 8238 28e0 3f3a
000000e0: 7323 422c 4bf3 11ba cd7c b03a c6b2 353a
000000f0: fd8f 9f3a 5541 0d38 e14e 2bbb b642 2a3a
00000100: aaa6 25b8 d31c 57ba 00c6 f0b9 7041 d6ba
00000110: fcaf 903a c66d 073b bf6d fb3b 9f86 1d39
00000120: ed44 b138 a2da 26ba 5618 a1b9 545c 8c38
00000130: 62c4 6cba 89e5 cb3a 9372 1b38 1dff 033b
00000140: 621a 7838 55b3 b535 1725 98ba 4e2b 69b9
00000150: 99b3 a6ba f12c ea2e cf2e 8abb f1a5 1fbb
00000160: 44bc 4aaf 3ec7 7539 b88d 12ba 87a4 54ba
00000170: 91e1 adbb e59c 3e3b d977 3d3b dd13 803c
00000180: 2cfd a0b8 6d8b 2139 4a4e 9e38 030c a639
00000190: 8d57 3238 2429 6bba f8e3 40b8 f144 cbb7
000001a0: 5a83 58b6 0294 d039 6aeb 36b9 b86b b437
000001b0: 801e 9539 a278 a2b9 2170 cd39 344f 6ab7
000001c0: ab58 3737 b9f8 c9b5 5c62 ee38 cdb4 2eb8
000001d0: a69d 1339 123a e42a 0991 e439 b6e9 16b7
000001e0: 9399 a72d 0a28 d938 c392 a637 9c42 d339
000001f0: ff1d 533a 26fa 72b8 44de b0ba 8e37 a5b9
00000200: a39a dd38 712c f5b9 1785 07b9 01da 10ba
00000210: ceab 143a e069 e938 fa2e 873a 07be 1638
00000220: 0557 4938 89d6 e535 9654 d036 7299 7039
00000230: 9075 1338 41db 4b39 d448 3f39 6fbc 02b8
00000240: f0aa 8537 08bc 8336 df79 b8b9 e93b 57b8
00000250: fa69 9db9 74b5 dc2d d958 b0b8 e854 16ba
00000260: a60b 82ac 1cbe e438 96c9 b2b9 690e edb9
00000270: 88c5 e3ba f1d5 8d3a 380e f739 2574 f03a
00000280: 683e 0cb9 dc49 3439 b732 20b9 a6e5 ccb7
00000290: 6a94 60b9 3900 e239 0baf 94ba 09e4 aeb6
000002a0: ddfd bbb6 cd35 09b6 281f acb8 8233 85b9
000002b0: d978 1ab9 3d05 4339 14fa c339 b90f 8f39
000002c0: f9a6 0db7 7c96 0ab7 535d f237 6971 e8b8
000002d0: af7c 3cb8 73fd 25ad 4d14 19b9 7c54 6239
000002e0: 4060 e0ac 912d 67b9 67ab 1439 1c08 96b9
000002f0: ca53 cdb8 8653 28b9 90df 3639 466d e2ba
00000300: b8fc 7db8 e388 ecb7 2f0b 25b9 cb9e e038
00000310: 1624 8038 8a0c f139 4180 6a3a b685 0a38
00000320: 9924 b137 21ed 91b8 3172 ceb8 75ff 1239
00000330: f776 4139 a8c8 0b3a bdc1 ddb9 10c4 e039
00000340: 8643 1737 9e63 9036 4d6f b1b8 fff9 45b8
00000350: 92b8 0eb9 0256 a82d a19e 4aba c9dd e5b9
00000360: e3a9 14ae 5298 7038 45b0 a9b9 339b 8eb9
00000370: e168 fb38 6801 8339 ddae c539 85ba f43a
00000380: bbf3 68b9 7cbc 2f3a eedd 1739 0ba5 233a
00000390: 3f1a 13ba cb48 33b9 8a84 dfba 4ba8 06b8
000003a0: 183b 41b8 a804 203a d3cd 37b9 71be 14b9
000003b0: 694f ac39 0dcb 0ab9 6ffd 6eb9 5d86 8c39
000003c0: 7877 3ab7 c34f 0f36 0a13 f939 3c4b ba38
000003d0: fd99 b639 5024 c8ad d2bf ceb8 b151 083a
000003e0: b086 96ac abee 8739 4967 2a3a a76a 763a
000003f0: 62b2 f13a dcf2 85ba 1011 dbb9 596d 4fbb
