logs/rsl_rl/franka_reach/2025-06-27_10-55-03/model_200.pt (torch, 172795 bytes, 36 tensors)

std f4 [7]
00000000: 2ab9 cc3e 9af7 9e3e bd0b b73e 3b27 803e
00000010: 0de1 bc3e 0122 e83e 4fc3 a73e
0.3998502 0.3104828 0.35751143 0.2502993 0.3689045 0.45338443 0.32766196

actor.0.weight f4 [64, 32]
00000000: 136d 57be b34c 303e 9508 4bbe 2263 c73d
00000010: d92f 923e 8afc e03d 3d1d fe3e 02fe a03e
00000020: 93b2 183f ba8e d6bb 74f6 90bd 6e2a 703d
00000030: 0367 b53d cdb7 8d3d 125b fa3c 44fc 343d
00000040: 748a 5fbd 52fa b7be 20f5 69be 9400 fdbf
00000050: fad5 ae3e 565d c0bc ee32 bcbf a806 0e3f
00000060: dd2c 18be dd22 c5bd f980 20be 1b7d 3ebe
00000070: 3a11 9dbc 2b85 04be e381 803d e916 3a3e
00000080: 130c bc3e bb52 723e 8a5e bb3e 98e0 793f
00000090: 5c3e 093f 79d7 ef3e 1296 efbd cd21 59be
000000a0: d801 7d3c 21ec e23d a679 24bd 4627 d23d
000000b0: 0b74 be3d d147 9cbc 7c44 b9bd 0eab f83d
000000c0: 164f a6bd 6452 683e 6f40 4dbf 9d74 9ebf
000000d0: 1f8e 2fbd c258 143e 78e7 b93e 86ca 2c3d
000000e0: 978f 683d 761c 6dbb 49cd 363e 132e bfbd
000000f0: 7a0e a0bd b80c 37bd e6cf a93d 108b f1bd
00000100: 7d71 7b3f f922 f93d 001b 6a3f 2422 03bf
00000110: 0325 b4bd 228a 02be 3705 913e ee5e cf3e
00000120: 2a13 243f ebd9 26be d143 923d cda9 66be
00000130: f21c 02bc 1b55 12bd 9c67 af3d c607 993d
00000140: 8b64 803e 2df3 0fbe dc35 a83e 1e61 42bf
00000150: 7745 1a3f e25c 21bd c56c acbd d5ad 79be
00000160: 7b91 b5bd 558f 513d 10b8 753e fbe1 083c
00000170: b694 373e 3c17 d23d 7532 89be 1921 0ebe
00000180: 2afc 25be a2e9 27be 0f21 3a3e 05f8 b0bd
00000190: 9203 823d 57a3 a33e 03a3 9c3e 460c 56be
000001a0: 4a31 0a3d 56ce a3bd 54c3 b5bd 4ef1 9abd
000001b0: 892d d1bd 5383 62be 6652 933d 4121 ae3c
000001c0: 0b0c 023f ade5 afbe 9ebc 7fbf ddb5 bb3d
000001d0: 73fe 4b3f 0744 21be c7be f3be 2ef7 6abc
000001e0: cea9 4dba 2c44 9f3e 334b 263e b92f 33be
000001f0: d074 22ba 4093 55be 03c5 38be e1a3 12be
00000200: d54a 7dbd 516f 11bc 9d7f 393d 7a02 8e3e
00000210: 146f b8be 7df8 3f3f a42c 09be e02a 16be
00000220: 2107 fbbd f55d 82bd b484 64bd d2f1 f5bc
00000230: faa6 82bd c1ac 413d 49f3 f13c 0db4 33be
00000240: 5bdc ac3e b5db 443f f372 9abe 86ae 1b3f
00000250: a63d 863f 4308 0dbe e3cc 4fbd e016 2fbf
00000260: 7623 8fbc ec05 f5be ea13 ab3e 649d ab3d
00000270: 1abc 98bd 6921 e93d c868 cabd cc9a 633d
00000280: 007c 193e 0bb0 88be 5eeb 8bbe b837 26bd
00000290: 08d8 133e f5de 013e 9a33 35bb 64b4 973e
000002a0: 8b08 493e 5436 1ebe 4e58 adbe 9d69 a0bd
000002b0: c7d5 593e 0cfd 97bd 8d04 16bd fe3c 053e
000002c0: 4906 1a3f 9a24 5b3f ce37 02bd f92d 11c0
000002d0: 0fb4 53bf 2951 b43d c3a0 163e 2a0d 173f
000002e0: 2b94 bc3d 5fde 00be d17a 6b3e 6eee 4ebd
000002f0: 2bf5 62be 9a65 2f3e 7c28 893e 9913 68bd
00000300: a387 c53e 5851 85bd 8d24 2d3f cf43 91be
00000310: 6b4b 2dbe f16b 713e e417 cebb 78df 8f3e
00000320: 0578 b63d 8d12 4b3e 2dc9 9e3b b802 923d
00000330: f5b7 a4b9 2f73 12bd fd8e 6a3d 9199 0fbe
00000340: a77c 6e3d 96e4 ba3d 4879 433e 15c0 133f
00000350: 6a9f 58be 92b7 dcbd ae89 bfbe 575e 083f
00000360: 928f c83c da69 c43d 7f1b d53d 526b 1b3e
00000370: f8bd 89bc dcd5 093e 6835 113e cdca 903c
00000380: 6312 983f cca3 a43d eaa6 833f 3ac5 e6bd
00000390: 90c7 e0be f28c afbe 3955 10bf 5070 983e
000003a0: 5914 3e3e 7159 113d 5733 f4bc dbb0 b93d
000003b0: cf20 3b3e 63fd fe3d 123d 2ebd fc40 eebc
000003c0: f550 6cbe c31a 33bf 3a4d 77be 035b 29bf
000003d0: 9f8c 0cbf 9705 00be 77c7 7abf 0a55 cf3e
000003e0: fb04 80bd d619 0bbd 8c51 10bd db0c 96be
000003f0: 7578 86bc 59c5 b5bd 395a b73d c191 9fbd
-0.21037702 0.17216758 -0.19827493 0.09735705 0.2855213 0.10985668 0.49631682 0.31443793
0.5964748 -0.006547776 -0.07078257 0.058634214 0.088575386 0.06919823 0.030561004 0.04418589
-0.0545754 -0.35933167 -0.22847414 -1.9765801 0.34147626 -0.023482006 -1.4703043 0.55478907
-0.14860864 -0.0962579 -0.15674199 -0.18602411 -0.019173253 -0.12941425 0.06274774 0.18172802
0.36727962 0.23664372 0.36595565 0.9760833 0.5361078 0.4684408 -0.116985455 -0.212043
0.015442334 0.11080194 -0.040155075 0.10261397 0.09299477 -0.019077213 -0.090462655 0.12142001
-0.08120553 0.2268768 -0.8017644 -1.2379338 -0.042860147 0.14486983 0.3630941 0.04218533
0.056777563 -0.0036180294 0.17851748 -0.0933496 -0.07815261 -0.044689864 0.082916066 -0.11794102
0.98220044 0.12164874 0.9144745 -0.5122397 -0.08796122 -0.12748006 0.2832429 0.40502113
0.6409174 -0.16294067 0.07141841 -0.22525711 -0.007941471 -0.035725694 0.08564684 0.07472186
0.25076708 -0.14057608 0.3285359 -0.7592944 0.60262245 -0.03939522 -0.08419184 -0.24382718
-0.08865639 0.051162083 0.23995996 0.008354659 0.17927822 0.10258338 -0.26796308 -0.13879813
-0.16209474 -0.16397718 0.18176673 -0.08641056 0.06348337 0.31960556 0.30593118 -0.2090312
0.033738412 -0.0799834 -0.088751465 -0.075655565 -0.10213763 -0.22120409 0.07193451 0.021256091
0.50799626 -0.34354916 -0.9989718 0.09165547 0.79685134 -0.15748607 -0.4760649 -0.014341159
-0.0007845432 0.311067 0.16239624 -0.17498673 -0.0006197216 -0.20856953 -0.18043904 -0.14320327
-0.061838944 -0.008876638 0.045287717 0.27736264 -0.36022246 0.7498854 -0.13395935 -0.14664793
-0.12257219 -0.06365577 -0.055790618 -0.030022535 -0.063795045 0.04728389 0.029534953 -0.17549153
0.33761868 0.76897746 -0.30165824 0.60813177 1.0487564 -0.13772683 -0.050732505 -0.6839428
-0.017472964 -0.4785608 0.3341363 0.08379629 -0.074577525 0.113833256 -0.09883267 0.055567548
0.14988708 -0.2669681 -0.27328008 -0.04058048 0.14437878 0.12682708 -0.0027649165 0.29629815
0.19632165 -0.15450412 -0.33856434 -0.07832644 0.21272956 -0.07421312 -0.036625434 0.13011548
0.6016584 0.85602725 -0.0317915 -2.268431 -0.8269662 0.088045426 0.14709763 0.5900446
0.09207948 -0.12584828 0.2299607 -0.050520353 -0.22163837 0.17128602 0.267887 -0.056659315
0.38580045 -0.06509656 0.676339 -0.28372046 -0.16923301 0.23576333 -0.006289469 0.2810018
0.08909611 0.19831295 0.0048457594 0.07129425 -0.00031417576 -0.03575438 0.05726527 -0.14023425
0.058224346 0.091256306 0.19089234 0.5771497 -0.21154562 -0.10777201 -0.3740973 0.5326895
0.024482522 0.09590502 0.10405635 0.15177658 -0.016814217 0.13460487 0.14180529 0.017674828
1.1880611 0.08039054 1.0285313 -0.11268087 -0.43902254 -0.3428722 -0.5638004 0.29773188
0.1856245 0.03548569 -0.029809637 0.09066936 0.18274234 0.124506734 -0.04253871 -0.029083721
-0.23077758 -0.6996271 -0.24150553 -0.661545 -0.5490207 -0.12502132 -0.9796061 0.40494567
-0.0625095 -0.033960186 -0.03523402 -0.29306683 -0.01641486 -0.08875532 0.089527555 -0.07791472

actor.0.bias f4 [64]
00000000: 40b7 24be 4774 c33d 9db3 cdbe c370 6b3d
00000010: befb 9b3d 3824 b4be 4b01 b6be fd4d b4bd
00000020: a997 aa3e 0321 4a3e 5026 b9bd c161 163e
00000030: 9070 c63d c07c a2be 7223 99be c40a 83be
00000040: aff6 1a3f 8cdc 053e 5c45 613e 39c0 89bb
00000050: e0c4 873e c100 013e fa41 02be de44 e23d
00000060: 9d01 16bf 4216 383f d263 843c 3acc 82be
00000070: 1f61 debd f2c2 a03d 691b cdbd 8667 b13e
00000080: a321 f1be 28c1 b1ba c37a 993d f7ea b4bc
00000090: a9f1 673e c37c 983e 290a 5abe 4b62 71bc
000000a0: bc63 363e d728 32be 331d eb3e 6789 33bc
000000b0: 66ab e53e 8ac8 933e c9c4 4fbe 8312 153d
000000c0: 6b48 923e e7e8 aabd a4a3 43be bdce 60be
000000d0: 9f1e 263e 7b34 083e 16ff cfbe 0dc2 b8be
000000e0: e31b cfbe a730 02bd c574 353e caf9 e43e
000000f0: 432f 52bd 569f 0d3e fa81 a43e 60cd 16bd
-0.1608553 0.095436625 -0.40176097 0.057480585 0.076163754 -0.35183883 -0.3554786 -0.088039376
0.33318833 0.19739155 -0.09040511 0.14685728 0.09689438 -0.31735802 -0.29909855 -0.2559415
0.6053266 0.13072413 0.21999115 -0.004203823 0.2651739 0.12597944 -0.1272048 0.110482916
-0.5859621 0.7190896 0.01616088 -0.25546438 -0.10858368 0.07849683 -0.10014994 0.34649295
-0.47095975 -0.0013561593 0.07494118 -0.022084696 0.2265078 0.29782686 -0.21292938 -0.0147329075
0.17811483 -0.17398392 0.45920715 -0.010958052 0.4485733 0.28863937 -0.20289911 0.036394607
0.28570876 -0.08345204 -0.19105393 -0.21953864 0.16222619 0.1330127 -0.40624303 -0.3608555
-0.40450963 -0.03178468 0.17720325 0.44721824 -0.051314604 0.13830313 0.32130414 -0.036816955

actor.2.weight f4 [64, 64]
00000000: 158f 72bc fa58 8bbe 5c5b 9f3e e9c2 5cbd
00000010: 9193 b73d 0a55 2dbd 1707 343e 1f0f df3c
00000020: 5b39 13bd 0d64 9cbe 39ff 443e 8885 593e
00000030: 84a2 8cbd 29bb 01bc 36d9 41be a2c6 c9be
00000040: 864b c83d dda4 0c3d bd97 c8bc cba3 fabc
00000050: 76df 26bd f4dd 7a3e c595 933d faba d23d
00000060: dbec a03e 0d94 98be 233b 0dbe aec5 443e
00000070: 324a aa3e 4baf 52be 172a e03d 0eac 5a3e
00000080: 0a84 b73d e584 8b3e 770d aebd 63af 78be
00000090: 0c4e 4bbe 5719 dfbd 2b0f 80bc 0585 a6bd
000000a0: d5f0 17be 001c c0bd 60a3 503b c119 923d
000000b0: 42fa c9bd a38e 093d 6397 913d 59d2 98bd
000000c0: 3f88 433d fdc5 d8bd 18dc 4b3e e6aa a33c
000000d0: 97ab 3a3e 4e55 71bc 489d 35be 9477 ebbc
000000e0: e6e3 9aba e5d6 e6bd 271a f43d eaeb d3bd
000000f0: d902 78be d217 1fbc da2b 103e 414e 90bd
00000100: 0bae c53d 9d99 41be 2fe2 ddbe 8092 193e
00000110: 9914 58bd 63eb edbc c30a 7fbd 4f29 24bd
00000120: f574 d93d 66d6 483e 50a8 f4bd bb60 2f3e
00000130: 5379 b6bd d843 f8bd 2dac 12be 010b 8abc
00000140: e34e 313e 4020 56bd 6c46 5f3e 3c0a e8bc
00000150: 8b8b e73d d6ad 49bd 1945 1e3d cc71 3d3e
00000160: 7582 c9bd fb1e dfbb bcca 923c a181 7fbd
00000170: ce95 2dbe 9843 383e b789 083e 20ba 8d3e
00000180: dfe2 8ebd 835d a3bd f4ea 2fbd e498 25be
00000190: a934 a63d ca90 7b3e 183b 27bd f175 eb3d
000001a0: d5d5 87bd 5d3f e1bd 7268 a3bd 0f43 833d
000001b0: 3a31 923e b7ff d53d 4db1 b0bd 24c6 273e
000001c0: 10b1 e9bb 6cab 093e abf5 c83d 4611 813d
000001d0: 9938 4cbd 566f 1e3d ef3c 00be 5331 19be
000001e0: 74bf 17be b54d 4dbe 1c5c a83d f9e6 1c3e
000001f0: 2bd2 b53d e4b2 6f3e e264 a0bd 7562 03be
00000200: e309 193c 9997 d7be f5fe 4e3d e4c4 1abe
00000210: c4e4 c53c b96d 2dbe 83d6 1e3b 83f0 06be
00000220: 6e24 193d b5a7 bcbe ed5f 87ba 9230 463d
00000230: 762a 87be 01f6 9dbd cfdf debe 1d09 48be
00000240: d0b9 813d 3c56 2f3d 5420 13bc 1f59 b13a
00000250: 53e0 77bc 9939 573e 488a 913e c921 12bd
00000260: e101 183e 5197 03bd 8334 5fbe f1ab 4e3e
00000270: 5e36 c33e 436e 2d3e e169 a83d 63bb 9b3e
00000280: 9a93 bd3d b367 853e 2e4a aa3d 1e95 e1be
00000290: fd6a d9be 5e21 4ebe e78b dbbd d298 3dbe
000002a0: f4e9 1ebe 3dd5 5abe fac4 f4bd 2965 1a3d
000002b0: 9d33 0dbe 8908 113e cf17 7b3e 4ec9 4cbb
000002c0: 8794 e33d dfe2 9dbd 51ca 263e ca2c c5bd
000002d0: ee57 bfbd 2a77 b73d e80b 54be cb05 bd3c
000002e0: ce17 cfbd ee1e c03b 7031 033e 0593 7fbc
000002f0: f356 83be 3df7 d23d e02b 143e 6fc2 44bd
00000300: 9c79 d2bc 0f30 9ebd 35b6 fbbd 948a dabd
00000310: bd4d f1bd 4467 ec3d fc3a e1bd 9d8f 813e
00000320: 23ff 523d e9e5 cd3d 8707 09be bc82 bfbd
00000330: 5b9e 573e e4fe 92bd 4e59 d3bd ffaf 2f3d
00000340: 1a1b c93d 7a67 603d 6f92 403e 0835 d83d
00000350: 1146 c43d 8edd 523e 67ca 52bc f580 a43d
00000360: 3065 d7be 97d7 e03d 8dc2 7d3e 9f86 8ebe
00000370: 34ef 4dbe aada b63c ba04 1a3d 84a4 d83d
00000380: 4883 ed3c 5502 803d ae0b 963d 79a2 fc3c
00000390: 9b46 a23e 297f c63d a59b b73d 9f94 19be
000003a0: 9e26 c73c defe debd 2f15 4bbc 0e75 623d
000003b0: d1e0 223e 8c48 663d 576b e5bd e81c a33e
000003c0: 7cd1 05bc 9c00 563d cebe 27be d041 993d
000003d0: 6e86 04be 4b8b 7e3e fe23 55be 9165 bd3c
000003e0: 0996 f7bd 2101 bcbd e068 833e a67d 2f3e
000003f0: c97d 1ebb 28bc 033e 78b3 af3d 49cb cf3e
-0.014804621 -0.2721632 0.3112439 -0.05389682 0.08963693 -0.042317428 0.1758083 0.02722889
-0.03594337 -0.30545083 0.19237985 0.21242344 -0.06866935 -0.007918158 -0.18930516 -0.39409357
0.0978003 0.034336913 -0.024486417 -0.03059568 -0.040740453 0.24498731 0.07206301 0.10289569
0.31430706 -0.29800454 -0.1379209 0.19216034 0.33259732 -0.20574681 0.10945528 0.21354696
0.08960731 0.27249828 -0.08498662 -0.24285655 -0.19853991 -0.10893505 -0.015632233 -0.0813084
-0.14837964 -0.093803406 0.003183566 0.071338184 -0.09862186 0.033583295 0.07108953 -0.07461996
0.047737356 -0.10584638 0.19908178 0.019978952 0.18229519 -0.014729811 -0.1773578 -0.028743543
-0.0011817187 -0.11271457 0.11919051 -0.103477314 -0.24219836 -0.009710269 0.14079228 -0.07046176
0.09652337 -0.18906255 -0.43336627 0.14997292 -0.05275402 -0.029042905 -0.062266123 -0.040078457
0.10618011 0.19613037 -0.119461656 0.17126743 -0.089098595 -0.12122315 -0.14323492 -0.01685095
0.17315249 -0.05227685 0.21804208 -0.028325193 0.113059126 -0.04923805 0.038640115 0.18500441
-0.09839336 -0.006809113 0.017918937 -0.062379483 -0.16951677 0.17994535 0.13333784 0.27681065
-0.06976866 -0.0797682 -0.042948678 -0.16171604 0.08115513 0.24566951 -0.04082784 0.11497105
-0.06632582 -0.10998414 -0.07978906 0.06409275 0.28553182 0.10449164 -0.086275674 0.16384178
-0.007131703 0.13444299 0.098124824 0.06302123 -0.049858663 0.038680397 -0.12523244 -0.14960222
-0.14819127 -0.20049174 0.082206935 0.15322484 0.08877977 0.23408085 -0.07831742 -0.12830527
0.009340736 -0.42107847 0.050536115 -0.1511417 0.024156936 -0.16936387 0.0024236746 -0.13177685
0.037388258 -0.368467 -0.0010328271 0.048386164 -0.26399583 -0.07712937 -0.43530127 -0.19534726
0.06334269 0.04280685 -0.008979876 0.0013530588 -0.015129167 0.21018066 0.28425813 -0.03567675
0.14844467 -0.03212673 -0.21797375 0.20182778 0.38127416 0.16936593 0.0822332 0.30416402
0.092566684 0.2605568 0.0831493 -0.4405908 -0.42464438 -0.20129916 -0.10720044 -0.18515328
-0.15518934 -0.21370406 -0.11951633 0.03769413 -0.1378922 0.14163412 0.24520801 -0.0031247917
0.11112314 -0.07709288 0.16288115 -0.096276835 -0.09342943 0.089582756 -0.20707667 0.023074051
-0.10111962 0.005863062 0.12811828 -0.015599017 -0.25652274 0.10301063 0.14469862 -0.04803699
-0.025692753 -0.0772401 -0.122906126 -0.10670963 -0.117824055 0.11543134 -0.109975785 0.2530488
0.05151285 0.100536175 -0.13381778 -0.093511075 0.21056502 -0.07177523 -0.10319768 0.042892452
0.09819622 0.054786183 0.1880586 0.1055699 0.095836766 0.20592329 -0.012865639 0.08032409
-0.42069387 0.109786205 0.24781246 -0.27837083 -0.2011078 0.022321064 0.037602164 0.10578254
0.028993264 0.06250445 0.073264465 0.030839192 0.31694493 0.096922226 0.08965234 -0.149981
0.024310406 -0.10888456 -0.012395187 0.055287413 0.15906073 0.05622153 -0.11202114 0.3185799
-0.008167621 0.052246675 -0.1638138 0.07483256 -0.12941906 0.24857824 -0.20814511 0.02311972
-0.12089164 -0.09179903 0.2566595 0.17137775 -0.002418386 0.12864745 0.08579153 0.40584782

actor.2.bias f4 [64]
00000000: 8420 7cbe 1beb 8e3c e0d1 08be 08b0 e53d
00000010: 9a77 a1bd c794 cebd f10e 44be 1346 99be
00000020: a926 bdbd 22ab 8ebb 52d6 7abe f093 c9be
00000030: 4000 8cbe 3117 0fbd eaf8 513e 3bcf 3dbe
00000040: bab5 3abd 96d3 a5be 2b40 5abe ed97 54be
00000050: 403f 90be 966d 7abe 502f 36be 83e8 74be
00000060: e0f1 88be f0da 8cbe 5a94 93be 8292 33be
00000070: 00b5 cfbd 81df 96be 9cc7 7c3e eab2 c3be
00000080: eb33 92bd b8d6 e83d 7902 7bbe 2e91 19be
00000090: 6b03 a3be 3ce0 6cbe bc10 4abe 5ea7 7bbd
000000a0: 7511 9abe 49a5 70be b8e2 24bd 212b a5bd
000000b0: b4bc 52be edff bdbe 09e3 8abc b202 0dbe
000000c0: e069 cb3d 33af 4ebe a9c9 c63c 83d9 10bb
000000d0: b439 4fbe 18db 0ebe c0d5 abbc 62a6 88be
000000e0: 9086 e7bd d1d0 80bd 00e0 0dbd 5d60 46be
000000f0: 4f26 acbe 77c1 5fbe fe87 843c 7dad db3c
-0.24621779 0.017446091 -0.13361311 0.11215216 -0.0788414 -0.10086971 -0.19146325 -0.29936275
-0.092358895 -0.0043538967 -0.24495819 -0.3937068 -0.2734394 -0.034934226 0.2050511 -0.18536083
-0.045583464 -0.3238799 -0.2131354 -0.2076108 -0.28173256 -0.24455866 -0.17791486 -0.23916821
-0.26747036 -0.27510786 -0.2882412 -0.17536357 -0.10141945 -0.29467395 0.2468552 -0.38222438
-0.07138809 0.11369079 -0.24512662 -0.14996788 -0.31838545 -0.23132414 -0.19732946 -0.06143891
-0.30091444 -0.23500551 -0.04025528 -0.08064867 -0.20579797 -0.37109318 -0.016953962 -0.1377056
0.099323034 -0.2018402 0.02426608 -0.0022102303 -0.20236856 -0.13950765 -0.020975947 -0.2668944
-0.11304963 -0.062898286 -0.03463745 -0.19372697 -0.33622977 -0.21851145 0.016178127 0.026816124

actor.4.weight f4 [7, 64]
00000000: d6f6 1cbc a366 4f3e dcff 883d 7ebf fdbd
00000010: 83d9 1dbd 967c 183e f50c 983d a0a7 af3d
00000020: edb2 2ebe 4288 c93d a579 333e af39 033e
00000030: 28e9 ee3d 12e3 213e ea20 8b3e 05d7 40be
00000040: 5529 de3d a6dc cb3c f12f 28bd 5445 71ba
00000050: ee14 78be 926e 993d f1d2 5f3d 9ef6 d1bd
00000060: e800 49bd 1d34 3a3e 8a11 95bd 3fdb 8ebd
00000070: 224a 1c3e 6deb 88bd bdde 0dbd 10db 313d
00000080: b160 d23d fc45 4e3e f7f6 623e 0c41 b43d
00000090: bb11 dfbd 06a1 013e 1a7b f03c c7fd 333e
000000a0: 45e7 573e 9409 fc3d e293 9dbe 54d3 e0bb
000000b0: d627 cc3b d424 0e3d 2d33 943e 5f12 223d
000000c0: 85f4 e53d ad29 cc3c 9d14 1e3e 778a 86bc
000000d0: 525f 2fbd 403f cbbb 4fac b33c 0aa8 9abd
000000e0: c5d2 323e 47d7 8ebe b7d5 173d aeba 8f3c
000000f0: 60fd 083e ede5 703e 2be6 b83d e14b f4bc
00000100: 1d54 ce3d b995 bd3d 98df 453e 4c7d bb3d
00000110: 610f f0bd 4e00 a7bd db07 2fbe 785c 9fbc
00000120: 8e02 78bc 61d9 813d 9006 87be cc9d c2bb
00000130: bc7b 9fbd 0a71 01bd 2f02 683d defd 053e
00000140: 825c 24be 9018 28be 8da1 7e3e 9c2b f9bd
00000150: fcc5 7abd 6ea3 423e 2771 1f3d 95d7 1abd
00000160: 1a8a 8abe 22c7 843d 3280 3abe 1b73 5cbd
00000170: afc3 213d 0432 e63d bff9 8a3e e575 f83c
00000180: ac61 4d3e cbe6 94bd 12a0 25be 12a7 9cbe
00000190: 6368 5cbe 71b7 83bd 8a44 923e 17ec 993d
000001a0: 16d4 f6bd 48fa 90bd 71b4 3dbd 9900 c93d
000001b0: c84e 9a3e cbff f8bd aad7 503e 2124 ce3b
000001c0: c3b0 713e c121 b9bb fca8 3d3e b249 3dbd
000001d0: 3912 1e3d b016 55be 4b64 07be 7936 3f3d
000001e0: 6a8f aa3c dd29 b03d ffc4 c6bd 1774 b2be
000001f0: b7b0 923d 1ce9 2b3d cb4c f33d 8c11 693d
00000200: 2421 903d 3280 8abc 2adb 273e efae bdbd
00000210: 6232 b9bd 5ab2 42be e2ea 4a3e d03a 7b3d
00000220: 390b 84be 1ad2 623e 1d5d 1c3e 8de9 173c
00000230: abe4 afbc 910c f3bd 5400 963e 892f ea3d
00000240: c555 6cbe 7352 76bd 02a5 403d 7eb8 233e
00000250: 9097 6dbe 828c c33d d7e5 ad3d cb3a 2bbe
00000260: b846 b1bc 2154 b13d 6321 3ebd 09eb 6dbc
00000270: 889d bb3d 42fe 28be 7ee7 9abe fe9a 603e
00000280: b99b 7e3d 0533 033e 42a4 ba3d 7b57 e03d
00000290: 153a 2f3e 1d6f de3c c43e ae3d b1fa 4f3c
000002a0: ee0d 463e c553 83bd 4a96 06be 227f 8abd
000002b0: 428f 29be 61c0 36be 9057 b33e 548f 5d3d
000002c0: eb0b 7f3b 2f13 81bd fbf8 c23d a78f 16bd
000002d0: 9624 e83c 10fb 39bb 2375 9b3b cb98 8bbd
000002e0: 82ce ef3d 462a 56be 2eb2 abbd b6a8 69bd
000002f0: 05db ef3d 1bd5 7c3e 4ab4 3c3e ada9 91bd
00000300: 7e7d 853e 8775 eabd 252a 903e b61b 40be
00000310: 44db f6bd c14b c0bc 46e7 b53d ac07 6c3e
00000320: baf2 ab3d 4324 53bd 714b 823e 29b0 b1bd
00000330: ae08 783e e5ad 53be a78c d0be b684 ebbd
00000340: 6841 0a3b b6c6 853d 177a 923e fba3 5bbe
00000350: 2ac5 bf3d 97f9 133e 7c64 bd3b 9778 74be
00000360: 31cd 693d a3ca 5e3d 8a32 573e 525d 1b3d
00000370: d39a 82be 9834 433e a529 8abc eba3 85bd
00000380: 2487 443e ddcb 2a3d 2f4c d23c 717c 353d
00000390: bd0e 393d a932 903d f923 cd3d b840 01be
000003a0: fceb 57be 0a31 243e 66f6 c1be 50a2 233e
000003b0: 5cc8 193e 8e1a 2b3e 97e4 a33d 4ef8 05bb
000003c0: c393 70be b466 aebe c94c de3b 8384 02be
000003d0: 642e 033e 67c3 8bbc 52c3 29be 5af5 16bc
000003e0: 54ba 09be 424b e9bd 02bc 93bc 76ed 99be
000003f0: 9e2d a73c bae7 313d 5b32 a2bd 6830 43be
-0.009580335 0.20253997 0.06689426 -0.1239004 -0.038537513 0.14891276 0.07424346 0.08576894
-0.17060442 0.09840442 0.17526872 0.12814973 0.11665565 0.15809277 0.2717355 -0.18832023
0.10847727 0.024885487 -0.041061345 -0.0009203751 -0.24226734 0.07491793 0.05464453 -0.102521166
-0.04907313 0.18183942 -0.07278736 -0.069754116 0.15262654 -0.06685529 -0.034636248 0.043421805
0.10272349 0.20143884 0.22164522 0.08801469 -0.10892054 0.12659082 0.029355574 0.17577277
0.21084316 0.123065144 -0.30776888 -0.00686113 0.0062303348 0.03470309 0.28945294 0.0395683
0.11228279 0.024922216 0.15437551 -0.016423447 -0.042815514 -0.0062026083 0.02193275 -0.07551582
0.17463215 -0.2789862 0.03706905 0.01754507 0.13377905 0.2352521 0.09028276 -0.029821338
0.10074637 0.09257073 0.19323575 0.09154758 -0.11721683 -0.08154355 -0.1709284 -0.019453272
-0.015137328 0.0634029 -0.26372194 -0.005939221 -0.07787272 -0.031601943 0.056642707 0.13085124
-0.16050914 -0.1641562 0.24866314 -0.12166521 -0.06122397 0.19007656 0.03892627 -0.03780325
-0.27058488 0.06483294 -0.18212965 -0.05382071 0.03949326 0.112400085 0.27143666 0.030329654
0.2005679 -0.07270583 -0.16174343 -0.30596215 -0.21524195 -0.06431473 0.28567916 0.07515734
-0.12052171 -0.07078987 -0.04631466 0.09814567 0.3013823 -0.12158164 0.2039477 0.006290928
0.23602585 -0.0056497757 0.18521494 -0.04621286 0.038591597 -0.20809436 -0.13221852 0.04668281
0.020820338 0.08601735 -0.09705543 -0.34854195 0.07162612 0.041970357 0.118798815 0.0569015
0.07037571 -0.016906831 0.16392198 -0.092618816 -0.09042813 -0.19013348 0.19816163 0.061335385
-0.25789812 0.2215046 0.15269895 0.009271991 -0.021471342 -0.11867631 0.29297125 0.11434848
-0.23079593 -0.060137223 0.047032364 0.15988347 -0.23202348 0.09548284 0.08491104 -0.16721646
-0.021640167 0.086586244 -0.04641856 -0.014521369 0.09160906 -0.16503242 -0.3025474 0.21934125
0.062160227 0.12812431 0.09113361 0.109541856 0.17112 0.027152592 0.08508065 0.012694047
0.19341251 -0.06412462 -0.13143268 -0.0676253 -0.16558555 -0.17846824 0.35027742 0.054091766
0.0038917016 -0.06302487 0.095201455 -0.03675809 0.028337758 -0.0028378405 0.0047441884 -0.06816252
0.1170931 -0.20914564 -0.083835945 -0.05704566 0.117116965 0.24690668 0.1842815 -0.07112441
0.26072305 -0.11448198 0.28157154 -0.18760571 -0.1205354 -0.023473622 0.088820025 0.23049802
0.08395906 -0.051548254 0.25448182 -0.08676178 0.24222061 -0.20671804 -0.4073231 -0.11499922
0.0021096114 0.06532042 0.28608772 -0.21449272 0.09363778 0.1445068 0.005779801 -0.23874126
0.05708045 0.05439247 0.21015373 0.037930794 -0.25508747 0.19063032 -0.01686556 -0.065254055
0.19192177 0.041698325 0.025671093 0.04430813 0.04518007 0.07040913 0.10016627 -0.12622344
-0.21086115 0.16034332 -0.378833 0.15979886 0.15017837 0.16709349 0.080025844 -0.002044219
-0.23493867 -0.3406273 0.006784056 -0.12745862 0.12810665 -0.017060949 -0.16578415 -0.00921377
-0.13449985 -0.113913074 -0.018033985 -0.3006398 0.020407494 0.043433882 -0.07919761 -0.19061434

actor.4.bias f4 [7]
00000000: 45c8 eabb 2949 1e3e 257d 4abd 2077 de3d
00000010: 64d2 613d 10de 4fbe c7e3 ca3d
-0.0071649873 0.15457596 -0.049435753 0.10862565 0.055132285 -0.20299554 0.09906726

critic.0.weight f4 [64, 32]
00000000: 6d57 42bd e01b 86bd cb29 a33d 993d 223e
00000010: faa6 27be c054 003d e2c2 90be 3a3f 0b3e
00000020: 0312 c3bc af39 6c3d 46fb 83bd a147 af3d
00000030: 3423 35bd bc45 8e3d 4d47 853b e26b c7ba
00000040: c1bb 05bd 6120 873c 3d86 9bbe 30df 0bbe
00000050: 1883 553e 2034 353d 2550 40be 70f0 a3be
00000060: 0968 fdbd bf01 713d c07c 60bc b575 fabc
00000070: a5a1 823b ceea b9bd fc91 4ebd 5e04 02bc
00000080: af62 a0bd f87d cf3d cc62 293c d18a 083e
00000090: 43cf a13d c98c 813e c986 283e 8365 91bc
000000a0: 4ba3 ef3c d08a fabc bc0b 1bbd 1d00 62bd
000000b0: 2f2a cabd d816 21bd f665 d9bd 6e68 d03c
000000c0: e6cd 5fbc be7c 3c3e b89f bd3d 9b74 b4be
000000d0: eead c53d 51a8 8d3d 0d0f 6d3e 5217 053e
000000e0: e457 1dbc 8067 1e3c 08a1 d93d d7fb b43c
000000f0: de20 6a3c b14d aeba 91e3 bb3d 670e 1dbe
00000100: 657b e8bc e949 c93d 8747 18be 7f66 a1bb
00000110: a125 9a3d 631d 5b3c 271f 89bd 0e03 bcbc
00000120: 4548 c43d c5e4 09be f736 373d 69fc c5bd
00000130: ed85 2fbd 1731 543d 0918 64bd b0b2 473d
00000140: e685 fe3d c0e4 b7bc 1e59 79be 9378 f1be
00000150: d168 5f3c c11f 603d 40db e2bc a410 83bd
00000160: 78e9 b3bd 3bce 813c af2a 623c 7d5d 9abd
00000170: e6d9 d93d 1200 2fbd f009 d3bc 84e2 f2bb
00000180: 5258 0cbe 156a ed3d 4959 853d 76ca 02be
00000190: e1ad b23d ce43 ae3d 8f40 753e c806 583e
000001a0: c4e8 7c3d 39fd b4bd 075f c3bd 45a9 e4bd
000001b0: 0171 383d 1d5e 9d3c 8b1a cebb 7764 cbbc
000001c0: 192d e13a 1727 5e3e 2742 12be 6fdc 44bf
000001d0: 9e16 83be 2cd7 fdbd 120b 87bf 3662 8d3e
000001e0: 0155 253e 08fb 61bc 99a7 55bc e906 ed3d
000001f0: 2452 b4bc 8686 b0bd 0a7e 3b3d bc68 563d
00000200: 93f3 1dbe b0e4 eabd f0a9 5a3d dc8b 12bd
00000210: 11f6 9d3e 456f 013e b2bf 783e 9216 723d
00000220: fc1a 8f3b f6a6 e3bc 1336 97bb d45d 88bc
00000230: 8744 a2bb 9c50 1b39 ba41 e63b a3d4 c9bb
00000240: 80e5 8b3c 1453 843d b8c9 893e 7286 72bd
00000250: 1410 543d b9bd 233d 97ed 1fbf 5cc2 a73e
00000260: 0833 11be 6b5b 99bb e63b 5dbd 4995 15bd
00000270: bcde d6bc dd12 27bb ad58 49bc 2d15 a33d
00000280: 77b9 d6bd d45a 39bd 4b07 91bd f550 473c
00000290: 9dde 003e 0a8e 523d 6794 043c cfab a3bd
000002a0: 0cb4 b03d e629 163d b25e d0bd ca4b 8c3b
000002b0: b125 343d d9b6 0dbc f849 f7bb 99eb 6f3c
000002c0: 022d 3a3e 3423 b8bb 0316 7abe f189 34bd
000002d0: 3c91 92be 92c9 1abe 18a8 153f fd4e db3e
000002e0: d086 913d b50f 8bbd 5669 073e fe35 133c
000002f0: f6f9 993d d515 b73c f359 f93b c772 fabc
00000300: 50d5 f33d 1174 4d3e 0770 c5bd d006 113e
00000310: e6a2 1e3e 6ff2 f23d 08f8 913d 3d8b f0bd
00000320: 4d4b c13d 03d6 1b3d e606 fb3a 7b53 d03c
00000330: 6508 cf38 59a4 2bbc fe5c 823a d45c 80bc
00000340: 9311 f93c 8d1e 2cbd e8b0 3f3e e689 f6bf
00000350: 1808 69bb a623 113e f3a4 5ebf 1d87 193d
00000360: 078b 1ebd a07e 82bd 53d2 663d 896c 8b3b
00000370: 929f d73c c63c 903c 06c4 4d3d b118 2a3d
00000380: 4b4a ae3d 48f0 eb3d a9fb 61bb 506a 18be
00000390: 6df7 b6bd e376 6ebe 2739 12be b140 0b3e
000003a0: 4143 a23d e428 a53c 1ef7 9e3d 83ef 1e3c
000003b0: f1d5 ef3b 0e21 053d 4e22 c53c 26dd af3d
000003c0: 5afb 24be 5b37 9dbd 5d63 943d 489b 0b3f
000003d0: ca22 d6bd 614e 023e ca03 03bf 1c7f 37bd
000003e0: 7e01 083e 0458 83bd 6dbd c1bd e427 14bd
000003f0: 6da7 c4bc 9b6f d03b ea6c 91bc d3a7 573c
-0.047446657 -0.065482855 0.07966956 0.1584381 -0.1637229 0.031330824 -0.28273684 0.13598338
-0.0238123 0.0576722 -0.06444411 0.08558584 -0.044223025 0.069468945 0.0040673376 -0.0015214647
-0.03264976 0.016494932 -0.30375853 -0.13659358 0.2085079 0.044239163 -0.18780573 -0.32019377
-0.12373359 0.058839556 -0.013701618 -0.030573705 0.0039865547 -0.090779886 -0.05043219 -0.0079356115
-0.078313224 0.101314485 0.010338496 0.13334204 0.0790086 0.25302723 0.16457666 -0.0177486
0.029252669 -0.03058377 -0.037852988 -0.05517589 -0.09871327 -0.039328426 -0.10615151 0.025440421
-0.01365993 0.1840696 0.092589796 -0.35245213 0.09652315 0.069168694 0.23150273 0.12997177
-0.009603474 0.009668231 0.106264174 0.022092743 0.014290063 -0.00132983 0.09174264 -0.15337525
-0.028379152 0.0982855 -0.14871036 -0.0049255486 0.075267084 0.013373706 -0.06695395 -0.022950675
0.09584097 -0.13466175 0.044730153 -0.09667284 -0.04285233 0.05180463 -0.055686984 0.048754394
0.12427883 -0.022447944 -0.24350402 -0.47162303 0.01363583 0.054717783 -0.027692437 -0.06399658
-0.08784765 0.015845409 0.013804122 -0.07537363 0.10637264 -0.042724676 -0.025761575 -0.0074122567
-0.13705567 0.11592499 0.065111704 -0.12772545 0.08724571 0.085090265 0.23950408 0.21096337
0.06174542 -0.08837361 -0.095396094 -0.11165098 0.045029644 0.019209916 -0.0062897853 -0.024828179
0.0017179578 0.21694599 -0.14283048 -0.76898855 -0.25603193 -0.123945564 -1.0550253 0.27613991
0.16145708 -0.013792761 -0.013040447 0.11573584 -0.022011824 -0.08619408 0.045774497 0.052345976
-0.15424947 -0.114694 0.05338472 -0.03577791 0.30851796 0.12640102 0.24291876 0.059103556
0.0043672305 -0.027789574 -0.0046146004 -0.016646303 -0.0049520168 0.00014811981 0.007026878 -0.0061593815
0.017077208 0.064611584 0.26911712 -0.05921025 0.051773146 0.039975855 -0.6247191 0.32765472
-0.14179623 -0.0046800873 -0.0540122 -0.036519323 -0.026229255 -0.002549342 -0.012289208 0.07963023
-0.10484593 -0.045252636 -0.07081469 0.012165298 0.1258492 0.05140499 0.0080920225 -0.07991754
0.08628091 0.03666105 -0.10174312 0.0042814957 0.043981258 -0.008649551 -0.0075466596 0.014643573
0.18181232 -0.005619431 -0.2442246 -0.044076864 -0.2862643 -0.15115955 0.58459616 0.428337
0.071057916 -0.06790105 0.13223776 0.008985041 0.075183794 0.022349278 0.0076095997 -0.030572308
0.119059205 0.20063807 -0.09640508 0.14162755 0.15491828 0.11862647 0.07127386 -0.117453076
0.094381906 0.038045894 0.0019151836 0.025430432 9.872093e-05 -0.010476195 0.0009945927 -0.015669264
0.030403888 -0.042021323 0.18719828 -1.9260833 -0.0035557803 0.14173755 -0.8697044 0.03748237
-0.038706806 -0.06371808 0.056352925 0.0042548818 0.026321206 0.017607104 0.05023577 0.041527454
0.08510264 0.115204394 -0.0034482277 -0.14884305 -0.089339115 -0.23287539 -0.14279614 0.13598897
0.07922984 0.0201611 0.077619776 0.009700659 0.007319205 0.032502227 0.02406421 0.085871026
-0.16111508 -0.07676574 0.072455145 0.54533815 -0.10455854 0.12725212 -0.51177657 -0.044798955
0.13281819 -0.06413272 -0.09459958 -0.036170855 -0.024005616 0.0063609607 -0.01775213 0.013162571

critic.0.bias f4 [64]
00000000: 2288 123e 137c 38be 97cb babd 3576 ebbd
00000010: b665 72bc 811a cebd 397f 7dbd 6e9a 383d
00000020: 0772 37bd 71a6 a8bd 5d8e 74b9 b435 ba3d
00000030: b91a 02bd d55b c7bd c8b2 ac3d fa18 a8bd
00000040: 8f18 dfbd ca15 133e 59c9 c4bb 6ff7 fe3d
00000050: 88a9 e83d 2957 b1bd c8a6 a73d afb4 3fbd
00000060: 5787 f43c dc94 7cbd bb48 423d a422 c53c
00000070: cc49 7fbd 6119 463e 5e39 89bd 6646 073d
00000080: 0e74 bfbd 36eb 2fbd fa6e 303d 5005 9ebd
00000090: 97c2 5cbd 2646 3c3e fa07 0cbe b385 9fbc
000000a0: 8fc8 663d 9ded 923d 7795 0d3d 1c56 5fbe
000000b0: fc91 36be 9370 833d bac8 cabd 1cce 3abe
000000c0: 3166 91bd ca0e 0fbd 4ebd 2bbe 9dc5 14be
000000d0: 334c 683d 2266 0ebe 4922 edbd c72b a2bd
000000e0: e654 e33d 7087 36bd 49a2 0cbe ff86 a6bd
000000f0: 8594 dcbc cc07 223e bf34 0e3e e1ea b4bd
0.14309743 -0.1801608 -0.09120863 -0.114971556 -0.014794758 -0.10063649 -0.061888907 0.04506915
-0.04478648 -0.08234871 -0.00023322688 0.09092274 -0.031763766 -0.097343124 0.08432537 -0.08207889
-0.10893356 0.1436378 -0.006005448 0.12449538 0.113604605 -0.086592026 0.08186108 -0.046803173
0.029849691 -0.0616654 0.047432642 0.02406437 -0.062326238 0.19345619 -0.06700395 0.03302612
-0.093483075 -0.042948924 0.043074585 -0.07715857 -0.053896513 0.18386135 -0.13674918 -0.019472932
0.05634361 0.071742274 0.03456637 -0.21810192 -0.17829126 0.06417956 -0.09901567 -0.18242687
-0.070995696 -0.034926213 -0.16771433 -0.14528508 0.056713294 -0.13906148 -0.11578805 -0.07918506
0.111001775 -0.044562757 -0.13733782 -0.08131217 -0.026926288 0.15823287 0.13887309 -0.08833862

critic.2.weight f4 [64, 64]
00000000: 80f7 e3bd 1758 8dbc 1fe0 313e f395 ec3d
00000010: 6829 493c 6809 43bc 199a c23d 4f3c 753d
00000020: 42ff 803e 27bd 013e ce67 f03b 9945 dabd
00000030: c3e6 0fbe 15fe 913d fb9e 383d 7781 9a3c
00000040: 5ead b1bd 1d0c 1abe 83a4 f9bd fedf 37be
00000050: 413c 40bd 1fa6 11be 9fdf 5dbd a391 fdba
00000060: 7cfb 253d bd2e cdbc 9e87 8f3d 83c2 a4bd
00000070: 567c 453d 1bed 31be 01ef ac3d 6f28 e9bd
00000080: 65d3 013d 2038 433d d6cb d33d f9e2 8d3d
00000090: eb67 9dbd 32f2 0dbe d57b 35be d0d1 eb3d
000000a0: 3319 8e3d 44f9 abbd 7f70 02be 1e17 15be
000000b0: d0d6 0ebd 9957 0d3e ba55 9d3d 417b 04be
000000c0: 9fb6 bbbc dd3b 79bc 5d4c 173d fc23 e0bd
000000d0: da8d 723d 8bb5 c5bd 9c4b b3bd fbf3 fe3c
000000e0: 1b3e f93d 700a d53d 0d88 993d 8f56 c13c
000000f0: 1125 30bd af8b 093c ed33 9d3c 67e6 97bd
00000100: f32e 18bd 487f 88bd c16c 403d fc85 c73d
00000110: b16c cdbb d157 883d e563 c6bc 48bd 17bd
00000120: 9b1d 2cbe 6c59 193e be94 523e 6630 853d
00000130: a376 1cbe 3121 1a39 6d31 823e fa2c d7bc
00000140: 164a b53d e5e0 ebbd 5b8b 913d 3240 adbd
00000150: 6d2c 213e f502 5cbd a95b 66bd d0e9 f13d
00000160: 6dbe ff3d 0171 3d3e b363 893d 89ea 5c3d
00000170: de67 d23d 7cf8 93ba 669a 4d3d c6fa 963c
00000180: 8269 ad3d 231b c8bd 7ce4 b8bd 8fd3 bfbd
00000190: f262 a3bd 157d 1cbd 9bb7 53bd ae04 833e
000001a0: 455a 083d 599e d8bd fdba 123e 8967 2cbd
000001b0: 5e75 9bbd 06b7 ac3d 4faa 093d e2b7 7a3c
000001c0: 7b2b e5bc b53a 2ebe e784 ee3c d8c4 53bc
000001d0: 0631 ed3b 504b 3fbe d45a 033c 4968 bcbc
000001e0: 626d d43d 2240 9c3c c069 353d 32fc 303e
000001f0: 4b00 6e3c 2ac8 1b3e 5894 1a3e fa5b c13d
00000200: d69e 903d d5f0 14bd 75a4 123d c595 e5bd
00000210: d1bb 623d ebdc 753c e1ba 9bbd b1f4 223e
00000220: a04b 43be 1d7a 13bc 9629 d93c c2ce 763b
00000230: ec7e e5bd bd72 143e 7c3e d7bd 4a0a f83d
00000240: 4b66 91bd d0fc 033e 12f1 c8bc 2501 103e
00000250: 982e 883c f6dd 57be cd7d 34bd a2f0 b0bd
00000260: fa4c b8bd 249d 263e 840c ca3c 6159 b4bd
00000270: c8af 243c 5ae3 1f3e 549d 2c3d 7146 bf3d
00000280: 2cda bebc 974d 62bd c44e a53c aa61 b0bc
00000290: ca4e c9bc b863 a03d bff5 2d3b 990e 4dbd
000002a0: 96dc f63c cc96 e1bd d406 2b3d b657 d7bd
000002b0: f3ce 16bd ea14 2a3d 74d4 7abd 3320 edbd
000002c0: e8a4 8dbd 8928 8b3d 154c d8bc 0d7d 66bd
000002d0: 34aa 9b3d fb4b 073e 1880 d03d be08 2f3d
000002e0: 2d6d e9bc eefb 183c ff79 2a3e b1f4 eabd
000002f0: 4e03 dd3d 9cea e63d e800 ae3d 6dad dbbc
00000300: 480c 31bc 5652 afbc 1218 3f3e 24f6 e1bc
00000310: 0ce0 b6bd 7774 0ebd b3fc 54ba 647d 8fbc
00000320: fb63 afbd 11ce 773e 1810 3f3d 7535 e73d
00000330: dda8 a0bd 20e7 0cbe 53cd 6c3b 56da d73d
00000340: 474f 4fbd e40a 953d d377 283c 14e5 7d3e
00000350: 14fe b83e ea83 c1bd 0188 88bc 75a5 2b3d
00000360: 813d c1bd f18f a53d 752e fe3d 90d5 eabd
00000370: 9a86 34bc d2a4 6d3d 62ab a73c f3b3 933d
00000380: cd2e 9abd 3867 92bd d618 bebd e91c 6a3b
00000390: 2143 9c3d ba27 b1bc 9150 86be 15d9 a43c
000003a0: a2c2 013d 52d6 88be 1368 ca3d 6d75 28be
000003b0: 9969 14be cde1 713d 8fd0 203d 1484 5cbb
000003c0: 6b90 50bd 77b9 e9bb a25d bc3d 3e55 be3d
000003d0: 2ae2 b9bd 454b 10bd 818c bdbd 571c b13c
000003e0: e80e 143e 2add 9dbd d148 e1bd 8c99 d73d
000003f0: f13e d1bd 7f3a 9abd df74 b1bc 4d1e d0bd
-0.11131191 -0.017253919 0.17370652 0.11552038 0.012277938 -0.011904098 0.09502048 0.059871968
0.25194746 0.12669812 0.0073365932 -0.10657806 -0.14052872 0.071285404 0.04507349 0.018860562
-0.08675645 -0.15043683 -0.12189581 -0.1795654 -0.046932463 -0.14223526 -0.05416834 -0.0019345771
0.040523037 -0.0250467 0.07008289 -0.08044913 0.04821428 -0.17375605 0.08444024 -0.11384665
0.031695742 0.047660947 0.10341613 0.06928057 -0.076858364 -0.13861921 -0.1772302 0.11514628
0.069384 -0.08397153 -0.12738226 -0.145596 -0.03487283 0.13802947 0.07682367 -0.12937643
-0.022914229 -0.015212026 0.03693806 -0.109443635 0.05921731 -0.09653767 -0.08754656 0.031122198
0.12170049 0.104023814 0.07496653 0.023600845 -0.0430041 0.00839512 0.0191898 -0.07416993
-0.03715415 -0.06664902 0.046978716 0.09742352 -0.0062690605 0.06657375 -0.024217555 -0.037045747
-0.16808169 0.14975518 0.20564553 0.06503372 -0.15279631 0.00014698949 0.25428334 -0.026266564
0.088520214 -0.115175046 0.07106658 -0.0845951 0.15739603 -0.053713758 -0.056239758 0.11812174
0.12487493 0.18500139 0.06708469 0.053934608 0.10273717 -0.0011289264 0.050196074 0.018430125
0.0846739 -0.09770801 -0.09027955 -0.093665235 -0.07977857 -0.038205225 -0.05168877 0.25589508
0.033289213 -0.105770774 0.14329143 -0.042090926 -0.075907454 0.084333465 0.033609685 0.01530263
-0.027974835 -0.17014582 0.029116107 -0.012925349 0.00723851 -0.18681073 0.008017261 -0.022998946
0.103724256 0.01907355 0.044290304 0.17283705 0.014526437 0.15213075 0.15095651 0.09441371
0.070615456 -0.036362488 0.03580137 -0.11210207 0.055354897 0.015006284 -0.07604004 0.15913655
-0.19071817 -0.009001282 0.026509088 0.0037659858 -0.11205849 0.14496894 -0.10509965 0.121113375
-0.07099589 0.12889409 -0.024529014 0.14062937 0.01662378 -0.21080765 -0.044065285 -0.08639647
-0.08999057 0.16270882 0.024664171 -0.0880611 0.010051675 0.15614071 0.042142227 0.093396075
-0.023297392 -0.055249777 0.02017916 -0.021530945 -0.024573702 0.0783152 0.0026544181 -0.05006275
0.03013448 -0.1101509 0.04175456 -0.105147764 -0.036818456 0.04152385 -0.061237767 -0.11578407
-0.06916219 0.06794841 -0.026403466 -0.0562716 0.07600823 0.13212578 0.10180682 0.042732947
-0.028494442 0.0093374085 0.166481 -0.114724524 0.10791646 0.11275217 0.084962666 -0.026816094
-0.010806151 -0.021401566 0.18661526 -0.02758319 -0.08929452 -0.03477904 -0.00081248133 -0.017515846
-0.08563992 0.24199702 0.046646208 0.11289493 -0.07844708 -0.13760042 0.0036133125 0.10539691
-0.050612714 0.07277468 0.010282475 0.24794418 0.36131346 -0.09448989 -0.016666414 0.04190584
-0.09435559 0.08084095 0.12411205 -0.11466515 -0.01101842 0.058018513 0.020467464 0.07212057
-0.07528458 -0.07148594 -0.09282081 0.0035722798 0.07629991 -0.021625388 -0.26233342 0.020123044
0.031679757 -0.26726013 0.09883132 -0.16451044 -0.14493407 0.05905323 0.039261397 -0.003364806
-0.050918978 -0.007132705 0.091975465 0.092936024 -0.090763405 -0.035228033 -0.092553146 0.021619959
0.14458811 -0.07708199 -0.11000217 0.105273336 -0.10217083 -0.075306885 -0.021662174 -0.101620294

critic.2.bias f4 [64]
00000000: f330 aabc 0d3e 0cbe b7d9 963b b2fe 8abe
00000010: 53f3 aa3d 280e b1bd 3d84 8fbd a71b da3d
00000020: 5e16 233e 97b3 853d 3c4f e1bd 8955 3dbe
00000030: 37eb d7bd 2047 403d e657 9b3c c280 653d
00000040: 0980 e33d 6943 e6bd 630b eabd 4b90 733d
00000050: d0d1 b7bd 198a 33be 9a5c f33c 69e1 253d
00000060: be3a b2bd cbaf 733c ff8c 24be 163a 39bc
00000070: 2463 cdbd 7dfe e33c d9ac bd3d eb26 2e3c
00000080: 2b3a c8bc fdd2 b13d 1368 043e 54e5 e33d
00000090: 3ce4 38bd 2d85 963c 3172 55be 813b 06be
000000a0: b4e8 61be 9dae 75bd b30f dc3d ac8a 413e
000000b0: cb6e 403d 9117 64bd 62f2 7c3d c3fd fabb
000000c0: ddab f63d 3c12 75bd 2473 213e 3bb8 713c
000000d0: 17ca 89bd 6c63 95bd 706e b83c c0f4 adbc
000000e0: fcaa b4bd 3143 e9bd 4f48 0cbd d0b5 91bd
000000f0: 1bd7 f9bd a25d 16bc 9e25 9bbd 35b9 173c
-0.020775294 -0.13695545 0.0046035904 -0.27147442 0.08347192 -0.08645278 -0.07007644 0.106498055
0.15926501 0.06528395 -0.11001441 -0.1848966 -0.105429105 0.04694283 0.018962812 0.056030996
0.11108405 -0.11243326 -0.11427953 0.05946378 -0.089755654 -0.17533149 0.029707242 0.04049817
-0.087026104 0.014873455 -0.1606941 -0.011305353 -0.10028675 0.02783131 0.09261484 0.010629396
-0.0244418 0.08682821 0.12930326 0.11127725 -0.045139536 0.01837405 -0.20844342 -0.13108636
-0.22061425 -0.059980977 0.10745182 0.18900555 0.04698066 -0.055686537 0.06175459 -0.0076596453
0.12044499 -0.059831843 0.15766579 0.014753397 -0.06727999 -0.07294354 0.022513598 -0.02123487
-0.08821675 -0.11389769 -0.034248646 -0.07114756 -0.12199231 -0.009177597 -0.07575534 0.009260465

critic.4.weight f4 [1, 64]
00000000: 6586 70bc 7722 d0bc 6ed0 02bb 27eb 26bd
00000010: 969f 21bc 2e92 143b f2bc 8cbc 9d29 39bb
00000020: ff02 88bd 7087 a5bc 9bbd 78bd 7cb1 b93d
00000030: 273a 7abc 5408 843d a759 59bc 7c42 15bd
00000040: fa5f d439 7653 063e e3a0 46bc 067d 4f3c
00000050: eb7b 46bb 3d5e 5bbd 4586 e03c b79d a0ba
00000060: 10be b23c 6bef 5dba b884 323c 9b98 8b3b
00000070: 2134 3e3c 483d 723a 1eb6 37bc 6ce3 8cbb
00000080: 4685 b13b 9fc9 41bd 4db0 3a3c a648 983c
00000090: 8c99 eabc 6388 4b3a 33f6 4abd 93d0 9ebb
000000a0: 647c 8d3b f246 83bc d31b c0bb 60fc 17be
000000b0: d9f0 46b8 150d 0b3e 9f6b 6d3c 5816 3ebb
000000c0: f7a9 04bd 3bde 91bb 916f 253c ed3a b73c
000000d0: e9e3 68bd c145 cd3b 896a 173c 176c a5b9
000000e0: c4ad f5bc 9623 1ebd 57c5 d7bb f4d1 cbbc
000000f0: 992c 67bc c17a cc3d c169 96bd 50c3 6ebc
-0.01468048 -0.02540706 -0.001996066 -0.040751603 -0.009864708 0.0022670138 -0.01717994 -0.0028253563
-0.066411965 -0.020206183 -0.060727697 0.090670556 -0.015272654 0.06446901 -0.013266004 -0.036440358
0.000405073 0.13117775 -0.012123319 0.012664085 -0.0030286263 -0.05355667 0.027407775 -0.0012254034
0.021819144 -0.0008466157 0.0108959 0.0042601353 0.011609108 0.0009240699 -0.011212854 -0.0042995717
0.0054174988 -0.04731142 0.011394572 0.018589329 -0.02863767 0.00077641587 -0.0495512 -0.0048466413
0.004317807 -0.01602504 -0.005862692 -0.14842367 -4.7431186e-05 0.13579209 0.014490991 -0.0029005017
-0.032388654 -0.0044515408 0.0100974 0.022366965 -0.056857977 0.006264419 0.009241709 -0.00031551786
-0.029990084 -0.038608156 -0.006584804 -0.024880387 -0.014109754 0.09984351 -0.0734439 -0.014572933

exp_avg f4 [7]
00000000: 4169 66b9 e071 53bb d94e 30b8 4be2 98bb
00000010: 27d2 76bb 6c7e 183a 768c e4bb
-0.0002197372 -0.003226392 -4.2035103e-05 -0.004665648 -0.0037661882 0.0005817178 -0.006974752

exp_avg_sq f4 [7]
00000000: 0cd5 2639 79cd 7739 b8cc 4a39 9555 b939
00000010: c995 3239 b271 b738 35e4 5d39
0.0001591036 0.000236323 0.00019340485 0.00035349713 0.00017031202 8.7472974e-05 0.00021161216

exp_avg f4 [64, 32]
00000000: 2f72 84b6 95b9 d5b9 7f1a f2b8 788b dbb9
00000010: 67d8 4cb9 283c 9638 f249 29ba 3d5b 0238
00000020: d5ae b837 9f2c b03a b6b9 033a efc7 dfba
00000030: 1b55 6e3a 14bb 35b9 b61c 8bb8 ec6f 513a
00000040: d5eb ba36 ad2b 2fb7 0791 94b9 ba4b 63b8
00000050: a3cb 2ab9 783d b22d 179a bd39 5220 f3b9
00000060: dcd9 8a2d 4235 87b7 f227 2f37 e0c6 1cba
00000070: cacc c8b9 15e5 54ba 3c4c 033a 66c9 e7ba
00000080: 9887 393a 3c92 3fbb 2240 feb9 634e 0fbb
00000090: f958 1739 ec7d 163b 8595 f23a 4b02 6b39
000000a0: 13a3 6639 c691 463b 8852 a339 8bbe 84bb
000000b0: 7d96 85ba 57b0 d63a 49c0 cf3a 0730 66ba
000000c0: 891a 04b6 5874 a8b7 4fe3 03bb 4ca8 1136
000000d0: b165 bcba 2cf5 f62e 8972 9eba 1b69 28bb
000000e0: fc63 68ae 477c 0139 f3a4 64bb c18e 42bb
000000f0: e426 e9bb b7a1 093b 4433 a03b 0a67 e03a
00000100: 5d59 473a c74e 65bb beec 7eba d53a 49bb
00000110: 94f8 7c3a 8c36 723b a03e b2ba 4086 5539
00000120: 39e3 5539 c0ea 663b 6db9 9039 af05 34bb
00000130: 9214 5e3a a468 753b 6e5d 913b 3262 b43b
00000140: aac4 9438 af32 64b7 29a3 44bb fe9c 93b8
00000150: f9ef 01bb 30e9 f12e 8ccd 80ba e9dc 24bb
00000160: e36e 3dae f5e7 453b 12c2 52bb ac0e 92ba
00000170: 1e14 22bc feab 353b 6124 243c 985a b939
00000180: a3cd 9739 413c f9ba cbc3 b9b9 af21 dbba
00000190: 2cd1 2fb9 8e8b b03a fbed 9dba d3d4 0539
000001a0: c628 0739 1397 5a3b 4c2e eab9 2e9e 84bb
000001b0: 1bd5 03b9 0b8b 2f3b 3ac2 21bb 6268 f93a
000001c0: b3bc 68b6 3087 9ab6 d3da a5ba 7405 d5b6
000001d0: 3b67 57ba c40c 872e 79fb 2dba fb3f b8ba
000001e0: b844 ffad 3ac0 3738 dc0e eaba 2733 12bb
000001f0: 1789 90bb 27cc 613a b8cf d33a b499 26bb
00000200: 9c9c 3638 6f9d bdba dd1b a0b9 dfff 14bb
00000210: 4e22 4c3a 796c 003b 5f08 503b 6eb1 f438
00000220: 0769 7c38 57a0 a83a 5fd3 79ba e18a e4ba
00000230: 6d50 a8ba 692f 6a3a a4f5 453b 4b23 433b
00000240: 8ebc 4f38 780d 5ab8 6260 92ba fe99 38b9
00000250: 3698 7bba 6936 592e 6434 84ba 0e0e 94ba
00000260: 0854 42ae c55e 40ba 28bb e8ba 07d9 06bb
00000270: 5c7a 9fbb 00cc 403b d0a3 8a3b 9a9a ec3b
00000280: 2e28 7638 a9ab b039 047b 6bb7 ca66 cd39
00000290: 6280 f4b8 c177 deb9 9397 42ba 0024 8bb7
000002a0: 2d1f 8db7 9458 1bbb a23c f3b8 ea85 253b
000002b0: 05af 69b9 5d0b 5aba d61a 6d3a 6ba8 163a
000002c0: e198 2fb7 b1d2 1d38 7607 e238 041f 3838
000002d0: 627b 9038 3313 96ac 4362 673a c2ae cd38
000002e0: c5ca 292e c34d 2c3a e245 33ba ddad 7e3a
000002f0: f200 883a 7cdb 7bba f968 aeb9 b013 8aba
00000300: bca4 fd38 24df 3b39 d999 1639 5aa5 103a
00000310: a47f aa39 8fa5 9ab9 deb1 a337 c814 c4b7
00000320: 56b6 b1b7 b591 053a a8a6 67b9 94ca d2b8
00000330: 2f5c 81ba 3a1b 40b8 bb01 a73a 884a 47ba
00000340: 70c5 0638 574e 4f37 a353 9d38 db41 4a39
00000350: 26a2 b239 2e17 f1ad 8964 4e39 274f 243a
00000360: 1022 172d 7c6f a339 d24d 6238 7c4d 3c39
00000370: df80 4a39 7124 233a 24fb f2b9 7c73 993a
00000380: 9321 5b38 704a 22ba 3d65 55b9 a59d e939
00000390: 991d 24b9 bf2f c8b9 77f5 d9ba 2710 ce37
000003a0: 8b5c 2938 801f b338 7137 27ba 0861 adb9
000003b0: c508 8cb9 6197 5b3a 1e15 6938 2a8f 11bb
000003c0: ed36 4c37 53ba de36 9952 57b9 9d82 52b8
000003d0: dd64 9138 fc3b 9a2d 5cbc 803a b656 d2b9
000003e0: b80b 3d2e dc78 a4b8 7ffb ceba d578 6fb9
000003f0: 79b7 183a 84e3 b0b9 d93f 2e39 5bad 66bb
-3.9471993e-06 -0.00040764795 -0.000115443945 -0.00041874847 -0.00019535572 7.163762e-05 -0.0006457857 3.1079388e-05
2.2015922e-05 0.0013441032 0.00050249265 -0.0017073135 0.0009091661 -0.00017331197 -6.633384e-05 0.0007989395
5.5706864e-06 -1.0440982e-05 -0.00028336814 -5.4191543e-05 -0.00016288324 2.0263555e-11 0.00036163695 -0.00046372652
1.5785533e-11 -1.6118054e-05 1.0440113e-05 -0.00059805624 -0.00038299552 -0.0008121294 0.0005008613 -0.0017683923
0.0007077395 -0.002923145 -0.00048494438 -0.002186679 0.00014433627 0.002296324 0.0018507695 0.000224122
0.00021995259 0.003029929 0.00031151273 -0.004051035 -0.0010191944 0.0016379458 0.0015850152 -0.00087809603
-1.9684978e-06 -2.0081337e-05 -0.00201245 2.1704645e-06 -0.0014373568 1.1230336e-10 -0.0012088577 -0.0025697413
-5.2839497e-11 0.00012348696 -0.0034888356 -0.0029687139 -0.007115232 0.002100093 0.004888924 0.0017120552
0.0007604564 -0.0034989582 -0.00097246084 -0.0030705233 0.0009650078 0.0036958782 -0.0013598986 0.00020363275
0.0002039791 0.0035235137 0.00027603973 -0.0027469208 0.0008471693 0.0037446404 0.0044361865 0.00550487
7.0938215e-05 -1.360166e-05 -0.0030004478 -7.038748e-05 -0.0019826873 1.10008336e-10 -0.0009826883 -0.0025156087
-4.3072112e-11 0.0030198072 -0.0032159132 -0.0011143289 -0.009892492 0.0027720924 0.010018439 0.00035353447
0.00028954176 -0.001901515 -0.00035431827 -0.0016718413 -0.00016767223 0.0013469325 -0.0012049073 0.00012763152
0.00012889793 0.0033354207 -0.00044666452 -0.004047177 -0.00012572522 0.0026785757 -0.0024682418 0.0019028301
-3.4680531e-06 -4.6052955e-06 -0.0012653716 -6.3485295e-06 -0.00082169817 6.141357e-11 -0.00066368986 -0.0014057154
-2.9020661e-11 4.3809625e-05 -0.0017857212 -0.0022308321 -0.0044108736 0.000861349 0.0016159927 -0.0025421204
4.3538035e-05 -0.0014466475 -0.00030538338 -0.002273552 0.0007787094 0.0019595905 0.003174327 0.000116678755
6.0179296e-05 0.0012865168 -0.0009530093 -0.0017436409 -0.0012841352 0.0008933456 0.0030206228 0.0029775675
4.952825e-05 -5.1987794e-05 -0.001116764 -0.00017604974 -0.00095975713 4.9388413e-11 -0.0010086414 -0.0011295693
-4.4185128e-11 -0.00073383405 -0.0017755972 -0.0020576136 -0.0048668813 0.0029418468 0.0042309538 0.0072205784
5.868839e-05 0.00033697233 -1.4035733e-05 0.0003917723 -0.0001165874 -0.00042432363 -0.0007423099 -1.6586855e-05
-1.6823027e-05 -0.002370392 -0.00011598437 0.002525682 -0.00022285811 -0.00083177333 0.00090448314 0.0005747142
-1.0466408e-05 3.762794e-05 0.000107779095 4.3897904e-05 6.889437e-05 -4.265388e-12 0.0008826593 9.807713e-05
3.8606247e-11 0.00065728667 -0.00068387215 0.00097152387 0.0010376258 -0.0009607596 -0.00033266077 -0.0010534432
0.00012094664 0.00017916836 0.00014362427 0.00055178034 0.00032520026 -0.0002949652 1.951394e-05 -2.3374698e-05
-2.1184951e-05 0.00050952594 -0.00022091961 -0.000100513134 -0.0009869392 -4.5801724e-05 0.0012741605 -0.00076023536
3.2131968e-05 1.2356401e-05 7.501922e-05 0.00019288754 0.00034071616 -2.7408822e-11 0.00019683143 0.0006267898
8.59092e-12 0.00031172845 5.3955075e-05 0.00017957942 0.0001931223 0.0006223387 -0.0004634495 0.0011707391
5.2244937e-05 -0.00061909016 -0.00020350977 0.00044558677 -0.00015651285 -0.00038182546 -0.001662894 2.4564635e-05
4.0378927e-05 8.5412525e-05 -0.0006378806 -0.00033069425 -0.00026709415 0.0008376744 5.5571196e-05 -0.0022210577
1.2172136e-05 6.6378066e-06 -0.00020534768 -5.0189545e-05 6.932926e-05 1.7534411e-11 0.000982176 -0.00040118926
4.2984033e-11 -7.842641e-05 -0.0015791504 -0.0002283783 0.00058256794 -0.00033738848 0.00016617718 -0.0035198543
