logs/rsl_rl/franka_reach/2025-06-27_10-55-03/model_150.pt (torch, 172795 bytes, 36 tensors)

std f4 [7]
0	0x3f14dea5	0.5815223
1	0x3eee57ae	0.4655127
2	0x3f0e630c	0.55619884
3	0x3ecf7ce7	0.4052498
4	0x3f06f8f3	0.52723616
5	0x3f1fcae8	0.62418985
6	0x3ee90b08	0.4551623

actor.0.weight f4 [64, 32]
0	0xbe6ccca0	-0.23124933
1	0x3e1f6ee8	0.15569651
2	0xbe4c88fe	-0.19974133
3	0x3da1d622	0.07902171
4	0x3e82147f	0.25406262
5	0x3de849ad	0.113421775
6	0x3ef8669c	0.48515785
7	0x3ea06ef8	0.31334662
8	0x3f171769	0.59020096
9	0x3c32cc21	0.010912926
10	0xbd364749	-0.044501577
11	0x3d5cc25d	0.053896297
12	0x3dedda48	0.116138995
13	0x3d65538e	0.055987887
14	0x3d2714fb	0.040791493
15	0x3d02d5e3	0.03194226
16	0xbce40d33	-0.027838325
17	0xbec3c569	-0.3823655
18	0xbe5c527e	-0.21515843
19	0xbff3e39d	-1.9053837
20	0x3eaf736d	0.3426775
21	0xbcc033e9	-0.023462253
22	0xbfb9a107	-1.4502267
23	0x3f0dc7f0	0.55383205
24	0xbe17d867	-0.14828645
25	0xbdca83b0	-0.09888399
26	0xbe246f4d	-0.16058083
27	0xbe5515ce	-0.20809099
28	0xbcaadb8e	-0.020856645
29	0xbdf5ce2d	-0.120022155
30	0x3d5ce080	0.053925037
31	0x3e33d672	0.17562273
32	0x3eba8db3	0.36436233
33	0x3e5cad84	0.21550566
34	0x3eb96887	0.3621256
35	0x3f753686	0.9578632
36	0x3f0972bb	0.5369069
37	0x3ef4f760	0.47844982
38	0xbe068731	-0.13137509
39	0xbe50bd58	-0.20384729
40	0x3ce24db9	0.027624952
41	0x3ddbc239	0.107304044
42	0xbc2221e0	-0.009895772
43	0x3dcfdfe0	0.10150123
44	0x3deae150	0.11468756
45	0xbc3cd808	-0.011526115
46	0xbdab9eb6	-0.08379881
47	0x3e054fd4	0.13018733
48	0xbd2a8797	-0.041633215
49	0x3e491f8b	0.19640939
50	0xbf4c39c2	-0.7977563
51	0xbf97119d	-1.180225
52	0xbd63cbd4	-0.055614308
53	0x3e146b0b	0.14493959
54	0x3eb70d0e	0.35752147
55	0x3d26d5fd	0.04073142
56	0x3d6782c2	0.056521185
57	0xbc02088f	-0.007936611
58	0x3e39ac03	0.18132024
59	0xbdc6401c	-0.09680197
60	0xbdc5d1f2	-0.096591845
61	0xbcb0c282	-0.021577124
62	0x3dc9b80a	0.09849556
63	0xbe04d4df	-0.12971829
64	0x3f7884e9	0.97077805
65	0x3e024c16	0.12724337
66	0x3f68c83b	0.9093053
67	0xbf0125d1	-0.5044833
68	0xbde22c73	-0.11043634
69	0xbe067f1f	-0.1313443
70	0x3e8e3846	0.27777308
71	0x3ed205bc	0.4102
72	0x3f240f8a	0.6408621
73	0xbe2b1f51	-0.16711165
74	0x3d538cb8	0.05164787
75	0xbe6b4cb4	-0.22978479
76	0xbd09148d	-0.033466864
77	0xbd25dd4c	-0.04049425
78	0x3daf2f10	0.08553898
79	0x3d9e111e	0.077181086
80	0x3e85c537	0.26127025
81	0xbcca9850	-0.024730831
82	0x3ea41e38	0.32054305
83	0xbf51fa08	-0.8202214
84	0x3f18657d	0.5952986
85	0xbd251986	-0.040307544
86	0xbdb3d87f	-0.08781528
87	0xbe70756a	-0.2348229
88	0xbdb648f6	-0.08900635
89	0x3d5f8027	0.054565575
90	0x3e6ec47a	0.23317137
91	0x3c9b362a	0.018946726
92	0x3e346f78	0.17620647
93	0x3dc04cfe	0.09389685
94	0xbe87b9b3	-0.26508865
95	0xbe15b2ec	-0.14619035
96	0xbe38dd88	-0.18053257
97	0xbe267615	-0.16255982
98	0x3e32239c	0.17396396
99	0xbd966d76	-0.07345097
100	0x3d166d01	0.036725048
101	0x3e9ca181	0.30591968
102	0x3e99419f	0.29932877
103	0xbe5b20a6	-0.21399173
104	0x3cedd77f	0.02903342
105	0xbdc27996	-0.09495847
106	0xbdd65cb4	-0.104669005
107	0xbd8e3767	-0.06944161
108	0xbdf4cd8d	-0.11953268
109	0xbe6a2945	-0.22867306
110	0x3dbde760	0.09272647
111	0x3cc1e625	0.023669312
112	0x3ef8d72f	0.48601672
113	0xbedb8395	-0.42873827
114	0xbf79f9c1	-0.9764672
115	0x3db12ed9	0.086515136
116	0x3f4e26b5	0.8052781
117	0xbe210df2	-0.15727976
118	0xbeefbc80	-0.46823502
119	0xbca04782	-0.019565348
120	0xba00b7e8	-0.00049102167
121	0x3e90c1e8	0.2827294
122	0x3e2cbf51	0.16869856
123	0xbe49a174	-0.19690496
124	0x3c4d0786	0.012514001
125	0xbe697fc8	-0.22802651
126	0xbe509fe3	-0.20373492
127	0xbe1b819a	-0.15186158
128	0xbd94207c	-0.072327584
129	0xbcbde23d	-0.023179168
130	0x3d8d9d45	0.069147624
131	0x3e8438f1	0.25824693
132	0xbeb3ef71	-0.35143617
133	0x3f41023b	0.7539403
134	0xbe0575ab	-0.13033168
135	0xbe22aeea	-0.15887037
136	0xbe0dce31	-0.13848187
137	0xbdb89234	-0.09012261
138	0xbd5dd74e	-0.05416041
139	0xbbbba4a6	-0.0057264147
140	0xbd452d23	-0.04813875
141	0x3d71dde7	0.059049513
142	0x3cfe44fd	0.031038756
143	0xbe508d49	-0.20366396
144	0x3ee21b5d	0.44161502
145	0x3f40cef9	0.75315815
146	0xbe95e46b	-0.29275832
147	0x3f273ff1	0.6533194
148	0x3f86aa64	1.0520749
149	0xbe0dccd7	-0.13847671
150	0xbd875bb1	-0.066092856
151	0xbf2a47a2	-0.66515553
152	0xbc943e4f	-0.018096117
153	0xbefc7f06	-0.4931566
154	0x3ea889a2	0.32917506
155	0x3dbfc9e1	0.09364677
156	0xbda1ace0	-0.078943014
157	0x3e14338b	0.14472787
158	0xbdcaf59a	-0.09910126
159	0x3d74f2d3	0.059801888
160	0x3e737052	0.23773316
161	0xbe891e28	-0.2678082
162	0xbe7187f0	-0.23587012
163	0x3c11de5f	0.008903115
164	0x3e2314a0	0.15925837
165	0x3db0de5a	0.0863616
166	0xbcc57c73	-0.024107194
167	0x3e9c0ca9	0.3047841
168	0x3e57d9af	0.21079133
169	0xbe3bada1	-0.18327953
170	0xbea2f80a	-0.31829864
171	0xbd965932	-0.073412314
172	0x3e54980a	0.20761123
173	0xbddeb2fe	-0.10873984
174	0xba8531eb	-0.0010161971
175	0x3e3aa8ae	0.18228409
176	0x3f13042f	0.5742826
177	0x3f62ec7c	0.88642097
178	0xbd081f1d	-0.033232797
179	0xc008c89d	-2.1372445
180	0xbf4b7b78	-0.79485273
181	0x3db47092	0.088105336
182	0x3e34bc06	0.1764985
183	0x3f169de8	0.58834696
184	0x3dbde70e	0.09272586
185	0xbe00874c	-0.12551612
186	0x3e7fb40f	0.2497103
187	0xbd03fa0a	-0.032220878
188	0xbe472576	-0.19447884
189	0x3e35da6d	0.17759104
190	0x3e821d0b	0.25412783
191	0xbd843f96	-0.064574406
192	0x3ebfc9ce	0.37458652
193	0xbd666c30	-0.05625552
194	0x3f216a11	0.6305247
195	0xbe956d57	-0.29184982
196	0xbe36d13c	-0.17853254
197	0x3e7628bb	0.24038975
198	0xbc025b71	-0.007956372
199	0x3e905093	0.28186473
200	0x3dbacddc	0.09121296
201	0x3e3cf6b5	0.18453486
202	0x3c5c3fe1	0.013442964
203	0x3db91922	0.09037997
204	0xbc6080f9	-0.0137026245
205	0xbcfe27ff	-0.031024931
206	0x3d3e2160	0.046418548
207	0xbe0bbf48	-0.13647187
208	0x3db679b0	0.08909929
209	0x3e34c9a7	0.1765505
210	0x3e34262f	0.17592691
211	0x3eea9803	0.458191
212	0xbe5e0b05	-0.21683891
213	0xbdde4281	-0.10852528
214	0xbeb9bc0c	-0.3627628
215	0x3f0e98ec	0.5570209
216	0x3ccae114	0.024765529
217	0x3df3d28e	0.119053945
218	0x3df61e04	0.12017444
219	0x3e163b6c	0.14671105
220	0xbcdd7cf7	-0.027037127
221	0x3e077173	0.13226871
222	0x3e0a2ec1	0.13494398
223	0x3c725088	0.014789708
224	0x3f9aab69	1.208356
225	0x3dc85fb5	0.0978388
226	0x3f80dc79	1.0067283
227	0xbddeaaaf	-0.10872399
228	0xbedcdaaa	-0.43135577
229	0xbeb362b6	-0.35036248
230	0xbf121db2	-0.5707656
231	0x3e92958c	0.2862972
232	0x3e3deac1	0.18546583
233	0x3d6942b5	0.056948382
234	0xbd040d7a	-0.032239415
235	0x3d95fe7a	0.07323928
236	0x3e462406	0.1934968
237	0x3e12d0d3	0.14337473
238	0xbd2f345e	-0.04277455
239	0xbd197529	-0.03746525
240	0xbe8ea6b8	-0.2786157
241	0xbf169697	-0.5882353
242	0xbe6edb9c	-0.23325962
243	0xbf2bd3bf	-0.67119974
244	0xbf0ac2ca	-0.54203475
245	0xbe00ad6d	-0.12566157
246	0xbf6fccb3	-0.9367172
247	0x3edaad6a	0.4271043
248	0xbd79929b	-0.06093083
249	0xbcdb9d03	-0.026808267
250	0xbd0eaba2	-0.03483165
251	0xbea45320	-0.3209467
252	0xbc82c754	-0.015964188
253	0xbd8e3f03	-0.06945612
254	0x3dc04f6c	0.093901485
255	0xbdb2a5d4	-0.087230355

actor.0.bias f4 [64]
0	0xbe22ae3e	-0.1588678
1	0x3dae5886	0.08512978
2	0xbecaf44f	-0.39639518
3	0x3d70d8a6	0.058800362
4	0x3dab6425	0.083687104
5	0xbeb64c8b	-0.35605273
6	0xbeb21ded	-0.34788457
7	0xbda431e0	-0.080173254
8	0x3ea5f066	0.32409972
9	0x3e443884	0.19162184
10	0xbdba5df0	-0.090999484
11	0x3e1a4021	0.15063526
12	0x3dcc089d	0.0996258
13	0xbea2cd0c	-0.31797063
14	0xbe9916f9	-0.2990034
15	0xbe841414	-0.25796568
16	0x3f17aeee	0.59251297
17	0x3e02a69b	0.12758867
18	0x3e59e5a6	0.2127901
19	0xbc12bb9a	-0.0089558605
20	0x3e889f5b	0.2668408
21	0x3e0a7cc4	0.13524157
22	0xbe0331c5	-0.12811954
23	0x3dea706c	0.11447224
24	0xbf158948	-0.584126
25	0x3f35c949	0.7101026
26	0x3c831473	0.016000962
27	0xbe81d652	-0.25358826
28	0xbde100da	-0.109864905
29	0x3daca380	0.08429623
30	0xbdb420d8	-0.08795327
31	0x3eb4305a	0.3519314
32	0xbeed1d87	-0.4631159
33	0xbc47253f	-0.012154876
34	0x3d98a68a	0.0745364
35	0xbcd4b325	-0.025964329
36	0x3e615b01	0.22007371
37	0x3e981996	0.2970702
38	0xbe652203	-0.22376256
39	0xbc8d7892	-0.017269406
40	0x3e3f38c3	0.18673997
41	0xbe342b4e	-0.17594644
42	0x3eec304d	0.461306
43	0xbb949706	-0.004534605
44	0x3ee43cd2	0.44577652
45	0x3e951970	0.2912097
46	0xbe4fded5	-0.20299847
47	0x3d1287bb	0.035773974
48	0x3e94be7d	0.2905158
49	0xbdb19dab	-0.08672651
50	0xbe3bcc27	-0.18339597
51	0xbe5fc742	-0.21853355
52	0x3e1e17a4	0.15438706
53	0x3de2e1b1	0.110782035
54	0xbed21742	-0.4103337
55	0xbebb7fc1	-0.36620906
56	0xbece36c4	-0.40276158
57	0xbcd8204f	-0.026382593
58	0x3e2f9c7d	0.1714954
59	0x3ee2e493	0.44315013
60	0xbd754280	-0.059877872
61	0x3e0f3de3	0.13988452
62	0x3ea6fd65	0.326152
63	0xbd125ed7	-0.035734978

actor.2.weight f4 [64, 64]
0	0xbc9a471e	-0.01883274
1	0xbe8f80ad	-0.2802786
2	0x3e9c0b73	0.30477485
3	0xbd773354	-0.060351685
4	0x3d952c0d	0.07283793
5	0xbd5ab191	-0.053391997
6	0x3e340565	0.17580183
7	0x3c6450cc	0.013935279
8	0xbd08cfa6	-0.033401154
9	0xbe906232	-0.28199917
10	0x3e30912d	0.1724288
11	0x3e56b397	0.20966946
12	0xbd91edd9	-0.07125444
13	0xbd2df8c3	-0.042473566
14	0xbe52a8df	-0.20572232
15	0xbec466a4	-0.3835956
16	0x3ddb99f5	0.10722724
17	0x3cbfb8f2	0.023403618
18	0xbcef2c97	-0.029196067
19	0xbd0d4e7f	-0.034498688
20	0xbd1cbdcc	-0.038266942
21	0x3e74f0f7	0.23920046
22	0x3d8d3de9	0.06896574
23	0x3dd07a02	0.10179521
24	0x3e9ccabe	0.3062343
25	0xbe9d409d	-0.3071336
26	0xbe1dcd7d	-0.15410419
27	0x3e3a7a25	0.18210657
28	0x3ea7c07c	0.3276404
29	0xbe57797b	-0.21042435
30	0x3dd13931	0.102159865
31	0x3e52898f	0.20560287
32	0x3dba8b1e	0.09108566
33	0x3e832b73	0.25619087
34	0xbdb04bea	-0.086082295
35	0xbe805a0a	-0.25068694
36	0xbe40667c	-0.18789095
37	0xbdd6532d	-0.10465083
38	0xbcbabcf4	-0.022795178
39	0xbdb9113f	-0.090364926
40	0xbe16175b	-0.14657347
41	0xbdde5766	-0.10856514
42	0x3c04ea97	0.008112571
43	0x3d8fca43	0.07021
44	0xbdc96482	-0.098336235
45	0x3d217f46	0.039428018
46	0x3d6a0da0	0.0571419
47	0xbd7823d9	-0.060581062
48	0x3d6d12eb	0.05787937
49	0xbddb3c24	-0.1070483
50	0x3e471453	0.19441347
51	0x3c07f0b8	0.008297138
52	0x3e1f753e	0.15572068
53	0xbc69d68b	-0.014272342
54	0xbe29780e	-0.16549703
55	0xbd131e4e	-0.035917573
56	0xbbeb3d6f	-0.0071789543
57	0xbdea2ad8	-0.11433953
58	0x3ded8928	0.11598426
59	0xbdde92cf	-0.10867845
60	0xbe7d304d	-0.24725457
61	0xbc1dea32	-0.009638356
62	0x3e04b466	0.12959442
63	0xbdb79651	-0.089642175
64	0x3de29362	0.11063267
65	0xbe4032b4	-0.18769342
66	0xbed31126	-0.4122402
67	0x3e0ed86f	0.1394975
68	0xbcb66e95	-0.022269526
69	0xbce2b151	-0.027672442
70	0xbdafb883	-0.08580115
71	0xbd325f98	-0.043548197
72	0x3dbc0628	0.09180862
73	0x3e2894c8	0.16463006
74	0xbde6eb1a	-0.11275311
75	0x3e329855	0.17440923
76	0xbdab4cac	-0.083642334
77	0xbdc2b4fe	-0.09507178
78	0xbe0eaf61	-0.13934089
79	0xbbb1f57f	-0.0054308767
80	0x3e1aa7da	0.15103093
81	0xbd260b9d	-0.04053842
82	0x3e4de9b2	0.20108679
83	0xbce83f11	-0.028350385
84	0x3dfa95dd	0.122356154
85	0x3c95711c	0.018242411
86	0x3c8141ff	0.01577854
87	0x3e4758c1	0.1946745
88	0xbd8f2574	-0.069895655
89	0x3c06e1c8	0.008232541
90	0x3c8ff966	0.017574977
91	0xbd43bd16	-0.04778775
92	0xbe1ee7b6	-0.15518078
93	0x3e28564e	0.16439173
94	0x3dfeaaaa	0.12434895
95	0x3e869d73	0.26292
96	0xbd514e5b	-0.051100116
97	0xbd83996c	-0.06425747
98	0xbd1860a0	-0.037201524
99	0xbe0c96d2	-0.13729408
100	0x3dccdb06	0.10002713
101	0x3e801071	0.25012544
102	0xbd29017f	-0.041261192
103	0x3ddf6986	0.10908799
104	0xbd600537	-0.054692473
105	0xbddae876	-0.1068887
106	0xbda28cbc	-0.07936999
107	0x3d94b22d	0.07260547
108	0x3e9eb21c	0.30995262
109	0x3df2bef9	0.118528314
110	0xbd917d74	-0.071040064
111	0x3e40fc5a	0.18846264
112	0xbcd7fea7	-0.026366545
113	0x3e03d61c	0.12874645
114	0x3de7da1d	0.11320899
115	0x3d868cd5	0.0656983
116	0xbd3dc632	-0.046331592
117	0x3a1b3e6e	0.00059220835
118	0xbdd54f38	-0.104155004
119	0xbe0abcdb	-0.13548605
120	0xbe161580	-0.14656639
121	0xbe35b9c3	-0.17746644
122	0x3dbd3fea	0.09240706
123	0x3e05dc9b	0.13072436
124	0x3db14a17	0.0865671
125	0x3e6de8bd	0.23233314
126	0xbd367733	-0.04454727
127	0xbde63f61	-0.11242557
128	0x3ae2e578	0.0017310819
129	0xbeda366b	-0.42619643
130	0x3d448cc7	0.04798582
131	0xbe2255ec	-0.15853089
132	0x3c265bbd	0.010153708
133	0xbe35ed5d	-0.17766328
134	0x3b99b457	0.0046906876
135	0xbe1c0ce3	-0.15239291
136	0x3d2b47b7	0.04181644
137	0xbeaf25e3	-0.34208593
138	0xbcb4b161	-0.022057237
139	0x3d4643e9	0.048404608
140	0xbe896130	-0.2683196
141	0xbde02e38	-0.109463155
142	0xbee9e106	-0.45679492
143	0xbe389e27	-0.1802908
144	0x3d9954de	0.0748689
145	0x3cfe6c9f	0.031057654
146	0xbc3f9c0a	-0.011694917
147	0xbb5b741f	-0.0033485962
148	0xbc520078	-0.012817495
149	0x3e50b8b7	0.20382963
150	0x3e8db173	0.27674446
151	0xbd2255f4	-0.039632753
152	0x3e0cf7b0	0.1376636
153	0xbd2f1ac5	-0.04275014
154	0xbe71a134	-0.2359665
155	0x3e44970f	0.1919825
156	0x3ebf6b38	0.3738649
157	0x3e261355	0.16218312
158	0x3da04b17	0.07826822
159	0x3e94f149	0.29090336
160	0x3db65e1e	0.0890467
161	0x3e792851	0.24331786
162	0x3dabccc4	0.08388665
163	0xbee800c3	-0.4531308
164	0xbecd9a0f	-0.401566
165	0xbe4880b2	-0.19580343
166	0xbdea1408	-0.11429602
167	0xbe441e93	-0.19152288
168	0xbe1bd45b	-0.15217726
169	0xbe720a01	-0.23636629
170	0xbdf25449	-0.11832482
171	0x3d0c971b	0.034323793
172	0xbdf56706	-0.11982541
173	0x3e147b90	0.1450026
174	0x3e6f230a	0.2335321
175	0x3c2e2e65	0.0106311785
176	0x3e0414ab	0.12898509
177	0xbda8d729	-0.082441635
178	0x3e2572c1	0.16157056
179	0xbdd9298f	-0.1060363
180	0xbdcb4155	-0.099245705
181	0x3dc18f7f	0.09451198
182	0xbe3ff507	-0.18745814
183	0x3c5f5808	0.013631828
184	0xbdd34a45	-0.103169
185	0x3b8983d6	0.0041966243
186	0x3dfdd6a1	0.12394453
187	0xbcc1a912	-0.02364019
188	0xbe8718c8	-0.26386094
189	0x3dccc3d5	0.099982895
190	0x3e05e6f2	0.1307638
191	0xbda01793	-0.078169964
192	0xbca17094	-0.019707002
193	0xbd3eb83a	-0.04656241
194	0xbdf46927	-0.11934119
195	0xbe040ec7	-0.12896262
196	0xbdef38df	-0.11680769
197	0x3dfe6aa7	0.12422686
198	0xbdeea0fc	-0.11651799
199	0x3e803e5f	0.25047585
200	0x3d565668	0.052328497
201	0x3dc4ca9f	0.096089594
202	0xbe16b313	-0.14716749
203	0xbdb0e9fc	-0.08638379
204	0x3e5bf78f	0.21481155
205	0xbd745a42	-0.05965639
206	0xbdd943db	-0.106086455
207	0x3d32b279	0.043627236
208	0x3dbe36a4	0.092877656
209	0x3d7152e7	0.058916952
210	0x3e4513dd	0.19245858
211	0x3de4b7b0	0.11167848
212	0x3dc0bf3e	0.094114766
213	0x3e50e79a	0.20400849
214	0xbc4e379f	-0.012586503
215	0x3dacb736	0.08433382
216	0xbed3bfb0	-0.41357183
217	0x3e02f25c	0.12787765
218	0x3e806961	0.25080398
219	0xbe8a5ca2	-0.27023798
220	0xbe4c073d	-0.19924636
221	0x3cfe85db	0.031069687
222	0x3d54b304	0.051928535
223	0x3db1f03e	0.08688401
224	0x3d16caff	0.036814686
225	0x3d81cea6	0.06338243
226	0x3db0b8da	0.08629008
227	0x3d009052	0.031387635
228	0x3eaa385e	0.3324613
229	0x3db3af72	0.08773698
230	0x3da81f80	0.08209133
231	0xbe06fca5	-0.13182314
232	0x3cc3f47b	0.023920288
233	0xbdd1fc52	-0.102532044
234	0x3b1f5d35	0.002431703
235	0x3d6f8a4a	0.058481492
236	0x3e10fca9	0.14158882
237	0x3d5134da	0.051075794
238	0xbe01ae0d	-0.12664051
239	0x3e97829c	0.29591835
240	0xbd0fe46b	-0.035129946
241	0x3d8702f9	0.06592364
242	0xbe2b8e94	-0.16753608
243	0x3da78915	0.08180443
244	0xbdcaae52	-0.0989653
245	0x3e8b499b	0.27204594
246	0xbe582698	-0.21108472
247	0x3cd563ee	0.026048627
248	0xbdedaefd	-0.11605642
249	0xbdb3e2fd	-0.08783529
250	0x3e81bb90	0.2533841
251	0x3e3346a1	0.17507412
252	0x3c207777	0.009794108
253	0x3e0fccb6	0.14042935
254	0x3dbcb139	0.0921349
255	0x3ed35504	0.412758

actor.2.bias f4 [64]
0	0xbe7a8174	-0.24463445
1	0x3cfab56f	0.030604092
2	0xbe06929b	-0.13141863
3	0x3ddf1830	0.10893285
4	0xbda7e901	-0.08198739
5	0xbdc90977	-0.098162584
6	0xbe47d067	-0.19513093
7	0xbe975ee4	-0.29564583
8	0xbd87bd49	-0.066279
9	0x3bfae4b3	0.0076566576
10	0xbe7f92f3	-0.249584
11	0xbebfc926	-0.37458152
12	0xbe86e353	-0.2634531
13	0xbcd0453f	-0.025423644
14	0x3e51dee6	0.20495185
15	0xbe4cce51	-0.20000578
16	0xbd39dbfd	-0.045375813
17	0xbeac28c7	-0.3362486
18	0xbe5a5e95	-0.21325143
19	0xbe56982d	-0.20956488
20	0xbe8a7aee	-0.27046913
21	0xbe7903a6	-0.24317798
22	0xbe2b5abf	-0.16733836
23	0xbe6cfadd	-0.23142572
24	0xbe87b3a1	-0.26504233
25	0xbe91cfdc	-0.28478897
26	0xbe9a79f5	-0.3017117
27	0xbe380c3a	-0.17973414
28	0xbdce35e7	-0.10068875
29	0xbe97a645	-0.2961904
30	0x3e799464	0.24373013
31	0xbec4672b	-0.3835996
32	0xbd9703e9	-0.07373793
33	0x3df29b78	0.118460596
34	0xbe7c73a9	-0.24653496
35	0xbe1a2b63	-0.15055613
36	0xbea9838b	-0.33108172
37	0xbe65833b	-0.22413342
38	0xbe49c195	-0.19702752
39	0xbd53ac2a	-0.05167786
40	0xbe9641ac	-0.2934698
41	0xbe75ff3c	-0.24023145
42	0xbd28ccad	-0.04121082
43	0xbd991ed4	-0.07476583
44	0xbe5c5871	-0.21518113
45	0xbeb7b293	-0.3587843
46	0xbcccd662	-0.02500457
47	0xbe0a2194	-0.13489372
48	0x3ddb005b	0.10693427
49	0xbe4bef47	-0.19915496
50	0x3cb0fbe5	0.021604488
51	0xbc083c68	-0.008315183
52	0xbe464488	-0.1936208
53	0xbe0e5c06	-0.13902292
54	0xbcfd9723	-0.030955857
55	0xbe87a0e2	-0.2648993
56	0xbdc2ebf2	-0.09517659
57	0xbd9ebce2	-0.0775087
58	0xbd28bd89	-0.04119638
59	0xbe44c333	-0.19215088
60	0xbeb19134	-0.34681094
61	0xbe602e94	-0.21892768
62	0x3cc882f7	0.024476511
63	0x3cee48e8	0.029087499

actor.4.weight f4 [7, 64]
0	0xbcaeb683	-0.021327263
1	0x3e2583ee	0.16163608
2	0x3d71886d	0.058967996
3	0xbdd940ea	-0.106080845
4	0xbd581458	-0.052753776
5	0x3e2c4dc8	0.16826546
6	0x3d36c712	0.044623442
7	0x3db58128	0.08862525
8	0xbdb4d318	-0.088293254
9	0x3df91a37	0.12163203
10	0x3e2da6c0	0.16958141
11	0x3ddee72d	0.10883937
12	0x3e09175d	0.13387819
13	0x3e28af7b	0.1647319
14	0x3e90961f	0.28239533
15	0xbe47ee02	-0.19524387
16	0x3dd1e479	0.10248656
17	0x3d25e526	0.040501736
18	0xbd45b9b2	-0.048272796
19	0x3b5b63bb	0.0033476192
20	0xbe387b3f	-0.18015765
21	0x3d85bacd	0.0652977
22	0x3d67c41e	0.056583516
23	0xbdfc3564	-0.12314871
24	0xbd61f5cb	-0.055166047
25	0x3e52ab18	0.2057308
26	0xbd9e1f3b	-0.077208005
27	0xbd8410bd	-0.06448505
28	0x3e25df4d	0.16198464
29	0xbdd1b4fa	-0.10239597
30	0xbcd7c6d6	-0.02633993
31	0x3d7c9aa1	0.061670903
32	0x3dd1edd6	0.10250442
33	0x3e00e91d	0.12588926
34	0x3e5b317a	0.21405593
35	0x3d9f44a7	0.07776766
36	0xbe0bdcfa	-0.13658515
37	0x3e00dede	0.12585017
38	0x3cb25bc1	0.021772267
39	0x3e57962d	0.21053381
40	0x3e5d10a6	0.21588382
41	0x3e14f430	0.14546275
42	0xbea5a78c	-0.3235439
43	0x3d121083	0.035660278
44	0xbb45fc93	-0.003021036
45	0x3bcfeb63	0.006345199
46	0x3e80e0aa	0.25171405
47	0x3d36d521	0.04463685
48	0x3e0810e6	0.13287696
49	0x3da44921	0.08021761
50	0x3e2df05b	0.1698622
51	0xbb589480	-0.0033047497
52	0xbd823270	-0.063572764
53	0xbc212726	-0.009835994
54	0x3d80b68b	0.06284817
55	0xbd98d97b	-0.07463356
56	0x3e41dc1a	0.18931618
57	0xbe966835	-0.2937638
58	0x3d6f65c6	0.058446668
59	0xbbef4b78	-0.0073026977
60	0x3e24d6c5	0.16097553
61	0x3e7ab296	0.24482188
62	0x3de37898	0.11106986
63	0xbb6e2caf	-0.0036342551
64	0x3dcf53bd	0.10123394
65	0x3dbc6628	0.09199172
66	0x3e3af1a8	0.18256247
67	0x3ddd9042	0.108185306
68	0xbddeffa9	-0.10888607
69	0xbda7afd7	-0.08187836
70	0xbe386cbe	-0.18010232
71	0xbc6ca9b2	-0.014444755
72	0xbc5afff5	-0.013366689
73	0x3d68ba0b	0.05681805
74	0xbe8b0484	-0.27151883
75	0xbbb6a801	-0.005574227
76	0xbdc65d85	-0.09685806
77	0xbd151e67	-0.036405947
78	0x3d5c719c	0.053819284
79	0x3dec9198	0.11551207
80	0xbe1fb336	-0.15595707
81	0xbe172169	-0.14758839
82	0x3e678eed	0.22613116
83	0xbe0d0fad	-0.13775511
84	0xbdab39ac	-0.083606094
85	0x3e2b42c6	0.16724691
86	0x3c99d748	0.018779412
87	0xbcee1dd9	-0.029066967
88	0xbe81cf96	-0.25353688
89	0x3d93195a	0.0718257
90	0xbe3ebe5c	-0.18627304
91	0xbd34717a	-0.044053532
92	0x3d3048a2	0.043038018
93	0x3ded6ab9	0.11592621
94	0x3e8f609b	0.28003392
95	0x3cd2c42a	0.025728304
96	0x3e571325	0.21003397
97	0xbd1a5939	-0.037682746
98	0xbe212dc6	-0.15740117
99	0xbe98f0d5	-0.2987124
100	0xbe5586d2	-0.20852211
101	0xbd22470b	-0.039618533
102	0x3e7217f5	0.23641951
103	0x3d928451	0.071541436
104	0xbdf5312a	-0.11972268
105	0xbda6e1ae	-0.08148514
106	0xbceaf7f8	-0.028682694
107	0x3da12bf7	0.07869714
108	0x3e9ad3ab	0.30239615
109	0xbd92af5e	-0.07162355
110	0x3e5112bd	0.20417304
111	0xb8852c88	-6.350229e-05
112	0x3e6fb543	0.2340899
113	0xba453440	-0.00075227395
114	0x3e3fb027	0.1871954
115	0xbd41214d	-0.0471509
116	0x3d2a0c6c	0.041515753
117	0xbe5166e7	-0.2044941
118	0xbe20515e	-0.15656039
119	0x3d2fe04e	0.042938523
120	0xbb5e2374	-0.0033895643
121	0x3dc00664	0.09376219
122	0xbde6c963	-0.1126888
123	0xbea8f2f7	-0.32997867
124	0x3d9cc94f	0.07655584
125	0x3d3be944	0.045876756
126	0x3dcd3df9	0.10021586
127	0x3d5183d4	0.05115111
128	0x3d924906	0.07142834
129	0xbbb219c7	-0.005435202
130	0x3e27fed9	0.1640581
131	0xbdb2cb4a	-0.087301806
132	0xbd9f57e8	-0.07780439
133	0xbe3acfb6	-0.18243298
134	0x3e49ab23	0.1969419
135	0x3d84aa24	0.06477764
136	0xbe203da3	-0.15648513
137	0x3e73e42c	0.2381751
138	0x3e35cb7b	0.17753403
139	0x3bbdb79f	0.0057897116
140	0xbd3080a3	-0.043091428
141	0xbe018a43	-0.12650399
142	0x3e9d8b65	0.30770412
143	0x3dfa8a0b	0.12233361
144	0xbe741939	-0.23837747
145	0xbd4ec46d	-0.050480295
146	0x3d4a5fee	0.049407892
147	0x3e3be903	0.18350606
148	0xbe4575bc	-0.19283193
149	0x3e01c42e	0.12672493
150	0x3d869f0e	0.06573306
151	0xbe195d69	-0.1497704
152	0xbbd45053	-0.006479302
153	0x3de2ebe7	0.11080151
154	0xbd245384	-0.04011871
155	0x3d05a736	0.032630168
156	0x3dc59e68	0.09649354
157	0xbe1dac4e	-0.1539776
158	0xbea0a767	-0.31377718
159	0x3e6c41c3	0.23071961
160	0x3db40772	0.087904826
161	0x3d894d5e	0.0670421
162	0x3db5db5b	0.08879729
163	0x3dc06e92	0.093960896
164	0x3e534bec	0.2063443
165	0x3d1a842c	0.037723705
166	0x3d871fdb	0.06597873
167	0x3d1898c2	0.037255056
168	0x3e3fec58	0.18742502
169	0xbd8a8fed	-0.06765733
170	0xbe18eea0	-0.14934778
171	0xbd9aa3d3	-0.07550778
172	0xbe36bdb1	-0.17845799
173	0xbe1ea0de	-0.15491053
174	0x3e8d896c	0.27643907
175	0x3ba08762	0.0048989514
176	0x3cafa99a	0.021443177
177	0xbd4aa35e	-0.049472205
178	0x3db80fc0	0.08987379
179	0xbcde8fa7	-0.027168108
180	0x3d310d5c	0.04322563
181	0xbc0eae23	-0.00870851
182	0xbc663c64	-0.014052484
183	0xbda4ae86	-0.080411
184	0x3de6e96d	0.11274991
185	0xbe533f61	-0.20629646
186	0xbdae5d4b	-0.08513888
187	0xbd4d29bc	-0.05008863
188	0x3e15159b	0.14559023
189	0x3e839360	0.25698376
190	0x3e2ad721	0.16683628
191	0xbd7ce869	-0.06174508
192	0x3e830ce7	0.2559578
193	0xbdd83553	-0.10557046
194	0x3e93f3f5	0.28897062
195	0xbe4df043	-0.20111184
196	0xbde44ab3	-0.1114706
197	0xbcb3e333	-0.021958923
198	0x3db2a817	0.08723467
199	0x3e63d907	0.22250758
200	0x3d3e1e2f	0.046415504
201	0xbd45b94f	-0.048272427
202	0x3e81c69f	0.25346848
203	0xbdd55b04	-0.104177505
204	0x3e7c3b7a	0.24632064
205	0xbe5a32c2	-0.21308425
206	0xbecfe076	-0.40600938
207	0xbdcd7302	-0.100317016
208	0xbcd029b7	-0.025410516
209	0x3d561c22	0.052272923
210	0x3e9293c9	0.28628376
211	0xbe5c7119	-0.21527518
212	0x3d7cccf1	0.061718885
213	0x3e0e4426	0.13893184
214	0xbb52bde0	-0.0032156631
215	0xbe874202	-0.26417547
216	0x3d693980	0.056939602
217	0x3d55c01d	0.052185167
218	0x3e5739bf	0.21018122
219	0x3cebfcd4	0.028807081
220	0xbe8a1640	-0.269701
221	0x3e396f6b	0.18108909
222	0xbcbc68a9	-0.022999125
223	0xbd862a2e	-0.06551014
224	0x3e4d2861	0.20034935
225	0x3c3e9b0a	0.011633644
226	0x3ccfafcc	0.025352381
227	0x3d0361f2	0.03207583
228	0x3d276871	0.040871087
229	0x3d7a3f3b	0.061095458
230	0x3dc444aa	0.09583409
231	0xbe202dd8	-0.15642488
232	0xbe585a26	-0.21128139
233	0x3e282a93	0.16422491
234	0xbec06659	-0.37578085
235	0x3e23025e	0.15918872
236	0x3dd33cec	0.10314354
237	0x3dd9b04c	0.10629329
238	0x3d870e27	0.06594496
239	0xbc8515c4	-0.01624573
240	0xbe687874	-0.22702199
241	0xbeb7eb96	-0.35921925
242	0xbbb03328	-0.005377192
243	0xbe01bb31	-0.12669064
244	0x3def4e97	0.11684912
245	0xbc8c0f39	-0.017097102
246	0xbe2dc63a	-0.16970149
247	0xbc685fda	-0.014183009
248	0xbe1b686f	-0.15176557
249	0xbddce70c	-0.10786256
250	0xbc8637f6	-0.016384106
251	0xbea54ead	-0.32286587
252	0x3ca9447d	0.02066254
253	0x3d57e698	0.052710146
254	0xbd990a16	-0.07472627
255	0xbe4d9793	-0.20077352

actor.4.bias f4 [7]
0	0x3b824c3e	0.003976374
1	0x3e1fab42	0.15592673
2	0xbd60f5c0	-0.054921865
3	0x3dd5b685	0.104352035
4	0x3d925d91	0.071467526
5	0xbe4f5b56	-0.20249686
6	0x3de5ca7d	0.11220262

critic.0.weight f4 [64, 32]
0	0xbd3402fd	-0.043948162
1	0xbd7679fe	-0.060174935
2	0x3dd8b9d1	0.10582317
3	0x3e1d82bc	0.15381902
4	0xbe38f633	-0.18062668
5	0x3c64fdda	0.013976539
6	0xbe8cc89f	-0.27496812
7	0x3e0b6b68	0.13615191
8	0xbcdd0f8e	-0.026984956
9	0x3d7b2bf5	0.061321218
10	0xbc9e16d0	-0.019297987
11	0x3da0fbc7	0.07860523
12	0xbd1fd37b	-0.039020043
13	0x3d4f57cb	0.050620835
14	0x3c8d2a33	0.017232036
15	0xbcb013c1	-0.021493794
16	0xbdadb799	-0.08482284
17	0xbc532a5f	-0.01288852
18	0xbe9ab2bf	-0.30214497
19	0xbe45c4c8	-0.19313347
20	0x3e567343	0.20942406
21	0x3d353105	0.0442362
22	0xbe3f51ef	-0.18683599
23	0xbe9efa5a	-0.31050378
24	0xbdfd67e6	-0.12373333
25	0x3d7b0b16	0.06128987
26	0xbaa617c2	-0.0012671875
27	0xbcd695e9	-0.02619453
28	0x3c1ee4dc	0.009698119
29	0xbde04d0c	-0.109521955
30	0xbd6cc9cf	-0.057809647
31	0xbc307086	-0.010769015
32	0xbd66b6f2	-0.056326814
33	0x3d98db41	0.07463694
34	0x3ce105f6	0.027468663
35	0x3ddfd0d2	0.10928501
36	0x3de64ffd	0.11245725
37	0x3e72c19c	0.23706669
38	0x3e29c8ba	0.16580477
39	0xbc5a4938	-0.013323121
40	0x3d0e52f8	0.034747094
41	0xbcc43a7a	-0.023953665
42	0xbd2d9625	-0.042379517
43	0xbd696e1a	-0.056989767
44	0xbd846366	-0.06464271
45	0xbd5527ef	-0.052040037
46	0xbdf2ae4a	-0.11849649
47	0x3c9d151d	0.019175107
48	0x3c339c00	0.010962486
49	0x3e5d8f7e	0.21636769
50	0x3d9eb427	0.07749205
51	0xbe3dd6a6	-0.18538913
52	0x3df2aec9	0.11849744
53	0x3d8da897	0.069169216
54	0x3e6207cb	0.22073285
55	0x3dffac47	0.12484031
56	0xbc1d5c9e	-0.009604601
57	0x3bf69783	0.007525386
58	0x3ddf413f	0.109011166
59	0x3cde1686	0.02711035
60	0x3ca7b6a4	0.020472832
61	0x3c17b415	0.0092592435
62	0x3dcb5c49	0.09929711
63	0xbe16a215	-0.14710267
64	0xbc118c31	-0.008883522
65	0x3da329fe	0.07966994
66	0xbe0f2a8f	-0.13981079
67	0xbcb48228	-0.02203472
68	0x3d93e69a	0.07221718
69	0x3c188d33	0.009311008
70	0xbd8bcce8	-0.06826192
71	0xbc9eb46d	-0.019373143
72	0x3dc96df2	0.098354235
73	0xbe09547c	-0.13411134
74	0x3cd8d9b1	0.02647099
75	0xbdb9eb89	-0.09078128
76	0xbd28d362	-0.041217215
77	0x3d4c1033	0.049820136
78	0xbd67e70f	-0.05661684
79	0x3d333aff	0.043757435
80	0x3e114a40	0.1418848
81	0x3c01acd4	0.007914741
82	0xbe82c6a5	-0.2554218
83	0xbeb99fdb	-0.36254773
84	0x3d066b93	0.032817435
85	0x3d601f03	0.054717075
86	0xbd083090	-0.033249438
87	0xbd77837b	-0.060428124
88	0xbdb3ea12	-0.0878488
89	0x3ccf2e8f	0.025290756
90	0x3c502502	0.012704136
91	0xbd983c15	-0.07433335
92	0x3dd6f1fd	0.10495374
93	0xbd3c6651	-0.045996014
94	0xbca30591	-0.019900115
95	0xbc7374cb	-0.014859389
96	0xbe0d158f	-0.13777755
97	0x3ddd2c50	0.107994676
98	0x3d678803	0.056526195
99	0xbdec8df5	-0.11550514
100	0x3db4fabf	0.088368885
101	0x3da4ad8d	0.08040915
102	0x3e704520	0.23463869
103	0x3e4d84e5	0.20070226
104	0x3d47856c	0.048711225
105	0xbdb29e74	-0.08721629
106	0xbd9825f4	-0.07429114
107	0xbde53b12	-0.111929074
108	0x3d4b6325	0.0496551
109	0x3c8bf337	0.017083747
110	0xbc17c782	-0.009263875
111	0xbcf1829b	-0.029481223
112	0xbb7ea0c6	-0.0038853153
113	0x3e5f8130	0.21826625
114	0xbe0625e8	-0.13100398
115	0xbf29cf23	-0.6633169
116	0xbe6e55db	-0.23274939
117	0xbdfdd86e	-0.12394796
118	0xbf8805b7	-1.0626744
119	0x3e95b419	0.29238966
120	0x3e2554c6	0.1614562
121	0xbb840cc2	-0.004029841
122	0xba445dd2	-0.0007490787
123	0x3df9188b	0.12162884
124	0xbc4618ad	-0.012090844
125	0xbdae5c8c	-0.08513746
126	0x3d37a909	0.04483894
127	0x3d5ab220	0.05339253
128	0xbe18c28b	-0.14917962
129	0xbde87108	-0.11349684
130	0x3d57065b	0.052496295
131	0xbd2082f9	-0.039187405
132	0x3ea1c459	0.31595114
133	0x3e06976c	0.131437
134	0x3e6f3939	0.23361672
135	0x3d7cf87a	0.061760403
136	0x3b82ba49	0.003989492
137	0xbcd056f4	-0.025432087
138	0x3c3eadb1	0.011638091
139	0xbc7c1a43	-0.015387121
140	0xbc38a139	-0.011268907
141	0xbbb981ec	-0.00566124
142	0x3b9822bc	0.0046428125
143	0xbc556f36	-0.013027003
144	0xbd1fcc4b	-0.03901319
145	0x3cd0465f	0.02542418
146	0x3e8e3bb3	0.27779922
147	0xbd85dd03	-0.06536295
148	0x3d3f5898	0.04671535
149	0x3d23bc53	0.03997452
150	0xbf21a584	-0.6314318
151	0x3eaaa1cd	0.3332657
152	0xbe113389	-0.14179815
153	0x3b94179b	0.0045194156
154	0xbd3502a4	-0.04419197
155	0xbd0fb397	-0.03508338
156	0xbcfadcf5	-0.030622939
157	0xbb91df7a	-0.0044516893
158	0xbb8e4985	-0.0043422603
159	0x3da51467	0.08060532
160	0xbdd95a4b	-0.10612925
161	0xbd28f692	-0.041250773
162	0xbd9b9b24	-0.0759795
163	0x3c3191ca	0.0108379815
164	0x3e022ce3	0.12712435
165	0x3d6d76f9	0.05797479
166	0x3c404455	0.011735042
167	0xbd9e0b1b	-0.07716962
168	0x3dba75f9	0.09104533
169	0x3d247d62	0.040158637
170	0xbdba9e5d	-0.09112237
171	0x3bb6db83	0.005580367
172	0x3d2b448f	0.04181343
173	0xbc221d4d	-0.009894681
174	0xbbdbd1d0	-0.006708361
175	0x3c84ebb8	0.01622568
176	0x3e42a85e	0.1900954
177	0xbc5c6517	-0.013451836
178	0xbe7ceb76	-0.24699196
179	0xbdbc1df3	-0.091854
180	0xbe995825	-0.2995006
181	0xbe1ac8fb	-0.1511573
182	0x3f177139	0.5915714
183	0x3ed56cb3	0.41684493
184	0x3d9187b5	0.07105962
185	0xbd937ed5	-0.07201926
186	0x3e057088	0.13031209
187	0x3b9c7c97	0.0047755945
188	0x3d8d4bc9	0.068992205
189	0x3ce0982d	0.027416313
190	0x3bd728ad	0.006566128
191	0xbcfb2e1f	-0.03066164
192	0x3e0cdaca	0.13755336
193	0x3e31de47	0.17369948
194	0xbdbcc231	-0.092167266
195	0x3dfa3f7a	0.122191384
196	0x3e12784c	0.14303702
197	0x3ddcec70	0.107872844
198	0x3d70968f	0.058737334
199	0xbdf68127	-0.120363526
200	0x3db52e4d	0.08846722
201	0x3d2fafe2	0.042892344
202	0xbcd414a8	-0.025888756
203	0x3d0e2ab8	0.03470871
204	0xbc83b234	-0.016076185
205	0xbb04ba26	-0.0020252555
206	0xba6c9970	-0.00090255495
207	0xbbaba5a0	-0.00523825
208	0x3d18c696	0.03729876
209	0xbc1a647a	-0.00942337
210	0x3e3dcdcf	0.18535541
211	0xbfe59f7e	-1.7939298
212	0x3cc46fab	0.023979029
213	0x3e1121e2	0.14173082
214	0xbf62f4ad	-0.88654596
215	0x3d7ad539	0.0612385
216	0xbd1e8fb1	-0.038711254
217	0xbd74ff41	-0.05981374
218	0x3d624713	0.055243563
219	0x3c2e1502	0.010625126
220	0x3cc4a5b2	0.024004791
221	0x3c3df05b	0.01159295
222	0x3d4a7db4	0.049436286
223	0x3d09c360	0.03363359
224	0x3d8cbf01	0.068723686
225	0x3dd21345	0.102575816
226	0xbb5e4a84	-0.0033918926
227	0xbe2bb963	-0.16769938
228	0xbdc7baac	-0.09752402
229	0xbe7bf3db	-0.24604742
230	0xbe1063c5	-0.14100559
231	0x3dffdd60	0.12493396
232	0x3d8581f2	0.06518926
233	0x3c8c376d	0.017116273
234	0x3d7d58d3	0.061852288
235	0x3c325a6e	0.010885818
236	0xbadef7f8	-0.0017011156
237	0x3d34cb7f	0.04413938
238	0x3cb70189	0.0223396
239	0x3dac1017	0.084015064
240	0xbe24dace	-0.16099092
241	0xbdab2ab0	-0.08357751
242	0x3da0dd55	0.07854716
243	0x3ed59877	0.41717884
244	0xbdc5c352	-0.09656395
245	0x3e024dee	0.1272504
246	0xbf025a95	-0.5091947
247	0xbce366ae	-0.027758922
248	0x3e080193	0.1328185
249	0xbd8d8795	-0.06910626
250	0xbdc4813d	-0.09594963
251	0xbd1c5a13	-0.03817184
252	0xbce61cce	-0.028089907
253	0x3afb860a	0.0019189727
254	0xbcc7d9f3	-0.024395918
255	0x3c0cb686	0.008588439

critic.0.bias f4 [64]
0	0x3e161667	0.14656983
1	0xbe3f6459	-0.18690623
2	0xbdbf964d	-0.093548395
3	0xbdd10f16	-0.102079555
4	0xbc1c30da	-0.0095331315
5	0xbdd70758	-0.104994476
6	0xbd58d70b	-0.052939456
7	0x3d71cb48	0.059031755
8	0xbd536590	-0.05161053
9	0xbdb9f15c	-0.09079239
10	0xbaae650c	-0.0013305261
11	0x3da6d4de	0.0814607
12	0xbd33af5c	-0.043868408
13	0xbdb50819	-0.08839435
14	0x3da14b67	0.0787571
15	0xbd976c56	-0.0739371
16	0xbdd9cc7e	-0.10634707
17	0x3e0fabd8	0.14030397
18	0x3bcc392d	0.006232402
19	0x3de92b83	0.11385252
20	0x3de7235b	0.112860404
21	0xbda99f33	-0.08282318
22	0x3db724f3	0.089425944
23	0xbd3c4604	-0.04596521
24	0x3ca63942	0.020290975
25	0xbd8b7f15	-0.06811348
26	0x3d22780b	0.039665263
27	0x3cda7b48	0.026670113
28	0xbd681d8e	-0.05666881
29	0x3e454ffd	0.19268794
30	0xbd96dbce	-0.07366143
31	0x3d40fa25	0.047113556
32	0xbdb6a6fa	-0.08918567
33	0xbd264657	-0.040594425
34	0x3d76726d	0.06016772
35	0xbd7e7974	-0.062127545
36	0xbd297d35	-0.041379172
37	0x3e30f3cb	0.172805
38	0xbe0318ad	-0.12802382
39	0xbce36f68	-0.027763084
40	0x3d90e1b2	0.07074298
41	0x3dabe77c	0.083937615
42	0x3cd4726f	0.025933472
43	0xbe5e016e	-0.21680233
44	0xbe367e9d	-0.17821737
45	0x3d962838	0.0733189
46	0xbdc2ec76	-0.095177576
47	0xbe4095e4	-0.18807179
48	0xbd9d570b	-0.07682618
49	0xbd03706f	-0.032089647
50	0xbe26f42b	-0.1630408
51	0xbe19dd2a	-0.15025774
52	0x3d8ba9d1	0.06819499
53	0xbe0dd562	-0.1385093
54	0xbdd7c62a	-0.10535844
55	0xbda69687	-0.081341796
56	0x3dd824cd	0.10553894
57	0xbd021541	-0.03175855
58	0xbe12fb08	-0.14353573
59	0xbdaf5a15	-0.08562104
60	0xbcc73f1c	-0.024322085
61	0x3e248f48	0.16070282
62	0x3e0f8ab6	0.14017758
63	0xbda8d670	-0.08244026

critic.2.weight f4 [64, 64]
0	0xbdcafcfa	-0.09911533
1	0xbc12e5e5	-0.008965944
2	0x3e3f0c58	0.18657053
3	0x3de43401	0.111427315
4	0x3c66c83e	0.014085827
5	0xbc32dd2f	-0.010916992
6	0x3dbfa1c2	0.09357025
7	0x3d1e62d7	0.03866848
8	0x3e6aaec5	0.22918232
9	0x3dda4f17	0.106596164
10	0x3c4a00fb	0.012329335
11	0xbe0f2f62	-0.13982919
12	0xbdec068d	-0.11524687
13	0x3d0d6e0a	0.03452877
14	0x3d5a6d13	0.053326678
15	0x3bdd20a2	0.006748275
16	0xbd99aa4b	-0.07503184
17	0xbe0c1aff	-0.13682173
18	0xbddef3f4	-0.10886374
19	0xbe3658c3	-0.17807297
20	0xbd94b194	-0.07260433
21	0xbdfc7874	-0.12327662
22	0xbd680389	-0.056643996
23	0xbc5a6858	-0.013330542
24	0x3d25fa40	0.04052186
25	0xbd09d771	-0.033652727
26	0x3d89c527	0.06727057
27	0xbdb9d57a	-0.090739205
28	0x3cfcc9b5	0.0308579
29	0xbe204685	-0.15651901
30	0x3dad8204	0.08472064
31	0xbdd09349	-0.101843424
32	0x3cf870cd	0.030327225
33	0x3d24cb24	0.040232792
34	0x3db23c4e	0.087029085
35	0x3d8c1322	0.06839587
36	0xbdacd0a6	-0.08438234
37	0xbdee5421	-0.1163714
38	0xbe27f085	-0.16400345
39	0x3dfe824a	0.124271944
40	0x3d598ebf	0.05311465
41	0xbda13414	-0.07871261
42	0xbe14933b	-0.14509289
43	0xbdefb46b	-0.11704334
44	0xbd04b14e	-0.032395653
45	0x3df3e0ed	0.119081356
46	0x3d9decd5	0.07711188
47	0xbe02e55f	-0.1278281
48	0xbc928ef0	-0.017890424
49	0xbb062621	-0.0020469504
50	0x3d0074a7	0.03136125
51	0xbde361c3	-0.11102631
52	0x3d4adf5d	0.049529422
53	0xbdb934cd	-0.09043274
54	0xbdb45dd8	-0.08806962
55	0x3d23e2a4	0.040011063
56	0x3dc2434c	0.09485492
57	0x3daaf4cf	0.08347475
58	0x3dace121	0.084413774
59	0x3c7430f6	0.014904251
60	0xbd45db0c	-0.048304603
61	0xbbd385d8	-0.0064551644
62	0x3c23a378	0.009987704
63	0xbd929282	-0.071568504
64	0xbcf6b419	-0.030115174
65	0xbd8926bd	-0.06696842
66	0x3d8d55b5	0.06901113
67	0x3dbb1b18	0.09136027
68	0xbbdf986c	-0.00682359
69	0x3d8d61f6	0.0690345
70	0xbcd6f229	-0.026238518
71	0xbd5f0686	-0.05444958
72	0xbe4217a1	-0.18954326
73	0x3dfddeba	0.12395997
74	0x3e565f22	0.20934728
75	0x3ca10638	0.019656286
76	0xbe13107e	-0.1436176
77	0xbb1aeaa6	-0.0023638397
78	0x3e8492b9	0.2589319
79	0xbcbf1c80	-0.02332902
80	0x3dbb333e	0.09140633
81	0xbde9e08d	-0.11419783
82	0x3daf18c1	0.08549643
83	0xbdabc45b	-0.08387061
84	0x3e154ee7	0.1458088
85	0xbd34e0fb	-0.04415987
86	0xbd73c266	-0.059511565
87	0x3dd27051	0.10275329
88	0x3e00ff82	0.12597468
89	0x3e38e6ef	0.18056844
90	0x3d93a26b	0.07208713
91	0x3d5557b0	0.05208558
92	0x3dbe67db	0.092971526
93	0x3b9da6b3	0.004811132
94	0x3d4f73d0	0.050647557
95	0x3c13f771	0.009031163
96	0x3da5afe7	0.08090191
97	0xbdda28fd	-0.10652349
98	0xbe0403f0	-0.12892127
99	0xbdc81e0b	-0.09771355
100	0xbdae9243	-0.08523991
101	0xbd12900f	-0.035781916
102	0xbd151cee	-0.036404543
103	0x3e84e254	0.25953925
104	0x3c9fa9c9	0.01949014
105	0xbdd6ee91	-0.10494722
106	0x3e037f00	0.12841415
107	0xbc65a794	-0.0140170045
108	0xbd859df3	-0.06524267
109	0x3d974b90	0.07387459
110	0x3d257b6c	0.040400907
111	0x3cb648a1	0.022251429
112	0xbc978421	-0.018495621
113	0xbe1f4b70	-0.15556121
114	0x3cd9daff	0.026593683
115	0xbbff05b6	-0.007782663
116	0xbc0d2cdb	-0.008616651
117	0xbe3726fb	-0.17885964
118	0xbaf56b86	-0.0018724061
119	0xb9f54696	-0.00046782632
120	0x3dd026a4	0.1016362
121	0x3b76c751	0.0037655423
122	0x3d6efdf1	0.058347646
123	0x3e1c978c	0.15292186
124	0x3c26fc77	0.010192028
125	0x3e099bd7	0.13438354
126	0x3e0d52e1	0.13801147
127	0x3dc02342	0.09381725
128	0x3d94ff30	0.07275236
129	0xbd09777d	-0.03356122
130	0x3d21c1b0	0.039491355
131	0xbdec0b35	-0.11525575
132	0x3d591213	0.052995753
133	0x3c8f268a	0.017474432
134	0xbda29bfe	-0.079399094
135	0x3e20932c	0.15681142
136	0xbe44d2c2	-0.19221023
137	0xbc541f64	-0.012946937
138	0x3cf732d9	0.030175613
139	0x3ad1d1c5	0.0016007951
140	0xbde79c7c	-0.11309144
141	0x3e15f08e	0.14642546
142	0xbdd143f9	-0.10218043
143	0x3df93fe8	0.12170392
144	0xbd956e53	-0.07296433
145	0x3e015add	0.12632318
146	0xbcc95292	-0.024575505
147	0x3e0d1c64	0.13780361
148	0x3bfd0a4f	0.007722176
149	0xbe565635	-0.20931323
150	0xbd3ef0b2	-0.046616264
151	0xbdb59a05	-0.088672675
152	0xbdb1ca3e	-0.08681153
153	0x3e230b39	0.1592225
154	0x3cda74ba	0.026666988
155	0xbdb4afa3	-0.088225625
156	0x3bfddc52	0.0077472115
157	0x3e2232f9	0.15839757
158	0x3d36b117	0.04460248
159	0x3db6747b	0.08908936
160	0xbcd28711	-0.02569917
161	0xbd6f95af	-0.05849236
162	0x3c9eb0e9	0.019371467
163	0xbcc9de6c	-0.024642192
164	0xbcd8f96d	-0.026486123
165	0x3da38784	0.07984832
166	0x3b272a31	0.0025507326
167	0xbd4264ae	-0.047459297
168	0x3cd04d1a	0.02542739
169	0xbddf8a8a	-0.10915096
170	0x3d26a041	0.040680174
171	0xbdd66bf3	-0.104698084
172	0xbd159ae3	-0.036524665
173	0x3d2e1617	0.042501535
174	0xbd62a925	-0.05533709
175	0xbdeb15d5	-0.114787735
176	0xbd8d9eae	-0.069150314
177	0x3d8ed435	0.06974069
178	0xbcdd36d5	-0.027003685
179	0xbd6bed76	-0.057599507
180	0x3d940619	0.072277255
181	0x3e07fbef	0.13279699
182	0x3dcae855	0.09907595
183	0x3d345c15	0.04403313
184	0xbcfcd754	-0.030864395
185	0x3bbaad29	0.005696912
186	0x3e29a1dc	0.1656565
187	0xbdec0d8e	-0.11526023
188	0x3dda2217	0.10651033
189	0x3ddf9aad	0.10918174
190	0x3da805ae	0.08204208
191	0xbcf30c9c	-0.029669099
192	0xbb48a216	-0.003061419
193	0xbcea4ffd	-0.028602595
194	0x3e32b19e	0.17450568
195	0xbced0669	-0.02893372
196	0xbdb762a8	-0.08954364
197	0xbd1ccab7	-0.03827926
198	0xbc62dabc	-0.013846096
199	0xbbcca48c	-0.0062452015
200	0xbd973b4e	-0.07384358
201	0x3de7ec35	0.1132435
202	0x3d7f4df6	0.06233021
203	0x3d1709e4	0.036874667
204	0xbd78e195	-0.060762007
205	0xbe074524	-0.13209969
206	0x3cb9302d	0.02260598
207	0x3da6ba58	0.08141011
208	0xbd869e01	-0.065731056
209	0x3d2f2755	0.04276212
210	0x3cc19122	0.023628775
211	0x3e6d7073	0.23187427
212	0x3e8ab8ff	0.27094266
213	0xbd9b2a5c	-0.07576439
214	0xbc5d4abc	-0.013506588
215	0x3d5228fc	0.051308617
216	0xbd865582	-0.06559278
217	0x3d5e077c	0.054206356
218	0x3de1a99b	0.11018678
219	0xbdfc00db	-0.12304851
220	0xbcfa5162	-0.030556384
221	0x3da41f14	0.0801374
222	0x3cdf79bc	0.027279727
223	0x3d777706	0.060416244
224	0xbd9295b0	-0.07157457
225	0xbda23d01	-0.07921792
226	0xbd43e691	-0.047827307
227	0x3aa4f34f	0.0012584719
228	0x3d8c2d4e	0.06844579
229	0xbcc86e59	-0.02446668
230	0xbe7a86c5	-0.24465473
231	0x3d287612	0.041128226
232	0x3cae3348	0.021264687
233	0xbe83bf14	-0.2573172
234	0x3dc55bbd	0.09636638
235	0xbe13417c	-0.14380449
236	0xbe0ca5e5	-0.13735159
237	0x3d80fadc	0.06297848
238	0x3d13973d	0.036032904
239	0x3b0f2c88	0.002184661
240	0xbd353406	-0.044239067
241	0x3b876233	0.0041315793
242	0x3d78a303	0.060702335
243	0x3dacbace	0.08434068
244	0xbdcbc525	-0.09949712
245	0xbd2ab9d5	-0.04168113
246	0xbdce9236	-0.10086481
247	0x3cd9e4dc	0.026598386
248	0x3db99395	0.09061352
249	0xbdad03ba	-0.084479764
250	0xbddc3599	-0.107524104
251	0x3dc0bbdd	0.09410832
252	0xbdee3125	-0.11630467
253	0xbda6c121	-0.08142305
254	0xbcda1d81	-0.026625397
255	0xbdd627fe	-0.10456847

critic.2.bias f4 [64]
0	0xbc903f9d	-0.017608458
1	0xbe111c37	-0.1417092
2	0x3b8c5ed7	0.0042837667
3	0xbe8a9e50	-0.27073908
4	0x3da6366c	0.08115849
5	0xbdad2033	-0.08453407
6	0xbd96ffe4	-0.07373026
7	0x3df33688	0.118756354
8	0x3e207980	0.15671349
9	0x3d67ea94	0.056620196
10	0xbdec1fb9	-0.11529488
11	0xbe3c730c	-0.18403262
12	0xbddc7556	-0.107645676
13	0x3d462073	0.04837079
14	0x3cb917b0	0.022594303
15	0x3d6159ca	0.05501727
16	0x3decc897	0.11561697
17	0xbde55c2a	-0.111992195
18	0xbdf65705	-0.120283164
19	0x3d80ddd1	0.06292308
20	0xbdc6a009	-0.09698493
21	0xbe35dfbb	-0.17761128
22	0x3cfc3aca	0.030789752
23	0x3d396c0e	0.045269065
24	0xbda87b96	-0.08226697
25	0x3ca9ed3b	0.020743003
26	0xbe25ef76	-0.16204628
27	0xbbe0ec6c	-0.006864121
28	0xbdc3d425	-0.09561948
29	0x3cbe4d01	0.023230078
30	0x3dbeba30	0.09312856
31	0x3c4d6fd9	0.012538874
32	0xbcc71bc1	-0.024305226
33	0x3dadc669	0.08485109
34	0x3e0c2427	0.13685666
35	0x3defa99e	0.11702274
36	0xbd56b0e9	-0.05241481
37	0x3c9e7a8f	0.01934555
38	0xbe5ac30f	-0.21363471
39	0xbe0de0c7	-0.13855277
40	0xbe6674a6	-0.22505435
41	0xbd7b09c8	-0.061288625
42	0x3de88b4c	0.11354694
43	0x3e420127	0.18945752
44	0x3d3e57d9	0.046470497
45	0xbd66a305	-0.05630781
46	0x3d94e736	0.072706625
47	0xbc11f575	-0.008908619
48	0x3df665f4	0.12031165
49	0xbd78200b	-0.060577434
50	0x3e29823e	0.1655359
51	0x3cce41a5	0.025177786
52	0xbd964fb2	-0.073394194
53	0xbd9d2047	-0.07672172
54	0x3cef20dd	0.029190475
55	0xbcb56c77	-0.022146447
56	0xbdb80efc	-0.08987233
57	0xbdf0bd89	-0.11754901
58	0xbd235354	-0.03987439
59	0xbda0beea	-0.07848914
60	0xbdf9545a	-0.12174292
61	0xbc2ca2ff	-0.010536908
62	0xbdb611bb	-0.088901006
63	0x3ba99336	0.0051750196

critic.4.weight f4 [1, 64]
0	0xbc5719a2	-0.01312867
1	0xbcc5054c	-0.024050377
2	0xba08ff7c	-0.00052260584
3	0xbd1acbf4	-0.03779216
4	0xba47ec12	-0.0007626425
5	0xb94e1002	-0.00019651654
6	0xbca9ac45	-0.020712027
7	0xba7698a6	-0.00094069017
8	0xbd874536	-0.06604998
9	0xbc31266f	-0.010812386
10	0xbd620ac4	-0.05518605
11	0x3dc90968	0.09816247
12	0xbc7ddef6	-0.015495053
13	0x3d8256a7	0.06364184
14	0x3ae996ba	0.0017821409
15	0xbd10c52f	-0.0353443
16	0x3b905c06	0.0044055013
17	0x3e088c1b	0.13334696
18	0xbc89c2d8	-0.016816542
19	0x3c1b5cad	0.009482545
20	0xbc2d0c8c	-0.010562073
21	0xbd455c75	-0.048183877
22	0x3ce5e7a6	0.02806456
23	0x3b219a4c	0.0024658618
24	0x3cb9fa8c	0.022702478
25	0x3ba7b48d	0.005117959
26	0x3c4d6dc3	0.012538376
27	0x3c19f532	0.009396838
28	0x3c1b94ef	0.009495958
29	0xb94ef417	-0.00019736621
30	0xbabede56	-0.0014562111
31	0x3b0af828	0.0021205042
32	0x3b416782	0.0029511158
33	0xbd468521	-0.048466805
34	0x3c87a2ec	0.01655718
35	0x3c9c68f4	0.019093014
36	0xbcff88a6	-0.031193089
37	0x3b0333ca	0.0020019882
38	0xbd4d1145	-0.050065298
39	0xbc1f1186	-0.009708768
40	0x3b5da984	0.0033822963
41	0xbc5db3c3	-0.013531628
42	0xbb2be295	-0.0026227583
43	0xbe16fd8d	-0.1474516
44	0x3b618782	0.0034413044
45	0x3e0cbfbc	0.13745016
46	0x3c8fdf1d	0.017562443
47	0xbb6b9f3a	-0.003595306
48	0xbd01ce4d	-0.031690884
49	0xba664a9a	-0.000878492
50	0x3c9a36b6	0.018824916
51	0x3c9a0c88	0.018804803
52	0xbd5b3b43	-0.053523313
53	0xba9381f5	-0.001125394
54	0x3bfc7899	0.007704806
55	0x3b88b4f7	0.0041719633
56	0xbcc0ed67	-0.023550702
57	0xbd04d67e	-0.03243112
58	0xbc46eb3e	-0.012141047
59	0xbce1a86a	-0.027546126
60	0xbc3ff57d	-0.011716244
61	0x3dcd133c	0.10013434
62	0xbd86102a	-0.06546052
63	0xbc984a23	-0.018590039

exp_avg f4 [7]
0	0xbb3ac165	-0.002849662
1	0xba103194	-0.0005500552
2	0xb9bbd50a	-0.00035826146
3	0x38d19796	9.994132e-05
4	0xbb3530e5	-0.0027647552
5	0xbab5fe2d	-0.0013884954
6	0xbadee56b	-0.0017005628

exp_avg_sq f4 [7]
0	0x38dca7f8	0.00010521704
1	0x3946d840	0.00018963311
2	0x38f5a9a1	0.00011714106
3	0x39593cf4	0.0002071744
4	0x392838f1	0.00016042941
5	0x38db12a8	0.00010446209
6	0x395424ee	0.00020231653

exp_avg f4 [64, 32]
0	0x38f82399	0.00011832192
1	0x38a5bfed	7.903562e-05
2	0x3807dec0	3.239396e-05
3	0xb7bcf966	-2.2527482e-05
4	0x39cbdbff	0.00038883087
5	0x37c20e1e	2.3133176e-05
6	0x3a8a6057	0.0010557276
7	0xb6215983	-2.4042972e-06
8	0xb613220b	-2.1924523e-06
9	0xba62fb32	-0.0008658647
10	0xb804c466	-3.1654163e-05
11	0x3a2b28be	0.00065292034
12	0x39e3b3cc	0.00043430773
13	0x39fef54e	0.00048629422
14	0xb8c31c2a	-9.3035706e-05
15	0x3861fc33	5.387906e-05
16	0xb6a786ac	-4.9926657e-06
17	0xb611444c	-2.1646438e-06
18	0x38cb0824	9.6813106e-05
19	0x3880a235	6.133729e-05
20	0xb6c6123c	-5.9029826e-06
21	0x2c5704d8	3.0556026e-12
22	0xb92bd468	-0.00016386958
23	0xb89248d3	-6.975387e-05
24	0xacfb973c	-7.1506395e-12
25	0xb8f76ab6	-0.00011797754
26	0x395ff4a3	0.00021358072
27	0x3a47122b	0.0007593955
28	0xb92c82ee	-0.00016451973
29	0x3a8ea46f	0.0010882745
30	0xb90e2898	-0.00013557298
31	0x3b13f91b	0.0022578898
32	0xb9ab0ab6	-0.00032623642
33	0x3a943cb6	0.0011309597
34	0x3907cebb	0.00012951616
35	0x3a8d4fe6	0.0010781258
36	0x38356fcf	4.3257893e-05
37	0xbab89dc4	-0.0014085104
38	0xb883d72b	-6.286645e-05
39	0xb884c960	-6.3317595e-05
40	0xb7686350	-1.3851401e-05
41	0xba090e11	-0.00052282313
42	0x3abdde27	0.0014485762
43	0x3a993ea3	0.0011691641
44	0xb9ffc551	-0.00048784402
45	0x3ad072cf	0.0015903356
46	0x3ae3a3dd	0.0017367561
47	0x39c8e3d7	0.00038316727
48	0xb7c2808c	-2.3186461e-05
49	0xb77f242a	-1.52076045e-05
50	0x3a7293cf	0.00092535926
51	0xb8a2fed6	-7.772229e-05
52	0x3a05e809	0.00051081233
53	0xad99ec40	-1.7499002e-11
54	0x3a386b59	0.0007035039
55	0x39d213fb	0.00040069208
56	0x2e074d89	3.076431e-11
57	0xba89b81d	-0.001050714
58	0x3ae7a265	0.0017672299
59	0x3a2cf277	0.00065974094
60	0x3b0178b2	0.0019755778
61	0x3a32fa38	0.00068274466
62	0xbae3e8dc	-0.0017388123
63	0x39962004	0.00028634083
64	0x3a113292	0.00055388466
65	0xbb23861d	-0.0024951764
66	0xba8bc87b	-0.0010664606
67	0xbaf740bd	-0.0018863898
68	0xbb243f52	-0.0025062156
69	0x3b35aee8	0.002772266
70	0xbc1c89b2	-0.0095543135
71	0x397eef2d	0.00024312428
72	0x391126fa	0.00013842797
73	0xbae5f70e	-0.0017544942
74	0x3b0d5036	0.0021562702
75	0x3b0f8766	0.0021900772
76	0x3b0526ea	0.0020317384
77	0xba45a9ff	-0.0007540285
78	0x3b9ab20b	0.0047209314
79	0xbb8dab24	-0.00432338
80	0xb75f92bd	-1.3326001e-05
81	0x3859c5ab	5.1920924e-05
82	0xbb302dd6	-0.002688279
83	0xb8fcfd90	-0.00012063526
84	0xbb063df7	-0.0020483711
85	0x2f37a149	1.6701053e-10
86	0x3aece349	0.0018073107
87	0xbb7a7ebf	-0.003822252
88	0x2eada5db	7.896591e-11
89	0x3a620cf3	0.00086231454
90	0xbadda7f0	-0.0016911011
91	0xb9411d73	-0.00018416885
92	0xbbb1822d	-0.0054171295
93	0xbb8f03f1	-0.0043644835
94	0x3bbf2b50	0.0058340207
95	0xbcac1502	-0.021006111
96	0xb927ede5	-0.00016014984
97	0x3a16a7ef	0.000574707
98	0xb8d7ceff	-0.00010290555
99	0x3a15b22d	0.0005710449
100	0xb976381a	-0.00023481288
101	0xb8cc482c	-9.740921e-05
102	0x3983c1cf	0.00025130666
103	0xb73a98b5	-1.1122019e-05
104	0x37aaff9e	2.038461e-05
105	0xba6261d4	-0.00086357933
106	0xba3e2bd8	-0.0007254458
107	0x3931b5ee	0.0001694781
108	0xba829dee	-0.000996528
109	0x3b1d3f46	0.0023994013
110	0x3a2988f6	0.0006467247
111	0x3a18a117	0.0005822344
112	0x37334bd9	1.0686891e-05
113	0xb7428900	-1.1595199e-05
114	0x399e5cec	0.0003020534
115	0xb916813e	-0.00014353261
116	0x35dc34ce	1.6406645e-06
117	0x2c926c5e	4.1616008e-12
118	0xb949f486	-0.00019259946
119	0xb8c6a107	-9.4713694e-05
120	0xad13a854	-8.393359e-12
121	0xba6208be	-0.00086225185
122	0x3a70daad	0.00091878587
123	0x38e65013	0.000109821696
124	0x394a0f14	0.00019269838
125	0x3a09916b	0.0005247804
126	0xb92f83c6	-0.0001673839
127	0x39866c25	0.00025639046
128	0x38cc367d	9.737627e-05
129	0xb7b0e6f6	-2.1088385e-05
130	0xb7a7f6b2	-2.0022828e-05
131	0x392bf445	0.00016398828
132	0x39e6744a	0.0004395566
133	0x37ce54a4	2.4596528e-05
134	0x3a8ab6fe	0.00105831
135	0x37d6894f	2.5574727e-05
136	0x382bafb2	4.0933206e-05
137	0x3a600c65	0.0008546769
138	0x39c89598	0.0003825843
139	0xbb0a1235	-0.002106798
140	0xba3c5d4f	-0.0007185535
141	0x3b0119ea	0.0019699284
142	0x3a9e636e	0.0012084076
143	0x3a68b0d4	0.0008876447
144	0xb6cfba23	-6.19075e-06
145	0xb7c7215d	-2.3738185e-05
146	0x36581a5f	3.2201858e-06
147	0x37965aeb	1.792373e-05
148	0xb88efffb	-6.818768e-05
149	0x2ca1298c	4.580508e-12
150	0xb8c367fc	-9.317693e-05
151	0xb8db6d2d	-0.00010463069
152	0xac8dda1b	-4.0316756e-12
153	0xba81c203	-0.0009899739
154	0x39786049	0.00023686992
155	0xba4c45de	-0.00077923934
156	0xbad01e46	-0.0015878163
157	0x3aa4b021	0.0012564698
158	0x39b46def	0.00034414182
159	0x3b1f5c08	0.002431633
160	0x392f8df1	0.00016742178
161	0xb9fe3b61	-0.00048490896
162	0x3826dcd2	3.978314e-05
163	0xb8552cd9	-5.0824925e-05
164	0xb9b228db	-0.00033981245
165	0x3962fdd1	0.00021647594
166	0xbabcd74d	-0.0014407426
167	0x3781dcaf	1.5480762e-05
168	0x35135928	5.4891507e-07
169	0x3a3a505a	0.000710731
170	0x3a5f7731	0.0008524536
171	0x3a2d5857	0.000661259
172	0x3a6924e1	0.000889374
173	0xb9f2eafc	-0.00046332914
174	0xba614e63	-0.00085947494
175	0xba60d077	-0.00085759856
176	0xb7bbe5e5	-2.239919e-05
177	0x37d2f57c	2.5148263e-05
178	0xb9197dbe	-0.0001463806
179	0x37ba2a91	2.219275e-05
180	0x37b65291	2.1734539e-05
181	0x2d46fcfb	1.131117e-11
182	0x39deef4b	0.00042521427
183	0xb9879f2c	-0.000258678
184	0x2da342dd	1.8560648e-11
185	0xb9a65fad	-0.0003173327
186	0xb8d5fcae	-0.00010203697
187	0x3888ee17	6.529333e-05
188	0x3abe8c75	0.0014537709
189	0xba88305a	-0.0010390386
190	0x39b4b8e7	0.00034470038
191	0xbb6f74f1	-0.0036538208
192	0x391f559a	0.0001519531
193	0xba9d993d	-0.0012023818
194	0xb973e532	-0.00023259668
195	0xba42db8e	-0.0007433229
196	0xb991396f	-0.00027699347
197	0x398465cb	0.00025252844
198	0xbb0658bf	-0.0020499674
199	0x3824302a	3.9145503e-05
200	0x37432b1e	1.1632945e-05
201	0xba098bbf	-0.0005246959
202	0x3a578bed	0.00082224497
203	0x3a27ccb0	0.0006401045
204	0x3a4211d3	0.0007403169
205	0xba31df69	-0.0006785305
206	0xbaab5a0c	-0.0013073101
207	0xbabd534e	-0.0014444382
208	0xb7e20cce	-2.6947262e-05
209	0x37bc8c03	2.2476544e-05
210	0xba330c0d	-0.0006830104
211	0xb7b60a6f	-2.170095e-05
212	0xb904fa69	-0.00012681786
213	0x2dfa634d	2.8465808e-11
214	0x3a41d17f	0.0007393583
215	0xba2ac421	-0.0006514211
216	0x2e0e04ab	3.2291208e-11
217	0xb79d6e1b	-1.876713e-05
218	0xba459ea6	-0.0007538594
219	0xb9476645	-0.00019016217
220	0xbabb52b6	-0.0014291618
221	0xba488baa	-0.0007650206
222	0x3988f546	0.00026122684
223	0xbba0dbc2	-0.0049090097
224	0xb9d02a60	-0.00039704423
225	0x3a1a6c94	0.0005890813
226	0x380af9c3	3.3134373e-05
227	0x39b40563	0.0003433629
228	0xb99ccabf	-0.00029905696
229	0xba381c67	-0.0007023275
230	0xb670bb78	-3.5871908e-06
231	0xb88ffe3f	-6.8661284e-05
232	0xb89cbc31	-7.473713e-05
233	0x3ac20233	0.0014801681
234	0x3ac9a5ec	0.0015384532
235	0xb9a76a63	-0.00031931986
236	0x3ad5b588	0.0016304711
237	0xba812d70	-0.000985546
238	0xba8f3f4b	-0.0010928897
239	0xbadeebc1	-0.0017007516
240	0x36aacdaa	5.0903373e-06
241	0x37ca8d6e	2.4146135e-05
242	0x3a35cf1b	0.0006935463
243	0xb9280fe8	-0.00016027654
244	0x3a1d8d35	0.0006010116
245	0xae39ad97	-4.221831e-11
246	0x39b3e081	0.0003430881
247	0x3a7d2686	0.00096569245
248	0x2d839492	1.4958954e-11
249	0xb84ce50a	-4.88507e-05
250	0x3a3646fb	0.0006953326
251	0x38ff5b3b	0.000121763405
252	0x3b3c84ad	0.0028765604
253	0xba645f0e	-0.0008711674
254	0xb9b3da51	-0.000343042
255	0xba61625e	-0.00085977267
