logs/rsl_rl/franka_reach/2025-06-27_10-55-03/model_450.pt (torch, 172795 bytes, 36 tensors)

std f4 [7]
0	0x3dde3c9e	0.108514056
1	0x3d9fdc51	0.07805694
2	0x3dbd930f	0.09256565
3	0x3d80d7f9	0.062911935
4	0x3d9a04c3	0.075204395
5	0x3da83714	0.0821363
6	0x3db09dbb	0.08623835

actor.0.weight f4 [64, 32]
0	0xbe4727bd	-0.19448753
1	0x3e27c77b	0.1638469
2	0xbe4efd57	-0.20213829
3	0x3dd83a06	0.10557942
4	0x3e897042	0.26843458
5	0x3da9e76c	0.08296093
6	0x3ef9e985	0.48810974
7	0x3ea16faf	0.3153052
8	0x3f19a570	0.6001806
9	0xbc5bc4ba	-0.0134136025
10	0xbdd8bf83	-0.10583403
11	0x3d919c86	0.071099326
12	0x3da02746	0.07819991
13	0x3d99e509	0.07514388
14	0x3d09bb54	0.033625916
15	0x3d5a04aa	0.053227104
16	0x39ea707e	0.0004471577
17	0xbea43101	-0.32068637
18	0xbe7d9fa5	-0.24767931
19	0xbffe2320	-1.9854469
20	0x3ea9d886	0.33173007
21	0xbcbcfe6c	-0.023070537
22	0xbfbc9daf	-1.4735621
23	0x3f07f469	0.53107315
24	0xbe183812	-0.14865139
25	0xbdccdb06	-0.10002713
26	0xbe3df9a4	-0.18552262
27	0xbe3a2357	-0.18177544
28	0xbc15ce76	-0.009143462
29	0xbe0aea27	-0.13565885
30	0x3d782bf2	0.060588785
31	0x3e35474c	0.17702979
32	0x3ebdefc4	0.3709699
33	0x3e7e1b4f	0.24815105
34	0x3eb5d83f	0.35516545
35	0x3f7a4203	0.97756976
36	0x3f05f1db	0.5232217
37	0x3ef35a98	0.47530055
38	0xbdd88faa	-0.10574277
39	0xbe500106	-0.2031289
40	0x3c8b4960	0.017002761
41	0x3dd6ebfa	0.10494228
42	0xbd0ddd4d	-0.034634877
43	0x3de275c1	0.11057616
44	0x3dd1dbda	0.102470115
45	0xbd0202e3	-0.031741034
46	0xbda4896d	-0.080340244
47	0x3dd76585	0.1051741
48	0xbe4e60dd	-0.20154138
49	0x3dd2bed3	0.10290303
50	0xbf4dd97b	-0.80409974
51	0xbfa2e1ff	-1.2725219
52	0xbd85371e	-0.065046534
53	0x3e14d586	0.14534578
54	0x3eb87b8e	0.36031765
55	0x3d091d35	0.03347512
56	0x3d67e3db	0.056613784
57	0xbb6af39e	-0.0035850774
58	0x3e4cb579	0.19991101
59	0xbdc5502b	-0.096344315
60	0xbd8fc29b	-0.0701954
61	0xbd69176b	-0.0569071
62	0x3daf35e3	0.085552
63	0xbddfdd99	-0.10930938
64	0x3f7a0904	0.97670007
65	0x3dfff7ce	0.12498437
66	0x3f687158	0.9079795
67	0xbf02ba4e	-0.5106553
68	0xbda0a6d1	-0.07844318
69	0xbe02ef4f	-0.12786601
70	0x3e913d18	0.28366923
71	0x3ec5f07b	0.38660035
72	0x3f1fce88	0.62424517
73	0xbe303a6f	-0.1720979
74	0x3d8dafb8	0.06918281
75	0xbe60fe97	-0.21972118
76	0xbc35d989	-0.011099228
77	0xbcfe6410	-0.031053573
78	0x3d9f0a27	0.07765608
79	0x3da4d026	0.08047514
80	0x3e21802b	0.15771548
81	0xbdf25de7	-0.11834317
82	0x3eaad0c5	0.33362404
83	0xbf3fb7a5	-0.74889594
84	0x3f1b8c12	0.60760605
85	0xbd227207	-0.039659526
86	0xbda9380e	-0.08262645
87	0xbe779ac1	-0.24180128
88	0xbdb532cb	-0.088475786
89	0x3d285c82	0.041103847
90	0x3e786a88	0.24259388
91	0x3ba838c1	0.0051337187
92	0x3e3902b2	0.18067434
93	0x3de0fb16	0.10985391
94	0xbe890738	-0.2676332
95	0xbe0c821a	-0.13721505
96	0xbe2a9006	-0.16656503
97	0xbe215046	-0.15753278
98	0x3e48029a	0.19532242
99	0xbda2e326	-0.079534814
100	0x3d826da5	0.06368569
101	0x3ea5483f	0.32281682
102	0x3ea54ca1	0.32285026
103	0xbe505eef	-0.20348714
104	0x3d153ddf	0.036435958
105	0xbd529009	-0.051406894
106	0xbd67e840	-0.056617975
107	0xbdbba3b0	-0.0916208
108	0xbdcdc1fb	-0.100467645
109	0xbe220b3a	-0.15824595
110	0x3d856e92	0.0651523
111	0xbc00f911	-0.007871882
112	0x3f05c84a	0.5225874
113	0xbead6a12	-0.33869988
114	0xbf7f90c6	-0.9983028
115	0x3da829fa	0.082111314
116	0x3f49c601	0.78817755
117	0xbe21730d	-0.15766545
118	0xbef5f3ee	-0.48037666
119	0xbc203e2b	-0.009780447
120	0xba733b09	-0.0009278511
121	0x3e9caa36	0.3059861
122	0x3e2fb7d5	0.1715997
123	0xbe276ee3	-0.16350894
124	0x3bd1939c	0.0063957702
125	0xbe514000	-0.2043457
126	0xbe3a82b2	-0.18213919
127	0xbe04cb2f	-0.12968133
128	0xbd9a1137	-0.07522815
129	0xbbf0d509	-0.0073496145
130	0x3d04fee4	0.032469645
131	0x3e97d5f2	0.29655415
132	0xbebe430b	-0.37160525
133	0x3f3ae83f	0.7301063
134	0xbe10a428	-0.1412512
135	0xbe11535d	-0.14191957
136	0xbdfb5983	-0.122729324
137	0xbd2c31e3	-0.042039763
138	0xbd0bb667	-0.0341095
139	0xbd2d821d	-0.042360414
140	0xbd664733	-0.056220245
141	0x3d68ba97	0.05681857
142	0x3c953721	0.018214764
143	0xbe19cc22	-0.15019277
144	0x3e5318f2	0.20614985
145	0x3f42714c	0.7595413
146	0xbe9a66e5	-0.30156627
147	0x3f09cdc5	0.53829604
148	0x3f8686b6	1.050986
149	0xbe0d49e1	-0.13797714
150	0xbd2bd4f0	-0.04195112
151	0xbf2d90d7	-0.67799133
152	0xbc8c26a7	-0.017108275
153	0xbef119a1	-0.47089866
154	0x3eb2a5c4	0.34892094
155	0x3da69242	0.08133365
156	0xbd84bc7d	-0.06481264
157	0x3de0506a	0.10952838
158	0xbdf8adb9	-0.1214251
159	0x3d5bb905	0.053643245
160	0x3df03821	0.11729456
161	0xbe8ba966	-0.27277678
162	0xbea43b96	-0.3207671
163	0xbdcdfaa9	-0.10057575
164	0x3e0f82b5	0.14014705
165	0x3e063e18	0.13109624
166	0x3d059503	0.03261281
167	0x3e8d5d0d	0.27610055
168	0x3e35922f	0.17731546
169	0xbdf93984	-0.12169173
170	0xbe8d2a4b	-0.2757133
171	0xbdb20a32	-0.08693351
172	0x3e3885e6	0.18019828
173	0xbd86612f	-0.06561505
174	0xbd0e9ecb	-0.034819406
175	0x3dec9172	0.11551179
176	0x3f1dea74	0.6168587
177	0x3f587f98	0.8456969
178	0xbd2e53ab	-0.04256026
179	0xc012979d	-2.2905037
180	0xbf563629	-0.8367639
181	0x3db4b986	0.08824448
182	0x3e091663	0.13387446
183	0x3f14cee5	0.58128196
184	0x3dbc055a	0.09180708
185	0xbdd4cc46	-0.103905246
186	0x3e6e1c0c	0.23252887
187	0xbd56fde7	-0.052488234
188	0xbe876898	-0.26446986
189	0x3e283a7f	0.16428564
190	0x3e857481	0.26065448
191	0xbd0b042e	-0.033939533
192	0x3ec352ed	0.38149205
193	0xbd82ec28	-0.063926995
194	0x3f335d93	0.7006466
195	0xbe89fc81	-0.26950458
196	0xbe313226	-0.17304286
197	0x3e69dfc3	0.22839265
198	0xbaf692ca	-0.0018812057
199	0x3e85a13c	0.26099575
200	0x3d9d5cd5	0.07683722
201	0x3e3a7dc1	0.18212034
202	0xbc013f53	-0.007888633
203	0x3d944785	0.07240204
204	0x3c3dbe91	0.011581079
205	0xbb306ac7	-0.0026919113
206	0x3cd8a62a	0.02644642
207	0xbdf3836c	-0.11890301
208	0x3d94cd1f	0.07265686
209	0x3e15df72	0.14636019
210	0x3e4de91b	0.20108454
211	0x3f22b581	0.63558203
212	0xbe44549e	-0.19172904
213	0xbddc3f96	-0.107543156
214	0xbecc8738	-0.39946914
215	0x3f06c202	0.5263978
216	0x3cc2484b	0.023716113
217	0x3d867e49	0.06567056
218	0x3dc785e8	0.097423375
219	0x3e1c3a99	0.15256728
220	0xbb1f8842	-0.002434269
221	0x3e10c9e4	0.14139515
222	0x3e0dd66e	0.1385133
223	0x3cc27462	0.023737136
224	0x3f91ea0f	1.1399554
225	0x3d9f0986	0.07765488
226	0x3f843e41	1.0331498
227	0xbe057017	-0.1303104
228	0xbeedc25d	-0.4643735
229	0xbea4e9f3	-0.3220974
230	0xbf0b1ccb	-0.5434081
231	0x3e9cdf1c	0.3063897
232	0x3e4bb272	0.1989229
233	0x3cf9d874	0.03049872
234	0xbcd54d15	-0.026037732
235	0x3de12eaa	0.109952286
236	0x3e135b8a	0.14390388
237	0x3dc14174	0.09436312
238	0xbcbb3d08	-0.02285625
239	0xbd06868e	-0.032843165
240	0xbe46fcf8	-0.19432437
241	0xbf2ef492	-0.68341935
242	0xbe7f7b81	-0.24949457
243	0xbf2b6509	-0.6695104
244	0xbf11a172	-0.5688697
245	0xbdfe786a	-0.12425311
246	0xbf835f85	-1.0263525
247	0x3ec2d64e	0.38054127
248	0xbd835e61	-0.06414486
249	0xbd892d5e	-0.06698106
250	0xbd7c0636	-0.06152936
251	0xbe8c4dd8	-0.2740314
252	0xbcd32cad	-0.025778139
253	0xbdfe32f3	-0.124120615
254	0x3dde2a94	0.10847965
255	0xbd85a499	-0.06525535

actor.0.bias f4 [64]
0	0xbe38b27f	-0.18036841
1	0x3db54deb	0.08852752
2	0xbecc7109	-0.3992999
3	0x3d657621	0.05602086
4	0x3d9368af	0.07197701
5	0xbeace976	-0.33771867
6	0xbeb37d6d	-0.3505663
7	0xbdc52893	-0.096268795
8	0x3ea88736	0.32915658
9	0x3e4ca9c4	0.19986635
10	0xbdaacb7a	-0.08339591
11	0x3e169040	0.14703465
12	0x3dc3c8ef	0.095598094
13	0xbea3235b	-0.31862912
14	0xbe9959a5	-0.29951206
15	0xbe800ced	-0.25009862
16	0x3f1d8467	0.61530155
17	0x3e08689b	0.13321154
18	0x3e636b84	0.22208983
19	0xbbd45da9	-0.0064808917
20	0x3e85d419	0.2613838
21	0x3dfc7854	0.12327638
22	0xbe06ad4f	-0.1315205
23	0x3dc9f129	0.09860451
24	0xbf15c8c3	-0.58509463
25	0x3f37e435	0.7183259
26	0x3caa0807	0.02075578
27	0xbe834733	-0.25640258
28	0xbdd75cd2	-0.10515751
29	0x3da44576	0.08021061
30	0xbdc0b974	-0.094103724
31	0x3eb52cf8	0.3538587
32	0xbeeeab28	-0.46614957
33	0x3c6201a1	0.013794334
34	0x3d930019	0.07177753
35	0xbcdcf373	-0.026971554
36	0x3e6fd5f3	0.23421459
37	0x3e97876c	0.29595506
38	0xbe5cfdff	-0.21581267
39	0xbc920bef	-0.017827956
40	0x3e255f73	0.16149692
41	0xbe367dff	-0.17821501
42	0x3ee8bb8c	0.45455587
43	0xbcfdedab	-0.030997118
44	0x3ee61b30	0.44942617
45	0x3e940c04	0.28915417
46	0xbe5c5c71	-0.21519639
47	0x3d1a358c	0.037648723
48	0x3e91a5fb	0.28446946
49	0xbdb8eeeb	-0.09029945
50	0xbe400bc7	-0.18754493
51	0xbe659b61	-0.22422554
52	0x3e268302	0.16260913
53	0x3e0ce830	0.13760448
54	0xbecdf023	-0.40222272
55	0xbebc5ed9	-0.36791113
56	0xbecf97ec	-0.40545595
57	0xbd13738b	-0.035998862
58	0x3e3b53b9	0.18293656
59	0x3ee6321f	0.44960114
60	0xbd4adeb8	-0.049528807
61	0x3e0a6bad	0.13517638
62	0x3ea003de	0.3125295
63	0xbd07663b	-0.03305648

actor.2.weight f4 [64, 64]
0	0xbc5e9867	-0.01358614
1	0xbe84f1cd	-0.2596573
2	0x3e9b22cb	0.30299982
3	0xbcc6c6e1	-0.024264755
4	0x3e03d094	0.12872535
5	0xbd3702a5	-0.044680256
6	0x3e273441	0.16328527
7	0x3d0b44b2	0.03400106
8	0xbd1a8dd7	-0.037732925
9	0xbe9f1bb2	-0.31075817
10	0x3e47ee22	0.19524434
11	0x3e5c3f79	0.21508588
12	0xbd84ca22	-0.06483866
13	0xbb9dee49	-0.0048196656
14	0xbe30fd3d	-0.17284103
15	0xbec41455	-0.38296762
16	0x3dcc90ed	0.0998858
17	0x3d13baf7	0.036066975
18	0xbcd45eaa	-0.025924046
19	0xbc9457ff	-0.018108366
20	0xbd36befa	-0.044615723
21	0x3e8406c0	0.257864
22	0x3d90965a	0.07059927
23	0x3dd2c39c	0.10291216
24	0x3ea14096	0.31494588
25	0xbe996f8d	-0.2996792
26	0xbe01835f	-0.1264777
27	0x3e49c4d9	0.19703998
28	0x3ea80fce	0.32824558
29	0xbe596c39	-0.2123269
30	0x3de05567	0.10953789
31	0x3e579efb	0.2105674
32	0x3dadac87	0.084801726
33	0x3e8d3e34	0.2758652
34	0xbdab15ae	-0.083537444
35	0xbe6af5bd	-0.22945304
36	0xbe4a1ce9	-0.19737591
37	0xbdd07fb1	-0.10180605
38	0xbc878796	-0.016544145
39	0xbd92ffd3	-0.07177701
40	0xbe1be3a5	-0.15223558
41	0xbda0fd9f	-0.078608744
42	0xb9deb9f6	-0.0004248169
43	0x3d8e9703	0.06962397
44	0xbdbcee1f	-0.092251055
45	0x3d0f49ef	0.034982618
46	0x3daab714	0.08335701
47	0xbd960124	-0.07324436
48	0x3d420d1e	0.04737579
49	0xbdd273ca	-0.10275991
50	0x3e48e922	0.19620183
51	0x3d094c2c	0.03351991
52	0x3e425dc4	0.18981081
53	0xbc83c3d3	-0.016084587
54	0xbe32b3cf	-0.17451404
55	0xbcf06094	-0.029342927
56	0xbbb491c0	-0.005510539
57	0xbdddd4ce	-0.10831605
58	0x3df6a45d	0.120430686
59	0xbdcd084d	-0.10011349
60	0xbe769f7a	-0.24084273
61	0xbb6f3e44	-0.003650562
62	0x3e11d2d0	0.14240575
63	0xbd7467d1	-0.05966932
64	0x3dcfe2de	0.10150693
65	0xbe45fb4a	-0.1933414
66	0xbedce2d0	-0.43141794
67	0x3e28f2fb	0.1649894
68	0xbd70bb80	-0.058772564
69	0xba430f3d	-0.00074409303
70	0xbd33df00	-0.04391384
71	0xbcbd11a0	-0.023079693
72	0x3de668b2	0.11250438
73	0x3e51ac0f	0.20475791
74	0xbda0cc7b	-0.078515016
75	0x3e250f5c	0.1611914
76	0xbdc3158e	-0.095255956
77	0xbe0ddfce	-0.13854906
78	0xbe18b183	-0.14911465
79	0xbcb52fa9	-0.022117453
80	0x3e2540f2	0.16138056
81	0xbd328853	-0.04358704
82	0x3e5c438d	0.21510144
83	0xbb876936	-0.004132415
84	0x3df18a6a	0.117939785
85	0xbd8514ff	-0.06498145
86	0x3d7822ff	0.06058025
87	0x3e3df19c	0.18549198
88	0xbdf9842c	-0.12183413
89	0xbc457f8c	-0.012054335
90	0x3cc4bb83	0.024015194
91	0xbd9dd904	-0.07707408
92	0xbe3dfd22	-0.18553594
93	0x3e501d61	0.20323707
94	0x3e0bf5f0	0.13668036
95	0x3e9314a9	0.287267
96	0xbd90e383	-0.070746444
97	0xbdc5e4fa	-0.096628144
98	0xbd2c9e13	-0.04214294
99	0xbe293983	-0.16525845
100	0x3d67f360	0.056628585
101	0x3e58371f	0.21114777
102	0xbd31be8c	-0.04339461
103	0x3dd501a0	0.104007006
104	0xbd72d550	-0.059285462
105	0xbdb0e508	-0.08637434
106	0xbd8f8d76	-0.070094034
107	0x3d90e258	0.07074422
108	0x3e859206	0.2608797
109	0x3dc9dfc9	0.09857137
110	0xbded0c93	-0.11574664
111	0x3e295968	0.16538012
112	0x3b3527c5	0.0027642113
113	0x3e1113eb	0.14167754
114	0x3d90e58e	0.07075034
115	0x3d8c588f	0.06852829
116	0xbd882cff	-0.06649207
117	0x3d86bc92	0.06578936
118	0xbe1706a2	-0.14748624
119	0xbe23412d	-0.15942831
120	0xbe0d6e24	-0.13811547
121	0xbe521573	-0.20515995
122	0x3d7ac608	0.061224014
123	0x3e216837	0.15762411
124	0x3df5d704	0.120039016
125	0x3e5c5a8e	0.21518919
126	0xbdcba998	-0.09944457
127	0xbdfb97b6	-0.12284796
128	0x3c519a51	0.01279314
129	0xbed24865	-0.41070858
130	0x3d368fb9	0.04457066
131	0xbdeb6abd	-0.11494968
132	0x3d892817	0.066971
133	0xbe2ee848	-0.17080796
134	0xbc199268	-0.009373285
135	0xbdfc62ff	-0.123235695
136	0x3d12e376	0.035861455
137	0xbec1af05	-0.37828842
138	0x3c525a16	0.012838861
139	0x3d48175a	0.048850395
140	0xbe8410e1	-0.25794128
141	0xbd99a70f	-0.07502567
142	0xbed7d567	-0.42155
143	0xbe3a099d	-0.1816773
144	0x3d874ada	0.06606074
145	0x3d372e6a	0.044722
146	0xbc2ba5d2	-0.010476546
147	0x3c924569	0.017855363
148	0xbc9dac4f	-0.019247202
149	0x3e6b35a5	0.22969683
150	0x3e90ce6e	0.28282493
151	0xbd0fc714	-0.035101965
152	0x3e1acc2f	0.15116952
153	0xbd0dcf69	-0.03462163
154	0xbe52e20f	-0.20594047
155	0x3e55942e	0.20857307
156	0x3ec1309b	0.37732396
157	0x3e256892	0.16153172
158	0x3d9f2854	0.07771364
159	0x3e9a57ab	0.3014501
160	0x3db80e90	0.089871526
161	0x3e873595	0.26408067
162	0x3dae8f7d	0.08523462
163	0xbed93202	-0.42420965
164	0xbedbb2fb	-0.4290999
165	0xbe4c6fab	-0.19964473
166	0xbdd70067	-0.104981236
167	0xbe33eebe	-0.17571542
168	0xbe23e4ef	-0.160053
169	0xbe45f80d	-0.19332905
170	0xbdf776fc	-0.12083241
171	0x3d10e2dc	0.0353726
172	0xbe087f0f	-0.13329719
173	0x3e125926	0.1429182
174	0x3e82fb5b	0.25582394
175	0xbb833ddd	-0.0040051774
176	0x3de790de	0.11306928
177	0xbd934410	-0.07190716
178	0x3e1b351f	0.15156983
179	0xbda0c7d8	-0.07850617
180	0xbdc81986	-0.09770493
181	0x3db5a864	0.088700086
182	0xbe50e5bb	-0.20400135
183	0x3cc8029c	0.024415307
184	0xbdd60e99	-0.10452003
185	0x3c3deaa7	0.01159159
186	0x3e05758b	0.1303312
187	0xbc7a1cbf	-0.015265643
188	0xbe82cd4f	-0.25547263
189	0x3de0ff34	0.10986176
190	0x3e174225	0.14771326
191	0xbd0e169b	-0.034689527
192	0xbd0b367a	-0.0339875
193	0xbdd74f20	-0.10513139
194	0xbe0b932c	-0.1363036
195	0xbdaf4060	-0.085572004
196	0xbde08e1d	-0.10964606
197	0x3e01198d	0.12607403
198	0xbdb5f697	-0.08884924
199	0x3e88879f	0.2666597
200	0x3d63f604	0.05565454
201	0x3dbbe16c	0.09173855
202	0xbdd4143e	-0.103554234
203	0xbdd40bc7	-0.10353809
204	0x3e4c639f	0.19959877
205	0xbd8ec795	-0.06971661
206	0xbdecefa1	-0.11569143
207	0x3cc499cc	0.023999117
208	0x3dd8561d	0.105633
209	0x3d31fd39	0.043454383
210	0x3e326d44	0.17424494
211	0x3dd46aeb	0.103719555
212	0x3dbd60f5	0.09247009
213	0x3e38784c	0.1801464
214	0xbc27c9be	-0.01024097
215	0x3d929b72	0.07158555
216	0xbedf4ff8	-0.436157
217	0x3dcf1ff6	0.10113518
218	0x3e8055aa	0.25065356
219	0xbe937c68	-0.28805852
220	0xbe59c6c2	-0.21267226
221	0x3d18dbb4	0.0373189
222	0x3cfff87d	0.031246418
223	0x3dc12d46	0.09432463
224	0x3bf1f547	0.0073839757
225	0x3d87758f	0.066142194
226	0x3d6e0b53	0.05811627
227	0x3ca229cc	0.01979532
228	0x3e9a29ef	0.30110118
229	0x3db1fc48	0.08690697
230	0x3d9f4e22	0.077785745
231	0xbe176dcb	-0.14787976
232	0x3c978ffb	0.018501272
233	0xbde7651b	-0.11298581
234	0xbce95b05	-0.028485784
235	0x3d4c4402	0.049869545
236	0x3e1ee970	0.15518737
237	0x3d6c42be	0.057680838
238	0xbdc7b2cc	-0.097509
239	0x3e91b132	0.28455502
240	0xbc20a528	-0.009805001
241	0x3d890faf	0.066924445
242	0xbe1221ab	-0.14270656
243	0x3d92f014	0.071746975
244	0xbe08d0c4	-0.13360888
245	0x3e867a68	0.26265264
246	0xbe66ff47	-0.22558318
247	0x3cae4d5d	0.021277124
248	0xbe02ee16	-0.12786135
249	0xbdd3e624	-0.1034663
250	0x3e804a25	0.25056568
251	0x3e2acb26	0.16679057
252	0x3b1ffe51	0.002441306
253	0x3de84cff	0.11342811
254	0x3dafe17d	0.0858793
255	0x3ec560c5	0.38550392

actor.2.bias f4 [64]
0	0xbe7aa9b1	-0.24478795
1	0x3bc6f227	0.0060713473
2	0xbe070492	-0.13185337
3	0x3de35809	0.11100776
4	0xbdaaf47e	-0.083474144
5	0xbde12b80	-0.10994625
6	0xbe48fe5f	-0.19628285
7	0xbe998b37	-0.29989025
8	0xbddca572	-0.10773744
9	0xbc27d12a	-0.01024274
10	0xbe7935e6	-0.24336967
11	0xbed24cf8	-0.41074347
12	0xbe939fd0	-0.28832865
13	0xbd2c511a	-0.042069532
14	0x3e4e28e7	0.2013279
15	0xbe373a45	-0.17893322
16	0xbd13e9b3	-0.036111545
17	0xbea9f7f9	-0.33197
18	0xbe57cb6f	-0.21073698
19	0xbe5996b1	-0.2124889
20	0xbe958d65	-0.29209438
21	0xbe80c739	-0.25151995
22	0xbe42f05d	-0.19037004
23	0xbe70fe85	-0.23534591
24	0xbe920fb6	-0.28527611
25	0xbe887ff0	-0.2666011
26	0xbe8adf0b	-0.27123293
27	0xbe3c8770	-0.1841104
28	0xbdc8bb80	-0.09801388
29	0xbe972c8a	-0.29526168
30	0x3e7998c7	0.24374686
31	0xbec71c90	-0.3888898
32	0xbd824709	-0.06361205
33	0x3dd41783	0.10356047
34	0xbe815a25	-0.25264087
35	0xbe2308c8	-0.15921319
36	0xbeae8a32	-0.3408981
37	0xbe70c078	-0.23510921
38	0xbe42fb8d	-0.19041272
39	0xbd5aa605	-0.053380985
40	0xbe9d0612	-0.30668694
41	0xbe697723	-0.22799353
42	0xbd3b1615	-0.045675356
43	0xbda56138	-0.08075184
44	0xbe576078	-0.21032894
45	0xbec48abb	-0.38387093
46	0xbc428e07	-0.011874682
47	0xbe07536f	-0.13215421
48	0x3dce9a25	0.100879945
49	0xbe502110	-0.20325112
50	0x3cb31b62	0.021863643
51	0x3965dab8	0.00021920621
52	0xbe5077e1	-0.2035823
53	0xbe1922f6	-0.14954743
54	0xbcaf488d	-0.0213969
55	0xbe890776	-0.26763505
56	0xbdf2b5c7	-0.118510775
57	0xbd6f35d4	-0.058400944
58	0xbd19225f	-0.037386294
59	0xbe4f6afc	-0.20255655
60	0xbea6f7d7	-0.32610962
61	0xbe6372cc	-0.2221176
62	0x3c995ee9	0.018722015
63	0x3ceeda90	0.029156953

actor.4.weight f4 [7, 64]
0	0xbbfc5454	-0.0077004824
1	0x3e51fd17	0.20506702
2	0x3d8cf834	0.068832785
3	0xbdb923d3	-0.09040036
4	0xbc12e736	-0.008966258
5	0x3de519df	0.11186575
6	0x3d99da06	0.07512288
7	0x3d274b7b	0.04084347
8	0xbe486968	-0.1957146
9	0x3da6fa36	0.08153193
10	0x3e265bed	0.16246004
11	0x3dfc9975	0.12333957
12	0x3d3f1aaa	0.04665629
13	0x3e2c8427	0.16847287
14	0x3e7d5dd6	0.24742827
15	0xbe5794bf	-0.21052836
16	0x3db50749	0.0883928
17	0x3bf68d4c	0.007524168
18	0xbcec5245	-0.028847823
19	0x3cb6e13d	0.022324199
20	0xbe96a98c	-0.2942623
21	0x3d727144	0.05919005
22	0x3d8b74c8	0.06809384
23	0xbde1e103	-0.11029246
24	0xbb98900e	-0.0046558445
25	0x3e1ba4b6	0.15199551
26	0xbd8ece33	-0.06972923
27	0xbc22d3c3	-0.009938183
28	0x3dee0d8d	0.11623678
29	0xbd981584	-0.07425979
30	0xbd00fe0a	-0.03149227
31	0x3c0d5c46	0.008627957
32	0x3e106e3a	0.14104548
33	0x3e67bba7	0.22630177
34	0x3e584b51	0.21122481
35	0x3d8b5e41	0.06805087
36	0xbdc1c0c5	-0.09460596
37	0x3df0f78c	0.11765966
38	0x3d0c1178	0.034196347
39	0x3df30ee7	0.11868077
40	0x3e5639a6	0.20920429
41	0x3d8887f8	0.06666559
42	0xbe84e822	-0.25958353
43	0xbcab9078	-0.020942912
44	0x3cd2e2b4	0.025742866
45	0xb804ab98	-3.163106e-05
46	0x3ea0e9a0	0.31428242
47	0xbc962ad1	-0.018330963
48	0x3e13659b	0.14394228
49	0xbc6f154b	-0.014592479
50	0x3e1c5c61	0.15269615
51	0xbce8256d	-0.028338159
52	0xbcc8f107	-0.024528993
53	0x3ae5d704	0.0017535393
54	0x3cd3f8dd	0.025875503
55	0xbd9bae1a	-0.076015666
56	0x3e20df15	0.15710099
57	0xbe73804e	-0.23779413
58	0x3c345085	0.0110055255
59	0x3d0c60dd	0.034272064
60	0x3de011ed	0.10940919
61	0x3e6ae6e6	0.22939643
62	0x3db294a8	0.0871976
63	0xbd11a662	-0.035559066
64	0x3dc81e88	0.097714484
65	0x3dbea66a	0.09309085
66	0x3e42b662	0.19014886
67	0x3d836176	0.064150736
68	0xbdc827ed	-0.0977324
69	0xbd8662d0	-0.06561816
70	0xbe1e4fee	-0.15460178
71	0xbcd365b2	-0.025805328
72	0xbcef7797	-0.02923183
73	0x3d7cf81e	0.06176006
74	0xbe7a1fc6	-0.24426183
75	0x3bc23523	0.0059267445
76	0xbd107a23	-0.03527273
77	0xbcc4f94b	-0.024044653
78	0x3d80c060	0.062866926
79	0x3df32c3a	0.1187367
80	0xbe2b84ff	-0.16749953
81	0xbe245c43	-0.1605082
82	0x3e6fb76e	0.23409817
83	0xbdf1d9e5	-0.11809138
84	0xbd124be0	-0.03571689
85	0x3e27a4f2	0.16371515
86	0x3d0cb1ac	0.03434913
87	0xbd09b996	-0.033624254
88	0xbe4ed11a	-0.20196953
89	0x3d821f0f	0.0635358
90	0xbe2dcb64	-0.16972119
91	0xbd25b42c	-0.04045503
92	0x3ce6f448	0.028192654
93	0x3db3ab20	0.08772874
94	0x3e826aed	0.25472203
95	0x3cfa131e	0.030526694
96	0x3e3de2fe	0.18543622
97	0xbdca2260	-0.09869838
98	0xbe230d56	-0.15923056
99	0xbe90bf1d	-0.28270808
100	0xbe40ae4b	-0.18816487
101	0xbd8d5c33	-0.06902351
102	0x3e920aa2	0.28523737
103	0x3d62d9c4	0.05538346
104	0xbdee4856	-0.11634891
105	0xbd21c533	-0.039494704
106	0xbd80ac44	-0.06282857
107	0x3d8233e4	0.063575536
108	0x3e8631b2	0.2620979
109	0xbe07fcdc	-0.13280052
110	0x3e403254	0.18769199
111	0xbb90b7a0	-0.004416421
112	0x3e325735	0.1741608
113	0x3a5f4131	0.0008516489
114	0x3e1dcc37	0.15409933
115	0xbd0f95da	-0.03505502
116	0x3cb8b505	0.022547254
117	0xbe3d4f0d	-0.18487187
118	0xbdebeed8	-0.11520165
119	0x3d4c03dc	0.049808368
120	0x3c977a15	0.01849083
121	0x3d97e059	0.07415838
122	0xbd932299	-0.07184333
123	0xbea229ae	-0.31672424
124	0x3d8f884f	0.07008421
125	0x3d2aa334	0.04165955
126	0x3da1d1e4	0.079013616
127	0x3d8bea19	0.0683176
128	0x3d943108	0.072359145
129	0xbbfc1752	-0.0076932097
130	0x3e1572dc	0.14594597
131	0xbdda11e2	-0.10647942
132	0xbdec8dd0	-0.11550486
133	0xbe32e058	-0.17468393
134	0x3e406ab6	0.18790707
135	0x3d9fe48e	0.07807265
136	0xbea2b0da	-0.31775552
137	0x3e366981	0.17813684
138	0x3e0ac8e1	0.13553192
139	0x3c57a7a8	0.013162531
140	0x3c5b949a	0.013402129
141	0xbdeec472	-0.11658563
142	0x3e8aead8	0.27132297
143	0x3dbe731c	0.09299299
144	0xbe50a376	-0.20374855
145	0xbdab3253	-0.08359208
146	0x3d0f4d09	0.034985576
147	0x3df37e86	0.11889367
148	0xbe7b385f	-0.24533223
149	0x3d6aad34	0.057294086
150	0x3def8b4f	0.11696493
151	0xbe2f67f0	-0.17129493
152	0xbd1ce123	-0.038300645
153	0x3d9355e7	0.07194119
154	0xbced6172	-0.02897713
155	0xbdef6ba5	-0.116904534
156	0x3dc0ad3b	0.09408041
157	0xbe01a3a2	-0.12660077
158	0xbe881125	-0.2657558
159	0x3e469136	0.19391331
160	0x3cfff00e	0.031242397
161	0x3e3f963d	0.18709655
162	0x3d9726a0	0.07380414
163	0x3dd2c936	0.10292284
164	0x3de1f328	0.110327065
165	0x3ce66878	0.028125986
166	0x3db8cb4d	0.090231515
167	0x3d0515e9	0.0324916
168	0x3e4a9f1c	0.19787258
169	0xbd94573d	-0.07243202
170	0xbdc46067	-0.095887
171	0xbd99010b	-0.07470902
172	0xbe32bff3	-0.17456035
173	0xbe1e02ac	-0.15430707
174	0x3ec0d50e	0.37662548
175	0x3dea322d	0.114353515
176	0xbd07e700	-0.033179283
177	0xbd0b7552	-0.034047432
178	0x3d93c957	0.07216137
179	0xbd387bd7	-0.045039978
180	0x3d3356f0	0.043784082
181	0xbd1d4c6e	-0.038402967
182	0xbcad86bc	-0.02118241
183	0xbd6ac8ae	-0.05732029
184	0x3e099991	0.13437487
185	0xbe4069d9	-0.18790378
186	0xbdbf3940	-0.093370914
187	0xbd69b536	-0.05705758
188	0x3dca192e	0.09868084
189	0x3e4d4458	0.20045602
190	0x3e0ffda3	0.14061598
191	0xbdbeb7b1	-0.0931238
192	0x3e83051a	0.2558983
193	0xbde47fc6	-0.11157183
194	0x3e8a8bb6	0.27059716
195	0xbe2bb0af	-0.16766618
196	0xbde0cf81	-0.10977078
197	0xbc51535f	-0.012776225
198	0x3db6992a	0.089159325
199	0x3e59225f	0.21204518
200	0x3dbbd26d	0.09170995
201	0xbd664946	-0.056222223
202	0x3e81b11d	0.2533044
203	0xbda53b68	-0.080679715
204	0x3e5cde89	0.21569265
205	0xbe502ebd	-0.20330329
206	0xbeca5e4e	-0.39525074
207	0xbde09634	-0.10966149
208	0x3cc5b3c3	0.024133569
209	0x3db19697	0.08671301
210	0x3e897f3c	0.26854885
211	0xbe58acd7	-0.21159683
212	0x3db47dcf	0.088130586
213	0x3debb4e0	0.115091085
214	0x3cbd5cf7	0.023115618
215	0xbe6283b6	-0.22120556
216	0x3c8fd2eb	0.017556628
217	0x3d72bc03	0.059261333
218	0x3e4f417b	0.20239823
219	0x3d02059e	0.03174364
220	0xbe6c456e	-0.2307336
221	0x3e419705	0.18905266
222	0xbbe8ae1f	-0.007100835
223	0xbd8b0ae4	-0.067891866
224	0x3e217e6b	0.15770881
225	0x3d8a17d0	0.06742823
226	0x3cf98945	0.030460963
227	0x3d689e0c	0.05679135
228	0x3d38043e	0.04492592
229	0x3dac2e30	0.08407247
230	0x3dc0546f	0.093911044
231	0xbdd49ff1	-0.10382069
232	0xbe58dfb0	-0.2117908
233	0x3e2a2ede	0.16619441
234	0xbeb8c7b0	-0.3608985
235	0x3e1c98f1	0.15292718
236	0x3e33cb7a	0.17558089
237	0x3e462171	0.19348694
238	0x3da955d4	0.082683235
239	0x3c86b0fd	0.016441816
240	0xbe5a388e	-0.21310636
241	0xbeaa6fa6	-0.33288306
242	0x3c354bd2	0.01106544
243	0xbdf3ee9d	-0.11910746
244	0x3e0069aa	0.12540308
245	0xbc181878	-0.009283178
246	0xbe1c979c	-0.1529221
247	0xbc39ae5f	-0.011333077
248	0xbdfe1f8c	-0.12408361
249	0xbdeb0768	-0.11476022
250	0xbc438e4a	-0.01193578
251	0xbe915697	-0.28386375
252	0x3cc484a5	0.023989031
253	0x3d2b217a	0.041779973
254	0xbda4feaf	-0.080563895
255	0xbe352225	-0.17688806

actor.4.bias f4 [7]
0	0xbc6d4d89	-0.014483818
1	0x3e28b18b	0.16473977
2	0xbd3bcb42	-0.04584814
3	0x3de059ff	0.109546654
4	0x3d523ade	0.05132567
5	0xbe44a6d1	-0.1920426
6	0x3dafa6a7	0.08576708

critic.0.weight f4 [64, 32]
0	0xbcbe0bc3	-0.023198968
1	0xbd9f3354	-0.07773462
2	0x3d885d50	0.06658423
3	0x3e2a4021	0.16626026
4	0xbe11c32a	-0.14234605
5	0x3d81891b	0.06324979
6	0xbe93a7a8	-0.2883885
7	0x3dfab9ce	0.12242471
8	0xbcaf4b7a	-0.021398295
9	0x3d0c4f30	0.034255207
10	0xbe09326e	-0.13398144
11	0x3d840ac6	0.06447367
12	0xbd9da928	-0.076982796
13	0x3cf365bf	0.029711602
14	0xbc3e9189	-0.011631378
15	0x3c3a2a05	0.011362557
16	0xbd8c86da	-0.068616584
17	0xbc40ecd4	-0.011775214
18	0xbea5c604	-0.32377636
19	0xbc47e29b	-0.012200023
20	0x3e682cc1	0.22673322
21	0x3d3535c9	0.044240747
22	0xbe4de839	-0.20108117
23	0xbea73e09	-0.32664517
24	0xbdfd6895	-0.12373463
25	0x3db405cb	0.087901674
26	0xbd49a66d	-0.04923098
27	0xbcee54ed	-0.02909323
28	0xbb4899b0	-0.0030609183
29	0xbd978c69	-0.07399828
30	0xbd26bb82	-0.040706165
31	0xbbb56a3d	-0.005536346
32	0xbdd1d6c5	-0.10246042
33	0x3e01d7bc	0.12679952
34	0xbca65dde	-0.020308431
35	0x3e24e586	0.16103181
36	0x3d7e514e	0.062089257
37	0x3e6957b2	0.2278736
38	0x3e04778a	0.12936226
39	0xbc84ad33	-0.01619587
40	0x3d06823f	0.032839056
41	0xbcb1cfe8	-0.021705583
42	0xbc16faa0	-0.009215027
43	0xbd0f0e58	-0.03492579
44	0xbe071c19	-0.13194312
45	0xbd80791a	-0.06273098
46	0xbd9319c8	-0.07182652
47	0xbc0a733a	-0.008450324
48	0xbdcef6ea	-0.10105689
49	0x3da2dec2	0.07952644
50	0x3e0a7232	0.13520125
51	0xbeb2cd88	-0.34922433
52	0x3d86f388	0.06589419
53	0x3d8da849	0.069168635
54	0x3e99e061	0.30054
55	0x3e1b3b03	0.1515923
56	0xbc1d52bb	-0.009602244
57	0xbc3540b6	-0.011062792
58	0x3dcea8bc	0.10090777
59	0x3cc8a545	0.02449287
60	0x3c3ad8b3	0.011404204
61	0xbb9349e2	-0.0044948915
62	0x3db2d3bb	0.08731791
63	0xbe39cec5	-0.18145283
64	0xbc43abb1	-0.01194279
65	0x3dea345d	0.11435769
66	0xbe81c0a8	-0.25342298
67	0x3c82e04e	0.015976097
68	0x3dcd31c8	0.10019261
69	0x3aacca35	0.0013182821
70	0xbda8934c	-0.0823122
71	0xbb9e0982	-0.0048229108
72	0x3e0202c7	0.12696372
73	0xbdfe9651	-0.12431014
74	0x3c923607	0.017848028
75	0xbddab157	-0.10678356
76	0xbd734d0b	-0.059399646
77	0x3d33509c	0.043778047
78	0xbd76c04b	-0.06024198
79	0x3c4bd0b5	0.012439896
80	0x3dc60b71	0.09670151
81	0xbd5cc08d	-0.05389457
82	0xbe57e133	-0.21082
83	0xbf0132cb	-0.5046813
84	0xbd2381f0	-0.03991884
85	0x3d6020d3	0.054718804
86	0xbc1deee9	-0.00963948
87	0xbdbcf83a	-0.09227033
88	0xbdb3e97b	-0.08784767
89	0x3d516b6f	0.051127847
90	0x3b5f6cb7	0.0034091899
91	0xbde563c9	-0.11200673
92	0x3de2f730	0.110823035
93	0xbcd43aca	-0.025906939
94	0xbcbc6471	-0.022997113
95	0xbc0bc6cd	-0.0085312845
96	0xbe15f632	-0.14644697
97	0x3dc1c57e	0.09461497
98	0x3d5e4f60	0.054274917
99	0xbe21a6d8	-0.15786302
100	0x3d573258	0.052538246
101	0x3cef5590	0.029215604
102	0x3e7d815b	0.24756376
103	0x3e7a87b8	0.24465835
104	0x3dce5cd9	0.10076303
105	0xbdb7cae1	-0.08974243
106	0xbd909245	-0.07059149
107	0xbdacb2b9	-0.08432526
108	0x3d775725	0.060385842
109	0x3d17fc33	0.03710575
110	0xbb67f287	-0.003539236
111	0x3c0f011d	0.008728293
112	0x3d9aaa42	0.07552005
113	0x3e8cf5a5	0.27531162
114	0xbe106397	-0.1410049
115	0xbf4b5b86	-0.7943653
116	0xbe9c376e	-0.3051104
117	0xbdfdd6df	-0.12394499
118	0xbf8c1011	-1.0942403
119	0x3e81ca63	0.2534972
120	0x3e2554fe	0.16145703
121	0xbc9f4a8d	-0.019444728
122	0xbd763e56	-0.060118042
123	0x3dc5d0ed	0.0965899
124	0xbd09b4a3	-0.033619534
125	0xbdc23c40	-0.09484148
126	0x3d2c6b80	0.042094707
127	0x3d558fbc	0.05213903
128	0xbe26bc5d	-0.16282792
129	0xbdd75d99	-0.10515899
130	0x3d591b1a	0.05300436
131	0xbc4da1a3	-0.012550744
132	0x3e8cd5e2	0.2750693
133	0x3dcb4384	0.09924987
134	0x3e7c2145	0.24622066
135	0x3d25b9d9	0.04046044
136	0x39d2342b	0.0004009319
137	0xbc05a9c6	-0.008158153
138	0xbc9f2c97	-0.019430442
139	0xbc2346c0	-0.009965599
140	0x3b512c9e	0.0031917463
141	0xbbaa185f	-0.0051908935
142	0x3b95424c	0.0045550223
143	0x3b1fdac2	0.0024391864
144	0xbc32b6c1	-0.01090783
145	0x3d0e6fb0	0.034774482
146	0x3e8262c8	0.2546599
147	0xbda49381	-0.08035947
148	0x3da73a5f	0.0816543
149	0x3d23bce9	0.03997508
150	0xbf23f8a0	-0.64051247
151	0x3eb4096d	0.3516344
152	0xbe11332b	-0.14179675
153	0xbc7cc7a8	-0.015428461
154	0xbd96aa8d	-0.07356749
155	0xbd339d95	-0.043851454
156	0xbc662ee8	-0.014049269
157	0xbb773165	-0.003771865
158	0xbd1b9e24	-0.03799261
159	0x3d8ce429	0.068794556
160	0xbdbbf0b6	-0.09176771
161	0xbd402f3f	-0.046920057
162	0xbd048f31	-0.03236312
163	0xbc354f42	-0.01106626
164	0x3e2b2426	0.16713008
165	0x3db5d2a6	0.088780686
166	0x3c12f7c3	0.008970204
167	0xbdc76655	-0.09736315
168	0x3d6ef90f	0.05834299
169	0x3d1cc775	0.038276155
170	0xbc6b5a5b	-0.014364804
171	0xbca6f6f5	-0.02038143
172	0x3d89830b	0.067144476
173	0xbc97ce70	-0.018531054
174	0x3b9fffe7	0.004882801
175	0x3aca0d8a	0.0015415412
176	0x3aca5275	0.0015435951
177	0xbe4ec8b3	-0.20193748
178	0xbe817bb5	-0.25289693
179	0x3db21e8c	0.086972326
180	0xbe7d2f35	-0.2472504
181	0xbe1ac99b	-0.15115969
182	0x3f1606ae	0.5860394
183	0x3ee8e44d	0.4548668
184	0x3d9186c0	0.0710578
185	0xbd94c3ca	-0.07263906
186	0x3e1af515	0.15132554
187	0x3cd39dde	0.025832113
188	0x3d877a48	0.0661512
189	0x3d0d337c	0.034472927
190	0x3bf115fc	0.007357357
191	0xbcbbd6e5	-0.022929618
192	0x3e232cda	0.15935078
193	0x3e6da2c5	0.23206623
194	0xbdc957d7	-0.09831207
195	0x3e26c78c	0.16287059
196	0x3e14d8ed	0.14535876
197	0x3ddaf3cd	0.106910326
198	0x3da59064	0.08084181
199	0xbdf28ccc	-0.11843261
200	0x3dde71b5	0.10861532
201	0x3d231513	0.03981502
202	0x3c5f9dc7	0.013648457
203	0x3ce6ba6c	0.028165065
204	0xbbcf870c	-0.0063332375
205	0xbc34287b	-0.010995979
206	0xbc210d1b	-0.009829785
207	0xbd22a2af	-0.03970593
208	0xbdfc123e	-0.12308167
209	0xbe74ea79	-0.23917569
210	0x3e56640b	0.20936601
211	0xbfeb12a1	-1.836506
212	0xbd118644	-0.035528436
213	0x3e1123f7	0.14173876
214	0xbf5f7431	-0.8728667
215	0x3d199a6c	0.037500784
216	0xbd1e8a51	-0.038706128
217	0xbce1ab0c	-0.027547382
218	0x3d879c6c	0.06621632
219	0x3b471737	0.0030378827
220	0x3d0e5ca2	0.03475631
221	0x3cc4df6e	0.02403232
222	0x3d53d706	0.051718734
223	0x3d34c375	0.044131715
224	0x3d64de11	0.05587584
225	0x3e3a5785	0.18197449
226	0xbd176d31	-0.036969367
227	0xbdbb9e31	-0.09161032
228	0xbdf9d2e2	-0.12198426
229	0xbe8a01eb	-0.26954588
230	0xbe159650	-0.14608121
231	0x3e2ed57c	0.17073625
232	0x3dec56d8	0.11540002
233	0x3ba1eb1a	0.0049413564
234	0x3d9e915b	0.07742568
235	0x3bfc2199	0.007694435
236	0xbb1a5497	-0.0023548955
237	0x3cfc7a89	0.030820148
238	0x3d07eec3	0.033186685
239	0x3d73361f	0.059377786
240	0xbe009a00	-0.12558746
241	0xbc98d069	-0.018654065
242	0x3e0696b0	0.1314342
243	0x3f02d35c	0.5110376
244	0xbe2f4e2f	-0.17119668
245	0x3e024e5c	0.12725204
246	0xbf0e684e	-0.55627906
247	0xbd5e6147	-0.05429199
248	0x3e08018e	0.13281843
249	0xbdac6753	-0.08418145
250	0xbd54cfd3	-0.05195601
251	0xbd24d24f	-0.04023963
252	0xba10b916	-0.0005520744
253	0xbc13d86a	-0.009023765
254	0xbc696b56	-0.014246782
255	0x3c380957	0.011232696

critic.0.bias f4 [64]
0	0x3e0b38d5	0.13595898
1	0xbe2c107f	-0.16803168
2	0xbdcf1989	-0.10112292
3	0xbe00d66f	-0.125818
4	0xbc885816	-0.016643565
5	0xbdb0ab36	-0.08626406
6	0xbd84f7c3	-0.06492569
7	0x3d425fdf	0.04745471
8	0xbd29c6d6	-0.04144939
9	0xbdce985e	-0.100876555
10	0x39ebfdc8	0.00045011775
11	0x3dd4e2cb	0.1039482
12	0xbcd527a2	-0.026019875
13	0xbdc7fda2	-0.097651735
14	0x3d962e43	0.073330425
15	0xbdc61388	-0.09671694
16	0xbdcef2bc	-0.10104892
17	0x3e13e08e	0.1444113
18	0xbc584c21	-0.013201744
19	0x3dec559f	0.115397684
20	0x3dfc00ae	0.12304817
21	0xbdc18f70	-0.09451187
22	0x3da1b933	0.07896652
23	0xbd432d6f	-0.04765075
24	0x3d806787	0.06269746
25	0xbd33eb03	-0.043925297
26	0x3d4682d7	0.048464622
27	0x3cdf2eb4	0.02724395
28	0xbd7a53bf	-0.061115023
29	0x3e4565b5	0.1927708
30	0xbd501003	-0.05079652
31	0x3c9ba585	0.018999824
32	0xbd9f3d2e	-0.07775341
33	0xbd43917a	-0.04774616
34	0x3d07c4f9	0.033146832
35	0xbda88689	-0.082287855
36	0xbd5699f0	-0.0523929
37	0x3e47f157	0.19525658
38	0xbe12b279	-0.14325894
39	0xbc6a7872	-0.014310943
40	0x3d5e2872	0.05423779
41	0x3d8be355	0.068304695
42	0x3d60a606	0.054845832
43	0xbe6225c8	-0.22084725
44	0xbe3246de	-0.17409846
45	0x3d7e4737	0.062079635
46	0xbe095df6	-0.1341475
47	0xbe3f0537	-0.18654333
48	0xbd8a2d83	-0.06746962
49	0xbd44b7ac	-0.048026726
50	0xbe376a3b	-0.17911617
51	0xbe191340	-0.1494875
52	0x3cfa65d5	0.030566135
53	0xbe003efb	-0.12524025
54	0xbde27976	-0.11058323
55	0xbd9f6a61	-0.07783962
56	0x3dead496	0.11466329
57	0xbd4e40c4	-0.050354734
58	0xbe00f706	-0.12594232
59	0xbd9e6fad	-0.07736144
60	0xbcc08417	-0.023500485
61	0x3e2fab17	0.1715511
62	0x3e1211a0	0.14264536
63	0xbdbd60c7	-0.092469744

critic.2.weight f4 [64, 64]
0	0xbde971ef	-0.11398684
1	0xbcc33a58	-0.023831531
2	0x3e52ea91	0.20597292
3	0x3de95331	0.113928206
4	0x3ae14fc9	0.0017189916
5	0xbc824e68	-0.015906528
6	0x3db79814	0.089645535
7	0x3d94796a	0.072497204
8	0x3e88ee07	0.267441
9	0x3e20cace	0.15702364
10	0x3afabffa	0.00191307
11	0xbdd45b8c	-0.10369024
12	0xbe6cdee5	-0.23131903
13	0x3dea6530	0.11445081
14	0x3d46dbf7	0.04854962
15	0x3d375a76	0.044764005
16	0xbda98ce0	-0.08278823
17	0xbe30d4be	-0.17268655
18	0xbdfd6bac	-0.123740524
19	0xbe2ded3d	-0.1698503
20	0xba12e9ec	-0.0005604315
21	0xbe3891e0	-0.18024397
22	0xbd4c2493	-0.049839567
23	0x3c2762cd	0.010216427
24	0x3ca2ac5e	0.019857582
25	0xbc9c605a	-0.019088913
26	0x3d9e1ef1	0.07720745
27	0xbd882085	-0.066468276
28	0x3db89c76	0.090142176
29	0xbe547e09	-0.20751204
30	0x3db3ec75	0.08785335
31	0xbdddf998	-0.10838622
32	0x3d10b852	0.03533203
33	0x3d3d2540	0.046178102
34	0x3df75ba7	0.12078028
35	0x3d86ea31	0.06587637
36	0xbd9272f8	-0.07150835
37	0xbe3db731	-0.18526913
38	0xbe6806a6	-0.22658786
39	0x3df4efde	0.119598135
40	0x3dac3254	0.08408037
41	0xbdb30672	-0.08741464
42	0xbda88aac	-0.082295746
43	0xbe459e0e	-0.19298574
44	0xbd4607f7	-0.04834744
45	0x3e32b629	0.17452301
46	0x3dccc8bd	0.09999225
47	0xbe161729	-0.14657272
48	0xbd3cb6dc	-0.046072826
49	0xbceb51e9	-0.028725581
50	0x3c85de23	0.016341275
51	0xbddb6eca	-0.10714491
52	0x3d7cd8a3	0.06173004
53	0xbddd70f0	-0.10812557
54	0xbdb8e286	-0.09027581
55	0xbbdb79be	-0.0066978624
56	0x3e20100b	0.1563112
57	0x3de74b06	0.112936065
58	0x3d5f8d29	0.05457798
59	0x3d8c1e89	0.068417616
60	0xbd70f4ff	-0.058827396
61	0x3ca652ad	0.020303095
62	0x3c9dd0f9	0.019264685
63	0xbda4aedc	-0.08041164
64	0xbd509455	-0.05092271
65	0xbda73197	-0.081637554
66	0xbb99076b	-0.0046700737
67	0x3dd5053f	0.10401391
68	0xbc0e746f	-0.008694752
69	0x3d80efa9	0.062957115
70	0xbd2a1f92	-0.041534014
71	0xbd1848a9	-0.03717867
72	0xbe0194ef	-0.1265447
73	0x3e359eb4	0.17736322
74	0x3e3ab9f6	0.18235001
75	0x3dc734be	0.09726857
76	0xbe329ed4	-0.174434
77	0xbcd1d19b	-0.025612643
78	0x3e91be2a	0.28465396
79	0xbd156a62	-0.036478408
80	0x3d856efa	0.06515308
81	0xbde2142b	-0.11039003
82	0x3cbdd094	0.023170747
83	0xbdd6220d	-0.104557134
84	0x3e3d33ff	0.18476866
85	0xbda06a90	-0.07832825
86	0xbd4f7a99	-0.050654028
87	0x3e20f2ea	0.15717664
88	0x3e2b6929	0.16739334
89	0x3e3448ff	0.17605971
90	0x3d8b33db	0.06797
91	0x3d3af89b	0.045647245
92	0x3da5bd34	0.08092728
93	0xbd63f4ee	-0.055653505
94	0x3d67584a	0.056480683
95	0x3be38077	0.0069428044
96	0x3db696bb	0.08915468
97	0xbdb4ee98	-0.08834571
98	0xbe095823	-0.13412528
99	0xbdc5cba3	-0.09657981
100	0xbdda33f9	-0.10654444
101	0xbc9946a2	-0.018710438
102	0xbdcab8c9	-0.09898526
103	0x3e9028f5	0.28156248
104	0x3cbd5590	0.023112088
105	0xbdf40f2c	-0.11916956
106	0x3e7c9a18	0.24668157
107	0xbde9750d	-0.11399279
108	0xbdd25d67	-0.10271721
109	0x3d8c6090	0.06854355
110	0xbc92c0aa	-0.017914135
111	0x3c42a6ca	0.011880586
112	0xbd329071	-0.04359478
113	0xbe53d1f3	-0.20685558
114	0xbd6f2e1e	-0.05839359
115	0xbce3edc7	-0.027823342
116	0x3cd334ee	0.025782075
117	0xbe54c1f1	-0.20777108
118	0xbbd08d58	-0.0063645057
119	0xbda198d9	-0.078904815
120	0x3e0c0732	0.1367462
121	0x3c872205	0.016495714
122	0x3d207a44	0.0391791
123	0x3e54f36d	0.20795985
124	0x3c29b334	0.010357667
125	0x3e304d16	0.17216906
126	0x3e269a80	0.16269875
127	0x3db8222e	0.08990894
128	0x3da7f949	0.08201844
129	0xbd4ae4a2	-0.049534447
130	0x3d3d1d70	0.046170652
131	0xbde3cfca	-0.11123617
132	0x3d6075c2	0.054799803
133	0x3b5a7f9f	0.0033340228
134	0xbda17f6a	-0.078856304
135	0x3e1aff1c	0.15136379
136	0xbe49899a	-0.19681397
137	0x3a562dad	0.00081702584
138	0x3ceabd85	0.028654823
139	0x3c951ab3	0.018201208
140	0xbe0c2960	-0.13687658
141	0x3e1892b1	0.14899708
142	0xbdaec507	-0.08533674
143	0x3e01c6e7	0.12673531
144	0xbd9a755e	-0.07541917
145	0x3e2d6328	0.16932356
146	0xbcc7a9c9	-0.024372952
147	0x3e23f991	0.16013171
148	0x3d84d0c3	0.06485131
149	0xbe733f36	-0.23754582
150	0xbd1b36b5	-0.03789397
151	0xbd53ae25	-0.05167975
152	0xbdea5d83	-0.11443617
153	0x3e20010a	0.15625396
154	0x3c97e540	0.018541932
155	0xbdae102a	-0.08499177
156	0xbb8a14ef	-0.0042139213
157	0x3e2fcaae	0.1716716
158	0x3d2f695b	0.042825084
159	0x3dd61010	0.104522824
160	0xbbe02867	-0.006840754
161	0xbd54fb0e	-0.051997237
162	0x3d098ae9	0.03357974
163	0xbc85c5b9	-0.016329633
164	0xbd50666d	-0.05087893
165	0x3d84697e	0.064654335
166	0xbc808eac	-0.015693031
167	0xbca7f2b4	-0.020501472
168	0x3d3b9adf	0.045801993
169	0xbddef582	-0.10886671
170	0x3d7ddec0	0.06198001
171	0xbe0d8387	-0.13819705
172	0xbd6c066d	-0.057623316
173	0x3d0b6253	0.034029316
174	0xbdb5212f	-0.0884422
175	0xbdfd5cef	-0.12371241
176	0xbd930402	-0.07178499
177	0x3d7f2a19	0.062296007
178	0xbdc426d4	-0.095777184
179	0xbd78cf52	-0.06074459
180	0x3d9f5805	0.0778046
181	0x3e0d9b8d	0.13828869
182	0x3dcc75f2	0.09983434
183	0x3cf046ad	0.029330576
184	0xbd15b9b8	-0.03655407
185	0xba2e5a17	-0.00066509977
186	0x3e2d1ac8	0.16904747
187	0xbe0445c8	-0.12917244
188	0x3da85c8b	0.08220776
189	0x3df74d00	0.120752335
190	0x3db9dd9a	0.0907547
191	0xbcc58268	-0.024110034
192	0xbd038e82	-0.032118328
193	0xbc9b12b5	-0.018929819
194	0x3e7f6c47	0.24943648
195	0xbd0008be	-0.031258337
196	0xbdd3b4f6	-0.1033725
197	0xbd31110c	-0.043229148
198	0x3c32b9e5	0.0109085785
199	0xbcdfa709	-0.027301328
200	0xbd94769d	-0.07249186
201	0x3ecc13aa	0.39858752
202	0x3cf15306	0.029458534
203	0x3e8cd8a4	0.27509034
204	0xbe437c0b	-0.19090287
205	0xbe0b3c74	-0.1359728
206	0xbca15573	-0.019694066
207	0x3e0bbcdf	0.13646267
208	0xbc7baee7	-0.015361524
209	0x3dafa02f	0.085754745
210	0xbc847f9d	-0.016174132
211	0x3e928edc	0.28624618
212	0x3ef50a13	0.4785925
213	0xbe2cf114	-0.16888839
214	0xbcba0d71	-0.022711487
215	0x3cdcbc42	0.026945237
216	0xbe270699	-0.1631111
217	0x3dc31a41	0.09526492
218	0x3e167c74	0.14695913
219	0xbde96b8c	-0.11397466
220	0x3d3bbb89	0.045833144
221	0xbd354ef2	-0.04426474
222	0x3c14580b	0.009054194
223	0x3d9446a0	0.07240033
224	0xbda632d8	-0.081151664
225	0xbd8b73c3	-0.06809189
226	0xbdd73def	-0.1050986
227	0xbaa48ea4	-0.0012554717
228	0x3db3c4a3	0.0877774
229	0xbd3415fb	-0.043966275
230	0xbeb49a21	-0.3527384
231	0x3d092a4c	0.033487603
232	0x3d582407	0.052768733
233	0xbe9e907b	-0.30969605
234	0x3e05858e	0.13039228
235	0xbe5b60a3	-0.21423583
236	0xbe595b6d	-0.21226282
237	0x3da19253	0.07889237
238	0x3d6de702	0.058081634
239	0xbb848bd7	-0.0040449905
240	0xbd2a7c61	-0.041622523
241	0xbd13102f	-0.035904106
242	0x3e2bd754	0.1678136
243	0x3de5b708	0.11216551
244	0xbd927bd7	-0.07152527
245	0xbd55e600	-0.0522213
246	0xbd90ec72	-0.07076348
247	0xbc9ae1d9	-0.01890652
248	0x3e82d145	0.25550285
249	0xbd67f475	-0.056629617
250	0xbde8d550	-0.11368811
251	0x3e2e1e49	0.1700374
252	0xbddbc292	-0.10730471
253	0xbd869062	-0.065705076
254	0xbca483eb	-0.020082435
255	0xbdebdb02	-0.11516382

critic.2.bias f4 [64]
0	0xbcf21fef	-0.029556243
1	0xbe0e570e	-0.13900396
2	0xbb177aff	-0.0023114083
3	0xbe93d81c	-0.28875816
4	0x3da0008e	0.07812606
5	0xbdb0bbce	-0.08629571
6	0xbd84d559	-0.06486005
7	0x3db30dda	0.08742876
8	0x3e223934	0.15842134
9	0x3d9dc637	0.07703822
10	0xbdcf4255	-0.10120074
11	0xbe3027f5	-0.17202742
12	0xbddfac6d	-0.109215595
13	0x3d463f4f	0.04840022
14	0x3c177b8e	0.009245766
15	0x3d645a68	0.05575028
16	0x3ddad2f2	0.10684766
17	0xbddd3fd5	-0.108031906
18	0xbdefac98	-0.117028415
19	0x3d7c1753	0.06154568
20	0xbdbb57c8	-0.09147602
21	0xbe316390	-0.17323136
22	0x3d102efd	0.03520106
23	0x3d388f2d	0.045058418
24	0xbdb290a1	-0.08718992
25	0x3bfec28b	0.007774656
26	0xbe21c8ed	-0.15799303
27	0xbc137756	-0.00900062
28	0xbdd0ff7b	-0.10204979
29	0x3cd9399d	0.02651673
30	0x3db88c2c	0.09011111
31	0x3b4feb5d	0.003172598
32	0xbcae9e23	-0.02131564
33	0x3daaf526	0.083475396
34	0x3e04d872	0.12973192
35	0x3dfabbbc	0.12242839
36	0xbd34b1d2	-0.044114895
37	0x3c8f40c3	0.017486935
38	0xbe522052	-0.20520142
39	0xbe059802	-0.13046268
40	0xbe6092fa	-0.21931067
41	0xbd86a640	-0.065746784
42	0x3dcf4eb2	0.10122432
43	0x3e404fdb	0.18780462
44	0x3d583069	0.052780543
45	0xbd4cdee7	-0.050017264
46	0x3d7331dc	0.05937372
47	0xbc038795	-0.008027931
48	0x3de90641	0.11378146
49	0xbd829e1b	-0.063778125
50	0x3e253f06	0.16137323
51	0x3b814a23	0.0039456054
52	0xbd866ad3	-0.06563344
53	0xbd910e96	-0.0708286
54	0x3cc78f03	0.024360185
55	0xbcbbb240	-0.022912145
56	0xbdb915ca	-0.09037359
57	0xbdda998f	-0.1067382
58	0xbd2cc3bc	-0.042178854
59	0xbd86de40	-0.065853596
60	0xbdfc8bdf	-0.12331366
61	0xbbf0dd08	-0.0073505677
62	0xbd961a70	-0.07329261
63	0x3c02b9c8	0.007978864

critic.4.weight f4 [1, 64]
0	0xbd61ff52	-0.055175133
1	0xbd50de73	-0.050993394
2	0xbcc676c7	-0.02422656
3	0xbd98916f	-0.07449614
4	0xbce0f28a	-0.027459402
5	0x3c6e7a7c	0.01455557
6	0xbd0e5393	-0.03474767
7	0xbce30b08	-0.027715221
8	0xbd8b090e	-0.067888364
9	0xbd0d77bc	-0.034538016
10	0xbdc11723	-0.09428241
11	0x3dc98315	0.09839455
12	0xbc8a11cf	-0.016854195
13	0x3da906d6	0.08253257
14	0xbcde3187	-0.027123226
15	0xbd22195d	-0.03957497
16	0xbc34ed51	-0.011042909
17	0x3e0c2800	0.13687134
18	0xbccf8440	-0.025331616
19	0x3ca4e5d4	0.020129122
20	0xbc4b3130	-0.012401864
21	0xbd804962	-0.06263997
22	0x3d007819	0.031364534
23	0x3b3b778e	0.0028605196
24	0x3d26b4de	0.040699832
25	0xbbf41a3b	-0.007449416
26	0x3c06a939	0.008219057
27	0x3c8f0fe4	0.017463632
28	0x3cb57460	0.022150218
29	0xba254122	-0.0006303956
30	0xbabe38be	-0.001451276
31	0xbca4e261	-0.020127477
32	0x3c970d23	0.018438881
33	0xbd4d22e5	-0.050082106
34	0x3bf4b6b3	0.0074680685
35	0x3cdc44df	0.026888309
36	0xbd1146f9	-0.035468075
37	0x3b84ba22	0.004050509
38	0xbd532607	-0.051549938
39	0xbc02a0b5	-0.007972886
40	0xbae24c8e	-0.0017265247
41	0xbd1121c4	-0.035432592
42	0xbc92fd95	-0.017943183
43	0xbe17d4cc	-0.1482727
44	0x3c88c9ef	0.016697852
45	0x3e11caee	0.14237568
46	0x3d12bfab	0.03582732
47	0x3bc73d3a	0.006080297
48	0xbd31e347	-0.04342964
49	0xbc7c4380	-0.015396953
50	0x3c2e9b50	0.010657147
51	0x3d6f38e5	0.05840387
52	0xbd8c43ff	-0.06848907
53	0xb8715a0e	-5.7542748e-05
54	0x3c9f7167	0.019463254
55	0x3ca37154	0.0199515
56	0xbd0f2cc8	-0.034954816
57	0xbd7e98c7	-0.06215742
58	0xbca1e226	-0.019761156
59	0xbcda74ab	-0.02666696
60	0xbd57e4c7	-0.052708413
61	0x3ddabfe9	0.10681135
62	0xbdc11c8b	-0.09429272
63	0xbc862e83	-0.0163796

exp_avg f4 [7]
0	0xbab33699	-0.0013672888
1	0x3b9c579b	0.0047711856
2	0xbae017d5	-0.0017096946
3	0x3abe60e5	0.0014524726
4	0xbab83fc2	-0.0014057087
5	0x38e10407	0.00010729586
6	0xb97de24b	-0.00024212261

exp_avg_sq f4 [7]
0	0x39323a3a	0.00016997094
1	0x39d042e3	0.00039722686
2	0x399f5417	0.00030389495
3	0x3a10ec72	0.0005528397
4	0x39dc8ea2	0.0004206794
5	0x398e112c	0.00027097145
6	0x39a917a4	0.00032251806

exp_avg f4 [64, 32]
0	0xb8835531	-6.262435e-05
1	0x3974246b	0.0002328322
2	0x39151286	0.00014216648
3	0x398d0c3a	0.00026902725
4	0xb84a9293	-4.829706e-05
5	0x38978e3a	7.226733e-05
6	0xb9efe94b	-0.0004575945
7	0xb71cc439	-9.344011e-06
8	0xb7000e51	-7.632728e-06
9	0x3908d954	0.00013050932
10	0xb8e4bc0e	-0.00010906915
11	0xb9b04b96	-0.00033625652
12	0xb9afb9bc	-0.00033516984
13	0xb9106451	-0.00013770281
14	0x397527ab	0.00023379798
15	0xba274ec1	-0.00063822797
16	0x373af13e	1.11426325e-05
17	0x36b7ff55	5.4835496e-06
18	0x39820c9d	0.0002480493
19	0x383da85c	4.521791e-05
20	0x3913002b	0.00014019075
21	0xadaad5e4	-1.9421749e-11
22	0xb81acff9	-3.691015e-05
23	0x39e910b7	0.00044453677
24	0xabe158ad	-1.6011824e-12
25	0x37473d39	1.1875579e-05
26	0x373f33ee	1.1396578e-05
27	0x39b4035a	0.00034334772
28	0x3a473e6f	0.0007600551
29	0xb9520124	-0.00020027586
30	0x39d95b0e	0.00041457306
31	0xba976447	-0.0011550271
32	0xb642c055	-2.9020205e-06
33	0x389d3ef3	7.4980686e-05
34	0xb78fa2cb	-1.7122735e-05
35	0x38e55a33	0.00010936372
36	0x3a0d4166	0.0005388468
37	0x39974dc4	0.00028858904
38	0x3b09490c	0.002094808
39	0x388f6bcf	6.838852e-05
40	0xb81ba630	-3.7109654e-05
41	0x394a0722	0.00019266878
42	0xba32b579	-0.00068172027
43	0xba155084	-0.00056958967
44	0xba98ca0d	-0.0011656896
45	0x39c43b32	0.00037428137
46	0xba0e7ef4	-0.00054357876
47	0xb5821b31	-9.693669e-07
48	0xb6fb7e05	-7.4950535e-06
49	0x3663c73e	3.394161e-06
50	0x37ab32bd	2.0408415e-05
51	0xb8c7ca6b	-9.526763e-05
52	0x38ac27ef	8.209037e-05
53	0xadccea06	-2.3296042e-11
54	0xbaa26396	-0.0012389298
55	0x3a0bb337	0.00053291343
56	0xae6e3119	-5.4158542e-11
57	0xba61550b	-0.0008595741
58	0x3a01a826	0.00049460155
59	0xba518acd	-0.00079934
60	0xba35d284	-0.00069359713
61	0x3a803f18	0.0009784428
62	0x39cde82e	0.00039273634
63	0x3ba61f86	0.005069676
64	0x39e88c80	0.0004435517
65	0x3b097498	0.0020974036
66	0x39b419cc	0.00034351496
67	0x3ae947ac	0.0017797849
68	0x3a3ef487	0.0007284362
69	0xbb464f10	-0.0030259527
70	0xbac76bb6	-0.0015214595
71	0xb93a8fcc	-0.00017791911
72	0x36d9c97f	6.490561e-06
73	0x3a6513e4	0.00087386207
74	0x3ac8196b	0.0015266364
75	0xb9c3f335	-0.00037374502
76	0x3b014544	0.0019725123
77	0x3a040f03	0.00050376373
78	0x39e15fa5	0.00042986605
79	0xbab71078	-0.00139667
80	0xb929c2aa	-0.00016189614
81	0xb83cd659	-4.502232e-05
82	0x3afbfd5f	0.0019225291
83	0x39941e3e	0.00028251292
84	0x3a4d57e6	0.0007833227
85	0xae673cbf	-5.2577272e-11
86	0x3b597dda	0.0033186586
87	0x3a9dbc64	0.0012034294
88	0x2f1f5e21	1.4494407e-10
89	0x3a00b3ec	0.0004909623
90	0x3b2305ce	0.0024875286
91	0xb9263423	-0.00015850416
92	0x3bd85a2c	0.006602546
93	0x3ac82fe8	0.0015273066
94	0xbbbc687c	-0.00574976
95	0xbb37c863	-0.0028043024
96	0xb7cc6bbc	-2.4368863e-05
97	0x3a2e1573	0.00066407694
98	0x39d4a206	0.00040556508
99	0x3a42e7bb	0.0007435043
100	0x392242fc	0.00015474478
101	0x390110c0	0.00012308639
102	0x3aa63574	0.0012680725
103	0x36e26a91	6.747731e-06
104	0xb81d24e1	-3.7466063e-05
105	0xba07099c	-0.0005151273
106	0xba00316c	-0.0004890177
107	0x39e5783e	0.0004376787
108	0xba269c18	-0.0006355657
109	0xb8a8580b	-8.0272635e-05
110	0x3a1a4105	0.00058843225
111	0x3a6e4164	0.00090887235
112	0x37146db4	8.84703e-06
113	0x352b3d4e	6.3791674e-07
114	0x39b94dfc	0.00035344053
115	0x390a2274	0.0001317354
116	0x39607e4d	0.00021409355
117	0xae0b752c	-3.170901e-11
118	0xb9fe4bc5	-0.00048503108
119	0x3a3e2922	0.0007254054
120	0xadba3940	-2.1171176e-11
121	0x38d99468	0.00010375009
122	0x3a7211f8	0.0009234245
123	0x3a8d6719	0.0010788172
124	0x3aa7db26	0.00128064
125	0x39dc9fd3	0.00042080748
126	0x39e09833	0.00042838007
127	0x3b4352a3	0.0029803894
128	0x3a02cee6	0.0004989937
129	0xba6b7fe6	-0.0008983597
130	0xba1c28a9	-0.00059569866
131	0xbab318cf	-0.001366401
132	0x397571de	0.0002340744
133	0x3a96da23	0.0011509102
134	0xbb355a43	-0.0027672208
135	0x38c89c84	9.5658965e-05
136	0x388d611a	6.7414905e-05
137	0x39efd8ef	0.0004574726
138	0x39888185	0.0002603644
139	0xba3a2d1e	-0.000710206
140	0xb91ba148	-0.00014842034
141	0xb8d44f99	-0.00010123774
142	0x37d1fc58	2.5032248e-05
143	0xba0fe6bc	-0.0005489399
144	0x366534cb	3.4154389e-06
145	0xb77922f8	-1.4849698e-05
146	0xba63a1be	-0.0008683464
147	0x37cf42d8	2.470745e-05
148	0xba354ac7	-0.0006915745
149	0x2e6152e2	5.123269e-11
150	0x3aaee873	0.0013344422
151	0xba99a957	-0.0011723441
152	0x2e803c7e	5.831512e-11
153	0x3aa71eb3	0.0012750238
154	0x3629ee7c	2.5321779e-06
155	0xbaa47b37	-0.0012548928
156	0xbb802ae8	-0.003911365
157	0xb8828c93	-6.225067e-05
158	0x3b1adaa4	0.0023628855
159	0xbbca1c2b	-0.0061679087
160	0x3876881b	5.877773e-05
161	0xb9985b63	-0.00029059788
162	0xb7bf5596	-2.2808828e-05
163	0x39168cd0	0.00014357571
164	0xb83bc130	-4.4764194e-05
165	0xb8f51305	-0.00011686053
166	0x39a6fa69	0.00031848557
167	0xb7121fbb	-8.709666e-06
168	0x377ce71d	1.5074181e-05
169	0xb96ac358	-0.0002238875
170	0x398e4164	0.0002713307
171	0x399a9670	0.00029485254
172	0x39a73b11	0.0003189673
173	0x395ccfde	0.00021058272
174	0x3a37bf8c	0.00070094387
175	0x3967b27c	0.00022096367
176	0x36f8ac8a	7.411062e-06
177	0xb6b6487f	-5.4324623e-06
178	0xb86d1670	-5.65261e-05
179	0x37f0dc93	2.8712942e-05
180	0xb71420a3	-8.829086e-06
181	0x2d317cb5	1.0088976e-11
182	0xb88b14c3	-6.631904e-05
183	0xb9720f89	-0.00023084706
184	0xac4cd8f6	-2.9110581e-12
185	0x3953c754	0.00020196784
186	0xb9dc69d9	-0.00042040533
187	0x38ced7d6	9.863048e-05
188	0x39b205fa	0.0003395526
189	0x3909e7ef	0.0001315174
190	0x39847b40	0.0002526883
191	0x3a780f0d	0.0009462692
192	0x38154358	3.5587087e-05
193	0xb9ab0939	-0.00032622533
194	0xb8e73357	-0.00011024501
195	0xb9912d23	-0.00027690185
196	0x37baee82	2.2283992e-05
197	0xb933f1cd	-0.00017160848
198	0xba0ef82f	-0.00054538524
199	0xb7e34b87	-2.7095679e-05
200	0x3817f1b6	3.6226316e-05
201	0x3999d9bb	0.00029344656
202	0x3a3dc125	0.00072385586
203	0xb8979d8b	-7.229586e-05
204	0x3910bdc4	0.00013803603
205	0x3a43f809	0.000747562
206	0x3a955b7a	0.001139506
207	0xb9bf4a2d	-0.00036485624
208	0xb81046dc	-3.439827e-05
209	0xb79f77d1	-1.901007e-05
210	0x37431b80	1.1629309e-05
211	0xb7f98bd6	-2.974823e-05
212	0xb883ab6c	-6.2784966e-05
213	0x2d55f233	1.2161427e-11
214	0x3a6594c8	0.0008757827
215	0xb991d788	-0.00027817138
216	0x2e283e17	3.8253924e-11
217	0xb8824c47	-6.213091e-05
218	0xb8d75a98	-0.00010268873
219	0xba04d732	-0.0005067467
220	0xb9c2b3d1	-0.00037136537
221	0x39b721cc	0.0003492966
222	0xb8a30eee	-7.7752265e-05
223	0xba7dc548	-0.0009680581
224	0x391bdf5d	0.00014865161
225	0xb9812a4f	-0.0002463632
226	0x397622e2	0.00023473383
227	0x39a02027	0.00030541533
228	0x39739691	0.00023230376
229	0x388f76bd	6.840888e-05
230	0x3ad15b7a	0.0015972697
231	0x36fb4224	7.4880827e-06
232	0xb7832e89	-1.5638087e-05
233	0x39358b9e	0.00017313517
234	0x38b47c3b	8.6062086e-05
235	0x3962ad15	0.00021617518
236	0xb9a12ba9	-0.00030740842
237	0xb9b26d7a	-0.00034032372
238	0x3a8e553b	0.0010859141
239	0x3a92fd33	0.0011214375
240	0xb7096f40	-8.191739e-06
241	0x35fc32c8	1.8790242e-06
242	0x3858fad3	5.173201e-05
243	0x3918cc1e	0.00014571889
244	0x39412dcf	0.0001842298
245	0x2cfb8fa7	7.1497977e-12
246	0xb9da922c	-0.00041689107
247	0xb92b8f59	-0.00016361232
248	0xada0282c	-1.8207734e-11
249	0x39ae9438	0.00033298298
250	0x39b15da2	0.00033829833
251	0x3a1770d1	0.0005777004
252	0x3992c4c3	0.0002799389
253	0x3a2deb2f	0.00066344714
254	0xb96693a0	-0.00021989504
255	0x3b7cddc0	0.0038584322
