logs/rsl_rl/franka_reach/2025-06-27_10-55-03/model_550.pt (torch, 172795 bytes, 36 tensors)

std f4 [7]
000000 e0 7d b9 3d dc 0f 81 3d ac b2 9c 3d 8a 13 50 3d
       0.09057212 0.06301853 0.076512665 0.050799884
000010 8e a2 82 3d 89 65 86 3d 3d 71 99 3d
       0.06378661 0.06562335 0.074923016

actor.0.weight f4 [64, 32]
000000 b7 38 47 be d8 d2 26 3e 3e f3 4d be 53 05 e1 3d
       -0.19455229 0.16291368 -0.20112321 0.10987344
000010 f3 3a 8e 3e 3b cd 9e 3d d0 ff f9 3e e3 a4 a2 3e
       0.2777935 0.07753988 0.48827982 0.31766424
000020 0e 60 1a 3f 1d 9e 74 bc 1e e1 c9 bd 56 00 a0 3d
       0.6030282 -0.014930275 -0.09857391 0.07812564
000030 1c 02 a3 3d 6e 8d 9c 3d ff fc fc 3c 62 40 7d 3d
       0.07959387 0.07644163 0.030882357 0.06182898
000040 e8 61 aa 3b af 4b 9a be 99 24 7d be 13 99 fe bf
       0.0051996596 -0.30135867 -0.24720992 -1.9890465
000050 dd 3b ab 3e 7e f2 bc bc 13 9c bc bf 8f e0 07 3f
       0.3344411 -0.023064848 -1.473513 0.53077024
000060 67 37 18 be 6d d2 ca bd 3b 57 3a be 8c 5e 36 be
       -0.14864884 -0.09903417 -0.18197338 -0.17809504
000070 4a 3a 9f bb fa 83 05 be 43 07 64 3d 89 c1 35 3e
       -0.0048592435 -0.13038626 0.055670988 0.17749609
000080 88 a3 be 3e 1b 7d 80 3e 72 bd b4 3e ff 98 79 3f
       0.3723414 0.25095448 0.35300785 0.9749908
000090 2b f0 05 3f 88 71 f5 3e f6 64 d3 bd 78 fd 4e be
       0.5231959 0.4793818 -0.10321991 -0.20213878
0000a0 d5 59 93 3c 27 e2 d4 3d 90 42 21 bd 2d 10 de 3d
       0.017987171 0.10394698 -0.03937012 0.10842929
0000b0 c8 73 ce 3d bb 66 1e bd 04 86 90 bd ad 2a d3 3d
       0.10080677 -0.03867219 -0.070568115 0.10310874
0000c0 5f 1c 48 be 06 95 03 3e 07 a8 4d bf 87 35 a3 bf
       -0.19542073 0.12849817 -0.80334514 -1.275071
0000d0 6d 36 96 bd 33 df 14 3e 90 6f b9 3e 35 3a 06 3d
       -0.073346 0.14538269 0.36217928 0.032770354
0000e0 8a 46 68 3d d6 e9 80 bb ae 9c 51 3e 46 50 c8 bd
       0.056707896 -0.0039341254 0.20469925 -0.09780936
0000f0 b0 4a 94 bd 4b c1 74 bd 15 b3 b3 3d 66 ff db bd
       -0.07240808 -0.05975465 0.087743916 -0.10742073
000100 41 fe 79 3f 6a b3 ff 3d df 45 68 3f 57 8c 02 bf
       0.97653586 0.124853924 0.90731615 -0.5099539
000110 f8 20 9f bd 2c 11 03 be bb 3e 91 3e 62 96 c5 3e
       -0.0776996 -0.1279952 0.28368172 0.38591295
000120 78 3f 1f 3f c9 eb 30 be b3 d9 87 3d c9 36 5f be
       0.6220622 -0.17277445 0.0663332 -0.21798243
000130 68 34 5a bc 14 7d ee bc 64 3b a0 3d 1f 96 a9 3d
       -0.013318159 -0.029112376 0.07823828 0.082805865
000140 17 4a 31 3e 4b cf dc bd 54 20 ab 3e d6 f8 3f bf
       0.1731342 -0.107817255 0.33423102 -0.7498907
000150 21 f2 1b 3f 54 57 22 bd 49 ef a8 bd 0b d2 77 be
       0.60916334 -0.039634064 -0.08248765 -0.24201219
000160 bd 2a b5 bd 38 0b 2c 3d eb cf 79 3e 52 7c b7 3b
       -0.08846042 0.042002887 0.2439572 0.005599537
000170 bb 69 38 3e ff 72 e1 3d 62 ef 88 be 84 b1 0c be
       0.18009083 0.11008262 -0.26745135 -0.13739592
000180 46 75 2b be aa 0a 22 be cb 1e 46 3e 00 b1 a6 bd
       -0.16743955 -0.1582438 0.19347684 -0.08139229
000190 4f e9 84 3d ba 13 a6 3e 75 36 a5 3e 84 dc 4d be
       0.064898126 0.32436925 0.3226811 -0.20103651
0001a0 a9 e0 1b 3d be e0 42 bd 9e f0 2d bd c0 5a b9 bd
       0.03805605 -0.047577612 -0.0424658 -0.09050512
0001b0 10 ce cc bd 6d 81 24 be d8 83 7a 3d 4e d7 5b bc
       -0.10000241 -0.16064997 0.061160892 -0.013418032
0001c0 78 0c 05 3f 0b 4c 9f be 5f ad 7f bf a7 b7 a4 3d
       0.5197215 -0.31112704 -0.9987392 0.080428414
0001d0 c2 e2 48 3f a0 69 21 be 5b f8 f4 be bd 68 30 bc
       0.78471005 -0.15762949 -0.4784573 -0.010767159
0001e0 1e da 60 ba cb 1d 9d 3e b4 1e 32 3e eb c7 27 be
       -0.0008577424 0.30686793 0.17394525 -0.16384856
0001f0 e2 31 a6 3b d8 b4 54 be 14 6a 3a be 68 53 05 be
       0.0050718645 -0.20772111 -0.18204528 -0.13020098
000200 6b 99 a2 bd e4 40 f1 bb aa 24 fe 3c a0 d7 98 3e
       -0.079394184 -0.007362472 0.031023342 0.2985201
000210 a6 2a c0 be c3 eb 3a 3f ba c7 12 be cd 5d 0f be
       -0.37532538 0.73015994 -0.14334002 -0.14000626
000220 e9 74 f3 bd 32 28 2a bd 17 77 dd bc d6 b7 11 bd
       -0.11887533 -0.04154224 -0.027034326 -0.03557571
000230 33 93 79 bd 4a 7e 6a 3d 60 f0 9e 3c 1f 56 23 be
       -0.060931396 0.057249345 0.01940173 -0.15950821
000240 45 70 57 3e 58 89 47 3f 14 a0 99 be 96 9f 06 3f
       0.21038921 0.77943945 -0.30004942 0.5258726
000250 74 4d 86 3f b1 46 0d be d7 ac 24 bd 93 a1 2d bf
       1.0492387 -0.13796498 -0.040203895 -0.6782467
000260 38 7f 8b bc 6b 66 f2 be b9 41 b4 3e 5c cd a5 3d
       -0.017028436 -0.47343764 0.35206392 0.0809581
000270 1b ec 84 bd 37 47 d8 3d 3e f7 f9 bd fb 48 53 3d
       -0.06490346 0.10560458 -0.12205361 0.05158327
000280 4f 1d f3 3d fe 52 8d be a0 5e a3 be b0 63 dd bd
       0.118708245 -0.2760238 -0.3190813 -0.108100295
000290 66 b2 16 3e b8 36 07 3e ce ed 1b 3d c0 c3 8b 3e
       0.14716491 0.13204467 0.038068585 0.27297783
0002a0 6b 38 31 3e c1 a0 04 be 06 5c 8b be 77 83 ab bd
       0.17306678 -0.12951948 -0.27218646 -0.08374684
0002b0 49 b9 3b 3e 78 1f 73 bd 12 98 03 bd e2 97 d5 3d
       0.183324 -0.059356183 -0.032127447 0.1042936
0002c0 70 1a 1d 3f a8 92 58 3f ae e6 47 bd f0 0e 12 c0
       0.61368465 0.8459878 -0.048803978 -2.2821617
0002d0 38 7e 55 bf a8 d0 b4 3d e3 d9 ff 3d 82 4b 14 3f
       -0.8339572 0.088288605 0.124927305 0.57927716
0002e0 42 be bb 3d ac 90 d1 bd ff e7 68 3e 67 67 4c bd
       0.09167148 -0.10232672 0.2274475 -0.0499033
0002f0 c9 38 89 be ec 8f 2f 3e d3 a8 85 3e 4c bd ed bc
       -0.26801136 0.17144746 0.26105365 -0.029020928
000300 01 be c4 3e e2 f2 83 bd 2e 1c 34 3f ad d1 8a be
       0.3842621 -0.064428106 0.703555 -0.27113095
000310 6c 89 2e be 4a 53 6a 3e e7 73 c9 39 34 17 84 3e
       -0.1704461 0.22883335 0.00038424061 0.25798953
000320 be dd 93 3d ef 11 35 3e 23 bf 59 bc af f6 93 3d
       0.07220028 0.17682622 -0.013290199 0.072247855
000330 d7 83 15 3c 15 f6 6e bb 54 38 f3 3c 3b b2 fe bd
       0.009125671 -0.0036462594 0.029689945 -0.124363385
000340 2c d1 c6 3d 63 52 10 3e 6b f1 4d 3e e1 7c 24 3f
       0.09707865 0.14093928 0.20111625 0.6425305
000350 16 aa 40 be a9 55 dc bd 5b 67 cb be 06 0a 07 3f
       -0.18814883 -0.10758526 -0.3972729 0.5274967
000360 93 ce c2 3c 28 d9 84 3d 94 92 c1 3d 1c bb 1c 3e
       0.023780143 0.06486732 0.09451786 0.15305752
000370 6e fe 8c bb 8c da 14 3e 36 bd 0f 3e 45 40 d4 3c
       -0.0043027913 0.14536494 0.14037022 0.025909552
000380 7a 27 91 3f 4c f9 a3 3d 51 bf 83 3f 9c 3c 05 be
       1.1340172 0.08006534 1.029276 -0.13011402
000390 c9 e1 ee be 4b 6f a5 be 5b 52 0a bf 01 63 9b 3e
       -0.46656635 -0.32311472 -0.54031914 0.3034897
0003a0 0c ae 45 3e c3 1e 0b 3d 2c e4 48 bc 11 b1 d8 3d
       0.19304675 0.033964884 -0.012261432 0.10580648
0003b0 1f 78 15 3e 51 2b b2 3d 51 8a 9e bc 1b 8d f9 bc
       0.14596604 0.08699668 -0.019353064 -0.030462792
0003c0 72 2d 36 be 5d d2 2e bf 7a c1 7f be 41 6c 2d bf
       -0.17790774 -0.6828974 -0.24976149 -0.6774331
0003d0 de fc 11 bf 44 63 fe bd 03 9e 83 bf 0d 38 c2 3e
       -0.5702647 -0.12421277 -1.0282596 0.37933388
0003e0 2b 83 83 bd e1 c0 97 bd 1d eb 70 bd b0 cc 8d be
       -0.06421503 -0.074098356 -0.05881797 -0.27695227
0003f0 1c b8 c8 bc ac ff 04 be e9 a2 dc 3d e3 72 82 bd
       -0.024501853 -0.12988156 0.1077326 -0.06369569

actor.0.bias f4 [64]
000000 35 16 3a be 35 43 b1 3d 54 4f cc be ad 10 60 3d
       -0.18172534 0.08655397 -0.39904273 0.054703403
000010 d5 e5 90 3d 40 36 ad be 9f b9 b2 be 7c fd c3 bd
       0.07075087 -0.33830452 -0.34907243 -0.09569833
000020 97 47 a8 3e 68 c0 4d 3e 50 37 ac bd c8 6d 16 3e
       0.3286712 0.20092928 -0.084089875 0.14690316
000030 77 11 c4 3d 15 1b a4 be d3 79 99 be c8 e8 80 be
       0.09573644 -0.32051912 -0.29975757 -0.25177598
000040 93 3c 1e 3f 95 e3 09 3e d9 46 64 3e 13 ec 2b bb
       0.6181118 0.13465722 0.22292651 -0.002623324
000050 a5 fa 85 3e e5 99 fd 3d 59 f8 05 be f2 33 c8 3d
       0.2616779 0.12382869 -0.13083018 0.09775533
000060 0a e4 15 bf 68 c1 37 3f bf d7 ad 3c 10 62 83 be
       -0.58551085 0.7177949 0.02122104 -0.25660753
000070 78 95 d7 bd 06 7b a8 3d 2d 2b be bd 69 8b b5 3e
       -0.10526556 0.0822659 -0.09285579 0.35457924
000080 08 f9 ee be 96 f0 66 3c 0a 12 94 3d 36 60 e4 bc
       -0.4667437 0.014095446 0.07230003 -0.027877908
000090 f7 07 71 3e b4 a6 97 3e 75 54 5e be b9 50 84 bc
       0.23538195 0.29619372 -0.21711905 -0.016151773
0000a0 25 c2 23 3e 7b 34 38 be 1f f1 e8 3e 62 30 00 bd
       0.15992029 -0.1798877 0.4549646 -0.03129614
0000b0 b5 52 e6 3e ff 80 94 3e c1 a3 5e be 89 51 1d 3d
       0.44984975 0.29004666 -0.21742155 0.038407836
0000c0 17 01 92 3e 39 20 b9 bd 80 cf 3f be 47 e1 63 be
       0.28516456 -0.09039349 -0.18731499 -0.22253905
0000d0 fc 99 27 3e 1e 2d 0f 3e 47 b6 cd be df ac bc be
       0.16367334 0.13982055 -0.4017813 -0.3685064
0000e0 72 a9 cf be 32 59 17 bd 0c 87 3a 3e 4b 85 e6 3e
       -0.40558964 -0.036950298 0.18215579 0.4502357
0000f0 f3 8e 61 bd 02 34 0b 3e c0 71 9f 3e 7e 15 01 bd
       -0.055067968 0.13594058 0.31141472 -0.031514637

actor.2.weight f4 [64, 64]
000000 c7 37 55 bc 0b 7c 84 be f5 ec 9a 3e 04 78 c7 bc
       -0.013013787 -0.25875887 0.3025891 -0.02434922
000010 d3 a3 08 3e a2 5b 3a bd a2 99 26 3e 59 98 11 3d
       0.13343744 -0.045497544 0.16269544 0.03554568
000020 e1 53 1f bd 4b 77 9e be c2 8d 4a 3e e3 97 5b 3e
       -0.038898353 -0.30950388 0.19780639 0.21444659
000030 d4 2b 82 bd e5 30 da bb 08 7b 30 be b5 22 c3 be
       -0.06356016 -0.0066586607 -0.17234433 -0.38112417
000040 93 25 cd 3d 79 76 12 3d 8b 5e df bc 1b 2e 9c bc
       0.10016932 0.035757516 -0.027266761 -0.019064954
000050 07 04 37 bd e6 f4 84 3e 45 59 8b 3d 7b 65 d3 3d
       -0.044681575 0.25968093 0.06804136 0.1032209
000060 bb 88 a1 3e ff 2d 99 be 4c 65 02 be fe 25 4b 3e
       0.3154963 -0.29917905 -0.12733954 0.19838712
000070 e7 fd a7 3e af 82 5a be 0c 99 e2 3d 15 6e 57 3e
       0.328109 -0.21338914 0.110643476 0.21038087
000080 f8 5f af 3d 85 10 8e 3e 3c 33 ac bd c8 45 6b be
       0.085632265 0.27746978 -0.0840821 -0.22975838
000090 d1 33 4a be a9 65 d3 bd 40 20 7f bc e5 8b 91 bd
       -0.19746329 -0.103221245 -0.015571654 -0.07106761
0000a0 b6 e6 1b be d1 51 a0 bd b4 b1 e6 b8 f8 f3 8d 3d
       -0.15224728 -0.07828105 -0.000110003544 0.06931299
0000b0 8e 4e c3 bd fe 93 0d 3d 84 b7 ac 3d a3 78 99 bd
       -0.095364675 0.034564964 0.0843344 -0.07493713
0000c0 4d c6 4a 3d df 8c d8 bd dd f3 46 3e 09 6d 0e 3d
       0.04950552 -0.10573744 0.19428964 0.034771953
0000d0 43 26 41 3e 00 29 8f bc 2c 2e 30 be 20 a0 f3 bc
       0.18862252 -0.017475605 -0.17205113 -0.02973944
0000e0 ac 48 a0 bb d9 27 dd bd 71 f1 f7 3d 36 66 ce bd
       -0.0048914757 -0.10798616 0.12106598 -0.10078089
0000f0 b4 38 77 be 50 6f 4c bb 24 73 12 3e 2e e5 6d bd
       -0.24142724 -0.0031194277 0.14301735 -0.05807989
000100 0c f2 d4 3d d9 2c 4d be cb dd db be 9c 5a 2c 3e
       0.10397729 -0.2003664 -0.42942652 0.1683144
000110 36 ed 72 bd ee 92 f0 ba e3 4e 37 bd 34 71 a9 bc
       -0.059308253 -0.0018354335 -0.044752967 -0.020683862
000120 cd 64 de 3d 7c d1 4c 3e 80 69 8f bd a6 e4 23 3e
       0.1085907 0.20001787 -0.070025444 0.16005191
000130 23 88 bf bd fb b8 0b be 5b 26 18 be 93 0f ca bc
       -0.09352138 -0.13644783 -0.14858381 -0.02466563
000140 57 15 29 3e 62 62 2b bd 18 2e 5d 3e 1c 04 e4 37
       0.16512047 -0.041841872 0.21599615 2.7181632e-05
000150 3c 96 f8 3d 63 26 80 bd 96 4c 85 3d 68 15 40 3e
       0.1213803 -0.06257322 0.06508748 0.18758166
000160 a0 95 fc bd 36 1a 0a bc 66 8e b9 3c 17 8e 9d bd
       -0.12333226 -0.008429101 0.022650909 -0.07693117
000170 7e b4 3c be ed d8 52 3e 4a 4a 0a 3e 58 c7 93 3e
       -0.18428227 0.20590563 0.13504902 0.28863025
000180 c6 01 8a bd 2c 82 bf bd f3 cb 20 bd 88 9c 26 be
       -0.067386195 -0.09351 -0.039257 -0.1627065
000190 b5 46 62 3d 76 24 58 3e 30 c2 1d bd c2 7a d7 3d
       0.055243213 0.21107659 -0.03851527 0.10521461
0001a0 01 1c 68 bd 7f 23 ad bd ba a2 84 bd 43 de 96 3d
       -0.05666733 -0.08454036 -0.0647635 0.07366612
0001b0 98 03 87 3e 5a 37 d3 3d 90 52 f8 bd 20 6e 2d 3e
       0.2636993 0.10313292 -0.121251225 0.1693654
0001c0 49 57 d5 3b 49 fe 18 3e d0 b0 86 3d b6 b3 7a 3d
       0.0065106493 0.14940752 0.06576693 0.061206542
0001d0 bb 79 80 bd f7 e9 85 3d 79 de 1b be f2 64 21 be
       -0.06273218 0.06538766 -0.15221585 -0.15761164
0001e0 02 c4 0a be 69 55 4f be ee ba 75 3d a1 4d 22 3e
       -0.13551334 -0.20247425 0.059992723 0.15849926
0001f0 f7 75 f6 3d b4 60 61 3e 48 f3 c9 bd b5 d9 00 be
       0.12034219 0.22009546 -0.09860855 -0.12583049
000200 9f 90 4f 3c 5c 93 d1 be 56 01 35 3d bf a2 eb bd
       0.012668758 -0.4093274 0.044190727 -0.11505651
000210 35 c3 94 3d cc d6 2f be 0d 15 23 bc 4e a7 f6 bd
       0.07263795 -0.17171782 -0.009953749 -0.120436296
000220 07 5d 0f 3d 3f 0d c1 be 9f a2 83 3c 23 8e 49 3d
       0.035000827 -0.37705418 0.016068755 0.049207818
000230 0f dc 82 be e1 ed 9e bd 49 fc d7 be 94 e0 37 be
       -0.25558516 -0.077602156 -0.42184666 -0.17956764
000240 90 1b 89 3d 45 47 32 3d 74 cf 3c bc 11 32 8c 3c
       0.0669471 0.043525 -0.01152407 0.017113717
000250 ef 19 a6 bc 62 23 6d 3e e0 cd 8f 3e c8 3f 12 bd
       -0.020276038 0.23158029 0.28086758 -0.035705358
000260 51 ee 1a 3e 93 04 0b bd 85 ef 53 be c9 04 57 3e
       0.15129973 -0.03393991 -0.20696838 0.20997919
000270 8f 08 c1 3e bd 25 24 3e c3 8d a0 3d 60 ce 99 3e
       0.37701842 0.16030021 0.07839539 0.30040264
000280 f9 9c b9 3d ca ec 87 3e 07 01 ac 3d 29 7e d9 be
       0.09063143 0.26547843 0.083986335 -0.42479065
000290 a1 92 db be 27 3d 4f be 1c 3e d2 bd 06 ab 31 be
       -0.42885306 -0.20238172 -0.10265753 -0.17350397
0002a0 52 2f 25 be 4c 28 45 be 74 16 f7 bd b6 6d 0a 3d
       -0.16131333 -0.19253653 -0.120648295 0.033796035
0002b0 4b 90 0a be fa 77 11 3e e5 ed 83 3e f2 3a bb bb
       -0.13531606 0.14205924 0.25767437 -0.005713814
0002c0 42 f4 ed 3d 97 8b 97 bd 5b 1e 18 3e 7b 89 9d bd
       0.11618854 -0.073996715 0.1485533 -0.07692238
0002d0 47 a0 cb bd df 26 b2 3d b7 e0 4f be a4 26 c6 3c
       -0.0994268 0.0869882 -0.20300566 0.024188347
0002e0 5f 44 d5 bd af 21 32 3c 31 4e 06 3e fa 56 84 bc
       -0.104134314 0.010872289 0.13115765 -0.016154755
0002f0 78 1c 83 be ca cd e1 3d d9 7e 18 3e 19 b9 0d bd
       -0.25607657 0.11025579 0.14892139 -0.03460035
000300 89 13 01 bd 21 29 df bd b2 3b 0b be 09 34 a2 bd
       -0.03151277 -0.108965166 -0.1359699 -0.07920081
000310 c4 73 e8 bd 05 77 00 3e ce ad b4 bd be a0 87 3e
       -0.113502055 0.12545402 -0.08822213 0.26489824
000320 8f 8d 53 3d 18 ea b3 3d 0e 52 d3 bd 5f b7 df bd
       0.051648673 0.08784884 -0.10318385 -0.10923647
000330 b5 f7 4a 3e 40 61 86 bd 1c e7 e8 bd 0c 94 b9 3c
       0.19821055 -0.06561518 -0.113722056 0.022653602
000340 15 7e d3 3d 0d b3 3a 3d 95 16 33 3e cb 99 d7 3d
       0.103267826 0.045580912 0.17489083 0.105273806
000350 eb ec c1 3d d5 81 3a 3e f3 4f 23 bc a4 2a 97 3d
       0.09469017 0.1821359 -0.009967792 0.0738118
000360 b2 04 df be b0 d6 cf 3d 3f 2b 81 3e d3 c0 93 be
       -0.4355827 0.1014837 0.25228307 -0.2885805
000370 21 68 59 be 69 32 22 3d 93 5a f8 3c ae 13 bd 3d
       -0.21231128 0.039598856 0.030316627 0.09232269
000380 e5 8b 0c 3c ce 9e 8b 3d c9 7e 78 3d 6f 04 bb 3c
       0.008578275 0.06817399 0.060667787 0.022829263
000390 03 1f 99 3e 7a 84 bc 3d 75 3a 9e 3d 69 10 19 be
       0.29906473 0.092049554 0.077259935 -0.14947666
0003a0 bb 4c ac 3c 5c 2e e1 bd e1 a2 d4 bc bc 86 59 3d
       0.021032682 -0.109951705 -0.025956573 0.05310701
0003b0 26 66 22 3e bb ab 7a 3d 76 b3 c8 bd 1f 2e 91 3e
       0.15859279 0.06119893 -0.097998545 0.283555
0003c0 7f e4 5e bc 2b 41 96 3d 74 ad 13 be e1 3b 89 3d
       -0.013604282 0.073366486 -0.14421636 0.06700874
0003d0 87 28 0a be bf c9 85 3e 82 d7 67 be 88 eb c5 3c
       -0.13492022 0.26130483 -0.22640803 0.024160162
0003e0 49 93 02 be 53 af cd bd fe 5d 7f 3e 47 42 2b 3e
       -0.12751497 -0.10043206 0.24938199 0.16724502
0003f0 f3 26 19 3b 17 af ec 3d e6 c1 ba 3d 81 02 c7 3e
       0.0023369163 0.11556833 0.091190144 0.38869098

actor.2.bias f4 [64]
000000 cc 62 79 be 29 da d9 3b 7a 09 06 be ec 10 e4 3d
       -0.24354094 0.006648321 -0.13089553 0.1113604
000010 cc e7 ac bd 82 4a e1 bd 1f ba 49 be 28 6c 99 be
       -0.08442649 -0.11000539 -0.19699906 -0.2996533
000020 12 c3 d9 bd ac 72 28 bc c9 d1 79 be 9e cd d2 be
       -0.1063291 -0.010281246 -0.24396433 -0.41172498
000030 dc f3 93 be 30 66 1f bd 81 34 4f 3e ed 59 36 be
       -0.28896987 -0.038915813 0.20234872 -0.17807741
000040 82 0d 11 bd 0e ba a9 be d2 66 57 be 9e e7 59 be
       -0.035413273 -0.3314976 -0.21035317 -0.21279761
000050 11 9a 95 be 65 0f 81 be e1 68 45 be d9 8f 71 be
       -0.29219106 -0.25207058 -0.1927829 -0.2359003
000060 d2 23 93 be e4 63 88 be 4c c2 89 be cc 0f 3d be
       -0.28738266 -0.2663871 -0.2690605 -0.18463057
000070 9d 38 c9 bd c0 d7 97 be 43 48 7b 3e 51 67 c6 be
       -0.09825251 -0.29656792 0.24539284 -0.387507
000080 25 af 7e bd ce da d5 3d 1c fc 81 be 22 c2 25 be
       -0.06217875 0.10442124 -0.25387657 -0.16187337
000090 80 a1 b0 be 60 ae 70 be ed 8f 43 be 9f 65 59 bd
       -0.34498215 -0.23504019 -0.19097872 -0.05307543
0000a0 1c 8d 9e be 2b 7c 69 be ab 9c 3b bd a8 ff a1 bd
       -0.30967033 -0.22801273 -0.045803707 -0.07910091
0000b0 8c 70 58 be 8e 0f c4 be 20 dd 00 bc 40 30 08 be
       -0.21136683 -0.38293117 -0.00786522 -0.13299656
0000c0 e6 e7 cf 3d 73 b3 4e be c5 5e af 3c b9 a1 34 b9
       0.10151653 -0.20185642 0.021407494 -0.00017226384
0000d0 0c f2 50 be 8f 6d 1a be a1 f7 ab bc 5c e5 89 be
       -0.20404834 -0.15080856 -0.020992102 -0.269328
0000e0 6e 07 f5 bd d2 e7 70 bd 75 1b 1a bd e0 72 4f be
       -0.11964308 -0.05881483 -0.03762384 -0.20258665
0000f0 7d cc a6 be e4 53 64 be 08 7b 9e 3c f3 d1 f6 3c
       -0.32577887 -0.22297627 0.019345775 0.030129408

actor.4.weight f4 [7, 64]
000000 44 17 15 bc 15 3f 54 3e fa de 89 3d c1 14 b8 bd
       -0.009099785 0.20727189 0.067319825 -0.089883335
000010 72 0c 99 bc 60 b1 e4 3d 5e f4 90 3d 3a db 35 3d
       -0.018682692 0.11166644 0.07077859 0.044398524
000020 ea 96 4d be b3 46 93 3d ec 55 22 3e 4f 56 f6 3d
       -0.200771 0.07191219 0.15853089 0.12028181
000030 c1 1a 46 3d 72 07 32 3e 17 9a 77 3e ac 87 5a be
       0.04836536 0.17385653 0.24179874 -0.21340817
000040 05 ad ba 3d e4 21 da 3a 7a e1 d1 bc 63 79 c4 3c
       0.09115032 0.001664218 -0.02562021 0.023983663
000050 1c 7b 99 be 13 97 88 3d 2f 46 7e 3d d8 34 e3 bd
       -0.29976737 0.0666944 0.06207865 -0.110940635
000060 8d 07 c0 bb 7a b9 18 3e ac 65 95 bd 24 0d 81 bc
       -0.005860275 0.14914504 -0.07294783 -0.015753336
000070 4c 3e e4 3d a0 a5 97 bd 71 32 06 bd 1f a8 62 3a
       0.11144695 -0.07404637 -0.03276295 0.0008646268
000080 a2 f0 15 3e b8 99 68 3e 08 19 57 3e a8 38 86 3d
       0.14642575 0.22714889 0.21005642 0.06553775
000090 24 3b c0 bd ac 66 eb 3d 0f 9e 04 3d 59 54 f8 3d
       -0.0938628 0.114941925 0.0323773 0.12125463
0000a0 d8 43 55 3e 79 5c 83 3d 5a 06 84 be 05 7d d8 bc
       0.20826662 0.06414122 -0.25786096 -0.026426801
0000b0 73 7e f1 3c 58 3b 09 bc 37 5f a2 3e b3 0e 84 bc
       0.029479241 -0.008375965 0.31713268 -0.01612029
0000c0 4d 39 12 3e 8c 8e 90 bc 1d 84 19 3e 77 26 db bc
       0.14279671 -0.017646097 0.14991803 -0.02675174
0000d0 19 2f ed bc d3 1c 1e 3b b1 6e 86 3c b8 e4 9c bd
       -0.028953122 0.0024126067 0.016410204 -0.07660812
0000e0 9e 73 1d 3e 74 b8 6f be 90 03 bb 3b 7b 35 20 3d
       0.15376136 -0.23410207 0.005707212 0.039113503
0000f0 93 0c d9 3d f0 f9 66 3e f4 9c b8 3d 08 ee 16 bd
       0.105981015 0.22556281 0.090143114 -0.036848098
000100 26 b0 c6 3d a6 32 bc 3d 69 fb 41 3e 79 33 81 3d
       0.097015664 0.09189348 0.18943562 0.06308646
000110 dd 75 c6 bd 28 c3 83 bd 0a b9 1b be 1e 17 ea bc
       -0.096904494 -0.064337075 -0.15207306 -0.028575476
000120 e2 c8 04 bd 7b a7 77 3d 23 06 78 be 38 35 47 3c
       -0.03241814 0.060462456 -0.24221091 0.012158684
000130 59 5e e0 bc ab 49 b2 bc fa 4d 80 3d bc 6e ea 3d
       -0.027388738 -0.021763643 0.06264873 0.11446902
000140 0d d8 2e be 2d 99 20 be 82 12 6c 3e 48 39 f4 bd
       -0.17074604 -0.15683432 0.23053935 -0.11924988
000150 f6 9f 00 bd 1c 88 1a 3e 4f 66 f2 3c 2f 51 f5 bc
       -0.03140255 0.15090984 0.0295898 -0.029945938
000160 a4 c2 38 be 75 c8 87 3d e7 d2 2e be de 21 35 bd
       -0.18043 0.06630031 -0.1707264 -0.04422175
000170 89 6e d6 3c b8 4c ab 3d 1c d5 81 3e 03 40 07 3d
       0.026175754 0.08364242 0.25357902 0.03302003
000180 8e 84 41 3e f9 be c7 bd 17 0f 23 be 2e 6c 8f be
       0.18898222 -0.09753222 -0.15923725 -0.28012222
000190 92 34 3e be 78 40 81 bd 07 a3 90 3e ef 96 5a 3d
       -0.18574741 -0.063111246 0.2824938 0.053366598
0001a0 16 dc e9 bd 2a f7 09 bd 7e 32 8a bd 13 f0 50 3d
       -0.11418931 -0.03368298 -0.06747912 0.051010203
0001b0 bf 9c 85 3e 0a 12 0d be 8c ed 43 3e ca 44 24 bb
       0.2609615 -0.13776413 0.19133586 -0.0025065416
0001c0 05 13 2a 3e 8b e4 05 3b 4c 7c 17 3e 79 cf f8 bc
       0.16608818 0.0020430412 0.14793509 -0.030372368
0001d0 70 3c 91 3c 1c 89 38 be 97 cf e4 bd 06 98 4b 3d
       0.017729014 -0.18021053 -0.11172407 0.049705528
0001e0 4e e9 93 3c d8 a5 94 3d 18 5d 8c bd 7c 40 9d be
       0.018055584 0.07258195 -0.06853694 -0.3071326
0001f0 91 57 94 3d 62 28 27 3d e3 33 94 3d 24 42 92 3d
       0.072432645 0.040809996 0.07236459 0.071415216
000200 29 be 9a 3d 5b a0 9e bb 7d 36 16 3e 45 8c d5 bd
       0.075558014 -0.004840893 0.14669223 -0.10427145
000210 6c d5 e8 bd 3e 59 34 be c1 c7 41 3e c3 17 a4 3d
       -0.11368832 -0.17612168 0.18923856 0.08012345
000220 6b 87 a3 be 45 b3 35 3e a8 5d 0b 3e 83 18 20 3c
       -0.31939253 0.17744167 0.13609946 0.009771469
000230 cd 7d 00 3c 42 d9 fa bd ef 02 8c 3e 17 99 c8 3d
       0.007842493 -0.1224847 0.27345988 0.097948246
000240 0d 8f 4f be 6c 3e b6 bd 9f 8c 1c 3d 56 3e f5 3d
       -0.20269413 -0.08898625 0.038220044 0.1197478
000250 54 41 7f be 14 a0 2f 3d 90 e1 f8 3d f4 4e 30 be
       -0.24927264 0.04287727 0.12152398 -0.17217618
000260 39 f9 31 bd 92 21 8c 3d 16 e4 ec bc d0 8f f9 bd
       -0.043450568 0.068423405 -0.028917354 -0.12185633
000270 00 c5 cd 3d 31 26 f5 bd 67 d8 84 be 5d 8f 3f 3e
       0.100473404 -0.11970175 -0.25946352 0.18707033
000280 10 13 ce 3c 0d fa 43 3e af c3 8b 3d 6b 4e d7 3d
       0.025155574 0.19138356 0.06824433 0.10513004
000290 67 fe d6 3d dd af d8 3c 0c a9 b9 3d c0 50 14 3d
       0.10497742 0.026451046 0.09065446 0.03620982
0002a0 b1 b3 49 3e 49 a8 98 bd 11 36 b5 bd c8 1e 8d bd
       0.19697453 -0.07453973 -0.08848203 -0.06890637
0002b0 31 28 31 be 54 12 1c be 9e 13 c2 3e 21 7f f8 3d
       -0.17300488 -0.15241367 0.37905592 0.12133623
0002c0 b0 0b 1c bd 44 b8 05 bd 52 d9 a1 3d 2d 7d 4b bd
       -0.038097084 -0.032646433 0.07902779 -0.049679924
0002d0 3c 6b 4b 3d 4c 5a 27 bd b3 a8 b3 bc 03 01 68 bd
       0.049662814 -0.0408576 -0.021931028 -0.05664159
0002e0 b0 19 07 3e d3 86 3f be 7d f0 be bd 54 49 84 bd
       0.13193393 -0.18703775 -0.09323213 -0.06459299
0002f0 0a ea c3 3d 40 4c 41 3e e2 da 15 3e 11 72 bf bd
       0.09566124 0.18876743 0.14634278 -0.09347928
000300 06 2f 83 3e 78 ba e2 bd 14 90 8a 3e a3 09 2d be
       0.25621814 -0.11070722 0.27063048 -0.16898207
000310 59 60 e9 bd 92 66 47 bc 79 9c b7 3d cf bd 56 3e
       -0.1139533 -0.012170451 0.08965392 0.20970844
000320 e1 4e b2 3d 4c 2b 68 bd 53 9e 81 3e 52 fb a8 bd
       0.08706451 -0.056681916 0.25316104 -0.082510605
000330 e8 36 59 3e ab d9 50 be d3 4f ca be d0 1a df bd
       0.21212351 -0.20395534 -0.39514026 -0.10893786
000340 ad 3f b1 3c d9 85 b1 3d f9 68 89 3e c3 8b 58 be
       0.021636808 0.086681075 0.268379 -0.21147065
000350 e7 5c b6 3d f5 b1 e5 3d 26 9f bf 3c ec c0 62 be
       0.089044385 0.11215583 0.023391318 -0.22143906
000360 8c 01 26 3c f6 14 71 3d 89 5c 4e 3e 2e 60 ed 3c
       0.010132205 0.05885788 0.20152487 0.028976526
000370 e4 e9 6b be 92 4e 42 3e af 08 f5 bb 45 a7 8d bd
       -0.23038441 0.18975285 -0.007477842 -0.0691667
000380 b0 4e 1d 3e 70 cb 8b 3d 29 db f5 3c da b7 6d 3d
       0.15362048 0.06825912 0.03001173 0.058036663
000390 29 4b 38 3d ba db ac 3d 8b 40 c2 3d da f3 d5 bd
       0.044993553 0.08440347 0.09484967 -0.104469016
0003a0 c5 fa 58 be 2e b5 29 3e 19 5c b7 be 24 4d 19 3e
       -0.21189411 0.16573021 -0.35812452 0.14970833
0003b0 5b 46 35 3e b4 53 43 3e f2 c0 ac 3d c3 62 98 3c
       0.1770262 0.19074899 0.08435239 0.01860178
0003c0 84 3a 5d be 39 62 aa be 37 32 14 3c b0 1c f6 bd
       -0.21604353 -0.33278063 0.009045175 -0.120171905
0003d0 3c d4 fe 3d 3a 17 20 bc 3c 5e 1c be 18 71 3c bc
       0.12442824 -0.009771163 -0.15270323 -0.011501573
0003e0 d9 64 00 be 1c 12 ec bd 50 0d 46 bc b1 f9 8f be
       -0.1253847 -0.115268916 -0.012088135 -0.28120187
0003f0 b3 7b c0 3c 65 04 25 3d 04 98 a7 bd 78 f2 34 be
       0.023496484 0.040287394 -0.081832916 -0.1767062

actor.4.bias f4 [7]
000000 15 35 72 bc 89 1a 2a 3e b3 a1 3a bd ae 1e e1 3d
       -0.014783164 0.16611685 -0.045564365 0.1099218
000010 72 d4 4f 3d e5 07 44 be e7 bf ac 3d
       0.050739713 -0.19143637 0.0843504

critic.0.weight f4 [64, 32]
000000 c4 8d ab bc 3a 30 a3 bd 2e 76 a1 3d 28 92 2d 3e
       -0.020941623 -0.07968183 0.07883869 0.16950285
000010 6e bc 15 be f6 46 89 3d b3 75 95 be 25 ac f6 3d
       -0.14622661 0.06702988 -0.2919136 0.12044553
000020 de c8 9b bc 02 84 fa 3c 11 70 05 be d3 6b 37 3d
       -0.01901668 0.030580524 -0.13031031 0.044780564
000030 70 29 9f bd 74 21 b6 3c b6 13 63 bc 52 42 27 3c
       -0.077715755 0.022232749 -0.01385968 0.010208683
000040 c1 8b 0f be 93 18 a4 bd 73 65 a7 be df e0 36 3c
       -0.14018156 -0.080125 -0.32694587 0.011162012
000050 5d c3 71 3e c3 35 35 3d b5 d1 51 be d5 6c a5 be
       0.23609681 0.044240724 -0.20490153 -0.32309595
000060 94 68 fd bd 98 f4 b7 3d 8c 12 80 bd 9a b4 cb bc
       -0.12373462 0.089821994 -0.062535375 -0.024866391
000070 e0 f0 93 ba e8 57 a1 bd a8 ff 2d bd cf a2 04 bc
       -0.0011286996 -0.07878095 -0.04248014 -0.008095457
000080 85 0f 09 be f1 79 00 3e 11 ec f6 bc fe c8 26 3e
       -0.13384826 0.12546517 -0.030141862 0.1628761
000090 0f 88 8b 3d aa 14 63 3e 6e bf e1 3d c8 3b ed bb
       0.068130605 0.22175851 0.110228404 -0.0072397925
0000a0 27 d9 2d 3d e3 d1 46 bb 64 14 f1 3a 35 62 13 bd
       0.04244342 -0.0030337505 0.0018392918 -0.03598233
0000b0 06 31 b5 bd 62 91 91 bd f6 b8 8b bd 79 7c 17 bd
       -0.08847241 -0.07107808 -0.06822388 -0.03698394
0000c0 34 7b ec bd 58 de 83 3d e8 3b 1f 3e bf d5 c0 be
       -0.11546937 0.06438893 0.15550196 -0.37663075
0000d0 b1 2f 39 3d 49 a8 8d 3d 1c 47 a3 3e 6b 29 1d 3e
       0.045211498 0.069168635 0.3189019 0.15347831
0000e0 a3 52 1d bc 98 16 23 bd 72 ef be 3d fa 0d ea 3c
       -0.009602222 -0.03981647 0.09323014 0.028571118
0000f0 52 af 3c 3c 33 fb c0 3b 00 bc b6 3d 66 00 44 be
       0.011516409 0.0058893203 0.08922577 -0.19140777
000100 df e4 be bc e6 6f f0 3d 14 f2 8b be c3 b8 bb 3c
       -0.023302494 0.11740093 -0.27333128 0.02291525
000110 06 98 e4 3d 90 be b6 3a bf 6b aa bd bc ca 86 3b
       0.11161809 0.001394229 -0.08321332 0.0041135233
000120 5f 24 0e 3e fa 5e f7 bd cb 47 38 bd ab 57 df bd
       0.13881062 -0.12078662 -0.044990342 -0.10905393
000130 45 2a 96 bd 22 b1 64 3d 02 94 8a bd 84 92 05 3c
       -0.07332281 0.05583299 -0.067665115 0.008152608
000140 36 b0 e9 3d d3 66 21 bd a2 9a 43 be df 1b 08 bf
       0.11410563 -0.0394047 -0.19101956 -0.5316753
000150 3f 23 74 bd d4 20 60 3d b6 42 4e bb 63 8c c4 bd
       -0.059603926 0.054718807 -0.0031472868 -0.09597089
000160 7b e9 b3 bd f6 45 61 3d df df 9f 3a 0a 43 dd bd
       -0.08784767 0.05499836 0.0012197456 -0.10803802
000170 66 77 f0 3d 46 4f b8 bc 66 cf 95 bc 29 7e 1e bc
       0.117415234 -0.022498738 -0.018287372 -0.009673634
000180 79 30 1b be 3d e8 91 3d 62 d8 3d 3d 19 19 2c be
       -0.1515521 0.07124374 0.046348937 -0.16806449
000190 1d d7 4d 3d 59 12 a3 3c da 6e 7a 3e 53 c3 82 3e
       0.050253976 0.01990621 0.24456349 0.25539646
0001a0 c7 fc e6 3d 4e 5a ae bd 6b b3 4c bd a7 93 a6 bd
       0.11278682 -0.08513318 -0.049975794 -0.08133631
0001b0 37 ce 9a 3d cd af 02 3d 1b 04 92 3b 34 25 04 3c
       0.075588636 0.031905938 0.004456056 0.008065511
0001c0 24 36 b1 3d be 5c 8f 3e a7 6f 10 be 26 c5 4a bf
       0.08652905 0.28000444 -0.14105092 -0.79207075
0001d0 41 2d 9f be df d6 fd bd e6 93 8d bf ad ef 7e 3e
       -0.31089213 -0.12394499 -1.106076 0.24896117
0001e0 fe 54 25 3e e4 32 a4 bc 43 35 aa bd d1 76 b9 3d
       0.16145703 -0.020043798 -0.0831094 0.090558656
0001f0 c4 4f 1a bd 8a f8 c3 bd fc 67 1b 3d 3e 5a 4d 3d
       -0.037673727 -0.095688894 0.037940964 0.05013489
000200 1f 2f 29 be 5b 23 d8 bd 11 05 66 3d 9a 32 5e bc
       -0.16521882 -0.105536185 0.056157175 -0.013561869
000210 86 64 88 3e d9 af c1 3d a6 44 7a 3e fa cf 17 3d
       0.26639193 0.094573684 0.2444025 0.037063576
000220 c5 53 93 3a 79 c8 8c 3b 11 29 86 bc f1 6b 15 bc
       0.0011240175 0.004296359 -0.016377004 -0.0091199735
000230 21 ae ac 3b 77 32 8d bb 67 2a fe 3b 3f c0 6c ba
       0.005269781 -0.0043089944 0.0077565196 -0.00090313324
000240 da c7 f2 bc 31 34 ac 3c c0 fa 7c 3e fe a6 c0 bd
       -0.029636312 0.02102098 0.24705029 -0.09406851
000250 3b e4 bf 3d e9 bc 23 3d 46 0f 25 bf e9 fc b6 3e
       0.093697034 0.03997508 -0.6447643 0.3573983
000260 2b 33 11 be 4a 79 86 bc 81 f6 9d bd c5 02 2e bd
       -0.14179675 -0.016415257 -0.077130325 -0.04248311
000270 99 32 69 bc cb a1 76 3a b9 2d 34 bd 01 79 89 3d
       -0.014233255 0.00094082643 -0.043988917 0.06712533
000280 7e d9 a4 bd 90 8f 1d bd 3f 03 d1 bc 4d 61 dc bc
       -0.08049296 -0.03846699 -0.025514243 -0.026901865
000290 39 eb 31 3e 80 60 d0 3d 4c 3f 45 3c 4a ee d7 bd
       0.17374887 0.10174656 0.012039017 -0.10543497
0002a0 c5 a5 40 3d 69 97 db 3c 9d 42 0f bb 49 21 e4 bc
       0.04703309 0.026805596 -0.0021859773 -0.027847903
0002b0 95 ae bf 3d 6a 93 cd bc 9e 69 a0 3b a2 92 85 ba
       0.09359471 -0.025094707 0.004895403 -0.0010190795
0002c0 90 2f 33 bb 49 b4 4d be eb 4a 87 be 48 e5 02 3e
       -0.0027341582 -0.20088305 -0.26424345 0.12782776
0002d0 e6 27 76 be 9b c9 1a be 9b f6 17 3f d8 1d ea 3e
       -0.24038658 -0.15115969 0.59360665 0.45725894
0002e0 c0 86 91 3d c2 f9 98 bd d7 ea 23 3e c8 c1 9d 3c
       0.0710578 -0.074695125 0.16007553 0.019257441
0002f0 17 5b 67 3d 85 e8 13 3d d8 23 5a 3c 99 34 ae bc
       0.056483354 0.03611042 0.01331421 -0.021265315
000300 5e fa 20 3e 51 82 6d 3e 20 e6 d2 bd 0b ce 25 3e
       0.15720508 0.23194243 -0.10297799 0.1619188
000310 cb 5e 15 3e f9 33 da 3d 5a db 9d 3d dc 52 ea bd
       0.14586942 0.10654444 0.077078536 -0.114415854
000320 2d be ee 3d b6 37 d3 3c 63 7e a6 3c 1b 4a d7 3c
       0.11657367 0.025783401 0.020323938 0.026280453
000330 0c 92 4d ba ef 61 a4 bb eb 58 46 bc ee 93 19 bd
       -0.0007841892 -0.0050165574 -0.012106161 -0.037494592
000340 1a e3 11 be 29 15 8b be 6f 6c 62 3e f1 c1 eb bf
       -0.14246789 -0.2716458 0.22111677 -1.8418561
000350 35 12 2f bd f7 23 11 3e 93 36 60 bf 67 9e 2c 3d
       -0.042741973 0.14173876 -0.87583274 0.04214325
000360 50 8a 1e bd 2d 15 c3 bc be 1b 7e 3d fc fd 72 3b
       -0.038706124 -0.023813808 0.062038176 0.0037077656
000370 ea 83 13 3d 44 69 dd 3c f9 22 60 3d 04 86 25 3d
       0.036014475 0.027027734 0.054720853 0.04041101
000380 74 19 66 3d b6 2d 3f 3e a1 e5 6c bd 28 1c aa bd
       0.056176618 0.18669781 -0.05783618 -0.08306152
000390 98 74 df bd 15 df 8c be d3 9a 13 be bc 29 3d 3e
       -0.1091091 -0.27513948 -0.1441453 0.18472952
0003a0 28 be 03 3e f7 0e ec b9 fd 27 71 3d ee 36 a1 3c
       0.12865508 -0.00045024577 0.058876026 0.019679513
0003b0 4a 92 b3 bc ae ee f8 3c 84 2e 12 3d cd 3a 46 3d
       -0.021920342 0.030387249 0.035688892 0.04839592
0003c0 db ad e5 bd 83 e7 3e bb 49 d0 1c 3e 71 a7 fa 3e
       -0.11214801 -0.002912969 0.1531383 0.48955873
0003d0 c6 c7 4c be 5c 4e 02 3e 8e 15 13 bf a5 16 72 bd
       -0.19998083 0.12725204 -0.57454765 -0.059103627
0003e0 8e 01 08 3e ca 6e 9f bd a1 53 2b bd 8f 36 42 bd
       0.13281843 -0.07784803 -0.0418278 -0.047415312
0003f0 01 20 e7 ba ef 64 c9 bb 99 43 7f bc 4b e4 3f 3c
       -0.0017633439 -0.0061460654 -0.015580081 0.011712144

critic.0.bias f4 [64]
000000 d3 4a 0a 3e fa bf 2d be 41 59 d3 bd f1 3b 04 be
       0.13505106 -0.16967764 -0.10319758 -0.12913491
000010 d7 42 8a bc 4e 7d aa bd db 8c 87 bd b0 10 44 3d
       -0.016877575 -0.08324681 -0.06618663 0.047867477
000020 83 bf 40 bd 8f 71 eb bd 92 41 f0 b9 ea 46 e1 3d
       -0.04705764 -0.11496269 -0.0004582522 0.10999854
000030 65 e8 b3 bc 81 07 cb bd ed 73 91 3d 9f 34 cb bd
       -0.0219614 -0.09913541 0.07102189 -0.09922146
000040 d1 9a d6 bd c1 20 14 3e 89 d5 91 bc ea b2 e2 3d
       -0.10478748 0.1446562 -0.017802017 0.110692814
000050 05 94 04 3e f2 7a bf bd 58 4d a3 3d 79 f7 46 bd
       0.1294709 -0.09349622 0.079737365 -0.048575852
000060 bb ad 86 3d ec 32 29 bd 08 9f 54 3d 55 c6 e4 3c
       0.06576105 -0.04130833 0.051909477 0.027926603
000070 df 5c 83 bd 32 b4 47 3e fb fd 4c bd c0 ff b1 3b
       -0.06414198 0.19502333 -0.050046902 0.005432099
000080 eb fc 99 bd f1 f4 39 bd 8e 0c 0f 3d 2e be b0 bd
       -0.075189434 -0.04539961 0.034924082 -0.08630024
000090 bf 48 67 bd 41 48 49 3e ce 95 14 be 13 5c 80 bc
       -0.05646586 0.19656469 -0.14510271 -0.015668904
0000a0 d9 6c 53 3d 6e a3 91 3d 71 18 80 3d df 50 66 be
       0.051617477 0.0711125 0.06254662 -0.22491787
0000b0 86 02 31 be b0 60 5d 3d b7 80 33 be 32 89 3e be
       -0.17286119 0.054047287 -0.1752957 -0.18607023
0000c0 64 15 8a bd dd 1d 4d bd 08 29 3f be 44 22 1b be
       -0.06742361 -0.050077308 -0.18667996 -0.1514979
0000d0 0b fe ee 3c 31 09 ff bd 72 44 de bd 11 00 a5 bd
       0.029173872 -0.12452925 -0.10852899 -0.08056653
0000e0 3a cb e7 3d 6d 4a 4c bd 16 9e fd bd f3 0f 9b bd
       0.11318059 -0.049875665 -0.12383668 -0.075714014
0000f0 ea 5f bb bc 87 69 38 3e 5f 25 16 3e a2 d9 bf bd
       -0.022872884 0.18009005 0.14662693 -0.09367682

critic.2.weight f4 [64, 64]
000000 79 f3 e7 bd 9a f5 aa bc a8 bc 54 3e c3 44 e9 3d
       -0.113257356 -0.020869065 0.20775092 0.113900684
000010 34 a1 44 3b 33 41 86 bc a4 e9 bb 3d f5 b5 9f 3d
       0.003000331 -0.016388511 0.09175423 0.077983774
000020 80 db 88 3e ab 65 2b 3e 67 54 3e 3b 48 51 c3 bd
       0.26729965 0.16738002 0.0029042007 -0.095369875
000030 3a f3 80 be 22 b9 f6 3d f9 e7 2b 3d dd 63 54 3d
       -0.25185567 0.1204703 0.041969273 0.05185305
000040 f0 58 93 bd c5 8f 35 be 27 7a f9 bd 5a 67 2e be
       -0.07194698 -0.17730625 -0.12181502 -0.17031613
000050 18 12 84 3c 9b ff 33 be 27 8c 3e bd be cd 1b 3c
       0.016121909 -0.17577974 -0.04652038 0.009509502
000060 4f 04 5a ba 43 ea ba bc 41 4a 9c 3d 9a 62 7e bd
       -0.0008316682 -0.022816783 0.0763135 -0.062105753
000070 36 41 c5 3d ed b6 58 be c1 e5 b3 3d 73 4b d7 bd
       0.096315786 -0.2116353 0.087840565 -0.10512438
000080 3c 97 17 3d ba 26 30 3d 71 bc 06 3e 26 94 87 3d
       0.037009463 0.043005683 0.13157822 0.06620054
000090 72 5d 79 bd 92 cb 50 be c4 c8 6a be 24 b0 e2 3d
       -0.060880132 -0.20390156 -0.22928149 0.110687524
0000a0 81 81 b7 3d a5 d6 a8 bd 5b 2b 9e bd 35 2b 40 be
       0.08960248 -0.08244065 -0.07723113 -0.18766482
0000b0 59 01 39 bd 94 0e 38 3e c9 9c e5 3d 82 1f 1a be
       -0.0451673 0.17974311 0.11211545 -0.15051082
0000c0 e6 fb 4f bd a3 8a cc bc 62 6c 01 3d 44 fd de bd
       -0.05077734 -0.02496845 0.031597503 -0.1088815
0000d0 83 71 7f 3d 66 50 d7 bd 04 c6 b0 bd 0d 86 56 bc
       0.062364113 -0.10513382 -0.086315185 -0.013093484
0000e0 d6 1c 21 3e e4 17 f4 3d 08 f6 43 3d 17 ff 9c 3d
       0.15733656 0.11918619 0.047842056 0.07665842
0000f0 8b 70 72 bd 8a 00 a0 3c 5d c6 8b 3c ee 0c a2 bd
       -0.05918936 0.019531507 0.01706236 -0.079126224
000100 1d c5 6e bd ed ea af bd 11 61 7c bc f5 c3 d5 3d
       -0.05829345 -0.085897304 -0.015404002 0.104377665
000110 e4 6c 18 bc c7 7c 82 3d fe e6 3a bd 19 41 16 bd
       -0.009303305 0.06371456 -0.045630448 -0.036683176
000120 9e f3 f6 bd d1 f7 42 3e 2e 61 37 3e fa d2 f7 3d
       -0.12058185 0.19039847 0.17908165 0.121007875
000130 8a 49 41 be d9 45 e5 bc ca 40 94 3e 60 0c fb bc
       -0.18875709 -0.027987408 0.2895568 -0.03064555
000140 29 5f 5f 3d 4f 91 e8 bd 37 74 36 3c 43 65 e1 bd
       0.05453411 -0.113558404 0.011136106 -0.11005642
000150 04 6a 52 3e e8 e5 9f bd a0 72 4e bd d5 3e 26 3e
       0.20548254 -0.07807523 -0.050402284 0.16234906
000160 b3 2e 29 3e 59 88 2e 3e f8 c6 96 3d a6 be 3d 3d
       0.1652172 0.170442 0.07362169 0.046324395
000170 43 dc 8e 3d be a6 9b bd fb fa 6e 3d 5d ce 02 bb
       0.06975605 -0.07600163 0.058344822 -0.0019959428
000180 13 e1 b4 3d 25 7d b4 bd 37 ef 14 be 14 1f c9 bd
       0.08831992 -0.08812932 -0.14544378 -0.09820381
000190 8e 2d e7 bd b1 09 a3 bc 3d 1a de bd 72 f2 91 3e
       -0.11287986 -0.019902082 -0.10844848 0.28505284
0001a0 e6 12 b5 3c 14 1c f9 bd 7d a7 88 3e f0 9f 07 be
       0.022103738 -0.121635586 0.26690283 -0.13244605
0001b0 80 1b db bd 29 e8 84 3d e1 5d d6 bc 7e 0a 42 3c
       -0.106986046 0.064895935 -0.026167812 0.011843322
0001c0 f5 b8 49 bd 29 a1 5d be 9e 1d 9d bd e7 3c fe bc
       -0.049248654 -0.21643509 -0.07671665 -0.0310349
0001d0 ee 76 d4 3c 07 78 56 be 98 37 31 bc 4d 39 b3 bd
       0.025935616 -0.20944224 -0.010816477 -0.08751164
0001e0 92 5e 20 3e 5f 9e a1 3c 8e 4f 0e 3d 99 d6 52 3e
       0.15661076 0.019728838 0.034743838 0.20589675
0001f0 2b 6e 41 3c 36 3d 32 3e ea 14 27 3e 03 e6 b2 3d
       0.011806051 0.17406163 0.16316572 0.087352775
000200 b4 1b af 3d 3e 5d 47 bd c6 79 33 3d cf 2e e4 bd
       0.08550206 -0.048672907 0.043817304 -0.111417405
000210 d2 93 66 3d 14 e9 30 3b e9 58 9f bd 62 87 1b 3e
       0.056293316 0.0026994394 -0.0778063 0.15188363
000220 d0 fb 4a be 50 95 a5 3b 2a 15 f4 3c 01 1c 93 3c
       -0.19822621 0.0050532 0.029795248 0.01795769
000230 68 a6 1a be 82 17 1a 3e 47 bb aa bd ac 01 04 3e
       -0.15102541 0.1504803 -0.083365016 0.12891263
000240 6e 71 a4 bd 4b 19 30 3e 9d d9 bd bc c0 c6 24 3e
       -0.080294475 0.17197149 -0.023175055 0.16091442
000250 77 5a 94 3d 92 18 6f be 88 61 15 bd 8a 7b 30 bd
       0.07243817 -0.23349217 -0.036469966 -0.043086566
000260 5a 32 01 be f4 e1 1a 3e 87 54 83 3c 57 01 ad bd
       -0.12616864 0.15125257 0.016031517 -0.08447521
000270 ee 48 2a bc 49 ea 30 3e 26 9f 33 3d 32 f5 d9 3d
       -0.010393364 0.17276873 0.043852948 0.106424704
000280 91 d0 7c bb f7 57 5d bd 51 be 23 3d 8c f2 6f bc
       -0.0038576464 -0.054038968 0.03997642 -0.01464523
000290 c1 bd 3e bd 3c c0 71 3d 24 6e 56 bc 66 f6 a7 bc
       -0.046567682 0.05902122 -0.013087783 -0.020503234
0002a0 ac f4 47 3d 65 46 d6 bd cc 34 83 3d 2c 4e 0d be
       0.04881732 -0.104626454 0.064065546 -0.13799351
0002b0 ba 29 62 bd 1f e1 08 3d 80 c2 b6 bd d0 b5 01 be
       -0.055215575 0.033417817 -0.08923817 -0.12667012
0002c0 af 5b 97 bd 85 f2 85 3d ec 02 d8 bd 16 fe 83 bd
       -0.07390534 0.065403976 -0.10547432 -0.064449474
0002d0 64 d0 9f 3d ad ed 0e 3e 99 46 cc 3d 70 71 f3 3c
       0.07803419 0.13957854 0.09974403 0.029717177
0002e0 8f 36 34 bd ba 17 e2 b9 06 8b 2b 3e 91 07 08 be
       -0.043997344 -0.00043123757 0.16752252 -0.13284136
0002f0 b9 a4 a4 3d 63 4d f4 3d b2 ad b8 3d 4b 10 b5 bc
       0.08039231 0.11928823 0.09017505 -0.022102496
000300 f6 95 6b bd 22 44 0e bc 0c 1a 7b 3e 85 dc 08 bd
       -0.05751606 -0.008683236 0.24521655 -0.03341343
000310 cd 23 d9 bd 2f 8a 28 bd 8d e9 54 3c 58 75 fd bc
       -0.106025316 -0.041147407 0.012995136 -0.030939743
000320 ea 0f 72 bd 66 58 f8 3e 09 a8 b9 3c 68 99 a9 3e
       -0.059097208 0.48504943 0.022663133 0.33124852
000330 84 24 80 be 41 ca 0a be eb bb b1 bc a5 6e 16 3e
       -0.2502786 -0.13553716 -0.021696052 0.14690645
000340 ec 6e 53 bb aa 2e 54 3d 0b 6b e9 bc c3 d5 92 3e
       -0.003226216 0.051802315 -0.028493425 0.28678712
000350 b5 af 08 3f c3 cc 39 be 5e 65 ca bc 5e fb 87 3c
       0.5339311 -0.18144517 -0.024706539 0.016599353
000360 c5 83 24 be f4 4c c0 3d bd fe 24 3e d6 b5 db bd
       -0.16065891 0.09389678 0.161128 -0.10728042
000370 8c ad 67 3d 87 d2 da bd 0c af 17 3c 76 a9 77 3d
       0.05656199 -0.10684686 0.009258043 0.060464345
000380 65 31 b9 bd 3b ad 8e bd e5 7e e0 bd f1 8b a5 bb
       -0.090426244 -0.06966635 -0.10961703 -0.0050520827
000390 03 d4 df 3d 72 29 1c bd 6d a2 c2 be 93 3e 15 3d
       0.1092911 -0.038125463 -0.38014546 0.03643663
0003a0 d6 77 73 3d a2 7e a5 be 4d d6 1b 3e 7f e7 6a be
       0.059440456 -0.32323176 0.15218468 -0.22939871
0003b0 4d 59 63 be 8e 9c b9 3d e3 0e 88 3d d2 d5 e4 bb
       -0.22202034 0.090630636 0.066434644 -0.006983497
0003c0 87 a1 17 bd 85 e2 32 bd 3b 31 5a 3e 4c 1d f1 3d
       -0.03701928 -0.043673057 0.21307842 0.11773166
0003d0 94 8e 83 bd 2d 10 64 bd 20 6b 75 bd c8 66 17 bd
       -0.06423679 -0.05567949 -0.059916615 -0.036963254
0003e0 c7 c2 99 3e f7 29 14 bd ce f8 ec bd 64 a2 48 3e
       0.30031416 -0.036172833 -0.11570893 0.19593197
0003f0 7e eb bc bd 68 0d 85 bd 05 c1 b1 bc 39 7e f9 bd
       -0.09224604 -0.06496698 -0.021698484 -0.12182278

critic.2.bias f4 [64]
000000 3f 8c f1 bc 37 f5 0e be d4 ec 2a bb f5 19 96 be
       -0.02948582 -0.1396073 -0.0026081102 -0.2931668
000010 99 83 9a 3d ae f5 ad bd 6f 82 7c bd bf 5a ac 3d
       0.075446315 -0.08494125 -0.06164783 0.08415746
000020 af d2 21 3e 00 31 a0 3d 89 72 ce bd 65 56 2e be
       0.15803026 0.07821846 -0.100804396 -0.17025144
000030 de 95 e2 bd 6d 1f 3f 3d 14 b7 05 3c c9 47 66 3d
       -0.11063741 0.04666083 0.008161325 0.056220803
000040 0d a2 df 3d c8 ec d9 bd 44 58 f6 bd 69 5e 7e 3d
       0.109195806 -0.106408656 -0.12028554 0.062101755
000050 8a 7c b8 bd 34 76 32 be 98 f7 1b 3d 80 a2 4c 3d
       -0.09008129 -0.17427903 0.03807792 0.04995966
000060 25 3a b4 bd ee fd 02 3c e2 2b 20 be 8c f8 19 bc
       -0.08800153 0.007995112 -0.1564174 -0.009397637
000070 af e4 d3 bd 99 60 c3 3c 1a 66 b9 3d a5 df a3 3a
       -0.10346352 0.023849772 0.090526775 0.0012502564
000080 a1 1e a0 bc a0 68 a9 3d e9 22 05 3e 16 63 01 3e
       -0.019545855 0.08271909 0.13001598 0.12635455
000090 d4 fb 34 bd fe 29 9a 3c ed a4 53 be 95 db 04 be
       -0.044185475 0.018818852 -0.20668383 -0.12974389
0000a0 9a 60 5e be 47 ed 87 bd 57 79 cc 3d ee 15 3e 3e
       -0.21716538 -0.06637054 0.09984081 0.18563053
0000b0 e7 d9 62 3d dc 87 45 bd 5d 5f 6f 3d 6b 3f eb bb
       0.05538359 -0.04822527 0.058440555 -0.007179191
0000c0 1d eb e6 3d 3d a6 85 bd 34 b0 25 3e 22 4e 25 3a
       0.11275313 -0.06525848 0.16180497 0.0006305893
0000d0 20 be 8a bd 25 57 97 bd 96 d2 d0 3c a3 95 a8 bc
       -0.06774545 -0.073896684 0.02549104 -0.020579165
0000e0 51 e4 c2 bd 04 70 d1 bd d3 e1 33 bd 48 d1 85 bd
       -0.09516204 -0.102264434 -0.043916535 -0.06534058
0000f0 e2 4a f8 bd bf d7 d7 bb f0 82 91 bd 67 5a e0 3b
       -0.12123658 -0.0065869982 -0.071050525 0.0068467143

critic.4.weight f4 [1, 64]
000000 c9 48 84 bd 20 5c 66 bd 25 03 e2 bc 4d 66 b7 bd
       -0.06459195 -0.0562402 -0.02758939 -0.08955059
000010 7a 58 ff bc 84 21 ba 3c 15 2d 18 bd d8 c9 05 bd
       -0.031170119 0.02272106 -0.03715237 -0.032663196
000020 ef b0 8c bd e7 4f 1c bd 65 6f de bd 54 7a d0 3d
       -0.06869685 -0.03816214 -0.108610906 0.10179582
000030 c3 ae 78 bc 4e e1 b3 3d 44 51 0f bd 57 8c 2d bd
       -0.015178385 0.08783208 -0.03498961 -0.042370167
000040 78 8d 8e bc 40 36 0d 3e fa 40 02 bd 58 56 c4 3c
       -0.017401442 0.13790226 -0.031800248 0.023966953
000050 59 1a 6a bc 8f dd 79 bd bb be 0a 3d 37 6b a9 3a
       -0.014288508 -0.06100231 0.0338733 0.0012925629
000060 39 0b 27 3d b3 cb 2c bc 45 a3 0e 3c 90 ef c3 3c
       0.040782187 -0.010546613 0.008705919 0.023917943
000070 3a ac c8 3c 5b 81 e8 ba db db 93 ba 27 a2 e4 bc
       0.024496187 -0.0017738746 -0.0011280732 -0.027909352
000080 44 8c ca 3c 34 17 4f bd 0c ec e3 3b cb b1 ef 3c
       0.024725087 -0.050559238 0.006955629 0.029259583
000090 86 e6 18 bd 0d e9 c4 3b 0e a3 56 bd b5 bd df bb
       -0.03732922 0.006009227 -0.052401595 -0.0068280348
0000a0 7f 07 64 ba 04 1b 1f bd b9 02 8b bc 89 b3 17 be
       -0.0008698627 -0.038844123 -0.016969072 -0.14814581
0000b0 6b b1 9a 3c 12 1d 13 3e 62 92 27 3d 1b 4e 01 ba
       0.018883428 0.14366558 0.040911086 -0.0004932598
0000c0 50 c2 51 bd 5a 8d 93 bc 49 e7 17 3c 34 62 82 3d
       -0.0512107 -0.018011738 0.009271451 0.06366387
0000d0 c7 21 91 bd bc 12 8a bb d6 7f bb 3c 32 da d2 3c
       -0.07086521 -0.004213659 0.022888105 0.02573881
0000e0 d3 19 11 bd ac 8f 89 bd 5f 75 aa bc 43 2e de bc
       -0.03542502 -0.06716856 -0.02080792 -0.027121669
0000f0 5b dd 90 bd e8 10 df 3d fc 68 d1 bd 31 21 90 bc
       -0.0707347 0.108918965 -0.10225102 -0.017593952

exp_avg f4 [7]
000000 37 fd 88 ba b8 7e 98 b9 89 f6 c5 b9 c1 60 84 ba
       -0.001045144 -0.00029086112 -0.0003775845 -0.0010099636
000010 a1 3e 8a 39 fd ad 46 ba 54 f6 bd 3a
       0.00026368073 -0.0007579027 0.0014492967

exp_avg_sq f4 [7]
000000 63 01 52 39 64 ff ce 39 c5 5e 90 39 a3 9e 19 3a
       0.00020027677 0.00039481663 0.0002753643 0.00058601255
000010 de 77 ff 39 99 3c be 39 fa f1 9c 39
       0.00048726698 0.00036284773 0.00029934925
