logs/rsl_rl/franka_reach/2025-06-27_10-55-03/model_250.pt (torch, 172795 bytes, 36 tensors)

std f4 [7]
000000 6d 67 74 3e 4a c2 46 3e bd 51 58 3e 49 0e 1a 3e
       0.23867579 0.19410053 0.2112493 0.15044512
000010 bb f0 5e 3e 1e f8 87 3e c2 59 3f 3e
       0.21771519 0.26556486 0.18686584

actor.0.weight f4 [64, 32]
000000 0b 6e 4a be 5a 33 27 3e aa b9 55 be 07 d9 c6 3d
       -0.1976854 0.16328183 -0.20871606 0.097093634
000010 f3 62 92 3e 3f f2 c9 3d d4 c4 fc 3e e7 d3 a3 3e
       0.28591117 0.09860658 0.49368918 0.31997606
000020 fe b6 19 3f 4f 3c 06 bc 59 11 ab bd b2 f8 7f 3d
       0.6004485 -0.00819309 -0.08352918 0.062493034
000030 92 ed 88 3d cb 29 a8 3d 75 ab b1 3c 7c a6 50 3d
       0.06685938 0.082110964 0.021688202 0.050940022
000040 0f e4 42 bd 71 44 c0 be fd 09 78 be 4e df fd bf
       -0.047580775 -0.37552217 -0.2422256 -1.9833772
000050 6c e6 ab 3e 84 f0 bd bc c8 fb bb bf c6 bf 09 3f
       0.33574235 -0.023185976 -1.4686213 0.5380825
000060 6d 25 18 be 0a 5b bb bd 9c 71 2f be a0 fd 3c be
       -0.14858027 -0.09148224 -0.17133182 -0.18456125
000070 79 00 96 bc b3 17 02 be e9 36 7c 3d 92 bd 38 3e
       -0.018310772 -0.12704353 0.061575804 0.18041065
000080 ad f5 bc 3e 13 97 75 3e 17 72 b8 3e 4f 64 7b 3f
       0.36906186 0.23983411 0.36024544 0.98199934
000090 28 23 09 3f de 7f ee 3e 83 75 e3 bd 80 16 53 be
       0.5356927 0.4658193 -0.11106398 -0.20614052
0000a0 a8 aa 8f 3c a5 ef e3 3d d2 8e 43 bd 70 bb ce 3d
       0.01753743 0.11129693 -0.047743626 0.100943446
0000b0 a4 87 d0 3d 67 92 df bc 8f 01 a7 bd fe 1f f0 3d
       0.101821214 -0.02729149 -0.08154594 0.11724852
0000c0 0b e7 07 be 53 a3 2e 3e ad d4 4d bf 48 35 a1 bf
       -0.1327173 0.17054491 -0.8040264 -1.2594385
0000d0 b9 84 3d bd 7d 79 14 3e c6 b9 b7 3e 62 20 24 3d
       -0.046269152 0.14499469 0.3588392 0.040069945
0000e0 87 9d 67 3d 63 55 06 bc 24 3c 42 3e 91 f6 c7 bd
       0.056546714 -0.008199069 0.18968254 -0.09763826
0000f0 fc e9 8f bd d3 d9 42 bd 03 24 a8 3d e3 57 e9 bd
       -0.07027051 -0.047571015 0.08209994 -0.11393716
000100 54 3a 7b 3f fa b1 f9 3d e9 18 69 3f 71 b5 03 bf
       0.98135877 0.121921495 0.91053635 -0.5144873
000110 b2 4b a8 bd 00 77 00 be 4b f8 91 3e 6c 5a cc 3e
       -0.08217563 -0.12545395 0.28509745 0.39912736
000120 f5 3f 22 3f c3 79 2c be d4 1e 93 3d 7a 61 65 be
       0.6337884 -0.16843323 0.071836144 -0.22400466
000130 e9 88 32 bc 34 d1 18 bd a0 c5 ad 3d d2 dc a0 3d
       -0.0108969 -0.037308887 0.084849596 0.07854618
000140 ac c6 5d 3e c1 a5 e9 bd 39 e2 a8 3e e4 99 3f bf
       0.21657819 -0.11408568 0.32985094 -0.74844193
000150 e0 12 1a 3f 53 b7 20 bd 34 50 ab bd 32 1b 7b be
       0.6018505 -0.03923733 -0.08364907 -0.24522093
000160 1b 72 b5 bd cd 20 40 3d 2b 48 73 3e ab 8e b5 3b
       -0.088596545 0.04690628 0.23757999 0.005540689
000170 68 85 37 3e 23 03 d6 3d ff 53 88 be fe d5 0c be
       0.17921984 0.10449817 -0.26626584 -0.13753507
000180 65 87 27 be 6c 02 25 be ae 61 43 3e ba 7a a9 bd
       -0.16360243 -0.16114205 0.1908023 -0.08275361
000190 8e 0e 96 3d 13 b7 a4 3e cd 8b a0 3e a8 6f 53 be
       0.07326995 0.32170925 0.3135666 -0.20648062
0001a0 b7 64 0e 3d 69 3b 88 bd 57 8d b1 bd 37 41 ad bd
       0.034764018 -0.066519566 -0.086695366 -0.08459704
0001b0 83 fd df bd b5 62 44 be 26 b6 77 3d 27 b1 d7 3b
       -0.109370254 -0.19178279 0.060476445 0.0065823975
0001c0 ab c6 f8 3e dd 27 b6 be 08 14 80 bf e6 54 b8 3d
       0.48589072 -0.35577288 -1.0006113 0.09000568
0001d0 7a 58 4b 3f 46 5b 21 be da d7 f3 be 91 91 46 bc
       0.7943188 -0.15757474 -0.4762562 -0.012119667
0001e0 68 2e 4d ba 6e 92 9c 3e 91 8a 27 3e 15 46 2b be
       -0.00078270445 0.30580467 0.16361453 -0.16725953
0001f0 b5 c1 2a 3b 8f fc 4c be 7d e9 39 be 97 04 0c be
       0.00260554 -0.20018218 -0.18155475 -0.13673626
000200 25 2f 8a bd 02 44 10 bc 83 85 12 3d 07 6d 93 3e
       -0.06747273 -0.008805277 0.035771858 0.2879412
000210 b0 e8 b9 be 57 72 3d 3f 1f 44 0f be a4 f1 11 be
       -0.3631034 0.74002594 -0.1399083 -0.14252335
000220 b8 ed f5 bd 57 a6 5a bd 5b f1 38 bd 65 14 12 bd
       -0.12008232 -0.05338129 -0.04515205 -0.03566398
000230 fe 51 59 bd 58 62 2d 3d 88 9b b3 3c 3f 10 20 be
       -0.05305671 0.042330116 0.021924749 -0.15631197
000240 8e 21 87 3e 08 d9 46 3f e3 f5 9b be 10 33 14 3f
       0.26392788 0.77674913 -0.30461034 0.57890415
000250 46 7e 86 3f 2d 0f 0d be b0 84 4a bd 1e f4 2e bf
       1.0507286 -0.1377532 -0.049442947 -0.68341243
000260 9f b1 8e bc 90 31 f1 be 07 c5 ae 3e eb 5b ae 3d
       -0.01741868 -0.47108126 0.34134695 0.08513626
000270 18 52 90 bd 88 3c dd 3d 3e d8 de bd 8c 17 59 3d
       -0.07046908 0.10802561 -0.10881089 0.05300097
000280 20 3c d6 3d 6c 77 86 be 1c 54 96 be 72 c3 8d bd
       0.10460687 -0.26262987 -0.29361045 -0.06922044
000290 0a 35 01 3e b3 16 03 3e 7d 1c 34 3c 22 fd 8f 3e
       0.12617889 0.12801628 0.01099312 0.28122813
0002a0 4d 21 37 3e dd 31 14 be 81 ed 9a be f0 d4 94 bd
       0.17883797 -0.14472146 -0.30259326 -0.07267177
0002b0 35 b9 59 3e a6 67 a6 bd 6f 27 cb bc 1e 6b f8 3d
       0.21262057 -0.08125238 -0.024799077 0.12129806
0002c0 75 9c 21 3f db 1a 5d 3f 3d 9e ec bc d1 2c 14 c0
       0.6312936 0.86369103 -0.028884048 -2.3152354
0002d0 c2 4c 55 bf db 27 b4 3d 4f 60 0a 3e 4b d4 17 3f
       -0.8332025 0.08796664 0.13513301 0.5930831
0002e0 42 12 bc 3d 04 1c 05 be a0 55 78 3e 71 a2 4a bd
       0.0918317 -0.12998968 0.24251413 -0.049471322
0002f0 41 79 71 be f6 1d 1f 3e 2f 84 84 3e 15 40 4c bd
       -0.23581411 0.15538773 0.25882098 -0.0498658
000300 48 2a c7 3e 22 35 86 bd 76 95 2e 3f 8f 31 8f be
       0.38899446 -0.06553103 0.6819681 -0.27967498
000310 ef 89 2e be be a8 6f 3e 6d 2e cb bb 01 5a 8c 3e
       -0.17044805 0.23404214 -0.0062006027 0.27412418
000320 b4 87 ad 3d 84 b2 3e 3e 29 0e 2d 3c 15 a1 8f 3d
       0.08473149 0.18622786 0.010562458 0.07013146
000330 66 84 d9 3c 65 cc 04 bd a3 25 48 3d 37 3e 02 be
       0.02655239 -0.03242149 0.04886402 -0.12719046
000340 09 37 c9 3d 55 32 17 3e 19 37 48 3e 80 bf 1b 3f
       0.0982495 0.14765294 0.19552268 0.6083908
000350 ad c0 53 be 88 67 dc bd c8 c8 c5 be 90 40 07 3f
       -0.20678969 -0.107619345 -0.38629746 0.5283289
000360 6f 91 c5 3c 54 81 aa 3d b4 aa c1 3d d8 6e 14 3e
       0.0241172 0.08325449 0.09456387 0.14495409
000370 5e d0 e6 bb f0 0c 0e 3e 78 b2 11 3e 37 04 a3 3c
       -0.0070438823 0.13872123 0.14228237 0.01989947
000380 7b f2 94 3f 16 f6 9a 3d 5e 6a 84 3f 62 54 02 be
       1.1636499 0.075664684 1.0344961 -0.12727502
000390 4b 4f e5 be 18 49 aa be a8 3b 0c bf f4 ac 9a 3e
       -0.44787058 -0.3325889 -0.5477853 0.30210078
0003a0 9f 84 42 3e 61 3b b1 3c 4f 5f 02 bd 13 b8 c7 3d
       0.18995903 0.02163476 -0.031829175 0.09751906
0003b0 30 b4 21 3e 4a 8c f5 3d b9 68 25 bd 69 75 f8 bc
       0.15791392 0.11989649 -0.040383074 -0.030329423
0003c0 fc 08 5b be 98 57 30 bf a5 98 7d be ae 4c 2c bf
       -0.21390146 -0.6888366 -0.2476526 -0.67304504
0003d0 a4 89 0f bf b8 30 ff bd b1 5e 80 bf a5 0f c8 3e
       -0.560694 -0.12460464 -1.0028898 0.39074436
0003e0 9a a7 81 bd b1 80 7d bd ba 60 77 bd b0 9e 95 be
       -0.063307956 -0.061890308 -0.06039498 -0.2922263
0003f0 2a 71 ba bc 7c 96 d1 bd 00 9e c7 3d 72 70 8d bd
       -0.022759039 -0.10233781 0.09746933 -0.06906213

actor.0.bias f4 [64]
000000 65 a4 30 be ea ad bc 3d 64 65 ce be c6 eb 65 3d
       -0.17250212 0.09212859 -0.4031173 0.056133054
000010 3e 88 93 3d 1f a6 ad be d5 f8 b5 be 61 17 c1 bd
       0.072037205 -0.33915803 -0.35541406 -0.09428287
000020 9e 83 a8 3e 48 b7 4b 3e c8 9c b7 bd 3d 99 16 3e
       0.32912916 0.19894135 -0.089654505 0.14706893
000030 e1 ff c3 3d ad 22 a4 be 2a 43 9a be 2c cc 81 be
       0.095702894 -0.32057706 -0.30129367 -0.25351083
000040 d0 95 1c 3f 37 9c 09 3e d6 36 64 3e ea 2d 04 bc
       0.61166096 0.13438497 0.22286543 -0.008067587
000050 61 65 86 3e f2 01 00 3e 17 7c 01 be 33 13 d7 3d
       0.2624922 0.12500742 -0.12644993 0.10501709
000060 71 33 16 bf 16 5a 38 3f b7 55 8c 3c 2c 9a 82 be
       -0.58672243 0.7201246 0.017130716 -0.2550825
000070 7f da d7 bd 6a 01 a4 3d 08 0f c0 bd 9e d7 b3 3e
       -0.10539722 0.08008082 -0.09377867 0.3512544
000080 79 e6 f0 be 18 7a 37 3c 3e a8 92 3d b6 17 c9 bc
       -0.47050837 0.011198543 0.07160996 -0.024547439
000090 bd 1c 6d 3e 74 36 98 3e 2b 31 5c be be 55 88 bc
       0.23155494 0.29729044 -0.21503131 -0.016642448
0000a0 d9 48 2c 3e 84 a5 33 be 7a e8 e9 3e 3c 12 a8 bc
       0.16824664 -0.17543608 0.45685178 -0.020516507
0000b0 38 59 e6 3e 1a 69 94 3e 5c 29 58 be 0d cb 19 3d
       0.44989944 0.28986436 -0.21109527 0.03754716
0000c0 9c 90 92 3e 48 e4 b2 bd 33 d9 40 be 6b 30 63 be
       0.28625953 -0.087349474 -0.18832855 -0.22186439
0000d0 82 83 21 3e d5 36 0b 3e 52 8e cf be df 20 bb be
       0.15772822 0.13595136 -0.4053827 -0.36548516
0000e0 99 3d d0 be 6a d3 12 bd 6b 6d 39 3e ec e6 e5 3e
       -0.40671995 -0.03584615 0.18108146 0.44902742
0000f0 46 f2 48 bd 5d 01 0d 3e df 73 a3 3e 66 32 0e bd
       -0.049059175 0.13770051 0.3192434 -0.034716032

actor.2.weight f4 [64, 64]
000000 de 1b 77 bc 74 0c 88 be 58 bb 9d 3e b1 3d 09 bd
       -0.015082328 -0.26572 0.30806994 -0.0335061
000010 28 78 de 3d 2a 79 32 bd 78 4a 2f 3e 8b 2e fb 3c
       0.10862762 -0.043572582 0.17118251 0.030661842
000020 06 57 0a bd 85 32 9e be a0 dc 47 3e 6f 94 59 3e
       -0.0337744 -0.30897918 0.19517756 0.21248029
000030 2e 15 8a bd f7 af a9 bb 4f c6 39 be 79 91 c8 be
       -0.06742321 -0.0051784473 -0.18142055 -0.39173487
000040 b5 dc cf 3d be 61 0e 3d 2a 03 db bc 28 a1 aa bc
       0.101495184 0.034761183 -0.026734907 -0.020828798
000050 21 01 2e bd 3d b5 81 3e 36 37 94 3d 72 49 d2 3d
       -0.042481545 0.25333586 0.07237093 0.10267915
000060 ad c1 a0 3e fe 49 98 be 67 30 07 be 7f 8f 47 3e
       0.31397763 -0.29743952 -0.13202058 0.19488333
000070 e5 40 a9 3e 01 59 56 be 13 86 e3 3d b4 d5 58 3e
       0.33057323 -0.2093239 0.11109557 0.21175271
000080 fd 32 ae 3d 88 5a 8b 3e 23 1c b1 bd 02 b6 73 be
       0.08505819 0.27217507 -0.08647945 -0.23799899
000090 fd 0c 4c be e0 35 d1 bd 6d ba 88 bc b7 e2 97 bd
       -0.1992683 -0.10215354 -0.016690457 -0.07416289
0000a0 40 22 1a be d4 63 b1 bd a2 19 2f 3a 99 43 8f 3d
       -0.15052128 -0.08661619 0.000667954 0.06995315
0000b0 eb 2f c2 bd 80 e0 07 3d ec e9 9e 3d 97 0e 92 bd
       -0.09481796 0.033173084 0.07759461 -0.07131689
0000c0 d3 49 43 3d 68 51 d3 bd f8 b1 4c 3e d2 c8 c3 3c
       0.047677826 -0.103182614 0.19989765 0.02389947
0000d0 cc 45 41 3e 2c 86 86 bc a4 c8 38 be 4d d9 f2 bc
       0.18874282 -0.0164214 -0.18045288 -0.029644633
0000e0 91 ea a6 bb 34 ee e6 bd 79 57 f4 3d b9 8c c6 bd
       -0.0050938805 -0.112759024 0.119307466 -0.096948095
0000f0 ec ac 77 be 98 fa dd bb d1 f0 0f 3e 36 82 8b bd
       -0.24187058 -0.006774258 0.14056708 -0.06811945
000100 01 1e c5 3d e5 49 3b be d8 3a e2 be c4 44 1c 3e
       0.096248634 -0.18289907 -0.4418552 0.15260607
000110 01 ca 6a bd a8 5c 1b bc 53 37 71 bd 45 90 03 bd
       -0.057321552 -0.00948254 -0.058890652 -0.032120008
000120 f2 99 f5 3d 5c d8 54 3e e9 68 dd bd 85 fb 2c 3e
       0.11992253 0.2078566 -0.10811026 0.16892822
000130 2a 52 c7 bd f3 34 0a be 6a 4a 13 be 0d 41 7f bc
       -0.097324684 -0.13496761 -0.14383855 -0.015579474
000140 0d f6 2d 3e e3 2d 49 bd 12 72 65 3e ef 84 ca bc
       0.16988392 -0.049116027 0.22406796 -0.02472159
000150 b4 a4 e4 3d 7c 1f 5f bd af be 52 3d 32 2b 3b 3e
       0.11164227 -0.054473385 0.05145138 0.18278196
000160 a2 81 dd bd bd c1 ea bb 7d ab b0 3c 0c 1a 93 bd
       -0.10815741 -0.0071642087 0.021566147 -0.071827024
000170 d1 7c 36 be c6 0a 40 3e 88 34 10 3e 36 a4 95 3e
       -0.17821051 0.1875411 0.14082539 0.29226846
000180 d4 80 93 bd 9d 60 ba bd 37 c0 3a bd d2 f6 24 be
       -0.072023064 -0.09100459 -0.045593467 -0.1610978
000190 39 c8 83 3d 35 cf 67 3e 4c 37 3e bd 41 bc d6 3d
       0.06434674 0.22637637 -0.046439454 0.10485125
0001a0 23 58 8b bd f9 0d cf bd ab 0d 9a bd f0 04 7d 3d
       -0.0680392 -0.10110087 -0.07522138 0.061772287
0001b0 38 9d 8c 3e e2 6b cd 3d b6 a6 cf bd 07 a9 22 3e
       0.27463698 0.10030343 -0.101392195 0.15884791
0001c0 b5 1e fa bb 11 80 03 3e ee 1b c8 3d a6 49 93 3d
       -0.007633055 0.12841822 0.09770952 0.07191782
0001d0 a0 db 7e bd 22 30 21 3d 9e 0d 09 be 68 8a 20 be
       -0.06222117 0.039352544 -0.13384101 -0.15677798
0001e0 ec d5 1f be 00 13 50 be 8d 00 94 3d 82 74 1e 3e
       -0.15608948 -0.20319748 0.072266676 0.15474132
0001f0 1f 7b ea 3d f8 de 61 3e 3d 4f a0 bd b1 01 f8 bd
       0.11449265 0.22057712 -0.078276135 -0.121096976
000200 8c 5e 56 3c f1 a0 d5 be 96 95 45 3d f8 7f 05 be
       0.013084065 -0.4172435 0.04823836 -0.13037097
000210 51 2b 29 3d 01 9f 2e be 39 5d 98 bb 2c bf 04 be
       0.041301075 -0.17052843 -0.004649785 -0.12963551
000220 25 9d 16 3d 05 7b bf be d0 3c 07 3c 7b 4d 3e 3d
       0.03677096 -0.37398544 0.008254245 0.04646061
000230 f1 0e 86 be 45 cb 92 bd 60 4a da be e1 b3 43 be
       -0.26183274 -0.07167677 -0.4263487 -0.19111587
000240 bb b6 84 3d 8c 56 33 3d ec 3e 64 bc 1c 2e 3a 3c
       0.064801656 0.04378371 -0.013931017 0.011363532
000250 a1 a8 6d bc 04 1d 63 3e 23 62 90 3e 88 2b 07 bd
       -0.014505536 0.22179037 0.28199872 -0.0330005
000260 b3 1c 1b 3e bd 84 05 bd 56 ab 59 be 94 75 53 3e
       0.15147667 -0.032597292 -0.21256766 0.20650321
000270 61 cb c2 3e 16 c0 27 3e d6 9e a5 3d fe e1 9b 3e
       0.3804579 0.16381869 0.08086936 0.30445856
000280 1a bc b6 3d 31 dd 85 3e e8 59 ab 3d 64 20 dd be
       0.08922596 0.26145318 0.08366758 -0.43188775
000290 7b 33 dc be cd 78 49 be 7e 49 dd bd c9 73 39 be
       -0.43008026 -0.19674988 -0.10805033 -0.18110575
0002a0 bf ec 1e be 77 5e 51 be 8c e3 f2 bd 82 02 1b 3d
       -0.15519999 -0.20446192 -0.11859807 0.03784419
0002b0 63 28 0b be c5 59 12 3e a8 cf 7d 3e 45 db fc ba
       -0.13589625 0.14292057 0.24786246 -0.0019291422
0002c0 e3 c4 e1 3d 45 93 9a bd 49 80 24 3e f4 14 bb bd
       0.11023881 -0.07547621 0.16064562 -0.09134856
0002d0 b0 25 c3 bd 06 74 ae 3d 59 ee 52 be e0 19 c0 3c
       -0.09528673 0.085182235 -0.20598735 0.023449838
0002e0 38 1e d2 bd f6 20 21 3c 38 73 04 3e 60 3c 36 bc
       -0.1025967 0.009834519 0.12934577 -0.011122793
0002f0 7b 98 83 be a9 49 db 3d b1 85 14 3e c7 88 2b bd
       -0.2570227 0.10707409 0.14504124 -0.041878488
000300 ae 5f e7 bc 3c c4 c6 bd 1f 2a ff bd 81 7b c7 bd
       -0.028243866 -0.097053975 -0.12459206 -0.097403534
000310 d8 1c e7 bd e3 d8 f7 3d 84 b3 d2 bd 1d 66 82 3e
       -0.112847984 0.12101915 -0.10288146 0.2546853
000320 fb 9a 43 3d 4d b1 c1 3d 78 d2 ee bd 91 81 cd bd
       0.047755223 0.094576456 -0.116612375 -0.100344785
000330 1c fc 53 3e ba 7a 8e bd 35 1d dc bd fd 72 09 3d
       0.20701641 -0.06957002 -0.10747758 0.033556927
000340 2d 14 d5 3d 6a 29 5b 3d aa 5e 3b 3e d5 da d2 3d
       0.10404239 0.053506292 0.1829783 0.10295645
000350 d3 2f c3 3d 6f 7d 41 3e 06 75 32 bc 74 12 9e 3d
       0.09530606 0.18895505 -0.010892158 0.077183634
000360 db 9f da be ee bf cc 3d 2f 1b 7b 3e d7 ab 90 be
       -0.42700085 0.09997545 0.24522088 -0.28256103
000370 40 b7 52 be 5c af f3 3c cd 75 05 3d 5d b0 d5 3d
       -0.20577717 0.029746704 0.032583047 0.10434029
000380 e6 48 b7 3c 73 31 8e 3d 0f 9d 8c 3d 8b fa ff 3c
       0.022373628 0.069430254 0.06865894 0.031247398
000390 07 79 9d 3e ac 27 b3 3d bc df ba 3d e3 ba 18 be
       0.307564 0.08747801 0.09124705 -0.14915042
0003a0 c9 c3 be 3c 95 df de bd 0d 56 91 bc d5 a8 5f 3d
       0.023286717 -0.10882489 -0.017741228 0.05460437
0003b0 78 81 1f 3e 97 0d 75 3d 8a cc e2 bd 56 11 9a 3e
       0.15576732 0.059827413 -0.11074169 0.3009135
0003c0 9d 6b 93 bb 8a 37 6c 3d cb ab 1f be 2e 89 93 3d
       -0.0044989125 0.057670154 -0.15592878 0.07203899
0003d0 d4 c5 fc bd c5 e6 81 3e ae 7b 5b be d5 f9 d3 3c
       -0.1234242 0.25371376 -0.21433899 0.025875965
0003e0 54 dd fc bd 51 a5 c1 bd ee 73 82 3e f5 b1 2c 3e
       -0.123469025 -0.0945536 0.25479072 0.1686476
0003f0 a7 73 93 3a 16 41 f8 3d 5e d8 ba 3d 8f 3b cb 3e
       0.0011249677 0.12121789 0.091233 0.39693877

actor.2.bias f4 [64]
000000 a7 c0 7b be cc 34 4e 3c 77 a1 06 be 53 56 e3 3d
       -0.2458521 0.01258583 -0.13147531 0.111004494
000010 91 cf a5 bd 76 e2 d9 bd 5b cc 46 be 89 d2 99 be
       -0.08096231 -0.10638897 -0.19413893 -0.30043438
000020 12 9e d4 bd 06 fd ee bb 63 cb 79 be ed 8e cf be
       -0.10381712 -0.0072933463 -0.24393992 -0.4053873
000030 97 08 90 be 58 01 30 bd 1e ed 50 3e db a6 37 be
       -0.28131554 -0.04297003 0.20402953 -0.17934744
000040 e0 e9 26 bd 93 fb a6 be d8 07 59 be fa ae 58 be
       -0.040750384 -0.3261381 -0.21194398 -0.21160498
000050 8a 27 93 be 19 46 7e be 15 cc 37 be 9d 3f 72 be
       -0.28741103 -0.24831428 -0.17948945 -0.23657079
000060 cf 58 8d be 18 af 8a be 63 17 90 be 65 3a 38 be
       -0.27606818 -0.2708671 -0.28142843 -0.17991026
000070 5c 38 c9 bd 38 f7 96 be 14 d3 79 3e 18 aa c4 be
       -0.09825203 -0.29485488 0.24396926 -0.3841102
000080 1a a9 87 bd 9e 1c e4 3d 7b 51 7f be f3 01 1e be
       -0.066240504 0.11138271 -0.24933426 -0.15430431
000090 78 ad a5 be 9e 5b 6f be bf f5 49 be 0a fc 7a bd
       -0.3235891 -0.23374793 -0.19722651 -0.06127552
0000a0 46 cb 9c be f6 66 6e be 9e b2 2f bd 3c cf a7 bd
       -0.30623835 -0.23281464 -0.042894952 -0.08193824
0000b0 fc 1f 50 be e0 9f c2 be 2f 2a 32 bc c5 41 08 be
       -0.20324701 -0.380126 -0.010874315 -0.13306339
0000c0 d5 fc cc 3d f8 9f 4e be bb 53 cb 3c 46 7b 09 ba
       0.100091614 -0.2017821 0.0248202 -0.00052445044
0000d0 42 3f 4f be de 44 18 be dd 41 a5 bc 0c 00 89 be
       -0.20238975 -0.14870021 -0.020173008 -0.26757848
0000e0 e8 e2 ec bd 28 97 7e bd a2 42 1d bd f8 e2 4c be
       -0.115667164 -0.062155873 -0.038393624 -0.20008457
0000f0 f5 8a a9 be d9 95 60 be e1 5a 9b 3c bd e2 e0 3c
       -0.33113828 -0.21932162 0.018964233 0.027451867

actor.4.weight f4 [7, 64]
000000 64 b2 ab bb 0e e9 57 3e 8a 97 95 3d 26 a1 cd bd
       -0.0052397717 0.21084997 0.073042944 -0.10040502
000010 c3 48 20 bd c9 f4 00 3e 3a 5f 96 3d 00 03 7f 3d
       -0.03913189 0.12593378 0.07342382 0.06225872
000020 a7 c5 45 be 46 72 c2 3d 88 de 2b 3e 68 6c ec 3d
       -0.1931368 0.09494452 0.16784108 0.11544114
000030 cd 24 8d 3d d8 15 21 3e 4f ea 82 3e 1e f4 4d be
       0.06891785 0.15730989 0.25569388 -0.20112655
000040 1c 51 d9 3d 26 78 c0 3a e7 12 e7 bc 94 cd 33 3c
       0.106111735 0.0014684245 -0.028207256 0.010974307
000050 e4 56 8a be ba c7 99 3d 86 fc 8a 3d cc 82 e3 bd
       -0.27019417 0.07508798 0.06786446 -0.11108932
000060 4a d4 4b bd aa 09 23 3e 9b c0 8a bd 3c 43 4b bd
       -0.049763 0.15921655 -0.06775018 -0.049624667
000070 08 43 0f 3e 8e 49 87 bd ea f3 f7 bc e5 12 f0 3c
       0.13990414 -0.06605826 -0.030267674 0.029305885
000080 61 68 08 3e fa 71 5a 3e 7c ef 5f 3e 53 c5 96 3d
       0.13321067 0.21332541 0.218687 0.07361855
000090 84 bb d6 bd e6 d2 e7 3d 6c 4f fd 3c ec 16 10 3e
       -0.104849845 0.113195226 0.03092166 0.14071244
0000a0 7d c3 53 3e 46 3d ac 3d b5 ba 8a be a2 fc 9b 3a
       0.20680042 0.084101245 -0.2709557 0.0011900852
0000b0 bc e7 ad 3c de a0 3b 3c 61 b0 9f 3e e3 ec 2b 3c
       0.021228664 0.011451928 0.31189254 0.01049349
0000c0 88 99 01 3e d8 a0 09 3b e6 b1 28 3e c2 dc d2 bc
       0.12656224 0.0021000411 0.16474113 -0.025740031
0000d0 2e ac f4 bc b2 c6 a2 bb 37 08 5a 3c 2c a3 93 bd
       -0.029867258 -0.004967534 0.013307623 -0.07208857
0000e0 67 76 24 3e 09 62 83 be c2 01 b1 3c c7 1c d6 3c
       0.16060792 -0.25660732 0.021607284 0.026136769
0000f0 43 e5 ea 3d 8d 50 69 3e 53 cf d4 3d f2 67 eb bc
       0.114695095 0.22784634 0.103911065 -0.028736088
000100 cd 92 cb 3d 49 d4 c4 3d ba b5 44 3e 3d 00 a2 3d
       0.099401094 0.09610803 0.19209948 0.07910202
000110 c2 74 d7 bd f4 14 9d bd 2e e7 27 be f9 d8 bd bc
       -0.10520317 -0.07670012 -0.16396782 -0.02317475
000120 48 ff bb bc 4b de 83 3d e8 54 82 be 24 dd 9e bb
       -0.022948876 0.064388834 -0.25455403 -0.0048481394
000130 33 82 6a bd 27 f4 f9 bc 59 4e 75 3d 71 f6 ff 3d
       -0.057253074 -0.030511929 0.05988917 0.12498177
000140 12 bf 26 be d0 38 33 be 17 48 7a 3e 5a 82 fb bd
       -0.16283825 -0.17502141 0.24441563 -0.12280722
000150 fa 0a 56 bd 77 0c 39 3e d5 a4 25 3d 1e 8f 1d bd
       -0.05225656 0.18071161 0.0404404 -0.038466565
000160 98 19 7d be ec 4c 78 3d 14 94 35 be a4 df 4e bd
       -0.24716794 0.060620233 -0.17732269 -0.05050625
000170 3d 8d 0d 3d d7 ea cd 3d a4 97 89 3e c7 35 da 3c
       0.034558523 0.10054558 0.26873505 0.026636971
000180 30 16 3c 3e c3 36 ae bd 00 ad 25 be 28 3e 97 be
       0.18367839 -0.08506539 -0.16179276 -0.2953961
000190 8b 34 4a be cc 53 9f bd 02 3d 90 3e dd 95 86 3d
       -0.19746606 -0.07779655 0.28171545 0.06571553
0001a0 d5 98 f2 bd 38 79 6c bd db fc 5c bd f5 63 ba 3d
       -0.11845557 -0.05773279 -0.05395208 0.091010965
0001b0 ef 6d 8f 3e e8 05 09 be 42 54 47 3e 47 59 87 bb
       0.2801356 -0.1338116 0.19465736 -0.0041305157
0001c0 16 2a 53 3e 02 20 be 3a 09 de 31 3e b3 a8 38 bd
       0.20621523 0.0014505389 0.17369856 -0.04508276
0001d0 e7 d8 e7 3c 9d 75 4b be 09 d2 f8 bd b1 e7 45 3d
       0.02830167 -0.19869085 -0.12149436 0.04831666
0001e0 35 45 75 3c 00 fc a8 3d 68 4c b3 bd 89 36 ac be
       0.0149701135 0.0825119 -0.08754808 -0.33635357
0001f0 59 5b 8c 3d be 81 2b 3d 3e b8 dd 3d b1 71 7f 3d
       0.06853361 0.04187178 0.10826157 0.062364284
000200 28 60 8e 3d ba 87 1a bc 0f ce 1a 3e e6 c9 c5 bd
       0.06951934 -0.009431774 0.15117668 -0.0965765
000210 d6 1b ce bd 0a 2a 3f be 0a 47 46 3e 55 4c 86 3d
       -0.10063903 -0.1866838 0.19363037 0.06557528
000220 a8 07 96 be dc 30 4a 3e e1 5e 12 3e 4d 41 5f 3c
       -0.29302716 0.19745201 0.14294006 0.013626409
000230 42 0a 7f 3b 2c d8 ea bd 9c 7c 91 3e e5 c6 b2 3d
       0.0038916026 -0.11467013 0.28415382 0.08729342
000240 08 87 62 be 35 3d 9a bd 7c 7d 0b 3d af 8e 11 3e
       -0.22121823 -0.075312056 0.034055218 0.14214586
000250 e4 99 75 be ee 11 91 3d 51 1b d2 3d da 67 32 be
       -0.23984486 0.07083498 0.102591164 -0.17422429
000260 d9 29 f1 bc 9a bc 98 3d 71 1d 35 bd 0e 3f 85 bd
       -0.0294389 0.07457848 -0.04421753 -0.06506167
000270 46 95 bc 3d 5a 71 1b be e9 e3 8f be 56 e8 4a 3e
       0.09208159 -0.15179959 -0.2810357 0.19815192
000280 fe a5 06 3d 08 cc 25 3e 88 ef ae 3d 8c 92 e3 3d
       0.032873146 0.16191113 0.08541781 0.11111936
000290 51 85 11 3e a0 86 c6 3c 69 87 c4 3d 75 a7 a9 3c
       0.14211012 0.024234116 0.0959614 0.020709733
0002a0 13 ec 47 3e 88 db 81 bd 8e 5b db bd d4 57 9f bd
       0.19523649 -0.063407004 -0.10710822 -0.07780424
0002b0 3b c9 2f be 97 59 32 be 48 19 c1 3e 3a f9 c7 3d
       -0.17166607 -0.17416988 0.377146 0.09764333
0002c0 d6 17 5e bc b8 10 51 bd b7 72 aa 3d f2 bf 3f bd
       -0.013555488 -0.051041335 0.08322661 -0.046813913
0002d0 d1 d1 04 3d 16 48 a1 bc 1f a7 46 bc 5e de 7f bd
       0.03242666 -0.019687694 -0.012124806 -0.062467925
0002e0 0c 97 00 3e c8 fa 4a be 06 31 b3 bd ca 8a 5f bd
       0.1255762 -0.19822228 -0.08749585 -0.05457572
0002f0 9a 95 d1 3d 55 c0 69 3e 42 c3 26 3e 18 2b ae bd
       0.10233612 0.22827275 0.16285422 -0.08504313
000300 ff a2 84 3e 53 81 e4 bd 75 bf 8d 3e 26 fa 35 be
       0.25905606 -0.11157479 0.27685133 -0.17771205
000310 62 c1 eb bd e3 b5 94 bc 30 4c b7 3d b5 30 66 3e
       -0.11511494 -0.018153137 0.089500785 0.22479518
000320 fb 5f b0 3d 17 bc 5c bd ff 4f 82 3e 41 80 a3 bd
       0.08612057 -0.053890314 0.25451657 -0.07983447
000330 fb a2 6a 3e 04 32 51 be 7d 62 cd be a0 b8 f0 bd
       0.22913735 -0.20429236 -0.40114203 -0.117539644
000340 23 7c 5f 3c 0b 57 97 3d 53 99 8e 3e 6f ab 5d be
       0.013640436 0.07389649 0.27851352 -0.21647428
000350 13 43 b4 3d 64 b9 05 3e e0 a8 7b 3c 01 5e 68 be
       0.08801856 0.13059002 0.015360087 -0.2269211
000360 bf 6e 1f 3d cb 81 6d 3d 33 ed 51 3e b7 3a 0b 3d
       0.038923975 0.05798511 0.2050064 0.03399154
000370 a2 07 74 be be fb 40 3e 0a 9e 58 bc 49 69 83 bd
       -0.23831037 0.18846032 -0.013221273 -0.06416566
000380 9e d5 33 3e 25 78 81 3d eb ab d9 3c 3b 85 51 3d
       0.17561957 0.06321744 0.026571235 0.05115245
000390 9c 67 27 3d 45 52 a7 3d dd e0 c4 3d 5a ea df bd
       0.040870294 0.081699885 0.09613202 -0.10933371
0003a0 5a ee 59 be d0 57 27 3e e7 ce bf be fb a3 26 3e
       -0.2128233 0.16342092 -0.3746254 0.16273491
0003b0 5e 7d 23 3e 56 34 3e 3e 88 8c b3 3d 3e 9e 04 3c
       0.15965793 0.18574652 0.087670386 0.0080943685
0003c0 93 20 5e be eb 9c ad be e6 78 33 3c 22 df fd bd
       -0.21692114 -0.3390878 0.010954117 -0.12396075
0003d0 f2 a0 03 3e e4 4d 47 bc eb 9e 20 be ff 23 2a bc
       0.12854365 -0.012164567 -0.15685622 -0.010384559
0003e0 1d 8c 00 be 1b 7e ec bd 8c f1 85 bc 54 3f 98 be
       -0.12553449 -0.1154749 -0.01635053 -0.29735816
0003f0 0c 53 c1 3c 9f ad 29 3d 4b e9 9a bd 8b 4d 38 be
       0.02359917 0.041425344 -0.07564028 -0.1799833

actor.4.bias f4 [7]
000000 57 00 3e bc 1f 89 23 3e c2 c2 37 bd 49 7a df 3d
       -0.011596761 0.15970276 -0.04486347 0.10911996
000010 71 b0 55 3d 6f 2d 4c be 6e dd bb 3d
       0.05217022 -0.19939207 0.09173094

critic.0.weight f4 [64, 32]
000000 6d d6 15 bd 68 31 91 bd e7 a5 8d 3d ad 9b 22 3e
       -0.036581445 -0.070895016 0.06916409 0.15879698
000010 69 a0 1b be 7b ce 34 3d 66 1c 91 be 3e 66 06 3e
       -0.1519791 0.044142228 -0.2834198 0.1312494
000020 60 ed ca bc 3c 36 61 3d 0c 73 d1 bd 58 3d b1 3d
       -0.024771392 0.054983363 -0.102270216 0.086542785
000030 d5 a2 52 bd b8 c5 81 3d d9 86 a1 3a 48 fd a9 3b
       -0.05142482 0.0633654 0.0012323513 0.005187664
000040 49 b7 f3 3c 27 1c b9 3d 1e ce a0 be 54 bb c7 bd
       0.029750483 0.09038573 -0.31407255 -0.09752527
000050 b7 fa 5c 3e 32 35 35 3d c1 18 45 be 1e 6b a6 be
       0.21580015 0.044240184 -0.19247724 -0.325036
000060 71 68 fd bd 39 3e 8d 3d 17 16 bf bc ea 90 15 bd
       -0.12373436 0.06896634 -0.023325963 -0.036515154
000070 06 20 b1 b9 df ee 9e bd 8c 18 3b bd 28 cb a2 bb
       -0.0003378393 -0.07760405 -0.045677707 -0.004968066
000080 48 7c a9 bd d1 0c f2 3d 98 21 e2 b9 88 cd 14 3e
       -0.08275658 0.11818851 -0.00043131108 0.14531529
000090 95 18 7e 3d aa 15 7f 3e 90 c9 23 3e fe 11 c8 bc
       0.062035162 0.24910608 0.15994859 -0.024422642
0000a0 ab 0a c3 3c 2d 1a f6 bc db d7 30 bd 3f d2 3f bd
       0.023808798 -0.030041778 -0.043174606 -0.046831366
0000b0 2c c9 02 be 97 e4 19 bd 03 20 c2 bd 00 08 1c 3c
       -0.12772053 -0.037571516 -0.09478762 0.009523392
0000c0 22 fd fb bc 45 db 28 3e 4f 6e cc 3d fe 83 c3 be
       -0.030760352 0.16489895 0.09981977 -0.3818664
0000d0 ca 8b b6 3d 3a a8 8d 3d be cb 79 3e f6 a6 0c 3e
       0.089133814 0.06916852 0.24394128 0.13735566
0000e0 c7 54 1d bc bc 43 44 3c db 8e dd 3d 3a 3a bb 3c
       -0.009602732 0.01197904 0.10818263 0.022854913
0000f0 f0 8b 6d 3c f2 de 31 bc 14 98 b2 3d 15 dc 22 be
       0.014498696 -0.010856377 0.08720413 -0.15904267
000100 43 8e ca bc 5a 2a da 3d fa 30 26 be aa 4b 82 3b
       -0.024726039 0.10652609 -0.1622962 0.003976305
000110 93 8b a0 3d ea 6c 0f 3c a2 9c 8d bd 71 24 b1 bc
       0.07839122 0.0087539945 -0.06914641 -0.021623822
000120 38 14 cb 3d b1 90 08 be a2 d4 68 3d 70 f2 c3 bd
       0.09915966 -0.13336445 0.056843407 -0.09567726
000130 76 87 2a bd 50 30 48 3d 58 46 67 bd 56 2e 43 3d
       -0.041633092 0.0488742 -0.05646357 0.04765161
000140 5b 8e ea 3d 14 3b 10 bd e9 03 77 be 98 5b f7 be
       0.114529334 -0.03521259 -0.24122585 -0.48312068
000150 7b 97 91 3b 5c 20 60 3d 2e 17 d6 bc c1 ec 92 bd
       0.0044431067 0.05471836 -0.0261341 -0.071740635
000160 72 e9 b3 bd ad 40 a7 3c be 5e 3e 3c ff f7 a1 bd
       -0.087847605 0.020416582 0.011619268 -0.079086296
000170 44 94 db 3d ef 7e 16 bd 48 bc f7 bc 82 c3 28 bb
       0.10721639 -0.036742147 -0.030241147 -0.0025751297
000180 08 62 07 be b5 85 ed 3d f6 ae 90 3d 61 e8 0a be
       -0.1322099 0.11597768 0.07064621 -0.13565208
000190 45 45 a3 3d 32 b5 98 3d dd 84 79 3e 18 4f 61 3e
       0.079721965 0.07456435 0.2436709 0.22002828
0001a0 8f 78 92 3d ea 17 b0 bd 91 80 cb bd e7 38 db bd
       0.07151901 -0.08598311 -0.099366315 -0.10704213
0001b0 e1 d0 52 3d d0 19 bb 3c 87 b0 68 bc 5e ac 6d bc
       0.051468734 0.022839457 -0.014202244 -0.014506428
0001c0 aa f2 a4 bb a5 7c 49 3e 2e 4a 15 be 1c 60 46 bf
       -0.0050338106 0.19676454 -0.14579079 -0.774904
0001d0 31 f2 8a be e3 d6 fd bd 02 7b 87 bf 85 0c 88 3e
       -0.27137902 -0.12394502 -1.0584414 0.26572052
0001e0 fe 54 25 3e af 1c 9e bc 7f 15 ad bc f7 3d e4 3d
       0.16145703 -0.019300787 -0.021128414 0.11144631
0001f0 05 b4 db bc 93 4b b4 bd ad 68 48 3d 6e eb 5a 3d
       -0.026819238 -0.08803477 0.04892795 0.05344718
000200 c0 0c 1b be 59 b7 e2 bd 3c 72 69 3d e2 be be bc
       -0.15141582 -0.11070127 0.056993708 -0.02328438
000210 93 60 99 3e 6b d1 f0 3d 9e f2 7e 3e b4 88 4e 3d
       0.29956493 0.11758693 0.24897239 0.05042334
000220 aa ae 98 ba 45 82 d2 bc 59 61 1c bc bc 09 85 bc
       -0.0011648734 -0.025696883 -0.009544694 -0.016239993
000230 db 8a e3 ba 5e 39 a0 b8 f3 c8 c4 3b e0 e4 a4 39
       -0.0017360108 -7.64008e-05 0.0060054003 0.00031451043
000240 40 2f ec 3b fa 3a 3f 3d 0b 9c 87 3e 06 0e 61 bd
       0.007207781 0.046687104 0.2648624 -0.054945014
000250 b1 85 88 3d 22 bd 23 3d ca b1 20 bf f5 5e aa 3e
       0.066661246 0.039975293 -0.62771285 0.3327557
000260 27 33 11 be fc b9 3d bc 6f 35 75 bd bf 93 1e bd
       -0.1417967 -0.011579987 -0.05986541 -0.03871512
000270 1b b8 9c bc f9 a0 ec ba 41 37 b0 bc b9 c0 a3 3d
       -0.019130757 -0.0018053345 -0.021510722 0.07995743
000280 68 5c f1 bd fc 1c 2d bd c4 a9 88 bd 96 c8 72 3c
       -0.11785203 -0.04226397 -0.06673005 0.014818331
000290 22 d8 05 3e 6d 5e 66 3d e2 e6 c6 3b c5 db ad bd
       0.1307073 0.056242395 0.006070004 -0.08489183
0002a0 83 32 a3 3d 6f 29 0a 3d 55 03 cd bd d2 3e 26 3a
       0.07968619 0.03373092 -0.10010401 0.00063417584
0002b0 cf 03 3f 3d fe 13 a6 bb 86 e7 4e bb 2e 04 12 3c
       0.04663449 -0.005068301 -0.0031571104 0.008912129
0002c0 1e fd 1a 3e 5b 1d 0d bd ef 18 75 be 26 91 28 bd
       0.15135619 -0.034451824 -0.23935293 -0.04115405
0002d0 8c ea 8d be 9b c9 1a be 52 83 15 3f fb 00 e2 3e
       -0.27718008 -0.15115969 0.58403504 0.44141373
0002e0 d9 86 91 3d 2d 56 93 bd d1 45 0f 3e 80 8a 77 3c
       0.07105798 -0.07194171 0.13991477 0.015108705
0002f0 63 36 a6 3d 8a 87 ab 3c 08 c6 69 3b dc 0d fa bc
       0.08115842 0.020938653 0.0035671014 -0.030524187
000300 c7 6f 0e 3e 3b 97 5c 3e f9 ec bc bd 76 f7 1e 3e
       0.13909827 0.21542065 -0.092248864 0.15524086
000310 2d 5a 21 3e 9b b3 e8 3d e1 bd 9f 3d 5a 15 f5 bd
       0.15757056 0.11362382 0.077998884 -0.11966963
000320 d4 e8 c3 3d de af 45 3d bb d6 87 3c 8a 94 ea 3c
       0.09565893 0.048263423 0.016581884 0.028635282
000330 9f b6 4b bb d6 33 4c bc 48 73 3b 3b 4b f1 cc bc
       -0.0031084192 -0.0124635305 0.0028602649 -0.025017401
000340 b3 e7 ca bc ea 21 e5 bd f8 cf 40 3e 7c b8 f4 bf
       -0.024768686 -0.11188109 0.18829334 -1.91188
000350 15 ed 3b bc e5 23 11 3e 60 d9 5d bf de 30 fd 3c
       -0.011470099 0.14173849 -0.8665981 0.03090709
000360 4f 8a 1e bd 91 f8 52 bd a3 e8 82 3d 67 6f d0 3a
       -0.03870612 -0.051506583 0.06392028 0.0015902341
000370 a9 58 00 3d 26 1d c4 3c d8 d4 45 3d 03 91 3c 3d
       0.031334553 0.02393968 0.048298687 0.04603673
000380 a4 b3 be 3d cf 0d fa 3d 22 20 97 bb 46 3f 0c be
       0.093116075 0.12209665 -0.004611985 -0.13696012
000390 a9 8f bd bd 68 d0 6d be 0d 2b 13 be 17 a2 16 3e
       -0.092559166 -0.23224032 -0.14371891 0.1471027
0003a0 ed 14 bc 3d 5a 0a 61 3c 19 60 ba 3d 7c 79 25 3c
       0.09183679 0.013735378 0.091003604 0.010099765
0003b0 3d dd 2b 3c 6e 5e f0 3c eb f4 e8 3c d3 55 b0 3d
       0.010489759 0.029341903 0.028437098 0.0861012
0003c0 76 24 2c be aa 79 a7 bd e4 17 94 3d 9f 8f 17 3f
       -0.16810784 -0.081775025 0.07231119 0.59203523
0003d0 90 9e f2 bd 63 4e 02 3e a3 fd 04 bf d3 ea 72 bd
       -0.1184665 0.12725215 -0.5194952 -0.059305977
0003e0 7e 01 08 3e 23 f1 85 bd bf b9 c1 bd 50 b3 14 bd
       0.13281819 -0.06540134 -0.094592564 -0.03630382
0003f0 90 4f b6 bc 29 65 fd 3b 1d 92 54 bc 53 c6 72 3c
       -0.022254735 0.0077330065 -0.012974289 0.014817792

critic.0.bias f4 [64]
000000 75 bb 10 3e d4 0a 32 be 1c 0b bf bd 07 11 f7 bd
       0.14134009 -0.17386943 -0.09328291 -0.120637946
000010 9a 1f 4a bc 2b 52 c3 bd 1b 67 81 bd 7c df 11 3d
       -0.012336636 -0.09537157 -0.06318494 0.035613522
000020 ac 0f 32 bd 5c 30 a5 bd 05 52 34 3b a7 70 bd 3d
       -0.043471977 -0.080658644 0.0027514708 0.09250002
000030 18 4d c9 bc 66 55 cb bd 0a 6d ad 3d 48 95 ae bd
       -0.024572894 -0.09928398 0.08468063 -0.08524567
000040 92 bf e4 bd 6d 33 15 3e af 8c 37 bc be d8 f2 3d
       -0.11169352 0.14570399 -0.011202975 0.118577465
000050 df b5 e4 3d cb 9e b2 bd 2b b6 a7 3d 0b c6 41 bd
       0.11167502 -0.087216936 0.08189043 -0.04730801
000060 3d a5 4a 3d 98 30 72 bd e4 1d 52 3d 1c ef ca 3c
       0.04947399 -0.059128374 0.051298037 0.02477222
000070 15 2f 88 bd de 78 48 3e 3f f5 79 bd 34 36 a3 3c
       -0.06649605 0.19577357 -0.0610249 0.019923307
000080 85 eb b0 bd df bb 52 bd 40 fb 0e 3d f1 25 a2 bd
       -0.08638672 -0.0514487 0.03490758 -0.07917393
000090 92 ab 65 bd 27 15 49 3e 95 cf 0c be 7d 3b 84 bc
       -0.056071825 0.19636975 -0.13751061 -0.016141647
0000a0 73 2f 50 3d 1c 64 91 3d 90 c1 0f 3d 19 be 5f be
       0.0508265 0.070991725 0.035096705 -0.2184986
0000b0 8f d8 30 be c8 d2 7e 3d 68 77 cf bd 35 50 3b be
       -0.1727011 0.062212735 -0.10130197 -0.18292315
0000c0 db e6 8e bd 6b b5 11 bd 42 94 34 be d3 de 13 be
       -0.06977626 -0.035573404 -0.17634681 -0.1444047
0000d0 2d ab 17 3d 09 fc 08 be 6d ba f6 bd 96 2c 92 bd
       0.03702848 -0.13377394 -0.12047277 -0.0713741
0000e0 75 f8 e3 3d 89 71 50 bd ad 4b 08 be 08 84 aa bd
       0.11131374 -0.050889526 -0.13310118 -0.08325964
0000f0 08 26 e1 bc 14 4e 1f 3e 67 ff 0b 3e b8 f8 ad bd
       -0.027483955 0.15557128 0.13671647 -0.08494705

critic.2.weight f4 [64, 64]
000000 2e 13 ec bd 87 49 b0 bc 5d fb 3c 3e 06 b6 e9 3d
       -0.11527096 -0.021519436 0.18455262 0.11411671
000010 57 1f dc 3b 4d 92 5b bc 49 25 b7 3d fc cf 71 3d
       0.006717603 -0.01340158 0.089426585 0.05903624
000020 6a 8d 84 3e 24 11 0c 3e 5c 27 cc 39 04 33 ea bd
       0.2588914 0.13678414 0.00038939237 -0.11435512
000030 66 80 24 be 67 37 b1 3d c3 2b 54 3d ba 8e d8 3c
       -0.16064605 0.08653145 0.051799547 0.026435245
000040 fe a6 b9 bd 0f 95 25 be 82 8e fa bd fa db 31 be
       -0.09065054 -0.16170143 -0.122342125 -0.1736907
000050 f8 81 1c bd d1 6c 23 be ae 17 68 bd ab 3e 28 3c
       -0.038209885 -0.15959479 -0.056663208 0.010268847
000060 b8 b7 25 3d 1d fe 88 bc 63 1d 9a 3d 70 2b a5 bd
       0.04045841 -0.016722733 0.07525136 -0.08064926
000070 c2 76 81 3d 81 6a 42 be 93 57 ae 3d 60 28 ef bd
       0.063214794 -0.1898594 0.08512797 -0.11677623
000080 25 b9 f4 3c 82 20 4d 3d 13 ec ba 3d a4 7d 87 3d
       0.02987344 0.05007983 0.09127059 0.06615761
000090 9a 3c aa bd 2e 37 10 be 56 58 4a be 5a 56 ff 3d
       -0.0831234 -0.1408355 -0.1976026 0.12467642
0000a0 6e 6e 86 3d e9 d4 be bd 22 0f df bd ec 75 31 be
       0.065640315 -0.09317953 -0.10891558 -0.1733014
0000b0 b0 56 2e bd 91 3d 17 3e e1 c2 a1 3d 1d fe 00 be
       -0.04256314 0.1476958 0.07898498 -0.12596937
0000c0 fc 7b ef bc e0 13 d5 bc 2e 75 d2 3c 72 23 d4 bd
       -0.029233925 -0.026010454 0.025690641 -0.10358323
0000d0 e8 39 84 3d 1d 3e d8 bd 96 35 bc bd ca 1c ba 3c
       0.06456357 -0.10558722 -0.09189908 0.022718806
0000e0 2a d2 11 3e 28 70 d0 3d 52 d6 9f 3d 82 ca 53 3d
       0.14240327 0.10177642 0.0780455 0.0517068
0000f0 c0 24 4f bd 12 bc 6b 3c ff 9a a2 3c e0 55 a2 bd
       -0.050572157 0.014388101 0.019849299 -0.079265356
000100 c8 d4 2a bd e8 a6 91 bd a1 de 1c 3d d7 4e cb 3d
       -0.04170683 -0.07111913 0.038298253 0.09927147
000110 3c b7 fe bb 03 eb 86 3d f3 8a f3 bc ea 5c 10 bd
       -0.007773308 0.06587794 -0.029729342 -0.03524486
000120 a5 e5 21 be 97 e0 1e 3e 86 fe 49 3e 99 d4 6f 3d
       -0.15810259 0.15515362 0.19725999 0.05855236
000130 19 d8 18 be 49 38 6a bb a9 81 86 3e 89 32 f7 bc
       -0.14926185 -0.0035739115 0.26270798 -0.030175464
000140 70 dd b1 3d ee e1 f4 bd 16 6a 85 3d ce de b8 bd
       0.08684814 -0.11957155 0.06514375 -0.090268716
000150 cc d3 1e 3e aa 2c 84 bd fc f3 62 bd 4a 21 08 3e
       0.15510482 -0.064538315 -0.055408463 0.13293949
000160 3c 69 0d 3e 29 5d 3e 3e a0 0b 89 3d 76 5a 59 3d
       0.13809675 0.18590225 0.066916704 0.053064786
000170 76 76 d3 3d d6 67 8b bc 2e 38 57 3d ec d2 98 3c
       0.10325329 -0.017017286 0.05254381 0.018655263
000180 8d 4d b0 3d 54 75 c1 bd fd 40 cd bd a6 aa c0 bd
       0.08608542 -0.09446207 -0.10022161 -0.094075486
000190 52 0f b0 bd 70 51 fc bc 37 c1 86 bd 3c 64 87 3e
       -0.08596672 -0.030800551 -0.065798216 0.2644366
0001a0 ad 5e f4 3c 3b cc e3 bd ba 4d 2c 3e 0e 28 83 bd
       0.029830301 -0.11122938 0.16826525 -0.06404124
0001b0 3d 9a ab bd 8c 7c b1 3d 0b 9e ac 3c 86 ab 7e 3c
       -0.08379028 0.086663336 0.021071455 0.015543824
0001c0 02 2b 17 bd 8c 53 38 be 76 9d 3e 3c 0e f8 76 bc
       -0.03690625 -0.1800062 0.011634221 -0.015073789
0001d0 2a 5e 8b 3c 07 77 44 be a9 11 8f 3b 68 41 13 bd
       0.017012674 -0.1918603 0.004366119 -0.035951048
0001e0 f6 a2 e5 3d 24 23 92 3c b4 43 39 3d 99 a1 49 3e
       0.11212723 0.017839022 0.045230582 0.19690551
0001f0 a6 0c 1b 3c 34 d9 23 3e 35 95 1e 3e 8b 6b be 3d
       0.009463465 0.16000825 0.15486605 0.09297856
000200 4e 5e 8b 3d 31 c8 30 bd 03 bb 07 3d 9a a6 e1 bd
       0.068050966 -0.043159667 0.033137333 -0.11018105
000210 5d 5a 67 3d 2b d8 42 3c 66 f2 9e bd 93 a3 1e 3e
       0.05648266 0.011892359 -0.077610776 0.15492086
000220 e9 f5 42 be ca 69 f1 b9 ba 30 a4 3c 82 cf f0 3b
       -0.1903912 -0.0004604592 0.020042766 0.0073489556
000230 78 bf de bd be f2 10 3e 7e 47 d1 bd 15 7f f9 3d
       -0.108763635 0.14155099 -0.10218714 0.12182442
000240 c5 6d 90 bd 6f 80 09 3e 3f 28 af bc b5 a2 14 3e
       -0.07052187 0.134279 -0.021381496 0.14515193
000250 02 7a 0b 3d 76 e5 63 be 26 96 2c bd 97 d1 9e bd
       0.034051903 -0.22255501 -0.04213538 -0.0775482
000260 a3 bb be bd d9 46 29 3e 1f a7 bf 3c 08 bd b3 bd
       -0.093131326 0.16530932 0.02339512 -0.08776289
000270 d7 3e 56 3c d0 06 16 3e 37 b8 27 3d be d9 c8 3d
       0.013076506 0.14651036 0.040947165 0.09807156
000280 51 e5 a5 bc 91 30 54 bd 29 51 90 3c 0b b8 9f bc
       -0.020250948 -0.05180413 0.017616825 -0.019496938
000290 b9 72 f3 bc cb ea a4 3d 1c b4 d9 ba 8e c8 2d bd
       -0.02971779 0.08052596 -0.0016609463 -0.042427592
0002a0 a3 79 f8 3c 00 2d ec bd ea f3 42 3d 98 98 e1 bd
       0.030331438 -0.115320206 0.047595896 -0.11015433
0002b0 20 b2 30 bd 9c 6b 2f 3d e9 c2 95 bd ac 69 e6 bd
       -0.043138623 0.042827234 -0.07312567 -0.11250624
0002c0 34 3b 8f bd 5c f1 80 3d 2d 17 03 bd c6 f4 5d bd
       -0.06993714 0.06296036 -0.032004524 -0.054188512
0002d0 87 d6 a4 3d f0 dc 05 3e d2 36 cf 3d ec 36 29 3d
       0.0804873 0.13072562 0.10117878 0.041312143
0002e0 80 72 a0 bc b7 d6 c8 3b 2f db 30 3e 41 60 eb bd
       -0.019585848 0.0061291116 0.17271112 -0.11492968
0002f0 e1 5e d6 3d b4 02 ef 3d 61 aa b2 3d c8 a5 cf bc
       0.104673155 0.116704375 0.087239034 -0.025347605
000300 db ec 66 bc 33 c3 03 bd 74 f9 61 3e 30 e0 de bc
       -0.014094557 -0.03216858 0.22067815 -0.02720651
000310 7a a4 ba bd ce b6 29 bd 35 da cf 3b 12 a1 8e bc
       -0.09113403 -0.0414341 0.006343151 -0.017410789
000320 ea 63 c6 bd 3d 73 93 3e dc 30 1f 3d 93 66 17 3e
       -0.09687026 0.28798857 0.038864955 0.14785223
000330 25 3e cd bd a7 b3 06 be 23 a4 fb bb 5f 2c f7 3d
       -0.10021619 -0.1315447 -0.0076794787 0.1206901
000340 60 e9 3c bd 07 03 c3 3d 9f c9 79 3c f1 ad 87 3e
       -0.046121 0.09522062 0.015245824 0.26499894
000350 5f ea c1 3e cf 4d de bd c4 43 8a bc 71 62 27 3d
       0.37874123 -0.108546846 -0.016878016 0.040865365
000360 31 19 05 be 5a 77 bf 3d 92 c6 07 3e ba d4 ed bd
       -0.12997891 0.093489364 0.13259342 -0.1161284
000370 9a d7 86 3c ce 39 46 3d 5d 3d 4e 3c 73 1d ad 3d
       0.016460229 0.04839497 0.012587872 0.084528826
000380 2e 59 97 bd 95 82 88 bd 4b 54 d3 bd 6c 88 c6 3b
       -0.073900566 -0.066655315 -0.10318812 0.006058743
000390 b4 c4 8c 3d a4 67 14 bd ac 99 94 be bb c6 bf 3c
       0.06873456 -0.036231652 -0.29023492 0.023410192
0003a0 96 8f 1d 3d 7f ee 8d be 28 24 d0 3d e8 cc 3b be
       0.038467012 -0.2772102 0.10163146 -0.18339884
0003b0 c0 7c 25 be 3f bc 8e 3d 3f 82 49 3d 30 ca ce ba
       -0.1616087 0.06969499 0.049196478 -0.0015776809
0003c0 ff 7b 88 bd 68 17 77 bc 48 6b b6 3d 27 98 cb 3d
       -0.066642754 -0.015081264 0.08907181 0.0994113
0003d0 5f ad a8 bd 37 ba 1a bd 82 36 b6 bd a8 5a 78 3c
       -0.08236193 -0.037775245 -0.08897115 0.015158333
0003e0 c9 51 39 3e cd be 9b bd 85 f2 dd bd dc 8a 0c 3e
       0.18097605 -0.07604752 -0.108372726 0.13724846
0003f0 70 7c f9 bd 02 20 8f bd 18 cc 9a bc f9 5e ce bd
       -0.12181938 -0.06988527 -0.018896148 -0.10076708

critic.2.bias f4 [64]
000000 bd 6e d8 bc ca fa 0b be 50 dc 95 3b 5c dd 8c be
       -0.026419992 -0.13669887 0.0045733824 -0.27512634
000010 dc 35 a5 3d 48 84 b3 bd 37 13 93 bd ca 43 c9 3d
       0.080669135 -0.08765465 -0.07181399 0.09827383
000020 8d 0c 24 3e 57 e2 8d 3d b3 d9 da bd b9 ee 39 be
       0.16020413 0.069279365 -0.10686054 -0.18157472
000030 92 ef d9 bd a3 ed 45 3d e3 6d 83 3c 50 85 65 3d
       -0.106413975 0.04832233 0.016043609 0.05603534
000040 ed 25 e2 3d f8 92 e6 bd af 5e ea bd db 9d 75 3d
       0.1104239 -0.11258501 -0.11443841 0.059964996
000050 9a d2 b8 bd cf 39 32 be 68 03 f8 3c 14 9e 23 3d
       -0.09024544 -0.17404865 0.030275062 0.039945677
000060 1b 52 b1 bd f7 74 68 3c 36 09 24 be fe 0c 2f bc
       -0.086582385 0.014188043 -0.16019139 -0.01068425
000070 04 68 ce bd 24 0e e0 3c 09 fc bc 3d 28 bf 21 3c
       -0.10078433 0.027350493 0.092277594 0.009872235
000080 e0 fe cd bc 93 13 b3 3d e0 1d 04 3e aa 62 e6 3d
       -0.025145948 0.08743968 0.12902021 0.112492874
000090 50 67 2b bd c1 ff 95 3c 5e ff 51 be 3c c4 05 be
       -0.041846573 0.01831043 -0.20507571 -0.13063139
0000a0 f5 7c 61 be 0a 3e 7e bd 07 72 d9 3d 9f a7 42 3e
       -0.22020324 -0.062070884 0.10617452 0.19009255
0000b0 e7 d4 43 3d cc ca 62 bd 16 b8 77 3d 1d 40 18 bc
       0.04781046 -0.055369183 0.060478292 -0.00929263
0000c0 f7 48 f6 3d 49 2b 75 bd bd 85 21 3e 7a af 42 3c
       0.12025636 -0.059855733 0.15773673 0.011882657
0000d0 b0 18 85 bd e4 0c 92 bd f9 14 ba 3c 2b a5 ad bc
       -0.064988494 -0.07131365 0.022715079 -0.021196922
0000e0 ea 73 b4 bd 66 a6 e6 bd 22 a8 11 bd a0 08 8a bd
       -0.08811171 -0.11262207 -0.035560735 -0.06739926
0000f0 3b 58 ff bd d9 f9 16 bc 13 0f 8e bd 8c e4 15 3c
       -0.124680005 -0.009214842 -0.06936469 0.009148728

critic.4.weight f4 [1, 64]
000000 ce 6b eb bc f6 b0 0b bd 67 5e 80 bb 61 58 45 bd
       -0.028737929 -0.03410431 -0.0039175036 -0.048179988
000010 cc 3c 96 bc 22 e1 42 3b aa 2f e0 bc 77 8f 3d bc
       -0.018339537 0.002973624 -0.027366478 -0.011569849
000020 1c 77 89 bd 3a 9f d1 bc b0 23 96 bd 15 85 bd 3d
       -0.067121714 -0.02558862 -0.073310256 0.09253899
000030 77 09 8f bc 82 fd 92 3d d5 4a 55 bc 11 a0 0e bd
       -0.017460568 0.07177259 -0.01301833 -0.03482062
000040 4c 15 dd ba fc a4 08 3e 9a 44 7e bc 6d 7c 74 3c
       -0.0016867309 0.13344187 -0.015519286 0.014922244
000050 b4 4c da bb 25 76 75 bd c3 af dd 3c a0 21 30 bb
       -0.0066619758 -0.059927125 0.027061349 -0.002687551
000060 e4 dc 18 3d 72 62 1f bb f7 b5 1b 3c 2e e5 d3 3b
       0.037320033 -0.0024320153 0.009503833 0.0064665293
000070 a0 b5 81 3c e8 0e 6e bb bd ef 15 bc f0 2b 9a bb
       0.015833676 -0.0036324803 -0.009151396 -0.004704945
000080 4d 16 5d 3b 40 de 47 bd 55 7c 38 3c 8c 69 b4 3c
       0.0033735216 -0.04879594 0.011260112 0.022022985
000090 eb 8e 05 bd 0e 99 f5 3a 1b 85 51 bd 90 3e e1 bb
       -0.032607 0.001873763 -0.05115233 -0.006873913
0000a0 16 2a f4 39 5f e7 b6 bc 8e 72 53 bc 93 64 17 be
       0.00046570663 -0.022327123 -0.01290573 -0.1478446
0000b0 12 a8 12 3c 4f b1 0d 3e e1 66 b7 3c 5d b3 a4 bb
       0.008951204 0.13837169 0.022387924 -0.0050262646
0000c0 1c 3a 08 bd 83 41 08 bc 09 dc 5e 3c bc e3 12 3d
       -0.033258542 -0.0083164 0.013602265 0.035861716
0000d0 ba 75 86 bd cb b5 d6 3b 2a 7e 1d 3c be 64 62 3b
       -0.06565423 0.006552433 0.009612599 0.003454491
0000e0 26 f1 1f bd 7c 1b 43 bd 41 00 80 bc 39 82 d9 bc
       -0.039048336 -0.047633633 -0.015625121 -0.026551353
0000f0 21 ba b6 bc 3c 76 d2 3d cb b9 a4 bd 14 c5 8a bc
       -0.02230555 0.10276458 -0.0804325 -0.016939677

exp_avg f4 [7]
000000 d3 3b 87 b9 b8 f8 23 bb 35 d6 82 bb ca 00 30 3a
       -0.0002579378 -0.0025020074 -0.0039928206 0.0006713985
000010 06 c1 c1 3a 9b dc a5 39 ac 05 27 bb
       0.0014782257 0.00031635616 -0.0025485558

exp_avg_sq f4 [7]
000000 60 9a 41 39 a6 39 aa 39 4a e2 81 39 85 fe f6 39
       0.00018463423 0.00032467878 0.00024773396 0.00047110408
000010 01 1e 75 39 34 55 04 39 10 21 b6 39
       0.00023376198 0.00012620242 0.0003473838
