logs/rsl_rl/franka_reach/2025-06-27_10-55-03/model_999.pt (torch, 172795 bytes, 36 tensors)

std f4 [7]
000000 21 45 7c 3d 49 50 10 3d 30 bd 4c 3d 92 13 bb 3c
       0.061589364 0.035232816 0.04998511 0.02283648
000010 56 c4 0d 3d 7e 73 1b 3d 3f 8d 38 3d
       0.03461107 0.03795194 0.045056578

actor.0.weight f4 [64, 32]
000000 83 07 47 be 36 3a 1f 3e a8 50 4c be b9 ba e3 3d
       -0.19436459 0.1554955 -0.19952643 0.11119599
000010 89 2f 8c 3e 89 0f 9c 3d 8e b6 f8 3e 50 48 a4 3e
       0.27380016 0.076201506 0.48576778 0.3208642
000020 02 0a 1b 3f 72 22 34 bc b5 2d ef bd 51 17 b3 3d
       0.60562146 -0.0109945405 -0.1167864 0.087446816
000030 3e 5e 9d 3d c0 b9 86 3d 04 c4 29 3d 91 af aa 3d
       0.07683991 0.06578398 0.0414467 0.08334268
000040 35 78 93 bc 16 3e 9c be ed 2a 7d be 55 22 fd bf
       -0.018001655 -0.30516118 -0.24723406 -1.9776102
000050 72 1d ad 3e 11 3c bd bc 20 ad bc bf 04 6d 08 3f
       0.33811527 -0.023099931 -1.4740334 0.53291345
000060 eb 38 18 be 38 5b c6 bd ef 09 45 be 96 26 31 be
       -0.14865462 -0.09685367 -0.1924207 -0.17299876
000070 fb 11 6a bb 9b 6d 0c be 7c 45 57 3d d4 aa 35 3e
       -0.0035716284 -0.13713686 0.0525565 0.17740947
000080 ed 53 b8 3e ed ea 87 3e 11 c3 b1 3e bc 81 78 3f
       0.3600153 0.26546422 0.34719136 0.9707296
000090 a9 89 02 3f 44 28 fb 3e 14 7f d4 bd 30 98 47 be
       0.509913 0.49054158 -0.10375801 -0.19491649
0000a0 8e 1f a2 3c f0 3f c3 3d 10 bb 8e bc ec ad e1 3d
       0.019790437 0.095336795 -0.017423183 0.11019501
0000b0 2c 08 cb 3d 65 b3 ed bc 71 39 94 bd fc db c5 3d
       0.09913668 -0.029016206 -0.072375186 0.09661099
0000c0 e1 07 5f be b2 19 21 3e c8 38 4c bf 73 f3 a5 bf
       -0.2178035 0.15732458 -0.7977414 -1.296492
0000d0 a5 7c d2 bd 42 0d 15 3e 03 94 bc 3e f6 00 f0 3c
       -0.1027768 0.14555839 0.36831674 0.029297333
0000e0 8f 7e 69 3d 8e ad 41 bc 52 4c 64 3e ef 7b c0 bd
       0.05700546 -0.011821164 0.22294739 -0.093986385
0000f0 1a aa 9d bd 65 71 97 bd 4c 8d c4 3d 73 a6 dd bd
       -0.0769846 -0.07394675 0.09597263 -0.10822763
000100 33 1d 7a 3f 56 36 00 3e c2 a8 68 3f c6 21 02 bf
       0.97700804 0.12520728 0.90882504 -0.50832784
000110 04 46 9b bd db 8f 03 be cc 69 90 3e 79 7d c3 3e
       -0.07581714 -0.12847845 0.28205717 0.38181666
000120 01 87 1d 3f 37 26 31 be dc d7 59 3d 09 3d 5d be
       0.61534125 -0.17299734 0.053184375 -0.21605314
000130 63 c8 63 bc f1 87 d9 bc e0 bd a3 3d b1 99 a4 3d
       -0.013902756 -0.02655408 0.079952 0.08037127
000140 c7 c4 1b 3e 4b 82 e4 bd c9 5b ab 3e 57 0f 40 bf
       0.15211783 -0.11157664 0.33468464 -0.75023407
000150 f0 48 1d 3f 8a c5 23 bd de 15 aa bd 83 f5 74 be
       0.6143942 -0.03998331 -0.08304952 -0.2392178
000160 ac 49 b5 bd 82 9c 27 3d ae 06 7a 3e 1d 0f ad 3b
       -0.088519424 0.04092074 0.2441661 0.0052813427
000170 46 1c 39 3e c4 fe e3 3d b7 24 89 be d3 88 0d be
       0.18077192 0.11132577 -0.26785824 -0.13821726
000180 6a 46 2e be d6 c3 25 be 29 31 43 3e 54 d1 aa bd
       -0.17019048 -0.16187987 0.19061722 -0.083407074
000190 54 3b 6e 3d 81 f7 a6 3e b2 a6 a7 3e 47 ac 45 be
       0.05816205 0.32610705 0.32744366 -0.19304
0001a0 c3 83 2e 3d 8e 70 51 bd cc 5d 02 bd 3a c4 a6 bd
       0.042606127 -0.05113273 -0.031827733 -0.08142896
0001b0 fa ab c2 bd 62 7f 20 be b4 9e 73 3d d4 82 a2 bc
       -0.09505458 -0.15673593 0.059477523 -0.019837774
0001c0 02 4f 08 3f 17 21 8e be 58 0d 80 bf eb d6 ab 3d
       0.53245556 -0.2775962 -1.0004072 0.08390602
0001d0 99 32 47 3f 1e 36 21 be 54 ee f4 be 8b 46 84 bc
       0.7781158 -0.157433 -0.4783808 -0.016146919
0001e0 5f 5b 60 ba 19 4b 9d 3e 7d 42 2c 3e 62 69 25 be
       -0.0008558537 0.30721357 0.16822238 -0.16153482
0001f0 e5 83 7b 3b 61 d7 5d be 6f af 39 be 54 b8 02 be
       0.0038378176 -0.21664192 -0.18133329 -0.12765628
000200 5c fe b0 bd 64 37 fe ba c7 d8 ec 3c 1f 49 97 3e
       -0.08642265 -0.001939517 0.028911961 0.29547974
000210 f4 05 c5 be 3a db 3c 3f f8 66 17 be 81 96 09 be
       -0.38481104 0.73772013 -0.14785373 -0.13436319
000220 c2 9f f1 bd 4a a1 49 bd f2 60 a1 bc bb a8 fb bc
       -0.117980495 -0.049226083 -0.019699547 -0.030720105
000230 d4 81 78 bd cd c0 91 3d 2a 39 a0 3c de 93 25 be
       -0.06067069 0.07116852 0.019558508 -0.16169688
000240 73 1c 3e 3e d4 9d 4c 3f 2f 0f 98 be f2 1e 04 3f
       0.1856554 0.79928327 -0.29699084 0.5160972
000250 04 9d 84 3f bb 56 0d be bf 2b 1f bd 20 50 2d bf
       1.0360417 -0.13802616 -0.03886008 -0.67700386
000260 cd f4 8a bc e0 34 f7 be f6 37 b7 3e 97 b4 a1 3d
       -0.016962433 -0.48282528 0.35784882 0.07895773
000270 7f a2 89 bd b4 26 be 3d 39 6d f0 bd d4 28 45 3d
       -0.06720447 0.09284726 -0.117395826 0.04813464
000280 a6 c3 0d 3e 28 c3 97 be 9d a1 a5 be 9a 80 03 be
       0.13844165 -0.2964108 -0.32349864 -0.12842026
000290 54 60 18 3e a9 06 05 3e a1 11 48 3d e7 6c 8a 3e
       0.14880496 0.12990822 0.048844937 0.2703621
0002a0 4c 21 32 3e f3 b5 0b be 20 ca 80 be 42 90 a6 bd
       0.17395514 -0.13643627 -0.2515421 -0.08132984
0002b0 d8 66 44 3e b8 6a 09 bd ed 70 dc bc df 3f c8 3d
       0.19179857 -0.03354904 -0.026909316 0.097778074
0002c0 ef d6 1b 3f 62 ea 51 3f c8 3a 8c bd c7 26 10 c0
       0.6087484 0.81998265 -0.06847149 -2.2523668
0002d0 0f 08 52 bf c5 27 b5 3d f8 fe de 3d 15 3d 12 3f
       -0.82043546 0.08845476 0.10888475 0.57124454
0002e0 4b 4d bb 3d 8c 22 a8 bd 4e d9 52 3e 2b f0 5b bd
       0.09145602 -0.08209714 0.20590708 -0.05369584
0002f0 b6 4f 91 be ff ce 35 3e 1e 8c 84 3e d8 39 a5 bc
       -0.28381127 0.17754744 0.2588815 -0.020169184
000300 66 6a ca 3e fd 4f 8f bd ef 1a 35 3f e9 9f 8a be
       0.395343 -0.069976784 0.7074422 -0.27075127
000310 60 4a 2c be b4 d4 67 3e 40 af e0 3a de d1 80 3e
       -0.16825247 0.22639734 0.0017142072 0.25160116
000320 f2 25 8a 3d d6 a1 2b 3e b5 b2 7a bb d6 ec ad 3d
       0.06745519 0.16760954 -0.003825349 0.084924385
000330 33 93 2b 3c d4 c2 6c 3b 86 40 a9 3c 05 3d 07 be
       0.010472107 0.0036126869 0.02066065 -0.13206871
000340 f7 c8 aa 3d f4 5b ed 3d 1e 7a 4b 3e a9 33 28 3f
       0.08339112 0.11589804 0.19870803 0.6570383
000350 53 8c 32 be 42 81 dc bd 09 3f cd be 71 99 07 3f
       -0.17436342 -0.107668415 -0.40087155 0.5296851
000360 09 f0 c1 3c 10 40 92 3d 17 80 b6 3d 22 cd 1b 3e
       0.023674028 0.07141125 0.0891115 0.1521497
000370 77 a0 64 bb 10 3c 18 3e d7 bf 0c 3e 9f 59 db 3c
       -0.0034885684 0.14866662 0.13745056 0.026776133
000380 71 19 91 3f 33 4c aa 3d 12 84 84 3f 46 81 fc bd
       1.1335889 0.08315315 1.0352805 -0.123293445
000390 c9 31 f5 be 44 79 a8 be e4 7a 0a bf 17 75 98 3e
       -0.47889546 -0.32905018 -0.54093766 0.29776832
0003a0 5b a5 3e 3e 3e b4 a1 3c df 31 18 bc 8e 05 e9 3d
       0.18617766 0.019739266 -0.009289234 0.113780126
0003b0 4d a6 17 3e a9 2a a1 3d 61 19 c9 bc cf f1 cc bc
       0.14809532 0.07869465 -0.024548234 -0.025017647
0003c0 70 a8 07 be 58 b5 2a bf dd c1 7d be ce 78 29 bf
       -0.13247848 -0.6668296 -0.24780984 -0.6619996
0003d0 23 a9 0f bf fc 8c fe bd 73 13 84 bf fa 6e c3 3e
       -0.5611746 -0.124292344 -1.0318435 0.38170606
0003e0 8f c8 83 bd 1a e0 97 bd 56 5c 61 bd 7c 01 89 be
       -0.06434738 -0.07415791 -0.0550197 -0.26758945
0003f0 e8 99 8f bc 4b 54 0f be 9a f4 d4 3d 66 ca 86 bd
       -0.017529443 -0.13996999 0.103982165 -0.06581573

actor.0.bias f4 [64]
000000 11 69 3b be 60 64 ab 3d 59 37 cb be 97 51 4e 3d
       -0.18301798 0.083687544 -0.39690664 0.05037078
000010 b1 52 8e 3d ed 60 af be bb 99 b1 be 8a 03 bb bd
       0.06949366 -0.34253636 -0.346876 -0.091315344
000020 e2 00 a8 3e 93 03 4f 3e c1 15 a3 bd 64 06 16 3e
       0.32813174 0.20216207 -0.079631336 0.14650875
000030 ab da c9 3d 6a 01 a5 be 6d ac 99 be a5 e5 7f be
       0.09856161 -0.3222764 -0.30014363 -0.24989946
000040 e2 3f 1f 3f d0 ce 08 3e b4 d2 63 3e 35 ec 78 ba
       0.6220685 0.13360143 0.22248346 -0.0009495647
000050 9f ec 86 3e da f5 fd 3d ec 19 0a be 81 dd cb 3d
       0.26352403 0.12400408 -0.13486451 0.09954358
000060 83 ba 15 bf 24 65 37 3f 68 28 be 3c ab 55 83 be
       -0.5848772 0.71638703 0.023212627 -0.25651297
000070 2e fe d9 bd 70 26 b0 3d 1d fc bc bd b8 b1 b6 3e
       -0.10644184 0.08601081 -0.09227774 0.35682464
000080 8e de ef be 0f 7f 89 3c ac c1 92 3d 8b 81 ef bc
       -0.46849483 0.01678422 0.07165846 -0.029236576
000090 71 98 71 3e b9 64 97 3e 57 40 5e be e7 f0 3a bc
       0.23593308 0.29569033 -0.21704231 -0.011409975
0000a0 55 45 25 3e 46 de 3a be 11 1e e9 3e be b3 06 bd
       0.1613973 -0.18248853 0.4553075 -0.03288626
0000b0 6e fe e5 3e a5 7e 93 3e e9 e4 63 be 12 16 19 3d
       0.44920677 0.2880756 -0.22255291 0.037374564
0000c0 26 ba 92 3e 02 e7 be bd 0a c8 3f be 8f b5 5e be
       0.28657645 -0.09321405 -0.18728653 -0.21748947
0000d0 dc 74 27 3e 4d c8 0c 3e de 25 ce be 84 08 be be
       0.16353172 0.13748284 -0.40263265 -0.37115872
0000e0 6d aa cf be 79 6d 1a bd bd 1b 3a 3e 8d f1 e6 3e
       -0.40559712 -0.037702058 0.18174644 0.45106164
0000f0 7b f0 4c bd 27 df 09 3e 4a 16 a0 3e d9 3a 00 bd
       -0.050034028 0.13464032 0.31267005 -0.03130612

actor.2.weight f4 [64, 64]
000000 7a 54 66 bc 36 69 84 be 37 00 9b 3e b2 db 9b bc
       -0.014058227 -0.2586152 0.302736 -0.019025657
000010 59 52 07 3e 08 9e 49 bd bd f4 25 3e 71 b6 23 3d
       0.13215007 -0.049222976 0.16206641 0.03996891
000020 20 bc 33 bd 78 86 9f be d2 c2 4b 3e 84 4c 59 3e
       -0.04388058 -0.3115728 0.19898537 0.21220595
000030 d2 73 80 bd 3e 93 35 bc 7d 23 31 be 3d 5c c0 be
       -0.06272091 -0.011082469 -0.17298694 -0.37570372
000040 fe 5e cd 3d 38 ee 0c 3d e6 d3 df bc cb 27 9c bc
       0.10027884 0.03440687 -0.02732272 -0.019061944
000050 72 21 3f bd 2b 81 85 3e f7 f5 87 3d 1b b4 d0 3d
       -0.046662755 0.2607511 0.06638711 0.101906024
000060 cc 78 a1 3e 63 88 98 be 5e 99 06 be e0 ca 4b 3e
       0.31537473 -0.29791555 -0.13144442 0.1990161
000070 27 99 a6 3e 1a 03 5a be 53 ac e5 3d 27 b3 50 3e
       0.3253872 -0.21290246 0.11214509 0.20380841
000080 3d d5 b4 3d d7 56 8d 3e 78 4b b1 bd 08 cb 69 be
       0.088297345 0.27605316 -0.08656973 -0.22831357
000090 60 85 46 be c0 70 de bd b2 c2 4d bc c7 66 8a bd
       -0.19386816 -0.10861349 -0.012558626 -0.067578845
0000a0 4b d2 1d be c0 f4 9b bd 58 a1 7a b9 91 30 8b 3d
       -0.15412252 -0.07615042 -0.00023901963 0.06796373
0000b0 d3 83 c6 bd c3 f2 12 3d fe 2c ac 3d 3e 99 a7 bd
       -0.09693112 0.035876047 0.08407019 -0.081835255
0000c0 21 a7 55 3d 1b b7 d7 bd 7f 8a 3f 3e 93 ef 07 3d
       0.05216134 -0.105329715 0.18705176 0.03318746
0000d0 43 64 44 3e f6 66 9d bc 0c cf 2d be 70 24 fa bc
       0.19178872 -0.019214135 -0.16973513 -0.030534953
0000e0 ce 23 94 bb a2 4a da bd f2 64 f4 3d c7 15 d4 bd
       -0.00452087 -0.10658766 0.11933316 -0.10355716
0000f0 7b f3 77 be 0e 0d af bb a0 de 0f 3e d2 60 78 bd
       -0.24213974 -0.0053421324 0.14049768 -0.06063921
000100 36 6e df 3d ee 8d 55 be 69 cb db be 37 fd 33 3e
       0.10909693 -0.20854923 -0.42928627 0.17577063
000110 75 4d 9b bd 88 3d 5c b9 5b 23 34 bd 19 a0 93 bc
       -0.07583133 -0.00021003757 -0.04397903 -0.018020676
000120 fe 23 c3 3d 79 04 43 3e f2 77 84 bd 33 5d 1e 3e
       0.09528349 0.19044675 -0.0646819 0.1546524
000130 5f 9c c0 bd ca 6d 0a be f0 60 1b be 15 b4 ee bc
       -0.094048254 -0.13518444 -0.15173697 -0.029138604
000140 07 56 20 3e 9e 3a 22 bd 12 30 52 3e 78 6f 24 3c
       0.15657817 -0.039606683 0.2052615 0.010036342
000150 3e 71 02 3e fa 05 73 bd 51 9a 8a 3d 3d f2 44 3e
       0.12738511 -0.05933187 0.06767715 0.19233032
000160 23 1e 04 be 3f 82 33 3a e1 db d8 3c b0 66 a7 bd
       -0.12902121 0.0006847716 0.026472034 -0.08173883
000170 c5 29 3c be 7a a0 5a 3e 1e 24 06 3e a8 fe 91 3e
       -0.18375309 0.2135028 0.13099715 0.285146
000180 e8 6d 95 bd 7e ed b5 bd 3f f7 11 bd bc 7c 27 be
       -0.072963536 -0.08883189 -0.035636183 -0.16356176
000190 6b 94 46 3d 27 86 51 3e b9 96 27 bd 2d 06 d2 3d
       0.048481386 0.20461331 -0.040915225 0.10255084
0001a0 c1 04 50 bd 2d 1b a4 bd 55 43 83 bd 15 d1 a7 3d
       -0.050785784 -0.08012996 -0.06409327 0.08194176
0001b0 dd ce 85 3e ca dc d7 3d ce c4 f6 bd 16 7b 31 3e
       0.26134387 0.10540159 -0.12049256 0.1733211
0001c0 a1 b7 ca 3b 60 e9 14 3e 22 55 82 3d e7 5b 58 3d
       0.006186441 0.1454215 0.06363894 0.05282202
0001d0 eb 03 8b bd 24 11 89 3d 55 ac 20 be 57 b0 22 be
       -0.06787857 0.066927224 -0.1569074 -0.15887581
0001e0 0f b3 0c be cc 1d 4c be b0 8f 6d 3d eb 8e 2a 3e
       -0.1374018 -0.19933242 0.05799836 0.16656081
0001f0 0e f4 f9 3d 96 c3 60 3e e2 af c7 bd 1d 78 fb bd
       0.12204753 0.2194961 -0.09750344 -0.12278769
000200 ff 26 3a 3c 90 dc d1 be cf 7a 38 3d f1 e5 dd bd
       0.011361836 -0.40988588 0.045038994 -0.108348735
000210 99 af 8e 3d 1b 5d 34 be 0d 8b 40 bc 30 2d eb bd
       0.06967086 -0.17613642 -0.011751902 -0.11483228
000220 51 ce de 3c 55 f5 c2 be 33 ac 92 3c 21 23 3e 3d
       0.027197989 -0.38077798 0.017904377 0.04642022
000230 ad 71 82 be 98 78 ab bd 2d 1a d9 be 26 c8 2f be
       -0.25477353 -0.08372611 -0.42402783 -0.17166194
000240 c2 c8 86 3d 0e 43 27 3d e7 7b 55 bc 67 fa 91 3c
       0.0658126 0.040835433 -0.013030029 0.017819596
000250 de 9d bd bc 2a bf 6f 3e 7b 14 8f 3e e9 d8 19 bd
       -0.023146566 0.23412767 0.27945313 -0.037560377
000260 42 87 1a 3e 8c b1 fe bc 7d 85 58 be d4 0f 58 3e
       0.1509066 -0.03109052 -0.21144672 0.21099788
000270 7d 65 bf 3e 1a d4 24 3e a3 1a a2 3d fe f7 94 3e
       0.37382117 0.16096535 0.07915237 0.29095453
000280 84 84 be 3d ce 41 87 3e a4 72 a4 3d bc 07 d9 be
       0.09302619 0.26417392 0.080296785 -0.42388713
000290 99 65 d9 be 2b 0b 57 be d2 eb c9 bd 8c b6 2c be
       -0.42460325 -0.21000354 -0.09859432 -0.16866511
0002a0 01 1a 28 be de a6 41 be 45 89 f8 bd 9a c4 02 3d
       -0.1641617 -0.18911311 -0.12135557 0.031925775
0002b0 ea d2 0c be f9 92 12 3e e4 62 84 3e dd c0 6a bc
       -0.13752332 0.14313878 0.25856698 -0.014328209
0002c0 fc fa f0 3d 4d 29 97 bd e8 ac 0e 3e dc 2e a4 bd
       0.117666215 -0.073809244 0.13933146 -0.0801675
0002d0 24 05 c9 bd 86 c1 ab 3d f9 92 4d be 6b eb c0 3c
       -0.098154336 0.08386521 -0.20075597 0.023549756
0002e0 0d 79 d7 bd bf 3e 49 3c 49 3c 04 3e 08 e0 9b bc
       -0.105211355 0.012283026 0.12913622 -0.019027725
0002f0 99 8b 83 be 86 73 db 3d 1c 07 17 3e 14 ca 17 bd
       -0.25692442 0.10715394 0.14748806 -0.03705795
000300 19 59 f4 bc 1b 45 ea bd 77 a3 0b be 91 87 9b bd
       -0.029827641 -0.11438962 -0.13636576 -0.075942166
000310 4c eb e9 bd 5d 5f 01 3e 45 94 ab bd 96 5a 87 3e
       -0.114218324 0.12634034 -0.083778895 0.264363
000320 e3 9f 56 3d d3 96 b2 3d 3c db c6 bd 56 0f e2 bd
       0.052398574 0.08720174 -0.097097844 -0.11038081
000330 13 47 48 3e ac 07 88 bd 88 49 e5 bd 6f 42 a4 3c
       0.19558363 -0.06642088 -0.111956656 0.02005121
000340 07 e5 cf 3d 93 b6 35 3d 36 07 32 3e 01 d7 d3 3d
       0.101511054 0.04436357 0.17385563 0.10343743
000350 b3 7b c3 3d 25 63 3a 3e b5 ed 23 bc e6 da 99 3d
       0.09545078 0.18201883 -0.010005404 0.07512455
000360 ed db de be 84 76 c8 3d e9 a2 82 3e ca 26 93 be
       -0.43527165 0.0978823 0.25514916 -0.2874053
000370 8a 50 58 be 5e 47 18 3d ce b8 01 3d 9c f0 bb 3d
       -0.21124473 0.037177436 0.031670384 0.09176752
000380 5c 1b cc 3b 71 bc 90 3d e9 79 7c 3d 0a e4 bd 3c
       0.0062288474 0.07067192 0.0616397 0.023180027
000390 e0 95 96 3e 40 31 ce 3d 94 2c a0 3d a6 20 19 be
       0.2941122 0.100679874 0.078210026 -0.1495386
0003a0 9b d6 a8 3c 36 13 dd bd 5f 29 c9 bc cf 63 54 3d
       0.020610144 -0.1079468 -0.02455586 0.051852997
0003b0 18 f6 28 3e 4e c3 7e 3d c0 33 c1 bd 4e b0 8e 3e
       0.16500127 0.062197976 -0.09433699 0.27868885
0003c0 35 ca 4d bc 64 54 a5 3d 2e bd 13 be d6 e7 8c 3d
       -0.012560417 0.08072737 -0.14427635 0.06880157
0003d0 03 be 0d be a8 d9 83 3e 71 9d 6a be 9b 9d da 3c
       -0.13842015 0.25751996 -0.22911622 0.02668648
0003e0 f8 4e ff bd 61 74 ce bd ba 55 7e 3e 97 3d 2a 3e
       -0.12466234 -0.10080791 0.2483739 0.16625057
0003f0 50 7e 02 3b fb ab f4 3d 0d b2 b9 3d 25 73 c7 3e
       0.0019911714 0.11946865 0.090671636 0.38955036

actor.2.bias f4 [64]
000000 94 0d 78 be ee 7b 7b 3b 56 2d 05 be 44 63 e5 3d
       -0.2422393 0.0038373428 -0.13005576 0.11200574
000010 d2 e3 b1 bd a6 4a fc bd 6a 5b 48 be 5e 5f 99 be
       -0.086860314 -0.123189256 -0.19566122 -0.29955572
000020 a8 a7 e6 bd 0e 38 68 bc ae 9b 79 be 6b 0a d1 be
       -0.11262447 -0.014173521 -0.24375793 -0.4082826
000030 51 63 94 be 45 2d 2d bd 55 de 4c 3e 85 ce 39 be
       -0.28982022 -0.0422795 0.20006688 -0.18145187
000040 06 3b 1f bd e6 35 ac be 44 50 56 be 8b 52 5c be
       -0.03887465 -0.3363487 -0.20929056 -0.21515863
000050 e6 b0 92 be ab 0b 83 be cc 6c 47 be 5f e6 6f be
       -0.28650588 -0.2559484 -0.19475096 -0.23427723
000060 cc e8 95 be 24 6f 88 be 72 85 89 be b2 bd 3e be
       -0.29279172 -0.26647294 -0.26859623 -0.1862705
000070 48 99 ca bd cc a9 97 be f4 b3 7c 3e 61 e9 c7 be
       -0.09892517 -0.29621732 0.24678022 -0.3904524
000080 8d 3f 85 bd 86 2c cd 3d 7d 10 84 be 82 0e 2a be
       -0.06506262 0.10018258 -0.2579383 -0.16607097
000090 43 b8 b4 be f4 6f 71 be ca 88 45 be 83 39 50 bd
       -0.3529683 -0.23577863 -0.19290462 -0.050836097
0000a0 57 3d a0 be f4 ab 6a be a5 97 31 bd c1 10 a5 bd
       -0.312968 -0.22917157 -0.04335751 -0.08059836
0000b0 80 b6 5b be 02 8c c4 be d7 6c ae bb fe ff 08 be
       -0.21456337 -0.38388067 -0.0053230333 -0.13378903
0000c0 d4 b6 d0 3d 80 84 4f be 48 be 85 3c c4 1b 4b ba
       0.10191122 -0.20265388 0.016326085 -0.0007747973
0000d0 4a d4 4c be 4b be 1b be da e4 bc bc 20 ce 89 be
       -0.20002857 -0.1520931 -0.023058344 -0.26915073
0000e0 46 61 ed bd ea 6d 72 bd 7a ae 24 bd 98 e0 4f be
       -0.11590819 -0.059186853 -0.040205456 -0.2030052
0000f0 c4 b0 a6 be 06 65 67 be 28 d3 a0 3c 24 1a 00 3d
       -0.32556736 -0.22597131 0.019631937 0.03127493

actor.4.weight f4 [7, 64]
000000 99 5a 50 bc d3 14 56 3e 4f a2 8c 3d cc e9 b3 bd
       -0.012716913 0.20906381 0.068668954 -0.087848276
000010 41 f2 a0 bc 4c ce de 3d f5 d6 8a 3d 98 7f 47 3d
       -0.019646766 0.10879192 0.06779281 0.048705667
000020 14 d8 4a be 89 46 8a 3d 7f 9b 1f 3e 93 e1 c2 3d
       -0.1980899 0.06751735 0.15586661 0.09515681
000030 0c 41 ec 3c d4 7e 3e 3e 46 4c 75 3e 88 e2 69 be
       0.02883961 0.18603069 0.23954877 -0.22840321
000040 10 99 a8 3d 2a 78 95 bb 92 7d 97 bc 24 d7 94 3c
       0.08232319 -0.004561444 -0.018492494 0.018168993
000050 99 8b 9c be 9f 95 b2 3d fd 3a 4f 3d 81 ab f7 bd
       -0.30575255 0.08719944 0.050593365 -0.12093259
000060 d6 89 70 bc 4e 3d 18 3e df d0 ad bd 8b 21 0e bc
       -0.0146813 0.14867136 -0.084871046 -0.008674989
000070 b1 df da 3d 3a 67 91 bd 77 c7 10 bd 70 46 d3 bb
       0.10687197 -0.07099767 -0.035346474 -0.006447606
000080 60 69 10 3e 4a 65 57 3e 1b cb 54 3e 32 2f 86 3d
       0.14102697 0.21034732 0.20780604 0.065519705
000090 30 65 a8 bd c5 ac de 3d cc e3 1c 3d b4 ce ed 3d
       -0.08222425 0.10872797 0.03830318 0.11611691
0000a0 1f ac 57 3e 18 2a 86 3d d3 a4 8a be b3 36 ab bc
       0.21061753 0.065509975 -0.27078876 -0.020900106
0000b0 ef a0 00 3d f4 28 7c bc 15 e1 9f 3e 62 04 bd bc
       0.03140348 -0.015390623 0.3122641 -0.023073379
0000c0 34 57 0f 3e 12 11 45 bc b7 54 20 3e 7a 9f 02 bd
       0.13998109 -0.012027996 0.15657316 -0.03189037
0000d0 35 9b f8 bc 0f 80 06 3c 3c f9 fb 3c 03 1c 98 bd
       -0.030347446 0.0082092425 0.030758493 -0.07427218
0000e0 7a a2 0b 3e c8 3f 71 be 5a 13 36 3c 77 e9 f6 3c
       0.13636199 -0.23559487 0.011113012 0.030140622
0000f0 35 69 dc 3d 67 ed 69 3e d6 62 ca 3d 06 1d 01 bd
       0.10762254 0.22844468 0.09882133 -0.03152182
000100 ab 2d c1 3d a0 0d b5 3d c2 1f 3f 3e 58 1a 4b 3d
       0.094325386 0.088404894 0.18664458 0.04958567
000110 c1 83 ad bd b9 d5 75 bd e9 eb 13 be c1 74 1a bd
       -0.08472396 -0.060018275 -0.14445461 -0.037709
000120 1c 10 28 bd dc 8a 65 3d f8 cd 71 be 0b bb ff 3c
       -0.041030988 0.05604063 -0.23613727 0.031217119
000130 3b ae a6 bc 78 65 92 bc b9 be 72 3d 28 d6 cd 3d
       -0.020346751 -0.01787065 0.05926392 0.10050613
000140 d3 96 2f be 1a a5 1a be 6e cb 61 3e f3 e5 f8 bd
       -0.17147379 -0.15102044 0.22050259 -0.12153234
000150 87 a2 ff bc 08 7a 04 3e 88 e1 7d 3c 97 47 b5 bc
       -0.031205429 0.12937176 0.015495665 -0.022128863
000160 f8 d6 1c be d5 fe 8f 3d 6d ea 35 be e8 f9 29 bd
       -0.15316379 0.07031027 -0.17765208 -0.041498095
000170 1b ea 7e 3c 81 5b 92 3d c5 f5 7c 3e 89 f4 0d 3d
       0.015558745 0.07146359 0.24703129 0.034657035
000180 39 a3 3f 3e d0 31 e0 bd 8d eb 1d be ac c3 8b be
       0.18714608 -0.10947001 -0.15421887 -0.27297723
000190 21 f2 37 be 59 78 4a bd 08 89 8e 3e f7 74 28 3d
       -0.17963459 -0.04943118 0.27838922 0.04112717
0001a0 de a8 e2 bd 42 26 75 bc 2a 50 a6 bd 51 cb b1 3c
       -0.11067365 -0.014962735 -0.08120759 0.021703394
0001b0 b3 6d 85 3e 88 c1 1b be d8 2a 44 3e e8 96 9f 39
       0.26060256 -0.15210545 0.19156969 0.00030439277
0001c0 f7 b3 0c 3e f1 28 dc ba 21 3a f0 3d e0 db a0 bc
       0.13740526 -0.001679687 0.11729837 -0.019636095
0001d0 63 d4 7d 3b 7e 89 24 be c4 7e e1 bd ef d4 43 3d
       0.0038731329 -0.16068074 -0.11010507 0.04781049
0001e0 b0 0c 86 3c 88 8a 87 3d fb ec 7d bd 43 fa 96 be
       0.016363472 0.066182196 -0.06199358 -0.2948781
0001f0 43 7e 9a 3d ff 6f 31 3d f2 06 52 3d aa f8 96 3d
       0.07543614 0.0433197 0.051276155 0.07371648
000200 2f b6 a3 3d 39 5a 04 bc 26 a4 19 3e 67 60 d4 bd
       0.07993733 -0.008078151 0.15004024 -0.1036995
000210 97 f9 ec bd 94 6e 33 be ae 23 45 3e 63 6b ac 3d
       -0.11571043 -0.17522651 0.19251892 0.0841892
000220 1d 4b a2 be c5 6e 34 3e 04 ec 0b 3e 9f 8f ac 3b
       -0.31697932 0.1762038 0.13664252 0.0052661444
000230 b3 8e 48 3c bd e4 ff bd 51 69 8b 3e 63 ba d4 3d
       0.012241053 -0.124948 0.27228788 0.10387113
000240 cb 01 4c be 10 92 b3 bd 5d 0e 27 3d d1 a1 fb 3d
       -0.19922559 -0.087680936 0.040785182 0.122867234
000250 28 3c 7c be 86 e3 35 3d a4 a7 fd 3d 38 e8 2c be
       -0.24632323 0.044406436 0.123854905 -0.1688546
000260 5e 92 19 bd 55 2f 91 3d 8a 32 d2 bc 06 f4 01 be
       -0.037493102 0.07089106 -0.025658865 -0.12690744
000270 6e ee cf 3d d4 fb e9 bd ca f8 84 be eb 75 42 3e
       0.10152899 -0.114249855 -0.2597106 0.18990295
000280 28 d3 d4 3c 9a 06 4e 3e 1d bf 81 3d 6b a8 dd 3d
       0.025979593 0.20119706 0.0633528 0.10823139
000290 1e 67 d1 3d 1e 80 ec 3c 27 95 b5 3d df 2c 27 3d
       0.10224746 0.028869685 0.08866339 0.040814277
0002a0 35 51 46 3e f9 ba 99 bd 37 05 a2 bd 19 e1 78 bd
       0.19366916 -0.07506365 -0.07911151 -0.060761545
0002b0 d4 49 32 be d9 de 11 be 25 70 c1 3e a3 de 01 3e
       -0.17410976 -0.14245166 0.37780872 0.12682585
0002c0 94 2f 15 bd f6 04 06 bd f8 b8 99 3d e1 97 52 bd
       -0.036422327 -0.032719575 0.07505983 -0.051414374
0002d0 80 9f 5e 3d aa 19 32 bd 5a 37 c4 bc b5 2a 79 bd
       0.05435133 -0.043481506 -0.023952175 -0.060831744
0002e0 c2 cd 06 3e d9 e1 3b be 30 cf bf bd e2 1b 5f bd
       0.13164428 -0.18347873 -0.0936569 -0.05446995
0002f0 98 66 c7 3d 72 93 3c 3e 0e 31 11 3e 0c 85 c7 bd
       0.09736365 0.18415621 0.14178869 -0.097421736
000300 09 4b 82 3e 16 65 e5 bd 39 15 89 3e 59 22 2c be
       0.25447872 -0.11200921 0.26774004 -0.16809978
000310 44 8d dc bd bd 35 10 bc 4e 47 b5 3d f1 06 53 3e
       -0.10769132 -0.008801875 0.08851491 0.20608117
000320 16 68 ad 3d ad 0d 71 bd 9e 29 81 3e b0 a3 a6 bd
       0.084671184 -0.058850933 0.25227064 -0.0813669
000330 38 eb 57 3e 9a 63 4d be 76 a6 ca be 6f 79 da bd
       0.21085823 -0.20057526 -0.39580125 -0.10667693
000340 28 9c be 3c 51 3e b4 3d 43 81 87 3e c8 73 57 be
       0.02326782 0.088009484 0.26465806 -0.21040261
000350 a1 01 ba 3d e7 8c db 3d 37 e5 9e 3c 96 2d 5f be
       0.09082342 0.10720234 0.019396408 -0.21794733
000360 30 10 48 3c 39 08 79 3d d3 02 4a 3e 09 31 cd 3c
       0.012210891 0.060798857 0.1972764 0.025047796
000370 08 e1 6c be 23 d5 40 3e f1 c7 09 bc 5e 34 8e bd
       -0.23132718 0.18831305 -0.008409486 -0.06943582
000380 37 63 1e 3e 98 29 94 3d df 3d ed 3c f4 f5 7c 3d
       0.15467535 0.07234496 0.028960166 0.061757997
000390 93 0e 34 3d 19 bc b0 3d d9 53 b8 3d 1f 86 d6 bd
       0.04395921 0.08629627 0.09000368 -0.104748
0003a0 d9 49 5a be 19 f4 2a 3e 82 d0 b6 be ff 79 0f 3e
       -0.21317233 0.16694678 -0.35705954 0.14011382
0003b0 59 3d 3f 3e db 71 40 3e f5 e8 a9 3d af 4d a8 3c
       0.18675746 0.18793432 0.08296386 0.020544855
0003c0 00 96 60 be 95 0e ab be db 7a 88 3b 2f 23 f3 bd
       -0.2193222 -0.33409563 0.004165036 -0.11871945
0003d0 80 4e fc 3d e6 19 cc bb d8 e2 19 be ac 19 45 bc
       0.1231966 -0.0062286733 -0.1502794 -0.012030046
0003e0 2a d2 03 be 30 4e ec bd 7c 93 31 bc 55 2f 8a be
       -0.1287314 -0.115383506 -0.010838386 -0.26989236
0003f0 0d 33 cf 3c 85 60 20 3d c7 6e b2 bd 46 f0 34 be
       0.025292898 0.03915455 -0.08712535 -0.17669782

actor.4.bias f4 [7]
000000 7e 49 a2 bc ec 1d 2b 3e 72 34 38 bd d1 70 e2 3d
       -0.019810434 0.16710633 -0.04497189 0.11056674
000010 d1 c4 59 3d d5 a3 42 be 5b 60 a9 3d
       0.053166214 -0.1900781 0.082703315

critic.0.weight f4 [64, 32]
000000 aa 54 28 bc 87 a6 a8 bd 10 b4 d1 3d 5d ed 3e 3e
       -0.010274092 -0.082348876 0.10239422 0.18645234
000010 ec b2 16 be 7b 3b 79 3d 57 0f 97 be 55 68 e9 3d
       -0.14716691 0.06084774 -0.2950389 0.11396853
000020 25 c2 7a bc 48 91 02 3d cd 01 ea bd 0d 8b 40 3b
       -0.015305077 0.031876832 -0.11426125 0.0029379756
000030 fd de 94 bd 34 b4 3f 3c 92 00 76 ba 9d 37 51 3c
       -0.07269094 0.011700679 -0.000938424 0.012769607
000040 d5 32 3d be 7c 90 00 be 06 f2 ae be 0f 47 98 3d
       -0.18476422 -0.12555116 -0.34169024 0.07435428
000050 46 19 8a 3e c7 35 35 3d 6b 21 55 be 86 54 9f be
       0.26972407 0.04424074 -0.20813529 -0.31119174
000060 95 68 fd bd 87 72 cc 3d 91 60 ba bd 09 55 b5 bc
       -0.12373463 0.09982782 -0.0910045 -0.022135274
000070 92 0c 29 3c 71 bb be bd c8 45 53 bd ab d0 4c bc
       0.010317938 -0.09313095 -0.05158022 -0.012500922
000080 29 ff 53 be 85 c9 c2 3d 17 58 1b bd fd 69 2e 3e
       -0.20702805 0.09511093 -0.037925806 0.17032619
000090 a5 2e a5 3d 8b 25 60 3e 37 67 b4 3d 44 ec c6 3c
       0.08065537 0.21889322 0.08808749 0.024282582
0000a0 e1 b5 9c 3d 08 65 9d 3d f5 b3 9c ba b0 68 66 3c
       0.07651878 0.07685286 -0.0011955487 0.014063045
0000b0 f6 62 81 bc 2e 01 14 bd 8b 59 4a bd 56 ff f6 bd
       -0.015794259 -0.036133938 -0.0494018 -0.1206042
0000c0 f2 d7 e5 bd 69 4b b0 3d 3b 70 5e 3e 16 77 e4 be
       -0.11222829 0.08608133 0.217225 -0.44622105
0000d0 d9 f0 d1 bc 49 a8 8d 3d 21 a8 b5 3e c1 d5 10 3e
       -0.02562754 0.069168635 0.35479835 0.1414404
0000e0 a6 52 1d bc 34 86 de bd fd 86 8f 3d a4 8f 32 3d
       -0.009602224 -0.10865441 0.07008169 0.043594018
0000f0 2c 03 50 3c f4 a4 7e 3d 1b b9 a9 3d 19 60 49 be
       0.012696069 0.06216903 0.08287259 -0.19665565
000100 a9 f5 1e bd 71 57 e8 3d d9 91 8e be f5 98 7d 3d
       -0.0388085 0.11344803 -0.27845648 0.06191345
000110 dd 6d 0c 3e 53 da d9 3c aa c7 a5 bd 84 8b 28 3d
       0.13713785 0.026593363 -0.080947235 0.041148677
000120 18 55 3c 3e d1 3c 41 bd 59 d6 aa be df 13 e6 bd
       0.18391836 -0.04717714 -0.3336666 -0.11234259
000130 e9 f0 e1 bd 7c 58 ae 3d de 3b 5b bd 27 57 89 3c
       -0.11032278 0.08512971 -0.05352389 0.01676519
000140 60 70 17 3e ee 5f 79 bc 46 6b cc bd 58 f7 02 bf
       0.14788961 -0.015220625 -0.09981398 -0.51158667
000150 0a 70 0d be d4 20 60 3d 94 99 45 3c 15 ed db bd
       -0.13812271 0.054718807 0.012060542 -0.10738579
000160 7b e9 b3 bd 30 19 8b 3d 63 f8 87 bc d6 d4 87 bd
       -0.08784767 0.067919135 -0.016597932 -0.06632392
000170 e1 01 11 3e 87 b4 32 bc 06 c4 04 3b 6a 0e ae bb
       0.14160873 -0.010907299 0.002025844 -0.005311777
000180 e8 59 25 be ff 72 21 3c 00 a4 3b 3d 93 87 36 be
       -0.16147578 0.009854077 0.0458107 -0.17825155
000190 6f e2 81 3d 32 52 b7 3b 0d 1d 74 3e ed ef 85 3e
       0.06342017 0.0055945152 0.23839207 0.2615961
0001a0 66 3d fc 3d 98 73 93 bd 85 10 a0 bc d8 46 75 bd
       0.12316398 -0.07199782 -0.019539127 -0.059882015
0001b0 7b ee cb 3d 3f 99 8a bc dd e6 ab 3c fd 87 c5 bc
       0.09957596 -0.016918777 0.020984108 -0.024112696
0001c0 08 1f 93 3d b5 d7 8a 3e 49 1b 06 be ae ee 43 bf
       0.07183653 0.27117696 -0.13096346 -0.7653607
0001d0 42 51 92 be df d6 fd bd b0 a7 90 bf 49 9f 79 3e
       -0.2857762 -0.12394499 -1.1301174 0.24377169
0001e0 fe 54 25 3e da 4f ae bc 18 bf f2 bd ee 9f b2 3d
       0.16145703 -0.02127831 -0.118528545 0.087219104
0001f0 89 99 1e bd 8f 13 ca bd 61 25 dd 3c 5b 05 35 3d
       -0.03872064 -0.09867012 0.026995363 0.04419456
000200 5f 3e 2e be 79 ea de bd ec 53 a5 3d 77 02 28 bc
       -0.1701598 -0.10884566 0.080726475 -0.010254494
000210 89 dc 7f 3e a2 3e c0 3d a3 9c 74 3e 4d 01 ce 3c
       0.24986471 0.09386946 0.23887877 0.025147105
000220 1b bd 4f 3a 9c b6 9c 3c 73 ab 57 bc 95 8e 89 bc
       0.0007924602 0.019130044 -0.013163435 -0.016791621
000230 f6 60 56 3c d6 e8 0c bc 2b 83 29 3c 38 07 16 bc
       0.013084641 -0.008600434 0.010346214 -0.0091569945
000240 46 30 12 bd 6e 10 07 3d 60 ee 61 3e 0d 10 e1 bd
       -0.03569057 0.032974653 0.22063589 -0.109893896
000250 ab 80 16 3e e9 bc 23 3d 16 35 27 bf 1c 42 bc 3e
       0.1469752 0.03997508 -0.6531538 0.36769187
000260 2b 33 11 be ad 35 2b bc 55 1b 9b bd 6a b2 09 bd
       -0.14179675 -0.010449809 -0.075735725 -0.033617415
000270 e1 41 c5 bb c6 83 1d 3c 85 5c 5c bd 2f 30 87 3d
       -0.0060198163 0.009613937 -0.05379917 0.06600987
000280 7d cd b4 bd dd 59 e7 3c b4 96 c1 bc c4 52 71 bd
       -0.08828256 0.028241092 -0.023631431 -0.058916822
000290 1a 8a 18 3e b1 7a ec 3d cc 4e af 3c 62 8d fc bd
       0.14896432 0.11546839 0.021399878 -0.12331654
0002a0 38 cc 98 3c da 5a b3 3c 9e 82 7a 3d 80 66 14 bc
       0.018652067 0.021893907 0.061159723 -0.009057641
0002b0 94 fa 20 3e 51 dc 4c bc a9 98 86 3c 63 1f 3f 3c
       0.15720588 -0.012503699 0.016430216 0.011665198
0002c0 46 23 35 3d c0 f0 20 be ca 15 9f be 52 c3 14 3e
       0.044223092 -0.15716839 -0.3107131 0.14527634
0002d0 e2 63 82 be 9b c9 1a be 45 8e 1e 3f c5 92 e9 3e
       -0.2546683 -0.15115969 0.61935836 0.4561979
0002e0 c0 86 91 3d 5d 9f d4 bd de d2 38 3e 41 c0 21 3c
       0.0710578 -0.10381959 0.1804919 0.009872497
0002f0 81 cc 3e 3d f1 86 02 3d 5f 0c ba 3c 0a f5 95 bc
       0.04658175 0.03186697 0.022710977 -0.01830532
000300 58 39 21 3e 13 30 49 3e b5 85 c4 bd c8 4b 18 3e
       0.15744531 0.19647245 -0.09595815 0.14872658
000310 c8 08 11 3e cb 88 f6 3d 9d 70 87 3d 7f ca cd bd
       0.14163506 0.1203781 0.06613276 -0.10048389
000320 83 98 0f 3e 88 8c 94 3b 42 3f 02 3d 8d f3 11 3c
       0.14023022 0.004533354 0.03179861 0.008908165
000330 cb 09 43 3d f5 f3 6a 3d 2e bc a5 bc 56 f5 ed bb
       0.04761676 0.05736156 -0.020231333 -0.0072619123
000340 a0 8d 4c be d2 8f ad be bb 30 83 3e 3b cf e8 bf
       -0.199759 -0.3389879 0.25623116 -1.8188242
000350 29 b4 17 bd f7 23 11 3e 7a 93 66 bf c7 36 45 3d
       -0.03703705 0.14173876 -0.9006878 0.048147943
000360 4f 8a 1e bd ed d2 9e bc e0 d2 23 3d c0 bc 3b b8
       -0.03870612 -0.019387687 0.039996028 -4.476006e-05
000370 a0 cc 06 3d 62 fa 17 3d 20 81 6b 3d 37 06 17 3d
       0.03290999 0.037104018 0.05749619 0.03687116
000380 72 23 d0 3d 79 6e 0d 3e be b5 9b bd 37 29 82 bd
       0.10163011 0.13811673 -0.07603024 -0.06355517
000390 b5 d5 b2 bd 8f 79 8d be c9 bd 0f be 9b 7e 5b 3e
       -0.08732168 -0.27631804 -0.14037241 0.21435015
0003a0 e0 38 23 3e 18 bd 7b bc 5e b8 3e 3d ff a7 16 3d
       0.15939665 -0.015364908 0.046562545 0.036781307
0003b0 aa 2e 5f bc 8e ce a5 3c f0 6c 3f 3d 4c d4 bc 3c
       -0.013621965 0.020240095 0.04673475 0.02305045
0003c0 22 59 c9 bd ef c4 d7 3c d0 66 67 3e 59 b6 03 3f
       -0.09831454 0.026339022 0.22597814 0.51450115
0003d0 17 74 74 be 5c 4e 02 3e 91 f1 19 bf a3 4d 4f bd
       -0.2387241 0.12725204 -0.60134226 -0.05061115
0003e0 8e 01 08 3e 83 0e 2e bd 63 4f 05 bd bc fa 8a bd
       0.13281843 -0.04249431 -0.032546412 -0.06786105
0003f0 65 25 37 bc 8f 8f fa bc 1a 74 ae bc f3 da bb 3b
       -0.011178349 -0.030586032 -0.021295596 0.005732888

critic.0.bias f4 [64]
000000 4c 0d 08 3e b1 14 44 be c6 0d f6 bd 86 eb 02 be
       0.13286322 -0.19148518 -0.12014346 -0.12785158
000010 32 98 8b bc 6d 50 a6 bd 3f 3d 96 bd c2 d2 3d 3d
       -0.017040346 -0.08120809 -0.073359005 0.046343572
000020 1c e5 4b bd 48 99 08 be b4 c8 48 bc 79 16 e1 3d
       -0.049779043 -0.13339722 -0.012254883 0.109906144
000030 c2 19 8e bc 2e 0c e2 bd 35 b9 85 3d aa 68 d3 bd
       -0.017346267 -0.11037479 0.06529466 -0.103226975
000040 2c dd e2 bd a1 af 0f 3e da ae bb bc da a8 d8 3d
       -0.110773414 0.14031841 -0.022910524 0.10579081
000050 4f e0 0b 3e e2 da b0 bd 02 30 a7 3d 80 1a 28 bd
       0.13659786 -0.086354986 0.08163454 -0.041040897
000060 64 d0 8d 3d 93 41 1d bd 11 b4 d5 3c 3c 1a fd 3c
       0.06924513 -0.038392615 0.026086839 0.030896299
000070 ff 48 ac bd 35 2a 5a 3e 40 50 4c bd d0 28 39 bc
       -0.084123604 0.21305163 -0.04988122 -0.011301234
000080 6e e2 85 bd c1 0c e9 bc 70 99 2b 3d e5 d5 cc bd
       -0.06537329 -0.028448464 0.041894376 -0.10001735
000090 d6 17 8d bd 41 e0 3a 3e d1 ab 13 be 5f 4b 84 bc
       -0.06889312 0.18249609 -0.14421012 -0.016149221
0000a0 03 32 40 3d 53 ea b1 3d f2 87 a3 3d d9 96 6e be
       0.046922695 0.08687272 0.07984914 -0.23299731
0000b0 9e f5 32 be 88 38 a7 bc aa 9d 9a be 61 6a 3d be
       -0.17476508 -0.020412698 -0.30198413 -0.18497612
0000c0 2f 5a 8b bd 28 d2 80 bd 00 81 53 be 66 ca 1e be
       -0.068043105 -0.06290084 -0.20654678 -0.15506896
0000d0 14 a8 54 3d 2e ea 05 be 42 32 ce bd 53 90 cb bd
       0.051918104 -0.13077614 -0.1006818 -0.09939637
0000e0 0e 1e e0 3d 8d 2d 29 bd 03 3a f5 bd df 8a 9b bd
       0.109432325 -0.041303206 -0.119739555 -0.07594847
0000f0 5f 68 b0 bc 78 8c 5d 3e 54 bb 23 3e 6a b8 c1 bd
       -0.021534143 0.21635616 0.15989429 -0.09459002

critic.2.weight f4 [64, 64]
000000 41 8a eb bd e3 db 87 bc f9 b2 5a 3e 19 97 ea 3d
       -0.11500979 -0.016584342 0.21357335 0.11454601
000010 7f ff 0c 3c a9 1a b0 bc bc d1 c6 3d e3 9c b4 3d
       0.008605837 -0.021497088 0.097079724 0.08818986
000020 88 57 8b 3e db a5 42 3e 39 33 5e 39 c4 a5 62 bd
       0.2721522 0.19008581 0.00021190652 -0.055333868
000030 e6 bf 8e be 30 f0 08 3e 7c b5 c8 3c 65 a0 8d 3d
       -0.27880782 0.13372874 0.024500601 0.069153585
000040 46 75 03 bd 0f b7 36 be ac 71 01 be 12 69 2b be
       -0.032094263 -0.17843269 -0.12641019 -0.167393
000050 94 96 55 3d 0e 89 21 be 29 13 1a bd 11 79 a5 bb
       0.052145556 -0.15774938 -0.03761593 -0.0050498326
000060 c1 46 3f bd 56 f2 90 bc 0b c1 99 3d 8c 7e 73 bd
       -0.046698336 -0.01769368 0.07507523 -0.059446856
000070 36 a1 d4 3d 20 f4 70 be 12 85 ab 3d e7 9f c2 bd
       0.10382311 -0.23530626 0.083749905 -0.09503155
000080 02 99 25 3d be 8b 1e 3d 51 87 19 3e ca f8 8a 3d
       0.040429123 0.038707487 0.14993025 0.06785734
000090 b6 67 1d bd 48 33 7f be 53 94 6a be 3a ff b7 3d
       -0.038428985 -0.24921906 -0.22908144 0.089842275
0000a0 1f 07 ca 3d 34 cf 93 bd 30 75 87 bd 16 c4 3c be
       0.098646395 -0.07217255 -0.066141486 -0.18434176
0000b0 f1 b9 19 bd 00 9b 42 3e 02 d6 0e 3e c4 fd 19 be
       -0.037530843 0.1900444 0.13948825 -0.1503821
0000c0 80 b0 6a bd 73 56 93 bc 2b 6c 8a 3d ca ab d7 bd
       -0.05729723 -0.017985558 0.06758913 -0.10530813
0000d0 71 a3 86 3d 63 88 c4 bd 83 b7 90 bd 9c 39 b5 bc
       0.06574143 -0.09596326 -0.07066252 -0.022122197
0000e0 66 ef 2a 3e d0 29 0e 3e 57 bb 06 3d 6c a1 cc 3d
       0.16692886 0.13883138 0.032893505 0.09991726
0000f0 51 12 6b bd e5 cb 9e 3c 38 e8 78 3c ef 47 9c bd
       -0.057390515 0.019384334 0.015192084 -0.07630908
000100 d7 89 84 bd 76 28 d0 bd cd a6 4a bd 26 ce e4 3d
       -0.06471603 -0.10163967 -0.04947548 0.11172132
000110 11 48 93 bb e0 ef 52 3d f5 47 47 bd 6c b6 86 bc
       -0.004494675 0.051498294 -0.048652608 -0.016444407
000120 50 1d f3 bd a5 78 4e 3e 5f 7b 3b 3e b7 e1 2f 3e
       -0.11870825 0.2016321 0.18308781 0.17175947
000130 fe 34 54 be e9 93 fb bc 75 d7 8f 3e 85 fb 00 bd
       -0.2072334 -0.030710177 0.28094068 -0.031489868
000140 ac d9 4a 3d 46 fa d6 bd 54 b8 99 3b ae 84 e1 bd
       0.049523994 -0.104969546 0.004691163 -0.11011635
000150 d4 49 72 3e 09 53 96 bd 67 e4 2e bd a8 16 48 3e
       0.23660976 -0.073400564 -0.04269829 0.19539893
000160 9b c0 f2 3d f8 e6 17 3e 30 34 9a 3d 1b 25 2a 3d
       0.11853143 0.14834201 0.07529485 0.041539293
000170 38 5b 4a 3d 79 18 0a be 27 93 65 3d 99 20 1e bb
       0.0494034 -0.13485898 0.05604854 -0.0024128316
000180 73 18 c5 3d 37 bd a1 bd 61 be 09 be 3f 7b be bd
       0.09623804 -0.07897418 -0.1345153 -0.09300851
000190 20 26 f8 bd d2 e2 6e bd 54 ac 00 be 0d f5 8e 3e
       -0.12116647 -0.05832178 -0.12565738 0.27921334
0001a0 71 6a fc 3c 9f e5 ef bd 96 09 8e 3e f5 0f 36 be
       0.030812474 -0.117137186 0.27741688 -0.17779525
0001b0 46 04 e7 bd 40 0b 77 3d b0 58 29 bd 80 8a 90 3c
       -0.11280112 0.060313463 -0.041344345 0.017644167
0001c0 74 a8 60 bd 21 26 72 be 66 26 f7 bd d6 9e 3e bd
       -0.05484815 -0.23647358 -0.12067871 -0.046538197
0001d0 92 34 fb 3c cb 90 63 be a4 11 18 bc 03 f7 b0 bd
       0.030664716 -0.22223203 -0.00928155 -0.08640864
0001e0 3d f5 32 3e 68 4b 17 3d 5f 1d a7 3c 2a 2c 4b 3e
       0.17476363 0.036937147 0.020399747 0.19841066
0001f0 8c 52 98 3c c6 64 45 3e e9 20 37 3e 73 c7 b3 3d
       0.018594049 0.19276723 0.17883648 0.08778276
000200 72 85 c1 3d cd c4 36 bd 8f ca 53 3d df 85 ea bd
       0.09449281 -0.044621278 0.051706847 -0.11451315
000210 73 47 5e 3d c1 9d 93 3b 95 24 ad bd f9 a5 16 3e
       0.054267358 0.0045048897 -0.08454243 0.14711751
000220 6a e5 42 be 9f 92 8d 3c f6 e0 02 3d 80 51 5a 3c
       -0.19032827 0.017281828 0.03195282 0.013325095
000230 5e 7d 26 be 44 47 11 3e 12 f3 85 bd 17 77 05 3e
       -0.16258761 0.14187342 -0.065405026 0.1303371
000240 8c a6 ad bd c2 35 31 3e 0c 2e 03 bd d0 6d 2c 3e
       -0.08479032 0.17305663 -0.032026336 0.16838765
000250 e1 fd b9 3d 78 7b 6d be 1f a1 2e bd d3 17 0d bd
       0.09081627 -0.23191631 -0.042634126 -0.03444655
000260 2e e8 01 be 92 d4 10 3e fa 69 89 3c eb b1 b2 bd
       -0.12686226 0.14143589 0.016774166 -0.087253414
000270 25 69 22 bd 82 6b 24 3e 86 aa 4d 3d 96 d1 c7 3d
       -0.039651055 0.16056636 0.050211452 0.09756772
000280 a7 91 d4 bb 71 35 7d bd 58 e0 1f 3d 40 79 8e bc
       -0.0064870897 -0.061818544 0.03903231 -0.0173918
000290 f6 b8 2c bd 32 16 6b 3d 3d e4 1e bc 8d bd 37 bc
       -0.04216858 0.057394214 -0.009697971 -0.011214626
0002a0 51 35 2c 3d ea d1 d5 bd 92 d4 a5 3d e2 1f 18 be
       0.042043034 -0.104404286 0.08097185 -0.14855912
0002b0 26 ef 68 bd be c7 bc 3c a8 5a d8 bd 33 de fc bd
       -0.056868695 0.023044463 -0.10564166 -0.12347069
0002c0 25 02 8b bd a2 43 82 3d 7d 08 fd bd 4e 82 87 bd
       -0.067875184 0.06360556 -0.12355135 -0.066166505
0002d0 b4 fb 9a 3d a4 19 0a 3e 6a eb ca 3d dc 1e 11 3d
       0.0756754 0.13486344 0.09908183 0.03542982
0002e0 20 67 64 bd 40 a2 68 ba ee 96 2c 3e 4c 3a 1a be
       -0.05576241 -0.0008874275 0.1685445 -0.15061301
0002f0 9a 39 b6 3d f7 cd eb 3d a1 26 b5 3d 78 f1 d0 bc
       0.088977054 0.11513894 0.088452585 -0.025505766
000300 e7 bc 08 be 96 9f 84 3c 19 32 6b 3e 68 31 3e bd
       -0.1335331 0.016189378 0.2296833 -0.046433836
000310 ad 71 e4 bd a2 67 29 bd 61 6d 75 bb 6f d3 3c bc
       -0.111544944 -0.041358598 -0.0037449228 -0.011525019
000320 fa 78 45 bd c0 15 38 3f 2c 16 3a 3c 54 ca 01 3f
       -0.048211075 0.7190819 0.011357825 0.50699353
000330 6d fd bc be 43 c9 bb bd 1d 2a 73 bc c6 b5 60 3e
       -0.369121 -0.09169247 -0.014841584 0.21944341
000340 b5 c4 3f 3d d6 46 cd bc 3a 87 3c bd cc b1 8d 3e
       0.046818454 -0.025058191 -0.0460274 0.2767471
000350 48 6b 35 3f 03 37 1c be 41 aa f5 bc b2 be 21 bc
       0.70866823 -0.1525536 -0.02998841 -0.009872125
000360 8c 56 52 be 95 28 b6 3d 4d 06 92 3e cc ed b2 bd
       -0.20540828 0.08894459 0.28520432 -0.087367624
000370 5d 05 c7 3d 35 f6 96 be c5 59 7e 3c a5 86 e6 3d
       0.0971782 -0.29484716 0.015524332 0.1125615
000380 c5 7a 0a be f3 f7 96 bd d1 44 b4 bd 70 3d b1 bc
       -0.13523395 -0.07371511 -0.08802188 -0.021635741
000390 0e e1 43 3e 5b 64 a6 bd 10 9e ee be dc 96 93 3c
       0.1912882 -0.0812461 -0.46604967 0.018016271
0003a0 e5 15 b8 3d 14 95 ae be c8 18 37 3e 80 78 99 be
       0.08988551 -0.34098113 0.17880547 -0.29974747
0003b0 79 ec 5c be e5 30 1f 3e ac 06 ec 3d 5d 37 4a bc
       -0.21574582 0.15545996 0.1152471 -0.012342301
0003c0 69 84 37 bd b2 ca 4d bd 2b 44 a9 3e 22 54 f9 3d
       -0.04480401 -0.050242133 0.3305982 0.1217425
0003d0 6d b3 40 bd 76 e2 fc bc af c2 45 bd e0 1f 86 bc
       -0.047046114 -0.030869704 -0.048281368 -0.016372621
0003e0 c5 b7 d1 3e 7d c8 1c 3d 28 60 03 be 01 12 9e 3e
       0.40960518 0.038277138 -0.1282965 0.3087311
0003f0 a6 aa 9d bd 80 13 9b bd 7b 89 f9 bc 00 bf 14 be
       -0.07698564 -0.07572079 -0.030461064 -0.14525986

critic.2.bias f4 [64]
000000 a6 5b f7 bc f4 f8 0d be 1c 9c 15 bc 23 ab 9c be
       -0.030195069 -0.138645 -0.009131458 -0.30599317
000010 9a 25 87 3d 9d 5d a8 bd f3 34 45 bd 6e 79 ab 3d
       0.06598969 -0.0822098 -0.0481462 0.0837277
000020 b7 42 21 3e 7c 95 a3 3d 4e 22 d1 bd 97 71 30 be
       0.15748106 0.07987496 -0.10211621 -0.17230831
000030 25 76 ec bd 68 65 3e 3d f8 24 03 3c 23 67 6d 3d
       -0.11545972 0.046483427 0.0080044195 0.057959687
000040 9c 8a ed 3d ef 67 ce bd 30 da 04 be 01 88 6f 3d
       0.11598703 -0.100784175 -0.12973857 0.058479313
000050 ce ed b9 bd 17 88 27 be 0e 6e 35 3d 20 bc 65 3d
       -0.09078561 -0.16360508 0.04429441 0.056087613
000060 d8 ab b5 bd 75 1b 35 3c 32 0a 1a be ee bd 35 bc
       -0.08870667 0.01105391 -0.15042952 -0.011092646
000070 b5 1e da bd a4 f9 79 3c cf 98 c1 3d fa cf e1 ba
       -0.10650388 0.015257273 0.09452974 -0.001722812
000080 20 eb 87 bc 97 a8 a3 3d 46 e2 04 3e 8e 85 04 3e
       -0.016591609 0.0799114 0.12976941 0.12941572
000090 6c bf 4b bd db 1a b4 3c 4a a2 5c be 39 db 01 be
       -0.0497431 0.021985462 -0.21546283 -0.12681283
0000a0 82 17 4b be 6a 88 84 bd 3a 3c cf 3d 3c 95 35 3e
       -0.19833186 -0.064713314 0.10118909 0.1773271
0000b0 84 a1 72 3d 1e ac 2b bd d6 18 69 3d 2b 0e 48 bc
       0.059236065 -0.04191219 0.05690845 -0.012210409
0000c0 21 e4 fa 3d 35 9f 8b bd e7 7d 27 3e f1 a3 3c bb
       0.122505434 -0.06817476 0.16356622 -0.002878424
0000d0 95 82 89 bd 69 68 a1 bd 8f 4c e0 3c 3d 43 8d bc
       -0.0671436 -0.07881243 0.027380256 -0.017243976
0000e0 84 36 cc bd f0 31 ac bd 7c 1b 3f bd 30 9c 88 bd
       -0.099713355 -0.08407962 -0.04665707 -0.066704154
0000f0 55 ad f1 bd 1d f5 18 bc 82 a5 94 bd 5c ad 21 3b
       -0.118006386 -0.009335783 -0.072581306 0.002466998

critic.4.weight f4 [1, 64]
000000 02 0c b2 bd 80 db 86 bd 1e 85 14 bd 3e 06 0c be
       -0.086936966 -0.06584835 -0.036259763 -0.13674256
000010 ed fe 17 bd de 15 27 3d 0c aa 70 bd e7 b7 36 bd
       -0.03710835 0.04079234 -0.05875592 -0.044608977
000020 4c 53 93 bd 8f 28 28 bd 9a 84 02 be 9c 0d dc 3d
       -0.07193622 -0.041054305 -0.12745896 0.10744783
000030 52 37 76 bc 7c d9 c5 3d 5c 93 4f bd 7b db 44 bd
       -0.015027838 0.096606225 -0.050677642 -0.048060875
000040 05 33 06 bd 8b b7 0e 3e 1a 95 28 bd 49 fa 22 3d
       -0.0327635 0.13937204 -0.04115782 0.03978947
000050 40 b9 c8 bc 2f c2 6f bd 12 0c 3a 3d 31 96 29 3c
       -0.024502397 -0.058534797 0.045421667 0.01035075
000060 04 42 2e 3d cd 6b b4 bc ff 1f 29 3c 4e 9f 32 3d
       0.042543426 -0.02202406 0.01032257 0.043608956
000070 96 ed f3 3c be 58 86 bb 87 b4 96 bb d8 7b 2a bd
       0.029776376 -0.0040999344 -0.0045991573 -0.041622013
000080 49 44 23 3d 97 30 4e bd 4b 78 4d 3c 48 cb 24 3d
       0.039860044 -0.050339308 0.012540887 0.040232927
000090 7f 51 29 bd 51 2e c7 3c 9c e0 69 bd 77 b8 1e bc
       -0.041337486 0.024314078 -0.05709897 -0.0096875345
0000a0 c2 19 25 3a e2 ad 37 bd 35 af b1 bc e7 22 19 be
       0.00062980887 -0.044843562 -0.02168999 -0.1495472
0000b0 2a 36 b0 3c 87 d8 14 3e fe 5f 43 3d 32 76 62 bc
       0.021510202 0.14535724 0.047698967 -0.013822125
0000c0 3d 90 92 bd d4 ad 00 bd ac 6e 08 3c 35 61 94 3d
       -0.071564175 -0.031415775 0.0083271675 0.07245103
0000d0 68 83 a9 bd d5 52 4c bc 43 68 c1 3c a3 f7 26 3d
       -0.08277017 -0.012470921 0.023609286 0.04076351
0000e0 51 01 23 bd bb d3 a4 bd 1c 65 d9 bc 6c 9a e9 bc
       -0.039796177 -0.08048197 -0.02653747 -0.028516017
0000f0 1b 5c c7 bd 0e a4 ed 3d 39 00 f3 bd a0 55 90 bc
       -0.097343646 0.116035566 -0.11865277 -0.017618954

exp_avg f4 [7]
000000 8b ca dc bb c0 e6 84 3b c4 e7 c1 3b 4d 39 19 3c
       -0.006738012 0.004055828 0.005917521 0.0093520405
000010 d5 7e e3 3a 2e 84 86 39 69 f4 b3 3a
       0.0017356524 0.00025656953 0.0013729456

exp_avg_sq f4 [7]
000000 88 80 0d 39 ba 81 e9 39 14 01 5d 39 36 74 4b 3a
       0.0001349469 0.00044537877 0.00021076604 0.0007761152
000010 af 40 ca 39 8f 94 99 39 b8 9e 70 39
       0.00038576635 0.0002929312 0.00022947311
