logs/rsl_rl/reach_kinova/2025-06-29_12-08-26/model_0.pt (torch, 184519 bytes, 36 tensors)

std f4 [7]
0	0x3f801299	1.0005676
1	0x3f80f28a	1.0074017
2	0x3f7e7cc5	0.99409133
3	0x3f7e64a2	0.99372303
4	0x3f7f47d6	0.9971899
5	0x3f7ebfc7	0.9951138
6	0x3f80f111	1.0073568

actor.0.weight f4 [64, 40]
0	0x3df8938b	0.121375166
1	0x3dfa3915	0.12217919
2	0xbd110509	-0.035405193
3	0x3e160647	0.14650832
4	0xbcb8972a	-0.022533018
5	0x3d0d185b	0.034447055
6	0xbdb3a6a0	-0.087720156
7	0x3dc356ff	0.095380776
8	0x3e12dc0a	0.1434175
9	0xbdf0ed90	-0.117640615
10	0x3e0fd13e	0.14044663
11	0x3d0f988a	0.035057582
12	0x3df2da0a	0.11857994
13	0x3c6066e2	0.013696404
14	0x3d995f9b	0.074889384
15	0xbcf06dd4	-0.029349245
16	0x3e054ec6	0.13018331
17	0x3c9201df	0.017823158
18	0xbdae7297	-0.0851795
19	0x3d30da85	0.043177146
20	0xbd93c900	-0.07216072
21	0xbc3daa9a	-0.011576319
22	0xbd83979d	-0.06425402
23	0x3dcfda30	0.10149038
24	0xbdffb5f5	-0.124858774
25	0xbd86c9be	-0.06581448
26	0xbd2e9360	-0.042621017
27	0xbdc12258	-0.09430379
28	0x3c944878	0.018100962
29	0xbe23908e	-0.15973112
30	0x3e1da787	0.15395938
31	0xbe0d2fe8	-0.13787806
32	0x3de32115	0.11090294
33	0x3ca33384	0.019922026
34	0xbd56ce3f	-0.052442785
35	0x3dc274ed	0.09494958
36	0x3d0a1310	0.033709586
37	0x3e01726a	0.12641302
38	0x3c02abd9	0.007975542
39	0xbd3e95bc	-0.046529517
40	0x3d0c60ce	0.034272008
41	0xbd315abe	-0.04329943
42	0x3d838597	0.064219646
43	0x3e121c9b	0.14268725
44	0x3da364a7	0.07978182
45	0xbd869e0d	-0.065731145
46	0x3dcbaaef	0.09944712
47	0x3ca169b2	0.01970372
48	0x3d916c99	0.071007915
49	0xbdd3fd5a	-0.10351057
50	0xbe26a3c4	-0.16273409
51	0xbd7228a8	-0.059120804
52	0xbdec93dd	-0.1155164
53	0x3e07d99f	0.1326661
54	0x3d3d9047	0.04628017
55	0x3d891c9f	0.06694912
56	0x3d522613	0.05130584
57	0x3ab9df11	0.0014180859
58	0x3df9ec61	0.12203289
59	0xbde55250	-0.111973405
60	0x3c286f70	0.010280475
61	0xbde58c0d	-0.11208353
62	0x3d4b523c	0.04963897
63	0xbd780d1b	-0.060559373
64	0x3d3c12fb	0.04591654
65	0xbd1e0b6d	-0.038585115
66	0x3e01ba95	0.12668832
67	0xbdbb79a6	-0.09154062
68	0xbdd4ee66	-0.103970334
69	0xbdc04de1	-0.09389854
70	0x3e0e9253	0.13923006
71	0x3d597cd7	0.053097572
72	0x3e1eda46	0.15512952
73	0xbe026697	-0.12734447
74	0xbe20cfad	-0.15704222
75	0xbdf94b0a	-0.12172516
76	0xbdd6b2c8	-0.104833186
77	0x3d85de64	0.06536558
78	0x3d6994cf	0.05702668
79	0x3e065440	0.13118076
80	0xbdb1c328	-0.08679801
81	0xbdf18ac2	-0.11794044
82	0x3dad1f27	0.084532075
83	0xbd7657a1	-0.060142163
84	0x3ddd7e62	0.10815121
85	0xbd06808d	-0.03283744
86	0x3da63b23	0.08116748
87	0xbdfd2cb3	-0.12362041
88	0xbd9e5ad1	-0.077321656
89	0x3d3f427b	0.04669426
90	0x3cfbcbf0	0.030736893
91	0xbd050858	-0.03247866
92	0x3dc270dd	0.09494183
93	0x3dce7df5	0.10082618
94	0xbde11f60	-0.109923124
95	0xbdadd03e	-0.08486985
96	0x3e1e966c	0.15487069
97	0xbd64a97f	-0.055825707
98	0xbd6f8508	-0.058476478
99	0xbe144caa	-0.1448237
100	0xbdba4a68	-0.09096223
101	0x3d354ae7	0.044260886
102	0xbcc70bb3	-0.02429757
103	0xbdf8934f	-0.12137472
104	0x3b6bf729	0.0036005473
105	0xbdd51027	-0.104034714
106	0xbe0950c2	-0.13409713
107	0xbdbb51e4	-0.09146479
108	0xbe0e88f3	-0.1391943
109	0xbdd51fde	-0.10406469
110	0x3e2daacf	0.1695969
111	0x3cd8e494	0.026476182
112	0x3d184988	0.0371795
113	0xbe1a8261	-0.15088798
114	0xbdcb64b2	-0.099313155
115	0xbd561191	-0.052262846
116	0x3d0e78e5	0.034783263
117	0xbe0cea6f	-0.13761304
118	0xbd87c30a	-0.066289976
119	0xbdb23d64	-0.087031156
120	0xbb9cb733	-0.0047825812
121	0xbd475ffc	-0.048675522
122	0xbc86d857	-0.01646058
123	0xbdd668db	-0.10469218
124	0xbdec58b4	-0.11540356
125	0xbdb39530	-0.0876869
126	0xbd36010b	-0.04443459
127	0xbe029bcf	-0.12754749
128	0x3e05410c	0.13013095
129	0xbcde2336	-0.0271164
130	0x3e040690	0.12893128
131	0x3d29e0fc	0.041474327
132	0xbe0f513c	-0.13995832
133	0x3de30ddf	0.1108663
134	0xbd455527	-0.04817691
135	0xbd67af6c	-0.05656378
136	0xbe10c771	-0.14138581
137	0xbe227c1b	-0.15867655
138	0x3d23f223	0.04002584
139	0xbd253db2	-0.04034204
140	0x3d817ac5	0.063222446
141	0xbe0ce916	-0.1376079
142	0x3df32b48	0.118734896
143	0xbdf7beed	-0.12096963
144	0xbd0b6544	-0.03403212
145	0x3cbdcef5	0.023169974
146	0x3dad7487	0.084694915
147	0x3dff6899	0.12471122
148	0x3e135ea0	0.14391565
149	0xbdf8b7ff	-0.121444695
150	0x3d16d6a7	0.036825802
151	0xbd833d34	-0.06408158
152	0xbc6b48b5	-0.014360596
153	0xbded2faf	-0.115813605
154	0x3e0fa192	0.14026478
155	0xbde55ee2	-0.11199738
156	0x3d9785b0	0.07398546
157	0x3d5f80e0	0.054566264
158	0x3d41caa5	0.047312398
159	0xbdbacde9	-0.091213055
160	0x3e1b2c64	0.15153652
161	0x3d2ad8d6	0.041710697
162	0x3ca4659a	0.020067979
163	0xbe0d22d8	-0.13782823
164	0x3d78133c	0.06056522
165	0xbd006208	-0.03134349
166	0xbd84ff79	-0.0649404
167	0x3e133a02	0.14377597
168	0x3d32ad68	0.043622404
169	0xbda1836d	-0.078863956
170	0xbd909788	-0.07060152
171	0xbc81f6f3	-0.015864825
172	0x3da3bae8	0.07994634
173	0xbd050c94	-0.0324827
174	0xbdc0796b	-0.09398159
175	0xbd70ed25	-0.05881991
176	0xbdf39f85	-0.1189566
177	0x3d6daf54	0.058028534
178	0x3e06f939	0.13181008
179	0xbe1a90da	-0.15094319
180	0x3d3623f7	0.044467892
181	0x3db85670	0.09000862
182	0x3d1e70b6	0.03868171
183	0xbd42fc68	-0.047603995
184	0x3dafb4a7	0.085793786
185	0x3db0b3ff	0.086280815
186	0x3d8998c8	0.06718594
187	0xbd11078d	-0.03540759
188	0xbd055404	-0.032550827
189	0x3cd0795b	0.025448492
190	0xbcd142b6	-0.025544506
191	0xbd1e0b13	-0.03858478
192	0x3dca1905	0.09868053
193	0x3e112b8f	0.14176773
194	0xbc938ed5	-0.018012444
195	0xbd240935	-0.040047843
196	0xb924e059	-0.00015723835
197	0xbc18d740	-0.009328663
198	0x3d3889ad	0.045053173
199	0x3d2e0b66	0.04249134
200	0xbe1d0321	-0.15333225
201	0xbd51b8c6	-0.051201604
202	0x3e08e734	0.13369447
203	0x3d8216bc	0.063519925
204	0xbc985be5	-0.018598506
205	0xbdbc86be	-0.092053875
206	0xbdb0134d	-0.08597431
207	0xbe17dbda	-0.1482996
208	0xbd6959a4	-0.056970254
209	0x3d5f3630	0.054495037
210	0x3dc48a21	0.095966585
211	0x3d945cf0	0.07244289
212	0xbe108211	-0.14112116
213	0xbdc4f7fa	-0.0961761
214	0xbce584c4	-0.02801741
215	0x3e1b1bb3	0.15147285
216	0x3cd5e576	0.026110392
217	0xbd28a7a0	-0.041175485
218	0x3d9adca8	0.07561618
219	0xbd726d8d	-0.059186507
220	0xbdcc671c	-0.09980604
221	0x3dfec619	0.12440128
222	0xbd82ddd9	-0.0638997
223	0xbd04c537	-0.03241464
224	0xbe20dc47	-0.15709029
225	0x3ddf83d5	0.10913817
226	0x3df29c0e	0.11846171
227	0x3d569eb3	0.05239744
228	0xbde5ea85	-0.11226372
229	0xbe1cbdc4	-0.15306765
230	0xbe055563	-0.13020854
231	0x3df79378	0.12088674
232	0x3d9f22d3	0.07770314
233	0x3e073b53	0.13206224
234	0x3da1c5df	0.07899069
235	0x3d21aca6	0.03947129
236	0xbb687d0d	-0.0035474927
237	0xbdfca13a	-0.12335439
238	0xbe00dc70	-0.1258409
239	0xbe16d4a1	-0.14729549
240	0x3d634671	0.0554871
241	0xbda3e3a9	-0.08002407
242	0xbd0a8495	-0.033817846
243	0xbdb67b55	-0.089102425
244	0xbd21e275	-0.039522607
245	0xbde6cec1	-0.11269904
246	0xbdde6083	-0.10858252
247	0x3d2b962c	0.041891262
248	0xbd57c58e	-0.052678637
249	0x3db13a9d	0.08653758
250	0xbd684464	-0.056705847
251	0xbde10c3a	-0.1098866
252	0xbc8b2fc2	-0.016990546
253	0xbd89ea6f	-0.06734168
254	0xbd27e643	-0.04099108
255	0xbe15e926	-0.1463972

actor.0.bias f4 [64]
0	0xbda32ae1	-0.07967163
1	0x3dda7b09	0.10667998
2	0x3dd2d8b4	0.10295239
3	0x3ce3f787	0.027827991
4	0xbd834cd3	-0.064111374
5	0x3d07c295	0.033144552
6	0xbc31abe5	-0.0108442055
7	0x3e0e7d75	0.13915046
8	0x3cb7ca1a	0.022435237
9	0x3c801ef7	0.015639765
10	0x3c9a36b6	0.018824916
11	0x3db75fd3	0.08953824
12	0xbb9d6e6e	-0.004804424
13	0x3e0b71d1	0.13617636
14	0x3da554f3	0.080728434
15	0xbde14ffc	-0.11001584
16	0x38fad013	0.00011959686
17	0xbe0420b3	-0.12903099
18	0xbdf2e143	-0.118593715
19	0x3d0166dd	0.03159224
20	0x3d0ed13a	0.034867503
21	0xbc55bfc0	-0.013046205
22	0x3e1d5cf5	0.15367492
23	0xbd9e1e97	-0.07720678
24	0xbd8d8eb4	-0.06911984
25	0xbcbe6f64	-0.023246475
26	0xbb12ed2c	-0.0022419197
27	0xbc85aaf9	-0.016316878
28	0x3e12f62b	0.14351718
29	0xbd8001ef	-0.06250369
30	0xbda935d8	-0.08262223
31	0x3c3b663e	0.011437951
32	0x3df87bec	0.12133011
33	0x3d14e696	0.036352716
34	0x3db6d4bc	0.089272946
35	0x3d09b3bc	0.033618674
36	0x3e097c56	0.13426337
37	0x3dd00110	0.10156453
38	0x3df71f0f	0.12066471
39	0xbc942da6	-0.018088173
40	0xbe023790	-0.12716508
41	0xbd8db802	-0.06919862
42	0x3d53862d	0.051641632
43	0x3de99cf6	0.11406891
44	0xbd75fc53	-0.06005509
45	0x3e03c5b9	0.12868394
46	0x3cd6a80b	0.026203176
47	0x3be858cc	0.0070906635
48	0x3bb625c6	0.005558702
49	0xbd190bee	-0.037364893
50	0x3e172429	0.14759888
51	0x3be68918	0.007035386
52	0x3dbdb395	0.09262768
53	0xbe029e49	-0.12755693
54	0xbd96ef10	-0.07369816
55	0x3c776215	0.015099068
56	0x3e00b5fc	0.12569422
57	0x3d95d049	0.07315118
58	0x3cfac3c8	0.030610934
59	0xbe275bb4	-0.16343576
60	0xbb9c7b10	-0.0047754124
61	0xbdd29466	-0.10282211
62	0xbe1387e6	-0.1440731
63	0x3cd68d72	0.026190493

actor.2.weight f4 [64, 64]
0	0xbdaf72d4	-0.085668236
1	0x3dea1fad	0.11431823
2	0xbd8ab259	-0.06772298
3	0x3d248642	0.0401671
4	0x3da348c5	0.07972864
5	0xbdbc653a	-0.09198995
6	0x3d8ecb02	0.069723144
7	0xbc9952db	-0.018716266
8	0x3d6f894e	0.058480553
9	0x3e038556	0.12843832
10	0xbd49be14	-0.04925354
11	0xbd50aa6f	-0.05094379
12	0x3dbb6528	0.091501534
13	0x3c3de346	0.011589831
14	0xbc44e22e	-0.012016816
15	0x3dc84047	0.09777885
16	0xbd709eae	-0.05874508
17	0xbc4ad6b1	-0.012380288
18	0x3dae8a86	0.08522515
19	0x3d5d9897	0.0541006
20	0xbda7fe5f	-0.08202814
21	0x3cc144f0	0.023592442
22	0xbdaea64c	-0.08527812
23	0xbd6fb2ca	-0.058520116
24	0x3da753cc	0.0817028
25	0xbd2d7c7b	-0.042355042
26	0xbd7446d4	-0.05963786
27	0x3c4fdac2	0.012686433
28	0x3cc8b5ba	0.024500716
29	0xbd96ada8	-0.07357341
30	0xbdb6ebbf	-0.08931684
31	0xbe02e81c	-0.12783855
32	0x3d18720c	0.03721814
33	0xbd949794	-0.07255474
34	0x3b8231b2	0.0039732093
35	0xbcec6399	-0.028856086
36	0xbda2a7e4	-0.07942179
37	0xbd16609d	-0.03671323
38	0xbdb5bcb9	-0.088738866
39	0xbd88a0e2	-0.06671311
40	0x3b946de2	0.0045297006
41	0xbddc813d	-0.10766838
42	0xbde29078	-0.110627115
43	0x3db434a0	0.087991
44	0x3c8f7168	0.017510131
45	0xbd5e719c	-0.054307565
46	0x3b1fd788	0.0024389941
47	0x3db908b8	0.09034866
48	0xbdd85d26	-0.10564642
49	0xbd6bceb3	-0.05757017
50	0xbdc5ef0d	-0.09664736
51	0xbc5a792d	-0.013334555
52	0xbc5c0fc6	-0.013431495
53	0xbdd8dd3f	-0.10589074
54	0x3da8a77c	0.0823507
55	0xbdcb1731	-0.09916533
56	0x3dfc51c6	0.123202845
57	0xbda66d3c	-0.081263036
58	0xbcc6d3e1	-0.024270954
59	0x3cbcd2ff	0.02304983
60	0xbd5358d0	-0.05159837
61	0x3de03fc8	0.10949665
62	0xbdb862d4	-0.09003225
63	0xbbe9b2bd	-0.007131903
64	0xbdaffda7	-0.08593302
65	0x3d3152b1	0.04329175
66	0x3de49bb9	0.11162514
67	0x3de38b41	0.11110545
68	0x3ca23a14	0.019803084
69	0xbd8e5a76	-0.06950848
70	0x3de80155	0.11328379
71	0x3be54278	0.006996449
72	0x3dc116be	0.09428166
73	0xbd824ff8	-0.06362909
74	0xbd3c15fc	-0.045919403
75	0xbdc1d37c	-0.094641656
76	0x3df0b9a3	0.117541574
77	0x3ce69cbf	0.028150914
78	0xbdac289f	-0.08406185
79	0x3c7ca7b3	0.015420842
80	0xbd53337d	-0.051562775
81	0xbb81aa72	-0.0039570862
82	0x3d16ac85	0.03678562
83	0xbd95fdf1	-0.07323826
84	0x3cba0806	0.022708904
85	0xbd983edf	-0.07433867
86	0x3c96df3b	0.018416991
87	0xbe033b9d	-0.1281571
88	0x3c1754f8	0.009236567
89	0x3dee8ebd	0.11648319
90	0x3df17cd4	0.11791387
91	0x3d425277	0.047441926
92	0x3dc3b496	0.095559284
93	0x3de35a06	0.11101155
94	0x3d109377	0.035296883
95	0x3d530e19	0.051527116
96	0x3bb33667	0.0054691317
97	0x3de020bb	0.10943743
98	0x3dc52d52	0.09627785
99	0xbd43f0b9	-0.047836993
100	0x3b12372c	0.0022310717
101	0xbd83a6b2	-0.06428279
102	0x3d27bec5	0.040953416
103	0xbe065700	-0.13119125
104	0x3d31041e	0.043216817
105	0xbd2bd575	-0.041951615
106	0x3d4a2980	0.049355984
107	0x3d3ad197	0.045610037
108	0xbd6c7de6	-0.057737254
109	0x3d696b22	0.056986935
110	0x3d80dc47	0.062920146
111	0xbdd7b3df	-0.105323546
112	0x3e02ae4a	0.12761799
113	0x3de0c2b1	0.109746344
114	0x3d9f1e1c	0.07769415
115	0xbbd66e61	-0.00654392
116	0x3d46b8cd	0.048516084
117	0xbd9ec03a	-0.07751508
118	0xbd543714	-0.05181034
119	0x3d719f59	0.058989856
120	0x3d54688c	0.051857516
121	0x3d4e84d6	0.05041965
122	0xbde5c179	-0.112185426
123	0x3ddb2f22	0.10702349
124	0xbd32059d	-0.043462384
125	0x3def7a13	0.11693206
126	0x3dcde216	0.10052888
127	0x3d1bf336	0.03807374
128	0x3e07c1f8	0.13257587
129	0x3d823bc8	0.063590586
130	0x3d8d5cb0	0.06902444
131	0xbd442c0b	-0.047893565
132	0x3de27316	0.11057107
133	0x3cc2c976	0.023777705
134	0x3d91d58d	0.0712081
135	0xbcb496d7	-0.022044582
136	0x3dce55c4	0.10074952
137	0x3dd46e12	0.10372557
138	0xbdcf3d87	-0.10119157
139	0x3dc4632f	0.0958923
140	0xbd99e659	-0.075146385
141	0xbda826fe	-0.08210562
142	0xbddc7021	-0.107635744
143	0x3d1bfe96	0.03808459
144	0xbdbadfdc	-0.09124729
145	0xbd22a608	-0.03970912
146	0xbd681d3f	-0.056668516
147	0x3cf856ab	0.030314764
148	0xbdfe5fca	-0.12420614
149	0xbd5e7163	-0.054307353
150	0xbb91c6f3	-0.0044487654
151	0x3c156933	0.00911932
152	0xbd6b01b3	-0.057374667
153	0x3d385f14	0.04501255
154	0xbdb80043	-0.08984425
155	0xbde095aa	-0.10966046
156	0xbc13eb12	-0.009028213
157	0xbd9c671d	-0.07636855
158	0x3da0b9ce	0.078479394
159	0xbda77152	-0.08175911
160	0xbca53597	-0.020167155
161	0x3d2ff606	0.042959236
162	0xbdda0ff7	-0.10647576
163	0x3dd9908a	0.10623272
164	0xbd82440a	-0.06360634
165	0xbd182d55	-0.037152607
166	0xbda99702	-0.082807556
167	0xbd2d0768	-0.04224339
168	0xbd53e624	-0.05173315
169	0xbde25373	-0.11051073
170	0x3d2752b2	0.04085035
171	0x3c137d34	0.009002019
172	0x3df57ee6	0.119870946
173	0x3dac830a	0.08423431
174	0x3dd55fe2	0.10418679
175	0x3cf3ce59	0.02976148
176	0x3d7bc53d	0.061467398
177	0x3ded6325	0.11591176
178	0x3de6eba1	0.112754114
179	0xbdb5415f	-0.08850359
180	0xbcd90a95	-0.026494304
181	0xbdee1ff8	-0.11627191
182	0x3c566a0e	0.013086809
183	0xbd20dac0	-0.039271116
184	0x3dcbcb5d	0.09950898
185	0x3c3bf49d	0.011471895
186	0x3baa912b	0.0052052937
187	0xbdb79e3f	-0.0896573
188	0xbdcbdfeb	-0.09954818
189	0x3cb053f4	0.021524407
190	0xbd819093	-0.063264035
191	0xbd7e4c0a	-0.062084235
192	0x3dc75ac8	0.09734112
193	0xbd8c3dd8	-0.06847733
194	0xbd5e3e3e	-0.054258578
195	0x3db17d53	0.08666482
196	0x3d32a42e	0.043613605
197	0xbda3c023	-0.079956315
198	0x3d0b6272	0.03402943
199	0x3d81bb3e	0.06334542
200	0xbdcf66f9	-0.10127062
201	0x3c666792	0.014062779
202	0x3cc2eb95	0.023793975
203	0xbc5d8d7e	-0.013522504
204	0x3e034fdb	0.12823431
205	0xbda7ba8c	-0.08189878
206	0x3d7dc3bc	0.061954245
207	0xbd8ba271	-0.068180926
208	0xbde1b193	-0.11020198
209	0x3db4a55c	0.08820602
210	0xbd66ba04	-0.056329742
211	0xbaaae23d	-0.0013037395
212	0x3d6cc8a8	0.05780855
213	0xbdc319b6	-0.09526388
214	0xbded8d8d	-0.11599264
215	0x3d1ed31c	0.03877555
216	0x3ddd1d49	0.10796601
217	0xbbfe06f4	-0.0077522937
218	0x3da28c6f	0.07936942
219	0x3d321b55	0.043483097
220	0x3d2859bd	0.041101206
221	0xbdb1acc5	-0.08675531
222	0x3dfb852f	0.12281262
223	0x3d8b4c66	0.06801681
224	0x3c1e6c4e	0.009669377
225	0x3dad3bdb	0.08458682
226	0xbdd85984	-0.10563949
227	0x3cfbbb4b	0.030728957
228	0xbd88873c	-0.06666419
229	0xbc84bacb	-0.016202351
230	0x3d018fe8	0.03163138
231	0x3d593b37	0.053034987
232	0x3cc1aa05	0.023640642
233	0xbdbb38f0	-0.09141719
234	0xbdaf3f3d	-0.085569836
235	0x3c436e89	0.011928209
236	0xbcd5d8f3	-0.026104426
237	0xbddecb7d	-0.10878656
238	0x3deed342	0.11661388
239	0x3cb0ee90	0.02159813
240	0xbda6bc70	-0.0814141
241	0x3d588aea	0.052866854
242	0x3d7f7a7c	0.06237267
243	0xbd63046e	-0.055424146
244	0x3d83e9a9	0.064410515
245	0xbd9dcc3c	-0.0770497
246	0x3d54a306	0.051913284
247	0x3de897fb	0.11357113
248	0x3d94e11a	0.07269497
249	0x3d58ca84	0.05292751
250	0xbc89be3e	-0.016814347
251	0x3caf51c4	0.021401294
252	0x3d2f11ff	0.04274177
253	0x3d258bb4	0.040416434
254	0xbca2a5c3	-0.019854432
255	0x3c8d9143	0.01728118

actor.2.bias f4 [64]
0	0x3dae75d5	0.085185684
1	0xbd10afb5	-0.035323817
2	0x3cc66499	0.02421789
3	0x3cc605eb	0.024172744
4	0xbd6f73c9	-0.05846003
5	0xbb8a541c	-0.0042214524
6	0x3cf2bfc2	0.029632453
7	0xbe030a8b	-0.1279699
8	0xbc93c75e	-0.018039402
9	0x3b8ac558	0.004234951
10	0x3dd36850	0.103226304
11	0x3ce9e04d	0.028549338
12	0xbddc01cc	-0.1074253
13	0xbd1b63d5	-0.037937004
14	0x3de98161	0.1140163
15	0xbc79ad78	-0.015239112
16	0x3dd2c7ae	0.10291992
17	0x3c682447	0.014168805
18	0x3db64be9	0.089011975
19	0xbd580f8e	-0.05274921
20	0x3df0a29b	0.117497645
21	0x3cd7faaf	0.026364652
22	0xbcad73c3	-0.021173364
23	0x3dc59247	0.09647041
24	0x3d64ebb0	0.05588883
25	0xbdacc518	-0.0843603
26	0xbba475e3	-0.005018936
27	0x3da726f7	0.08161729
28	0x3d052e9a	0.032515146
29	0xbd3ccc44	-0.04609324
30	0xbdacac19	-0.084312625
31	0xbdb369a3	-0.08760383
32	0x3d9e24b5	0.07721845
33	0x3d7989f0	0.060922563
34	0xbddc0a9a	-0.107442096
35	0xbcece058	-0.02891557
36	0x3d00bcae	0.03142994
37	0xbde198ec	-0.11015496
38	0x3dc8cbc1	0.09804488
39	0xbbe7c164	-0.0070726145
40	0xbd29f2b3	-0.04149122
41	0x3c5d44f4	0.013505209
42	0x3d29c898	0.041451067
43	0x3d0cab53	0.034343075
44	0x3dfcefaf	0.123504035
45	0x3da15728	0.07877952
46	0xbc068df4	-0.008212555
47	0x3cb02da8	0.021506146
48	0x3d0473dc	0.032337055
49	0xbd4c2df4	-0.04984851
50	0xbdd51d12	-0.10405935
51	0xbc362c0e	-0.011118902
52	0xbd4da4d1	-0.05020601
53	0xbdf2c8d8	-0.11854714
54	0x3d1e5950	0.038659394
55	0xbd64e919	-0.05588636
56	0x3dee4926	0.11635046
57	0x3d414ac3	0.04719044
58	0x3d5e5170	0.054276884
59	0x3ced062e	0.02893361
60	0x3d4f7028	0.05064407
61	0x3da9ef54	0.08297601
62	0x3dbc090a	0.091814116
63	0xbbee3f1c	-0.007270707

actor.4.weight f4 [7, 64]
0	0xbd30f55d	-0.043202747
1	0x3d1c4948	0.038155824
2	0xbd4672e6	-0.04844942
3	0xbb6a8dd1	-0.0035790096
4	0x3d2d4d8e	0.04231029
5	0x3d832268	0.06403047
6	0xbde8268f	-0.113354795
7	0x3d2ed38c	0.042682216
8	0xbd3eca3a	-0.046579577
9	0xbd9f32df	-0.07773375
10	0xbd649551	-0.05580646
11	0xbc472dd0	-0.012156919
12	0x3d6f828f	0.05847412
13	0xbdf2b602	-0.118511215
14	0x3d1a4183	0.037660133
15	0x3dea614d	0.1144434
16	0xbda00bc2	-0.078147426
17	0x3cc1cdf4	0.023657776
18	0xbd653a1d	-0.055963624
19	0x3d187b29	0.03722683
20	0x3d5eb674	0.05437322
21	0xbda743e9	-0.0816725
22	0x3cd8b993	0.026455676
23	0x3dec4101	0.11535836
24	0x3b744d51	0.003727753
25	0xbdba4a1c	-0.090961665
26	0x3b7ec2a4	0.003887334
27	0x3d10925f	0.03529584
28	0x3cf378d8	0.029720709
29	0xbbb5feed	-0.005554071
30	0xbcbb9708	-0.022899166
31	0xbd6ed65e	-0.058309905
32	0x3da8291f	0.08210968
33	0xbd992398	-0.07477492
34	0xbd1c39b7	-0.03814098
35	0x3da73f57	0.08166378
36	0xbd863179	-0.06552405
37	0xbccd5989	-0.025067108
38	0xbd51b718	-0.051200002
39	0xbdf3209c	-0.11871454
40	0x3d73bd4d	0.059506703
41	0xbd4b187d	-0.0495839
42	0xbd485aa6	-0.048914574
43	0xbcaba84e	-0.020954277
44	0x3d1642a4	0.036684647
45	0x3ded2791	0.11579812
46	0x3dd2a1a7	0.10284739
47	0x3bf3da40	0.007441789
48	0xbde9a588	-0.11408526
49	0x3c43aa23	0.011942419
50	0x3a471123	0.0007593801
51	0x3ddbb327	0.1072753
52	0xbd0a9732	-0.033835597
53	0xbe0065db	-0.12538855
54	0x3d32fd29	0.043698464
55	0xbccd908f	-0.025093345
56	0x3d108ec0	0.035292387
57	0x3d2ea173	0.04263444
58	0x3d2c0164	0.041993514
59	0x3d9eb975	0.07750217
60	0xbdb36093	-0.087586544
61	0xbdd2e8d8	-0.10298318
62	0x3e00963d	0.12557311
63	0x3ddb8179	0.10718054
64	0xbd76b8d2	-0.060234852
65	0x3df4e89e	0.11958431
66	0x3cadb6ea	0.021205384
67	0xbce9e1bd	-0.028550023
68	0xbd9934cc	-0.07480773
69	0xbd7e5a35	-0.062097747
70	0x3de02180	0.109438896
71	0xbd990729	-0.07472069
72	0xbd451d4a	-0.048123635
73	0x3e0321f9	0.12805928
74	0xbd86e64d	-0.06586895
75	0x3de6cff6	0.11270134
76	0x3d5bf77c	0.053702816
77	0x3d64fa27	0.055902626
78	0x3cbe0049	0.023193495
79	0xbcf8d06b	-0.030372819
80	0x3d38ca45	0.045114774
81	0x3d317526	0.043324612
82	0xbd8459d3	-0.06462445
83	0xbdde71cf	-0.10861551
84	0xbdddc607	-0.10828786
85	0xbc257308	-0.010098226
86	0x3cfe3360	0.031030357
87	0xbdba0b01	-0.0908413
88	0x3cdbc1aa	0.026825745
89	0x3d9ab7e9	0.07554609
90	0x3d852509	0.065012045
91	0xbd41d1de	-0.047319286
92	0x3cf91841	0.030407073
93	0xbde6d607	-0.11271291
94	0x3dc067b5	0.093947805
95	0xbddabf07	-0.10680967
96	0x3c518509	0.012788066
97	0xbd36c6de	-0.04462325
98	0xbdc55a91	-0.09636415
99	0xbde7e10f	-0.113222234
100	0xbd9ca63c	-0.07648894
101	0xbdc14f29	-0.09438927
102	0x3dc1ca6d	0.09462438
103	0xbcade224	-0.021225996
104	0xbd9b4231	-0.075809844
105	0xb992c99a	-0.00027997495
106	0xbd54826f	-0.051882204
107	0xbc0b8acf	-0.008516981
108	0x3dc9a573	0.0984601
109	0xbddfa0aa	-0.10919316
110	0xbdeaa43c	-0.114571065
111	0x3cb7247b	0.022356262
112	0x3d9c2b44	0.0762544
113	0xbde4428e	-0.11145507
114	0x3d297ecf	0.0413807
115	0x3e0257f8	0.1272887
116	0xbc8cf5f6	-0.017207127
117	0xbdac41e5	-0.08411006
118	0x3d87f8e8	0.06639272
119	0x3d8bce21	0.06826425
120	0xbcbb13ae	-0.022836532
121	0xbde52517	-0.11188715
122	0xbb5d3f38	-0.0033759605
123	0xbd90e26d	-0.07074437
124	0xbde42d33	-0.111414336
125	0x3d911e19	0.07085819
126	0x3da5c5f2	0.08094396
127	0x3d6b2ae0	0.057413936
128	0xbdc39f4c	-0.09551868
129	0x3de5fde6	0.11230068
130	0x3db9fa5d	0.09080956
131	0x3dd08e26	0.10183363
132	0xbc5b5df2	-0.0133890975
133	0xbd00c1e5	-0.031434912
134	0xbdf57baf	-0.119864814
135	0x3db02c3d	0.08602188
136	0xbc435df9	-0.01192426
137	0xbe015a82	-0.12632182
138	0x3de4af20	0.11166215
139	0xbc11343f	-0.008862554
140	0x3d91655f	0.07099413
141	0xbc30b65b	-0.010785664
142	0xbc4df5f2	-0.012570845
143	0x3dce8fe8	0.10086042
144	0x3de47da9	0.1115678
145	0xbd4726ac	-0.048620865
146	0x3b0a8ee0	0.002114229
147	0x3db0a522	0.086252466
148	0x3c36897f	0.01114118
149	0xbc85e4f8	-0.016344532
150	0x3df14b46	0.117819354
151	0x3df0ca8c	0.11757383
152	0xbd2bd5cd	-0.041951943
153	0x3dabeed9	0.08395166
154	0xbcaf2099	-0.021377848
155	0x3b18e57d	0.0023330145
156	0x3ddbe4e1	0.107370146
157	0xbc8586e7	-0.016299678
158	0xbca7607b	-0.020431748
159	0xbd02d037	-0.03193685
160	0xbde5b9cc	-0.112170786
161	0x3dc5f09b	0.096650325
162	0xbdcd27b8	-0.100173414
163	0xbdc8f982	-0.09813215
164	0x3cb859f4	0.02250383
165	0xbc04b344	-0.008099381
166	0x3c30f403	0.010800364
167	0x3b6943bc	0.0035593351
168	0x3deddeae	0.116147384
169	0xbe0382ea	-0.12842909
170	0xbd846f64	-0.064665586
171	0x3c8a4d98	0.016882703
172	0xbde27262	-0.11056973
173	0xbdc97345	-0.09836439
174	0x3dc701dc	0.097171515
175	0x3d20ad6e	0.039227895
176	0xbd4c8371	-0.04993004
177	0x3d2924da	0.04129491
178	0x3d02808b	0.03186087
179	0xbc9db5a1	-0.019251646
180	0x3dc9a8f3	0.09846678
181	0x3c048764	0.00808892
182	0x3d9ef77b	0.07762047
183	0xbdcd6ace	-0.10030137
184	0xbd319dc5	-0.04336335
185	0x3cc40841	0.023929717
186	0x3d9f6a9e	0.077840075
187	0xbd5d1a8a	-0.053980388
188	0x3dc50c70	0.09621513
189	0xbde7b818	-0.1131441
190	0xbd50b2b8	-0.05095169
191	0x3dd3b2e8	0.10336858
192	0xbdb7917f	-0.08963298
193	0xbde698b0	-0.112595916
194	0xbd25c08f	-0.04046684
195	0xbdcfee02	-0.10152818
196	0x3d06f6a5	0.032950062
197	0xbca8cd82	-0.020605806
198	0xbd238ec3	-0.03993107
199	0x3d83f43c	0.064430684
200	0x39c8868d	0.0003824722
201	0xbde34615	-0.110973515
202	0xbde5b497	-0.112160854
203	0x3da90b6a	0.0825413
204	0x3d66e653	0.056371998
205	0x3d9d5501	0.07682229
206	0xbdced193	-0.10098567
207	0xbcd125ba	-0.025530685
208	0x3decd194	0.11563411
209	0x3dd3734a	0.10324724
210	0x3db16e03	0.08663561
211	0x3de3869b	0.11109658
212	0xbd09ebbe	-0.033672087
213	0xbdc085a4	-0.0940049
214	0x3d9bf8dd	0.07615826
215	0x3db01dbd	0.08599422
216	0xbd1daa4f	-0.038492497
217	0xbc8cbf2f	-0.017181007
218	0x3b33bb8b	0.0027425017
219	0xbde22f84	-0.11044219
220	0xbd4f0208	-0.050539047
221	0xbd359e0c	-0.04434018
222	0x3d3501e3	0.044191252
223	0xbd185e3c	-0.037199244
224	0x3d686ffd	0.056747425
225	0x3de1183f	0.10990953
226	0xbcc05ede	-0.023482736
227	0xbd042deb	-0.032270353
228	0xbda7e7a8	-0.08198482
229	0xbc29c47b	-0.010361786
230	0xbddef3c5	-0.10886339
231	0x3db7c6f2	0.08973493
232	0x3dda6d38	0.10665363
233	0x3d012696	0.03153094
234	0x3df8d1e2	0.12149407
235	0x3d5bb179	0.053636048
236	0x3db16d4d	0.086634256
237	0x3df86809	0.12129218
238	0xbdad6b3b	-0.08467718
239	0xbbdb34a7	-0.0066896263
240	0x3d4ff687	0.050772216
241	0xbd1f8638	-0.03894636
242	0xbdc2b97f	-0.09508037
243	0xbd0fbd89	-0.035092864
244	0xbd87d084	-0.06631568
245	0xbd2e828c	-0.042604968
246	0xbdc69422	-0.09696223
247	0xbcecc730	-0.028903574
248	0x3d950493	0.07276263
249	0xbd4e644b	-0.050388616
250	0x3d775db0	0.06039208
251	0xbddc1688	-0.10746485
252	0xbd97e5f2	-0.074169055
253	0x3ca73940	0.020413041
254	0x3de3940d	0.11112223
255	0xbde68807	-0.11256414

actor.4.bias f4 [7]
0	0x3c22c468	0.009934522
1	0x3d775731	0.060385887
2	0xbd07b081	-0.03312731
3	0x3d8bb38b	0.068213545
4	0x3d912aac	0.07088217
5	0xbc75f89b	-0.015012885
6	0x3d9a1540	0.07523584

critic.0.weight f4 [64, 40]
0	0xbe1105c8	-0.14162362
1	0xbdac83d7	-0.08423584
2	0xbca16b1d	-0.019704396
3	0xbc22a37c	-0.009926673
4	0x3d45ad37	0.048260894
5	0x3df0a299	0.11749763
6	0xbde4f46a	-0.11179431
7	0x3dae2800	0.08503723
8	0x3d1fcae7	0.039011862
9	0x3e09487c	0.13406557
10	0x3d9cb844	0.076523334
11	0xbd134792	-0.035956927
12	0xbcd1bcc1	-0.0256027
13	0xbde84fed	-0.1134337
14	0x3d2a7588	0.041615993
15	0x3e03746b	0.12837379
16	0x3d6eb895	0.0582815
17	0x3df57b19	0.1198637
18	0x3d8a1136	0.06741564
19	0x3d104a5d	0.03522717
20	0xbcf67a6c	-0.030087672
21	0xbe073005	-0.13201912
22	0xbcd40774	-0.02588246
23	0x3e07c6c4	0.13259417
24	0x3e06ac73	0.13151722
25	0xbd4485ee	-0.047979288
26	0x3e0865cd	0.13320084
27	0x3e0f2ea3	0.13982634
28	0xbe06b446	-0.13154706
29	0xbe1cef7c	-0.15325731
30	0xbda1178b	-0.078658186
31	0xbc59c008	-0.013290413
32	0x3d7a7f12	0.06115634
33	0x3d733a51	0.059381787
34	0x3ddd1afa	0.10796161
35	0xbd94017e	-0.07226847
36	0x3ddfab2c	0.1092132
37	0x3cdd17d6	0.026988905
38	0xbddbc6f7	-0.10731309
39	0xbde651e1	-0.11246086
40	0x3d57f40f	0.052722987
41	0x3e17789d	0.14792104
42	0xbdd4762b	-0.10374101
43	0x3cdeee14	0.027213134
44	0xbe22fcea	-0.15916792
45	0x3dde1f62	0.108458295
46	0x3d434b1b	0.047679048
47	0xbd1fe4ba	-0.03903649
48	0x3dac5cf8	0.0841617
49	0x3d8a898a	0.06764515
50	0x3dd1d95e	0.102465376
51	0x3c7f9ca7	0.015601314
52	0xba49b18e	-0.0007693999
53	0x3d948f0b	0.07253846
54	0x3d7695d8	0.060201496
55	0xbe04b553	-0.12959795
56	0xbd720d35	-0.059094626
57	0x3dbd7873	0.092514895
58	0xbda39dab	-0.07989057
59	0x3dfa7961	0.122301824
60	0xbcda1ac4	-0.026624091
61	0x3e1e6136	0.1546677
62	0xbdb9325c	-0.090428084
63	0x3dec19b1	0.11528338
64	0xbd9b2433	-0.07575264
65	0x3de4fd29	0.11181099
66	0x3db8152b	0.089884125
67	0x3d887c32	0.066643134
68	0x3d48a8e5	0.048989195
69	0x3dc5c210	0.09656155
70	0xbd883361	-0.06650425
71	0xbd4833e2	-0.048877604
72	0x3d3e32ab	0.04643504
73	0xbdea16b1	-0.11430109
74	0x3c90d192	0.017678056
75	0x3d8e0800	0.0693512
76	0xbe1234d6	-0.14277968
77	0xbc6b0312	-0.014343994
78	0x3c37d93c	0.011221226
79	0xbdf9706e	-0.121796474
80	0x3df9f4ec	0.12204918
81	0x3c19ba16	0.009382745
82	0xbe17063e	-0.14748475
83	0xbd3de067	-0.046356585
84	0x3ca091f1	0.01960084
85	0x3df7cbc7	0.12099414
86	0xbd485bb3	-0.048915576
87	0x3e10c42c	0.14137334
88	0xbd841846	-0.06449942
89	0xbdfcb4a4	-0.12339142
90	0xbd561bcd	-0.052272607
91	0xbdd7972f	-0.10526883
92	0x3d44f352	0.04808361
93	0x3dcb3fff	0.09924316
94	0xbe001060	-0.12506247
95	0xbdfa879d	-0.122328974
96	0x3dba1446	0.09085898
97	0xbd217249	-0.03941563
98	0x3e1917a7	0.14950429
99	0x3e16218b	0.14661233
100	0xbdcb1720	-0.0991652
101	0x3dc8f6e0	0.09812713
102	0xbe17e5a7	-0.14833699
103	0x3d8c3685	0.06846336
104	0xbdc85d33	-0.09783401
105	0x3b2ffbb8	0.0026852917
106	0x3e22117b	0.15826981
107	0x3ce17268	0.027520373
108	0xbda4150c	-0.08011827
109	0x3d9d0889	0.076676436
110	0xbce2238a	-0.027604837
111	0x3e1569ec	0.14591187
112	0xbdedb1b5	-0.116061606
113	0xbcfc8f0f	-0.030829934
114	0xbdfc6ecc	-0.1232582
115	0xbdc4f773	-0.0961751
116	0xbd3108e1	-0.04322136
117	0xbde0d81f	-0.10978722
118	0xbdccfe7c	-0.100094765
119	0xbd151979	-0.036401246
120	0xbdc0ca7d	-0.094136216
121	0xbdc5b37a	-0.09653373
122	0x3c1f9923	0.0097411005
123	0xbdf1a220	-0.11798501
124	0x3da97bb1	0.082755454
125	0x3dd2c21e	0.10290931
126	0x3e11023e	0.14161012
127	0x3d33373a	0.04375384
128	0xbc8655b2	-0.016398285
129	0xbd0244e2	-0.031803973
130	0xbd97cf76	-0.07412617
131	0x3dee7f27	0.11645346
132	0x3dbccc64	0.09218672
133	0x3df015fc	0.11722943
134	0xbcd0d6f9	-0.025493132
135	0xbddd3a03	-0.108020805
136	0x3d38fa88	0.0451608
137	0x3e0ea71c	0.13930935
138	0xbcffd897	-0.031231208
139	0x3e03f906	0.12887964
140	0x3de19ddd	0.11016438
141	0x3d47210f	0.04861551
142	0xbd507c35	-0.050899703
143	0xbd63b3f1	-0.055591527
144	0xbd0ad05d	-0.033890117
145	0xbcb2d64e	-0.021830704
146	0xbd159130	-0.036515415
147	0xbe1bb109	-0.15204252
148	0xbde49254	-0.111607224
149	0xbd6060bc	-0.054779753
150	0x3de5c112	0.11218466
151	0x3d7897d2	0.060691662
152	0xbe09ec2e	-0.13469002
153	0xbde063b7	-0.10956519
154	0xbdaae4bf	-0.08344411
155	0x3e18b331	0.14912106
156	0x3cf75b7d	0.030194992
157	0x3e024b2d	0.1272399
158	0xbe07d9a4	-0.13266617
159	0x3e184708	0.14870846
160	0x3e05c27a	0.13062468
161	0x3c053e3c	0.008132514
162	0xbd983125	-0.074312486
163	0x3d575b72	0.052577443
164	0xbd9bc70d	-0.07606325
165	0xbd938337	-0.072027616
166	0x3d66fabe	0.05639147
167	0xbe006c61	-0.12541343
168	0x3d105c4d	0.035244275
169	0xbc585f28	-0.013206281
170	0x3c20bdd1	0.009810881
171	0x3c2889b4	0.010286737
172	0x3d311ff6	0.04324337
173	0xbdb51a66	-0.08842926
174	0x3d697a41	0.057001356
175	0xbe11eadf	-0.14249752
176	0x3d803ae2	0.06261231
177	0xbdfa2d01	-0.12215615
178	0x3e15c29e	0.14625022
179	0x3d0ad74d	0.033896733
180	0x3d1a622a	0.037691273
181	0x3d155c19	0.036464784
182	0x3cd330a2	0.025780026
183	0xbd7fee46	-0.062483095
184	0xbe15cda6	-0.1462923
185	0x3db99b62	0.0906284
186	0x3db9353a	0.09043355
187	0xbd0d16fa	-0.03444574
188	0x3b20bb14	0.002452557
189	0xbc740fca	-0.0148963425
190	0xbd0f7e79	-0.035032723
191	0x3dd33c8d	0.103142835
192	0xbdc2fa74	-0.095204264
193	0xbe11f795	-0.14254601
194	0xbd106636	-0.035253726
195	0xbdafe64c	-0.085888475
196	0xbddb882a	-0.107193306
197	0xbd1fcbcb	-0.03901271
198	0xbc67b604	-0.014142517
199	0x3dcca694	0.0999271
200	0x3da41f0d	0.08013735
201	0x3e01a891	0.12661959
202	0x3de322d4	0.11090627
203	0x3d4b10a4	0.049576417
204	0xbc24739f	-0.010037332
205	0xbbeb1b46	-0.007174882
206	0xbdfb5966	-0.12272911
207	0x3c51fbec	0.0128164105
208	0xbd2c8809	-0.04212192
209	0xbd434e71	-0.04768223
210	0x3dffc5c2	0.12488891
211	0x3d99a79e	0.075026736
212	0x3dd3b659	0.103375144
213	0x3dd9c875	0.10633937
214	0xbdb7ba3d	-0.08971069
215	0x3d3fb808	0.046806365
216	0xbca92ece	-0.020652201
217	0x3d636325	0.055514473
218	0x3db316ca	0.08744581
219	0xbd384bc6	-0.04499414
220	0x3dee69da	0.11641283
221	0x3b0ec0a8	0.0021782313
222	0xbce97458	-0.02849786
223	0x3dd59927	0.10429602
224	0x3dfb540b	0.12271889
225	0xbd4f2c3a	-0.050579287
226	0x3db2ec9a	0.087365344
227	0xbcd89d80	-0.02644229
228	0xbc07c222	-0.008286031
229	0xbde72342	-0.11286022
230	0xbd9e2d80	-0.07723522
231	0x3ca6a211	0.020340951
232	0xbcda55dd	-0.02665227
233	0xbc2abbdd	-0.010420767
234	0x3d2a2413	0.04153831
235	0xbd7d7cd2	-0.061886616
236	0x3da86e61	0.08224178
237	0x3e1de606	0.15419778
238	0x3df95f70	0.121764064
239	0x3e091d55	0.13390096
240	0xbd33fadc	-0.04394041
241	0xb911c396	-0.00013901139
242	0xbd55a966	-0.052163504
243	0xbdb49aa8	-0.08818561
244	0xbcd4ac23	-0.025960987
245	0x3db6f112	0.08932699
246	0xbe1c6246	-0.15271863
247	0xbdb7cf94	-0.08975139
248	0x3d9af2e6	0.075658605
249	0x3d9bbc85	0.076043166
250	0xbd033e77	-0.032041993
251	0xbcfbda17	-0.030743642
252	0xbc7cb5db	-0.015424217
253	0x3dfacb72	0.12245835
254	0x3dd89635	0.10575525
255	0xbd8c164d	-0.06840191

critic.0.bias f4 [64]
0	0xbd564245	-0.052309293
1	0x3c9088c9	0.01764335
2	0x3d8bc735	0.06825105
3	0x3de62c4d	0.112389185
4	0x3ddf3670	0.10899055
5	0x3c519f9b	0.012794401
6	0x3e0cc6d7	0.13747726
7	0x3db1064f	0.086437814
8	0x3dc026b0	0.09382379
9	0xbe0fd94d	-0.14047737
10	0x3c8456dc	0.016154699
11	0xbce697f7	-0.028148634
12	0xbe125a7c	-0.1429233
13	0xbd93dfaa	-0.07220395
14	0x3dec7e2c	0.11547503
15	0x3d53d780	0.05171919
16	0x3e0dcef4	0.13848478
17	0x3dd45a6f	0.10368811
18	0x3b9f1aed	0.0048555047
19	0x3e0b426e	0.1359956
20	0x3d0fcda4	0.035108224
21	0xbce5ed17	-0.028067155
22	0xbd9b943c	-0.07596633
23	0x3de51572	0.11185731
24	0x3d83a396	0.06427686
25	0x3deb5061	0.114899404
26	0xbd09e334	-0.033663943
27	0xbe1b55a6	-0.15169391
28	0x3cb5eb83	0.022207027
29	0x3caada21	0.020855965
30	0xbddb1664	-0.1069763
31	0x3d46dc98	0.04855022
32	0xbc3a2f19	-0.011363768
33	0x3e0d0ebd	0.13775153
34	0x3b125f85	0.0022334766
35	0xbda92b2c	-0.082601875
36	0x3df8724e	0.12131177
37	0x3c1df33e	0.009640513
38	0xbceb992d	-0.028759563
39	0x3da6277f	0.08113002
40	0x3e1dafa1	0.15399028
41	0x3d81e4d2	0.06342472
42	0xbbc3a7f9	-0.0059709516
43	0x3e003f67	0.12524186
44	0xbd9ef99f	-0.07762455
45	0x3e0ac2b8	0.13550842
46	0xbdc2f374	-0.09519091
47	0xb9b223ff	-0.00033977625
48	0x3e159a43	0.14609627
49	0x3d889f49	0.06671006
50	0xbd30e4f7	-0.043187108
51	0x3dd069dc	0.10176441
52	0x3dc4d29b	0.09610482
53	0xbe0c8d29	-0.13725723
54	0xbcb2f7c2	-0.021846656
55	0xbdf4438e	-0.119269475
56	0xbcc291e0	-0.0237512
57	0xbce4b139	-0.027916538
58	0xbd5b19f6	-0.053491555
59	0xbd4efb7a	-0.050532795
60	0x3da6bf5b	0.08141967
61	0xbb034720	-0.0020031407
62	0xbe155cd6	-0.14586195
63	0x3cd8abc8	0.0264491

critic.2.weight f4 [64, 64]
0	0xbdfe7654	-0.12424913
1	0xbdbf83c6	-0.09351306
2	0x3d9df1e9	0.07712156
3	0x3dc692cd	0.09695969
4	0xbd48dabb	-0.049036723
5	0xbda0948a	-0.078408316
6	0x3d4e2c89	0.05033544
7	0xbdfc07f0	-0.123062015
8	0x3db32d54	0.0874888
9	0x3da725fc	0.08161542
10	0x3d56d051	0.05244476
11	0x3d364c5e	0.044506423
12	0x3cf9b1f1	0.030480357
13	0xbdbd3a95	-0.09239689
14	0xbd5158c0	-0.05111003
15	0x3d9430a3	0.07235839
16	0x3dd08736	0.101820394
17	0x3ba15cfe	0.0049244156
18	0x3d2c0e15	0.042005617
19	0xbdf6d53e	-0.120523915
20	0x3daccdfd	0.08437727
21	0xbd931859	-0.07182378
22	0xbd93d184	-0.07217696
23	0x3e064405	0.13111885
24	0xbd2b1f11	-0.041777674
25	0xbd5a9c5c	-0.053371772
26	0x3c2de9dd	0.010614839
27	0x3dbfcc23	0.09365108
28	0x3de02094	0.10943714
29	0x3b28c63f	0.002575293
30	0x3db4ea32	0.08833732
31	0x3dcb53a7	0.09928065
32	0xbc7e2e64	-0.01551399
33	0xbdd4533c	-0.10367438
34	0x3b22602f	0.0024776568
35	0xbd1ebba6	-0.038753174
36	0x3d2037f8	0.039115876
37	0xbdaca7f1	-0.0843047
38	0xbd9a6bea	-0.07540114
39	0xbdb38534	-0.08765641
40	0xbdcb9f9c	-0.099425524
41	0x3db8a425	0.09015683
42	0xbe081798	-0.1329025
43	0xbb28f214	-0.0025779055
44	0xbdab47ee	-0.08363329
45	0xbd5f9f8c	-0.054595515
46	0xbd189ae1	-0.03725708
47	0x3d831e8a	0.06402309
48	0x3da3862d	0.079845764
49	0xbcf4e756	-0.029895466
50	0xbbf1cdba	-0.007379261
51	0xbb03761e	-0.0020059417
52	0x3de33d78	0.110957086
53	0x3d874573	0.06605043
54	0xbcbf0fc7	-0.023322953
55	0x3daf6049	0.08563287
56	0xbdc1b203	-0.09457781
57	0x3d2bf92a	0.04198567
58	0x3dd4d96b	0.10393032
59	0xbd77d84f	-0.060509022
60	0x3d3f468e	0.046698146
61	0x3d6c4d3c	0.057690844
62	0xbdc7405a	-0.09729071
63	0x3d2fe9f1	0.042947713
64	0x3dbf364a	0.09336527
65	0x3b7a3f4e	0.0038184705
66	0xbcc0e813	-0.023548162
67	0xbd40f1a9	-0.047105465
68	0xbdb355a2	-0.087565675
69	0x3ce0588c	0.027385972
70	0xbdff190d	-0.1245595
71	0xbde29207	-0.11063009
72	0xbd0f82f6	-0.035037003
73	0xbdf7177b	-0.120650254
74	0x3dfc2cdf	0.12313246
75	0xbd0a70d5	-0.03379901
76	0xbd7abfe6	-0.061218165
77	0x3d0f4127	0.034974243
78	0x3d4546e8	0.048163325
79	0x3daeb6e0	0.085309744
80	0xbd5dfcf8	-0.054196328
81	0xbcb53cbd	-0.022123689
82	0xbdadf2f7	-0.084936075
83	0xbde2d006	-0.110748336
84	0xbd718ff2	-0.058975168
85	0x3c6fb628	0.014630832
86	0xbd8a15a5	-0.067424096
87	0xbcd51cdd	-0.02601474
88	0x3d21a31e	0.0394622
89	0x3d0bb9ae	0.034112625
90	0x3d909aef	0.07060801
91	0x3d58756f	0.05284637
92	0x3d7b9533	0.061421584
93	0xbd954c16	-0.07289903
94	0x3d9121a9	0.07086498
95	0xbdd1f22f	-0.10251271
96	0x3d338f24	0.04383768
97	0xbdacc69f	-0.084363215
98	0x3cde8a95	0.02716569
99	0xbde1263b	-0.1099362
100	0xbcd48977	-0.025944455
101	0x3dabbba1	0.08385397
102	0xbd5de1a3	-0.054170262
103	0x3dab17d7	0.083541565
104	0xbcd27e9c	-0.025695138
105	0x3de60014	0.11230484
106	0x3de1489f	0.110001795
107	0xbd954242	-0.07288028
108	0xbd125a4b	-0.03573064
109	0xbceab4fe	-0.028650757
110	0xbd4a429e	-0.049379937
111	0x3d40a482	0.047031887
112	0xbdf2c24f	-0.11853468
113	0xbd9deaa1	-0.077107675
114	0xbcfe05d1	-0.031008633
115	0xbde2c6f1	-0.11073101
116	0xbdfd010b	-0.123537146
117	0x3d7b545c	0.06135975
118	0xbdd1259e	-0.10212253
119	0x3dad8fd2	0.08474697
120	0xbd7d3cc4	-0.06182553
121	0xbc8ff3a4	-0.017572232
122	0x3daa0007	0.083007865
123	0xbdf51a98	-0.11967963
124	0xbdfa6e19	-0.12228031
125	0x3bd513a6	0.0065025864
126	0xbd31a169	-0.043366823
127	0x3d861c38	0.06548351
128	0x3d343342	0.043994196
129	0x3cbfc1b3	0.023407793
130	0x3d408119	0.046998117
131	0x3dda179f	0.106490366
132	0x3ccc1a02	0.024914745
133	0x3dad43c3	0.0846019
134	0xbd833c37	-0.064079694
135	0x3ddb7e2a	0.10717423
136	0xbd0458d1	-0.032311264
137	0x3d88003d	0.066406704
138	0xbde5b8a0	-0.11216855
139	0xbda78709	-0.08180053
140	0xbd9f973b	-0.07792517
141	0x3d7f3723	0.06230844
142	0xbb165362	-0.0022937884
143	0xbdd9aac9	-0.10628278
144	0x3e0173a7	0.12641774
145	0x3cd06410	0.025438339
146	0x3dd764a7	0.10517245
147	0x3c93b3d5	0.018030087
148	0x3cb64c3f	0.022253154
149	0x3dbfa672	0.09357919
150	0xbda2d313	-0.079504155
151	0x3de0e5ed	0.10981355
152	0xbd97a400	-0.074043274
153	0x3ab543c8	0.0013829404
154	0xbd981792	-0.07426371
155	0xbd9ed753	-0.077559136
156	0x3dce245c	0.10065529
157	0xbccfd15c	-0.025368385
158	0xbcda9127	-0.026680542
159	0x3db5b4b7	0.08872359
160	0x3deeee8d	0.11666594
161	0xbddbd60b	-0.10734185
162	0x3bdb4045	0.006691011
163	0x3d09c987	0.033639457
164	0x3e001d6e	0.12511227
165	0xbd6967c1	-0.056983713
166	0xbd4d40d3	-0.05011065
167	0xbda38241	-0.07983828
168	0x3d1b50bb	0.037918787
169	0x3d13bacc	0.036066815
170	0x3bcaaff4	0.006185526
171	0xbc6c9434	-0.014439631
172	0xbda41d0a	-0.08013351
173	0xbd4dc5a4	-0.050237313
174	0xbd40b551	-0.047047917
175	0x3cdfc6fd	0.027316565
176	0x3d757c7b	0.059933167
177	0x3d7bb65f	0.06145322
178	0xbdac684e	-0.08418332
179	0xbc23a4c4	-0.009988014
180	0xbca90afb	-0.020635119
181	0x3de9b079	0.114106126
182	0x3db2c984	0.08729842
183	0xbdc2292b	-0.094805084
184	0xbda4889e	-0.0803387
185	0xbdb0ec5a	-0.086388305
186	0xbd1cf6d4	-0.03832133
187	0xbde9ff62	-0.114256635
188	0x3d721054	0.059097603
189	0xbd65cdfe	-0.056104653
190	0xbd90238d	-0.07038031
191	0xbab1e42d	-0.001357203
192	0xbd2095b7	-0.03920528
193	0x3dd19e95	0.10235325
194	0x3de7bec9	0.11315686
195	0xbde9db0e	-0.114187345
196	0x3d7963d7	0.06088623
197	0x3b9fad6c	0.0048729684
198	0x3d933813	0.0718843
199	0xbd3014a5	-0.04298844
200	0xbca0fa64	-0.019650646
201	0x3b3c1fb5	0.0028705422
202	0x3d345f34	0.044036105
203	0x3d64f830	0.055900753
204	0x3d331aae	0.043726616
205	0x3c3da87f	0.011575817
206	0xbdc98c4f	-0.09841215
207	0xbd81e55a	-0.063425735
208	0xbd8a5d3f	-0.067560665
209	0xbe01d28e	-0.12677976
210	0x3de0bd80	0.10973644
211	0xbd5e2d94	-0.054242685
212	0xbda146b1	-0.078748114
213	0xbd712d8b	-0.058881324
214	0x3d968d84	0.07351211
215	0xbdb1fa33	-0.086903
216	0xbdc94387	-0.09827333
217	0xbdd29ec8	-0.10284191
218	0x3d0ca8ae	0.034340553
219	0x393df700	0.00018116459
220	0xbddda185	-0.10821823
221	0xbd9f6a66	-0.07783966
222	0xbde5cec5	-0.11221079
223	0x3d0c4c84	0.03425266
224	0x3d50d127	0.050980713
225	0x3cd9aad5	0.026570717
226	0xbd0b99ab	-0.034082096
227	0xbd815ad1	-0.0631615
228	0x3d5f2e36	0.05448743
229	0xbd12c25c	-0.035829887
230	0xbcc0a543	-0.023516303
231	0xbd41bd8b	-0.047299903
232	0x3ce1180f	0.027477292
233	0x3d0da45b	0.03458057
234	0x3de2571d	0.11051772
235	0x3ddef3a7	0.10886317
236	0xbcd1847e	-0.025575873
237	0x3caf4dde	0.021399435
238	0xbda5c5f5	-0.08094398
239	0xbdcb3991	-0.09923089
240	0x3ddd9758	0.10819882
241	0x3c8a1acd	0.016858483
242	0xbd4fc389	-0.050723586
243	0x3d81c3cd	0.06336174
244	0x3d5baca2	0.053631432
245	0x3d0b6b51	0.03403789
246	0x3d4c85e9	0.049932394
247	0x3ba4f386	0.005033913
248	0xbdcfb4ae	-0.10141884
249	0xbdd2fc8d	-0.103020765
250	0x3deb1be6	0.114799306
251	0x3daae18a	0.083437994
252	0xbdc55119	-0.09634609
253	0x3dc79981	0.097460754
254	0xbdfed98e	-0.12443839
255	0x3d9bf715	0.076154865

critic.2.bias f4 [64]
0	0xbdd2d90d	-0.102953054
1	0x3d36f472	0.044666715
2	0xbd8375ff	-0.0641899
3	0xbce2d305	-0.027688513
4	0x3cc000cf	0.023437886
5	0xbd2b5c87	-0.041836288
6	0xbd44aed7	-0.048018303
7	0x3d6b17ab	0.05739562
8	0xbcd0f2e0	-0.025506437
9	0x3d2dc1bb	0.042421084
10	0x3dfea8af	0.124345176
11	0x3d0e1a33	0.034692954
12	0x3cc792e2	0.024362031
13	0x3de9564c	0.11393413
14	0xbd537f30	-0.051634967
15	0x3b896187	0.0041925344
16	0xbde3a165	-0.11114768
17	0xbd6d85db	-0.057988983
18	0xbbc79600	-0.0060908794
19	0x3df0f5ab	0.117656074
20	0x3d9955fd	0.07487104
21	0xbce3cfb7	-0.027809007
22	0xbd1f4228	-0.03888145
23	0x3cd5394c	0.026028298
24	0xbd4b34de	-0.049610965
25	0xbcbf99be	-0.02338874
26	0x3ce97d98	0.02850227
27	0xbd0bb08f	-0.034103926
28	0x3dacec90	0.08443558
29	0x3d5bfdcf	0.053708848
30	0xbc978870	-0.018497676
31	0xbcdc146e	-0.02686521
32	0x3c06facd	0.0082385065
33	0x3d8ef513	0.06980338
34	0x3cf7bc7c	0.030241244
35	0xbd1fec31	-0.03904361
36	0x3d46d339	0.04854128
37	0xbc20cdaf	-0.009814664
38	0xbdb1cc64	-0.086815625
39	0xbdd204ad	-0.10254798
40	0x3b9f99ff	0.0048706527
41	0x3dd42542	0.10358669
42	0xbd58c11c	-0.05291854
43	0x3da95d26	0.0826972
44	0xbd050fbd	-0.032485712
45	0x3da23989	0.0792113
46	0xbcc28ab8	-0.023747787
47	0xbd4247f5	-0.047431905
48	0x3d026d4e	0.031842522
49	0x3d7c162b	0.06154458
50	0xbdb98e0b	-0.09060296
51	0xbc5ad9f8	-0.013357632
52	0x3cf70221	0.030152382
53	0x3c9322c1	0.017960908
54	0x3df03de7	0.11730557
55	0xbde9b1b7	-0.114108495
56	0x3de353dc	0.11099979
57	0x3d75ef57	0.060042705
58	0xbde808f1	-0.113298304
59	0xbd336cc2	-0.04380489
60	0x3d3e5e18	0.046476454
61	0xbdb6eb0c	-0.089315504
62	0x3de57599	0.112040706
63	0xbd4f4039	-0.050598357

critic.4.weight f4 [1, 64]
0	0x3d5f7360	0.05455339
1	0x3cd4074a	0.025882382
2	0xbd167d73	-0.03674073
3	0xbdde2b12	-0.10848059
4	0x3c6452e2	0.013935776
5	0xbdc9317f	-0.09823894
6	0xbcb208af	-0.021732656
7	0x3cb1b5ee	0.021693196
8	0xbd174000	-0.03692627
9	0x3d8026a0	0.06257367
10	0xbdde5fe5	-0.10858134
11	0xbdd2ff48	-0.10302597
12	0x3d6e1c6b	0.05813257
13	0xbd881d3e	-0.066462025
14	0x3dd5d444	0.10440877
15	0xbcf821b1	-0.030289503
16	0xbc83990c	-0.01606419
17	0x3de0cc51	0.1097647
18	0xbc998d6c	-0.018744193
19	0xbddc2582	-0.107493415
20	0xbd62be58	-0.055357307
21	0x3d2bafc0	0.041915655
22	0x3dad60c3	0.084657215
23	0x3dcccb94	0.09999767
24	0xbd147e97	-0.036253538
25	0x3c58857d	0.01321542
26	0x3dab3ddd	0.08361409
27	0xbd3df4ce	-0.046376042
28	0xbb3d2a26	-0.0028864234
29	0xbd85f0ce	-0.065400705
30	0x3c028426	0.007966077
31	0x3deaead5	0.11470572
32	0x3de50314	0.11182228
33	0xbd90d796	-0.0707237
34	0x3d53f801	0.051750187
35	0x3ddbac26	0.10726194
36	0xbc674c0a	-0.01411725
37	0x3d3a5e60	0.04550016
38	0xbddbf4b3	-0.10740032
39	0x3da21486	0.07914071
40	0xbcf3c220	-0.029755652
41	0x3ddb2eaf	0.107022636
42	0x3db9ec0d	0.09078226
43	0xbd9bce22	-0.07607676
44	0xbd3bedae	-0.045880966
45	0xbdb686e4	-0.08912447
46	0xbddd09c9	-0.10792882
47	0xbdefdb7d	-0.11711786
48	0x3d59cce2	0.053173907
49	0x3d9f449a	0.077767566
50	0xbd9b5416	-0.075843975
51	0x3dbfce5f	0.09365534
52	0xbd1f991e	-0.038964383
53	0x3d2109e4	0.039316073
54	0x3dc9841c	0.09839651
55	0x3dc7d762	0.09757878
56	0xbdd2c25b	-0.102909766
57	0x3d2f17c7	0.042747285
58	0xbd68d500	-0.056843758
59	0xbdcbacf9	-0.09945101
60	0xbc1b3e44	-0.0094752945
61	0xbcb71de3	-0.022353118
62	0x3caf90a1	0.02143127
63	0x3c9c4115	0.019074002

exp_avg f4 [7]
0	0xbc5471ff	-0.012966632
1	0x3a88fc1f	0.0010451115
2	0x3ce05f44	0.027389176
3	0x3cab2ce4	0.020895429
4	0xba253dc3	-0.00063034537
5	0xbc817a94	-0.01580552
6	0xbd281616	-0.041036688

exp_avg_sq f4 [7]
0	0x398d3a78	0.00026937178
1	0x3907f125	0.00012964437
2	0x392bda62	0.00016389185
3	0x393a5e9b	0.00017773586
4	0x391c590b	0.0001491049
5	0x39830550	0.00024990225
6	0x3975cec8	0.00023442053
