logs/rsl_rl/reach_kinova/2025-06-26_20-12-24/model_0.pt (torch, 184519 bytes, 36 tensors)

std f4 [7]
00000000: 4c53 7f3f c225 7f3f 3620 813f 8c3a 803f
00000010: 5b70 803f 15c6 803f e7f0 803f
0.99736476 0.9966699 1.0087955 1.0017867 1.0034288 1.006045 1.0073518

actor.0.weight f4 [64, 40]
00000000: 370b cc3d 1b50 273e fa1b bdbc f77f 193e
00000010: bcf0 ba3c df9b f63c 978e cdbd 6e73 b83d
00000020: 303f 7d3d 4a73 b7bd dff4 913d 42ca a63d
00000030: 739d 833d c578 793c 7095 ab3d e362 53ba
00000040: 5697 e63d 0bd7 2b3d 4d34 aebd 8696 133d
00000050: 72cf a5bc 1c55 523d b803 633c 487d 473e
00000060: 38e6 08be a51f c1bd e0eb dcbb 9d8c 7bbd
00000070: d61b 4c3d 45b3 f9bd 991b 1d3e f8f1 ccbd
00000080: d239 e43d d7f8 d63c e91f 3ebd 09cb be3d
00000090: bed8 9c3c ef50 103e 9113 c0ba 9391 38bd
000000a0: df4f de3d 17b4 92bd 6367 753d fee1 fe3d
000000b0: 321e 483d dd50 45bd 39e8 763d 4b35 f13c
000000c0: 245f df3d ec02 d0bd cc02 c6bd 7e08 9fbd
000000d0: 43e7 e2bd 4132 f53d 1d07 4e3d 36ec 743d
000000e0: 393d 603d 413b c33b e297 fa3d 12e3 ebbd
000000f0: 5ffd 5abc b452 17be 9fe1 52bc c3b1 4ebd
00000100: 8064 833d 9f2e f0bc 721f fb3d 0265 03be
00000110: e1f1 ddbd 4fb4 cabd 5fa9 133e fdaf 443d
00000120: a6c2 193e 3b48 19be c962 1fbe de80 eabd
00000130: 7335 e7bd 8d9c a93d 8c57 8f3d 384e 053e
00000140: 25e7 5abc f1ea 11be 5cb8 cc3d 019a c8bd
00000150: db95 1f3e 76ff 22bd fc45 a33d d1c0 41be
00000160: 4919 21be 5877 c43c daed 633d 8f89 ad3c
00000170: e1a7 b53d dec1 bf3d c6c6 f7bd ff29 84bd
00000180: dbfc 1a3e 5113 33bd b80c 7fbd 1d2f 0fbe
00000190: dd84 19bd ecc8 cf3d 7c02 c73c 15f9 f6bc
000001a0: 3a7a 5b3d 3d84 1fbe c55a 18be f61f a8bd
000001b0: 4c5c 2cbe cbcd e4bd bd1f 273e df2c 9a3c
000001c0: 2976 323d 53fe 2dbe 5d61 e2bd ca73 02bd
000001d0: 4115 b83c 3eff 07be 76b6 90bd 0ada 80bd
000001e0: b64b a33d 8f62 c3bd 49cd e2bb 4e18 dfbd
000001f0: 6381 40be 8756 d7bd b3ab 87bd 5a43 dbbd
00000200: d01f 1b3e a03c 2abd b3ba 563e c9bb 503d
00000210: 874c e7bd 07bb e43d 24bb 4bbd a425 47bd
00000220: 85b0 00be 5086 2ebe 9701 d53c cc5d 21bd
00000230: e076 d63c 2365 ccbd ac1c 063e ee4e 0ebd
00000240: 754c d43c a4a5 9c3d c2f7 823d 7b9c d53d
00000250: 0d64 d13d 0874 12be 101d 263d 466d afbd
00000260: 9034 94bc be2e d2bd 3571 163e 60a0 d2bd
00000270: 1629 b33d 4889 483d 4bae 2b3d 5107 aebd
00000280: b63a 143e f09d e93c fdbe 2c3c 16cb ddbd
00000290: 67b1 5f3d 96f9 db3b fdba cdbd 9afc 143e
000002a0: 6576 413d e023 c1bd 1431 fdbd b339 f83a
000002b0: 7e2f ca3d fbcf 37bd a8f8 c0bd d2d1 8cbd
000002c0: c5ee 14be 484b 6e3d 554b fe3d a6fc 0ebe
000002d0: 5a6b ed3c 44f2 963d 8799 f13c ef10 e5bd
000002e0: e690 953d d845 da3d e54c 723d 2688 773c
000002f0: 6074 09bd 47ee 613c 4d89 2cbd 2dcc 4dbd
00000300: 9c0d ec3d 705f 0b3e abe4 bebc 5422 06bd
00000310: 92a9 a5bc 2761 18bc fbd7 123d d2f3 3e3d
00000320: 7a12 02be b0bc b2bd 1590 023e 36fd 3d3d
00000330: 4790 45bc e320 eabd bc69 f2bd 39e5 2abe
00000340: ec4f 87bd 996b 343d 6f7e ff3d 9187 af3d
00000350: 3d06 08be 7d64 ccbd c531 c8bc 2289 143e
00000360: e55d 053d 403f 57bd bde3 6e3d e2c1 3bbd
00000370: 6345 abbd ad89 083e 2497 5abd c3cc a33b
00000380: 86aa 2dbe c6eb 0e3e 9467 e53d a8e1 693d
00000390: 41fa edbd 646c 21be 2e4b 05be 4236 ee3d
000003a0: 350e 9f3d 5142 093e 25f8 b23d 1c85 e43c
000003b0: f83a 673b 2354 0dbe ce49 1bbe f8b0 0ebe
000003c0: 43f5 d23d f384 b7bd 9023 4bbc f537 efbd
000003d0: cfbf 2cbd 2661 0dbe 18b5 c9bd a2e0 6e3d
000003e0: 1495 1dbd 9e12 e53d 5689 a0bc 1fc3 0abe
000003f0: cde8 22bd a3de 92bd 4d57 15bd 2b85 17be
0.099630766 0.16339152 -0.02308463 0.14990221 0.02281987 0.030103622 -0.100369625 0.090063915
0.06182784 -0.089575365 0.071267836 0.08144046 0.064265154 0.015226548 0.08378112 -0.00080637465
0.11259334 0.041953128 -0.08506069 0.036032222 -0.02024052 0.051350698 0.013855867 0.19481385
-0.13369071 -0.09429864 -0.0067419857 -0.061413396 0.049831234 -0.12192396 0.15342559 -0.100070894
0.11143841 0.026241703 -0.04641715 0.0931607 0.01914632 0.14093374 -0.0014654269 -0.045060705
0.10855078 -0.07163256 0.05991305 0.12445448 0.04885692 -0.04817282 0.06028006 0.029444357
0.109068185 -0.10156807 -0.09668502 -0.07765292 -0.11079266 0.11972476 0.050299753 0.05979558
0.054745886 0.0059579914 0.122360006 -0.115179196 -0.013366072 -0.14777642 -0.012871175 -0.050462496
0.06415653 -0.029319106 0.12261857 -0.128315 -0.1083715 -0.098976724 0.14420079 0.048019398
0.15015659 -0.1496896 -0.15565027 -0.11450361 -0.112894915 0.08281813 0.0699912 0.1301812
-0.013360773 -0.1424978 0.09996101 -0.09794999 0.15584509 -0.039794408 0.07972333 -0.1892121
-0.15732302 0.023982689 0.055646755 0.021183757 0.08869911 0.09363149 -0.1209846 -0.064533226
0.15135519 -0.043719593 -0.06226799 -0.13982816 -0.037480224 0.10145745 0.024293177 -0.030148068
0.05358336 -0.15577789 -0.14878376 -0.08209221 -0.16832083 -0.111720644 0.16320701 0.018820224
0.043569718 -0.16991548 -0.11053727 -0.031848706 0.022471072 -0.13280961 -0.07066052 -0.06291588
0.07973425 -0.09540283 -0.0069214446 -0.108933076 -0.18799357 -0.10514551 -0.06624546 -0.10706206
0.15148854 -0.041561723 0.20969658 0.050960336 -0.11293893 0.11168485 -0.049739018 -0.04861988
-0.12567337 -0.17043424 0.026001735 -0.039396092 0.02617973 -0.09980228 0.13096875 -0.034743242
0.025915364 0.07648781 0.06394912 0.10430237 0.10224161 -0.14302075 0.04055506 -0.08565764
-0.01809147 -0.102628216 0.14691623 -0.10284495 0.08748071 0.048959047 0.041914266 -0.08497489
0.14475521 0.028517693 0.010543582 -0.10829751 0.054612543 0.0067131026 -0.10045431 0.14549485
0.04723205 -0.09430671 -0.123628765 0.0018938094 0.0987234 -0.04487608 -0.094224274 -0.068759575
-0.14544208 0.058177263 0.12416712 -0.13963565 0.028981853 0.07370427 0.029492153 -0.111848705
0.07303028 0.10657853 0.059155364 0.015108144 -0.03355825 0.01378972 -0.042123128 -0.050243545
0.11526033 0.13610625 -0.023302397 -0.03274758 -0.020222459 -0.009300507 0.035850506 0.046619244
-0.12702361 -0.087273955 0.12750275 0.04638406 -0.012058324 -0.11432054 -0.118365735 -0.16689004
-0.06607041 0.044047926 0.12475287 0.08570779 -0.1328363 -0.09980104 -0.024437794 0.14505437
0.032560248 -0.052550554 0.058322657 -0.045839198 -0.08362844 0.13333769 -0.053366795 0.0049987747
-0.16959581 0.13957128 0.112013966 0.05709997 -0.11619998 -0.15764004 -0.1301696 0.116314426
0.07766382 0.13404204 0.08738736 0.027895503 0.003528295 -0.13801627 -0.15164873 -0.13934696
0.10300686 -0.08960905 -0.0123986155 -0.11680595 -0.04217511 -0.1380659 -0.09848994 0.058319695
-0.03847225 0.111851916 -0.019596737 -0.13550995 -0.039772797 -0.07171371 -0.03646021 -0.14796893

actor.0.bias f4 [64]
00000000: f5c0 30bd f328 da3d 9542 c73d 3a45 303c
00000010: 4797 9cbd 36b9 d33c d17e 753c e3c4 093e
00000020: 035d c33c 47f2 1e3c 0ba2 0f3c e418 b03d
00000030: 697e 823c 1f32 d43d 6185 4d3d 94a5 f9bd
00000040: 4fcc debb 7351 fabd f733 0bbe 8d05 0c3c
00000050: 4709 053d 9032 f9bc dd74 f13d c3e2 a7bd
00000060: 0571 5ebd 51ce 70bc 1320 c43a 5ce1 31bc
00000070: 99ce f03d 2d61 a3bd 3637 9dbd 1e3b 213c
00000080: 87fd e43d d2ee 123d 18ef b23d 4fba cf3c
00000090: a268 ea3d 2bd1 223d 2012 e23d 156c f8bc
000000a0: bec4 0bbe 733e 9cbd 8a07 3f3d f59a 903d
000000b0: c314 74bd 2fa7 093e 1613 293c 1e89 8cbb
000000c0: b257 123c 27bd 03bc be3b 093e f164 87bc
000000d0: f878 cb3d f101 ebbd 0b88 a5bd 628b fa3c
000000e0: d711 d83d 9cb3 8c3d d877 c63b b2ce 22be
000000f0: a682 663b 914a debd c2fe 0ebe 3446 613c
-0.04315277 0.10652342 0.097294964 0.010758692 -0.07646041 0.025845151 0.014983849 0.13454013
0.023848062 0.009701318 0.008766661 0.085984975 0.015929418 0.10361122 0.05017603 -0.12189785
-0.006799258 -0.122225665 -0.13594042 0.008546245 0.03247955 -0.030419618 0.11789868 -0.08197548
-0.054307003 -0.014697627 0.0014963172 -0.0108569525 0.117581554 -0.07977519 -0.07676546 0.009840755
0.11181169 0.035872288 0.0873701 0.025357394 0.114457384 0.03975026 0.11038613 -0.030324975
-0.1364927 -0.07629099 0.04663805 0.07060806 -0.059590112 0.13442682 0.010319492 -0.0042888066
0.008932041 -0.008040703 0.13401696 -0.016527625 0.09935182 -0.1147498 -0.08082589 0.030584041
0.10550278 0.06870195 0.006056767 -0.1589916 0.0035173087 -0.10854066 -0.1396437 0.013749648

actor.2.weight f4 [64, 64]
00000000: 7465 98bd 47fc da3d 0ecd 8cbd fa4b ae3c
00000010: 06a0 9d3d 610a bebd 23b3 993d 3463 9abc
00000020: 4d41 713d 56cc ea3d 044e 40bd 9a3f 75bd
00000030: 121d d83d edc8 9c3b cff6 6fbc c96a c13d
00000040: aef7 85bd 9ea9 b33b d25b ac3d 28e7 333d
00000050: ee36 acbd 3d05 153d 87be ccbd b99e 7dbd
00000060: 1e73 cf3d c5bf 20bd a2fe 50bd a5d6 af3c
00000070: 86aa c23c 15fe 81bd f129 92bd 1911 e1bd
00000080: 3bc9 e53c eff3 95bd 1680 c1ba 546b dbbc
00000090: 5168 aabd 1c1c 2dbd 0189 cfbd 2f24 91bd
000000a0: 7d1d 703b da87 c9bd f48d e3bd 5293 b13d
000000b0: e969 523c 30e4 70bd 4796 c2bb 6de2 cf3d
000000c0: ba5e ccbd b078 64bd 9a35 cfbd 9018 63bc
000000d0: ac39 ddbb a19c bcbd 3e4a a43d 9123 d5bd
000000e0: ad2a ec3d bfc1 93bd d29f b3bc 41c8 b33c
000000f0: 9732 45bd 0881 f83d 7171 5fbd 3941 0d3c
00000100: cf4e b7bd 311b 213d 63ed cd3d d104 033e
00000110: a64b 163c 7348 6bbd 59cf ea3d 273b 013c
00000120: 52c0 ab3d 0ef1 7dbd bcdd 89bd 61cb dcbd
00000130: 81fd dc3d 0ecf d43c ca2f bfbd 85ad 033c
00000140: 6c58 62bd 33a1 28bc 83bc 0a3d 7bc4 82bd
00000150: 1d93 f33c 18f9 9fbd 558a bf3c dc40 01be
00000160: b634 313c d101 063e 2358 d53d a35f f33c
00000170: 28e4 b73d 023a e13d 715b 533c b049 1f3d
00000180: 7297 813c 558c ed3d 128b db3d f948 88bd
00000190: 6dcc 51bb 7a66 6cbd 5755 4b3d 76a6 febd
000001a0: 6aa8 393d 9a6e 24bd ba77 323d f780 293d
000001b0: 06cb 80bd 5f56 823d ea3e 4c3d 8698 dfbd
000001c0: ba81 f63d 0616 d73d 8d54 a03d 9330 85bc
000001d0: 7a0b 353d 2707 89bd db88 32bd ebe8 873d
000001e0: 1e51 5c3d 89fb 0b3d 677d dabd d684 e53d
000001f0: fd15 3dbd 4241 cc3d e08b aa3d af7c 353d
00000200: bd36 003e 42c2 723d a9ac 793d 2710 29bd
00000210: b6e9 db3d 4b03 da3c bec5 ad3d 6d53 4cbc
00000220: ad2a c33d c7c5 d63d a299 ddbd 5f67 c23d
00000230: 0d43 aabd a5a7 aebd d7b2 ccbd f9ae e33c
00000240: a53e d6bd 32b5 0ebd 005c 77bd 930c 013d
00000250: 1a51 fdbd b54d 8bbd 158c 353c d128 8b3c
00000260: 56d6 5abd 7b6f 433d fc73 b7bd 421a e7bd
00000270: 0c64 29bc 4dab c3bd 7bd4 993d 6f52 b6bd
00000280: 59ef 05bc 0141 673d 0cac c1bd c9c4 c13d
00000290: 74b4 97bd 26fc 40bd 8809 8dbd a2c8 4cbd
000002a0: 6a5a 80bd 31d8 d4bd 10ba 033d 8365 a33c
000002b0: dd54 e43d 7ffd bf3d 3e87 c73d dd00 cb3c
000002c0: 8586 363d 3893 e33d 0241 e73d d434 b7bd
000002d0: f0ef a4bc 17e6 f3bd 6c64 033c 61a5 79bd
000002e0: cf19 dc3d 90ff 423c d1aa e93b c469 babd
000002f0: 2ecf e6bd 13ba df3b a37b 65bd a38e fabc
00000300: c158 b03d 1f17 86bd 7128 62bd 18c9 ca3d
00000310: 413b 293d c700 87bd c593 173d 77b1 723d
00000320: 60ff e0bd 4c56 b03c 586c e63c bf92 c0ba
00000330: 341c ee3d a093 b0bd f4e4 7a3d 12e8 93bd
00000340: bbdc ddbd 764c aa3d 801a 6cbd e015 18bb
00000350: 4111 773d 9bf4 e0bd d493 d7bd ea07 2d3d
00000360: e9d9 e83d 4619 bfbc 89e3 b33d 521e 133d
00000370: 241a c43c 5620 abbd 6ca5 ec3d ce37 8a3d
00000380: 82fd 913c 41b5 cc3d 4d91 d6bd 7da8 f33c
00000390: 5de8 7dbd 9599 8fbc b21d 083d 47ef 4b3d
000003a0: 7b31 803c f843 bcbd 959c a4bd 8427 143b
000003b0: 8ea5 05bd fb25 d8bd 697b f53d 48b1 8a3c
000003c0: acbe c8bd 5672 563d af34 433d 6f6a a0bd
000003d0: 27d4 763d be92 9cbd 0614 483d 7588 e33d
000003e0: 3967 9e3d d3bd 633d 27c8 dabc 8726 0b3d
000003f0: 9b05 6e3d 769a d23c f977 c0bc c52e 993c
-0.07441226 0.10692649 -0.068750486 0.021276463 0.07696538 -0.09279323 0.07504871 -0.018846132
0.058900166 0.11464755 -0.0469494 -0.05987511 0.1055242 0.0047846944 -0.014646246 0.09444196
-0.06541382 0.0054828664 0.08415951 0.04392162 -0.084089145 0.03638195 -0.09997278 -0.061918948
0.10129379 -0.039245386 -0.051024087 0.021464655 0.023762953 -0.063472904 -0.07136906 -0.10989589
0.028050056 -0.07321917 -0.0014762904 -0.026784576 -0.08320678 -0.042263135 -0.10133553 -0.070869796
0.003663867 -0.09840365 -0.1111106 0.08670677 0.012842634 -0.058811367 -0.0059383246 0.10150609
-0.09979005 -0.05577916 -0.101176456 -0.013860837 -0.00675126 -0.09209562 0.08021973 -0.104071744
0.11531577 -0.072146885 -0.021926794 0.021946074 -0.04814395 0.12133986 -0.054551546 0.008621507
-0.089505784 0.039332572 0.100550435 0.12794806 0.009173309 -0.05744214 0.1146533 0.007887638
0.083862916 -0.061997466 -0.067317456 -0.10780979 0.107905395 0.025977638 -0.09335287 0.008036976
-0.055260107 -0.010292339 0.033871185 -0.06385132 0.029733235 -0.07811183 0.023381392 -0.12622398
0.01081579 0.1308663 0.10417201 0.02970869 0.08979064 0.10997392 0.012900219 0.038888633
0.015819285 0.11599032 0.10719885 -0.066545434 -0.0032012716 -0.057714917 0.049641933 -0.12434094
0.045326628 -0.04014454 0.04357121 0.041382756 -0.06288724 0.0636413 0.049864687 -0.109177634
0.12036462 0.105022475 0.07828627 -0.016258514 0.044200398 -0.06690817 -0.043587547 0.066362225
0.053788297 0.03417543 -0.1066845 0.11206977 -0.046163548 0.099733844 0.0832746 0.04430836
0.12520881 0.05926729 0.060955677 -0.04127517 0.10737936 0.026612898 0.08484982 -0.012471062
0.09529624 0.10486942 -0.10820319 0.09492373 -0.0831357 -0.085280694 -0.099950485 0.027793394
-0.10461167 -0.03484077 -0.060390472 0.031506132 -0.123689845 -0.06801931 0.011080761 0.016987236
-0.053427063 0.047713738 -0.08957669 -0.11284305 -0.010338794 -0.095541574 0.075112306 -0.08902442
-0.008174741 0.056458477 -0.094566435 0.09461362 -0.074074656 -0.047115467 -0.068865836 -0.049996026
-0.06267245 -0.10392798 0.032159865 0.019945865 0.11148999 0.093745224 0.09742592 0.024780685
0.04456188 0.11112064 0.11291696 -0.08945623 -0.020133942 -0.119091205 0.008019548 -0.060948733
0.1074711 0.011901751 0.0071309586 -0.091022044 -0.11269985 0.0068276017 -0.056026112 -0.030585593
0.086106785 -0.06547379 -0.05521435 0.09901637 0.041316275 -0.06591945 0.03700616 0.059251275
-0.10986209 0.021525525 0.028127834 -0.0014692171 0.11626473 -0.08621907 0.061253503 -0.07221998
-0.108331166 0.08315365 -0.05764246 -0.0023206398 0.06031919 -0.10984155 -0.10526243 0.042243876
0.11369688 -0.023327481 0.08783633 0.035917588 0.023938246 -0.08355777 0.11554989 0.06748925
0.017821077 0.09995509 -0.10476933 0.029743427 -0.061989177 -0.017529288 0.033231445 0.04978874
0.015648594 -0.091926515 -0.08037678 0.002260656 -0.03262859 -0.10554119 0.11986429 0.016930237
-0.09801993 0.052355133 0.047657665 -0.078328006 0.060260918 -0.07645176 0.04884722 0.111100115
0.07734532 0.055600952 -0.026706768 0.03397229 0.058110815 0.025708418 -0.023494707 0.01869906

actor.2.bias f4 [64]
00000000: 53c1 9b3d 1fc6 f6bc 4ae1 193d 2d81 f93c
00000010: 8888 8bbd 2faf d6bb 34b1 f53c a86f 02be
00000020: ca75 f1bc cecd 863c 8a04 c53d c838 073d
00000030: f1a2 c6bd a0c4 04bd 0496 f63d 418a 95bc
00000040: 0f37 ca3d 69e4 803c dd30 9b3d 3e77 75bd
00000050: 0e6e e83d 185a 913a a4a2 85bc ca78 b43d
00000060: c42a 833d cc9f 9ebd 9641 2e3a a27a a73d
00000070: 4915 1c3d b9cf 3fbd 0419 95bd 8104 c1bd
00000080: 1119 893d 9639 3a3d c908 f0bd 96be 06bd
00000090: 0800 c23c 5266 edbd cc90 e53d c860 5bbc
000000a0: 0fbd 70bd aa7f 983c 6621 073d 8564 d93c
000000b0: d4be fa3d 19d9 7e3d 1311 91bc 82bf e83c
000000c0: d264 283d de6b 64bd dddc babd 73c8 e3bb
000000d0: e0f8 42bd a1f4 fbbd 657b 4e3d 7da5 37bd
000000e0: 390d d93d fe4f 193d 7aac 263d b4fd f53c
000000f0: b77b 303d 9ba2 aa3d e0d3 c43d 09e5 74bb
0.07605233 -0.030123768 0.037568368 0.030457104 -0.06813151 -0.006551645 0.029991724 -0.12737906
-0.029475112 0.016455557 0.096200064 0.033013135 -0.09699047 -0.03241408 0.12040332 -0.018254401
0.09873783 0.015733914 0.07577679 -0.05992817 0.11349116 0.0011089472 -0.016312905 0.08812101
0.06404641 -0.077453226 0.00066473463 0.08177687 0.038106237 -0.04682896 -0.07280162 -0.09424687
0.06694234 0.045465074 -0.11720426 -0.0328966 0.023681656 -0.11591782 0.112092584 -0.013389774
-0.05877405 0.018615562 0.032990836 0.02653719 0.12243429 0.06221876 -0.017708337 0.02841163
0.041111775 -0.055766933 -0.091241576 -0.0069513856 -0.047600627 -0.12302519 0.050410647 -0.044835556
0.10598225 0.037429802 0.04069183 0.030028202 0.043086734 0.08331796 0.096107244 -0.003736796

actor.4.weight f4 [7, 64]
00000000: 56d7 6cbd e431 293d f1ec 4cbd d114 7bbc
00000010: eeae 003d ada8 4f3d 0899 e4bd 906f 3b3d
00000020: 03a3 3ebd 5684 abbd a79a 85bd 4d5a 8c3c
00000030: 2d52 933d bd15 d6bd 259d 0f3d 7180 b53d
00000040: 2dc4 93bd 9d02 043d a7b3 81bd a676 083d
00000050: 0a40 1d3d de8d 98bd 5439 053d 6baa d93d
00000060: 8eb1 d13c 95f2 a1bd 82cd 223b 6395 a83a
00000070: b476 f63c 35b2 0ebc 8fed 5fbc 3d83 7abd
00000080: a113 a23d 8908 9fbd 7970 33bd 5875 a53d
00000090: 0952 99bd 6013 34bc ceb8 3fbd 8fc6 d2bd
000000a0: 34d6 533d f083 61bd 78b2 63bd 73be 2fbd
000000b0: 85fc 173d 2f08 c43d 9d44 a53d dd60 883b
000000c0: 0069 c4bd 2eb3 a63c 4b86 2d3c 3117 db3d
000000d0: 17af c6bc ec13 f3bd 4bfc 3b3d 1133 61bc
000000e0: ba4e 223d 9302 a93c d876 183d d1bf 1d3d
000000f0: 2152 d4bd d5d7 c6bd 3462 f03d 064e e63d
00000100: ef7f cebc 21e9 cd3d 0349 db3c 399b 15bd
00000110: 224d 87bd fe32 53bd 3250 c03d 6fef a1bd
00000120: 44ab 52bd bb2b f43d 13bc 34bd b417 d73d
00000130: be12 403d 882f 733d dcb7 f33c a76a a8ba
00000140: c85b 423d 57df 123d 2537 35bd 036f c1bd
00000150: 85bc babd 0cc5 30bc b1e1 433c 61a5 69bd
00000160: fe38 453c a45a 4a3c ef8e 703d 9be0 c0bc
00000170: 12dd fb3c 9eb7 e3bd 24da 9f3d 6e43 d1bd
00000180: 659f 6d3c cafd fbbc fa24 b9bd 1801 e3bd
00000190: c43c 39bd 7a89 b8bd c583 c83d 659b ddbc
000001a0: eb6f 7abd f73d 87bb b675 46bd b266 533a
000001b0: ac61 da3d 42bd c5bd 1c89 91bd 40b6 d33c
000001c0: 6435 773d 5eab fdbd f8a0 b93c 7944 f93d
000001d0: a282 b9bc b620 96bd b651 523d b4d0 5a3d
000001e0: 9117 f6bb b260 b1bd 7b91 703c 256f 80bd
000001f0: 7e60 c0bd 7e56 a03d 65e5 b13d 719c 4e3d
00000200: 92e2 acbd d869 9b3d ec68 b73d f25d c83d
00000210: 125b 0abd 4a19 b5bc 5e19 dcbd 64e3 b63d
00000220: 716e 89bc d8e3 01be ae57 ed3d 1481 f6bb
00000230: e0f9 903d 5e3f 86bc 968a 79bc ee2c c73d
00000240: f694 d13d c278 41bd 4ce2 813c 9ab1 a63d
00000250: 5112 9a3a b5ae 6abc 081e c73d 2267 d73d
00000260: 143a ebbc 1d9b ac3d 1a36 f4bb 6bce 1cbb
00000270: aad5 dd3d 4a9f d8bb e5f9 91bc 4340 0fbd
00000280: 31e3 c2bd c755 d63d 73e8 babd 613b b5bd
00000290: 3138 cf3c 1394 87bb ca08 a43b 2f52 733b
000002a0: 6380 f33d 8bea e3bd a5ce 55bd 0ce7 b43c
000002b0: 0de9 d3bd 9698 c8bd f60c 083e 8bfe 6a3d
000002c0: 044f 23bd 1312 ef3c bf21 943c 39f6 41bc
000002d0: 1545 c83d ae5f 913c 3af8 a83d 062c b6bd
000002e0: 5af0 23bd eb54 0eba ee6e 8d3d 0107 55bd
000002f0: 2bc8 b63d 543b c0bd 2a38 27bd 13af 963d
00000300: 68d4 b5bd 90fa f1bd 293d 25bc fb84 cabd
00000310: ac3b 0c3d b0bc a2bc a0d0 1bbd 32c1 723d
00000320: 61eb 28bc d807 e8bd 3fe4 f1bd 094d 943d
00000330: 0230 623d 7366 883d 3776 e4bd 49c8 d5bc
00000340: 69a1 d13d 250f bc3d 3ced a13d e802 f63d
00000350: 27d0 14bd 289d b2bd f3b5 833d e40e 953d
00000360: 8229 89bd ad33 a2bc 30da 01bc 5de8 d8bd
00000370: 8ead 3dbd 26e5 2bbd 2b55 1f3d d189 2abd
00000380: ba49 423d d287 ca3d 0f6d c4bc d620 20bd
00000390: 7dd8 8bbd d12e 8fbc 1c10 debd 07e7 a33d
000003a0: f82f c73d 9c71 c13c b937 f53d 96ed 883d
000003b0: 85f9 813d 0501 0b3e 4c31 cebd 7e35 73bc
000003c0: 0822 183d 4d27 0fbd 18be bfbd 8d06 fbbc
000003d0: 8a55 83bd c8ba 07bd ae5f c7bd 385b 1ebd
000003e0: ba92 8d3d 242e 37bd a049 4a3d f978 bcbd
000003f0: e597 9ebd b66e 5e3c 5652 d43d b717 e0bd
-0.057822548 0.041307345 -0.050030652 -0.015324787 0.031416826 0.05069797 -0.11162001 0.04576069
-0.04654218 -0.083748505 -0.06523638 0.017132903 0.07193408 -0.10453365 0.035061974 0.08862389
-0.07215152 0.032229055 -0.06333094 0.033316277 0.03839115 -0.07448934 0.032525375 0.10628208
0.02559736 -0.07907597 0.002484173 0.0012861904 0.030085899 -0.00870948 -0.013667478 -0.061160315
0.079139 -0.077653 -0.043808434 0.08079022 -0.0748635 -0.0109909475 -0.046807103 -0.10291778
0.051717952 -0.055057466 -0.055590123 -0.042906236 0.037106056 0.095718734 0.080697276 0.0041619376
-0.0959034 0.020349111 0.0105911 0.10697783 -0.024253411 -0.11869034 0.045894902 -0.013745085
0.03962586 0.02063111 0.037222713 0.03851301 -0.10367227 -0.097091354 0.11737481 0.112453505
-0.025207488 0.100542314 0.026768213 -0.036524985 -0.06606509 -0.0515623 0.09390296 -0.079069965
-0.051432863 0.119224034 -0.044124674 0.10502568 0.046892874 0.0593715 0.029750757 -0.0012849168
0.04745081 0.035857525 -0.044242043 -0.09445002 -0.091179885 -0.010789167 0.0119556645 -0.057042483
0.012037514 0.012350712 0.058730062 -0.0235446 0.030745063 -0.111190066 0.07805279 -0.10217939
0.014503335 -0.030760664 -0.09040256 -0.11084193 -0.045223966 -0.090105966 0.09790758 -0.027051637
-0.06114189 -0.00412726 -0.0484521 0.0008064314 0.10663161 -0.09655239 -0.0710623 0.02584374
0.06035365 -0.12386201 0.022659764 0.12171263 -0.022645298 -0.07330458 0.051347457 0.05342169
-0.0075101336 -0.08661021 0.014683123 -0.06271199 -0.093934044 0.07828997 0.08686332 0.050442163
-0.08441652 0.075885475 0.08955559 0.09783544 -0.033778258 -0.022106785 -0.10747026 0.0893009
-0.016776295 -0.12684572 0.11588989 -0.0075227115 0.0707891 -0.016387638 -0.015230795 0.097253665
0.1023349 -0.047234304 0.015854977 0.081393436 0.0011754726 -0.01432388 0.09722525 0.10517718
-0.028714217 0.08428023 -0.0074527385 -0.0023926746 0.10831769 -0.0066107856 -0.017819354 -0.034973394
-0.095159896 0.104655795 -0.091263674 -0.08849216 0.025295349 -0.004137525 0.0050059306 0.0037127843
0.11889722 -0.1112872 -0.052199025 0.022082828 -0.10347185 -0.097947285 0.13286194 0.057371657
-0.039870277 0.029183423 0.018082498 -0.011838489 0.09778801 0.017745819 0.082504705 -0.088951156
-0.04002414 -0.0005429524 0.06905924 -0.052008633 0.08924898 -0.09386316 -0.040825047 0.073576115
-0.08878404 -0.11815369 -0.0100853825 -0.09888645 0.034236595 -0.019865364 -0.038040757 0.059266277
-0.010310025 -0.11329621 -0.118111126 0.07241256 0.055221565 0.06660166 -0.1115536 -0.02609648
0.10235865 0.09182576 0.07906577 0.12012273 -0.036331322 -0.087213814 0.064311884 0.07278231
-0.0669737 -0.019800032 -0.007925555 -0.10591195 -0.046308093 -0.04196658 0.038899582 -0.04163534
0.047433592 0.09889187 -0.023977784 -0.039093815 -0.06828401 -0.017478378 -0.10842916 0.08003049
0.09725946 0.023613743 0.11973519 0.06685941 0.0634642 0.13574608 -0.100679964 -0.0148442965
0.03714183 -0.03494959 -0.093624294 -0.030642772 -0.064128 -0.033137113 -0.09735046 -0.03866121
0.069127515 -0.044721738 0.04938662 -0.09202761 -0.07743815 0.0135762 0.10367267 -0.10942023

actor.4.bias f4 [7]
00000000: 5452 a63b baef 8a3d c3d0 0bbd 2ca9 853d
00000010: 2bcb 803d beab 70bc 2e87 ae3d
0.0050757322 0.067840055 -0.034134638 0.065264076 0.06288751 -0.014689384 0.08521877

critic.0.weight f4 [64, 40]
00000000: 09e9 50be 4836 f0bd ac36 c7bc 6693 1dbd
00000010: 0c03 af3d 1b3c 933d 12bc e4bd 94b1 7c3d
00000020: b0b9 833c de5f ed3d 5be2 693d 8e70 67bc
00000030: 2bdb 23bc 6342 07be 4427 a43a 7b41 113e
00000040: a966 523d 7e95 143e cab2 803d 0ad4 043d
00000050: 424c efbc 4056 fdbd e7e8 92bc e73b 063e
00000060: fd0b 273e 16f7 ecbc 5eb5 f23d bd62 763d
00000070: 9452 17be cc4e 29be 3da6 82bd 86da cfbc
00000080: 8e9c 3d3d d88d 553d 7bc1 883d 605f 66bd
00000090: e4f5 e33d 5d66 823d dca5 dbbd 44ea efbd
000000a0: 1dd5 e63b 8e92 0c3e 1a6f 00be 3ced 18bb
000000b0: 658e 0abe d4ab 663d 1efa 2d3d 9511 37bd
000000c0: a2f3 9f3d 9f18 6b3d 2f8f b63d b2c6 a03c
000000d0: c7d3 2d3c 6b39 823d e989 d13c f3ef 05be
000000e0: b9a1 8ebd 7707 d83d b703 9abd ea28 ea3d
000000f0: 84f6 3ebd c1dc 153e f15b cebd fb83 e73d
00000100: 0c86 43bd bd75 0e3e 7e43 9c3d 9e05 42bc
00000110: 4ad8 0f3d 28a0 af3d 95e6 36bd af77 74bd
00000120: 0d65 c93c 9110 e5bd f83e a1bc ca11 863d
00000130: e1c1 14be 608e 973b 562d c83c 36e2 05be
00000140: e674 a63d 3089 50bd 184e 12be ab9a b1bd
00000150: 4110 5b3d 441e ff3d 0843 6bbd b3e6 ca3d
00000160: 026a d2bd 2e40 0dbe e00f 59bd a176 83bd
00000170: 5686 613d 229c d53d 7171 ffbd b734 f9bd
00000180: d661 b63d ad38 44bd 8ff3 223e 2ca5 163e
00000190: d3b5 78bd 5e62 003e c3ea f6bd df9a 6a3c
000001a0: af7e 09be 502f 683c 087d 213e 328e 463d
000001b0: e290 acbd 93f8 9f3d 12b6 49bd f0e1 163e
000001c0: 7d5f c1bd ee1b b4bc f19d ebbd 3356 cbbd
000001d0: e127 55bd 9490 e4bd 526d a8bd 611c 1cbd
000001e0: cccc 49bd 3dc1 cfbd 3dec 3a3b f1fd 2fbe
000001f0: 4414 de3d e4eb fd3d fe90 c13d 9f82 0a3c
00000200: 042c 52bd 238d 88bd 8d2d c4bd 46f5 1b3e
00000210: 4c8b ff3d 7cd3 3a3e 9633 de3c af83 15be
00000220: 72a4 a23c bfb4 133e 411e 1e3c be1e c03d
00000230: 5c2f c73d edd8 b73c c0a3 9cbd d6f8 91bd
00000240: 6342 a6bd 91e9 eabc c08e 85bd 4c5c ddbd
00000250: da41 11be d594 acbd b764 0b3e c09d ff3c
00000260: 6070 22be ee62 4bbd a90b d1bc b396 dd3d
00000270: d4b1 43bc 79c3 de3d 69f5 b7bd b709 ea3d
00000280: 2dd9 383e 712a 8f3d fb2b 84bd e31f b93d
00000290: b011 dcbd 39c6 a0bd 38dd 653d a35c b1bd
000002a0: 4d2d 8f3d 19c5 a5bb 2788 8e3b b4ff dcbc
000002b0: 62a8 303d 0d8b a7bd d425 7c3d 219f 18be
000002c0: 883f 693d 1b3d edbd bcad 133e ed46 d93c
000002d0: f789 5ebb f91f 0d3b 8bda 44bc 6ad2 93bc
000002e0: 1f35 e6bd 77ec 983d 91ec ac3d 45cf 56bd
000002f0: cc23 21b9 eb8b b3bc a848 80bc 8cdb c43d
00000300: 92a7 eabd 77de 0dbe 6600 10bd 7f68 b6bd
00000310: db78 e2bd 2016 4cbd d0d2 b6bc f9f6 c13d
00000320: a13d 363d ac2b 083e 0c56 e83d d7c3 093d
00000330: cfb5 5d3c 21da 69bd 4049 f9bd f1c7 9c3c
00000340: b301 0dbd 9740 63bd 3571 013e 481c 8b3d
00000350: 37fb ef3d 2f0d bd3d ed8a 0abe 7ef2 a33d
00000360: 880b 02bd a158 6b3d a7a9 793d d45e 2fbd
00000370: fd24 883d 0959 04bd 4ce3 7bbd 730c f13d
00000380: 111f 373e 1c30 83bd cf0c 893d c8ec f8bd
00000390: 91fc ddbc 028c 08be dc10 80bd 4e70 18b9
000003a0: 3f64 29bd bdad 73bc 243d f0bb 9c31 cabc
000003b0: f3ff a13d c411 1f3e 2f7c cc3d 0569 0b3e
000003c0: ebe7 58bc 0999 003d d81c 5abd 0d24 87bd
000003d0: 4a0d 18bd 4fa9 ad3d 170f 25be 819d 9abd
000003e0: 5113 b03d 1ff5 913d f684 5abd 4a1b 36bd
000003f0: a2b6 e0bb 72ae 063e 5874 b73d 9fb9 83bd
-0.20401396 -0.11729103 -0.024318062 -0.03847065 0.08545503 0.071891986 -0.11168684 0.06169279
0.016079754 0.11590551 0.057100635 -0.014125956 -0.010000984 -0.13208918 0.0012523909 0.14185135
0.051367436 0.14510152 0.06284101 0.03242878 -0.029211167 -0.123699665 -0.017933322 0.13108788
0.16313167 -0.028926414 0.11850999 0.060152758 -0.14777595 -0.16533965 -0.06379364 -0.025372755
0.04629188 0.052137226 0.066775285 -0.0562433 0.11130884 0.063671805 -0.107249945 -0.117146045
0.007044448 0.13727781 -0.12542382 -0.0023334762 -0.13530882 0.05631621 0.04247486 -0.044694502
0.07810141 0.057396527 0.08914029 0.019625995 0.010609574 0.06358608 0.025578456 -0.13079815
-0.0696444 0.10548299 -0.0752024 0.11433585 -0.046621814 0.14634992 -0.1007613 0.1130447
-0.04773526 0.13912101 0.076300606 -0.01184216 0.03511838 0.08575469 -0.044653494 -0.05968445
0.024584318 -0.111848004 -0.019683346 0.06546362 -0.14527084 0.0046251267 0.02443568 -0.13074574
0.08127765 -0.050912082 -0.14287603 -0.08672079 0.053482298 0.124569446 -0.057436973 0.09907284
-0.10274126 -0.13794014 -0.052993655 -0.06419111 0.055059753 0.104301706 -0.12472809 -0.12168258
0.089053795 -0.047905613 0.15913223 0.14711446 -0.060720276 0.12537524 -0.12056496 0.014319151
-0.13427232 0.014171436 0.15770352 0.04847545 -0.08426072 0.07811084 -0.0492459 0.14734626
-0.09442041 -0.021985974 -0.11504734 -0.099285506 -0.052039985 -0.111603886 -0.08223976 -0.038113
-0.049267575 -0.10144279 0.0028522157 -0.17186715 0.10843709 0.12398508 0.09451483 0.008453994
-0.051311508 -0.06667545 -0.095790006 0.15230283 0.12477741 0.18244737 0.027124207 -0.14601015
0.019853804 0.14424418 0.009650768 0.093808636 0.0972583 0.022442305 -0.0764842 -0.0712754
-0.08118131 -0.028675826 -0.06521368 -0.1080862 -0.14185277 -0.08426825 0.13612638 0.03120315
-0.1586318 -0.049654894 -0.025518255 0.10819759 -0.011944253 0.10877127 -0.08982355 0.11427634
0.18051596 0.06990517 -0.06453701 0.09039285 -0.10745561 -0.07850308 0.056119174 -0.08660247
0.06991062 -0.0050588963 0.0043497267 -0.026977398 0.043129332 -0.08180819 0.061559513 -0.14904453
0.056945354 -0.115839206 0.14421743 0.026523078 -0.0033956745 0.002153395 -0.012014995 -0.01804467
-0.11240601 0.07466977 0.08443559 -0.05244376 -0.00015367492 -0.021917304 -0.015659645 0.09612188
-0.11457743 -0.13854395 -0.03515663 -0.0890665 -0.110582076 -0.049825788 -0.02231732 0.094709344
0.044492368 0.1329791 0.11344537 0.033634033 0.013532116 -0.05709279 -0.121721745 0.019138308
-0.03442545 -0.05548152 0.12640841 0.067925036 0.11717837 0.0923103 -0.13529558 0.08005236
-0.03174928 0.05745757 0.06095281 -0.042815045 0.0664768 -0.032311473 -0.061496064 0.117699526
0.17882945 -0.064056605 0.06691896 -0.121545374 -0.027097972 -0.13334659 -0.06253216 -0.00014537686
-0.041355368 -0.014872965 -0.0073315073 -0.024681859 0.079101466 0.15534121 0.09984624 0.1361428
-0.013238887 0.031395946 -0.053250164 -0.06598673 -0.03712205 0.08479559 -0.16119038 -0.07549573
0.08597434 0.07126831 -0.053349458 -0.04445962 -0.006857709 0.13152483 0.08957738 -0.06431889

critic.0.bias f4 [64]
00000000: b151 88bd f109 a53b 6212 893d c882 a93d
00000010: ad9a d43d 0f0f c2bb 9cd1 003e 6e8b 963d
00000020: 9db8 d03d f5e8 11be 4d1d 283d c868 acbc
00000030: ab08 08be c212 80bd 4890 d53d db1b 363d
00000040: fbdb f13d a19f c23d 7556 203c e5d4 f83d
00000050: 94e3 1f3d 687b 32bd 4843 bdbd 4a9d fa3d
00000060: 7cad 573d af12 f33d 320b 31bd dfc1 20be
00000070: ca23 6f3c 8f6b 7c3c 668e d9bd 2541 6f3d
00000080: 9ddb 103c d8f6 013e 9d6c 94bb dacd 97bd
00000090: 0049 e83d 06ee 7b3c 7149 94bc 228d b63d
000000a0: 024a 083e 2740 213d ff7c e2bc 1a4a 213e
000000b0: 57ce c3bd 6edb d53d 3929 b0bd f449 b43b
000000c0: 8282 0a3e cce8 6e3d 5e95 7ebd 1e56 ce3d
000000d0: 9b5c ac3d c3f6 0dbe b00c 9bbc bd19 e7bd
000000e0: 2d23 8abc e024 6dbd 401e 31bd 638d 0abd
000000f0: 43fc 963d 1853 4bbc c9de 07be 5bf0 1d3d
-0.066562064 0.0050365855 0.06692959 0.08276898 0.103810646 -0.0059222053 0.1257996 0.07350813
0.10191462 -0.14249022 0.04104357 -0.021046057 -0.13284557 -0.06253578 0.1042791 0.04446016
0.11809536 0.09503103 0.009786238 0.121499814 0.039035395 -0.04357472 -0.092413485 0.12237032
0.052655682 0.11868798 -0.043223567 -0.15698956 0.014595935 0.015406503 -0.106228635 0.058411736
0.008841422 0.1269182 -0.0045295493 -0.0741231 0.11342049 0.015376573 -0.018101426 0.08913638
0.13309482 0.03936782 -0.027647493 0.15750924 -0.095608406 0.104422435 -0.086016126 0.00550198
0.13526347 0.05832748 -0.062154166 0.10075019 0.084161006 -0.13863663 -0.018926948 -0.11284206
-0.016862476 -0.057896495 -0.04324174 -0.033826243 0.07372334 -0.012409948 -0.1326858 0.0385593

critic.2.weight f4 [64, 64]
00000000: bc85 ecbd 5104 98bd 3aea 9e3d 8406 b83d
00000010: ad4a 56bd c989 95bd 5a59 4b3d 163d f4bd
00000020: 505b a03d 7443 a83d 6e90 733d 262c 2e3d
00000030: 6cce e03c 22ab b0bd f6b1 8bbd e15b 8c3d
00000040: 1c5b d93d c5c8 b638 376b 223d 29d7 03be
00000050: aa44 b73d ecb9 73bd d9f9 92bd 79c3 f03d
00000060: 1135 26bd 8718 54bd 64d4 8d3c 3c21 b73d
00000070: faee d53d 1368 853c 8a47 a43d 55ff b23d
00000080: 7780 88bc 2e43 cfbd 56e5 0fbd a4a7 36bd
00000090: 2d40 033d e4e8 a2bd c99e b2bd 5dbe abbd
000000a0: 769d c1bd 1240 bd3d c24f 03be 4482 ebbb
000000b0: bb57 a2bd 0851 4bbd 1a6d fdbc b1ae 3e3d
000000c0: c122 ac3d 359d a4bc 5105 943b c323 28bb
000000d0: 623a f53d 6200 9c3d 19cf 91bc 9d1a bb3d
000000e0: 6d2b c9bd 3c06 483d 6cbb cd3d b09b 8cbd
000000f0: fe80 253d de4a 833d bce2 d6bd fce7 123d
00000100: 4535 d13d 708f a43c cb1b acbc a756 56bd
00000110: 9fd5 b7bd 148d e93c 3202 ffbd acb6 d8bd
00000120: 1b39 1bbd bc73 fcbd 7c2c fe3d 6240 11bd
00000130: fa6b 87bd f038 2f3d 8d92 2e3d 871f a63d
00000140: 6815 45bd bd98 cebc 7015 b2bd c4dc f5bd
00000150: 774e 6bbd 6364 873c fc6d 93bd c3a6 03bd
00000160: 34a8 273d e44b 1f3d 57d8 9d3d 72b7 413d
00000170: f5f2 5b3d 57f5 7fbd 8c0d 6d3d ef0d e1bd
00000180: 0de5 273d f1c6 a2bd e238 9c3c d7c1 eebd
00000190: 0367 f8bc 2e72 b73d 1f28 85bd 9b7a b33d
000001a0: 9c2a a2bc a3fd ef3d a3a3 ef3d 8dd9 a8bd
000001b0: c051 05bd a003 a1bc 58ea 36bd 43d5 033d
000001c0: 8644 ebbd 6d41 82bd 75d8 babc 7030 d9bd
000001d0: ea82 e8bd 6163 9b3d c8ef ccbd 8507 b33d
000001e0: b7f7 8abd 7df3 29bc 36f7 a63d 1f8b ffbd
000001f0: 2a58 fabd 2a84 583c 3a8d 55bd 42f5 6d3d
00000200: 8663 123d c093 303c cccd 2b3d d8a0 e03d
00000210: 7977 ee3c 098f a73d 85c7 79bd 2f1c d63d
00000220: e8b3 08bd 8ac6 923d ba00 ebbd 26f5 abbd
00000230: 1b97 95bd d865 5f3d 2adc 6a3c 1523 c8bd
00000240: 3b37 f83d ff72 fe3c 8b9d cf3d dfc4 a83c
00000250: ce5f a33c ce06 ba3d 20f6 97bd 7084 ec3d
00000260: 8705 95bd e95e e9bb 6b23 9ebd 1304 8dbd
00000270: 8926 db3d 755d 01bd 62a9 7abc 577f be3d
00000280: 43d7 ee3d cd7c dfbd f5a6 a23c 5852 1b3d
00000290: b404 073e ccb4 8ebd 172d 3ebd e7fc b1bd
000002a0: b4da 123d d505 0d3d 8f3a 973b 0f6b e7bb
000002b0: 8c67 a2bd 375e 71bd 8077 58bd 6c0b 1c3d
000002c0: a4ab 6f3d 4baf 4c3d 9ec7 b3bd a1b3 8ebc
000002d0: c743 f0bc 0f37 cb3d c83d ac3d f87d c2bd
000002e0: 4cf5 a0bd 4a6a b6bd 02ff 21bd 8ff4 e2bd
000002f0: b05b 693d bd78 83bd d47d 87bd df11 c43a
00000300: ae1c 41bd eecc aa3d 1fd4 e33d 516b dfbd
00000310: 0a68 833d b3c3 2f3a 7bb3 953d ff9c 3dbd
00000320: 785f 7abc 781f 813b df02 0c3d e90e 693d
00000330: 482b 423d 88b4 5f3b 645e adbd e5dc 71bd
00000340: d176 95bd 0821 fbbd 0d47 e33d aba3 40bd
00000350: 455e abbd 1583 8dbd 0f44 9c3d 0bc1 9fbd
00000360: 87e2 cabd 80b2 ddbd 7847 f13c 3b89 db3b
00000370: 275d d0bd bde6 b5bd 67be d2bd 92d9 2a3d
00000380: 798a 553d 0aa8 c13c f623 90bc 7043 6ebd
00000390: 3333 773d fd5e 32bd 30fc 72bc bd7b 56bd
000003a0: 5ed3 b63c 9c8e 043d 11e6 da3d a853 e63d
000003b0: 46a6 e9bc 79b1 663c a824 aebd b8ed afbd
000003c0: 2534 d63d f6ab c03b 72bb 73bd b0bc 7f3d
000003d0: ba79 303d d5c6 c13c 1294 383d 2bbc 803a
000003e0: 3017 c3bd 3965 e0bd 5c30 f03d 4628 b93d
000003f0: 4d38 b3bd 5f08 ba3d 1396 f1bd 1306 a73d
-0.11548945 -0.07422698 0.07759519 0.08985618 -0.05231731 -0.07301671 0.04964576 -0.11925714
0.078299165 0.08215991 0.05946391 0.042522572 0.02744218 -0.08626391 -0.06821053 0.06853462
0.10613081 8.7158325e-05 0.03965303 -0.12875046 0.089486435 -0.05950348 -0.07176561 0.117560335
-0.04057795 -0.051781204 0.01731319 0.08941886 0.10445972 0.016284978 0.080214575 0.08740107
-0.01666282 -0.101202354 -0.03513082 -0.04459347 0.032043625 -0.079545766 -0.08721692 -0.08385918
-0.094538614 0.09240736 -0.12823394 -0.0071871597 -0.079268895 -0.049637824 -0.030935813 0.046553317
0.08405066 -0.020094493 0.0045172353 -0.0025656081 0.11974026 0.076172605 -0.017798947 0.091359355
-0.09822736 0.04883407 0.100455135 -0.068656325 0.04040622 0.06410764 -0.10492465 0.03586577
0.102152385 0.020087928 -0.021009346 -0.052328732 -0.08976292 0.028509654 -0.124515906 -0.10581717
-0.037896257 -0.12326762 0.124108285 -0.03546179 -0.06612392 0.04277891 0.04262023 0.08111482
-0.048116118 -0.025219316 -0.08695495 -0.12004998 -0.057447877 0.01652736 -0.07198712 -0.03214146
0.040931895 0.038890734 0.07707279 0.047294088 0.0536985 -0.062489834 0.057874247 -0.10988986
0.040989924 -0.07948101 0.019070093 -0.11658066 -0.030322557 0.08957325 -0.06501793 0.087636195
-0.019795708 0.11718299 0.11701133 -0.082446195 -0.032548666 -0.019655049 -0.04465708 0.032185804
-0.11487679 -0.06360135 -0.022808293 -0.10604942 -0.11353095 0.075873144 -0.10006672 0.087416686
-0.06785529 -0.010372994 0.081526205 -0.12477707 -0.12223847 0.013215104 -0.052136637 0.058095224
0.035739444 0.010777414 0.04194431 0.109681785 0.029109703 0.08181579 -0.060981292 0.10454594
-0.033374697 0.071667746 -0.11474748 -0.08396368 -0.07304212 0.054540485 0.014334718 -0.09772316
0.121199094 0.031060694 0.10137471 0.020601688 0.019943144 0.09083329 -0.074199915 0.11548698
-0.07276445 -0.00712191 -0.07721599 -0.06885543 0.107007094 -0.03158327 -0.015299173 0.09301632
0.11662152 -0.10912476 0.019855002 0.037920326 0.13185388 -0.06968078 -0.04642972 -0.086908154
0.035853103 0.03442939 0.004615135 -0.007062323 -0.07929906 -0.05892774 -0.05284834 0.03809683
0.0585133 0.04997186 -0.08778308 -0.017419638 -0.029329194 0.09922611 0.08410221 -0.09496683
-0.07859287 -0.08906992 -0.039549835 -0.11081802 0.056972206 -0.064195134 -0.06615797 0.0014958939
-0.04714649 0.083398685 0.11124443 -0.10909141 0.06416328 0.00067048817 0.07309624 -0.0462923
-0.015281551 0.003940519 0.034182426 0.056898985 0.047404557 0.0034134705 -0.08465269 -0.059048552
-0.07298053 -0.122621596 0.11097536 -0.047031086 -0.0836759 -0.069097675 0.07630169 -0.07800492
-0.09906488 -0.10825062 0.029453024 0.0066997088 -0.101740174 -0.088819005 -0.102902226 0.041711397
0.05213401 0.023639698 -0.017595273 -0.058169782 0.06035156 -0.04354762 -0.014830634 -0.0523641
0.022317585 0.032362565 0.10688413 0.11246425 -0.028521668 0.014080399 -0.085030854 -0.08590263
0.104591645 0.0058798743 -0.059504934 0.062435806 0.043084837 0.02365438 0.045063086 0.0009821703
-0.09525907 -0.10956807 0.11727974 0.09040885 -0.08750973 0.09083628 -0.117962025 0.081554554

critic.2.bias f4 [64]
00000000: 4a52 d6bd ef09 393d e590 80bd dc09 dbbc
00000010: e6cc df3c dfc4 27bd bd4b 39bd 4ddc 593d
00000020: b08d bcbc 64ea 213d aa3e ff3d 0184 103d
00000030: b026 b33c 6d43 e83d dac5 5bbd c57f 203a
00000040: 459f e4bd 5727 79bd 4722 05bc ab3b f13d
00000050: fc73 993d b0de efbc da96 27bd ba5a bd3c
00000060: d676 45bd f30d d5bc b4b6 d13c b0d2 08bd
00000070: 209b 9f3d fc9a 593d c79f acbc 175b f2bc
00000080: 8abe a13b 0587 923d c367 e03c 99ec 2abd
00000090: 864e 593d ce61 36bc bb74 b0bd 553f d5bd
000000a0: 3506 0c3b f589 d03d 4a1a 5fbd 38c8 a93d
000000b0: db7d f1bc ccf6 a43d 34a4 bbbc a77d 42bd
000000c0: 0f18 ec3c 670b 723d 5da6 b6bd 9e36 80bc
000000d0: 6ab9 e73c 05cd 903c 598c ea3d 2a74 edbd
000000e0: 81f7 e43d 351e 653d 4775 e5bd c438 2dbd
000000f0: 1ae3 0c3d 37c1 b4bd 4dad dd3d aa89 4abd
-0.10464914 0.04517549 -0.062776364 -0.0267381 0.027319383 -0.040959235 -0.045238245 0.05318861
-0.02301678 0.039530173 0.12463124 0.03528214 0.021869034 0.113409854 -0.053655483 0.0006122555
-0.11163191 -0.060828533 -0.008125848 0.11778959 0.074928254 -0.02928099 -0.040915348 0.02311455
-0.048209034 -0.026007628 0.025599815 -0.033404052 0.077932596 0.05312632 -0.021072282 -0.02958445
0.004936044 0.07154659 0.027393227 -0.041729543 0.0530534 -0.011131717 -0.086160146 -0.1041247
0.0021366004 0.10182563 -0.05446843 0.08290142 -0.029478958 0.08054885 -0.022905447 -0.047483113
0.028820066 0.059092905 -0.0891845 -0.015651044 0.028286655 0.017675886 0.114525504 -0.11594422
0.1118002 0.05593701 -0.112040095 -0.042290464 0.03439627 -0.08825915 0.1082407 -0.049447693

critic.4.weight f4 [1, 64]
00000000: b0fd 1b3d 2a5e 7a3c 352e bdbc 27a5 9fbd
00000010: 4c28 133c 9c0e a5bd ed18 79bb 8e37 d43b
00000020: bb83 d3bc 84d4 413d 0c84 9ebd 0ff8 a0bd
00000030: 2617 c53c 9572 4dbd 9dc4 c63d 59a1 703b
00000040: c135 983c a758 cd3d dd99 08bc 4942 98bd
00000050: d66c 3ebd 3d7e 143d 594e 883d 02e5 a73d
00000060: 5ea5 e9ba 4128 acba 401b 843d eaad 45bc
00000070: a9c2 d2bb d4fb 20bd 7bd4 e8bb 9b07 c23d
00000080: 76ba c13d d6ea 69bd 3ef6 183d e939 cd3d
00000090: 96fd bbbb e0e5 e83c 76f1 c7bd a701 753d
000000a0: a0a3 7dbc 05d6 803d 42e1 803d f32b 75bd
000000b0: 1490 00bd c509 85bd 1e02 c1bd 055a 86bd
000000c0: 062e 393d c5a3 6b3d e850 74bd 312d 843d
000000d0: 97f9 40bc 1958 023d 37e4 853d b2f8 963d
000000e0: ad36 bebd 32c5 d43c 81cb 18bd 7dc2 a9bd
000000f0: 8565 303c 1a9a a13a b76e 2d3c 8950 823c
0.038083732 0.0152812395 -0.023093322 -0.07795172 0.0089817755 -0.08059427 -0.0038009242 0.006476349
-0.02581965 0.04732181 -0.0774003 -0.078598134 0.02405889 -0.050158102 0.0970547 0.0036717264
0.01858032 0.10026675 -0.008337465 -0.07434518 -0.046490513 0.036253203 0.06655569 0.08197977
-0.0017825773 -0.0013134555 0.0645051 -0.01206539 -0.0064318967 -0.039302662 -0.007105408 0.09474107
0.09459393 -0.057108723 0.03734421 0.10020811 -0.005737017 0.028429925 -0.09762852 0.05981603
-0.015480906 0.06290821 0.062929645 -0.059856366 -0.031387404 -0.06496004 -0.09424232 -0.065601386
0.045209907 0.05752923 -0.05964747 0.06453932 -0.011778257 0.031822298 0.06537669 0.073716536
-0.09287772 0.025972936 -0.03730345 -0.08289049 0.010766392 0.0012329251 0.0105854785 0.015907543

exp_avg f4 [7]
00000000: 9f28 ce3a 0f13 acba cfc6 ee39 c5fd ff39
00000010: c285 3d3a 8ca1 973a 4d0f 733a
0.0015728659 -0.0013128238 0.0004554302 0.00048826463 0.00072297093 0.001156853 0.00092719943

exp_avg_sq f4 [7]
00000000: db4b 8c36 0494 9036 5cdb 2636 567c 6835
00000010: f080 2436 f624 5936 a552 0336
4.181156e-06 4.3087657e-06 2.4863612e-06 8.660767e-07 2.4512956e-06 3.2357034e-06 1.9568627e-06

exp_avg f4 [64, 40]
00000000: bcea fcb5 1319 1736 f353 b5b7 0bef 9636
00000010: e2ab c1b6 5caf efb6 366e 8637 9447 c735
00000020: 4704 9736 6bc0 ee35 e27e 8c35 85e0 68b6
00000030: 43f0 fb35 43ba b937 d2a5 92b8 9677 50b8
00000040: 7416 cf38 a6c4 17b8 73e8 7638 0fe9 afb8
00000050: a6be edb4 c71d 91b6 fa76 bcb6 b037 bfb5
00000060: 75f9 68b4 9174 e436 4b80 07b7 a954 94b6
00000070: cfc3 7535 670a 8835 2c06 9637 670a 8835
00000080: 810b 96b7 fcec 1938 24c3 a5b8 5060 17b8
00000090: d1e1 fe38 bf07 09b8 be03 bd38 f4e8 fbb8
000000a0: 125c 18b5 a458 93b6 4531 d637 ee76 9c37
000000b0: 0a96 bf36 e3b3 b936 dc0c 8237 2ce8 3ab5
000000c0: e5ca 57b6 9144 0636 a42c 17b6 755c 0436
000000d0: f9fd 08b6 8d69 aa37 554d e937 3e9f 5038
000000e0: 4b86 e9b8 9658 3137 af65 3137 60b9 6138
000000f0: 35c1 8336 026d 9336 327b ac36 5be6 9eb4
00000100: d3b1 12b7 5229 cab6 0bb8 3538 9a3c 8b36
00000110: e95a 1838 bc9e 1ab7 b068 f0b7 bc9e 1ab7
00000120: 9872 f037 7af7 9238 a6f3 a538 2525 0638
00000130: 438a e5b8 989a 9bb7 2649 ad35 2eea a238
00000140: 2173 06b8 a8fc 9637 6a6d 95b7 19e1 cd37
00000150: 3a2e cab6 25de dfb6 2f26 77b7 1e1f 9836
00000160: 48cb ca36 24c4 cd36 0681 46b5 fafe 97b6
00000170: 3b8d 1335 4223 1c38 9143 9c37 419f 8837
00000180: 49fd f937 2c70 c937 d712 8738 17e8 dbb8
00000190: 3f7a 46b6 e1b6 2db7 cc53 73b6 5341 88b5
000001a0: 0882 70b6 911e e636 dc15 3838 9a6d 1236
000001b0: cdb9 5e38 953b 3f38 6e31 4c38 953b 3f38
000001c0: 1033 4cb8 78f0 f338 e61e 4638 9415 4437
000001d0: c7b7 b638 ca41 9537 dc0e d238 14ca 50b9
000001e0: 3177 81b6 98e0 d4b6 775c 4a36 c0c2 8d35
000001f0: 44d9 c437 f388 1f37 1034 a135 df08 5fb6
00000200: 60ef 4eb6 5102 ffb5 3326 c5b5 80ac ee35
00000210: ef53 a3b5 e35b 1fb8 434c 03b8 4e0c a9b6
00000220: 6d71 e5b8 1981 3237 a647 3f38 5ec1 cd37
00000230: 44ef 8936 4489 75b6 00c4 4eb6 6edb aab5
00000240: efe0 46b7 8515 2db7 14da 2237 0b52 4ab6
00000250: e06a 2238 3c29 5536 bb3f 49b8 3c29 5536
00000260: bd42 4938 7d68 94b8 2bca 28b8 58c7 b6b7
00000270: 9674 16b9 5065 96b6 2d91 5a38 07b5 f137
00000280: 1925 0a37 07a2 0e37 322b 8a37 c30d 2ab7
00000290: 9762 0c37 6243 2eb8 f1c4 34b7 ae87 2db6
000002a0: 0c17 71b6 09af 0836 9d14 2935 1021 b1b4
000002b0: cfa1 49b6 fd61 58b8 7917 0238 f771 6ab8
000002c0: 84bc e438 8ee4 53b8 54cb 01b9 3fe9 9e37
000002d0: 77e1 4836 399e 4d36 b28c 9cb5 8fff 8135
000002e0: f781 94b5 ca0b 3236 6ac4 d4b7 fe9b b2b7
000002f0: 8fbd 06b8 00cc 1b38 d06b aa37 00cc 1b38
00000300: 6f71 aab7 895c f2b8 0009 5236 7bc6 0bb9
00000310: c116 1939 bf37 2fb8 823b feb8 9f96 1b38
00000320: 43cf 86b7 d84c a336 a5c0 ff36 29d9 c436
00000330: fd48 5ab6 1d98 4437 6c76 9d36 afc0 8236
00000340: b851 6435 7dca 2935 e8ed 6034 6e72 efb1
00000350: 106d 4c35 dde8 77b8 8f24 ae37 cfb9 b137
00000360: 6f92 91b8 fcb9 6938 e13a bd37 c7bd c837
00000370: 7d39 0db7 125f ecb6 b8d8 1ab7 fdd7 36b5
00000380: b2b2 af36 0f9a 5eb6 4c43 9fb6 2052 1236
00000390: 5415 2cb7 0687 73b6 637a 0038 0687 73b6
000003a0: 2779 00b8 3425 00b9 c25d 9f38 cdf6 8538
000003b0: 9b83 05b9 1523 9438 489a 4138 048a 1338
000003c0: 42b9 ccb6 7c32 a936 130a 36b7 29aa 82b3
000003d0: 3bc2 07b6 1042 6637 5270 ee36 1745 4635
000003e0: 4fbd 6235 5f88 1fb6 1780 37b5 a760 8034
000003f0: 5493 a535 53a8 ea35 2a3e 9a37 803a 5f38
-1.884378e-06 2.2515349e-06 -2.1615973e-05 4.4981766e-06 -5.771858e-06 -7.1431696e-06 1.6025366e-05 1.4847487e-06
4.5006486e-06 1.7788383e-06 1.0467741e-06 -3.4701382e-06 1.8770883e-06 2.2140453e-05 -6.992709e-05 -4.9702438e-05
9.8747114e-05 -3.618435e-05 5.8867456e-05 -8.388061e-05 -4.4283405e-07 -4.3248033e-06 -5.6166873e-06 -1.4246816e-06
-2.1697436e-07 6.8084996e-06 -8.076498e-06 -4.4205995e-06 9.155455e-07 1.0135817e-06 1.7884267e-05 1.0135817e-06
-1.788675e-05 3.669875e-05 -7.904161e-05 -3.6090903e-05 0.000121537254 -3.267056e-05 9.012919e-05 -0.000120120036
-5.675839e-07 -4.3912605e-06 2.553373e-05 1.865203e-05 5.7097104e-06 5.534371e-06 1.5503196e-05 -6.9628254e-07
-3.2155597e-06 2.0007467e-06 -2.2526738e-06 1.972335e-06 -2.041341e-06 2.031473e-05 2.7811775e-05 4.973937e-05
-0.0001113532 1.0570648e-05 1.0573697e-05 5.3816824e-05 3.9265965e-06 4.3936316e-06 5.1403413e-06 -2.95974e-07
-8.743681e-06 -6.0248794e-06 4.3325166e-05 4.1495778e-06 3.632429e-05 -9.2160735e-06 -2.8658978e-05 -9.2160735e-06
2.8663591e-05 7.0079186e-05 7.913196e-05 3.1982683e-05 -0.00010945324 -1.8549428e-05 1.2910793e-06 7.768381e-05
-3.205531e-05 1.7999046e-05 -1.7813134e-05 2.4542724e-05 -6.0254506e-06 -6.671779e-06 -1.4731238e-05 4.5335755e-06
6.043734e-06 6.13231e-06 -7.39485e-07 -4.529834e-06 5.4967285e-07 3.7226135e-05 1.8628112e-05 1.6286622e-05
2.9801058e-05 2.4013301e-05 6.440811e-05 -0.00010485964 -2.9575456e-06 -1.0354183e-05 -3.6258598e-06 -1.0151801e-06
-3.5838475e-06 6.8580925e-06 4.3889377e-05 2.1819492e-06 5.3101965e-05 4.559344e-05 4.8683425e-05 4.559344e-05
-4.8684946e-05 0.00011631934 4.7235655e-05 1.1687534e-05 8.7126675e-05 1.779282e-05 0.00010016348 -0.00019911706
-3.8583753e-06 -6.3442385e-06 3.0154167e-06 1.0561998e-06 2.3466193e-05 9.5090245e-06 1.2010587e-06 -3.3234753e-06
-3.0835727e-06 -1.8999655e-06 -1.4688761e-06 1.7782586e-06 -1.2168874e-06 -3.799413e-05 -3.1303858e-05 -5.038025e-06
-0.00010940698 1.0639685e-05 4.5604676e-05 2.4527948e-05 4.1107724e-06 -3.6587744e-06 -3.081048e-06 -1.272985e-06
-1.1854091e-05 -1.0316614e-05 9.706728e-06 -3.01481e-06 3.8723345e-05 3.1763475e-06 -4.7981488e-05 3.1763475e-06
4.798429e-05 -7.0766524e-05 -4.0242605e-05 -2.1788917e-05 -0.00014348546 -4.4821427e-06 5.2110456e-05 2.8813736e-05
8.234078e-06 8.5015845e-06 1.6470996e-05 -1.0135994e-05 8.367605e-06 -4.1547588e-05 -1.077469e-05 -2.5857985e-06
-3.5925214e-06 2.0367463e-06 6.29874e-07 -3.2992875e-07 -3.004552e-06 -5.158967e-05 3.1016276e-05 -5.5896086e-05
0.00010907001 -5.051918e-05 -0.00012378144 1.8943681e-05 2.993356e-06 3.0639478e-06 -1.1663853e-06 9.685626e-07
-1.1064684e-06 2.653093e-06 -2.5363832e-05 -2.1291893e-05 -3.212463e-05 3.714487e-05 2.0315783e-05 3.714487e-05
-2.03184e-05 -0.00011556695 3.1297677e-06 -0.00013330013 0.00014599694 -4.177517e-05 -0.00012122748 3.7095157e-05
-1.6070559e-05 4.8667243e-06 7.622019e-06 5.866536e-06 -3.2527016e-06 1.1717927e-05 4.6927507e-06 3.8967332e-06
8.5055535e-07 6.3252065e-07 2.0948175e-07 -6.9688246e-09 7.615463e-07 -5.910626e-05 2.075944e-05 2.1186568e-05
-6.941414e-05 5.572474e-05 2.2557973e-05 2.393023e-05 -8.41764e-06 -7.0444157e-06 -9.229574e-06 -6.811459e-07
5.2362093e-06 -3.3170252e-06 -4.7464036e-06 2.1803498e-06 -1.0256965e-05 -3.6288416e-06 3.063156e-05 -3.6288416e-06
-3.063041e-05 -0.0001222089 7.5991746e-05 6.3879044e-05 -0.00012732895 7.0637245e-05 4.615847e-05 3.517607e-05
-6.1012406e-06 5.0424696e-06 -1.0850391e-05 -6.084549e-08 -2.0229625e-06 1.372445e-05 7.1060285e-06 7.3861287e-07
8.446704e-07 -2.3772225e-06 -6.835921e-07 2.3912182e-07 1.2336336e-06 1.7483347e-06 1.8387178e-05 5.3221826e-05
