logs/rsl_rl/reach_ur10/2025-06-26_20-09-36/model_0.pt (torch, 160711 bytes, 36 tensors)

std f4 [6]
1.0050199 1.0050497 1.0136241 1.0069395 1.0046575 1.006966
00000000: 7ea4 803f 78a5 803f 6fbe 813f 65e3 803f
00000010: 9e98 803f 43e4 803f

actor.0.weight f4 [64, 25]
0.19451019 0.18657945 -0.049381234 0.21239498 -0.060552396 0.023807295 -0.08604503 0.11096384
0.16732574 -0.14091305 0.16290677 0.034410737 0.14070803 0.113305435 0.0813103 -0.051352687
0.101309605 0.006447298 -0.04049941 0.03487121 -0.14107364 -0.04122006 -0.063899845 0.1284449
-0.17227228 -0.13553973 -0.028913338 -0.11820607 0.050577726 -0.23900819 0.20980622 -0.16892326
0.14684635 0.034536645 -0.06053037 0.11889603 0.035918288 0.16272913 0.096790425 -0.048918456
0.05249507 -0.044309758 0.08292984 0.16863975 0.11618812 -0.085472815 0.103209205 0.04455086
0.10520664 -0.11775196 -0.21190766 -0.17970833 -0.14428458 0.19675022 0.035304155 0.08202377
0.06605462 -0.006505383 0.15023535 -0.13723242 0.014195052 -0.12914157 0.06393857 0.002414911
0.079936564 -0.03554138 0.17021987 -0.11241347 -0.12362054 -0.1222618 0.1690283 0.0456663
0.20327237 -0.16905999 -0.19106913 -0.1583831 -0.07827903 0.059163354 0.092055894 0.18574105
-0.13816911 -0.13170151 0.103827156 -0.0667309 0.11666034 -0.038637165 0.09207273 -0.17191948
-0.024472602 0.045739997 0.023378307 -0.066214755 0.100310706 0.15118602 -0.14538471 -0.087164186
0.19069518 -0.065279424 -0.06460866 -0.21638545 -0.12251242 0.06581728 -0.08756329 -0.13719468
-0.019832885 -0.113375455 -0.1626325 -0.11030276 -0.17842667 -0.11499936 0.181445 0.03895413
0.048844732 -0.15269412 -0.1384607 -0.07063107 0.03200279 -0.18004416 -0.08690385 -0.11157587
0.0073618647 -0.08099151 0.003503098 -0.13438906 -0.13282293 -0.15075548 -0.07574056 -0.22910792
0.15090977 -0.070256636 0.16225164 0.04936889 -0.1416512 0.14362854 -0.05823816 -0.08153951
-0.15390263 -0.21473959 0.06911963 -0.06458542 0.047108065 -0.1804005 0.11772924 -0.13054308
-0.04971607 0.077161804 0.09795304 0.16269812 0.19925438 -0.14688267 0.016470809 -0.113182135
-0.027777964 -0.11246934 0.13742666 -0.123206966 0.09834795 0.069240764 0.061577365 -0.09954408
0.17613909 0.049701296 0.01667207 -0.12704398 0.090522856 -0.033920035 -0.07738108 0.16787338
0.030347653 -0.10793438 -0.09335478 -0.001766487 0.13164684 -0.05627879 -0.11028843 -0.042241838
-0.1080779 0.105242 0.13439831 -0.12609781 0.038067598 0.0894895 0.038906712 -0.06683596
0.088066466 0.1144437 0.06153623 -0.040692728 -0.08855291 -0.0010211257 -0.033968996 -0.049868524
0.12920327 0.16214828 -0.024586942 -0.045167513 0.0071780523 -0.01821995 0.0493284 0.0500235
-0.169434 -0.0675875 0.1829995 0.09493239 0.024101876 -0.12605815 -0.11737442 -0.18254606
-0.055820223 0.058387797 0.117120214 0.080395155 -0.17922176 -0.076286845 -0.03271992 0.19456252
0.0018270146 -0.05070146 0.10984855 -0.07598431 -0.12430786 0.15222436 -0.08826546 -0.04662771
-0.21061966 0.12249751 0.115368046 0.023450432 -0.12641309 -0.22628827 -0.13779642 0.14840789
0.10696598 0.1655715 0.10143665 0.05193199 0.0024633873 -0.17302144 -0.19087644 -0.20212747
0.072908424 -0.13201132 -0.049214497 -0.08128459 -0.024428023 -0.11635618 -0.13261393 0.062997326
-0.07057515 0.12481306 -0.09036405 -0.09574255 -0.022034042 -0.08637984 -0.028181577 -0.18442872
00000000: ae2d 473e af0e 3f3e fa43 4abd 127e 593e
00000010: ca05 78bd 8407 c33c 6038 b0bd 0241 e33d
00000020: 7057 2b3e 834b 10be 08d1 263e 46f2 0c3d
00000030: c415 103e ae0c e83d 0486 a63d 3257 52bd
00000040: 697b cf3d db43 d33b b6e2 25bd 1dd5 0e3d
00000050: 9c75 10be 5ed6 28bd ecdd 82bd 0f87 033e
00000060: 2568 30be edca 0abe aadb ecbc 0616 f2bd
00000070: 972a 4f3d 90be 74be 71d7 563e 38fa 2cbe
00000080: e45e 163e 4c76 0d3d b1ee 77bd c37f f33d
00000090: 0e1f 133d 77a2 263e 0f3a c63d b85e 48bd
000000a0: 1205 573d 267e 35bd 1fd7 a93d e6af 2c3e
000000b0: 09f4 ed3d 5f0c afbd 595f d33d f67a 363d
000000c0: 9476 d73d f127 f1bd 52fe 58be 7605 38be
000000d0: 56bf 13be e478 493e 179b 103d 14fc a73d
000000e0: a547 873d 1c2b d5bb 4cd7 193e a886 0cbe
000000f0: 5d92 683c b03d 04be 3af2 823d 7c43 1e3b
00000100: c8b5 a33d d793 11bd 1e4e 2e3e 0939 e6bd
00000110: c42c fdbd 6564 fabd c115 2d3e 960c 3b3d
00000120: a226 503e 101e 2dbe a0a7 43be 2e2f 22be
00000130: c250 a0bd 4655 723d cd87 bc3d e732 3e3e
00000140: 347c 0dbe c3dc 06be 55a3 d43d 36aa 88bd
00000150: 9eeb ee3d 0142 1ebd a190 bc3d a90b 30be
00000160: c47a c8bc dd59 3b3d dd83 bf3c 9a9b 87bd
00000170: b36f cd3d 82d0 1a3e bbdf 14be 2383 b2bd
00000180: 9945 433e 38b1 85bd 8c51 84bd 2694 5dbe
00000190: cbe7 fabd 36cb 863d 6254 b3bd c37c 0cbe
000001a0: 9378 a2bc 6431 e8bd 2289 26be 6ae6 e1bd
000001b0: 7bb5 36be c984 ebbd b8cc 393e 5e8e 1f3d
000001c0: 6a11 483d d95b 1cbe a4c8 0dbe 06a7 90bd
000001d0: 5c15 033d 7f5d 38be a5fa b1bd e481 e4bd
000001e0: cc3b f13b e0de a5bd 3b94 653b 499d 09be
000001f0: bc02 08be a55f 1abe de1d 9bbd 449b 6abe
00000200: 1788 1a3e b6e2 8fbd 4b25 263e 0837 4a3d
00000210: 030d 11be 5c13 133e 238b 6ebd 30fe a6bd
00000220: a798 1dbe b2e4 5bbe 988e 8d3d 5c45 84bd
00000230: 63f4 403d e9ba 38be 071c f13d 16ad 05be
00000240: 14a3 4bbd 0207 9e3d 9a9b c83d 569a 263e
00000250: 5709 4c3e 6968 16be caed 863c 09cc e7bd
00000260: 9d8e e3bc 5356 e6bd 93b9 0c3e ef53 fcbd
00000270: a66a c93d 1ace 8d3d 8c38 7c3d c4dd cbbd
00000280: ce5d 343e 9693 4b3d dd93 883c d117 02be
00000290: 0c64 b93d bcef 0abd f979 9ebd 00e7 2b3e
000002a0: a49b f83c b30c ddbd ca30 bfbd 7889 e7ba
000002b0: 6ece 063e 9784 66bd e6de e1bd c705 2dbd
000002c0: f257 ddbd 1e89 d73d b69f 093e c91f 01be
000002d0: c5ec 1b3d 4546 b73d a55c 1f3d 4be1 88bd
000002e0: 315c b43d 7561 ea3d 6a0d 7c3d 6bad 26bd
000002f0: 3a5b b5bd 4bd7 85ba 1323 0bbd f042 4cbd
00000300: dd4d 043e 330a 263e 8e6a c9bc 9201 39bd
00000310: de35 eb3b 0142 95bc 940c 4a3d 71e5 4c3d
00000320: 1b80 2dbe 516b 8abd 3964 3b3e ea6b c23d
00000330: 4c71 c53c 6315 01be 0062 f0bd 5bed 3abe
00000340: bfa3 64bd 0b28 6f3d b9dc ef3d 37a6 a43d
00000350: e985 37be 473c 9cbd 5305 06bd 663b 473e
00000360: 7078 ef3a 56ac 4fbd 47f8 e03d a99d 9bbd
00000370: 1f95 febd b4e0 1b3e 86c4 b4bd b3fc 3ebd
00000380: aeac 57be f9df fa3d 1546 ec3d 1f1b c03c
00000390: 6f72 01be 1db8 67be 811a 0dbe 3df8 173e
000003a0: fb10 db3d 938b 293e 05be cf3d a3b6 543d
000003b0: c870 213b 882c 31be 1d75 43be 81fa 4ebe
000003c0: 0351 953d fa2d 07be 2495 49bd 8978 a6bd
000003d0: 471d c8bc 264c eebd f2cb 07be be04 813d
000003e0: b489 90bd fd9d ff3d c910 b9bd ac14 c4bd
000003f0: bc80 b4bc eae7 b0bd 0ddd e6bc e2da 3cbe

actor.0.bias f4 [64]
-0.18673168 0.104914494 -0.16886362 -0.03630908 0.001477675 0.120424524 -0.074010834 0.04835799
0.03519432 0.100527 0.011521998 0.06982718 -0.13644697 -0.15156025 0.1556068 -0.1652144
-0.03856349 -0.026608521 0.18234503 -0.068991624 -0.15050942 -0.045863755 0.090603165 0.057444397
0.1685979 -0.049235612 0.07801297 -0.16953608 0.06489768 0.090610825 0.10161096 -0.1289171
-0.05814766 0.04780978 -0.16557193 -0.15355183 -0.21091165 -0.00024804837 0.11239264 0.028266594
-0.0030334317 0.058439024 -0.13049532 0.01121453 -0.05859394 -0.12106071 0.18096146 -0.16963318
0.013584723 -0.16998298 -4.4451088e-05 -0.089357644 0.058340453 -0.11392814 0.1138937 -0.16414112
0.10649426 -0.15451258 0.09323349 -0.09236724 -0.010917455 -0.045272026 0.13131367 0.06883762
00000000: 9736 3fbe 69dd d63d 96ea 2cbe d4b8 14bd
00000010: 8cae c13a 22a1 f63d fe92 97bd 0713 463d
00000020: eb27 103d 1ae1 cd3d c3c6 3c3c 8d01 8f3d
00000030: c1b8 0bbe 9c32 1bbe 6457 1f3e f72d 29be
00000040: c0f4 1dbd 1dfa d9bc a8b8 3a3e 7b4b 8dbd
00000050: 241f 1abe a2db 3bbd 278e b93d d14a 6b3d
00000060: eea4 2c3e 48ab 49bd 44c5 9f3d de9a 2dbe
00000070: 13e9 843d 2b92 b93d 6819 d03d d802 04be
00000080: 3e2c 6ebd 30d4 433d b08b 29be b13c 1dbe
00000090: 39f9 57be 7d0c 82b9 1d2e e63d 588f e73c
000000a0: 8acc 46bb c25d 6f3d 91a0 05be 26bd 373c
000000b0: 3300 70bd adee f7bd f64d 393e 52b4 2dbe
000000c0: 7592 5e3c 0510 2ebe fe70 3ab8 2401 b7bd
000000d0: 66f6 6e3d 2853 e9bd 1a41 e93d 9c14 28be
000000e0: aa19 da3d 8c38 1ebe 33f1 be3d 092b bdbd
000000f0: 20df 32bc 296f 39bd 1777 063e bdfa 8c3d

actor.2.weight f4 [64, 64]
-0.11300324 0.010406057 -0.09196217 0.09262614 0.036457635 -0.03267414 -0.0618411 0.041519325
-0.08099343 0.06161631 0.065279044 0.06544465 0.029091379 -0.11706518 0.091997914 -0.042925723
-0.030687504 -0.01700955 0.09638238 0.08557099 0.014193559 0.056541406 -0.109244816 0.0004949936
-0.10486048 0.041703254 -0.09188313 -0.05232517 0.08704482 0.1208576 -0.07028545 -0.08064507
0.015081597 0.05046055 -0.02565278 -0.039206773 -0.08028885 0.05640684 0.12086965 -0.0613262
0.055590577 0.07394973 0.09920185 -0.014318101 0.005889348 0.091733746 0.07718186 0.12105844
-0.03880316 0.045628168 0.08402443 -0.075498186 0.018994208 -0.015173494 0.07998569 -0.061543148
0.00862068 0.07132249 -0.11331889 -0.1079494 -0.06448281 0.06943537 0.08951052 -0.09397181
0.02565331 -0.07050035 -0.065334536 0.10820711 0.056461558 -0.034039155 0.015666518 0.018509608
0.027733438 -0.03859122 -0.07999671 0.088917494 0.021199353 0.054657374 -0.05025418 0.060937766
0.08606531 0.08013281 0.02557477 0.12386895 0.0038666201 0.03902459 0.11735812 0.11367146
-0.0369393 0.117545106 0.050729923 -0.012564907 0.105155274 -0.065303996 0.07664027 0.1197971
-0.08411699 -0.07121535 -0.11904813 -0.017001472 -0.11516595 -0.044057596 0.03560496 0.087071
0.07842252 0.06464204 0.05423886 -0.08039594 -0.09609053 -0.00087168143 0.114272535 0.006497492
-0.010656031 -0.08825006 -0.0729535 -0.10102443 0.09557686 -0.017625242 -0.12281187 0.027919868
0.0025963841 -0.013399137 0.045018997 0.0683126 -0.123095505 -0.08876977 -0.01509408 -0.12020793
-0.11702084 0.10815781 -0.026062906 -0.062451456 -0.03611805 -0.10438801 0.095858775 -0.027873244
-0.07381448 -0.093991585 0.07433102 -0.017815964 -0.018296272 -0.034996115 -0.06242169 0.015311277
0.09114079 -0.07825832 0.0018901969 -0.1154292 -0.06407978 0.105850406 0.0008441239 0.118983164
-0.025720425 -0.07439988 -0.07037816 0.10542527 -0.09515028 0.061056368 0.028901724 0.02851615
0.06449609 -0.03395962 0.07522757 -0.096890256 -0.048535883 0.09054263 0.030432839 -0.015323153
-0.028527897 -0.071370624 0.07164227 -0.0033048354 -0.0042715953 0.024774773 0.08929353 -0.062788315
-0.046058245 0.073447786 0.06613367 -0.052928157 -0.12517838 0.023089698 0.06051629 0.02307556
0.08735386 -0.106289126 0.062124442 -0.080801435 0.07149178 0.09279097 0.043069117 0.09443343
-0.08232593 -0.11919594 -0.12171653 0.07709256 0.02397698 -0.10095222 0.058151107 0.119661264
-0.11906461 0.09093165 0.007498757 0.0033043092 0.11827703 0.119018696 0.048999432 0.09812873
0.0367395 0.019363828 -0.119625665 0.040062822 -0.091655046 0.03157935 0.022514487 -0.009923815
-0.0900462 -0.09097186 0.08953526 0.06636536 0.066973284 -0.043559715 -0.02271729 -0.015036834
0.0845078 -0.058622573 0.06814873 0.10120101 -0.109331764 -0.009116956 -0.03808058 -0.07965083
0.050427247 -0.02096879 0.11642541 -0.0728354 0.056023065 -0.102924086 -0.058779486 0.016306318
0.093631014 0.076179676 -0.103919365 0.014771006 -0.05395063 0.00953366 -0.10108403 -0.032695346
0.091292754 -0.107816294 -0.12248953 0.03328655 0.019731749 -0.007880633 0.10809186 -0.059182994
00000000: 3e6e e7bd 2b7e 2a3c aa56 bcbd c6b2 bd3d
00000010: 9a54 153d 52d5 05bd 184d 7dbd 2b10 2a3d
00000020: e2df a5bd 6261 7c3d 05b1 853d d807 863d
00000030: 0b51 ee3c debf efbd 6769 bc3d e2d2 2fbd
00000040: 5c64 fbbc 9d57 8bbc 2064 c53d d83f af3d
00000050: 1a8c 683c f697 673d bfbb dfbd 75c2 013a
00000060: 17c1 d6bd 08d1 2a3d 392d bcbd eb52 56bd
00000070: 8e44 b23d 3084 f73d d1f1 8fbd 3e29 a5bd
00000080: cd18 773c b9af 4e3d c725 d2bc 4897 20bd
00000090: 7b6e a4bd dc0a 673d 828a f73d 2e31 7bbd
000000a0: f2b2 633d f572 973d 572a cb3d 7896 6abc
000000b0: 6ffb c03b e7de bb3d 8611 9e3d 7ded f73d
000000c0: 10f0 1ebd 9ae4 3a3d 0015 ac3d cb9e 9abd
000000d0: be99 9b3c 3f9a 78bc 8acf a33d ab14 7cbd
000000e0: c13d 0d3c 8711 923d bc13 e8bd 9314 ddbd
000000f0: 900f 84bd 2234 8e3d 4b51 b73d 4b74 c0bd
00000100: e426 d23c 7d62 90bd 1dce 85bd b09b dd3d
00000110: 3c44 673d a46c 0bbd 1257 803c 76a1 973c
00000120: 3c31 e33c d411 1ebd 51d5 a3bd 601a b63d
00000130: 44aa ad3c 69e0 5f3d 54d7 4dbd e199 793d
00000140: 0243 b03d ac1c a43d 2e82 d13c 01af fd3d
00000150: 1f67 7d3b 40d8 1f3d 7459 f03d 95cc e83d
00000160: aa4d 17bd 7dbb f03d 2eca 4f3d 0add 4dbc
00000170: a65b d73d 1abe 85bd 93f5 9c3d 2f58 f53d
00000180: 8745 acbd 5ad9 91bd 82cf f3bd ac46 8bbc
00000190: 20dc ebbd bd75 34bd 82d6 113d 4852 b23d
000001a0: fc9b a03d 0c63 843d 9129 5e3d a0a6 a4bd
000001b0: 1dcb c4bd 8d81 64ba b807 ea3d eae8 d43b
000001c0: a296 2ebc 73bc b4bd a568 95bd e5e5 cebd
000001d0: cdbd c33d d062 90bc ca84 fbbd 35b8 e43c
000001e0: 1928 2a3b 0e88 5bbc d765 383d 7ae7 8b3d
000001f0: 7f19 fcbd edcc b5bd 294d 77bc 932f f6bd
00000200: 9fa8 efbd d881 dd3d e081 d5bc 19cd 7fbd
00000210: 85f0 13bd 62c9 d5bd 9b51 c43d 6e56 e4bc
00000220: 0c2c 97bd a97e c0bd dd3a 983d c9f2 91bc
00000230: 10e2 95bc 1658 0fbd e3ad 7fbd 26dc 7a3c
00000240: 06a8 ba3d e645 a0bd 7cc0 f73a 2566 ecbd
00000250: 423c 83bd 19c8 d83d 3248 5d3a 72ad f33d
00000260: a4b3 d2bc f75e 98bd 6d22 90bd 34e9 d73d
00000270: 26de c2bd 3e16 7a3d 4fc3 ec3c b39a e93c
00000280: 8716 843d 3e19 0bbd ea10 9a3d 666e c6bd
00000290: 90cd 46bd 6a6e b93d 4a4e f93c f60d 7bbc
000002a0: 56b3 e9bc c32a 92bd 2fb9 923d f095 58bb
000002b0: bdf8 8bbb 77f4 ca3c 87df b63d 2997 80bd
000002c0: 92a7 3cbd cb6b 963d 1771 873d 32cb 58bd
000002d0: c32e 00be 9b26 bd3c eedf 773d f508 bd3c
000002e0: 95e6 b23d 1dae d9bd 3376 7e3d 397b a5bd
000002f0: 486a 923d 3109 be3d 3e69 303d 5066 c13d
00000300: 7f9a a8bd 001d f4bd 8446 f9bd b4e2 9d3d
00000310: 5f6b c43c 0ac0 cebd db2f 6e3d f710 f53d
00000320: 25d8 f3bd 5f3a ba3d 22b8 f53b 1c8d 583b
00000330: 3a3b f23d 13c0 f33d a1b3 483d b7f7 c83d
00000340: 287c 163d e4a0 9e3c 4dfe f4bd ea18 243d
00000350: a4b5 bbbd 5959 013d 4d70 b83c 7f97 22bc
00000360: 246a b8bd 744f babd 435e b73d 90ea 873d
00000370: 4a29 893d ac6b 32bd 9c19 babc 0e5d 76bc
00000380: 6d12 ad3d 391e 70bd 9091 8b3d 7a42 cf3d
00000390: 55e9 dfbd 495f 15bc 62fa 1bbd f91f a3bd
000003a0: cd8c 4e3d bdc6 abbc 7270 ee3d ba2a 95bd
000003b0: 7178 653d ddc9 d2bd c2c2 70bd d494 853c
000003c0: 9ec1 bf3d 1704 9c3d add3 d4bd 1702 723c
000003d0: 56fb 5cbd 1133 1c3c 2505 cfbd 8eeb 05bd
000003e0: b2f7 ba3d cace dcbd cadb fabd 7a57 083d
000003f0: 7aa4 a13c c51d 01bc 445f dd3d de69 72bd

actor.2.bias f4 [64]
0.09603731 -0.1278279 0.09931516 -0.03782195 -0.11899122 0.08865111 -0.07535918 -0.052178312
0.033335622 0.025363484 0.08641998 -0.093271025 0.06828589 0.063575596 0.067780904 -0.030094964
0.021020701 0.03644586 0.12126588 -0.075324096 -0.12257965 -0.104027286 0.0010021472 -0.08811846
-0.019893425 -0.055883847 0.02390859 -0.09447487 0.068325445 -0.13139537 -0.06434667 0.03286358
-0.11908065 0.03503921 -0.05497958 -0.06883164 0.08830088 -0.04913702 0.03545793 -0.054536648
0.047499318 0.100735985 0.10797195 -0.086225666 -0.12930232 -0.09546409 0.031191276 0.043348808
0.06573066 0.03959335 0.11611979 -0.10513232 -0.08829623 -0.046251126 0.08714672 -0.113072164
0.08743941 0.020611985 0.07028547 0.11650751 0.12329911 0.11555715 -0.038415175 -0.047892578
00000000: 36af c43d 51e5 02be bf65 cb3d 30eb 1abd
00000010: abb1 f3bd b78e b53d ea55 9abd edb8 55bd
00000020: ef8a 083d 15c7 cf3c f5fc b03d e104 bfbd
00000030: 79d9 8b3d ec33 823d b7d0 8a3d b789 f6bc
00000040: 9b33 ac3c 4148 153d 3f5a f83d 8543 9abd
00000050: 0a0b fbbd 420c d5bd 7b5a 833a 7377 b4bd
00000060: 89f7 a2bc 76e6 64bd f3db c33c 0a7c c1bd
00000070: 36ee 8b3d 828c 06be 30c8 83bd f69b 063d
00000080: 8ee0 f3bd 4685 0f3d 4532 61bd 9af7 8cbd
00000090: 17d7 b43d e643 49bd 563c 113d d261 5fbd
000000a0: a58e 423d ab4e ce3d 6620 dd3d 1597 b0bd
000000b0: d467 04be ad82 c3bd d984 ff3c 858e 313d
000000c0: cc9d 863d a32c 223d 36d0 ed3d 9d4f d7bd
000000d0: a7d4 b4bd d271 3dbd fb79 b23d 6192 e7bd
000000e0: 6f13 b33d 77da a83c d4f1 8f3d 7d9b ee3d
000000f0: 3e84 fc3d 3aa9 ec3d 3b59 1dbd 022b 44bd

actor.4.weight f4 [6, 64]
0.04616436 0.09515387 0.0024871065 -0.0296129 -0.006904511 -0.0434481 0.05177301 -0.114027955
0.0808455 -0.004993656 -0.06766515 -0.042528033 -0.070314266 -0.10390703 0.008112999 -0.020023208
-0.049059875 -0.016157897 -0.016496992 0.049268354 -0.09994976 0.0012185657 -0.008301088 -0.094021656
0.10350669 -0.05222449 0.09704541 0.08869512 0.00010942241 0.087151006 -0.09140625 -0.01673719
-0.07730855 -0.06975088 0.027286148 0.07307907 -0.07168322 -0.055881105 -0.06205222 -0.005751416
-0.09779366 -0.09147188 -0.030130526 0.11850696 0.026810762 -0.034924746 0.076749295 0.08637755
0.07097257 0.0017619908 -0.0073528835 0.082953714 0.059609953 0.086904734 0.08408928 -0.029964581
0.096546434 0.018650083 0.12252439 0.11895069 0.103161536 0.081853226 0.102658845 -0.05508017
-0.051223498 -0.0388311 -0.057786025 0.08634674 0.016786024 -0.029971156 -0.043251835 -0.0997961
0.0075365854 0.10392877 0.079906106 0.100341484 0.079602085 0.054572456 -0.0051427106 -0.09008247
0.09206943 -0.05726358 -0.07600239 0.049596462 0.069217645 -0.06451732 0.07433436 -0.10559797
0.035949394 0.039913174 0.035243336 -0.068769224 -0.0685886 0.10142749 0.0066906414 -0.048783388
0.111479275 -0.025261516 -0.014195136 0.036308974 0.102811486 -0.047970906 0.005414946 -0.05371786
-0.058999885 -0.014174726 0.0056814384 0.066740334 -0.07783536 0.07930798 0.09560559 -0.018805066
-0.016366197 0.03070149 -0.092711605 0.08954291 -0.019202897 0.0037005956 0.054366548 0.05167289
-0.056819137 -0.07426846 -0.11697344 -0.10146971 -0.025152346 -0.09114903 -0.012749361 -0.05840427
0.06739752 0.07626614 0.09256407 -0.07813795 -0.090460576 0.04401021 -0.03407233 0.0835522
-0.09234941 0.11580264 -0.081305124 -0.09864586 -0.016736276 -0.05799639 -0.0792034 0.07077225
0.08546155 0.05262676 0.014228273 -0.016798897 -0.07088989 0.11523725 -0.07649222 -0.1085683
0.10592785 -0.016045768 0.067882426 -0.03647523 0.09828775 -0.088828266 0.061964843 0.09446383
-0.011556285 0.072215274 0.0073288633 -0.10996964 0.054884247 -0.08823346 -0.00947354 -0.12098787
-0.064574376 -0.03939934 -0.03164185 -0.12475627 -0.06428956 -0.1228163 -0.09986087 -0.12034725
-0.06373007 -0.027105555 0.10941921 -0.08989779 -0.09817297 -0.107862495 0.12285193 -0.014653301
-0.026667291 0.07440778 -0.06338151 -0.03050112 0.11556377 0.05781215 -0.09677165 -0.04117128
0.014865359 0.05448818 -0.060823236 0.08618771 -0.005198208 -0.10783347 0.037431538 -0.12208329
0.005664906 -0.11596541 -0.04306174 -0.021839771 -0.10920903 -0.034245487 0.010940993 -0.06807201
0.02716661 0.055465702 0.011463852 -0.11089988 -0.00047525775 -0.059322994 0.035991933 -0.09398653
-0.06695017 0.0008733911 0.07793778 -0.021476936 -0.012474941 -0.007973975 -0.07022426 -0.0073089316
-0.0002419782 0.011727824 0.0636349 0.03813369 0.058969542 -0.019189078 -0.040987503 0.099579014
0.09607059 0.06466866 0.07957859 0.06264559 0.100477464 0.09963102 -0.0972103 -0.11045966
-0.06493671 0.08480462 0.095068015 0.010700897 -0.076614924 -0.044337444 0.054732237 0.11178646
0.015379617 -0.08194822 0.11216767 0.10115954 -0.054957893 -0.062517315 0.06657429 -0.085736744
00000000: d716 3d3d 08e0 c23d b9fe 223b c196 f2bc
00000010: 3c3f e2bb a3f6 31bd f00f 543d 7d87 e9bd
00000020: 5392 a53d d3a1 a3bb 0794 8abd e031 2ebd
00000030: ed00 90bd 35cd d4bd 62ec 043c b607 a4bc
00000040: 02f3 48bd 915d 84bc b324 87bc 9dcd 493d
00000050: 76b2 ccbd 48b8 9f3a 4901 08bc 6d8e c0bd
00000060: 51fb d33d 59e9 55bd bebf c63d c9a5 b53d
00000070: b679 e538 3a7c b23d 3333 bbbd 6e1c 89bc
00000080: f253 9ebd 8dd9 8ebd 3387 df3c 7baa 953d
00000090: a7ce 92bd 96e3 64bd 782a 7ebd 6076 bcbb
000000a0: 0b48 c8bd 9c55 bbbd 4bd4 f6bc c7b3 f23d
000000b0: 3ea2 db3c 400d 0fbd bc2e 9d3d b7e6 b03d
000000c0: 115a 913d 9af2 e63a 75f0 f0bb a3e3 a93d
000000d0: 9129 743d 1cfb b13d 0037 ac3d 4878 f5bc
000000e0: 23ba c53d 0fc8 983c 11ee fa3d 6b9c f33d
000000f0: 5b46 d33d aaa2 a73d cd3e d23d bf9b 61bd
00000100: bbcf 51bd 5c0d 1fbd 0ab1 6cbd 8fd6 b03d
00000110: d882 893c 1286 f5bc d628 31bd e661 ccbd
00000120: 76f5 f63b 9bd8 d43d d0a5 a33d d67f cd3d
00000130: 6b06 a33d 5e87 5f3d 2f84 a8bb 287d b8bd
00000140: e68e bc3d 378d 6abd 24a7 9bbd a925 4b3d
00000150: fbc1 8d3d a821 84bd 9d3c 983d c043 d8bd
00000160: ac3f 133d ff7b 233d 515b 103d e1d6 8cbd
00000170: 2e78 8cbd 37b9 cf3d 2b3d db3b 17d1 47bd
00000180: 3f4f e43d 3df1 cebc b792 68bc b8b8 143d
00000190: d48e d23d 247d 44bd dc6f b13b 4207 5cbd
000001a0: dda9 71bd 1c3d 68bc 5c2b ba3b 28af 883d
000001b0: 2568 9fbd 396c a23d ddcc c33d 150d 9abc
000001c0: 6712 86bc b181 fb3c 95df bdbd 4662 b73d
000001d0: 654f 9dbc b185 723b 75af 5e3d f4a6 533d
000001e0: 2fbb 68bd 101a 98bd c58f efbd 5acf cfbd
000001f0: 4b0c cebc 58ac babd b2e2 50bc 5139 6fbd
00000200: b607 8a3d 6c31 9c3d 3b92 bd3d ca06 a0bd
00000210: 6543 b9bd 0d44 343d 6d8f 0bbd 6a1d ab3d
00000220: b021 bdbd ef29 ed3d 4d83 a6bd d706 cabd
00000230: 841a 89bc 9f8d 6dbd 6435 a2bd 0bf1 903d
00000240: 7706 af3d 288f 573d b41d 693c d79d 89bc
00000250: b82e 91bd 8201 ec3d f4a7 9cbd 0f59 debd
00000260: b3f0 d83d 6a72 83bc f105 8b3d 0d67 15bd
00000270: 164b c93d 98eb b5bd d9ce 7d3d 4176 c13d
00000280: 9356 3dbc 9ae5 933d f626 f03b c337 e1bd
00000290: 4ece 603d bfb3 b4bd e836 1bbc 7dc8 f7bd
000002a0: 923f 84bd 3461 21bd e29a 01bd 3780 ffbd
000002b0: 3faa 83bd 1d87 fbbd db83 ccbd 9e78 f6bd
000002c0: e984 82bd 780c debc 2e17 e03d 551c b8bd
000002d0: e90e c9bd 03e7 dcbd cb99 fb3d 6614 70bc
000002e0: 5d75 dabc 1b63 983d 2ace 81bd 7cdd f9bc
000002f0: b3ac ec3d 6fcc 6c3d 3730 c6bd 37a3 28bd
00000300: d68d 733c ff2e 5f3d c921 79bd 2f83 b03d
00000310: bb55 aabb cbd7 dcbd d051 193d ce06 fabd
00000320: ada0 b93b 467f edbd 8261 30bd 52e9 b2bc
00000330: fca8 dfbd ff44 0cbd da41 333c 5769 8bbd
00000340: 838c de3c 0130 633d e1d2 3b3c 7a1f e3bd
00000350: 042c f9b9 abfc 72bd 476c 133d 037c c0bd
00000360: 2c1d 89bd 49f4 643a d89d 9f3d 66f0 afbc
00000370: b263 4cbc 46a5 02bc bdd1 8fbd c37f efbb
00000380: 87bb 7db9 0f26 403c 0453 823d 1232 1c3d
00000390: 0c8a 713d 6a32 9dbc 83e2 27bd 15f0 cb3d
000003a0: a8c0 c43d 0171 843d 1afa a23d 554c 803d
000003b0: 21c7 cd3d 590b cc3d 3216 c7bd ad38 e2bd
000003c0: 8afd 84bd 0bae ad3d 05b3 c23d d152 2f3c
000003d0: 49e8 9cbd 2e9b 35bd e92e 603d 4df0 e43d
000003e0: cafa 7b3c 78d4 a7bd 2ab8 e53d bc2c cf3d
000003f0: 871b 61bd 1409 80bd 1a58 883d bf96 afbd

actor.4.bias f4 [6]
-0.07148937 -0.072105795 -0.06819836 -0.068351515 -0.07102965 -0.07480504
00000000: 0569 92bd 34ac 93bd 95ab 8bbd e1fb 8bbd
00000010: fe77 91bd 6333 99bd

critic.0.weight f4 [64, 25]
-0.13042292 -0.25185588 0.14773689 0.05861032 -0.16033383 -0.24754262 -0.096851 0.08894123
0.17170987 -0.018192278 0.09676411 -0.096948504 -0.048207685 -0.07012314 -0.20836721 -0.006386034
0.0564637 0.11447256 -0.15827955 -0.06329929 0.025126655 0.008532829 0.0404098 -0.15498826
0.16857651 -0.15112175 -0.029821446 0.09504956 -0.03271985 -0.1253212 -0.16552845 0.14228977
0.0055877077 0.085618965 0.040194277 -0.15992823 -0.059443254 0.13479817 -0.04949979 -0.09694745
0.10238748 -0.084868714 0.025360305 -0.09904099 0.06499385 0.01729574 -0.16401277 -0.14058872
0.058441345 -0.05609073 0.083278224 -0.029741347 -0.038184464 -0.06922172 -0.06820282 0.06184791
0.16933945 -0.04687488 -0.09761588 0.09882293 0.19791856 0.09690492 0.029562185 0.039444663
0.04297224 -0.042229585 -0.24654128 0.009289493 0.13500684 0.11356113 0.031499468 0.12557173
0.08133043 -0.010152077 0.0885374 0.0003185358 -0.11480105 -0.01647925 -0.13590741 -0.22233707
0.026472233 0.22279623 -0.0071694446 0.041204587 -0.09598234 -0.08143853 -0.09087199 0.12935144
0.100361705 -0.012699658 0.09717726 -0.104427025 0.044365026 0.21129681 -0.030709518 0.10785879
-0.07931517 0.17143531 0.05310338 0.04760375 -0.0075909607 -0.0037394864 -0.1538162 -0.1719095
0.10837853 0.23672152 0.057527494 -0.06994231 0.032024708 -0.0021456205 -0.18504281 -0.1527127
0.057773538 -0.020017134 -0.054290645 -0.13096619 0.07318137 -0.11130724 -0.048850305 0.104498774
0.17991121 0.16871488 0.08820942 -0.0091318255 0.15503775 0.20920426 0.13701168 0.027390223
0.0786316 0.020645984 0.166576 0.075883314 -0.14679974 -0.12453256 -0.1493774 -0.06966318
0.043558486 -0.117410034 -0.15650499 -0.16202188 0.052671377 0.06571286 -0.065977015 -0.04742145
-0.01909172 -0.071041055 -0.09607393 -0.04741693 -0.19540398 -0.1485826 -0.06277355 0.05585824
0.16749969 0.011438177 0.065814555 0.058300503 -0.09507595 -0.13113914 -0.041077863 -0.14659056
0.025404237 0.06695852 -0.20269555 -0.035610247 -0.22739778 0.15055525 0.11948408 -0.124052554
0.1707463 -0.059463467 0.10743819 -0.06357262 0.08399429 0.11318962 0.114779934 0.083086506
0.026130717 -0.016856037 0.18523443 0.012628518 -0.03721605 -0.036140483 -0.076887384 -0.07585795
0.018329939 0.1518969 0.06182083 -0.1376268 0.10444319 -0.08333097 0.03926788 0.050100043
0.13052684 -0.08299393 -0.13300672 0.008864864 -0.0038354173 -0.09254875 0.16997987 -0.10678061
0.08662863 -0.07826996 -0.037570965 -0.022830017 -0.08481056 0.15510873 -0.17411919 0.025858903
-0.02319178 -0.10333419 0.14811592 0.12534627 0.049673487 0.04154704 0.10773715 -0.09685893
-0.13333961 0.18291242 -0.10427558 0.03728883 0.009527599 0.16124171 0.20343727 -0.13683428
-0.0037783824 -0.13091463 0.14131677 0.15366845 -0.046574444 0.041303072 -0.040553205 0.023752615
0.1448665 -0.1802356 0.019872922 -0.0037940114 -0.13297318 0.03353922 0.12907688 -0.21057835
0.02617539 0.072064765 0.13616954 -0.27347845 0.24626109 -0.0919895 0.16617079 -0.05211905
0.024512388 0.09441926 0.08569812 0.032749277 0.11529054 -0.06102611 -0.12913467 -0.048305407
00000000: 968d 05be 41f3 80be 5748 173e 6011 703d
00000010: 8d2e 24be d07b 7dbe d159 c6bd d226 b63d
00000020: b6d4 2f3e f907 95bc 432c c63d f08c c6bd
00000030: 6c75 45bd b99c 8fbd 375e 55be f041 d1bb
00000040: 7b46 673d 9770 ea3d 0914 22be 0fa3 81bd
00000050: 6ad6 cd3c 47cd 0b3c bf84 253d 3eb5 1ebe
00000060: 529f 2c3e a9bf 1abe 1b4c f4bc 58a9 c23d
00000070: 4005 06bd 3354 00be 4a80 29be 69b4 113e
00000080: 1719 b73b ff58 af3d c1a2 243d 3ac4 23be
00000090: c57a 73bd 8808 0a3e 4bc0 4abd 628c c6bd
000000a0: 87b0 d13d a6cf adbd 6ac0 cf3c 01d6 cabd
000000b0: 7f1b 853d ccaf 8d3c f7f2 27be 7df6 0fbe
000000c0: 3160 6f3d 65bf 65bd c68d aa3d 20a4 f3bc
000000d0: 5067 1cbd 1ec4 8dbd ecad 8bbd 3c54 7d3d
000000e0: 5267 2d3e e0ff 3fbd d6ea c7bd ad63 ca3d
000000f0: 2aab 4a3e 1676 c63d 652c f23c ba90 213d
00000100: a903 303d eef8 2cbd 5175 7cbe f532 183c
00000110: 3c3f 0a3e bd92 e83d 9605 013d e095 003e
00000120: 9290 a63d e654 26bc 1953 b53d 2701 a739
00000130: d01c ebbd 7eff 86bc 502b 0bbe 54ac 63be
00000140: 4cdc d83c b224 643e a9ed eabb 24c6 283d
00000150: 6492 c4bd 3ec9 a6bd 181b babd b474 043e
00000160: 708a cd3d 3a12 50bc df04 c73d d6dd d5bd
00000170: 1ab8 353d 315e 583e 8792 fbbc 12e5 dc3d
00000180: fe6f a2bd bd8c 2f3e ee82 593d 26fc 423d
00000190: 98bd f8bb 2c12 75bb fe81 1dbe 0b09 30be
000001a0: 90f5 dd3d 2067 723e f3a1 6b3d ea3d 8fbd
000001b0: 572c 033d 8a9d 0cbb dd7b 3dbe b860 1cbe
000001c0: f2a3 6c3d f9fa a3bc de5f 5ebd 001c 06be
000001d0: 1de0 953d 0df5 e3bd 4217 48bd 7403 d63d
000001e0: a53a 383e 98c3 2c3e 24a7 b43d a79d 15bc
000001f0: 37c2 1e3e a439 563e ca4c 0c3e 7661 e03c
00000200: 9b09 a13d c421 a93c e692 2a3e b668 9b3d
00000210: ac52 16be ed0a ffbd 64f6 18be 92ab 8ebd
00000220: 626a 323d ac74 f0bd d842 20be 10e9 25be
00000230: f1bd 573d 7794 863d f51e 87bd ff3c 42bd
00000240: 3d66 9cbc f97d 91bd 69c2 c4bd 4138 42bd
00000250: fb17 48be 0926 18be 6b8f 80bd 9ccb 643d
00000260: 0a85 2b3e 3167 3b3c c8c9 863d 82cc 6e3d
00000270: 2eb7 c2bd 5749 06be 4341 28bd d61b 16be
00000280: 8c1c d03c 8c21 893d 6c8f 4fbe 0ddc 11bd
00000290: f7da 68be 282b 1a3e 12b4 f43d 440f febd
000002a0: 1ed8 2e3e f78f 73bd 8e08 dc3d 5d32 82bd
000002b0: 3305 ac3d f6cf e73d be11 eb3d 4229 aa3d
000002c0: 1610 d63c ac15 8abc 18ae 3d3e d8e7 4e3c
000002d0: db6f 18bd 0b08 14bd 2277 9dbd 6a5b 9bbd
000002e0: ab28 963c dc8a 1b3e d737 7d3d 0aee 0cbe
000002f0: 50e6 d53d 6da9 aabd 5bd7 203d b435 4d3d
00000300: d4a8 053e b9f8 a9bd ea32 08be ef3d 113c
00000310: a05b 7bbb 338a bdbd 340f 2e3e cbaf dabd
00000320: 5a6a b13d 004c a0bd 03e4 19bd 0406 bbbc
00000330: 29b1 adbd d3d4 1e3e 4d4c 32be 0dd6 d33c
00000340: b0fc bdbc e0a0 d3bd b3ab 173e c65a 003e
00000350: 6d76 4b3d 3b2d 2a3d 4ba5 dc3d fa5d c6bd
00000360: 2e8a 08be 654d 3b3e 6f8e d5bd 2cbc 183d
00000370: a619 1c3c 8c1c 253e dc51 503e 491e 0cbe
00000380: bd9e 77bb 7c0e 06be 58b5 103e 435b 1d3e
00000390: d8c4 3ebd 692d 293d 1e1b 26bd d894 c23c
000003a0: e257 143e ae8f 38be 8acc a23c f3a4 78bb
000003b0: 1f2a 08be 6c60 093d bb2c 043e daa1 57be
000003c0: c66d d63c b196 933d 0770 0b3e 5e05 8cbe
000003d0: de2b 7c3e fe64 bcbd ad28 2a3e c97a 55bd
000003e0: 34ce c83c e35e c13d 7f82 af3d 1b24 063d
000003f0: 721d ec3d 84f6 79bd e13b 04be e4db 45bd

critic.0.bias f4 [64]
0.17972231 0.114683226 0.11300612 -0.10260523 -0.109561406 -0.07461335 -0.22579256 -0.1305769
0.042897433 -0.21173596 0.05917512 -0.011513888 -0.0026954713 -0.09834048 -0.069909215 -0.17439239
-0.13205802 0.11311367 -0.016980775 0.18506193 0.03883388 -0.045827992 0.110924 -0.20665286
-0.13740177 0.09986594 -0.06581575 0.15221041 -0.031046385 0.14540163 0.009972397 0.012409529
-0.18885833 -0.060584586 0.015889607 0.08367774 -0.005016816 -0.06027166 -0.0076856753 0.1549818
0.101777695 0.07188424 -0.14850889 -0.07426486 0.113136694 0.18523851 -0.10471361 0.15126108
-0.03799981 0.09404729 -0.011131813 -0.15894768 -0.19888155 -0.0192365 0.040609524 -0.10208278
0.10311839 0.09125897 0.115522385 0.09453864 -0.20012248 -0.032657623 0.08275861 0.080923505
00000000: 2009 383e 0adf ea3d c16f e73d b122 d2bd
00000010: bb61 e0bd e2ce 98bd 2a36 67be f3b5 05be
00000020: 38b5 2f3d 50d1 58be 9c61 723d bfa4 3cbc
00000030: 81a6 30bb bc66 c9bd 902c 8fbd eb93 32be
00000040: 383a 07be 24a8 e73d 441b 8bbc e080 3d3e
00000050: 4610 1f3d 22b6 3bbd 1f2c e33d cf9c 53be
00000060: 0db3 0cbe 8486 cc3d 68ca 86bd 0cdd 1b3e
00000070: fd54 febc 2ae4 143e 4463 233c 5651 4b3c
00000080: 1464 41be 8b27 78bd ec2a 823c 3c5f ab3d
00000090: 1a64 a4bb 6bdf 76bd 1ed8 fbbb 8db3 1e3e
000000a0: d370 d03d 0b38 933d b712 18be 2d18 98bd
000000b0: 36b4 e73d 2aaf 3d3e 1774 d6bd 2fe4 1a3e
000000c0: b0a5 1bbd de9b c03d 3562 36bc 2ec3 22be
000000d0: 9ba7 4bbe dd95 9dbc 2c56 263d c710 d1bd
000000e0: bc2f d33d fce5 ba3d 0097 ec3d 799d c13d
000000f0: e8ec 4cbe 00c4 05bd 597d a93d 39bb a53d

critic.2.weight f4 [64, 64]
-0.11735665 -0.08794909 0.09696204 -0.10535634 0.08058497 -0.02665697 0.0039317817 0.06048166
0.018250842 -0.08399818 0.04742118 -0.11271818 -0.05755112 -0.026217336 -0.02165984 0.09825856
-0.059397988 0.08998016 0.04680449 0.03786383 0.08791016 -0.08450959 -0.11005733 0.00089994614
0.053909168 0.053324483 0.010339592 0.1159604 0.038747184 0.051901996 -0.05466643 0.04529226
-0.04621986 -0.09195887 -0.07598841 -0.07524509 -0.022619488 -0.058595795 0.115176015 0.048000064
-0.10587977 -0.0037631772 0.10613879 -0.0012980645 0.021677228 0.041806534 -0.05177954 -0.07392571
-0.037833985 -0.042710878 0.10418966 -0.08341318 0.017238475 -0.03700819 -0.0140551105 -0.009763016
-0.04112444 0.022480462 0.030326098 -0.06331654 0.0858362 0.12749161 -0.057403207 0.01810162
-0.047157727 0.07348218 -0.006065727 -0.11699545 0.018249016 0.10173077 -0.010650201 -0.03379041
-0.015054264 0.067584746 0.11285407 -0.038387023 0.07883171 0.06733164 0.113193356 0.09456987
-0.09665419 -0.112925194 -0.10899361 0.07831494 -0.06350364 0.069661684 -0.018157868 -0.06644851
0.08950038 -0.03204221 -0.074482925 -0.023948926 -0.08372733 -0.12501168 -0.0090097645 -0.00266133
-0.07281242 0.118307985 -0.022191461 -0.025641318 0.09684286 0.009828819 -0.028726777 0.027156455
-0.11260923 0.11057754 0.03073957 0.046175998 -0.08972225 0.10047316 -0.10974851 -0.038302228
-0.07306853 -0.0752262 0.030834563 -0.10356653 -0.12280225 0.03543053 0.0425959 0.0036704023
-0.04389026 -0.04426984 -0.01379708 -0.019174706 -0.06697259 0.11214944 0.022212313 -0.088364795
-0.024583913 -0.078438 -0.07767584 0.09910048 0.05264926 0.05637876 -0.0067442786 -0.032539524
0.023427589 -0.08541482 -0.13275471 0.09461347 -0.009711619 0.07917046 0.09144294 0.049612485
-0.050599333 -0.014001861 0.005916305 0.0073698815 0.005249361 -0.09578788 -0.0701166 0.092905484
0.0092191575 -0.04974787 0.08111622 -0.035622157 -0.046185255 0.09248097 -0.10504393 -0.065105885
0.09455239 -0.020996671 -0.0594031 0.10010919 0.021030078 -0.11256847 -0.09347646 -0.029628731
-0.006306333 -0.0874352 -0.044833083 0.03904069 -0.122083 -0.123883486 0.03833776 0.017963307
-0.13116145 -0.11156295 0.09779064 0.10872532 -0.05332322 0.117722936 0.085131116 0.1086374
-0.059947856 -0.024924962 0.07332616 0.037880074 -0.10937922 0.05727366 0.12436693 -0.07498554
-0.11619821 -0.106137894 -0.08648396 -0.047869667 -0.048162594 -0.105093665 0.09072984 0.12477375
0.11216224 0.08140682 0.04404303 -0.044095628 -0.11317379 -0.07015952 0.053707775 0.023163777
0.00838264 -0.06614716 -0.04460601 -0.0578683 -0.01593932 -0.026058208 0.012783034 -0.031628437
-0.0067555835 -0.073428586 0.060317602 -0.10164603 0.025428176 -0.11612911 -0.073612206 0.111902624
-0.018430684 -0.03185076 0.055197254 -0.117502935 -0.025884056 -0.0016574083 0.014770754 -0.020850085
-0.088484354 -0.11439507 0.0048890933 0.10079518 -0.06351479 0.008996485 0.091325365 -0.12980331
0.10796582 0.109138824 -0.05976761 0.09123511 0.08846497 0.09461474 0.10621189 0.029534413
0.05717306 -0.06642715 0.01935382 0.112107754 -0.046350617 0.016583716 -0.060144577 0.05202812
00000000: af58 f0bd a71e b4bd 0994 c63d 11c5 d7bd
00000010: bc09 a53d b85f dabc 2dd6 803b 9ebb 773d
00000020: ca82 953c 3d07 acbd b63c 423d cad8 e6bd
00000030: b9ba 6bbd bdc5 d6bc fa6f b1bc c93b c93d
00000040: 4e4b 73bd 8547 b83d 11b6 3f3d 1a17 1b3d
00000050: 3e0a b43d 5d13 adbd bd65 e1bd 5dea 6b3a
00000060: dccf 5c3d c66a 5a3d 6467 293c a57c ed3d
00000070: 5eb5 1e3d 3097 543d e8e9 5fbd 6084 393d
00000080: 0951 3dbd ef54 bcbd d09f 9bbd 191a 9abd
00000090: 814c b9bc 2502 70bd 67e1 eb3d b79b 443d
000000a0: 7ed7 d8bd a39f 76bb 4b5f d93d d123 aaba
000000b0: 7194 b13c 543d 2b3d c816 54bd 5d66 97bd
000000c0: cff7 1abd 9af1 2ebd 6361 d53d 88d4 aabd
000000d0: b437 8d3c e695 17bd 6847 66bc 0ff5 1fbc
000000e0: 1a72 28bd f228 b83c 706e f83c 1aac 81bd
000000f0: e4ca af3d 298d 023e a01f 6bbd d949 943c
00000100: 7628 41bd d37d 963d 02c3 c6bb 4f9b efbd
00000110: f67e 953c 3958 d03d 2e7e 2ebc d067 0abd
00000120: 29a6 76bc df69 8a3d 0920 e73d b63b 1dbd
00000130: 8572 a13d 2ce5 893d ebd1 e73d d9ad c13d
00000140: a2f2 c5bd 5345 e7bd 0b38 dfbd 9563 a03d
00000150: 320e 82bd c9aa 8e3d cfbf 94bc 2816 88bd
00000160: fa4b b73d b13e 03bd 818a 98bd 8a30 c4bc
00000170: 3c79 abbd 1003 00be b19d 13bc b569 2ebb
00000180: ae1e 95bd 754b f23d deca b5bc be0d d2bc
00000190: 8d55 c63d 0e09 213c 6b54 ebbc 3777 de3c
000001a0: ab9f e6bd 7a76 e23d 8dd1 fb3c 0b23 3d3d
000001b0: 4dc0 b7bd dfc4 cd3d d4c3 e0bd cce2 1cbd
000001c0: f4a4 95bd 3210 9abd c498 fc3c b01a d4bd
000001d0: bf7f fbbd 9a1f 113d 0a79 2e3d 228b 703b
000001e0: 46c6 33bd 4b54 35bd 260d 62bc 4614 9dbc
000001f0: ed28 89bd 9bae e53d 99f6 b53c 9af8 b4bd
00000200: 3464 c9bc 1aa4 a0bd 8314 9fbd 31f5 ca3d
00000210: c0a6 573d 6aed 663d 1cff dcbb 2a48 05bd
00000220: 37eb bf3c f7ed aebd daf0 07be b5c4 c13d
00000230: 7b1d 1fbc 1f24 a23d 7046 bb3d 7636 4b3d
00000240: 3f41 4fbd 1068 65bc 90dd c13b 0c7f f13b
00000250: d502 ac3b 702c c4bd 4b99 8fbd 3b45 be3d
00000260: f30b 173c 6cc4 4bbd 4320 a63d 8ae8 11bd
00000270: c02c 3dbd aa66 bd3d 4621 d7bd 3c56 85bd
00000280: afa4 c13d 3601 acbc aa50 73bd 0c06 cd3d
00000290: 4547 ac3c 4c8a e6bd 9670 bfbd f4b7 f2bc
000002a0: 5ba5 cebb 3a11 b3bd e5a2 37bd 21e9 1f3d
000002b0: a706 fabd a0b6 fdbd 0e08 1d3d c927 933c
000002c0: 304f 06be 1e7b e4bd 7646 c83d 61ab de3d
000002d0: 7369 5abd b918 f13d 3959 ae3d 497d de3d
000002e0: e28b 75bd 6f2f ccbc 072c 963d 2328 1b3d
000002f0: 3602 e0bd c997 6a3d 17b4 fe3d 0592 99bd
00000300: 54f9 edbd d35e d9bd 811e b1bd fc12 44bd
00000310: 2446 45bd 593b d7bd 91d0 b93d 6189 ff3d
00000320: 51b5 e53d 9eb8 a63d 7766 343d 9e9d 34bd
00000330: a9c7 e7bd cbaf 8fbd affc 5b3d f6c1 bd3c
00000340: 5757 093c 2a78 87bd cbb4 36bd 4f07 6dbd
00000350: 2d93 82bc 0678 d5bc ee6f 513c d28c 01bd
00000360: f15d ddbb ba61 96bd 970f 773d cb2b d0bd
00000370: c04e d03c 19d5 edbd ffc1 96bd 342d e53d
00000380: f2fb 96bc f175 02bd 8416 623d 61a5 f0bd
00000390: cd0a d4bc 653d d9ba 0801 723c cccd aabc
000003a0: 4937 b5bd f647 eabd b034 a03b b46d ce3d
000003b0: 0b14 82bd fe65 133c cb08 bb3d 29eb 04be
000003c0: 2f1d dd3d 2d84 df3d e2ce 74bd 79d9 ba3d
000003d0: 1f2d b53d 5fc5 c13d 9f85 d93d 27f2 f13c
000003e0: 4c2e 6a3d f50a 88bd e78b 9e3c c098 e53d
000003f0: 25da 3dbd 93da 873c 295a 76bd 701b 553d

critic.2.bias f4 [64]
0.02850954 0.03805335 -0.0011543529 -0.018500336 0.020818789 -0.005280808 -0.024822326 -0.13180128
0.06077402 -0.077329345 0.04158513 0.044195034 0.06099465 -0.013884179 -0.011734971 0.080692455
-0.082355134 -0.08631787 0.08031097 0.121462055 0.08788809 0.0686584 -0.06618717 0.068622045
-0.06356676 0.059904665 0.104111254 -0.03684171 -0.09974981 -0.10041059 -0.0486045 0.009298339
0.11990008 0.013997382 -0.070721395 -0.015227667 -0.04362561 0.031291485 0.039355475 -0.07627866
0.03357643 0.054491106 -0.021484507 -0.08134916 0.0776415 -0.11999586 0.074185416 -0.009986563
-0.033200737 -0.05444007 0.028283477 -0.07060902 -0.0049151266 0.09324152 -0.007334531 -0.09149545
0.08980055 0.07947605 0.10937456 -0.035298843 -0.1272216 -0.025415594 0.077549785 0.018656675
00000000: d78c e93c d4dd 1b3d a84d 97ba 048e 97bc
00000010: 2a8c aa3c a10a adbb 3158 cbbc eaf6 06be
00000020: 2eee 783d d95e 9ebd 2b55 2a3d da05 353d
00000030: 87d5 793d 787a 63bc 0944 40bc 1642 a53d
00000040: cfa9 a8bd 6cc7 b0bd 147a a43d 19c1 f83d
00000050: acfe b33d c69c 8c3d 248d 87bd b789 8c3d
00000060: 4a2f 82bd 985e 753d 4838 d53d 55e7 16bd
00000070: a149 ccbd 11a4 cdbd 8315 47bd 0f58 183c
00000080: 2c8e f53d 4655 653c 61d6 90bd 777d 79bc
00000090: c5b0 32bd 802b 003d 3533 213d fc37 9cbd
000000a0: 7087 093d 1132 5f3d 4700 b0bc 639a a6bd
000000b0: 8202 9f3d 64c0 f5bd 86ee 973d ae9e 23bc
000000c0: 7ffd 07bd 8dfc 5ebd c0b2 e73c 769b 90bd
000000d0: 120f a1bb 69f5 be3d 8156 f0bb f761 bbbd
000000e0: 5ae9 b73d 57c4 a23d c5ff df3d 8595 10bd
000000f0: 6146 02be 5d34 d0bc 6cd2 9e3d e2d5 983c

critic.4.weight f4 [1, 64]
0.08498637 0.033604156 -0.099125884 -0.10287071 -0.007516501 -0.066710435 -0.06465866 0.0010153402
-0.011433134 0.059749883 -0.057656135 0.049841084 -0.04163487 -0.03324516 0.08755146 0.012419963
0.10772335 -0.063019834 0.0045807273 -0.089991845 0.05422515 0.051282056 -0.0006100997 0.10368271
-0.061609097 -0.07633029 0.08402461 -0.029667608 0.047016256 0.05108328 0.01695562 -0.063730806
-0.028777122 0.06692223 0.039291702 -0.010682283 0.030221948 -0.0060414756 0.014156397 -0.0020644648
0.05225271 0.10652061 0.10655658 -0.0038740933 -0.008683345 -0.06371822 0.0045659277 -0.005864345
-0.05555487 0.09649743 -0.04133914 -0.08628142 -0.01767211 0.013225276 -0.06811674 0.05960323
-0.011219293 -0.0570274 -0.010749483 -0.09251741 0.01546483 -0.001037947 0.008069656 0.0013075847
00000000: 550d ae3d 83a4 093d 8302 cbbd e1ad d2bd
00000010: fb4c f6bb 7b9f 88bd c26b 84bd 2a15 853a
00000020: 0a52 3bbc 4bbc 743d d728 6cbd 2a26 4c3d
00000030: 5389 2abd 142c 08bd 2e4e b33d 1a7d 4b3c
00000040: 0f9e dc3d 8b10 81bd ed19 963b a54d b8bd
00000050: 311b 5e3d 220d 523d 19ef 1fba 9a57 d43d
00000060: d259 7cbd 0e53 9cbd 1815 ac3d 7c09 f3bc
00000070: 1e94 403d b43c 513d 83e6 8a3c 4c85 82bd
00000080: 00be ebbc 860e 893d 56f0 203d be04 2fbc
00000090: 0594 f73c 92f7 c5bb 3cf0 673c f94b 07bb
000000a0: f006 563d 7a27 da3d 563a da3d 80e4 7dbb
000000b0: 9744 0ebc b37e 82bd c79d 953b b129 c0bb
000000c0: 818d 63bd 72a0 c53d 3b53 29bd 50b4 b0bd
000000d0: 1ac5 90bc d4ae 583c ca80 8bbd 8422 743d
000000e0: 20d1 37bc 9095 69bd 991e 30bc c579 bdbd
000000f0: 3360 7d3c b90b 88ba 9736 043c 4363 ab3a

exp_avg f4 [6]
2.3700653e-05 -3.865921e-06 0.0015020716 -0.0032579566 0.00022764866 0.0015142097
00000000: c4d0 c637 02b8 81b6 29e1 c43a 7183 55bb
00000010: f9b4 6e39 7278 c63a

exp_avg_sq f4 [6]
5.2484497e-06 5.762919e-06 2.6575651e-06 5.681505e-06 2.64456e-06 3.7719367e-06
00000000: d71b b036 195f c136 9f58 3236 c2a3 be36
00000010: 3279 3136 6121 7d36

exp_avg f4 [64, 25]
-1.0683016e-05 -8.0607174e-07 -7.391701e-06 -9.4971665e-06 1.3412338e-05 4.719638e-06 -5.8386744e-05 6.667502e-06
8.6567765e-05 -0.0002601949 -7.631333e-05 5.5014625e-05 1.9998544e-05 -1.4886711e-05 2.3406725e-05 3.603031e-05
6.9312364e-06 3.603031e-05 -6.9323687e-06 9.932671e-06 3.5912693e-05 2.6835658e-05 -0.00012801422 -5.0939423e-05
4.3900098e-05 1.0306321e-05 -4.063547e-05 -1.0083751e-05 -1.2000137e-05 8.5808387e-07 5.3335896e-07 0.00013192503
0.00013292691 -0.00027180466 -0.00048447287 0.00016802589 0.00024188499 -1.9729567e-05 -1.46240645e-05 -5.865814e-05
-4.461356e-05 3.6945169e-06 -4.461356e-05 -3.6969652e-06 2.7379854e-05 5.3569358e-05 -2.4174662e-05 -0.00019321685
-6.8082795e-06 5.3839398e-05 2.411859e-06 3.2630756e-05 1.2728044e-06 -8.488285e-06 8.104928e-06 5.3255367e-06
-2.6031772e-05 1.9146146e-06 -4.8291663e-06 -0.00020622855 -8.821136e-05 -9.261577e-05 2.2205937e-05 -9.371907e-06
-1.882559e-05 5.1097527e-06 -9.751518e-06 5.1097527e-06 9.750426e-06 8.931823e-06 1.691833e-05 5.0818777e-05
-8.294274e-05 1.8231483e-05 -3.296157e-05 -1.3811566e-06 -7.6235688e-06 9.927359e-06 -3.911355e-06 -8.621778e-06
1.43193e-05 -7.533038e-05 -2.5213938e-05 -0.00010309546 -0.00029853458 -0.00012731378 8.1997576e-05 4.5914054e-05
-1.3593667e-05 2.8903665e-05 3.161177e-05 -7.552564e-07 3.161177e-05 7.5429034e-07 -6.557397e-05 -0.00014746556
-2.532187e-05 -0.0001256857 -4.3313605e-05 6.132741e-05 1.1036213e-05 -6.3916827e-06 2.983063e-05 -9.412943e-06
6.103939e-06 -5.0474073e-06 -2.4363328e-05 -2.3436669e-05 3.953241e-05 -0.00029302904 -3.921898e-05 -5.8559133e-05
3.8692397e-05 -7.2592497e-06 2.610705e-05 2.2711261e-05 5.394857e-06 2.2711261e-05 -5.3940767e-06 -2.1243392e-05
-8.599835e-05 9.908276e-05 -0.00013419816 -4.3132695e-05 -5.2139472e-05 2.0943462e-05 8.579294e-07 3.5907862e-05
1.0858388e-05 2.2041939e-05 7.926859e-06 0.00011557919 -2.564227e-06 -8.018675e-06 8.344386e-06 0.00012750697
5.52681e-05 -1.1661904e-05 -6.899328e-06 -1.191072e-07 8.903317e-06 -8.925116e-06 8.903317e-06 8.92515e-06
0.00010395958 4.271915e-05 2.832855e-05 1.0681247e-05 -8.591997e-06 -1.4771306e-05 1.07649985e-05 -5.0689896e-06
1.585485e-06 8.552232e-08 -4.786181e-06 2.6899463e-07 4.214005e-05 5.1415038e-05 -0.00013674475 -8.921169e-05
0.00019469204 -0.000101965226 3.093842e-05 -4.0389777e-06 -1.3368426e-05 1.3348e-05 1.509412e-05 1.3348e-05
-1.5095248e-05 1.4580476e-06 -1.4620285e-07 -8.1909144e-05 -7.5488184e-05 5.126433e-05 -8.95458e-06 -1.5353377e-05
1.4913874e-05 -3.0248764e-06 -1.1116976e-05 -2.3371005e-05 -3.9712254e-06 -1.8088724e-05 -4.4145883e-05 -0.000115898
0.00012907007 -0.00016211168 0.00021640852 1.7184608e-05 1.8654202e-05 5.5732315e-05 9.938008e-06 2.7548258e-06
9.938008e-06 -2.754897e-06 -5.6253062e-05 -5.0467654e-05 -7.46394e-05 -4.3587333e-05 -1.0835956e-05 2.0617425e-05
-1.4819375e-05 6.796899e-06 -1.8449194e-06 -5.1456022e-06 -1.603699e-05 1.424803e-06 -8.958364e-05 -2.9529242e-06
-0.000128262 -5.0737613e-06 0.00012274279 0.00010016844 4.208222e-05 -7.8828925e-06 1.724365e-05 1.4718303e-05
1.7807924e-05 1.4718303e-05 -1.7809076e-05 -7.6836615e-05 -6.03509e-05 -2.939295e-05 -6.720813e-05 -6.401643e-07
6.964632e-05 1.2993372e-05 7.686101e-06 1.2454089e-05 -1.9940774e-06 2.7677956e-06 -1.0350031e-05 -7.3534706e-05
-7.493367e-05 0.0001698137 3.3048236e-05 2.9355362e-05 -0.00027085101 4.1404684e-05 4.6893274e-06 2.2475102e-05
2.3244938e-05 5.8847636e-06 2.3244938e-05 -5.8837554e-06 -2.8290671e-05 -7.618582e-05 7.2680254e-05 2.5045712e-05
4.8858925e-05 -6.892036e-05 3.0530916e-06 -6.4500937e-06 1.722091e-06 -9.958061e-06 -7.243789e-06 -8.821187e-06
00000000: 343b 33b7 d460 58b5 3a06 f8b6 0556 1fb7
00000010: 8e05 6137 625d 9e36 4ae4 74b8 68b9 df36
00000020: b78b b538 c56a 88b9 680a a0b8 81bf 6638
00000030: 8cc2 a737 f0c1 79b7 8f59 c437 401f 1738
00000040: de92 e836 401f 1738 989c e8b6 7fa4 2637
00000050: f6a0 1638 231d e137 8e3b 06b9 caa7 55b8
00000060: 5f21 3838 50e9 2c37 0170 2ab8 612d 29b7
00000070: 3254 49b7 1357 6635 262c 0f35 5b55 0a39
00000080: 4c62 0b39 0181 8eb9 d900 feb9 1b30 3039
00000090: 82a2 7d39 ec80 a5b7 e159 75b7 b307 76b8
000000a0: 721f 3bb8 51ef 7736 721f 3bb8 6119 78b6
000000b0: caad e537 a9af 6038 b1ca cab7 419a 4ab9
000000c0: ad72 e4b6 9dd1 6138 6cdb 2136 02dd 0838
000000d0: 3ad5 aa35 e868 0eb7 67fa 0737 03b2 b236
000000e0: ce5e dab7 d47c 0036 390a a2b6 0e3f 58b9
000000f0: 1dfe b8b8 b73a c2b8 e346 ba37 093c 1db7
00000100: a6eb 9db7 7174 ab36 739a 23b7 7174 ab36
00000110: c395 2337 e3d9 1537 d6eb 8d37 3f26 5538
00000120: 8bf1 adb8 d0ef 9837 3740 0ab8 2e60 b9b5
00000130: f5cd ffb6 af8d 2637 493e 83b6 41a6 10b7
00000140: ed3c 7037 b1fa 9db8 8582 d3b7 f434 d8b8
00000150: a284 9cb9 887f 05b9 1df6 ab38 d793 4038
00000160: 5b10 64b7 2676 f237 e196 0438 d3bc 4ab5
00000170: e196 0438 707a 4a35 c284 89b8 fca0 1ab9
00000180: 4d6a d4b7 80ca 03b9 a1ab 35b8 e79c 8038
00000190: 2d28 3937 2378 d6b6 ca3c fa37 48ec 1db7
000001a0: 70d0 cc36 e65c a9b6 d95f ccb7 dd99 c4b7
000001b0: 9acf 2538 b1a1 99b9 0f7f 24b8 649d 75b8
000001c0: a549 2238 7b94 f3b6 7700 db37 1084 be37
000001d0: 7805 b536 1084 be37 c4fe b4b6 d633 b2b7
000001e0: 035a b4b8 a7ca cf38 8bb7 0cb9 61e9 34b8
000001f0: 55b0 5ab8 beaf af37 764c 6635 c69b 1638
00000200: 6c2c 3637 b4e6 b837 9afd 0437 1b63 f238
00000210: 1615 2cb6 f287 06b7 ddfe 0b37 64b3 0539
00000220: accf 6738 7fa7 43b7 c780 e7b6 e0c7 ffb3
00000230: 755f 1537 15bd 15b7 755f 1537 3abd 1537
00000240: e004 da38 572d 3338 19a3 ed37 9b33 3337
00000250: 5926 10b7 47d2 77b7 519b 3437 4a16 aab6
00000260: dacc d435 65a8 b733 fb98 a0b6 576a 9034
00000270: 89bf 3038 7aa6 5738 2463 0fb9 2917 bbb8
00000280: 3f26 4c39 2ad6 d5b8 e0c3 0138 8e86 87b6
00000290: f448 60b7 39f1 5f37 c03c 7d37 39f1 5f37
000002a0: 9941 7db7 22b2 c335 effb 1cb4 a3c6 abb8
000002b0: 694f 9eb8 a804 5738 a13b 16b7 20cb 80b7
000002c0: 9a36 7a37 fbfe 4ab6 0c83 3ab7 da0c c4b7
000002d0: 9140 85b6 3dbd 97b7 4829 39b8 440e f3b8
000002e0: fc56 0739 86fc 29b9 b8eb 6239 aa27 9037
000002f0: 987b 9c37 1ec2 6938 6bbb 2637 8cdf 3836
00000300: 6bbb 2637 c5e0 38b6 44f1 6bb8 3bad 53b8
00000310: b987 9cb8 8bd1 36b8 14cc 35b7 95f3 ac37
00000320: bba0 78b7 eb10 e436 f39e f7b5 63a8 acb6
00000330: 2c87 86b7 dc3b bf35 dade bbb8 da2a 46b6
00000340: 127e 06b9 473f aab6 84b4 0039 8611 d238
00000350: 7181 3038 c440 04b7 75a6 9037 a1ee 7637
00000360: 3a62 9537 a1ee 7637 b364 95b7 5823 a1b8
00000370: 4921 7db8 e190 f6b7 17f2 8cb8 c1d7 2bb5
00000380: 150f 9238 1cfe 5937 8df3 0037 e8f1 5037
00000390: fdd1 05b6 5ebe 3936 0ba5 2db7 a536 9ab8
000003a0: b525 9db8 0510 3239 469d 0a38 2940 f637
000003b0: 0201 8eb9 f1a9 2d38 0459 9d36 ea88 bc37
000003c0: 20fe c237 bc75 c536 20fe c237 136d c5b6
000003d0: c151 edb7 f3c5 9fb8 ea6b 9838 4219 d237
000003e0: dfed 4c38 5689 90b8 b7e3 4c36 e26d d8b6
000003f0: 9922 e735 8c11 27b7 ac0f f3b6 b6fe 13b7
