logs/rsl_rl/franka_reach/2025-06-29_12-06-47/model_0.pt (torch, 172231 bytes, 36 tensors)

std f4 [7]
000000 40 c6 80 3f 73 3e 80 3f ec 62 7f 3f ee a5 7f 3f
       1.0060501 1.0019058 0.9976032 0.99862564
000010 eb 1b 7f 3f 92 66 7e 3f aa d7 7e 3f
       0.99651974 0.9937526 0.9954783

actor.0.weight f4 [64, 32]
000000 58 9a 0b 3e 17 a2 16 3e 74 62 19 bd 11 a2 28 3e
       0.13633096 0.1471027 -0.037447408 0.16468073
000010 86 ad 19 bd b7 46 28 3d fa 4b c1 bd 88 37 d1 3d
       -0.037519 0.041083064 -0.094383195 0.1021567
000020 89 2d 1e 3e 98 a1 00 be 30 58 1a 3e 84 17 2b 3d
       0.15447058 -0.12561643 0.15072703 0.041770473
000030 61 b0 ff 3d 32 c4 fc 3c 42 13 b8 3d 60 f9 ff bc
       0.124848135 0.030855272 0.08988048 -0.031246841
000040 55 00 0d 3e 0a 8e 08 3d b3 e9 a8 bd ef 07 5a 3d
       0.13769658 0.033338584 -0.082476996 0.053230222
000050 0f 60 a1 bd 4d 2b aa bc 37 b3 91 bd 6a c9 f1 3d
       -0.0787965 -0.0207726 -0.07114261 0.11805995
000060 ac f1 0e be 73 54 aa bd a4 8b 68 bd 6c fb c9 bd
       -0.13959378 -0.08316889 -0.056773797 -0.09862408
000070 dd 14 b7 3c 0f ef 28 be 17 a6 26 3e d0 85 20 be
       0.022348816 -0.16497444 0.16274296 -0.15676045
000080 9f ed 0b 3e cb 27 0e 3d fa 45 59 bd 69 fa ce 3d
       0.13664864 0.03470592 -0.05304525 0.10106356
000090 ab e4 ce 3c f8 e0 0e 3e 68 5f d8 3c 34 56 75 bd
       0.025255522 0.13953006 0.02641268 -0.059896663
0000a0 8c bc 2e 3d 44 08 60 bd 56 e5 88 3d c4 eb 28 3e
       0.04266028 -0.054695383 0.06684367 0.16496187
0000b0 71 78 d1 3d bd 95 9b bd 24 68 ce 3d 48 a9 d0 3c
       0.102280505 -0.0759692 0.10078457 0.025471345
0000c0 9f 64 a5 3d e8 09 ed bd bb 18 2a be c6 01 99 bd
       0.080758326 -0.11574155 -0.16610996 -0.074710414
0000d0 be f3 00 be f4 5c 14 3e ef b5 71 3d c4 2c a9 3d
       -0.1259298 0.14488584 0.059011396 0.082604915
0000e0 19 7c 65 3d 27 d1 16 bc a9 a9 07 3e 30 39 01 be
       0.056026552 -0.009205139 0.13248314 -0.12619472
0000f0 91 16 17 3c 91 d2 f5 bd 06 de 5d 3d b2 24 84 bd
       0.009221689 -0.12003053 0.054166816 -0.064523116
000100 04 a4 3f 3d 46 50 0b bd cf 4f 1c 3e 9f d1 cf bd
       0.046787277 -0.0340121 0.1526482 -0.10147404
000110 67 e5 dd bd 35 14 e9 bd 85 6b 25 3e eb a1 59 3d
       -0.10834771 -0.11380807 0.16154297 0.053132933
000120 9b a6 27 3e 93 80 17 be fb cf 3a be 19 06 0b be
       0.16372149 -0.14795141 -0.18243401 -0.13576545
000130 8a 82 fa bd af 8f 8e 3d e6 27 7a 3d f7 87 14 3e
       -0.122319296 0.06960999 0.061073206 0.14504991
000140 55 01 ce bd 36 b8 04 be 47 14 cd 3d fe c1 a5 bd
       -0.10058848 -0.12960896 0.10013633 -0.08093642
000150 85 39 eb 3d 17 cc 2c bd 74 09 e2 3d c8 bd 05 be
       0.1148558 -0.042186823 0.11036959 -0.13060677
000160 ed 57 b6 bd 58 f5 42 3d da 4a 03 3d 4d 4a 2e bd
       -0.08903489 0.04759726 0.032053806 -0.042551327
000170 91 1c e1 3d 8f 80 f5 3d c1 bb 0b be ac a6 ce bd
       0.10991777 0.11987411 -0.13645841 -0.10090384
000180 b2 cd 25 3e 64 f5 82 bd 54 98 64 bd b2 0f 33 be
       0.16191748 -0.06394461 -0.055809334 -0.17486456
000190 cd 4c d6 bd c1 9e 4e 3d 14 2d bd bc 98 75 fb bd
       -0.10463867 0.05044437 -0.023092784 -0.122782886
0001a0 d8 57 22 3c f1 39 e8 bd 03 ca 11 be c0 d9 cb bd
       0.009908639 -0.113391764 -0.14237218 -0.09953642
0001b0 20 6e 21 be 55 88 e7 bd d9 3c 31 3e dc c6 1f 3d
       -0.15764666 -0.113053 0.17308368 0.039008006
0001c0 ea f8 82 3d 92 44 1f be 08 0f f9 bd b9 a0 64 bd
       0.06395133 -0.15553501 -0.1216107 -0.05581734
0001d0 21 b2 b3 3c 2c 27 1f be 4b c6 98 bd 4c a8 e6 bd
       0.021935524 -0.15542287 -0.074596964 -0.11262569
0001e0 ff 2e 02 3a 3c 70 73 bd c4 2e 4d bc 1c 39 ea bd
       0.00049661094 -0.059433207 -0.012523357 -0.11436674
0001f0 e6 64 e8 bd c6 f4 e0 bd 0d c5 81 bd 9d 44 0b be
       -0.1134737 -0.10984187 -0.063364126 -0.13600393
000200 f8 46 1c 3e c3 5d 12 bd c4 32 1c 3e 10 28 45 3d
       0.15261447 -0.03573395 0.1525374 0.04813391
000210 e0 f7 19 be ca 65 ee 3d 78 a8 47 bd 62 e8 86 bd
       -0.15035963 0.116405085 -0.04874465 -0.06587292
000220 2f b5 15 be 8b 5a 2f be 8d a4 4a 3d 23 06 19 bd
       -0.14619897 -0.17124383 0.049473334 -0.037359368
000230 d9 96 9a 3d 4c f1 12 be b5 dd 08 3e f7 39 07 be
       0.07548303 -0.1434986 0.13365825 -0.13205706
000240 2b 67 ec bc bf 4a 12 3d 0d bc b8 3d c3 b7 14 3e
       -0.028857788 0.035715815 0.09020243 0.14523225
000250 be 88 24 3e 1e 7e 0f be 34 b1 3e 3d 93 e3 9f bd
       0.16067788 -0.14012954 0.046555713 -0.07807078
000260 e3 75 9e bc 49 7d 04 be 8a 5e 21 3e 78 b9 08 be
       -0.019343322 -0.12938417 0.1575872 -0.13352
000270 f9 21 cc 3d 17 df 8e 3d ed 76 82 3d d1 55 c2 bd
       0.09967417 0.06976145 0.063703395 -0.094890244
000280 a8 8b 23 3e 08 c5 17 3d 52 98 a4 3c 59 82 1f be
       0.15971243 0.037053138 0.020092163 -0.15577067
000290 59 ed 84 3d 59 bf b2 bc df a6 a4 bd d4 93 1b 3e
       0.06490583 -0.021819757 -0.08039641 0.1519311
0002a0 b5 02 1f 3d 96 75 cc bd de f9 ae bd 37 a4 16 bc
       0.03882094 -0.09983365 -0.08543752 -0.009194425
0002b0 45 dc c4 3d 34 a8 58 bd 9b df d5 bd b4 f9 86 bd
       0.096123256 -0.052894786 -0.1044304 -0.06590596
0002c0 08 fe 0a be fc f7 72 3d f1 31 0d 3e 7a 91 32 be
       -0.13573468 0.059318528 0.13788582 -0.17438307
0002d0 eb 76 2b 3d 47 f9 ba 3d 02 a7 e6 3c f6 fb 78 bd
       0.041861456 0.09129577 0.028155807 -0.060787164
0002e0 9d ee bc 3d b3 63 c0 3d f5 cb 8b 3d 88 f4 00 bd
       0.09225199 0.09394016 0.06826011 -0.031483203
0002f0 95 7e 51 bd f3 6e 60 3c 91 13 08 bd 57 57 69 bd
       -0.05114611 0.013698327 -0.033221785 -0.05696806
000300 ad 29 eb 3d e7 e7 16 3e 10 f1 8c bc 87 26 35 bd
       0.114825584 0.14736901 -0.017204791 -0.044226196
000310 68 ce 71 ba 94 b9 95 bb 07 97 0d 3d ba e1 67 3d
       -0.00092241773 -0.004569242 0.03456786 0.056611754
000320 76 0d 1e be 94 34 6e bd 67 c6 20 3e 38 4a 9b 3d
       -0.15434822 -0.05815561 0.15700684 0.075825155
000330 43 54 46 bb 8f c9 e2 bd 1b 10 cc bd b6 e3 1d be
       -0.0030262626 -0.110736005 -0.099640094 -0.15418896
000340 49 c9 43 bd ca 93 8d 3d dc 49 d9 3d 9e 7c ba 3d
       -0.047799382 0.06912954 0.10609791 0.091058
000350 a2 9c 26 be 7f 27 d9 bd 7a cf 03 bd f7 fa 28 3e
       -0.16270688 -0.106032364 -0.032180287 0.16501985
000360 77 c5 cf 3c 4e 9e 1e bd 0c aa 9c 3d 3f 6a 81 bd
       0.025362713 -0.03872519 0.07649621 -0.06319093
000370 af 1e db bd 4a 90 fd 3d 71 c8 9e bd 04 ac 00 bd
       -0.10699212 0.123810366 -0.07753075 -0.031414047
000380 27 be 35 be 3a 69 ed 3d 86 7d 0d 3e 67 55 71 3d
       -0.17748319 0.11592336 0.13817415 0.058919337
000390 39 93 fe bd 66 e9 33 be 34 19 0b be 1f 85 09 3e
       -0.12430424 -0.17569503 -0.13583833 0.13429688
0003a0 15 0a af 3d 9a 66 15 3e a7 26 b8 3d 8b 02 35 3d
       0.08546845 0.1458992 0.08991747 0.04419188
0003b0 18 b6 b0 ba 57 71 10 be 10 57 1f be e3 f0 2b be
       -0.0013482003 -0.14105736 -0.15560555 -0.1679111
0003c0 0a ce 86 3d ef 58 c1 bd 3a 96 0c bd b9 18 e0 bd
       0.065822676 -0.09440791 -0.034322955 -0.109422155
0003d0 1a 85 f9 bc 58 dc fe bd 11 53 dc bd e7 56 76 3d
       -0.030458976 -0.12444371 -0.10758031 0.06014147
0003e0 12 80 56 bd 26 3e d2 3d a6 48 5e bd f8 45 05 be
       -0.05236823 0.1026576 -0.0542685 -0.13014972
0003f0 24 05 b6 bc 2e e1 b0 bd a6 d0 64 bd f7 05 2c be
       -0.022219248 -0.086366996 -0.055863045 -0.1679915

actor.0.bias f4 [64]
000000 23 ee a9 3d 54 93 3f 3d 98 f1 ee bc 08 9d 9e 3d
       0.08297374 0.046771362 -0.029167935 0.07744795
000010 62 9f 82 3d 9f 7a 21 be af 28 e2 bd 40 2d e8 3b
       0.06378056 -0.15769432 -0.11042916 0.0070854723
000020 8c d4 8e 3d 31 b3 a3 3d 05 37 df bd af b2 39 be
       0.06974134 0.079931624 -0.10899166 -0.18134569
000030 52 9b 82 bc 92 e2 a0 bc b3 62 5a 3d 1f d4 37 bd
       -0.015943203 -0.019639287 0.053316783 -0.04488003
000040 4c 69 07 3e 38 e8 2f 3c 70 be fc 3d 5a 88 04 be
       0.13223761 0.010736518 0.123410106 -0.12942639
000050 b3 69 89 3d 20 d3 da 3c 10 1b bd bd b1 66 ab 3d
       0.06709614 0.026712 -0.092336774 0.08369196
000060 1b 21 2b be 7a 03 13 3e 4e f4 90 3c 2c c6 60 3c
       -0.16711847 0.14356795 0.017694619 0.013719123
000070 b1 bd 99 3d 33 90 4c 3c f8 ef 91 3d f1 02 d7 3d
       0.07506884 0.012485552 0.071258485 0.10498608
000080 32 e9 0c be 7d 80 e7 3d b8 47 09 bd cf 6e 2c bd
       -0.13760832 0.11303804 -0.033515662 -0.042097863
000090 0b 42 0f 3d c6 67 0b 3e bd 79 c3 bd 51 27 fc bd
       0.034975093 0.13613805 -0.09544704 -0.123121865
0000a0 c5 64 d4 3d 00 b5 b1 bd ee a4 58 3d 75 b2 bf bc
       0.10370783 -0.08677101 0.052891664 -0.023400525
0000b0 a9 64 40 3d 7b ee 09 3e fb cb ac bd 8f a2 b3 bd
       0.046970997 0.1346988 -0.08437344 -0.0877124
0000c0 a1 8c ac 3d 60 6e 0d 3c ab c5 98 bc df 5c 1e be
       0.0842526 0.0086322725 -0.018648943 -0.15465115
0000d0 f8 ee 12 3e da 56 d5 ba 44 8b 08 bd f0 b3 94 bd
       0.14348972 -0.0016276494 -0.03333594 -0.07260883
0000e0 da 5d 1c bd 3e 56 bd 3d ee 92 2b bb 2d 6e 17 3e
       -0.03817544 0.09244965 -0.0026180106 0.14788122
0000f0 fb fa 82 bc 68 4b f4 bc f2 1d d1 3d 54 42 0e bc
       -0.015988817 -0.029821113 0.1021079 -0.008682806

actor.2.weight f4 [64, 64]
000000 3d 51 02 bd 8b b8 19 3d 8a fc d0 3d b4 9c fb 3c
       -0.031815756 0.03752951 0.10204418 0.03071437
000010 84 04 a8 3d f8 19 a8 3d 0e eb fa 3c 6a 54 28 3d
       0.08203986 0.08208078 0.030629661 0.04109613
000020 90 e5 26 3d 63 f6 7d 3c 71 6f ca 3d 4c 61 e2 3d
       0.04074627 0.015500638 0.09884537 0.11053714
000030 33 01 17 3d e7 76 a2 bb a8 35 ea 3d 3f 65 c7 bd
       0.036866378 -0.004958022 0.11436015 -0.09736108
000040 61 82 cc 3d bb eb 71 3d 6e 9c b1 3d 1a 22 27 bc
       0.09985805 0.0590627 0.08672415 -0.010201002
000050 41 b5 c8 bd d8 7d b9 3d bb ea 74 bd 13 fd c9 3c
       -0.098001964 0.09057206 -0.05979417 0.024656808
000060 c8 af 8d 3d c1 b6 f2 bd c0 79 2a 3b 5d 78 3b bd
       0.06918293 -0.11851264 0.002601251 -0.045769084
000070 64 2f c5 3d 57 5e b1 bd e8 e1 a8 3d 19 f7 a1 3d
       0.0962818 -0.08660572 0.08246213 0.07908458
000080 56 55 85 3d de 40 f6 3d c4 eb 94 3c 61 9b d8 bd
       0.06510417 0.12024091 0.018178828 -0.10576511
000090 42 ce b2 3d fd 5c 09 3c 2b 65 a5 3b f1 3b f6 bd
       0.08730747 0.008383987 0.0050474606 -0.12023152
0000a0 48 30 0a bd 55 45 7c bd 7d 64 ed 3d 1a 20 c3 3d
       -0.03373745 -0.061589558 0.11591432 0.09527607
0000b0 05 2a cc 3d 74 e3 a1 3d 24 aa 93 bd f6 8c 5c bd
       0.09968952 0.07904711 -0.07210186 -0.05384537
0000c0 a0 3c 60 bd 61 a3 67 bd 00 fb c1 3d 40 b5 37 3d
       -0.054745317 -0.056552295 0.094717026 0.044850588
0000d0 70 24 ce 3d 79 4e 0c bc df f3 d1 bd a6 e6 1b bd
       0.10065544 -0.008563631 -0.10251593 -0.03806176
0000e0 58 ba ac 3d 92 89 96 3d 7b d5 24 3d 5d ce 1d bd
       0.0843398 0.07350458 0.040242653 -0.03852688
0000f0 a5 5f e5 bd 1b c5 7a bd d8 02 7d 3d 8e ff 40 bd
       -0.11199883 -0.06122313 0.06177029 -0.047118716
000100 4d 38 79 3d 0a d9 20 3d 62 d0 4d bd 54 ab 91 3d
       0.06084471 0.039269485 -0.050247557 0.07112756
000110 84 ea 3d bd dd 53 2e bc 2f fe 67 bd 38 53 fa bd
       -0.04636623 -0.010640112 -0.056638893 -0.12222904
000120 5a f2 88 3c ac bb e8 3c e5 9e 7c bd d5 75 97 3d
       0.016717125 0.028409801 -0.06167497 0.073955216
000130 f1 d2 ec bd 74 a1 ec bd 1a 61 a9 bd 88 7e 30 bd
       -0.115636714 -0.11554232 -0.08270474 -0.04308942
000140 58 f1 1b bc 7f 1b b7 bc fb a2 6a 3d 9b 52 ef bd
       -0.00951799 -0.022351978 0.057284337 -0.116856776
000150 4c 27 c2 3c eb b3 d3 bb 9c 93 07 3d fc 8d 00 3e
       0.023700379 -0.006460657 0.033099756 0.12554163
000160 ab 39 a0 3d 0a c4 8e bd d7 23 d8 bd b9 7a c3 bc
       0.07823499 -0.06970985 -0.10553711 -0.02386223
000170 f4 79 81 bd 10 39 2d 3d 9c b2 1b 3b 20 23 ba 3d
       -0.06322089 0.042290747 0.0023757583 0.09088731
000180 dc bf 42 3d 54 92 94 bc b8 0c 4e 3c e5 60 d2 3c
       0.047546253 -0.018136181 0.012576275 0.025680969
000190 d0 8f 73 bc ce 29 c9 3d 8c 28 c6 bd aa ac 6c 3d
       -0.014865831 0.09822427 -0.096757025 0.057781853
0001a0 fa 11 95 bd c7 ed d4 bd 6b a8 b7 bc fc 35 6d 3d
       -0.072788194 -0.10396915 -0.022419175 0.05791281
0001b0 3e 95 a8 3d 61 29 c4 3c ee fe 9b bb 28 2f 9d bb
       0.08231591 0.023945512 -0.0047606146 -0.004796881
0001c0 3b 54 4b bd 61 a7 47 bc f7 d5 5d bc 36 8d d3 3d
       -0.049640875 -0.012185902 -0.013539783 0.10329668
0001d0 5b e7 97 3d ff 30 bb bd 7d 04 c3 3b 8f a0 97 bd
       0.074171744 -0.09140205 0.005951463 -0.07403671
0001e0 d7 48 a2 bc 3f 87 c9 bd 27 25 1d 3d a6 6d ba bd
       -0.019810123 -0.09840249 0.03836551 -0.09102945
0001f0 d1 37 f6 3d 1e cb ca 3d 88 27 be bd 9e 79 ee bd
       0.12022365 0.09902023 -0.09284884 -0.116442904
000200 bc 96 89 3b 33 92 05 bd c4 d7 16 3d 9b db a8 bd
       0.004198877 -0.03261013 0.036826864 -0.082450114
000210 56 be 5a 3d bc 16 dd bd ba c3 85 bd 79 33 86 bd
       0.053404175 -0.10795352 -0.065314725 -0.065527864
000220 81 28 7b 3d f7 62 50 bb 27 b8 f3 bd a0 8c 9c bd
       0.061317924 -0.003179727 -0.11900359 -0.076440096
000230 ba 8c 84 bd 03 50 f7 bd 32 e4 78 3c 09 33 32 3d
       -0.06472154 -0.12075808 0.015191125 0.043505702
000240 18 99 7d bc b4 f8 67 bd 42 d2 b9 ba 5d fd c5 bd
       -0.015478395 -0.056633666 -0.0014177042 -0.09667466
000250 d3 b6 a5 bd 9b d5 1d bb e0 bb e4 3d 82 6f 31 bd
       -0.080915116 -0.0024083618 0.11168647 -0.043319233
000260 96 fb 69 3d 17 dd 44 bd 2f 6c e5 bc 6b 15 f3 bd
       0.057124697 -0.04806241 -0.028005688 -0.118693195
000270 04 96 d3 3d 33 df f3 3d 3e 0d b4 39 68 3c b1 3d
       0.103313476 0.11907806 0.00034342142 0.086541
000280 6d a0 d5 3d 2f a1 6d 3d b6 e3 80 3d c0 88 eb bd
       0.104309894 0.058015045 0.062934324 -0.11500692
000290 7f bf f3 bd 43 9d cb bd 0f 67 29 3d f9 15 e4 bd
       -0.11901759 -0.09942105 0.04135805 -0.111370035
0002a0 29 ce c3 bd 73 08 61 bd f6 32 e5 bd d3 fc 2c 3b
       -0.09560806 -0.0549397 -0.11191361 0.0026395812
0002b0 62 eb 60 3c 92 73 9d bd 42 e1 b2 3d ad 9c 3d bd
       0.013727995 -0.07688059 0.08734371 -0.046291996
0002c0 e3 6b 07 bd 73 e7 c0 3d fa 0f e0 3d 11 8a 4a bc
       -0.033061873 0.094191454 0.10940547 -0.012362019
0002d0 83 35 ae bd 94 3c 91 bd 8d 99 68 3c fc 22 9b 3d
       -0.085063 -0.070916325 0.014196766 0.07575032
0002e0 c2 bc 7b 3d 2b 7f 63 bd 93 f2 ef bd 41 26 e1 bd
       0.06145931 -0.0555412 -0.11716189 -0.109936245
0002f0 07 24 27 bd 2d b4 a8 3b 81 3e 6d bd 35 f2 c6 bd
       -0.040805843 0.0051484318 -0.057920936 -0.09714166
000300 d9 d2 85 3c ac 82 cc bd d1 17 d0 bd 68 d3 d7 bd
       0.016335892 -0.09985861 -0.101607926 -0.105383694
000310 0a 0b f7 bc 43 36 d6 3d 05 dd 5c 3d b1 f3 34 bc
       -0.030156631 0.10459568 0.05392172 -0.011044429
000320 76 b4 dd 3c 85 5f 4f 3d ba e4 1d 3c 30 4d cd bd
       0.02706359 0.050628204 0.009637052 -0.10024488
000330 7a 44 90 bd fb b0 aa bd 24 98 58 3a 6f 8a ef bd
       -0.07044311 -0.083345376 0.0008262417 -0.11696326
000340 bf 9d f4 bc e5 e7 20 bd 6d 0d ec 3d 3e 3d d1 3d
       -0.029860375 -0.03928365 0.11525998 0.10216759
000350 ec 6e 98 3d 00 a9 b2 3b b2 67 01 bd 6a 1b 15 3d
       0.07443032 0.0054522753 -0.031593032 0.036403097
000360 56 c7 aa bd 0f ee 61 bd e3 cb 81 bc cc b0 00 bd
       -0.083388016 -0.05515867 -0.015844291 -0.031418607
000370 ac 5e fd bd 5b 98 6b 3d 03 07 c0 3d 83 35 8d bd
       -0.12371573 0.057518344 0.093763374 -0.06894972
000380 8c 71 01 3d dc 62 b2 bc 3b 5b c7 ba 42 19 12 3a
       0.031602427 -0.021775655 -0.0015209684 0.0005573222
000390 fa a8 e1 3d e2 56 ca 3c 5f 8a ad bd d4 c0 26 bd
       0.11018558 0.024699632 -0.08473658 -0.04071124
0003a0 e7 2b 86 3d 63 a6 3a 3d 90 b7 f8 3b c0 36 b1 bc
       0.065513425 0.045568835 0.0075902417 -0.021632552
0003b0 af d3 66 bd eb 36 24 bd c8 99 87 bd a3 2d a6 3c
       -0.05635422 -0.040091436 -0.06621128 0.020285433
0003c0 91 80 2a 3d c0 e8 d2 3d b4 e9 c5 bc e8 3b eb 3b
       0.041626517 0.102983 -0.02415929 0.0071787722
0003d0 7f f0 94 3d 03 2b 6a 3d f2 9b 43 3c 7d cf 37 3d
       0.072724335 0.057169925 0.011939036 0.04487561
0003e0 ba 03 15 3c 47 b7 d3 bd 5b e1 8e 3b b0 f8 d1 bc
       0.009095127 -0.10337692 0.0043603606 -0.025631279
0003f0 26 fd dd 3d 2b 7d e9 3d 97 ae d8 3c 4c 2a dc 3d
       0.108393 0.11400827 0.026450438 0.10750255

actor.2.bias f4 [64]
000000 42 f2 90 bd 8c da 98 bd 38 3f 93 bd 80 8f 76 bd
       -0.07077457 -0.074635595 -0.071897924 -0.060195446
000010 1f 3c a5 bd f3 14 85 bd 23 63 27 bd 06 c6 ef bd
       -0.08068108 -0.06498136 -0.04086603 -0.11707692
000020 1f a4 c0 3d 74 2d 17 3d 00 33 fb bd 0d d2 03 be
       0.094063036 0.03690858 -0.12265587 -0.12873097
000030 67 5b 82 bd b8 55 39 3d c4 63 e8 3d e9 c9 a8 bc
       -0.0636509 0.045247763 0.11347154 -0.02060409
000040 12 ea a0 3d 20 2a 7e bd 46 25 c0 bc 6d 17 d2 bc
       0.07857145 -0.062051892 -0.023455273 -0.025645936
000050 47 4f f6 bd 53 0a 7b 3b ec 85 1a 3d df 7f 96 3d
       -0.1202684 0.0038305714 0.037725374 0.07348608
000060 c0 2a c3 bd 3e b7 e5 bc 4b fe 52 3c d3 bc 1e 3c
       -0.09529638 -0.028041478 0.012878011 0.009688574
000070 a9 3e 90 3c a8 c8 b6 bd 8b 8b be 3d 1a 8a d8 bd
       0.017608004 -0.08924991 0.093039595 -0.10573216
000080 f3 b6 39 bd c3 fc 74 3d 93 33 06 bd 22 6f 5b bd
       -0.04534049 0.059811365 -0.03276403 -0.05357278
000090 fe 28 fe bd 64 8f ae 3d 37 dc 11 bc fc e7 5c 3d
       -0.124101624 0.08523443 -0.008902601 0.053932175
0000a0 cb f2 bd 3c 42 ad ae bd 78 86 4d bd 1d 35 a8 3d
       0.023187062 -0.0852914 -0.050177068 0.082132556
0000b0 31 a3 78 bd c1 43 83 bd 36 99 88 3d 5b 0f 69 bd
       -0.060702506 -0.064094074 0.06669848 -0.05689941
0000c0 b8 8a 6d 3c 2d 47 85 bd cf a9 24 3d 7d dc 6d 3c
       0.014498405 -0.06507716 0.040201005 0.0145179005
0000d0 90 6e c5 bd be 30 c9 bd 97 b3 33 3d 39 17 33 bd
       -0.09640229 -0.0982375 0.043872442 -0.04372332
0000e0 39 80 86 3d b1 ce 07 3c 53 3e 2b bd 35 4b a4 bc
       0.06567425 0.008289025 -0.041807484 -0.020055393
0000f0 05 fc 6d bd a9 54 88 3d 04 94 d6 3d c9 50 f3 bb
       -0.058101673 0.06656773 0.104774505 -0.007425402

actor.4.weight f4 [7, 64]
000000 ec f6 a2 bd 94 31 a8 3d 85 8d c2 3d 13 ce a9 3d
       -0.07957253 0.08212581 0.09499649 0.08291259
000010 c0 70 08 bc 74 ba f7 3c bf 7f 39 3c 49 cb 40 bd
       -0.008327663 0.030240275 0.011321961 -0.047068868
000020 9a 1b 05 be c7 fa 61 bc d1 b9 60 3d 2d c1 9f 3d
       -0.1299881 -0.0137927 0.05486471 0.07800517
000030 f8 98 e2 3c 2a 07 6a 3d 28 7a 90 3d ed 8d e3 bc
       0.027660832 0.05713574 0.070545495 -0.027777636
000040 56 be a5 3d e7 62 c9 bb f1 3b 4b bd 10 72 2d bd
       0.08092944 -0.0061458233 -0.04961771 -0.042345107
000050 3c fc 8b bd ff a4 ca bd c9 81 f6 3c 8e ee f7 3d
       -0.06835219 -0.09894752 0.030091183 0.121060476
000060 4d 11 90 3c ab 9f 98 3c c5 45 2c bd b7 ea 49 bd
       0.017586375 0.018630823 -0.042058725 -0.049296107
000070 62 ee 03 bd fc e8 49 3d cb 00 a4 3c fa 74 4f bd
       -0.03220976 0.049294457 0.02001991 -0.050648667
000080 ab 3f d4 3c 5b ff be bc bb 8f ff ba 22 d9 a8 3d
       0.025909266 -0.023315122 -0.0019497791 0.0824454
000090 80 14 50 bd 82 a8 e1 3d ee 16 85 bd f4 93 ed 3d
       -0.0508008 0.110184684 -0.06498514 0.116004854
0000a0 15 0b 51 3d 36 18 4e 3d cc 56 d4 bc fc 9f 0f bd
       0.05103596 0.050316058 -0.025920294 -0.035064682
0000b0 0e 11 c5 bd 30 36 fa bd e5 bd af 3d f1 b5 fc 3d
       -0.096223935 -0.12217367 0.085811414 0.1233939
0000c0 23 f6 0b 3d 6a f0 43 bd 4c eb ee 3c 0e 78 3c bc
       0.03417028 -0.0478367 0.029164933 -0.011503233
0000d0 dc 04 e2 bd 60 8a c6 bd c8 14 2e 3d d7 44 0d bd
       -0.11036083 -0.09694362 0.042500287 -0.03448948
0000e0 1d ce 02 bd 26 46 9e bd bf 4c 4b 3d 9a e1 77 bd
       -0.031934846 -0.077282235 0.049633738 -0.060517885
0000f0 68 cb 3b bd e5 2c 96 3d fb 50 eb 3d 98 11 ea 3d
       -0.04584828 0.07332782 0.11490055 0.11429137
000100 c5 70 3b 3d 3c 23 8c 3b 2e ed c0 3d 51 0c eb 3d
       0.045761842 0.004276661 0.094202384 0.114769585
000110 47 f0 63 3d ef f7 1e 3d 3f 20 e1 3c 90 82 b6 3c
       0.05564907 0.038810667 0.027481196 0.022279054
000120 96 f6 a5 3d 5e 65 2a 3d 79 62 e3 bd d0 78 9d bd
       0.08103673 0.041600578 -0.111027665 -0.07689059
000130 ff 89 e7 bd 99 dc 19 bd bb 32 98 3b a8 c0 60 bd
       -0.113056175 -0.037563894 0.0046447194 -0.05487123
000140 95 bd e8 bd 62 b5 9a bd 20 7f 51 3d 01 29 c0 bb
       -0.11364285 -0.07554127 0.051146626 -0.005864263
000150 7f a5 ae bc 1c 4e 8b 3c 50 91 b4 bc 09 1d 83 bd
       -0.021319149 0.017005019 -0.022041947 -0.064020224
000160 1c e9 7c bd 30 a5 5a bd 7d e7 f2 bd 33 14 ef bd
       -0.061745748 -0.05338019 -0.11860559 -0.116737746
000170 43 54 37 bd 8b f9 38 3d ba 5d f8 3d 63 c9 a9 bb
       -0.044758093 0.045159858 0.12127252 -0.005181478
000180 e3 5a a3 3d c0 c7 2d 3d 3d 41 c8 bd 0f 4f 7f bd
       0.0797632 0.042426825 -0.09778068 -0.062331256
000190 cb 97 18 bd 77 f6 c6 bd 49 b2 94 3c 01 f8 0b 3d
       -0.037254136 -0.09714978 0.01815142 0.03417206
0001a0 7f 27 c9 bd 6d e0 07 bd 4a ae e5 bd 1b 82 f9 3d
       -0.098219864 -0.033173013 -0.112148836 0.12183019
0001b0 96 2c 8e 3d ee 79 3a bd 41 76 eb 3d 04 c8 9e bd
       0.06942098 -0.045526437 0.114971645 -0.07752994
0001c0 e0 b6 c4 3d ad 4b 44 bd 31 53 21 3d c9 bc b6 3d
       0.09605193 -0.047923733 0.039385978 0.08922727
0001d0 22 94 87 3d bf 12 14 3d 96 ec 73 bc 8c 04 83 ba
       0.06620051 0.03615069 -0.014887949 -0.0009995862
0001e0 a1 8f ca 3d 6d 6d 0a bd 12 1e 1f bd 4f 7e 98 3c
       0.09890676 -0.033795763 -0.038847037 0.018614916
0001f0 cf 5c 83 bd b3 15 2a bd c3 96 14 3c 1e 8a ba 3d
       -0.06414186 -0.0415246 0.0090691475 0.09108375
000200 a8 c3 45 3d ac bf 95 bd 58 7d 98 3d bd aa 51 bd
       0.048282295 -0.07311949 0.074457824 -0.05118822
000210 0e 1b c8 3c f9 19 71 3c 6d ce ac 3d a0 e6 b7 bc
       0.024426963 0.014715665 0.0843781 -0.022448838
000220 23 27 4a bd 18 d0 e5 bc 0c 58 d2 3b f4 aa 61 bd
       -0.04935373 -0.028053328 0.0064191874 -0.055094674
000230 c9 be a2 3d c1 2a 73 bd 4f 17 df 3c 1b 23 bb bd
       0.07946546 -0.059366945 0.027232794 -0.09137555
000240 01 28 81 bc e1 a2 c7 bc 80 7a 5c bd b5 a9 6c 3d
       -0.015766146 -0.024369659 -0.053827763 0.057779033
000250 de 5f f4 bd f7 02 81 3c c2 58 89 bc 3f c9 82 bd
       -0.11932348 0.015748484 -0.016765956 -0.06386041
000260 a1 6b be 3d e7 74 9e 3d c6 88 10 3d 56 52 51 3b
       0.09297872 0.07737141 0.035286687 0.0031939945
000270 4c ab 8d 3d 92 30 7e bd eb a7 c0 bd aa d4 e5 3d
       0.06917438 -0.06205804 -0.09407028 0.11222203
000280 7f 75 26 bd a6 56 d2 3c e0 fa 47 bb 94 4e db 3d
       -0.040639397 0.025676083 -0.0030514523 0.10708347
000290 68 87 01 3e 45 ee 9e bd 0b 98 67 bb 04 78 da bd
       0.1264931 -0.0776029 -0.0035338427 -0.106674224
0002a0 82 8e a9 3d b1 05 f9 3d b1 38 26 bd 55 f1 87 3c
       0.08279134 0.12159289 -0.04058141 0.016594568
0002b0 d1 81 09 bd 3d b1 13 bd 4d fc c1 3d 6d 14 df bd
       -0.03357107 -0.0360577 0.09471951 -0.10892568
0002c0 ff 86 14 bc a4 26 ab 3b b9 eb ea bd 43 ef 6a 3d
       -0.009065389 0.005223112 -0.11470742 0.057357084
0002d0 ab 4b 9d 3d ce 55 db bd 73 a1 52 3d c5 4a 1c bc
       0.07680448 -0.10709725 0.0514235 -0.009539311
0002e0 b2 e0 ff 3d 4e e3 fe bd b6 87 da 3d d4 ad 29 bd
       0.12494029 -0.12445699 0.10670416 -0.04142554
0002f0 6e ed dc 3d 27 62 8a bd da ce ba 3c 33 5d a9 3c
       0.107874736 -0.06757002 0.022803713 0.020674324
000300 4f 2c a3 3d 6d d1 65 3d 7c af 93 3d 32 f6 b8 bc
       0.079674356 0.056107927 0.07211205 -0.022578333
000310 03 8f c7 bd 71 c9 c9 3b 32 50 e8 3d a2 d5 da 3d
       -0.09744074 0.006158047 0.11343421 0.106852785
000320 99 51 9d bd 61 15 b2 3d d9 36 5e 3d 3e 8b c9 bc
       -0.07681579 0.08695484 0.054251526 -0.024602529
000330 21 77 89 3d 8b d6 96 ba ec 9b 60 3c b3 ac ac bd
       0.06712175 -0.0011508031 0.01370905 -0.08431377
000340 85 b5 28 bc da a9 01 3e 1a b2 a5 3d eb 6c d6 bd
       -0.010297184 0.1266245 0.08090611 -0.10469993
000350 d5 43 a8 bb 37 8a ae 3d 40 da 51 bd b8 27 a5 bc
       -0.0051350393 0.08522456 -0.05123353 -0.020160541
000360 21 05 7c 3d fe 4b d1 3d 9c 13 dd 3d 1f 6a b9 bd
       0.06152833 0.102195725 0.10794756 -0.09053444
000370 7a 56 fb bd c7 69 ae 3d d0 01 13 bc a2 a3 e8 3d
       -0.122723535 0.08516269 -0.0089726 0.113593355
000380 9c df ad 3d e6 41 54 bd 51 98 02 3d 92 f2 29 3d
       0.08489916 -0.05182066 0.03188354 0.0414911
000390 8e 9e 2d bd af 64 ed 3d 04 5f 94 3b 05 d7 19 bd
       -0.042387538 0.115914695 0.0045279283 -0.037558574
0003a0 73 81 f1 bd 53 fe c8 3d de ab f3 bd 16 fb c6 3d
       -0.117922686 0.098141335 -0.118980154 0.097158596
0003b0 cc b6 2e bd f4 b3 9c bc 32 fa a7 3c 94 97 f9 3d
       -0.042654797 -0.019128777 0.020505045 0.12187114
0003c0 3c dc 9e bd ad ee b7 bd af 95 a2 3d 28 98 64 bd
       -0.0775685 -0.08981071 0.07938706 -0.05580917
0003d0 8f 2e 40 bd fa ec 9c 3d 1b 04 65 bd ae bb a3 3d
       -0.0469194 0.07662387 -0.05591212 0.079947814
0003e0 01 3d 39 bd 4a 30 ca 3d ad 77 04 3e 0c 04 49 3c
       -0.045224193 0.09872492 0.12936278 0.012269031
0003f0 05 73 1a bd 8a ab 8e 3d 4e d5 1e 3d 85 31 36 3b
       -0.037707347 0.06966312 0.038777642 0.0027800512

actor.4.bias f4 [7]
000000 94 08 ab 3d 65 3c 19 bd 38 8b 08 3d 1b f1 16 3d
       0.083512455 -0.037411112 0.033335894 0.03685103
000010 3a d9 8c bd b3 d0 ac 3b 23 2d bc 3c
       -0.0687737 0.0052739023 0.022970742

critic.0.weight f4 [64, 32]
000000 9a 89 2c be 49 7e ea bc 9e 41 d0 3c 70 0d 16 3e
       -0.16849366 -0.02862467 0.025421914 0.14653563
000010 b3 58 15 3d 95 21 20 be d5 cc 36 bd 56 dc 2d 3e
       0.036461543 -0.1563781 -0.044628937 0.16978583
000020 ce 12 e8 bc e8 12 0e 3e 71 c8 5e 3c 07 83 e3 3d
       -0.02832928 0.138744 0.013597594 0.11108976
000030 f0 8c a4 bd e5 43 2a 3e 25 9c 05 3d 85 cb 15 bd
       -0.08034694 0.16627462 0.032619614 -0.036571044
000040 b8 a5 05 3e 80 50 a8 3d c4 13 e8 bd a5 4e a0 bc
       0.13051498 0.08218479 -0.11331895 -0.01956875
000050 e0 57 07 3e 51 3e 34 3d e0 22 40 bd b1 c3 e0 bd
       0.13217115 0.044004742 -0.04690826 -0.10974825
000060 af 82 fd bd 98 4b d3 3d bc 6d 91 3d 8e 06 23 be
       -0.123784415 0.10317153 0.07101008 -0.15920469
000070 76 08 eb bc 1f b5 13 3d cd e0 22 be f4 ef 1d 3e
       -0.028690558 0.036061402 -0.15906067 0.15423566
000080 e5 e8 ab bc 2a 49 9d bd c6 43 9b 3c 4c 03 86 3d
       -0.020985076 -0.076799706 0.018953215 0.065435976
000090 26 98 2d 3d 4b 88 30 3e 69 0f ba 3d cb 66 67 bc
       0.04238143 0.17239492 0.090849705 -0.014123629
0000a0 01 20 08 3d 13 d6 21 3d f9 b0 85 bd 08 3c 17 be
       0.033233646 0.039510798 -0.065278955 -0.14768994
0000b0 88 94 8d bc 0d 2c 83 bd 1c 4e 27 be 83 73 81 3d
       -0.01728274 -0.064048864 -0.1633839 0.0632086
0000c0 53 e2 8d bd d0 3d 31 3e 80 a7 73 3d b5 e6 ad 3d
       -0.069279335 0.17308736 0.059485912 0.084912695
0000d0 d3 e6 43 3d 6a 62 8d 3d 75 68 db 3d 5f 1c 01 3e
       0.047827553 0.069035366 0.10713283 0.12608479
0000e0 92 84 1e bc 77 f9 53 bd 04 42 5f 3d ab ad 9f bd
       -0.009675162 -0.05175158 0.054506317 -0.077967964
0000f0 db b8 7e bc b6 e9 63 3d 5f fe 9e 3d 6d 97 30 be
       -0.015547003 0.055642806 0.07763361 -0.17245264
000100 e0 e0 89 3d 55 25 95 bd 18 45 00 be 7d fb 92 bd
       0.067323446 -0.07282511 -0.12526357 -0.07176874
000110 7d d3 99 bb b1 45 bc 3d ae 01 2b be ef dc 4c 3d
       -0.004694401 0.0919298 -0.1669986 0.050015386
000120 f2 4b 25 3e e7 00 cf bd 25 e2 2c 3d f6 31 8d bd
       0.16142252 -0.10107594 0.042207856 -0.06894295
000130 6c 23 31 3d e9 2f a1 3d 37 33 da bd de 39 2e 3d
       0.04324667 0.07870466 -0.106543 0.042535655
000140 56 13 37 3e ad 80 74 3c 4f 4c 03 be c1 69 4c 3c
       0.1787847 0.014923257 -0.12822078 0.012476386
000150 54 eb 13 3d 13 21 5f 3d c3 4a 98 bc e9 ca 26 bd
       0.0361131 0.0544749 -0.018590337 -0.040720854
000160 61 07 b4 bd 57 24 e9 3d 82 30 c1 bd e5 7d 77 bd
       -0.0879047 0.113838844 -0.0943308 -0.060422797
000170 d4 0d e3 3d 50 dc a3 bd d3 a2 cd bc 36 0f 91 bd
       0.11086622 -0.08001006 -0.025102055 -0.070829794
000180 7c 8d 26 be fb ab a2 3d d5 4e 9b bd ac c2 b9 bd
       -0.1626491 0.07942959 -0.075833954 -0.09070334
000190 15 9e 0a bd 70 33 5b 3d 4f ef 1e 3e 89 15 27 3e
       -0.033842165 0.05351585 0.15520976 0.16316809
0001a0 0b 1a 16 3c 84 b4 1e be 2d 6c 90 3c bc cc 0c 3c
       0.009161483 -0.15498549 0.017629707 0.008593734
0001b0 35 73 21 3e cf 4b ec bc 96 2d 29 be 84 46 6a 3d
       0.15766604 -0.028844742 -0.16521296 0.057196155
0001c0 61 34 03 bd 60 0c 8d 3d 37 c5 3c 3d cf 0a 7c 3d
       -0.032032374 0.06887126 0.046086516 0.061533745
0001d0 e8 67 ba 3d f9 ca fd bd d3 90 16 be 0d 85 22 3e
       0.0910185 -0.123922296 -0.14703684 0.15871067
0001e0 87 74 25 3e 2b 2f 90 bd 06 10 2a 3e 69 4b 28 3d
       0.16157733 -0.070402466 0.16607675 0.04108754
0001f0 46 5e 23 bd 9e 41 b8 bd 6c c0 ae bd 51 87 08 3e
       -0.039884828 -0.089968905 -0.08532795 0.13332869
000200 c6 a8 dc bd 35 5f 8c bd bd 2e 3c 3e a2 3d b6 bd
       -0.107743785 -0.06854097 0.18377204 -0.08898474
000210 4d e4 30 3e 2b 26 97 3d 78 c5 c6 3d 80 da 1d 3d
       0.1727459 0.07380327 0.09705633 0.038538456
000220 80 84 09 bd 41 a6 a5 3d 99 23 41 3d b0 c8 ca bd
       -0.033573627 0.08088351 0.04715309 -0.09901559
000230 2d c4 15 be 85 4b 15 be d4 36 c2 bc 67 1c 54 3d
       -0.14625616 -0.1457959 -0.023707785 0.0517849
000240 b0 a5 ed bd 2a 86 f3 3c 2f b3 d5 3d fa 18 c0 3d
       -0.11603868 0.02972706 0.10434567 0.09379764
000250 04 dc 81 bd e8 d8 25 3d e5 80 1b be f4 f4 04 3e
       -0.06340793 0.04049006 -0.15185888 0.12984067
000260 cf a9 10 be 79 9f 40 3c 39 d0 7c bd c9 0a 16 be
       -0.14127277 0.011756771 -0.061722014 -0.14652552
000270 97 50 17 be 64 eb ed bd 7e 3c 01 be d5 80 0b 3e
       -0.14776836 -0.11617163 -0.12620732 0.13623364
000280 2f d9 01 bd eb 32 fe bd 44 6c b8 bb 08 37 a0 bd
       -0.031701263 -0.124120556 -0.0056281406 -0.078229964
000290 3f 20 0e bd 32 56 22 3e 31 69 27 be 88 db 17 be
       -0.03469872 0.15853193 -0.16348721 -0.14829838
0002a0 0a 39 47 3d 31 3e f5 3d ef 30 27 be bf 4e 74 3d
       0.04863838 0.11974753 -0.1632726 0.05964541
0002b0 ad da 35 3e f6 17 c2 bc 05 95 cb bd 9d b9 ae 3d
       0.177592 -0.023693066 -0.099405326 0.08531497
0002c0 bf 81 d9 3d 18 d3 4e bc ab 76 19 be 5a 73 7c 3c
       0.1062045 -0.012623571 -0.14986674 0.015408361
0002d0 06 97 f6 bd 50 7e 1a be d2 3c d2 3d a1 59 ed 3d
       -0.12040524 -0.15087247 0.10265507 0.11589361
0002e0 bd 55 91 3d 02 8f 16 be df 55 20 3e c5 14 07 3e
       0.070964314 -0.1470299 0.15657757 0.13191517
0002f0 3e 05 15 3e 6d 85 ca bb 0c bf 04 bd 76 49 24 be
       0.14552781 -0.0061804564 -0.03240876 -0.16043648
000300 b7 cf 07 3e c3 75 82 bb 7e 4b 30 be 2a 57 2f 3e
       0.1326283 -0.0039813234 -0.17216298 0.17123094
000310 df 5e cc bc ba ce cb 3d 79 99 94 bc bb 59 02 bd
       -0.024947582 0.09951539 -0.018139588 -0.031823855
000320 4c 0e 1b 3e 49 bd 19 3e 40 10 ac bd ef dc 14 3a
       0.15142173 0.15013613 -0.08401537 0.00056786736
000330 c0 0d f3 3d 84 d4 a5 3b f4 3f 11 bd 44 5e 24 3e
       0.11867857 0.005060734 -0.03546138 0.16051584
000340 9b 98 1a 3e 36 86 59 bd 1c 01 0e 3e 98 ca dd bc
       0.15097277 -0.05310651 0.1386761 -0.027074143
000350 ce d2 28 3c 36 2e 11 3e 30 9b ce bb 56 c1 4f bc
       0.010304166 0.14177784 -0.006305121 -0.012680372
000360 67 50 1d bd 0d 6e 15 be c4 b5 05 3e c4 18 11 be
       -0.038406756 -0.14592762 0.1305762 -0.14169604
000370 f7 41 04 be af 45 a3 3c 47 39 8d bc 0e 41 29 3c
       -0.12915789 0.019930689 -0.017239226 0.010330452
000380 71 28 79 3c 9d 8b 38 3e a0 bd 25 be 6e e7 de bd
       0.015207396 0.18022008 -0.16185617 -0.108839855
000390 d3 39 07 3d 53 06 27 be cb c7 05 be e7 5d 07 3e
       0.03301413 -0.16311006 -0.13064496 0.13219415
0003a0 99 18 85 3d a7 03 5d bd cd 92 26 3d c1 53 f5 3c
       0.06498832 -0.05395856 0.040667344 0.029947164
0003b0 0d d8 94 bc 44 a6 12 3e 18 e7 5d bb 7c 5a 03 3e
       -0.018169427 0.14321238 -0.0033859666 0.12827486
0003c0 e6 7f 12 be 39 00 9c bd 7e 4e 0b 3d 8c 53 ad 3d
       -0.14306602 -0.0761723 0.034010403 0.08463201
0003d0 5d ac 8a bd 1a 83 02 3e a9 3d 0f be 8b 4c 81 bd
       -0.06771157 0.12745324 -0.13988365 -0.063134275
0003e0 dc 19 08 3e e3 06 0b be 35 f2 30 be 9c cf 36 bd
       0.13291115 -0.13576846 -0.17279895 -0.044631585
0003f0 e0 59 0f be 8c 82 44 3d c0 bf f1 bc f3 bb 47 bd
       -0.13999128 0.04797606 -0.029510379 -0.048763227

critic.0.bias f4 [64]
000000 a1 07 13 3e 28 d9 17 be 1d 0d 0c be e3 0d ad bd
       0.14358379 -0.14828932 -0.13676877 -0.08449914
000010 f2 d6 0f 3c 0d bb f4 bc c0 85 09 be 1d 0d db 3c
       0.008779274 -0.029874349 -0.13429928 0.026739651
000020 65 0b 2d bd c1 a4 af bd 91 9b 5a ba 76 c4 65 3d
       -0.042247195 -0.08576346 -0.0008339221 0.056095563
000030 77 40 c3 3c c5 c2 e0 bd 5a fa fa 3d 9a e5 d6 3c
       0.02383445 -0.10974649 0.12254782 0.02623253
000040 9d 22 8f bd fa be 1f 3e 75 79 e5 3c 77 0d c4 3d
       -0.06989024 0.15600196 0.028012017 0.09572881
000050 42 ac f5 3d 20 d0 e9 ba 1d 6b 10 3e e2 71 8d 3b
       0.11995746 -0.0017838515 0.1410336 0.0043165544
000060 8e e8 07 3e 02 27 f8 3c e7 99 9f 3d 57 3a ad 3d
       0.13272306 0.030292038 0.077930264 0.08458393
000070 15 ef bc bd 53 9c 20 3e 16 f9 1d 3a 44 d4 89 3d
       -0.09225289 0.15684633 0.00060261914 0.067299396
000080 02 c6 0d be ad 67 8f bd a0 0f de 3d 89 f2 da bd
       -0.13845065 -0.070021965 0.10842824 -0.10690791
000090 3a ed d2 3c b5 a4 15 3e 70 2d 27 be f4 e5 0c 39
       0.025747884 0.14613612 -0.16325927 0.00013437105
0000a0 ee ea 08 3d f7 36 f3 3d c4 90 7e bd aa a3 2e be
       0.03342717 0.11875718 -0.062149778 -0.1705462
0000b0 82 ca e7 bd 64 d2 69 3d 1d e5 07 be cc 0a 17 be
       -0.11317922 0.05708541 -0.13270994 -0.14750212
0000c0 32 5a 12 bc 49 e0 47 3d 8e ee ec bd f0 32 8f bd
       -0.008932637 0.04879788 -0.11568938 -0.069921374
0000d0 d3 8e ca 3d 77 fe f4 bd b4 f4 11 be f6 7b 64 bd
       0.09890523 -0.11962598 -0.14253503 -0.05578228
0000e0 a9 f1 0c 3e 51 29 49 bd 0f 84 fb bd 4a bd 02 be
       0.13764061 -0.049111668 -0.122810476 -0.1276752
0000f0 0e e9 1f bd 99 36 fa 3d d3 28 91 3d 5d 69 6a bd
       -0.039040618 0.12217445 0.07087865 -0.05722939

critic.2.weight f4 [64, 64]
000000 41 1e cf bd 64 a3 a7 bd 41 e7 04 3d ef 44 cb 3d
       -0.10113192 -0.08185461 0.032447103 0.099252574
000010 18 a5 71 3d 88 65 ba bc 21 a6 8c 3d 02 72 84 3c
       0.058995336 -0.022753492 0.06867624 0.016167644
000020 d5 8e 41 3c fb 0d 59 3d 5d 44 db bc 89 32 ed 3c
       0.011813839 0.05299185 -0.026765997 0.028954761
000030 bf 72 a1 3b 41 91 35 3d c3 3e 08 bd 5f 17 9a 3d
       0.004927009 0.044327978 -0.03326298 0.07523989
000040 5a 3f f1 bd 1a 27 a8 3d 85 48 df bd 22 b1 a6 bd
       -0.117796615 0.08210583 -0.10902504 -0.08139254
000050 f9 56 a9 bd b4 41 9a bc 5f f5 93 bc dc 0d ec bd
       -0.08268542 -0.018830158 -0.018061338 -0.11526081
000060 e6 bc 75 3d 76 3c 14 3d 05 5f ef 3d 54 50 c1 bd
       0.0599946 0.036190473 0.116880454 -0.094391495
000070 8a 47 c4 bd 31 85 c5 3c 71 ec bd 3d 93 d4 a0 3d
       -0.095839575 0.024111362 0.09273613 0.07853045
000080 1f 63 35 3d 6d eb 80 3c 23 9d 64 3d 8b 47 38 bd
       0.044283982 0.01573726 0.05581392 -0.044990104
000090 bb e4 06 be f2 1c e3 bd ae 36 97 bd 56 1b b4 3c
       -0.13173191 -0.11089505 -0.07383476 0.021985691
0000a0 d8 17 f1 3d 9d 31 9a 3d d1 eb 9b bd e5 aa f4 3c
       0.11772126 0.07528994 -0.07613338 0.029866645
0000b0 7d d6 d4 3d 35 a1 08 3c 26 ab 83 bc a9 67 7e bd
       0.10392473 0.008339216 -0.01607282 -0.062110577
0000c0 51 7e 7d bc 13 bd b2 3d b6 77 30 bd 99 29 70 bc
       -0.015472011 0.08727469 -0.043082915 -0.014658355
0000d0 7a ef 5f 3d 50 e0 27 bd 75 d4 79 bd 45 c6 df 3c
       0.054671742 -0.040985405 -0.06099363 0.027316222
0000e0 9a 24 b3 3d fa 4d 01 3c 0c 7d c2 39 15 72 be bd
       0.087472156 0.007892126 0.0003709573 -0.09299103
0000f0 5c 17 8e 3d cd 0d 29 3b 26 b9 41 bd 15 92 eb bd
       0.06938049 0.002579558 -0.047295712 -0.11502472
000100 6a 33 5b bd 3d de b5 bd a9 5f d0 3c 1b 3b bc 3d
       -0.05351583 -0.08880279 0.02543624 0.09190961
000110 91 c9 c4 bc f4 80 8b 3d cf fc a9 bc e9 6a 65 bd
       -0.024021896 0.06811705 -0.020750431 -0.05601016
000120 92 b7 ef bd 01 12 a6 bd ad 0a bb 3d 40 ea a6 3d
       -0.11704935 -0.08108903 0.091328956 0.081501484
000130 13 e9 f6 3d b1 74 42 bc 31 a8 29 3d ac 65 72 bc
       0.12056174 -0.011868642 0.041420165 -0.014794748
000140 d0 9f fe 3d 6e 68 c5 bd 11 ab 09 bd 7c c4 f3 bd
       0.124328256 -0.09639059 -0.033610407 -0.11902711
000150 66 2a 14 3c 9a 44 cb bd 08 95 b3 bd ee cf ea 3c
       0.009043312 -0.09925194 -0.0876866 0.028663602
000160 9b 6e f9 3d c8 47 cf 3d 20 13 aa 3d d3 42 ee bc
       0.121792994 0.10121113 0.08304429 -0.029084599
000170 e1 09 7a bb cd 25 ea bd f5 ac a6 3d 91 8c 0d 3d
       -0.003815286 -0.11432991 0.08138458 0.034557883
000180 69 dc d6 3d 45 29 f7 bd c3 5e ff bc 25 c6 ab bd
       0.10491259 -0.120684184 -0.031173116 -0.083874024
000190 26 65 c4 bd 50 55 9e bd 83 a0 20 3d 50 85 a3 3d
       -0.09589605 -0.07731116 0.039215576 0.07984412
0001a0 f5 16 65 3d d2 cf 2f bd 42 32 5f 3d c9 1c 01 3e
       0.055930097 -0.042922802 0.05449129 0.12608637
0001b0 cd 26 b9 3b f1 ab 34 bd 49 61 c7 bd 1c 8b b4 3d
       0.0056503774 -0.04410929 -0.097353525 0.088155955
0001c0 43 56 ef bc ba 71 cf bd b0 65 84 3d 0a 7b b5 3c
       -0.029215937 -0.101291135 0.06464708 0.022153396
0001d0 31 cd 4d bd b4 12 ed bd 26 94 9f 3c c1 2a 19 bd
       -0.050244514 -0.11575833 0.019479822 -0.03739429
0001e0 95 96 a2 bc 2c 93 3f bd c0 d1 d0 3d 79 ab 8d 3d
       -0.019847194 -0.046771213 0.10196257 0.069174714
0001f0 a9 6a cb 3d a7 53 4b 3d 58 21 22 3d 72 cc fd 3d
       0.09932453 0.049640324 0.03958258 0.123925105
000200 87 d1 ce 3b ef cd 8a 3d 86 97 5a 3d 5f cf fb bd
       0.0063115987 0.0677756 0.05336716 -0.12295412
000210 7a 0e a9 3d ac 27 a2 bc f9 73 a9 bd 94 4a b6 3d
       0.08254714 -0.019794308 -0.08274073 0.089009434
000220 e5 bf d4 bd 26 d2 64 3d f5 aa c9 bd 84 df 29 bd
       -0.103881635 0.055864476 -0.098470606 -0.041472927
000230 68 aa f6 bd b1 36 bf 3d 96 c0 e4 3c aa 23 cb 3d
       -0.12044221 0.093366034 0.027923863 0.09918912
000240 7f b6 14 3d da f4 71 bd 43 6b 90 3c 10 13 ac 3d
       0.036306854 -0.0590714 0.017629271 0.084020734
000250 79 91 cf bd 48 84 b1 bd 90 1a 10 bd 14 60 9a bd
       -0.101351686 -0.08667809 -0.035181582 -0.07537857
000260 b7 a2 e1 bc ea 83 f9 3d b0 43 85 3d 6d 0d d5 bd
       -0.027543409 0.12183364 0.06507051 -0.104029514
000270 c6 5c 82 bd 3e 17 c6 3d c6 73 57 bc 26 a5 46 bd
       -0.063653514 0.09672402 -0.013150161 -0.04849734
000280 fe c9 a7 3c 73 f3 ab bc 8c 04 1d 3d 1c fb 8a 3b
       0.02048206 -0.02099011 0.038334414 0.0042413604
000290 ba d5 88 3d 8d 51 83 3d 2c 67 42 3d 86 b2 11 3d
       0.0668139 0.06412039 0.047461674 0.035570644
0002a0 1f 34 f0 bc 3f 96 f1 bd e7 e5 30 bc 6b 22 c9 bd
       -0.029321728 -0.11796235 -0.0107970005 -0.09821018
0002b0 44 04 d4 bd 01 c1 d7 bd cc 63 d4 bc 67 db b8 bd
       -0.10352376 -0.105348594 -0.025926493 -0.09026223
0002c0 7a 23 8f 3c e1 a9 4c 3d 04 df 86 3d 89 14 f2 bd
       0.017472971 0.049966697 0.065855056 -0.11820323
0002d0 a0 c8 d0 3d bd 66 35 3d 4d 9e cd 3d a9 1a 80 3d
       0.10194516 0.044287432 0.10039959 0.06255085
0002e0 ea 80 a8 3c 9d 8b e8 bc c1 7a da 3d 2d 01 9e bd
       0.020569284 -0.028386885 0.10667945 -0.07715068
0002f0 82 78 c2 3d d0 e8 d8 3d 4d 67 d4 3c 15 51 60 bd
       0.09495641 0.105912805 0.025928164 -0.054764826
000300 e2 45 dc bd 11 fe a2 bb 2a 3b d9 3d 8f cd cb 3b
       -0.107555166 -0.0049741347 0.10606988 0.006219573
000310 44 98 03 bd 6e 77 5b bd 75 09 a3 3b 44 91 85 3d
       -0.032127634 -0.053580694 0.0049754926 0.06521848
000320 b5 fd dc 3c 2c 04 ad 3c 94 b2 b3 bd 80 4f 82 3d
       0.026976446 0.021120153 -0.087742954 0.0636282
000330 cf 1a 60 3c ad 26 ff bd 35 77 d6 3d 0d 5f a2 3d
       0.013678267 -0.12458549 0.10471956 0.07928286
000340 97 9d b4 b9 d3 c7 e6 bc c0 cf e5 3d 2a 67 fc 3d
       -0.0003444969 -0.028171455 0.11221266 0.123243645
000350 c1 7d c8 3c 8c 1c f1 3d c4 fa 5a 3d c9 34 73 3d
       0.024474027 0.11773023 0.053461805 0.05937651
000360 bf 7e 92 bb 3b d0 2b bc 4b 6b a9 3d 4e 40 62 bd
       -0.0044706757 -0.010486658 0.08272418 -0.055237107
000370 88 8a b8 bd 63 cb a1 3d c0 9c d9 bc 49 3b b4 3d
       -0.09010798 0.07900121 -0.026564002 0.0880037
000380 cd 59 9b bc 0b d0 9c bd b6 3a 4b ba f5 26 4b bc
       -0.018963719 -0.076568685 -0.0007752584 -0.012399425
000390 c1 9d fc 3c 76 ff bd bd 59 61 da bd b3 0f 22 3c
       0.030836942 -0.09277241 -0.10663099 0.009891438
0003a0 30 f4 e6 3d 1a 79 a1 bd 30 93 80 bd 78 8f 35 3c
       0.11277044 -0.078844264 -0.06278074 0.011081569
0003b0 8c 5b c1 3d 6d 36 be 3d fc 20 e8 bc ef c2 d6 bb
       0.09441289 0.09287725 -0.02833604 -0.0065539996
0003c0 96 4d c7 bd 42 93 00 3e d2 f9 ab 3d 41 f8 05 3d
       -0.09731595 0.12556174 0.08397259 0.032707456
0003d0 f2 c3 f7 bd f3 1a 81 3d 54 16 95 bd 2d 34 a6 3b
       -0.120979205 0.06303968 -0.072796494 0.005072138
0003e0 11 67 71 3d 32 a5 1c ba 6f d8 76 bd ec 60 a7 3d
       0.058936182 -0.0005975544 -0.060265 0.08172783
0003f0 32 fd ac 3d 9b 79 5e 3c fd eb a7 bd 05 8e 85 bd
       0.08446731 0.013578798 -0.08199308 -0.06521229

critic.2.bias f4 [64]
000000 a0 89 c9 3d 5b 6e c6 bd 3a 22 3d bd 5f 8f 9f bd
       0.09840703 -0.096890174 -0.04617522 -0.07791018
000010 ec 76 d7 3d 3a 71 61 bc 88 f8 7f bd 86 31 ce 3d
       0.105207294 -0.0137599055 -0.062492877 0.100680396
000020 31 47 f4 3d cb f0 80 3d 3a 28 c0 3d 6d 6a ec bd
       0.11927641 0.062959276 0.093826726 -0.115437366
000030 38 bb e0 bd 1e e5 8b 3d fa 25 cb bc 76 4c 65 3d
       -0.10973209 0.0683081 -0.024798382 0.055981122
000040 bd 80 de 3d 5a aa 02 bd 59 a8 81 bd a3 9d e9 3d
       0.10864399 -0.03190074 -0.06330938 0.1140702
000050 4c 23 69 bd a0 ca 8b bd 1a ff c6 3d 0c c8 21 bb
       -0.056918427 -0.06825757 0.097166255 -0.0024685888
000060 db df 82 bd 7c 43 41 3d 9d bc 87 bd ba 3e d6 3a
       -0.06390353 0.0471835 -0.06627772 0.0016345598
000070 9f 24 c3 bd 2d a9 e0 bc 6c e8 bf 3d c4 0b 71 3c
       -0.09528469 -0.02742442 0.09370503 0.014712278
000080 3c a4 63 bc 20 a2 c7 3d e9 85 90 3d 61 d2 95 3d
       -0.013894137 0.0974772 0.07056791 0.07315517
000090 c2 97 64 3d 59 e4 22 bd 1a 03 e2 bd 24 3a 9e bd
       0.05580879 -0.03976855 -0.11035748 -0.07725933
0000a0 c3 ee 9e bd 50 41 02 3d 98 78 c6 3d c7 8f f2 3d
       -0.07760384 0.031800568 0.0969097 0.118438296
0000b0 6b b1 c6 3d 17 59 6d 3c b4 4d aa 3d bb f2 47 3b
       0.097018085 0.014486573 0.08315602 0.003050967
0000c0 95 d2 79 3d f8 9d a3 bd 75 16 fc 3d e5 af 5f 3d
       0.060991842 -0.079891145 0.12308971 0.054611105
0000d0 76 33 4d bb 84 71 3e bd 54 ae ca 3c c1 3a 90 bc
       -0.003131119 -0.046494976 0.02474133 -0.017606141
0000e0 99 7e 9a bd b6 ac a3 bd 2d af 3f bd 17 94 fe 3c
       -0.07543678 -0.07991926 -0.04679792 0.031076474
0000f0 1f 8a ab bd 18 da 86 3d 7d 0f 94 bd b0 69 93 3d
       -0.08375954 0.06584567 -0.07229517 0.07197893

critic.4.weight f4 [1, 64]
000000 8f 6d 93 3a c3 5c 5d 3a e9 00 4c 3c d2 91 1f bb
       0.0011247861 0.00084443035 0.012451389 -0.002434839
000010 79 26 6d 3d c0 ce 40 bc d3 e2 48 bd fc 2a 2c 3c
       0.05789802 -0.011768043 -0.04904444 0.010508295
000020 d1 c7 9b bd ee 8f 3a 3d 7e 4c f5 3b 76 6e 89 3d
       -0.07606471 0.04554742 0.007485925 0.06710522
000030 6b 99 91 bc 1b 9d b6 bb 5a 9a 6b bd c5 df 6b bd
       -0.01777335 -0.0055729277 -0.057520248 -0.05758645
000040 6f e0 0d ba a9 f7 84 3d 93 e3 23 bd 1f e3 c1 3d
       -0.00054121664 0.0649255 -0.040011954 0.09467148
000050 9b ac 22 bd 63 44 a6 bc 40 15 c2 3d 88 88 ca bc
       -0.03971539 -0.020296281 0.09476709 -0.024723306
000060 a6 6e 91 3d c4 34 53 bc bf e1 9a 3d cf 86 8c 3c
       0.07101183 -0.012890998 0.07562589 0.017154125
000070 8e 06 63 bd 7a 82 a8 bd 28 c8 8a 3d 59 cd e8 3c
       -0.055426173 -0.082280114 0.06776458 0.02841823
000080 c2 36 84 bc 94 87 d8 bc 85 9b 60 bd 4e 4c b5 bd
       -0.016139392 -0.026431836 -0.054835815 -0.088524446
000090 6d d7 ad 3c 00 b0 cf bd 11 34 36 bb 70 90 a8 3d
       0.021220887 -0.10140991 -0.002780203 0.08230674
0000a0 c4 63 71 3d ab 81 85 3d bb 34 a4 3c ef 94 94 bd
       0.058933035 0.06518873 0.020044675 -0.07254969
0000b0 ae f0 7c 3d 7a 43 c5 3d 6e 25 57 3d a3 66 b1 3d
       0.061752968 0.09632011 0.05252593 0.086621545
0000c0 18 22 d1 bd f1 73 e0 bd df 30 f4 bc 1a be fa 3c
       -0.10211581 -0.10959614 -0.02980846 0.030608226
0000d0 f4 24 93 3d 61 24 0f bd 92 30 67 bd 43 48 99 3d
       0.071847826 -0.034946803 -0.056442805 0.07484486
0000e0 c1 fd 0d 3b 76 53 2c 3c 40 4b e5 bd 04 0f 5e bc
       0.0021666142 0.0105179455 -0.111959934 -0.013553385
0000f0 34 3b 6a 3d e7 71 f0 3d af 54 00 3c e8 14 a4 3d
       0.057185367 0.11740475 0.00783269 0.080118

exp_avg f4 [7]
000000 01 dc 8f bc 12 68 98 bd dd e2 81 bd 80 1e b4 bb
       -0.01756096 -0.07441725 -0.06342099 -0.0054968
000010 a4 f5 75 3d 1a 9a 51 3d 63 5f 94 bd
       0.060048714 0.051172353 -0.07244756

exp_avg_sq f4 [7]
000000 5c 4e 3d 39 9f fd 80 3a c7 00 ef 39 64 69 8b 38
       0.00018053636 0.000984121 0.00045586211 6.647667e-05
000010 cf 82 eb 39 24 41 a1 39 f1 ae b5 39
       0.00044920153 0.00030756847 0.00034653352
